python/rlgpu/saved_nn/241001162237286415/Aliengo.pth (torch, 539546 bytes, 18 tensors)

running_mean f8 [376]
0	0x3f6b52d5083f082f	0.0033353958878885796
1	0x3f77258917786fb8	0.005651031031017988
2	0x3f7759482952b8c7	0.005700380211392359
3	0x3f7b387f46aee5f7	0.006645676777162538
4	0x3fdd973ef6d53d1d	0.4623563204267656
5	0x3fdc903e50567da8	0.4463039192723621
6	0x3fe591f30b1c8dfa	0.674066087438802
7	0x3fe62733a60d646d	0.6922853701791049
8	0x3fa7878b183abe0a	0.04595598860521129
9	0x3fbc012d0eb31227	0.10939294442057045
10	0xbfd20004aa17ab57	-0.2812511120852625
11	0x3faffd49f670880f	0.06247931607528311
12	0xbfb8a0faaf567458	-0.09620634823518637
13	0xbfd1c0b426ec5e02	-0.27738670159439505
14	0x3facba1053c9571e	0.056107053974001384
15	0x3fbbd9fed147cb5d	0.10879509553323659
16	0xbfd2fa8794a4d23f	-0.29654111400603606
17	0x3fabcd0f0b591ce1	0.05429884923483442
18	0xbfb637da43bb8e6e	-0.08678974298123318
19	0xbfd30e079ff96722	-0.2977313101051654
20	0xbf9b534155107d88	-0.026684780899925126
21	0xbf9804fcd8d1469a	-0.023456526502121912
22	0x3fbb210fcc870544	0.10597323172898593
23	0xbf9bc5cb6c1cfd49	-0.02712171409006928
24	0x3f91262a313175bc	0.016747149708285156
25	0x3fb93fc8585c1084	0.09862949521272141
26	0xbf788081aa716751	-0.005981928355220338
27	0xbf84339897fb3bb7	-0.009864036691764484
28	0x3fb14a5965bbede4	0.06754072889082569
29	0xbf8301c554884626	-0.009280721323224727
30	0x3f7bd88c83cea83d	0.00679831398603353
31	0x3fae5810b42f1c6d	0.05926563453208975
32	0x3fde264d865b1fa2	0.4710878192968214
33	0x3fe0ecd92f8f3ae8	0.5289121559997882
34	0x3fe0ecd92f8f3ae8	0.5289121559997882
35	0x3fde264d865b1fa2	0.4710878192968214
36	0x3fa20fb48f915f56	0.03527607204949727
37	0xbf70a8f2fcdc60bd	-0.004067372485018148
38	0x3f8e6974627eae44	0.014849576240371871
39	0x3f73b51f1207448a	0.00481140267261638
40	0x3f958c8a35d81280	0.021043929611567425
41	0x3f61eb83b40d3f1a	0.002187497361241142
42	0x3f94eb11c952524c	0.02042796889561975
43	0x3f1c36c4e1aa8f3c	0.00010762764615407106
44	0x3f99e311228268b1	0.025280254107749204
45	0x3f2b4ea0f3e20f22	0.00020833697084665046
46	0x3f96117b0b464551	0.02155105835260446
47	0x3f3d4daccf3d2b88	0.00044713467581363646
48	0xbfc270d8f967ca6e	-0.14406883409499777
49	0x3fc3f56655d4635d	0.15592650595570037
50	0xbfd093edac1c796e	-0.25902883346306893
51	0x3fc757b23d11be0c	0.18236377698802675
52	0x3fcce3d7b92306f9	0.22570320644268074
53	0xbfc0824aca4c80b1	-0.1289762008464144
54	0xbfa7a24da650a546	-0.04616015105450315
55	0xbfc2fdc4b36c5e48	-0.14836939583686815
56	0xbfcb5eb83f3f4ba5	-0.21382811630482226
57	0x3fb15aa606373a10	0.06778943683387006
58	0xbfc6fda0b78cead1	-0.1796151062242957
59	0xbfc197e52b1e9476	-0.13744797330324204
60	0xbfdcea9ddd0be415	-0.45181986414496694
61	0x3fe5bea914ae4c9a	0.6795239833758331
62	0x3fef2bcd522fc1ed	0.9740969281393156
63	0x3fcd0d449b865489	0.22696740716915922
64	0x3fd5c47785b7bacf	0.34011638697022034
65	0x3fcd4f081bc32a23	0.2289743552740485
66	0x3fcb87c4030107b5	0.21508073946648457
67	0xbfca412607288c03	-0.20511317586451136
68	0x3fd12e756f03af2d	0.268460615551464
69	0xbfb18925763007b3	-0.06849893699111824
70	0x3fd36e1e6f3cea99	0.3035961233432914
71	0xbfbeb8ba9023bb54	-0.12000623721153875
72	0x3fb6ab6e8def2728	0.08855334248724189
73	0xbfae16e0771ec417	-0.05876828626731639
74	0xbfcba4cd2f1826ea	-0.21596684264687066
75	0xbfdce66f66a53524	-0.45156464599570456
76	0x3fe5b87108bbf895	0.6787648363677073
77	0x3fef259f85843ec5	0.9733426673646696
78	0x3fcd08007d5852b2	0.22680669899331957
79	0x3fd5c02bafcdb205	0.3398541657286674
80	0x3fcd4bb7e8b5d06a	0.2288732420234994
81	0x3fcb83a1f916cdbc	0.2149546114211328
82	0xbfca3eaba16d560c	-0.20503754980261168
83	0x3fd12d3377a72903	0.26838385281429583
84	0xbfb18a5bf46538e6	-0.06851744381603772
85	0x3fd36bd4e18e7e12	0.3034565165234834
86	0xbfbebaac6d4347b2	-0.12003591220425738
87	0x3fb6a615247f0a7e	0.08847171917936156
88	0xbfae12def3249196	-0.05873772352268529
89	0xbfcba3a2900a62d2	-0.21593124421339965
90	0x3fc1fdb73e92dd3e	0.14055529170375708
91	0x3fc235fd4195c3ba	0.14227262213128516
92	0x3fc24b6f71387470	0.14292710331293135
93	0x3fc25c6ace6726de	0.14344534948604964
94	0x3fc26b5ab932f315	0.1439011959354494
95	0x3fc263c9802e97cd	0.1436702609909716
96	0x3fc2520ec35248a2	0.14312920128992795
97	0x3fc2503cb428cdaa	0.14307364270062567
98	0x3fc25cba06b73483	0.14345479324257235
99	0x3fc24f311cc3794c	0.14304174332114383
100	0x3fc238b816b8d4d5	0.14235592946503198
101	0x3fc27dfed5bb5140	0.14447007595175343
102	0x3fc27467846a0492	0.144177379279459
103	0x3fc2945ca1ee2e4b	0.14515264422185434
104	0x3fc2b26c4ae164f0	0.14607003837844657
105	0x3fc163adf8f867c9	0.13585447937731335
106	0x3fc14202544d17dd	0.13482693783060898
107	0x3fc10edd18061424	0.13326610253366866
108	0x3fc20c3cf6c23f2b	0.1409984784008825
109	0x3fc1faa123b90d5d	0.14046110386162072
110	0x3fc2214b44ff696e	0.14164105290440027
111	0x3fc322b7e8b31eae	0.14949702131547354
112	0x3fc315c87b9ed72f	0.1491022685638028
113	0x3fc32d00f39c7670	0.1498109044559217
114	0x3fc36fa97e93aefa	0.151845156483766
115	0x3fc1fe8ac04de248	0.14058050527434518
116	0x3fc1bae90a355769	0.13851655004935573
117	0x3fc17e70e3db7f72	0.13667117238855614
118	0x3fc2bb746faef416	0.14634566739360427
119	0x3fc29848318dcc06	0.14527227801917791
120	0x3fc29c7b75e09043	0.14540045982096403
121	0x3fc3c173bb72f946	0.15434118893422005
122	0x3fc3a8145507f60f	0.15356687690648171
123	0x3fc3a50e350e2f6f	0.15347459402652983
124	0x3fc33d0e5beaee44	0.15030078399819236
125	0x3fc2b22b79c1d1d1	0.14606231160327224
126	0x3fc2498e54513b81	0.1428697501855503
127	0x3fc242e50fb3db39	0.1426664663956332
128	0x3fc2c7e2142702d8	0.14672494873050002
129	0x3fc3519e70f51743	0.1509283114957559
130	0x3fc33fe1c39f8887	0.15038702060616435
131	0x3fc45a85f2e153eb	0.15901254996666067
132	0x3fc43031e8d97203	0.15772079343413745
133	0x3fc44b8990f30a1d	0.1585552175293551
134	0x3fc3d512a4c1ebb9	0.1549399666290279
135	0x3fc34ee4e10df7b8	0.15084515561096423
136	0x3fc3045d99f4f40c	0.14857072846817265
137	0x3fc3174a16a1125c	0.14914823632183782
138	0x3fc3bb29097e7369	0.15414917911121087
139	0x3fc44bd916130083	0.15856469705432027
140	0x3fc3edeb1b172c16	0.1556981928136742
141	0x3fc4db8334fae9dc	0.16294899069710211
142	0x3fc498d08dfc4f57	0.16091353352441715
143	0x3fc4ecb9eba10332	0.1634743118793494
144	0x3fc4828252207eb4	0.1602328206072251
145	0x3fc3d3e90d8fe3a7	0.15490449106417012
146	0x3fc3d926336744d4	0.15506436834269854
147	0x3fc3e97299657c99	0.155561756992914
148	0x3fc4d3a35c7605fb	0.16270868315409345
149	0x3fc55297aacd672c	0.16658302154501692
150	0x3fc497ea5b01125e	0.16088609164775652
151	0x3fc5131e00fd85f2	0.16464591072421758
152	0x3fc53185564d9d22	0.16557375635168464
153	0x3fc51ca0631a74e0	0.16493611182241974
154	0x3fc4ebaf6964f930	0.16344254156315108
155	0x3fc490e25c9b768e	0.16067151567306265
156	0x3fc4e0c0fdd6dc27	0.16310894388672745
157	0x3fc4f6bbac0dcdf3	0.16377969647474763
158	0x3fc66accab96ecd0	0.17513426187892955
159	0x3fc6c98af4b26cfe	0.17802559803099166
160	0x3fc56df7c7bde6de	0.16741845372216962
161	0x3fc1ca4e060f9da2	0.13898635192820757
162	0x3fc2117933682ce9	0.1411582470903803
163	0x3fc22a63f2f6a666	0.14191865313960078
164	0x3fc24d89b3141d6f	0.1429912685782528
165	0x3fc271407ec144c4	0.14408117474753201
166	0x3fc26ae798c3078a	0.1438874717624084
167	0x3fc254c884be05dc	0.1432123802333497
168	0x3fc243f592647adc	0.1426989521796348
169	0x3fc22cbccf631186	0.14199028135602648
170	0x3fc209892843c214	0.14091600862549625
171	0x3fc203e641a568b8	0.14074400143983268
172	0x3fc25e3720730020	0.14350022396502116
173	0x3fc24cb80f1b7fe3	0.14296627748171806
174	0x3fc25638a744ac8e	0.14325626532931718
175	0x3fc291ab82c6417f	0.1450704945132308
176	0x3fc1ca23cf59f026	0.13898131966186716
177	0x3fc1b8bc77b4e8be	0.13845020146420056
178	0x3fc1a271771c9dab	0.13776987377171443
179	0x3fc277b5f37dbc10	0.14427828206268645
180	0x3fc243050c5b5967	0.14267027953492148
181	0x3fc23018b95d09f6	0.14209279108952416
182	0x3fc317c8bb0fd386	0.1491633332622337
183	0x3fc2ea0702e39d8d	0.1477669490916295
184	0x3fc34f2c1b449154	0.1508536465781939
185	0x3fc3a0bdc2dd088f	0.1533429337960723
186	0x3fc270dc47115300	0.14406922788716514
187	0x3fc254e6dbee8061	0.14321599711275027
188	0x3fc2519de318c52c	0.14311574543675343
189	0x3fc33b746284a19b	0.15025191126302392
190	0x3fc3003be42b8feb	0.14844463959809615
191	0x3fc2e514cebdede7	0.1476160058481206
192	0x3fc3dd238132fddb	0.15518611725381856
193	0x3fc3b99de1f55e8e	0.15410207303169837
194	0x3fc413597cae5db8	0.1568405016703147
195	0x3fc4048576e9a8e8	0.15638798052106684
196	0x3fc3570e98115a18	0.15109426903900736
197	0x3fc3260fa1287984	0.14959903115318351
198	0x3fc33046894b6e36	0.14991075233307222
199	0x3fc3344b58cbf4ba	0.15003339610840333
200	0x3fc3811c3df38a07	0.15237763428656612
201	0x3fc3ba36a7710b81	0.15412028480394827
202	0x3fc48e2d52e5e36c	0.16058889911416985
203	0x3fc47858c3a39345	0.15992269089397318
204	0x3fc50d96ae786f1d	0.16447719115318984
205	0x3fc501c4ca09b392	0.16411647668010382
206	0x3fc445fac2ba81b2	0.158385605890556
207	0x3fc3e2d15b396487	0.15535942987733994
208	0x3fc3f8e4224dd90c	0.15603305506710574
209	0x3fc3c57e24268184	0.1544645000949566
210	0x3fc42132f6c76770	0.15726315545799308
211	0x3fc47049107cd3c4	0.15967667870577718
212	0x3fc528fd44ff6c57	0.16531339520483598
213	0x3fc4fb916396e0f3	0.16392724383127408
214	0x3fc622c3f4ac8a2a	0.1729359574029144
215	0x3fc629a0746e58ee	0.17314534840688317
216	0x3fc4ea788409f143	0.1634054798813712
217	0x3fc4a3eff0544ef4	0.1612529681666427
218	0x3fc478569baf3bcb	0.1599224338701489
219	0x3fc479916cd1ea41	0.15995996297336215
220	0x3fc4c37c35f090cd	0.16221573480391385
221	0x3fc508a1fdd539b9	0.16432595152077825
222	0x3fc5c389dbfc4c2f	0.17002986184579202
223	0x3fc5b048e6ce61e2	0.16944228429635105
224	0x3fc782b745522aa3	0.1836766327363267
225	0x3fc79be149bdc32b	0.18444458103797365
226	0x3fc5c84ee51b1601	0.17017542063528882
227	0x3fc5bb57409febd3	0.16977968841078325
228	0x3fc529e5e1bb1f53	0.16534112474459536
229	0x3fc4f88c9bed2869	0.16383512128442426
230	0x3fc53c23dc4d6648	0.16589782959890642
231	0x3fc5ba921c37627c	0.16975618722678465
232	0x3fbfd47338aca742	0.12433548101094252
233	0x3fc04b7e628f743b	0.1273038846256059
234	0x3fc08691b4bd6318	0.12910672497925968
235	0x3fc0ad6463c7b4d6	0.13029150840831133
236	0x3fc0cdea1c3856e8	0.13128401163037684
237	0x3fc0ec3d9c58ec36	0.13220949300907286
238	0x3fc0d5b8551447a1	0.1315222182680005
239	0x3fc0c4b85e34aa61	0.13100342368973641
240	0x3fc0d279db587cd5	0.13142321787106562
241	0x3fc0b90a649ca4ca	0.13064699089708248
242	0x3fc06e41e54f8dd9	0.12836478897871365
243	0x3fc05a7b92e1cf72	0.1277613131711593
244	0x3fc07c3defda1183	0.12879156314387438
245	0x3fc0e91af518e789	0.1321138092769696
246	0x3fc13baa5ff28ed3	0.1346333473676312
247	0x3fc114d8be18868f	0.1334486892892994
248	0x3fc0e1626d5c89e6	0.13187818851390815
249	0x3fc0bb113a86aecb	0.13070884092063859
250	0x3fc113e7e96b9814	0.13341998002505362
251	0x3fc0dfd8f3a0be5a	0.13183128257650162
252	0x3fc08d957dc7f6ba	0.12932079927116097
253	0x3fc10432c9c43aa1	0.1329406247318348
254	0x3fc1244948ef3465	0.13391986905336065
255	0x3fc1b2d8bbb23328	0.1382704655155973

running_var f8 [376]
0	0x3f92881da0e19c1f	0.018097365326323108
1	0x3ff4752ad3d526d5	1.2786052965843073
2	0x3fb20b820523b3fc	0.07048809648013327
3	0x4007922d6cae71e5	2.946375702928196
4	0x3fcfd195d97de2e6	0.2485835372897533
5	0x3fcfa18a5f49f526	0.2471173253324334
6	0x3fcc1f2e018b36d0	0.21970152926808462
7	0x3fcb4476acba6595	0.21302684244146222
8	0x3f7545a4ca38d508	0.005193370543158389
9	0x3f6222d7dd5f128a	0.0022138801677747443
10	0x3f67552cd10b2ead	0.002848231823326794
11	0x3f745d9bf1e5ee91	0.004972085151503728
12	0x3f5f1994479353ff	0.0018981884043587358
13	0x3f669400f34a456c	0.0027561205445826766
14	0x3f72275f298a8660	0.004432079055420951
15	0x3f632ac72fd1fe54	0.0023397341124676094
16	0x3f6168824350f30c	0.0021250290106124056
17	0x3f714d36b4dda698	0.004224027344983526
18	0x3f64ce830c4e676d	0.0025398788006442603
19	0x3f6146bee20bd464	0.0021089294608552123
20	0x3ffbe5cacd1e38f3	1.74360160946122
21	0x3fe2131a757b1fdf	0.5648319525289444
22	0x3fe23299783184a8	0.5686766955879152
23	0x3ff8aab8d0f9c4b3	1.5416801608192088
24	0x3fe0cb777f22618c	0.5248372538654151
25	0x3fe3da8809b44564	0.6204261960539665
26	0x3fee0b5b01f24536	0.9388861692442905
27	0x3fdce47c7d0534fe	0.4514456959630734
28	0x3fd33a77f8fa4ee1	0.30044364275202723
29	0x3fecde5294f01ad9	0.9021389874404476
30	0x3fdced02d2057936	0.4519660044660613
31	0x3fd41c4494760daa	0.3142253351035956
32	0x3fcfe4a0b93d79cb	0.24916466755799002
33	0x3fcfe4a0bc7880bd	0.2491646690623436
34	0x3fcfe4a0bc7880bd	0.2491646690623436
35	0x3fcfe4a0b93d79cb	0.24916466755799002
36	0x3f8e205247e640df	0.014710085696407691
37	0x3f84d5b2f93f5d5d	0.010173223716192831
38	0x3f8d49c3ec5b4dc6	0.014300852442295741
39	0x3f86281b632176a1	0.01081868549607218
40	0x3f83f2ab86e7295e	0.00974020009461601
41	0x3f7d9e9c266812b5	0.007231340371167396
42	0x3f83e19e57508df5	0.009707676925308365
43	0x3f7e46e8678117f7	0.0073918417256830715
44	0x3f9c8597193e4acb	0.027853356281023516
45	0x3f93afa5ac5fbe9b	0.019224728246568828
46	0x3f98cd8d67859999	0.024221620028947653
47	0x3f9187dfc7685ad3	0.017119881196857655
48	0x401565f6a7cbfac3	5.349573728394435
49	0x401ac259706ecf7e	6.689794308436715
50	0x400bae482d8e8838	3.4600986060259196
51	0x40171dffab82686b	5.779295615992036
52	0x401a6de2b3a1d5fc	6.607310110809973
53	0x400ad18929236d9d	3.3523123945175954
54	0x401340c3bb9b4609	4.813246661522052
55	0x40145abdb26b78d0	5.088614261445585
56	0x4002ebb911da5ba2	2.365099086261993
57	0x40133c55df7ce419	4.808921329496138
58	0x4012b6d31220c871	4.678539546252169
59	0x4003834848387d87	2.439102710937451
60	0x3fc133afadb5c9b7	0.13438983900011944
61	0x3fc5e008286b33e5	0.1708994099957685
62	0x3f90e53c610f233d	0.016499465393084767
63	0x3fdb7ad9c71b8712	0.4293732113275023
64	0x3fda3d245e817aac	0.4099818156154622
65	0x3fdc87b667c7b2e2	0.44578323492787153
66	0x3fdc2b82ab7002ff	0.44015566579768967
67	0x3fd76556db57d0ab	0.3655602590581661
68	0x3fdd9d2cee9c2918	0.4627182321716119
69	0x3fde9571b60ed530	0.47787134913535834
70	0x3fdd02bbe13a5707	0.4532918643466108
71	0x3fd7e815a27be099	0.37354031436508134
72	0x3fe1e3038372a385	0.5589616362895958
73	0x3fdcb4d7162987e6	0.44853760875969184
74	0x3fd76cbae2931c4f	0.3660113537447999
75	0x3fc131362dd2457c	0.13431431996700016
76	0x3fc5f696803c23d0	0.17158776532622122
77	0x3f919f8bef11131c	0.017210184542153603
78	0x3fdb7453b8cceed4	0.4289750389759608
79	0x3fda380c76ca533c	0.4096709404050676
80	0x3fdc813ff627a9fc	0.44538878477638355
81	0x3fdc24893a8c66e0	0.4397299834978252
82	0x3fd75ef41af0f8a6	0.36517050391183614
83	0x3fdd963ae4ba893c	0.4622943147352492
84	0x3fde8dbabcdae616	0.477400478771956
85	0x3fdcfc3a5832e56c	0.4528947697941337
86	0x3fd7e124867bb576	0.37311661847237276
87	0x3fe1df1b35272ecd	0.5584846532960569
88	0x3fdcada35656ba4f	0.44809802466889875
89	0x3fd76627b4b79fc9	0.3656100525681692
90	0x3fb40b49eec85ff4	0.07829725341468913
91	0x3fb466b4363ac417	0.07969213794673667
92	0x3fb484943ca59ea6	0.08014799576414564
93	0x3fb4a0d9fe5a82c3	0.08057939967921883
94	0x3fb4b63d7a3df79a	0.08090576395440366
95	0x3fb4adaf945c75c3	0.08077523586367534
96	0x3fb49faccff6d63f	0.08056144788027896
97	0x3fb48ce2c4a5c874	0.08027474690405417
98	0x3fb49b9aaaf13c30	0.08049933122059438
99	0x3fb488a34acc23a0	0.0802099282847295
100	0x3fb46583d0b62359	0.07967399449820557
101	0x3fb4fd0dc87a78da	0.08198629517071102
102	0x3fb4fb59b493eaab	0.0819603029121178
103	0x3fb51ecd8f2b8dd2	0.08250126595844812
104	0x3fb54c9973112685	0.08320006427052291
105	0x3fb37a8eeda07651	0.07608884145198515
106	0x3fb33c96d8403bb2	0.07514326839030508
107	0x3fb308862f733c7d	0.07434881838274694
108	0x3fb46f86d2ee18a8	0.0798267617193199
109	0x3fb45502378454a6	0.07942212920564148
110	0x3fb48c7f220e6802	0.0802688081879808
111	0x3fb607151733d890	0.0860455686232362
112	0x3fb608af70368e15	0.08607002725198527
113	0x3fb61adb01e7b230	0.08634728237638778
114	0x3fb684a53ce551ab	0.08796150910104099
115	0x3fb48494068c57b6	0.08014798316830149
116	0x3fb40fe3f2814fcf	0.07836746855292563
117	0x3fb3d948df7c169e	0.07753425079507756
118	0x3fb59a7c1a7d65ac	0.08438850065922193
119	0x3fb5604977f3a29f	0.08350047281750016
120	0x3fb569f3b786e7f1	0.08364794951094702
121	0x3fb706b70b0f50c1	0.08994621295943529
122	0x3fb6f792d8e8a51a	0.08971517367958307
123	0x3fb6f2b8c6a92ab7	0.08964114046208747
124	0x3fb669a56d20d879	0.0875495330263635
125	0x3fb5abf1d88e3145	0.08465491806982069
126	0x3fb5038a3c705b69	0.08208526588019328
127	0x3fb51d5c328651a6	0.08247925027382638
128	0x3fb5dbc87b0e793a	0.08538487438497536
129	0x3fb694d19ad862bb	0.0882082942047288
130	0x3fb6763de94131dd	0.08774172730154058
131	0x3fb7fdab27a7f540	0.09371442526022111
132	0x3fb7d2d82167d17b	0.0930609780842299
133	0x3fb7fd7544d94d59	0.09371121340637013
134	0x3fb75e9caf26a533	0.0912874152769703
135	0x3fb6aa2ad3bff5d3	0.08853404683755821
136	0x3fb634cc07118b99	0.08674311802455605
137	0x3fb66eedfb8f9baf	0.08763015166878917
138	0x3fb756817bd27eb6	0.09116372368816425
139	0x3fb817d195fe9925	0.0941134444425172
140	0x3fb78a88afc886d4	0.09195761005005504
141	0x3fb8d14f2ffa6e5e	0.09694380685180579
142	0x3fb87eb652acad5f	0.09568347471638593
143	0x3fb8fc42299098f8	0.09759915842787226
144	0x3fb86d91b5c3054d	0.09542189300102173
145	0x3fb77eaa549ec8d4	0.09177650991367453
146	0x3fb7866ff87f9bf1	0.09189510170800454
147	0x3fb7b37130a16047	0.09258181988968871
148	0x3fb8fb451696f2c4	0.09758407403473784
149	0x3fb9a245e6f0f7b9	0.10013234031882136
150	0x3fb8928b62305115	0.09598609111009566
151	0x3fb968075b0baeba	0.0992436024932272
152	0x3fb97d9ffaefab7f	0.09957313419697121
153	0x3fb9838f2012c4be	0.09966368229904085
154	0x3fb94284ac827734	0.09867123805676387
155	0x3fb8aab2414528be	0.09635461896428674
156	0x3fb93f65ceb1fc80	0.09862362190505003
157	0x3fb94e25d18f824a	0.09884868971085684
158	0x3fbb58ded2edbea7	0.10682480477930288
159	0x3fbbd3fbcf9ecda6	0.10870336359840013
160	0x3fb9e0640b5fca6c	0.10108018186273576
161	0x3fb31b205384f26f	0.07463266409917833
162	0x3fb38f93c0403e1c	0.07640956348063138
163	0x3fb3ad8ffd712e86	0.07686710298110641
164	0x3fb3e21c442dfed0	0.07766892113249502
165	0x3fb414c11df54b47	0.07844168645287396
166	0x3fb40c9b92ce7fa5	0.07831737836977355
167	0x3fb3fa69e6ddcfa6	0.0780397595061105
168	0x3fb3d8acd7d5f98a	0.07752495068959867
169	0x3fb3b6dc26df3f5a	0.07700897168183243
170	0x3fb3849f752ba635	0.07624241457565335
171	0x3fb37a04061ea0bb	0.07608056210904383
172	0x3fb434e0bdbc6faf	0.07893185264805312
173	0x3fb4309c8e181b3f	0.07886675328346103
174	0x3fb438c60e2def4f	0.078991297208572
175	0x3fb48e5906c54ee5	0.08029705443669462
176	0x3fb376c15b32da4e	0.07603081203965553
177	0x3fb342328c122e3e	0.07522884292318907
178	0x3fb32f5e1b742483	0.07494152231460487
179	0x3fb4555b94f5a264	0.07942745577532545
180	0x3fb4097d31635dd4	0.07826979118123428
181	0x3fb3ff1592596e38	0.07811102698308836
182	0x3fb55fa301fb29e4	0.08349055097929853
183	0x3fb53eda46751e88	0.08299030513910044
184	0x3fb5c56d58446742	0.08504374890290214
185	0x3fb63d7b2ff88503	0.08687562867318736
186	0x3fb49632aef00e75	0.08041683932247586
187	0x3fb4461e1a5c3b5b	0.07919490951119938
188	0x3fb456bf594e3c86	0.07944866113961
189	0x3fb5972f491f074e	0.08433814559159922
190	0x3fb53ec2c77e8ef8	0.08298890467136377
191	0x3fb52d6fc68a9036	0.08272455784987262
192	0x3fb697a16d0da53b	0.08825119888719694
193	0x3fb687ee85aa7a7a	0.08801165355041887
194	0x3fb704e8f645c358	0.08991867077362536
195	0x3fb6f6981bc66b66	0.08970022848226974
196	0x3fb6053a33e45ea9	0.08601726309677339
197	0x3fb596cc03de54bb	0.08433222860760996
198	0x3fb5ba0d866c0681	0.08487019092356186
199	0x3fb5b93df2010765	0.08485781820584533
200	0x3fb62795f5df1e22	0.0865415311119411
201	0x3fb67f01f31ff483	0.0878754824224917
202	0x3fb7af7bf01fe063	0.09252142536559087
203	0x3fb7af9a48ee8612	0.0925232341819753
204	0x3fb87e0df876de7f	0.09567344013236755
205	0x3fb873ff6f2b796b	0.0955199858103463
206	0x3fb775a8b7d3be17	0.09163908470122127
207	0x3fb6c5289ef001f0	0.08894590263663082
208	0x3fb6f40c478ae16b	0.08966137644427412
209	0x3fb6a48b99e38b2d	0.08844826228191201
210	0x3fb727a5dd94d58f	0.09044872913076162
211	0x3fb79afab18387ce	0.09220854600746906
212	0x3fb8a952dc437edd	0.09633367421656254
213	0x3fb87c3d03a6e5da	0.09564572657736595
214	0x3fba14220a2819b0	0.10186970470394985
215	0x3fba2318e17a4842	0.102098040626772
216	0x3fb872fa4aee90c4	0.09550442056076053
217	0x3fb7f48d1a421941	0.09357530489987644
218	0x3fb7bdb7361c9e14	0.09273858138168861
219	0x3fb7bd8bea38dd39	0.09273600071252454
220	0x3fb8268e51ed1b7d	0.09433831691886314
221	0x3fb88698b1406f00	0.0958037789100068
222	0x3fb9c500f6890411	0.10066228884626606
223	0x3fb997f417d87516	0.09997487623373433
224	0x3fbc1dc1159f123f	0.10982901361337215
225	0x3fbc4350adad2ec4	0.11040214767597961
226	0x3fb9c5a3077c4454	0.10067194874524549
227	0x3fb9c4c686638a5f	0.10065880566575335
228	0x3fb8d5e8cca391ed	0.09701399799411776
229	0x3fb8b1d39e3d7246	0.09646341908723696
230	0x3fb90da47571f28a	0.09786441676437554
231	0x3fb9a369e56b16e5	0.10014974452050358
232	0x3fb3a55caf1aef31	0.07674197459249112
233	0x3fb4464880eb91f0	0.07919743678537094
234	0x3fb49ac6a37012d7	0.08048669328861578
235	0x3fb4d8efb1209511	0.08143518518825867
236	0x3fb5086587452a2b	0.08215937187666415
237	0x3fb534d0069481b2	0.08283710632941313
238	0x3fb522bb50e7a0e5	0.08256121373381438
239	0x3fb4f51da6d3aa06	0.08186517069740526
240	0x3fb50b58bd3fe6a1	0.08220438595153691
241	0x3fb4e60626f69012	0.08163488818405565
242	0x3fb470aca9a7d68f	0.07984427587492803
243	0x3fb49d9237874419	0.08052934508965882
244	0x3fb4dd7840ffb20c	0.08150436007390044
245	0x3fb565101ec1c239	0.08357334853077071
246	0x3fb5de88fa017efc	0.085426865612586
247	0x3fb5c191ceddd970	0.08498488712743835
248	0x3fb567762fae2ff4	0.08360994972298369
249	0x3fb5533c0a501e67	0.08330130817204805
250	0x3fb5c4035b96277d	0.0850221727943374
251	0x3fb575f11619575a	0.08383089818502523
252	0x3fb507906d7f09ba	0.0821466700863657
253	0x3fb5bf502dcd0d5a	0.08495045774639234
254	0x3fb604f6b04b9df4	0.0860132389458313
255	0x3fb6b0af046c0087	0.08863347871738557

count f8 []
0	0x41ff6961c0100000	8432000001.0

running_mean f8 [1]
0	0x40715558176ee4b2	277.33400672261916

running_var f8 [1]
0	0x40c167acb809070d	8911.349366310542

count f8 []
0	0x41df6961c0400000	2108000001.0

a2c_network.sigma f4 [15]
0	0xc0210dce	-2.5164676
1	0xbffef4dd	-1.9918476
2	0xbfd5118c	-1.664598
3	0xbfb55f23	-1.4169658
4	0xbfb30601	-1.3986207
5	0xbfcf4b3e	-1.6194837
6	0xbfa0b617	-1.255557
7	0xbfc93978	-1.5720663
8	0xbfb91451	-1.4459325
9	0xbfb3fd58	-1.4061689
10	0xbfa7a9e1	-1.3098718
11	0xbfea32c0	-1.8296738
12	0xbfaa425e	-1.3301504
13	0xbfb7dac1	-1.4363633
14	0xbfeb4f70	-1.8383617

a2c_network.actor_mlp.0.weight f4 [128, 376]
0	0xbe518840	-0.20462132
1	0xbda82c94	-0.082116276
2	0x3e88ab6f	0.26693293
3	0xbd67e7be	-0.05661749
4	0x3cf0ce69	0.029395299
5	0x3e07a67d	0.13247104
6	0x3db5d1d7	0.088779144
7	0x3e0ad20d	0.1355669
8	0xbdd5c586	-0.10438065
9	0xbdd9314c	-0.10605106
10	0x3e5a7935	0.213353
11	0xbeb608a5	-0.3555347
12	0x3e146460	0.14491415
13	0x3e712d7a	0.23552504
14	0x3e7d288a	0.24722496
15	0x3d474dbb	0.048658114
16	0x3e235d11	0.15953471
17	0x3f08eace	0.53483284
18	0xbeeb09c8	-0.459059
19	0x3d7349f6	0.059396707
20	0xbca826bd	-0.020526284
21	0x3e5cdcdf	0.2156863
22	0xbd114dad	-0.035474468
23	0xbe0405c4	-0.12892824
24	0x3e5a0198	0.2128967
25	0x3e8f204f	0.27954337
26	0xbe60f541	-0.21968557
27	0xbd81e8a9	-0.063432045
28	0x3cbb927c	0.022896998
29	0x3cb760d7	0.022385044
30	0x3e1c62e9	0.15272106
31	0xbdae872e	-0.08521877
32	0x3e241653	0.16024141
33	0xbe19a707	-0.15005122
34	0xbe555822	-0.20834401
35	0x3e2f0f43	0.17095666
36	0x3f476690	0.7789087
37	0xbe84b1eb	-0.2591699
38	0xbf395662	-0.72397435
39	0xbf179837	-0.59216636
40	0xbd696188	-0.05697778
41	0x3edcb062	0.4310332
42	0x3fe2ff03	1.7734073
43	0x3fea98d7	1.8327893
44	0xbf0b2730	-0.5435667
45	0xbe25523f	-0.16144656
46	0xbce5d6fd	-0.028056616
47	0x3eb3ae8b	0.35094103
48	0x3e527872	0.20553759
49	0xbdccfc6f	-0.100090854
50	0x3e2da382	0.16956905
51	0xbd881f68	-0.06646615
52	0xbe239b14	-0.15977126
53	0x3d8bfb6f	0.068350665
54	0x3e4af110	0.1981852
55	0x3e94d80d	0.29071084
56	0xbe25332b	-0.161328
57	0x3ce2218c	0.027603887
58	0x3e05b3cd	0.1305687
59	0xbe6f9053	-0.23394899
60	0x3e9f26e2	0.31084353
61	0xbea358a8	-0.31903577
62	0xbe9c7f0e	-0.30565685
63	0xbe5eabba	-0.21745196
64	0x3d6d350e	0.057911925
65	0x3dd96a61	0.10615993
66	0xbd84313e	-0.06454705
67	0xbd97d0db	-0.07412883
68	0xbe64216a	-0.22278371
69	0x3e094efb	0.13409035
70	0xbc9c8d9b	-0.019110491
71	0x3d7da578	0.06192538
72	0xbd4b2413	-0.04959495
73	0xbd88df86	-0.06683259
74	0x3e4aa007	0.19787608
75	0xbdda8bbf	-0.10671186
76	0x3d1f6ca2	0.03892196
77	0xbddbc961	-0.10731769
78	0xbe210e67	-0.1572815
79	0x3e8c9747	0.27459165
80	0x3c89fb70	0.016843528
81	0xbd235129	-0.039872322
82	0xbdb65705	-0.089033164
83	0xbe2f055f	-0.17091893
84	0xbdff5dfa	-0.124690965
85	0x3c8a761e	0.016902026
86	0xbe383512	-0.17988995
87	0xbd8eb892	-0.06968798
88	0xbe940735	-0.2891175
89	0x3be7ce1a	0.00707413
90	0x3c3bbaf1	0.0114581445
91	0xbdddb9fc	-0.10826489
92	0xbd237d4e	-0.03991442
93	0x3cbe4099	0.023224162
94	0xbc8e04aa	-0.017336208
95	0xba1ed981	-0.0006059632
96	0xbe031814	-0.12802154
97	0xbe2ca545	-0.1685992
98	0xbca3ac9b	-0.019979766
99	0xbdddbf0b	-0.10827454
100	0xbd51263c	-0.051061854
101	0xbb2f83c4	-0.002678142
102	0xbe847421	-0.2586985
103	0x3cc657da	0.024211813
104	0xbe8866cd	-0.2664093
105	0x3d2470b4	0.040146545
106	0x3c33ccdd	0.010974136
107	0x3e1ca268	0.15296328
108	0xbe444838	-0.19168174
109	0x3d9e3af3	0.077260874
110	0x3d47a15e	0.048737876
111	0x3d8b93b9	0.06815285
112	0x3ccf997d	0.025341744
113	0x3da576f6	0.080793306
114	0xbdae9418	-0.085243404
115	0x3ddb9b3e	0.107229695
116	0x3d98cf82	0.07461454
117	0xbe314a96	-0.17313609
118	0xbda6bba6	-0.0814126
119	0x3d11087d	0.035408486
120	0xbdbc86d8	-0.09205407
121	0x3c679af5	0.014136066
122	0x3d8e1f56	0.069395706
123	0xbd47d7d5	-0.048789818
124	0xbdc603b4	-0.09668675
125	0xbcf8c714	-0.030368365
126	0x3db8cb09	0.09023101
127	0xbd453982	-0.048150547
128	0xbcc6cd90	-0.024267942
129	0xba8859ce	-0.001040274
130	0x3de15f5c	0.110045165
131	0x3ce4cc37	0.027929408
132	0x3d5ed39a	0.054401018
133	0xbde2588f	-0.110520475
134	0xbd197e21	-0.0374738
135	0xbdd356c8	-0.103192866
136	0x3da9ed09	0.08297164
137	0x3d78b1d6	0.060716473
138	0x3e46f0ee	0.19427845
139	0xbd8836ce	-0.06651078
140	0x3d8deccc	0.06929931
141	0x3d5e3813	0.054252695
142	0x3c484b2e	0.0122249555
143	0xbd2b358c	-0.041799113
144	0x3e0d8252	0.13819245
145	0xbe92ea9e	-0.28694624
146	0x3db23050	0.08700621
147	0xbe23b212	-0.15985897
148	0xbce997d3	-0.028514778
149	0x3cbe1c64	0.023206897
150	0xbddcd3d5	-0.10782591
151	0x3db04fdf	0.08608984
152	0x3cec2764	0.028827377
153	0x3c24bd89	0.010054954
154	0x3d85a721	0.06526018
155	0x3db716cf	0.08939897
156	0xbe75f8ec	-0.24020737
157	0x3d732be0	0.059368014
158	0x3d9c3545	0.07627348
159	0x3e72a720	0.23696566
160	0xbe2f070b	-0.1709253
161	0xbcb8d5ab	-0.022562822
162	0x3db2455b	0.08704635
163	0x3df059d5	0.11735884
164	0x3df763dd	0.12079594
165	0x3dfe9315	0.124303974
166	0xbd8175db	-0.06321307
167	0x3e2c12b1	0.16804005
168	0xbe2959ff	-0.16538237
169	0x3bf5ac09	0.007497315
170	0xbc3ed547	-0.011647529
171	0x3e2cf26c	0.16889352
172	0xbc331222	-0.010929616
173	0xbd171653	-0.036886524
174	0xbd269cc5	-0.04067685
175	0xbddfb9e4	-0.10924128
176	0x3d4c924c	0.049944207
177	0xbd63fa09	-0.055658374
178	0xbe01a2f5	-0.1265982
179	0xbcd4ea27	-0.025990559
180	0x3ca45cf2	0.020063851
181	0xbd80297c	-0.062579125
182	0xbd661528	-0.05617252
183	0x3d839257	0.064243965
184	0xbd83ac2e	-0.06429325
185	0xbdc13a76	-0.09434979
186	0xbcb30f76	-0.021857958
187	0x3bb19a38	0.0054199956
188	0xbd7ab478	-0.061207265
189	0x3d11178b	0.035422843
190	0x3dad3467	0.084572606
191	0x3c0166cd	0.007898045
192	0x3baa0b68	0.005189348
193	0xbbeb9ca7	-0.0071903053
194	0x3d9459fd	0.072437264
195	0x3e16e4a6	0.1473566
196	0xbce5ad75	-0.028036812
197	0xbd9b6e0e	-0.07589351
198	0xbd4b8231	-0.049684707
199	0xbe2df457	-0.1698774
200	0xbd9c01f6	-0.076175615
201	0x3c8e596b	0.017376622
202	0x3d49b9f8	0.04924962
203	0xbe0e19c1	-0.13877012
204	0xbde50f17	-0.11184519
205	0x3e358c9e	0.17729422
206	0xbdad077f	-0.084486954
207	0x3debf3ee	0.11521135
208	0x3daded4b	0.08492526
209	0xbd3b7422	-0.04576505
210	0x3cb8522a	0.022500116
211	0x3d99ae78	0.075039804
212	0xbd9c9120	-0.07644868
213	0x3cc22d36	0.023703199
214	0xbc24023d	-0.010010299
215	0x3de2d28f	0.11075317
216	0xbdd9913c	-0.106234044
217	0xbd42fa78	-0.047602147
218	0x3d6e2175	0.058137376
219	0xbe5817b0	-0.21102786
220	0x3d01e5b7	0.031713214
221	0x3c428e5f	0.011874764
222	0x3dabc8dd	0.08387921
223	0xbb281afe	-0.0025650854
224	0x3dcc2154	0.09967294
225	0x3dc0a8f1	0.09407223
226	0xbc8610d0	-0.016365439
227	0xbe1e30af	-0.15448259
228	0x3e3afa28	0.1825949
229	0xbccc0cce	-0.02490845
230	0x3e49d3a3	0.19709639
231	0x3ce6c324	0.028169222
232	0xbe068b4b	-0.13139074
233	0x3db2056b	0.0869244
234	0x3de6ba82	0.11266042
235	0xbe15db7d	-0.1463451
236	0xbd0210dd	-0.031754363
237	0x3ddef7c0	0.10887098
238	0x3de2d8fb	0.11076542
239	0x3e055f24	0.13024575
240	0x3e027d5f	0.12743138
241	0x3db4c37a	0.08826347
242	0x3e00fd57	0.12596641
243	0xbb9a0231	-0.0046999683
244	0x3c6900b8	0.014221363
245	0x3daca600	0.084300995
246	0x3d375aef	0.044764455
247	0xbdbd0f20	-0.092314005
248	0x3cec36c2	0.028834704
249	0xbd23d9d7	-0.04000267
250	0xbc3dd18b	-0.0115856035
251	0xbda6ade5	-0.081386365
252	0xbd72d9e5	-0.05928983
253	0x3e071a27	0.1319357
254	0x3daf8cbe	0.08571766
255	0xbda159b0	-0.07878435

a2c_network.actor_mlp.0.bias f4 [128]
0	0xbe9fea40	-0.31233406
1	0xbe76718a	-0.24066749
2	0xbedd705e	-0.43249792
3	0xbed36427	-0.41287348
4	0xbe4162e8	-0.18885386
5	0xbd52b247	-0.05143955
6	0xbeaf4a8f	-0.3423657
7	0xbe4fb2c0	-0.20283031
8	0xbe8122fd	-0.25222006
9	0xbc4ba628	-0.012429751
10	0xbdc26d98	-0.094935596
11	0xbddc7c9f	-0.10765957
12	0xbe9e3071	-0.30896333
13	0xbe74cb9a	-0.23905793
14	0xbc405cc3	-0.011740866
15	0xbee84aa6	-0.45369452
16	0xba1b1203	-0.0005915465
17	0xbe0c5842	-0.13705543
18	0xbeb34fb5	-0.3502175
19	0xbf0b9ded	-0.5453785
20	0xbe65ca18	-0.22440374
21	0xbec14d72	-0.377544
22	0xbedbc26e	-0.42921776
23	0xbeda3c7e	-0.42624277
24	0x3d2e11d8	0.042497486
25	0xbda05857	-0.078293495
26	0xbe8a86ad	-0.27055874
27	0xbe8c3c36	-0.27389687
28	0xbcb80d24	-0.022467203
29	0xbf0e9b4a	-0.557057
30	0xbeea0648	-0.45707917
31	0xbe98582e	-0.29754776
32	0xbec784f8	-0.38968635
33	0xbe3a8cc0	-0.18217754
34	0xbe1616e8	-0.14657176
35	0xbe65243b	-0.22377102
36	0x3d073fff	0.033020016
37	0xbe6bc66b	-0.23024909
38	0xbe8b0207	-0.27149984
39	0xbec88ca6	-0.39169806
40	0xbd115bc8	-0.03548792
41	0xbed11baa	-0.40841419
42	0xbe839c4c	-0.25705183
43	0xbd1372fe	-0.035998337
44	0xbe68a48d	-0.22719021
45	0x39f5c479	0.00046876425
46	0xbe8c33d3	-0.2738329
47	0xbea1520e	-0.31507915
48	0xbed3eb7b	-0.41390595
49	0xbda528d7	-0.0806443
50	0xbe25798e	-0.1615965
51	0xbd759152	-0.05995304
52	0xbe32d115	-0.17462571
53	0xbea9e1d4	-0.33180106
54	0xbe0e39b5	-0.13889201
55	0xbee93600	-0.4554901
56	0xbe97ff1e	-0.29686826
57	0xbeae61e5	-0.34059063
58	0xbecd1294	-0.40053236
59	0xbe9fbb6d	-0.31197682
60	0xbe6dcaae	-0.23221847
61	0xbcbeceb5	-0.023291925
62	0xbe941899	-0.28925017
63	0xbed776e5	-0.42082897
64	0xbea8e3d0	-0.32986307
65	0xbe88e74a	-0.2673896
66	0xbd8634b9	-0.06553025
67	0xbe3901b0	-0.1806705
68	0xbeee3361	-0.46523574
69	0xbdc9c468	-0.09851915
70	0x3d8993ef	0.06717669
71	0xbefed6c5	-0.4977323
72	0xbd1df6d0	-0.038565457
73	0xbecec3d0	-0.40383768
74	0xbe966749	-0.29375675
75	0xbeb4a946	-0.35285395
76	0xbf2ec2cb	-0.6826598
77	0xbdcb2dee	-0.0992087
78	0xbda47539	-0.08030171
79	0xbed0222a	-0.40651065
80	0xbf06e73d	-0.5269659
81	0xbecd5ba7	-0.40108988
82	0xbe9f7223	-0.31141767
83	0xbe358bd8	-0.17729127
84	0xbe84606d	-0.25854817
85	0xbe0aa909	-0.13541044
86	0xbf04f254	-0.51932263
87	0xbd1f1d52	-0.03884632
88	0xbe4c9108	-0.199772
89	0xbf271f6d	-0.65282327
90	0xbe6875a8	-0.22701132
91	0xbe83f6ae	-0.2577414
92	0xbdfdb2fd	-0.12387655
93	0xbed6dcfb	-0.4196547
94	0xbd4f53cd	-0.050617028
95	0xbdfa6df9	-0.12228007
96	0xbe50556e	-0.20345089
97	0xbe6cec7e	-0.2313709
98	0xbe80005f	-0.25000283
99	0xbf086478	-0.53278303
100	0xbeee0a80	-0.46492386
101	0xbc1cdc62	-0.009574028
102	0xbe8984ac	-0.26859033
103	0xbe8b9adf	-0.27266595
104	0xbe2c2053	-0.16809206
105	0xbea3dcc3	-0.32004365
106	0xbe7d1829	-0.24716248
107	0xbe18f99d	-0.1493897
108	0xbeaa491d	-0.33258906
109	0xbdbf0e85	-0.09328941
110	0xbf207ea2	-0.62693226
111	0xbedd19bf	-0.43183705
112	0xbea79578	-0.32731223
113	0xbe0677ea	-0.13131681
114	0xbf0cd806	-0.55017126
115	0xbe3f6fb2	-0.18694952
116	0xbecbc7dd	-0.3980092
117	0xbea46902	-0.32111365
118	0xbc50902c	-0.012729686
119	0xbda20ae7	-0.07912236
120	0xbeb3a4f1	-0.35086778
121	0xbe3cf40d	-0.18452473
122	0xbe97136d	-0.29507008
123	0x3d254436	0.040348254
124	0xbddd4414	-0.108040005
125	0xbe956e75	-0.29185835
126	0xbe62b557	-0.22139488
127	0xbeba43d1	-0.36379865

a2c_network.actor_mlp.2.weight f4 [128, 128]
0	0x3e5bb3d2	0.21455315
1	0x3e25f489	0.16206564
2	0x3dcee337	0.101019315
3	0xbdb57687	-0.08860498
4	0xbd12edc8	-0.035871297
5	0xbd3dd6c0	-0.04634738
6	0xbbcbac5f	-0.0062156166
7	0x3d915248	0.07095772
8	0xbe1f52b1	-0.15558888
9	0xbd7d3e33	-0.061826896
10	0x3e64066d	0.22268076
11	0x3bd8cf1b	0.006616486
12	0xbe8542c9	-0.26027516
13	0xbd83686d	-0.06416402
14	0xbe3280d6	-0.1743196
15	0xbd3256a0	-0.043539643
16	0xbe04087b	-0.1289386
17	0xbccac216	-0.02475075
18	0xbddd1c52	-0.10796417
19	0xbe815a1d	-0.25264063
20	0x3d8b1179	0.06790442
21	0x3db9a4cc	0.09064636
22	0xbe4e8a1f	-0.20169877
23	0x3dbb63d3	0.09149899
24	0xbe0373bb	-0.12837116
25	0xbe39df86	-0.18151674
26	0x3bdb06a5	0.0066841417
27	0xbd11d4a5	-0.035603184
28	0xbe730c72	-0.23735216
29	0x3dc83111	0.09774984
30	0x3de317db	0.110885344
31	0xbeb5a152	-0.3547464
32	0xbe41929e	-0.18903586
33	0xbd856d7c	-0.06515023
34	0xbd862bef	-0.065513484
35	0xbe2f27ab	-0.17104976
36	0x3d5a9c00	0.05337143
37	0x3d0ac3dc	0.033878192
38	0xbca21426	-0.019784998
39	0x3d51b3fd	0.05119704
40	0x3e1df7ba	0.15426531
41	0x3de7df06	0.11321835
42	0x3daac5a9	0.08338482
43	0x3da2e38c	0.07953557
44	0x3cd10946	0.025517117
45	0xbccef9ee	-0.02526566
46	0x3d40e7b4	0.04709597
47	0xbe4b0deb	-0.19829528
48	0xbc84a763	-0.016193097
49	0xbe3659de	-0.17807719
50	0xbe1f8593	-0.15578298
51	0x3e5d7f55	0.21630605
52	0x3d9f72c8	0.07785565
53	0x3ce5e19a	0.028061677
54	0xbd9a7662	-0.07542111
55	0x3db42f87	0.087981276
56	0xbe209d3c	-0.1568498
57	0xbe2aa0ed	-0.16662951
58	0xbda75d6e	-0.08172117
59	0x3db9d8c9	0.090745516
60	0x3dfbed95	0.123011746
61	0x3e3fb1d6	0.18720183
62	0xbe46dbdf	-0.19419812
63	0x3d615b0f	0.05501848
64	0x3dca890d	0.098894216
65	0x3dc5b210	0.09653103
66	0xbe45ce80	-0.19317055
67	0xbdf6129a	-0.12015267
68	0xbe631a16	-0.2217792
69	0x3e227442	0.15864661
70	0xbde2818b	-0.110598646
71	0xbda16881	-0.07881261
72	0x3ddb112a	0.10696633
73	0xbe1665f0	-0.14687324
74	0xbdd8b2ac	-0.10580954
75	0x3d08fdcd	0.03344517
76	0x3d48e0bb	0.049042445
77	0xbdbf5996	-0.09343259
78	0x3d33b110	0.04387003
79	0xbddf08e5	-0.10890368
80	0x3d67a6ba	0.056555487
81	0xbd063fc3	-0.03277565
82	0xbce3e644	-0.02781976
83	0xbddd5700	-0.108076096
84	0xbe4225e9	-0.18959774
85	0xbd8d93e6	-0.06912975
86	0xbd655efa	-0.05599878
87	0xbd95d1c3	-0.073153995
88	0xbe700123	-0.23437934
89	0xbc2d87fa	-0.010591501
90	0xbdb97252	-0.09055008
91	0xbe7b96f4	-0.24569303
92	0xbe22205f	-0.15832661
93	0x3d276eeb	0.040877264
94	0xbe6968d2	-0.22793892
95	0xbe4a5e9b	-0.19762652
96	0x3d2f1668	0.042745978
97	0xbce55d56	-0.027998608
98	0x3d5a1d1d	0.05325042
99	0x3e0f93c8	0.14021218
100	0x3cfa03e2	0.03051943
101	0x3d33e97b	0.043923836
102	0x3d2e300d	0.042526294
103	0xbe2b3b04	-0.16721731
104	0xbd19be9e	-0.037535302
105	0xbe4931df	-0.1964793
106	0xbe4e6250	-0.2015469
107	0xbdab0e05	-0.083522834
108	0xbd363f22	-0.044493802
109	0xbe6889d0	-0.22708821
110	0x3d56b8a9	0.0524222
111	0xbe3a1d2c	-0.1817519
112	0xbe60e197	-0.21961056
113	0x3e102464	0.14076382
114	0xbb08a465	-0.002084994
115	0x3deb3e9e	0.11486553
116	0x3de612db	0.11234065
117	0x3d00b06f	0.03141826
118	0xbe21ad4b	-0.15788762
119	0xbe2fa40d	-0.17152424
120	0xbe161e51	-0.14660002
121	0xbe44b457	-0.19209419
122	0xbdb7c828	-0.08973724
123	0x3d219e5c	0.039457664
124	0xbd2749ca	-0.040841855
125	0xbd86e789	-0.065871306
126	0x3db7799c	0.08958742
127	0x3da5712e	0.08078228
128	0x3da05ca6	0.07830171
129	0xbd704150	-0.058656037
130	0x3dcf8ee5	0.10134677
131	0xbdc97eb9	-0.098386236
132	0x3dc9bf0a	0.09850891
133	0x3c7803e7	0.015137649
134	0xbd93d61c	-0.072185725
135	0xbd34b8fe	-0.044121735
136	0xbe24f597	-0.1610931
137	0xbd21f1ad	-0.03953712
138	0x3e02ce81	0.12774087
139	0xbd9d3f08	-0.07678038
140	0xbe1fbbe5	-0.1559902
141	0x3d06a84c	0.032875344
142	0xbe5e05d0	-0.21681905
143	0x3ca7ca77	0.020482285
144	0x3db6622c	0.089054435
145	0xbe923e1e	-0.28563017
146	0xbe35ee21	-0.1776662
147	0xbd74c295	-0.05975588
148	0xbe61fe3a	-0.22069636
149	0x3c8ce404	0.01719857
150	0x3d03ea5c	0.032205924
151	0x3de8570a	0.113447264
152	0xbd6d2b67	-0.05790272
153	0x3e42e83d	0.19033904
154	0x3d170da6	0.03687825
155	0x3db4740e	0.08811198
156	0xbd831a04	-0.064014465
157	0xbd7b570a	-0.061362304
158	0xbcfc51c2	-0.030800704
159	0xbe92c36e	-0.28664726
160	0x3cd71801	0.026256563
161	0xbd15feb2	-0.03661985
162	0xbd9b4b84	-0.07582763
163	0x3d28a061	0.041168574
164	0xbd94a103	-0.07257273
165	0xbe169088	-0.14703572
166	0x3d59c474	0.053165868
167	0x3d4a26e7	0.049353506
168	0xbdc57ad6	-0.0964257
169	0x3d9951cf	0.07486307
170	0xbe41798d	-0.18894024
171	0xbedd843b	-0.43264946
172	0xbe190d6a	-0.14946523
173	0xbdb0bb81	-0.086295135
174	0x3e15ee66	0.14641723
175	0xbdc6ea44	-0.09712651
176	0x3b059a57	0.0020386183
177	0xbb6716da	-0.0035261423
178	0xbdf9c1f0	-0.12195194
179	0xbd10bc9f	-0.035336133
180	0x3c763214	0.015026588
181	0xbda27d5e	-0.07934068
182	0x3d402fde	0.04692065
183	0x3dd2c866	0.10292129
184	0xbd97746e	-0.07395254
185	0xbddfcea3	-0.10928085
186	0x3deaa32c	0.11456904
187	0xba1deab6	-0.00060240494
188	0xbd30a9e5	-0.043130774
189	0xbcd9ef00	-0.026603222
190	0x3cdd7cbc	0.027037017
191	0xbd662efa	-0.056197144
192	0x3e0c782b	0.13717715
193	0xbe1733f8	-0.14765918
194	0xbdd429d0	-0.103595376
195	0x3b96c91a	0.00460161
196	0x3e14f807	0.1454774
197	0xbdb3f205	-0.08786396
198	0x3bda3fdf	0.006660446
199	0xbc209f86	-0.009803658
200	0xbf033ab9	-0.5126148
201	0x3e272030	0.16320872
202	0xbdc137d0	-0.094344735
203	0xbbb12c5a	-0.0054068984
204	0xbdbac352	-0.09119286
205	0xbc49968d	-0.0123039605
206	0xbdfca39c	-0.123358935
207	0x3e2a328f	0.16620849
208	0x3d8ec3fe	0.06970976
209	0x3bee8929	0.0072795344
210	0xbd5c7337	-0.053820815
211	0x3b3a0e1d	0.002838976
212	0x3d86af09	0.06576354
213	0xbe0f25d2	-0.13979271
214	0xbe42b0a1	-0.19012691
215	0xbd68f935	-0.056878287
216	0xbdad5b89	-0.084647246
217	0xbd6a56da	-0.057211734
218	0x3d0e0999	0.03467712
219	0x3d8750aa	0.06607182
220	0x3d94e152	0.07269539
221	0xbd5f4691	-0.054510657
222	0xbeed58ea	-0.463569
223	0xbe01f697	-0.12691723
224	0xbe16458c	-0.14674968
225	0xbe039831	-0.12851025
226	0x3d7c8298	0.06164798
227	0xbb0cd07a	-0.0021486566
228	0xbda008dc	-0.0781419
229	0xbe57e40f	-0.21083091
230	0xbe8c975f	-0.27459237
231	0x3e3c4288	0.18384755
232	0xbe104e14	-0.14092284
233	0xbd8af23b	-0.06784483
234	0x3dbb8e15	0.09157959
235	0xbe1d168d	-0.15340634
236	0xbd07cab8	-0.033152312
237	0x3dea3457	0.11435764
238	0x3e14bc67	0.14524995
239	0xbe32264a	-0.17397419
240	0x3dda6bf8	0.10665125
241	0x3d7262bf	0.059176203
242	0xbd0caeb2	-0.03434629
243	0x3da961ad	0.08270583
244	0x3da930b5	0.08261243
245	0xbdc7e324	-0.097601205
246	0xbdcaa99c	-0.09895632
247	0x3da8680b	0.082229696
248	0xbc41bb11	-0.011824385
249	0x3b0b7205	0.0021277678
250	0x3e2921f5	0.1651686
251	0x3dbbacfa	0.09163852
252	0xbeaaf1d5	-0.33387628
253	0x3daf7051	0.085663445
254	0x3e1b4f0d	0.15166874
255	0xbe26ba5d	-0.1628203

a2c_network.actor_mlp.2.bias f4 [128]
0	0x3d1d9310	0.038470328
1	0xbe167d3e	-0.14696214
2	0xbd22211f	-0.039582368
3	0xbe77f216	-0.24213442
4	0xbd29383e	-0.041313402
5	0x3cdbee1a	0.026846934
6	0xbeeceaf8	-0.46273017
7	0xbe5e715b	-0.21722929
8	0xbe1c96d9	-0.15291919
9	0x3e4c3214	0.19940978
10	0x3ccae9bd	0.024769658
11	0xbe0f85a8	-0.1401583
12	0xbdfeeffb	-0.124481164
13	0x3ddc47d3	0.10755887
14	0x3e3b8778	0.18313396
15	0xbe91642a	-0.28396732
16	0x3e1e84a0	0.1548028
17	0xbc09646d	-0.00838576
18	0x3cad3dc9	0.021147626
19	0x3d517f66	0.051146887
20	0xbe281ebb	-0.16417973
21	0x3d6b2d9b	0.05741654
22	0x3e23ceae	0.15996811
23	0x3d79d2a4	0.0609919
24	0x3e10e3be	0.14149377
25	0x3daaff19	0.08349437
26	0x3e0801bf	0.13281916
27	0xbe34d550	-0.17659497
28	0x3e2715c1	0.16316892
29	0xbeb59787	-0.3546717
30	0xbe8a89b9	-0.270582
31	0xbe3572a6	-0.17719516
32	0xbd4a0ff5	-0.049331624
33	0xbe11aa41	-0.14225103
34	0xbe82d51b	-0.25553212
35	0xbd6af544	-0.05736281
36	0x3dcfb078	0.101410806
37	0xbe50e57a	-0.20400038
38	0x3e5cc637	0.21559988
39	0x3dd8aff8	0.105804384
40	0xbeaa4d54	-0.33262122
41	0x3ddd8ab4	0.10817471
42	0xbe54db80	-0.20786858
43	0xbc31b928	-0.010847367
44	0xbe712618	-0.23549688
45	0x3d6678bf	0.056267496
46	0x3c46cf5e	0.012134401
47	0x3cadb315	0.021203557
48	0xbe9fb0d7	-0.31189606
49	0x3dc60f91	0.09670938
50	0xbe10e466	-0.14149627
51	0x3d9077ea	0.07054122
52	0x3d4fd118	0.050736517
53	0xbe8331d8	-0.25623965
54	0xbbaf183f	-0.0053434665
55	0x3db27169	0.087130375
56	0xbd400897	-0.046883192
57	0xbd5c7ec2	-0.053831823
58	0xbe460e6f	-0.19341443
59	0x3e0d5da1	0.13805248
60	0xbe087819	-0.13327064
61	0xbdcbb5f9	-0.09946818
62	0xbe7e45c4	-0.24831301
63	0xbedbc8ca	-0.42926627
64	0xbe3f47b8	-0.18679702
65	0xbe8cb4e4	-0.2748176
66	0xbc5ebee5	-0.0135953175
67	0xbe2527ed	-0.16128512
68	0x3d77d62f	0.060506996
69	0xbd6023e6	-0.054721735
70	0xbde7b9a6	-0.113147065
71	0xbd08c39b	-0.03338967
72	0xbdedf2c9	-0.11618573
73	0xbc99d382	-0.018777613
74	0x3db26a38	0.08711666
75	0x3e2a1d0d	0.16612644
76	0x3df8580e	0.1212617
77	0xbe3f4ca1	-0.18681575
78	0xbd88bb1c	-0.06676313
79	0xbd497499	-0.04918346
80	0x3db46352	0.08808006
81	0x3e145269	0.14484562
82	0x3dca2921	0.09871126
83	0x3d1edccf	0.0387848
84	0xbd8d3f15	-0.068967976
85	0x36bd95d3	5.6500808e-06
86	0x3e1dabdc	0.1539759
87	0x3e48722f	0.19574808
88	0x3dbcade9	0.09212858
89	0x3e23985e	0.15976092
90	0xbdff4f97	-0.124663524
91	0x3dd787ae	0.10523926
92	0xbec1dade	-0.37862295
93	0x3e615e78	0.22008693
94	0xbdbe582b	-0.092941605
95	0x3bb24585	0.0054404163
96	0x3d32c63b	0.04364608
97	0xbdc4cd78	-0.096095026
98	0x3e1e04cd	0.15431519
99	0xbe1558f1	-0.1458471
100	0xbdd5586d	-0.104172565
101	0xbe21d023	-0.15802054
102	0x3e0081bd	0.12549491
103	0xbe8f8220	-0.28028965
104	0x3de3d8a3	0.111253045
105	0xbeb5ea55	-0.35530344
106	0xbdebf413	-0.11521163
107	0xbe1cef5a	-0.1532568
108	0x3ddb09a8	0.10695201
109	0xbe70be40	-0.23510075
110	0xbe10ddee	-0.1414716
111	0xbe07782a	-0.13229433
112	0x3de94343	0.11389782
113	0xbc7c625e	-0.015404312
114	0x3d9e3a8f	0.07726013
115	0xbd56dd38	-0.052457064
116	0xbe878d80	-0.26475143
117	0xbe48a7ec	-0.19595307
118	0xbc93fb6c	-0.018064223
119	0x3e3023e3	0.1720119
120	0xbe43b92f	-0.1911361
121	0xbda5560b	-0.08073052
122	0xbe8c7c20	-0.2743845
123	0xbf0eac8d	-0.5573204
124	0x3dd6cac9	0.10487897
125	0xbe141171	-0.14459778
126	0xbe96061c	-0.29301536
127	0xbf2772e5	-0.6540969

a2c_network.critic_mlp.0.weight f4 [128, 376]
0	0x3dfec89a	0.124406055
1	0xbe53750e	-0.20650122
2	0xbe95939b	-0.29214177
3	0xbe485143	-0.19562249
4	0x3dd1a224	0.10236004
5	0x3dfed1ad	0.12442336
6	0xbe1d048a	-0.15333763
7	0x3d776654	0.060400322
8	0xbeb4fb67	-0.35348055
9	0xbe26d381	-0.1629162
10	0xbea82f89	-0.32848766
11	0xbe4d39ec	-0.20041627
12	0x3e9e8124	0.309579
13	0x3e8e3981	0.27778247
14	0x3eeb0fae	0.459104
15	0x3f3c4c2b	0.73553723
16	0xbda56779	-0.080763765
17	0x3ea577b1	0.3231788
18	0xbe810871	-0.25201753
19	0x3e59a668	0.21254885
20	0xbcbae047	-0.022812022
21	0x3e02db16	0.12778887
22	0x3d559375	0.05214258
23	0xba6d73ef	-0.0009058108
24	0xbda182e0	-0.078862906
25	0x3e30ad5d	0.17253633
26	0x3d9358bf	0.07194661
27	0x3e2f7134	0.17133027
28	0x3db23042	0.08700611
29	0xbdb0eb05	-0.086385764
30	0x3e19c59b	0.15016787
31	0x3bbd2153	0.005771795
32	0x3db221b8	0.086978376
33	0xbd1d7c69	-0.038448725
34	0xbcbb1499	-0.02283697
35	0x3d4a104b	0.049331944
36	0x3d3f7d0c	0.046750113
37	0x3e376cb1	0.17912556
38	0x3df72dc0	0.12069273
39	0x3f22722d	0.6345547
40	0x3f1a2092	0.6020595
41	0xbf0be751	-0.54649836
42	0x3daa2294	0.083073765
43	0x3e2a87ad	0.16653319
44	0xbce9729e	-0.028497037
45	0x3dd4a18f	0.10382377
46	0x3e09452f	0.13405298
47	0xbee8098a	-0.45319778
48	0xbd242eae	-0.04008358
49	0xbcf5bbdd	-0.029996807
50	0x3c5c8a80	0.013460755
51	0x3c8802d7	0.016602917
52	0x3d0f47c0	0.034980536
53	0xbcbd21e6	-0.023087453
54	0x3bc6b2a1	0.0060637747
55	0x3c379397	0.011204622
56	0x3ca67b76	0.020322543
57	0xbd4fbae2	-0.050715335
58	0x3d4f8f8e	0.050674014
59	0x3d68ddf3	0.056852292
60	0xbda17a49	-0.07884652
61	0xbe89245b	-0.2678555
62	0xbe5c1b84	-0.21494871
63	0x3ddf5b51	0.10906089
64	0xbe2588a0	-0.161654
65	0xbd99a94d	-0.07502995
66	0xbca4ad71	-0.020102235
67	0xbd3a0775	-0.045417268
68	0xbd2af07c	-0.04173325
69	0xbda9e858	-0.08296269
70	0xbdab8fd1	-0.0837704
71	0xbdbaae05	-0.09115223
72	0x3e096e2a	0.1342093
73	0x3cdb42a7	0.02676518
74	0xbd3236bd	-0.043509234
75	0xbe02ec48	-0.12785447
76	0xbe423542	-0.18965629
77	0xbded0186	-0.11572556
78	0xbc2020d0	-0.009773448
79	0xbd838a34	-0.064228445
80	0xbd9a6fab	-0.0754083
81	0x3daafa4b	0.08348521
82	0xbd7ea786	-0.06217148
83	0xbc43e29c	-0.011955883
84	0x3e1eb70b	0.15499513
85	0x3dcafa8b	0.099110685
86	0xbc271c4e	-0.010199619
87	0x3d0601d4	0.032716587
88	0x3d9677a1	0.07347036
89	0x3d9a0f64	0.07522467
90	0xbbb4cf9f	-0.0055179144
91	0xbd879bcd	-0.066215135
92	0x3c5e21b9	0.013557845
93	0xbcfcbce3	-0.030851787
94	0x3c21a166	0.009865141
95	0xbb4cb411	-0.0031235258
96	0xbcb327e9	-0.021869617
97	0xbd176d9e	-0.036969773
98	0xbd3c8e90	-0.046034396
99	0x3cb6aa64	0.022298045
100	0x3c263982	0.010145547
101	0x3c87a75c	0.016559295
102	0x3c7ee138	0.015556626
103	0x3c3e0ff8	0.011600487
104	0x3bd0a2f0	0.00636708
105	0x3d884547	0.066538386
106	0x3cf9f3aa	0.030511696
107	0xbd3a164b	-0.045431416
108	0x3c1f6292	0.009728091
109	0x3bfdb6e4	0.0077427495
110	0x3d8bb68e	0.06821929
111	0x3d174dc4	0.036939397
112	0x3cf4e0cc	0.029892348
113	0xbca235b0	-0.01980099
114	0x3ce7d1aa	0.028298218
115	0xbb26937d	-0.00254175
116	0xbbc84adc	-0.0061124396
117	0xbaefd892	-0.0018298796
118	0xbc0ae541	-0.00847751
119	0x3cb21bce	0.021741774
120	0x3d3bb4c7	0.0458267
121	0x3d9224a5	0.07135896
122	0x3d0615ee	0.032735758
123	0x3d046049	0.032318387
124	0xbd8d59c0	-0.06901884
125	0x3b817122	0.003950254
126	0x3cdca92e	0.02693614
127	0x3d34398d	0.044000197
128	0x3d041371	0.032245103
129	0x3c92ed08	0.017935291
130	0x3defb4f6	0.117044374
131	0x3d988c0e	0.07448588
132	0x3c9ecf91	0.019386085
133	0x3d16eea3	0.036848675
134	0xbc6906dc	-0.014222827
135	0x3c123cc3	0.00892562
136	0x3a800005	0.0009765631
137	0x3cbfc0ad	0.023407305
138	0xbbdb4d5b	-0.006692571
139	0x3d983d7c	0.07433602
140	0x3d8c6db5	0.068568625
141	0x3d82b3a8	0.06381923
142	0x3bd17f30	0.0063933358
143	0x3d4b2431	0.04959506
144	0xbcc63203	-0.02419377
145	0x3ca0b9ab	0.019619783
146	0xbd5aa7e0	-0.053382754
147	0x3d202b26	0.03910365
148	0x3d1b2277	0.037874665
149	0x3d052d87	0.03251412
150	0x3c0c3c82	0.008559348
151	0xbdb24c5a	-0.08705969
152	0xbd69a1a7	-0.05703893
153	0xbddff5ab	-0.10935529
154	0x3bfaae70	0.007650189
155	0x3d0c2032	0.03421039
156	0x3e3e7228	0.18598235
157	0x3dfaf45d	0.1225364
158	0x3d9e3758	0.077254
159	0xbca665e5	-0.020312259
160	0x3bd72f7d	0.0065669403
161	0x3d979f71	0.07403458
162	0xbca59879	-0.020214306
163	0x3d7803ee	0.060550623
164	0xbca835fd	-0.020533556
165	0x3b4d93f5	0.0031368707
166	0x3c13f01c	0.0090294145
167	0x3dcaa32d	0.098944046
168	0x3d81cd27	0.06337958
169	0xbc8be2c2	-0.0170759
170	0x3ccd53e4	0.025064416
171	0x3d43db19	0.04781637
172	0xbc54caa3	-0.0129877655
173	0x3cbb9cac	0.022901855
174	0x3be90e1e	0.0071122786
175	0x3d68bd7b	0.056821328
176	0x3d2f3942	0.042779215
177	0xbc2b92f5	-0.010472049
178	0x3bf142c1	0.007362694
179	0xbc9af011	-0.0189133
180	0xbc8e43ad	-0.017366255
181	0x3bbf4497	0.005837034
182	0xbcebb282	-0.028771643
183	0x3d96f333	0.07370605
184	0xbc5c152b	-0.013432781
185	0x3d13a1e8	0.036043078
186	0xbd485eb8	-0.048918456
187	0xbd6231fa	-0.055223443
188	0xbb90a5fb	-0.0044143177
189	0xbcec01b5	-0.028809408
190	0xbd8aa039	-0.06768841
191	0xbcbe76f8	-0.023250088
192	0xbcc7b66a	-0.024378974
193	0x3c489436	0.0122423675
194	0x3c8e6e7c	0.017386667
195	0xbd01c4ce	-0.03168183
196	0xbd127121	-0.03575242
197	0xbca0923f	-0.019600986
198	0xbc791362	-0.015202375
199	0xbd32a9ee	-0.04361909
200	0xbd16081b	-0.036628824
201	0xbd032573	-0.032018136
202	0xbd73a2a3	-0.059481274
203	0xbd342fef	-0.043991026
204	0x3ca4365a	0.020045448
205	0xbd8dc7a6	-0.069228455
206	0x3cf9fa69	0.030514913
207	0xbc602ee1	-0.013683052
208	0x3d806c0b	0.062706076
209	0xbce1e3ee	-0.027574506
210	0xbd767515	-0.060170252
211	0xbd6b8b76	-0.057506047
212	0xbc944196	-0.01809768
213	0xbddbd8f4	-0.1073474
214	0xbcfae205	-0.030625353
215	0xbbc0af09	-0.005880241
216	0x3ce10e9e	0.02747279
217	0xbcc9b910	-0.024624377
218	0x3ca67581	0.020319702
219	0xbd6dbcfd	-0.05804156
220	0xbc67cf0f	-0.014148488
221	0x3c91accd	0.017782593
222	0x3d7f9a20	0.062402844
223	0xbe34db13	-0.17661695
224	0xbe8afc1f	-0.27145478
225	0x3e0a9196	0.13532099
226	0x3e3d4658	0.18483865
227	0xbc4ecbcd	-0.012621832
228	0x3e0d8cea	0.13823286
229	0xbdc9a725	-0.098463334
230	0x3db96f9c	0.09054491
231	0x3d2f3758	0.04277739
232	0x3d174841	0.03693414
233	0xbcc24f90	-0.023719579
234	0x3c88ae17	0.016684575
235	0xbca01817	-0.019542737
236	0xbd5e766a	-0.054312147
237	0xbd57cfdd	-0.05268847
238	0xbd900c57	-0.07033604
239	0x3d409878	0.047020406
240	0xbd07b6fb	-0.03313349
241	0x3cd9734a	0.026544232
242	0x3c758a4f	0.014986589
243	0xbd52c940	-0.05146146
244	0x3ac61074	0.0015111105
245	0x3d595ba5	0.053065915
246	0xbd84501d	-0.06460593
247	0xbde6fe57	-0.1127898
248	0xbd8b8d51	-0.06814063
249	0xbcdd2f17	-0.026999993
250	0xbdb4bb7a	-0.08824821
251	0xbc274c02	-0.010210993
252	0xbd59f266	-0.053209685
253	0xbd11e1df	-0.035615798
254	0xbc90b5cd	-0.017664814
255	0x3d971d60	0.0737865
