python/rlgpu/saved_nn/241001162237286415/last_Aliengoep=8250rew=[2077.8].pth (torch, 539546 bytes, 18 tensors)

running_mean f8 [376]
000000 63 81 c8 bc ea 17 52 bf c5 62 25 38 98 13 6a 3f
       -0.001104335056091165 0.0031831715615847377
000010 40 09 04 43 86 f3 90 3f 7b a5 d7 2a 49 ac 72 3f
       0.016553972091977842 0.004558835802052181
000020 80 1b c6 d7 42 4d dd 3f 88 da 46 fa a6 93 db 3f
       0.45784064361253485 0.43088697854128855
000030 ea 84 85 5e 60 57 e6 3f dd 1a 64 4e 79 42 e7 3f
       0.6981660696148115 0.7268644839358235
000040 de 58 c9 f6 6e 75 a4 3f 8c a2 de 92 46 83 bf 3f
       0.03995844614535014 0.12309685788808106
000050 f1 5a e6 65 d9 03 d2 bf 8d 7e b2 b6 f1 8a b4 3f
       -0.28148493720202256 0.08024512014753267
000060 06 13 67 94 a3 16 b8 bf 52 47 31 e8 5f 87 d1 bf
       -0.09409544346915419 -0.27388761210487644
000070 93 33 04 4c 75 a3 ae 3f c9 ba 24 8f 3c 62 ba 3f
       0.05984083702978817 0.10306147093499897
000080 12 12 5b 2f 42 e7 d2 bf 9a 68 aa a5 ea 39 b1 3f
       -0.2953649008234446 0.06728998703548186
000090 2b 31 bc 6d b0 e2 b7 bf c6 b2 1b 30 61 f4 d2 bf
       -0.09330275229530531 -0.2961657495314224
0000a0 48 a7 7a 21 7f e5 97 bf b7 60 4b 8c c0 6c 97 bf
       -0.023336397570040718 -0.022875793993848172
0000b0 dd 45 eb 60 d0 c8 b8 3f b0 b9 7a 48 fd e3 9a bf
       0.09681417814433453 -0.026260335491935016
0000c0 90 83 03 12 a6 b8 86 3f f4 c6 a1 ee 84 98 b6 3f
       0.011094376969085024 0.08826475931143901
0000d0 4e f1 f3 6b 85 f1 70 bf 09 c6 c7 15 23 8d 78 bf
       -0.004136582544785062 -0.00599397378071976
0000e0 58 93 84 12 73 ab ad 3f dd df e6 9e 8a c7 7c bf
       0.05794868088768251 -0.0070262350913523315
0000f0 0c d1 14 59 e2 c7 7e 3f 14 82 f6 28 ab eb a9 3f
       0.007514843150876038 0.05062613368068383
000100 76 67 7b 00 ca b9 de 3f ab 0e 0d f2 1a a3 e0 3f
       0.4800896649081702 0.5199103095587437
000110 ab 0e 0d f2 1a a3 e0 3f 76 67 7b 00 ca b9 de 3f
       0.5199103095587437 0.4800896649081702
000120 13 b3 d4 35 97 03 a6 3f e1 8f e6 6c 14 dc 81 bf
       0.04299614460101089 -0.008720550130256246
000130 cd 54 b5 12 01 58 80 3f 2d a9 2b 6f 86 20 85 3f
       0.007980354674752022 0.010315943019538832
000140 4c 53 3e ea ee f9 92 3f 96 66 3b 88 7d 36 58 3f
       0.018531544730268565 0.0014778352642025642
000150 90 7a 75 50 79 f2 91 3f d4 6f af a2 f7 52 59 bf
       0.017526526962110156 -0.0015456598582579322
000160 2a 91 3b f2 53 05 9a 3f ea ed bd 8a 30 ed 51 3f
       0.025410949382505134 0.0010941480677207857
000170 62 19 73 e1 67 fb 93 3f 94 c5 f5 b5 c8 cc 45 3f
       0.019513724456169064 0.0006652812989342166
000180 98 d2 18 94 81 cc c0 bf 12 8e 08 9f 64 51 c2 3f
       -0.13124103289887468 0.14310891881278615
000190 0b 78 c4 ae ff 16 cd bf 64 d2 93 18 cd 96 c1 3f
       -0.22726436647002432 0.13741458606786516
0001a0 b3 d1 a9 a1 ca fe c9 3f a6 62 81 b0 15 18 b8 bf
       0.20308812040060573 -0.09411750373090885
0001b0 bf 20 82 9b 8f b9 a7 bf 9a 27 ba 72 3c de ca bf
       -0.0463375928239329 -0.20990710832512322
0001c0 73 dd c8 c4 97 2f c8 bf be f6 db be 95 5c aa 3f
       -0.18895241840958085 0.051487617061849886
0001d0 3c 8d f0 68 84 e7 c9 bf c0 4c 8c d7 e3 6d c2 bf
       -0.20237784503943057 -0.14397857689673366
0001e0 62 f1 37 e5 4c 4f df bf c5 b9 21 5b 38 fa e5 3f
       -0.4892151106321504 0.6867944507519544
0001f0 94 22 90 79 1a ab ef 3f ed 5e 2e db 42 48 af 3f
       0.989636647632397 0.06109818387557007
000200 25 a4 e4 6f 8e 21 de 3f 8d 09 b9 42 d3 0d cd 3f
       0.47079811980308 0.22698441274594608
000210 d1 0b 97 64 ec e5 db 3f 43 eb a4 01 ee 8d ca bf
       0.43590841124767815 -0.20745635109218527
000220 21 48 b8 14 01 37 d1 3f 67 27 db 8b c1 9f b4 3f
       0.2689821913091937 0.08056268372015794
000230 e2 c7 c9 77 9e 4c cb 3f 26 9a f0 fd bf f6 c3 bf
       0.21327572678597934 -0.15596771144301264
000240 86 c5 3e 65 85 16 ca 3f ed f5 31 20 3b 7f b5 bf
       0.2038122887002311 -0.08397264038099879
000250 98 1b 5a 8a 57 05 cf bf e2 2e d4 fa e5 4a df bf
       -0.24235052352397868 -0.48894643301967566
000260 8c 1b 1b 96 85 f4 e5 3f 1e d2 9b c4 c3 a5 ef 3f
       0.6860988551860472 0.9889849510205442
000270 9e a3 8e 31 ba 46 af 3f af ff 97 96 fc 1c de 3f
       0.06108648161836715 0.47051920610828807
000280 20 b1 0c 3a 8b 09 cd 3f 0f 67 46 14 32 e1 db 3f
       0.22685375532581364 0.43561984996777964
000290 d0 05 1b 0c 9b 89 ca bf 37 b3 5c f1 63 35 d1 3f
       -0.20732439128009483 0.2688836915065624
0002a0 c3 4c 16 29 d9 96 b4 3f aa 1f 84 5b 4a 4b cb 3f
       0.08042676213362925 0.2132351824623105
0002b0 19 ff 5f da 1e f7 c3 bf 38 b3 f7 0c c3 11 ca 3f
       -0.15597901976433873 0.20366705067808666
0002c0 99 0e 45 37 f9 7c b5 bf 25 d5 e7 e1 79 03 cf bf
       -0.08393819426879147 -0.24229358225390132
0002d0 2a 4a 82 6f 29 ed c2 3f 88 ec 51 96 55 0b c3 3f
       0.14786260552189506 0.1487833961471987
0002e0 c8 3e 58 30 1d 1a c3 3f ff bb e5 88 48 29 c3 3f
       0.14923443661290592 0.1496973675197921
0002f0 96 5e 66 0c 03 44 c3 3f 05 ed 9b 41 fc 46 c3 3f
       0.1505130587145131 0.15060380176132795
000300 e7 cc 55 fb d7 3f c3 3f ae eb ad d7 5c 4a c3 3f
       0.15038585445618155 0.15070686846942521
000310 e5 d2 2d 47 72 4f c3 3f 95 9c b8 e3 1b 2f c3 3f
       0.1508620116761882 0.14987515086361172
000320 55 c3 18 fb 26 13 c3 3f 11 98 58 6a ad 3e c3 3f
       0.1490219808634047 0.1503502625720903
000330 a8 c4 d9 35 32 17 c3 3f a2 42 43 8a 19 27 c3 3f
       0.1491453898375188 0.14963073016271716
000340 78 7b f4 b2 4c 4b c3 3f 66 a1 9a d9 64 12 c2 3f
       0.1507354615978007 0.1411863386649756
000350 77 b8 cb 0e 9c 14 c2 3f b2 ef 3b d7 48 03 c2 3f
       0.1412539551014935 0.14072523602942294
000360 c2 30 97 52 7b 01 c3 3f 2e cf 8a 92 2c d0 c2 3f
       0.14848271877997915 0.14697796969778082
000370 73 6a 70 af 49 ed c2 3f 06 95 55 a5 77 d7 c3 3f
       0.14786644998897067 0.15501304219211692
000380 c9 c9 c1 0a 57 9e c3 3f 7e 9c 4b 02 97 b4 c3 3f
       0.15326965356105252 0.1539486657340809
000390 ab 03 d9 5f 65 e9 c3 3f 7b e6 00 75 01 80 c2 3f
       0.1555601804739387 0.14453142369329783
0003a0 12 ac 44 49 60 7c c2 3f fb f0 c0 0f 47 57 c2 3f
       0.14442065789748476 0.14328850049231065
0003b0 f0 77 cb 1e 85 9f c3 3f 8b df 7d 5d 40 5e c3 3f
       0.15330566409733093 0.151313825273743
0003c0 ee 16 b9 cb b2 4c c3 3f 25 92 5b db f4 66 c4 3f
       0.15077815005695733 0.15939198218178877
0003d0 9f 2b e0 9b 27 2b c4 3f f6 63 6a 1d b2 1b c4 3f
       0.15756697760693059 0.1570952075606155
0003e0 59 67 f7 52 0c a6 c3 3f 16 53 be df 1b 29 c3 3f
       0.15350488711447488 0.1496920435426083
0003f0 50 36 07 02 34 fd c2 3f 3e 30 3e 04 b9 0c c3 3f
       0.14835214709312305 0.14882576663183217
000400 50 df c7 30 ef 9d c3 3f d3 fe 6e 83 02 06 c4 3f
       0.15325727350113505 0.1564334050908572
000410 bc 88 87 6c 8c df c3 3f 5b 6c ab 8b 71 e8 c4 3f
       0.15525965976036626 0.16334361381345527
000420 72 9a 3f bd 1a a6 c4 3f 4e cd 23 2d 93 a5 c4 3f
       0.16131910553595535 0.1613029451760703
000430 ed b2 58 de 7e 1f c4 3f 2b d3 c3 3d 3f b0 c3 3f
       0.1572111688305066 0.1538161326967836
000440 a1 13 9a ca 99 92 c3 3f 8a 81 47 54 db c1 c3 3f
       0.15291139977139515 0.15435353865815343
000450 85 58 18 2a d6 7d c4 3f bb d8 65 a0 82 f1 c4 3f
       0.16009022765564765 0.16362030822683046
000460 b9 5e f1 bd 0c 81 c4 3f ab c2 00 ac aa 44 c5 3f
       0.1601882865386324 0.16615804098684825
000470 3e 64 d1 d7 b3 fb c4 3f 59 b7 f8 75 58 1f c5 3f
       0.1639313510702624 0.16501909027413822
000480 ce f7 40 6f d0 a9 c4 3f 83 b8 93 2b c4 1d c4 3f
       0.16143231804193053 0.15715839507851478
000490 35 da 50 14 26 4b c4 3f 53 bd d9 06 c6 6a c4 3f
       0.15854335777267328 0.1595084699106147
0004a0 6e c7 7d 21 00 78 c5 3f 68 30 be b6 d8 e7 c5 3f
       0.1677246249706132 0.1711378948497242
0004b0 dc 9c 3d 18 4e 10 c5 3f e3 e5 f6 16 68 3b c5 3f
       0.16456009086252876 0.16587544556914144
0004c0 5e 52 d4 87 8b 49 c5 3f 96 18 fb 97 67 fd c4 3f
       0.16630691654485735 0.16398329659404415
0004d0 16 03 73 3c a0 e4 c4 3f f6 dc 5e d5 9c c3 c4 3f
       0.16322710944771107 0.16221962374195414
0004e0 79 4e 5d b5 4d 2f c5 3f 45 d9 2e e9 ab 68 c5 3f
       0.165506089741587 0.16725682149781043
0004f0 0e b1 3b 6f b5 93 c6 3f d3 84 aa 28 be 07 c7 3f
       0.176382712662765 0.1799237917485131
000500 3a 54 78 84 29 ca c5 3f d9 d0 58 4e db 68 c3 3f
       0.1702320000482887 0.15163747144254705
000510 9b 1b 67 5b 75 ae c3 3f 76 6f ae 3d c9 f1 c3 3f
       0.15376154864335664 0.15581622611795937
000520 33 a9 ac b1 a6 29 c4 3f 5d f3 43 2c dc 3f c4 3f
       0.1575210921813067 0.1581988540782743
000530 5b 49 8c e3 2f 09 c4 3f 5f a6 e4 70 8b b7 c3 3f
       0.15653036700002584 0.15403883945809846
000540 f7 6d f5 ba 9c 93 c3 3f 9c ac 8e ba 3d 7a c3 3f
       0.1529422676929781 0.152168003170435
000550 55 03 09 24 02 5f c3 3f 1f 9e 24 13 28 73 c3 3f
       0.15133692512065502 0.15195179877012863
000560 ac cf a1 0c ee 19 c4 3f 69 71 06 ff 02 4a c4 3f
       0.15704131714630643 0.15850865795517713
000570 fa e1 9c ef f1 42 c4 3f 4c 70 9b f2 4b 5d c4 3f
       0.1582930011734474 0.1590971884351141
000580 ae 8c 45 01 74 32 c3 3f 46 04 1f 87 bb c5 c2 3f
       0.14997720777600904 0.14665931794846382
000590 47 b2 41 11 73 79 c2 3f f4 13 dc 1f 61 63 c3 3f
       0.14433134405716627 0.15147031837128078
0005a0 91 b7 a8 03 44 3b c3 3f 1b 20 09 5a 20 70 c3 3f
       0.15024614504494285 0.1518593253733805
0005b0 55 19 3a 0d be ec c4 3f ac 71 9e a0 3f f6 c4 3f
       0.16347480436179276 0.16376490919800568
0005c0 32 cc 1a 55 8c 0d c5 3f f7 cb 10 92 34 1d c5 3f
       0.16447595744611615 0.16495377666578268
0005d0 f7 11 43 44 7c 8e c3 3f 52 36 5c 40 8e 23 c3 3f
       0.15278580983262177 0.1495225729235466
0005e0 f6 9a a6 4a 97 de c2 3f f7 84 cf 44 95 e6 c3 3f
       0.14741793770846073 0.15547433719533618
0005f0 f3 cc a3 39 96 b4 c3 3f 17 93 48 f2 f8 0e c4 3f
       0.15394857229657752 0.1567069228196025
000600 ad a3 ed aa f7 ae c5 3f 15 88 89 93 16 b4 c5 3f
       0.16940208288295136 0.16955835536924782
000610 f4 af ba d3 7f af c5 3f c7 fd 4a c0 f1 3a c5 3f
       0.16941831434576182 0.1658613385134073
000620 c8 a6 fd b4 57 28 c4 3f b9 45 dc d3 7b b7 c3 3f
       0.157481158613612 0.15403697819469445
000630 f5 5e ec 54 4d 90 c3 3f 6d 20 98 2d 29 bc c3 3f
       0.15284124991079975 0.1541797134998463
000640 58 23 88 7a f0 fb c3 3f 91 69 1a 10 55 bf c4 3f
       0.15612607939717793 0.16208899771011123
000650 f0 88 8e 39 3d 3f c6 3f d1 8c 18 22 75 47 c6 3f
       0.17380490599050047 0.17405571141089252
000660 81 20 9f 95 d6 7c c6 3f 86 80 99 21 5b f5 c5 3f
       0.17568476014844595 0.1715501703320152
000670 17 2f 6f 52 14 c8 c4 3f a1 40 f4 77 b1 53 c4 3f
       0.162355938197259 0.1588041148866113
000680 ea 91 b7 71 38 3e c4 3f 36 81 d4 57 2a 29 c4 3f
       0.15814881851760215 0.15750626839236198
000690 33 22 fa 3c 78 6b c4 3f 67 11 a0 59 b7 47 c5 3f
       0.15952971436878868 0.16625110508187932
0006a0 f7 c1 d9 b0 ee 97 c6 3f 76 18 2f b6 16 90 c6 3f
       0.17651160846027356 0.17627223869039071
0006b0 b1 76 41 64 fe 54 c7 3f 22 4a a2 31 a1 e2 c6 3f
       0.1822813024072523 0.17879118846447378
0006c0 6a 32 2c 60 ae 4c c5 3f c8 97 be a2 86 f3 c4 3f
       0.16640262313775916 0.1636818213129898
0006d0 93 ce 54 ff 1d c8 c4 3f d5 65 38 41 85 b1 c4 3f
       0.16235709159228814 0.1616674965342059
0006e0 08 10 d7 90 6b d8 c4 3f 3b 35 46 9c e9 a1 c5 3f
       0.16285461971540394 0.16900367861345864
0006f0 4f e0 ee 6c e3 7a c6 3f 75 4f 43 f8 1e a9 c6 3f
       0.17562525576591034 0.17703616258824764
000700 d7 df 4c 82 0e 27 c8 3f 6e cc 6d 68 04 f3 c7 3f
       0.18869191515272973 0.1871037969500295
000710 67 91 7e 4b 54 f6 c5 3f 0b c1 10 6d 40 c0 c5 3f
       0.17157987295389462 0.16992955518208705
000720 c4 e4 e8 2b e2 7b c5 3f 43 fa 73 5c b1 11 c5 3f
       0.16784312385587985 0.16460244192417592
000730 eb 21 e1 01 2f 1f c5 3f 97 d1 65 e6 b9 e2 c5 3f
       0.1650141486336588 0.17098163366212013
000740 b9 55 d7 5b 4c 7e c0 3f 72 4b 23 ff e0 e4 c0 3f
       0.12885431751662482 0.13198482950118834
000750 45 c6 97 46 d2 f2 c0 3f 0b 3d eb 31 f0 fd c0 3f
       0.13241032072942197 0.1327495807404165
000760 d3 6f 8e 24 e4 1e c1 3f 80 31 16 f1 1e 51 c1 3f
       0.13375522408466498 0.13528811237155125
000770 f6 36 00 1b 0d 5f c1 3f 28 dd f9 40 65 7f c1 3f
       0.13571323221588444 0.1367003028169418
000780 83 1f 12 b6 8c 8b c1 3f 65 2f fa 07 df 6d c1 3f
       0.1370712174432321 0.13616550340190794
000790 1f ae e6 86 5b 28 c1 3f 21 d7 82 0b a3 11 c1 3f
       0.1340441139885664 0.13335073530259314
0007a0 04 55 24 a2 f5 00 c1 3f 8b cd da 61 93 4f c1 3f
       0.13284178177915618 0.135240958004584
0007b0 73 a6 b4 c7 11 98 c1 3f 7b 78 8f 9f 55 3f c1 3f
       0.13745329142811932 0.13474531451260305
0007c0 cd 56 14 df ff 45 c1 3f cc 75 56 42 9c 1c c1 3f
       0.13494871513892406 0.13368561972758497
0007d0 0b bb a4 9c da 68 c1 3f b7 f2 da 9f fa 2d c1 3f
       0.13601238869292617 0.13421566777642166
0007e0 a5 6b 92 44 62 0d c1 3f bc aa 44 2b b5 c1 c1 3f
       0.13322094295730583 0.13872398960787347
0007f0 12 1f 5d 99 56 be c1 3f e7 0d fe 5f c1 10 c2 3f
       0.1386211632582151 0.14113633334282769

running_var f8 [376]
000000 10 8d 87 51 67 51 8d 3f 67 52 a7 69 c4 01 f5 3f
       0.01431542127187993 1.3129314543813508
000010 ba 70 01 d2 1c b0 b2 3f 45 c2 2f a8 44 8e 05 40
       0.07299976470079886 2.6944668902945375
000020 04 bd 9e f0 c6 c5 cf 3f 93 d8 cb fc 7f 63 cf 3f
       0.24822317837740837 0.24522399753158605
000030 7d a5 e6 59 39 f9 ca 3f 45 09 9a 4b 87 69 c9 3f
       0.2107307137460274 0.19853297416200114
000040 63 bc 99 e9 76 35 75 3f b8 3d 89 88 4e 97 61 3f
       0.005177940847359871 0.0021473440031411738
000050 52 dc 0e d1 68 6a 62 3f 82 73 cf 05 69 e8 70 3f
       0.002248005599962557 0.0041278936814394
000060 4d b9 79 ab 45 d0 60 3f 3e 98 f5 3e 22 9c 61 3f
       0.0020524368990698983 0.0021496456972043545
000070 c2 18 18 64 c6 17 6f 3f 01 67 d0 0a b5 21 63 3f
       0.0037955164741588507 0.0023354087811754414
000080 77 23 4d 6e 79 f3 58 3f b0 86 ae c5 21 23 6f 3f
       0.0015228925560270814 0.0038009318936510147
000090 31 3f f7 21 9e 65 62 3f bd 5a 3f b1 3a 3c 5a 3f
       0.0022457207230458733 0.0016012738387779911
0000a0 77 23 8c 58 eb 22 fd 3f 51 3d e7 36 b6 16 df 3f
       1.8210252245791858 0.48576121675156
0000b0 55 e7 d7 92 eb fb e1 3f 36 0c 53 a9 74 9d f4 3f
       0.5620019786867753 1.2884413351282666
0000c0 8f 27 22 82 57 52 e0 3f c5 c2 81 65 81 25 e6 3f
       0.51005149285014 0.6920783026272025
0000d0 06 d5 58 72 02 d3 e9 3f 38 2b 60 31 a8 6c de 3f
       0.8070080025997022 0.47538189718095536
0000e0 51 8a 0a 5c 97 ae d0 3f 55 af d2 e6 4f 8f e8 3f
       0.2606562041129666 0.7674941547643167
0000f0 3e 8f 3b 19 ec 0c da 3f 94 10 d6 4c ec c4 cd 3f
       0.4070387121594087 0.23257211448447335
000100 d6 3b 50 6d 07 f3 cf 3f fd 67 24 70 07 f3 cf 3f
       0.24960415685242648 0.24960415816968853
000110 fd 67 24 70 07 f3 cf 3f d6 3b 50 6d 07 f3 cf 3f
       0.24960415816968853 0.24960415685242648
000120 f8 63 d8 71 5b dd 8b 3f 5c d5 f9 34 8a c9 82 3f
       0.013605799114019476 0.009173469297119645
000130 ef 52 5c 1b 12 e3 89 3f 40 7f 50 fe e3 cd 83 3f
       0.012640134296398623 0.009670048903046458
000140 43 1f 5a 28 f2 3f 83 3f e3 bc 52 9b 54 59 7f 3f
       0.00939931092877056 0.007653551573795189
000150 c3 49 ff 72 25 f8 82 3f c6 54 2c f8 87 a2 7f 3f
       0.009262363979279159 0.007723361139843015
000160 47 7a b3 43 c9 27 9b 3f f7 68 72 9c ba 30 92 3f
       0.02651895976748111 0.017764011191140985
000170 0d 27 a7 e6 ea 72 98 3f 26 0e de 78 fb 84 91 3f
       0.02387587578576871 0.017108849765930988
000180 3c 2d cd 96 33 2a 13 40 f6 ea 72 38 fd ac 19 40
       4.7912124216775815 6.418934709562327
000190 b3 cb 7e 73 cf 41 0a 40 0c b6 c9 f0 69 3f 16 40
       3.2821339629240014 5.56192756873271
0001a0 5e c6 31 8f d7 ef 16 40 0b 7c e0 dc d3 4c 06 40
       5.734220731175439 2.787513471222615
0001b0 7e f3 37 09 f8 97 12 40 e1 43 38 ae e3 db 11 40
       4.648407119789111 4.4647357198564075
0001c0 8a 1f bf b7 1f 2f 00 40 5b 95 ea cb 88 ce 11 40
       2.0230097155762836 4.4516937124183995
0001d0 48 ee 89 ab b8 4b 10 40 4b f4 2a d9 8c 1c ff 3f
       4.073946647924068 1.9444702609173585
0001e0 7e 49 db 14 cc 72 be 3f a9 21 c2 e6 5c ca c3 3f
       0.11893916615671249 0.15461312549110787
0001f0 4f 14 df ab 49 e2 79 3f 14 b6 0a 9a a9 0e de 3f
       0.006319320467757696 0.46964492839001193
000200 ea 2d 8e 3c 84 e9 d7 3f b3 dd 7b c3 12 a4 de 3f
       0.37362771905529135 0.4787642392179478
000210 70 f6 25 f9 bd 3d d7 3f 71 8e c9 58 73 aa d8 3f
       0.3631434376801286 0.3854034773887412
000220 b7 97 44 35 81 5c e0 3f f6 6e f2 11 2a 2f df 3f
       0.5112920799626782 0.48725368263852376
000230 fb 43 d9 7e 4c 9f de 3f 48 63 fd 2b 32 ad d4 3f
       0.4784728277928136 0.3230710439288953
000240 49 df ba e7 53 97 e1 3f a8 de e1 c9 ab 85 da 3f
       0.5497226263023346 0.41440863337582323
000250 2d a8 d8 06 e1 19 d3 3f 00 77 89 db d3 74 be 3f
       0.29845452946267664 0.11897014722623211
000260 5e c9 4a 12 b0 e0 c3 3f 33 9a 67 64 20 82 7c 3f
       0.15529442685290012 0.006960035831502997
000270 de 8a 65 a0 aa 08 de 3f 7d 9f 5c e4 f6 e6 d7 3f
       0.4692789617894685 0.3734719495864665
000280 34 01 22 86 da 9e de 3f 76 90 1c 1e 02 3b d7 3f
       0.4784456548586775 0.36297657909950176
000290 df b4 67 6e c8 a5 d8 3f 84 df 9e 5f e4 59 e0 3f
       0.38511858731983567 0.5109731547918135
0002a0 28 11 df de 55 29 df 3f c6 a9 bb c6 6b 99 de 3f
       0.4868979145505983 0.4781140747787983
0002b0 fe 00 da b4 6c a8 d4 3f cc 80 96 c4 a8 94 e1 3f
       0.3227798238876999 0.5493968810660816
0002c0 d1 31 c8 95 49 80 da 3f 40 a7 59 4c dd 15 d3 3f
       0.4140800440516417 0.298209499893904
0002d0 cc 28 b5 37 04 83 b5 3f 22 19 16 41 b6 b6 b5 3f
       0.08403040275621548 0.08481921280881413
0002e0 ab a8 0b b3 93 c8 b5 3f 87 0b 4d 61 d8 e1 b5 3f
       0.08509181138257087 0.08547737479697846
0002f0 9a 52 c6 d2 2d 07 b6 3f b4 01 8e 4b b1 0d b6 3f
       0.08604704280726097 0.08614643187139032
000300 39 4b bf c1 77 11 b6 3f d2 ee 99 5f c3 11 b6 3f
       0.08620403747708573 0.086208544578706
000310 5d e6 80 77 8e 14 b6 3f 2d c7 99 64 69 e7 b5 3f
       0.08625116746488844 0.08556231218406359
000320 c3 43 b8 56 2e be b5 3f af 6b 6c 5f b3 2f b6 3f
       0.08493318192655779 0.08666535453487144
000330 12 8c 91 67 47 03 b6 3f a9 a7 26 d3 f4 0a b6 3f
       0.08598753241089721 0.08610468058637245
000340 9e 4a 2e bb d1 3f b6 3f f2 5a 99 2e f9 92 b4 3f
       0.08691130466312777 0.08036763560935947
000350 a4 93 b5 84 2f 8c b4 3f 37 72 e4 95 14 8e b4 3f
       0.08026406278584247 0.08029297503930698
000360 f7 c0 e3 34 3e f0 b5 3f 34 9d 29 89 ef a8 b5 3f
       0.08569706717731039 0.08460900400824728
000370 a0 a5 61 33 41 d2 b5 3f a7 9c bf b5 7e 23 b7 3f
       0.08523948196820763 0.09038536011904573
000380 4b 48 92 fb 64 e6 b6 3f f5 66 7b 52 b9 f1 b6 3f
       0.08945304052238716 0.08962591422769235
000390 5d ac b2 8c 28 45 b7 3f 38 a1 d6 74 76 55 b5 3f
       0.09089902338989604 0.08333530762195529
0003a0 bc 11 2f 44 cb 43 b5 3f 2c 03 85 35 72 33 b5 3f
       0.08306570448536993 0.08281625563269007
0003b0 17 49 99 8a 82 fd b6 3f 3d 6f 23 76 dd 99 b6 3f
       0.08980575450667448 0.08828529485930132
0003c0 d7 f8 8a 21 1f 84 b6 3f 8b e7 a7 a7 35 09 b8 3f
       0.0879535157100436 0.09389052718316131
0003d0 66 ca 75 57 bb c8 b7 3f 4d 18 2b 8f 4f b0 b7 3f
       0.09290667424446894 0.0925340389759139
0003e0 6f 1f cc 4c 4d 10 b7 3f 03 fc 94 48 9c 69 b6 3f
       0.09009249806342522 0.08754898807545435
0003f0 fe 42 da 0c ff 21 b6 3f 0a a5 fe c0 a7 5d b6 3f
       0.0864562422159558 0.08736656629357156
000400 bd 22 5a 56 ac 2a b7 3f 29 29 0f 31 5a b2 b7 3f
       0.09049489124493966 0.09256519029364497
000410 a4 f6 18 fd 00 75 b7 3f 2f 77 00 98 d8 db b8 3f
       0.09162908724916946 0.09710458479864024
000420 56 8a f7 da 80 8d b8 3f a7 9d ec f8 c5 8d b8 3f
       0.09590916963456073 0.09591328933003372
000430 cc f4 e5 84 10 d6 b7 3f b3 a8 41 61 a2 46 b7 3f
       0.09311011547648035 0.09092154383111754
000440 64 1a 5f d4 57 19 b7 3f 0b a0 29 c8 99 7e b7 3f
       0.09023045477725017 0.09177552353651224
000450 90 65 32 9c 48 83 b8 3f 33 49 a0 10 92 1a b9 3f
       0.0957532292690273 0.09806168466483171
000460 cf 41 30 4b 4d 74 b8 3f c8 e9 d9 79 93 79 b9 3f
       0.09552462659508552 0.09951135373004327
000470 b1 92 e4 6c 6b 1b b9 3f cd 2f 48 5a e2 51 b9 3f
       0.09807464035527393 0.09890570358419311
000480 80 34 6a c8 f0 b0 b8 3f 53 2a 66 20 9f f7 b7 3f
       0.09644989865246778 0.09362215558045621
000490 92 0c ce 3d 26 3d b8 3f c2 9d 8f e6 83 84 b8 3f
       0.0946830654993838 0.09577202204638183
0004a0 67 f2 ce bf bb f6 b9 3f 2d 69 db 5a 23 88 ba 3f
       0.10142110283681803 0.10363980262937807
0004b0 8f 0d 7f 5c 55 54 b9 3f 33 b8 8f fe a3 b1 b9 3f
       0.09894307621202912 0.10036683049085653
0004c0 f9 e5 64 10 1e ac b9 3f 7d 8a 78 fa 51 65 b9 3f
       0.10028255367515006 0.0992022739888316
0004d0 6c 8d 78 98 f4 45 b9 3f dc 67 da 86 51 ff b8 3f
       0.09872368547853733 0.09764585058510938
0004e0 b9 af e7 21 70 c0 b9 3f 7d 53 4d df 19 04 ba 3f
       0.10059262111434365 0.10162507726393062
0004f0 fe 56 91 f9 a8 a2 bb 3f af e7 15 c6 8c 3e bc 3f
       0.10795074551546333 0.11032943569253349
000500 cb 3d 51 d3 54 77 ba 3f 2b 01 b6 b0 b3 11 b5 3f
       0.10338335188975305 0.08230135978920276
000510 ee a8 1d 72 17 80 b5 3f f0 95 b3 45 fc dc b5 3f
       0.08398577247649872 0.08540322019288005
000520 42 02 97 2f 4d 2d b6 3f 0f 27 a7 e6 3a 49 b6 3f
       0.08662874614584218 0.08705490237403189
000530 54 ed b0 23 11 fa b5 3f c9 b3 23 93 d0 8e b5 3f
       0.08584696885457294 0.08421043007156394
000540 3d 25 98 50 ff 51 b5 3f d9 c6 13 34 a5 2f b5 3f
       0.08328242986330721 0.08275825997750576
000550 bd ca b3 f3 23 0b b5 3f 52 d0 66 e0 51 26 b5 3f
       0.08220123958362087 0.08261596420817455
000560 9e e1 5e aa e5 4b b6 3f 2f e7 19 a1 8b a7 b6 3f
       0.08709559831084454 0.0884940403283536
000570 6c 90 de 85 10 9a b6 3f 6a b1 0c f1 38 ba b6 3f
       0.08828833835883793 0.08877902874946178
000580 44 8c 30 e0 6b 16 b5 3f 64 b2 01 c8 45 59 b4 3f
       0.08237337325458421 0.079487191514724
000590 03 17 21 c0 92 f9 b3 3f 4e cb e8 37 e8 3e b5 3f
       0.07802693548827837 0.08299113621687335
0005a0 a2 15 52 7c 0a 07 b5 3f 0f e0 01 7c 8c 64 b5 3f
       0.08213868651554049 0.08356550242922388
0005b0 7d a6 a1 01 52 8e b7 3f 4e c0 55 ce df bf b7 3f
       0.09201538600759736 0.09277151858782526
0005c0 68 26 28 bc 5e d6 b7 3f 68 57 ab ae 30 e9 b7 3f
       0.09311477750466113 0.09340194954287784
0005d0 7d 47 11 a6 16 c0 b5 3f f7 a7 d7 2d 74 fa b4 3f
       0.08496228746778729 0.081946622077936
0005e0 7f 64 7e b0 93 af b4 3f 75 b7 4a 2d d5 1c b6 3f
       0.08080409106186613 0.0863774524284205
0005f0 bb a9 b7 5f c9 d1 b5 3f 86 97 dc 52 ac 69 b6 3f
       0.08523233973361403 0.0875499441432038
000600 75 d9 6e 36 f5 b3 b8 3f bc 78 87 48 22 e2 b8 3f
       0.09649593905382921 0.09720052977306443
000610 a6 5e 9a 8f a5 d9 b8 3f af 9d 5d 3f 0a 39 b8 3f
       0.09707102542813092 0.09462036177648402
000620 30 51 14 ad 88 b7 b6 3f bd 08 1b b5 c7 ea b5 3f
       0.08873800492830664 0.0856137101318692
000630 50 91 09 76 2f ce b5 3f cd 52 71 c2 67 09 b6 3f
       0.0851773894478971 0.0860810136521863
000640 3b 40 2c 01 e0 62 b6 3f 57 52 f9 8f 43 7c b7 3f
       0.08744621304163129 0.0917398668764887
000650 7f b7 d2 b3 8c 92 b9 3f 04 00 b2 54 0f c1 b9 3f
       0.09989241972172457 0.10060211007839831
000660 dd 72 b4 7f 84 08 ba 3f cd 50 e3 9e b9 4f b9 3f
       0.10169246785921922 0.098872758189205
000670 c9 b6 bf 18 ac af b7 3f 13 a2 fd 19 33 e4 b6 3f
       0.09252429584713719 0.0894195497945776
000680 ea fc ca 15 81 e0 b6 3f db 5b e8 8b 55 be b6 3f
       0.089363162823236 0.08884176889146948
000690 9d d6 fa 9b e7 18 b7 3f 34 03 1c d0 b9 4f b8 3f
       0.09022376592732902 0.09496651964947206
0006a0 b2 e6 c7 23 9b 29 ba 3f a1 26 73 6f 4d 35 ba 3f
       0.10219735740238425 0.10237583132689078
0006b0 d3 8d 83 97 e3 3f bb 3f 89 66 02 ed a8 a5 ba 3f
       0.10644361924237637 0.10409026895868058
0006c0 b0 ba 36 d7 9e 7b b8 3f 6a 29 b4 fa 47 df b7 3f
       0.09563629869692636 0.09325075026223364
0006d0 51 85 f5 de a2 b8 b7 3f 83 3e 4e 5b 57 97 b7 3f
       0.09266107505165634 0.0921530340112842
0006e0 be aa d8 38 5e c9 b7 3f 18 42 59 c1 13 df b8 3f
       0.09291638267374489 0.0971538874666823
0006f0 02 b4 e2 b0 81 3f ba 3f 24 f5 6e 0e 53 74 ba 3f
       0.10253153389449213 0.1033374700773107
000700 29 39 a9 34 6c 84 bc 3f 5e 22 03 ab 3f 3a bc 3f
       0.11139560971898689 0.1102638046751365
000710 51 b0 ae aa 6f 82 b9 3f f6 a7 3b 17 18 41 b9 3f
       0.09964654843378297 0.09864950720989882
000720 1d a9 24 fb b7 d2 b8 3f d0 a5 9e fb 9b 61 b8 3f
       0.09696531182695307 0.09523939984378349
000730 7a ce df 48 90 68 b8 3f 6c 96 3c 5e 1b 5b b9 3f
       0.09534551409870487 0.09904643107128103
000740 dc d2 d2 7c 78 d0 b4 3f 58 11 c6 ad 0e 79 b5 3f
       0.08130600974511587 0.08387843840143228
000750 59 65 bd b5 fe 85 b5 3f b9 5d 62 7a 9d 97 b5 3f
       0.08407585083968651 0.08434471357246921
000760 d0 67 eb 6d 4b c6 b5 3f 7a ba 32 87 33 10 b6 3f
       0.08505698617537338 0.08618471194015767
000770 04 66 05 dc b7 36 b6 3f 30 a4 c5 87 84 54 b6 3f
       0.0867724334870204 0.08722713770625101
000780 f2 f7 29 5a a1 6b b6 3f 16 a7 32 e3 c6 41 b6 3f
       0.08757980777042443 0.08694117590735248
000790 ca 6d 76 64 cd d4 b5 3f 2e 29 ec e8 83 f4 b5 3f
       0.08527835562420374 0.08576225697121195
0007a0 f3 1b 3f 35 a3 e1 b5 3f 9f f6 dc 74 fd 3b b6 3f
       0.08547420549358246 0.08685287573913535
0007b0 fd b6 57 21 45 a3 b6 3f 20 ee 1b 5f 28 40 b6 3f
       0.08842880310086439 0.08691646883010451
0007c0 a2 af b7 f1 40 44 b6 3f 61 af a2 72 df 35 b6 3f
       0.08697896863276225 0.086759534346752
0007d0 16 eb 44 8a 7d 95 b6 3f 06 47 25 a6 84 40 b6 3f
       0.08821854234421908 0.08692196899690083
0007e0 8d 86 c6 46 7c 16 b6 3f 19 6a d5 5c 23 19 b7 3f
       0.08628060081403018 0.09022732750364816
0007f0 ee 9f 45 93 a9 21 b7 3f ff 6b 5a c5 6c 75 b7 3f
       0.09035739751345748 0.09163551157182324

count f8 []
000000 00 00 04 20 40 96 18 42
       26400000001.0

running_mean f8 [1]
000000 ef 49 a6 09 cc 8c 72 40
       296.7998138900429

running_var f8 [1]
000000 20 5b 1e 43 46 11 bf 40
       7953.274461648223

count f8 []
000000 00 00 10 20 40 96 f8 41
       6600000001.0

a2c_network.sigma f4 [15]
000000 a1 f5 20 c0 d6 40 15 c0 90 c7 db bf 87 f8 aa bf
       -2.514992 -2.3320823 -1.7170277 -1.3357095
000010 33 9b cb bf ad 16 da bf 89 49 c2 bf 64 98 e7 bf
       -1.5906738 -1.703817 -1.5178691 -1.8093381
000020 60 79 d9 bf 8e b1 be bf 31 95 c6 bf f3 f2 03 c0
       -1.6990166 -1.4897935 -1.551428 -2.0617034
000030 a0 42 c3 bf d5 ef ee bf fe b3 07 c0
       -1.5254707 -1.8666941 -2.1203609

a2c_network.actor_mlp.0.weight f4 [128, 376]
000000 58 3f 46 3b c6 e6 fb bd e5 76 4b 3e 9c 14 4f be
       0.0030250158 -0.12299876 0.19869573 -0.20222706
000010 46 44 5e 3d 87 23 92 bc 80 fb 69 be 81 55 c4 3d
       0.05426433 -0.017839206 -0.22849846 0.09586621
000020 d3 5e 85 be 44 e1 25 be 0b ea ca 3e cb 3d 01 bf
       -0.26048908 -0.16199213 0.39631686 -0.50484914
000030 ef 92 32 3e 72 b3 8f 3e 91 4a 0c be 0d d6 a0 3e
       0.17438863 0.28066593 -0.1370032 0.31413308
000040 c7 03 2e 3e 66 df 15 3f da 17 39 bf a0 c8 fc be
       0.16993628 0.58544004 -0.7230202 -0.49371815
000050 95 7b a6 3a e0 da 5b 3e d0 e9 ab be 47 68 2e be
       0.0012701625 0.21470213 -0.33576822 -0.17031966
000060 14 16 56 bd b8 34 0b 3f e8 cf 75 be 0f 4f f6 3b
       -0.05226715 0.5437732 -0.24005091 0.0075167487
000070 f2 c2 ec 3e f9 5c 1b 3e ef 27 09 3e 42 66 09 bd
       0.4624248 0.15172185 0.1339414 -0.033544786
000080 4d 35 f0 3d 26 55 db bd bc 5b 29 be 9e 13 03 3e
       0.11728916 -0.107096 -0.165389 0.12800452
000090 30 fc 59 3f 5d b8 ad be dd 6b f0 be ad c3 18 bf
       0.8515043 -0.3392972 -0.46957293 -0.5967358
0000a0 5e 6f bf ba c4 dd 18 3f c6 37 1c 40 52 49 2b 40
       -0.0014605334 0.5971339 2.4409041 2.67635
0000b0 38 03 1f bf f7 8b b2 3d f0 bd cd bd 63 41 11 3f
       -0.62114286 0.087181024 -0.10045993 0.567404
0000c0 81 6b df 3d a5 4f 08 bc 3f c1 cd 3d f2 74 9d be
       0.109091766 -0.00831977 0.100466244 -0.30753285
0000d0 65 a0 38 be 6c 31 ba 3d a3 2d b8 bd 42 5b e8 3c
       -0.18029936 0.09091458 -0.089930795 0.028363828
0000e0 ec a8 e8 bd 58 36 89 3c f5 40 1c bd b2 60 0f be
       -0.11360344 0.016749546 -0.038147885 -0.1400173
0000f0 fb 60 fb 3e 87 80 0a bf 5e 69 82 be e1 83 04 be
       0.49097428 -0.5410237 -0.25471014 -0.12940933
000100 62 5f 17 be ee cf d3 3e ca d8 8d bd 44 8d 75 be
       -0.1478248 0.41369575 -0.06926115 -0.2397967
000110 ac 06 b6 bd de c7 9d 3e f2 54 ab 3d 04 1e da 3c
       -0.08887991 0.3081655 0.083658114 0.02662564
000120 b2 c1 36 be ce 82 86 3d f4 5f cd 3e 09 f5 60 bd
       -0.17847326 0.06567918 0.4011227 -0.054921184
000130 37 06 04 be aa 33 b1 be d9 94 3d be cc 2f 6a 3d
       -0.12892996 -0.3460973 -0.18513812 0.05717449
000140 f6 4e 56 3e 0d 1d f0 b9 d0 03 08 be 06 71 78 be
       0.20928559 -0.00045798012 -0.13282704 -0.24261865
000150 78 53 0c be f9 57 bf 3d 67 33 a2 be 9d 72 1c be
       -0.13703716 0.09342951 -0.31679842 -0.15278096
000160 bd 51 f1 be 73 37 92 3d 82 99 d8 bd 11 6f 15 bd
       -0.47132674 0.07139482 -0.10576154 -0.036482874
000170 07 cf fc bd 1b 43 cf 3c b6 99 5b 3c f4 1c cf bd
       -0.12344175 0.025300553 0.013403347 -0.10112944
000180 30 95 97 bd a8 eb 7c be 78 10 53 bb 31 97 3f be
       -0.07401502 -0.2469927 -0.003220586 -0.18710019
000190 3e eb 38 bd 73 df af 3b 44 84 96 be df 5a df bc
       -0.04514622 0.0053672134 -0.29397786 -0.02726501
0001a0 2f 11 83 be 18 5d 22 3e 61 08 8b bd bc dc a5 3d
       -0.25599048 0.15855825 -0.067887075 0.08098742
0001b0 2d bc c4 bd 9e b7 1d 3e 8c 36 af 3b 34 60 41 3d
       -0.09606204 0.15402076 0.0053470787 0.047210887
0001c0 3e 31 df bd 15 8e ac 3d 2a 9c 46 3c 9b 4f 8f 3e
       -0.10898064 0.084255375 0.012122193 0.27990422
0001d0 07 17 d1 3c 0e 21 f4 bd 74 26 3a 3d 87 ce ef bb
       0.025523676 -0.11920367 0.045446828 -0.007318321
0001e0 5a e6 65 bd 31 d4 93 bd 92 75 0c 3c 58 b2 83 3d
       -0.056127883 -0.07218207 0.008572953 0.06430501
0001f0 c8 6d dd 3d 38 e3 14 3c 6f 9c fa 3d 94 05 de 3c
       0.10811955 0.009087376 0.122368686 0.02710227
000200 53 b1 fd 3d 75 60 45 3d ef 25 89 3e f5 07 70 bd
       0.123873375 0.04818769 0.26786754 -0.05860134
000210 73 bc 47 bd 81 7b 25 bd 79 39 48 3d 4e bf b9 3d
       -0.048763704 -0.040400986 0.048882935 0.090696916
000220 b8 55 16 bc a7 80 34 3e 87 e8 8e 3e e2 55 c7 bd
       -0.00917571 0.17627202 0.2791178 -0.09733178
000230 7a d6 e0 3d 0f 37 90 3d b6 e1 b6 bd 8f 14 b3 3d
       0.10978408 0.070417516 -0.0892977 0.087441556
000240 79 19 95 3e 1d d2 f1 bc b1 0e 10 3e 66 64 83 3d
       0.29120997 -0.029519135 0.14068104 0.06415634
000250 45 c9 9f bd 36 0e 01 3d db 01 1c bd 12 da 06 3d
       -0.07802061 0.031507693 -0.038087707 0.03292281
000260 85 12 b9 3c 96 28 17 be 71 f9 0a 3e 44 79 a6 3d
       0.022591839 -0.14761576 0.13571717 0.08128598
000270 a8 a3 87 bd ce ef 69 3e ff 99 d0 bc b7 00 15 3e
       -0.06623012 0.22845384 -0.025464056 0.14551054
000280 ab 7f 0f be cc a8 bf 3a e9 14 f3 3d 91 38 11 3e
       -0.14013545 0.0014622449 0.11869223 0.14181735
000290 29 a3 44 3e 21 ed f7 3d a0 04 e7 b9 90 14 9e 3d
       0.19202866 0.121057756 -0.000440632 0.07718766
0002a0 d4 3b 5f be f2 88 be 3c c6 48 4f 3d 03 94 01 3e
       -0.21800166 0.02325866 0.05060651 0.12654118
0002b0 c5 47 d4 bc 83 22 b3 3d 87 ba a8 bd 7a ce 6d bd
       -0.025913129 0.08746817 -0.08238702 -0.05805824
0002c0 dd 30 0b 3e cb 5b 6b be 7c ab 37 be 76 d5 ea 3d
       0.13592859 -0.22984235 -0.1793651 0.11466496
0002d0 0e 62 08 3d b9 37 bd bc e3 02 19 be 3c 2a 0f 3e
       0.033296637 -0.02309786 -0.14942507 0.13980955
0002e0 c6 08 0e bc f5 ae ea bc ed 76 28 bd e6 10 48 bd
       -0.008669084 -0.02864788 -0.04112904 -0.04884424
0002f0 fa 92 88 bd be dd 0e 3d cc 4a bc 3d c1 77 a4 3d
       -0.066686586 0.03487944 0.09193954 0.08030654
000300 8f 36 2e bd 3d fe b0 3d 1f 13 08 3e ca 20 8c 3d
       -0.0425325 0.08642242 0.13288544 0.068421915
000310 df 0a 2d 3e 82 a4 12 bc 22 87 34 be 11 f6 01 be
       0.16898678 -0.0089503545 -0.17629674 -0.12691523
000320 90 3d 0d bc fc 2b 7c bd 58 07 ef bc 90 36 c3 bd
       -0.008620635 -0.061565384 -0.029178306 -0.09531891
000330 da 11 06 be 20 9e 3a 3e 05 01 0e bd 5f 58 bf bb
       -0.13092747 0.18224382 -0.03466894 -0.005839392
000340 30 4a d4 bc 0e d6 a8 bd 39 72 1d be f3 44 6b 3d
       -0.025914282 -0.08243953 -0.15375604 0.057438802
000350 0e fe e2 bd b1 9b 03 3e 6c db 0c be 56 ef 8e 3d
       -0.11083613 0.1285236 -0.13755578 0.069792435
000360 39 58 12 bd 99 2f 84 bc a3 14 51 b9 40 87 3b be
       -0.035728667 -0.016135978 -0.00019939481 -0.18313313
000370 17 66 08 3d d8 56 66 3e 41 da 1e 3e 36 07 3f 3e
       0.033300485 0.22494066 0.15512945 0.18655095
000380 d9 ca 0a 3e 20 cb 3e 3d d3 d6 df bd 66 2f 8b 3d
       0.13553943 0.046580434 -0.10929646 0.0679615
000390 01 e2 18 bd e7 d4 02 3e 5d 1f 24 bd 6c 44 e2 3d
       -0.03732491 0.12776528 -0.040068973 0.11048207
0003a0 19 29 13 be b1 2f 30 3d ad b1 06 3e 90 3f 9b be
       -0.14371146 0.043014232 0.13153715 -0.30321932
0003b0 e4 af 6f be eb 0e 21 3d dd 31 20 3e 5a c4 01 3e
       -0.2340694 0.039320868 0.15644021 0.12672558
0003c0 4e b6 39 3e ad 12 1f 3e da df 02 3e 00 1d 5c bd
       0.1813595 0.15534468 0.12780705 -0.053738594
0003d0 63 ef a9 bb 28 33 f5 3c 30 eb 0b 3d c5 e8 82 bd
       -0.005186008 0.02993162 0.03415984 -0.063920535
0003e0 1b 13 70 bd b7 ca ea bb 77 83 62 bb 8a 04 22 be
       -0.05861197 -0.007165279 -0.0034563222 -0.15822044
0003f0 97 2c 1c be d8 d4 26 3d 1b c1 ce 3d 89 29 ed bb
       -0.15251385 0.040730327 0.10095426 -0.0072376174

a2c_network.actor_mlp.0.bias f4 [128]
000000 65 e7 05 bf 32 cf dc be 8c 9d 22 bf a7 6d 3e bf
       -0.52306205 -0.43126827 -0.6352165 -0.74386066
000010 13 d3 a8 be a6 36 8f bd a9 40 29 bf f3 89 f6 be
       -0.32973537 -0.06992845 -0.6611429 -0.48152122
000020 96 dd bb be d8 2e 38 be 54 cc 3b be bb 2b 64 be
       -0.36692494 -0.1798662 -0.18339664 -0.22282307
000030 19 80 98 be 37 4d 83 be a8 18 34 be 71 f3 48 bf
       -0.2978523 -0.25644848 -0.1758753 -0.7849646
000040 aa 87 64 be 0d 2b 41 be ee f3 14 bf 80 e0 59 bf
       -0.22317377 -0.18864079 -0.5818471 -0.85108185
000050 45 c1 93 be 16 49 19 bf af 66 68 bf a8 9b 50 bf
       -0.2885839 -0.59877145 -0.9078168 -0.8148751
000060 5b 0a 11 be 0d 89 74 be 6e ab 08 bf 92 f4 08 bf
       -0.14164107 -0.23880406 -0.5338658 -0.53498185
000070 59 66 19 be 33 ee 50 bf 7d dd 3a bf d3 1d e5 be
       -0.14980449 -0.81613463 -0.72994214 -0.44749317
000080 ed 6c 03 bf a8 9d a4 be 3e 42 93 be ce ae ed be
       -0.5133808 -0.32151532 -0.28761476 -0.46422428
000090 3b 58 39 be 83 c9 b0 be 2c 66 cd be 75 65 3f bf
       -0.18100064 -0.3452874 -0.40117013 -0.74764186
0000a0 78 3f 3a 3d 61 13 59 bf ab 9a 2c bf d2 d3 fc bd
       0.045470685 -0.84795195 -0.67423505 -0.12345089
0000b0 d9 b2 91 be 3a 2d 45 3c b6 4f 11 bf 09 b4 0c bf
       -0.28456762 0.012034709 -0.56762254 -0.5496221
0000c0 60 2c 2d bf 05 34 8e bd 6d ff bc be 0c 08 3d be
       -0.67645836 -0.06943516 -0.36913624 -0.18460101
0000d0 d9 4f 84 be 3c 84 1d bf 0d ff a5 be 17 b3 7b bf
       -0.2584217 -0.615299 -0.3242115 -0.98320144
0000e0 f4 1e da be e3 6a 26 bf 4d 85 30 bf bc f2 cd be
       -0.4260174 -0.65006846 -0.689534 -0.40224254
0000f0 36 6f a1 be 58 03 3a be 38 3c b5 be d7 9d 41 bf
       -0.3153016 -0.18165338 -0.35397506 -0.7563147
000100 75 61 1c bf 14 5a e4 be 47 a8 3d be fc b3 9c be
       -0.6108621 -0.44599974 -0.18521224 -0.30606067
000110 3e f2 10 bf 71 88 43 bd 52 5e b8 bd 05 f4 4b bf
       -0.5661963 -0.047737543 -0.09002365 -0.7966922
000120 fd f3 a2 3d 49 0e 23 bf 22 f3 16 bf 25 70 d5 be
       0.07956693 -0.6369367 -0.5896474 -0.41687122
000130 da d7 94 bf 34 06 5c be 0c a3 78 bd 92 63 0b bf
       -1.1628373 -0.21486741 -0.06070237 -0.5444881
000140 91 a3 84 bf 0f e2 25 bf b5 40 e0 be 10 bd 0b be
       -1.0362417 -0.64798063 -0.43799368 -0.1364634
000150 42 79 0a bf 8b af e2 be 58 be 5f bf 9d 85 f9 bd
       -0.54091275 -0.44274554 -0.87399817 -0.12183688
000160 79 8b 58 be 0c 49 8e bf ac 07 d4 be e1 d7 ee be
       -0.21146955 -1.1116042 -0.41412103 -0.46649078
000170 65 08 81 be ef 89 45 bf c9 12 f9 bd c9 ea 7f be
       -0.25201717 -0.77163595 -0.12161786 -0.24991907
000180 ad 48 a4 be ef 23 09 bf be 7d 3e bf c0 ef 4e bf
       -0.32086697 -0.53570455 -0.7441062 -0.8083458
000190 e7 69 60 bf 8f a3 a3 bd 5f 98 e5 be dc 81 0c bf
       -0.87661594 -0.07990181 -0.44842812 -0.5488565
0001a0 0a 7d 9d be f0 1a 09 bf a4 93 ff be 04 a6 8e be
       -0.3075946 -0.5355673 -0.49917328 -0.27861035
0001b0 53 08 0c bf cc ce 3e be 9a 3f 65 bf b8 0a 2c bf
       -0.547002 -0.18633574 -0.89550173 -0.67203856
0001c0 44 7f 05 bf 5f dc a1 be 06 49 55 bf 03 2b a7 be
       -0.52147317 -0.31613442 -0.8331455 -0.32650003
0001d0 ba 7d 4b bf a1 23 dc be 4e 91 1a ba ee b0 46 be
       -0.7948872 -0.42995933 -0.0005896286 -0.19403431
0001e0 db e6 04 bf 37 95 a4 be 0b 2a c9 be 99 3e 04 bd
       -0.5191476 -0.32145092 -0.3928989 -0.03228626
0001f0 2c d4 a0 bb 63 b8 0e bf d5 20 89 be e0 1e 1f bf
       -0.0049081054 -0.557501 -0.2678286 -0.62156487

a2c_network.actor_mlp.2.weight f4 [128, 128]
000000 c0 e9 5e 3e da f6 3d 3e 63 80 96 bd ec c3 2f bc
       0.21768856 0.18551198 -0.073487066 -0.010727864
000010 78 6d e4 3d e4 f2 df 3b 71 40 87 3d 4a f4 77 3c
       0.11153692 0.0068343747 0.06604088 0.015133927
000020 bf de 84 bd 07 8f bf bd 14 cf 88 3e 31 5f 63 bd
       -0.06487798 -0.09353452 0.26720488 -0.055510703
000030 13 ef 18 bf 9b 2f fe bd 28 2d 8b be ba 70 42 3c
       -0.597398 -0.12411424 -0.2718289 0.011867696
000040 b8 ea 48 be 9a 45 02 be c0 91 3f be 9a 4a 0a be
       -0.19620788 -0.12721863 -0.18707943 -0.1350502
000050 30 1f 2d 3e ed 15 8e 3d 06 b3 da be 2c cb 0c 3d
       0.16906428 0.06937776 -0.4271471 0.034373447
000060 17 4c a4 bc b6 d5 17 be 0c 20 f2 bd 49 90 65 be
       -0.020055814 -0.14827618 -0.11822519 -0.22418322
000070 ab 3e 58 be 57 35 b2 bc e3 83 9a 3c de 34 a2 be
       -0.21117656 -0.02175395 0.018861717 -0.3168096
000080 fc f9 51 be 14 08 34 be d8 15 93 bd a7 b5 0a bf
       -0.20505518 -0.17581207 -0.07181901 -0.5418343
000090 48 e1 da bd aa ff 18 3e d5 f7 4b bd 2a cd 5a bd
       -0.106875 0.14941278 -0.049796898 -0.053418316
0000a0 b6 01 bb 3d a8 a5 74 be d2 f5 f0 3d ba b1 4a bd
       0.09131186 -0.23891318 0.117656365 -0.0494859
0000b0 e6 09 38 3e ba 19 d5 bc f8 44 2b 3c 77 27 62 3d
       0.17972526 -0.026013244 0.010453455 0.055213418
0000c0 c9 6d 4a be 44 ea 7e be 7b 15 78 bd 3c 1a 9b 3d
       -0.19768442 -0.24894053 -0.06056736 0.07573363
0000d0 53 9a 4d 3c b3 eb 95 3d 9f 56 fc bd 97 9f 0e 3e
       0.012549001 0.07320347 -0.12321209 0.13928066
0000e0 3d 0b 03 be 2a 69 bd be 2d 77 8e be ca 66 07 bd
       -0.12797256 -0.36994296 -0.278253 -0.03305701
0000f0 48 66 1c 3e 8c 00 10 3e 53 7a 8d be 2f 70 80 3e
       0.15273392 0.14062709 -0.27632388 0.2508559
000100 88 41 74 3d 92 d1 f3 3c 4d 44 f7 be db 82 aa 3d
       0.059632808 0.029763017 -0.48294297 0.0832574
000110 44 4e c4 bd 4d bd 0a 3e 88 29 f0 bd cf 84 c0 bd
       -0.095852405 0.13548775 -0.117266715 -0.09400331
000120 44 98 24 bd e2 3e 2f 3d ea cd 25 be dc 16 95 3b
       -0.040184274 0.04278458 -0.16191831 0.004549844
000130 c3 f0 35 be 8e bf 31 be 61 ec 8d bd 02 cf 0b bd
       -0.17767625 -0.17358229 -0.06929851 -0.034132965
000140 8f 44 c5 3d e6 f3 17 3d ef e2 cf bd c2 39 92 bd
       0.09632217 0.037097834 -0.10150706 -0.07139923
000150 38 89 e7 bd 9f 16 50 3e 7b 22 99 3d 3c 78 ab be
       -0.11305469 0.2032113 0.0747728 -0.3349017
000160 a8 c7 2d be b3 7c 2c 3e 58 c8 1c be 9a b1 f9 bd
       -0.16970694 0.16844444 -0.153108 -0.12192078
000170 39 04 5c be 07 67 70 bd d9 c4 07 bf 89 fd 91 be
       -0.21485986 -0.058692005 -0.5303474 -0.28513744
000180 c2 6a 1b be 86 a3 6e 3d 5b 27 b6 bd d9 64 e2 3d
       -0.15177444 0.058261417 -0.08894225 0.110543914
000190 18 7d f4 bd 1e e3 45 3e ff 95 08 be a6 4b 57 be
       -0.11937922 0.1932492 -0.13338469 -0.21024951
0001a0 b5 bf 8c bd c8 2e ae be 20 d7 94 be 15 3d 87 bc
       -0.06872503 -0.34020066 -0.29070377 -0.016508618
0001b0 11 e4 c6 bc 44 30 fa bb 69 5d 82 3d de ff 1e bd
       -0.024278672 -0.0076351482 0.06365473 -0.038818233
0001c0 0b 6c 92 be 42 1c 8a 3e c1 f2 8a bd 5b 59 90 3d
       -0.28598055 0.26974684 -0.06784583 0.07048293
0001d0 51 53 57 3d 76 e6 18 3d 39 06 00 be 37 01 70 be
       0.05256969 0.03732916 -0.12502374 -0.23437963
0001e0 4c 35 16 be 2a fc 07 be ae dc 3a be f1 fb 0f 3e
       -0.14668769 -0.13279787 -0.18248245 0.14060952
0001f0 1f 41 3a be 1f aa 05 be d2 b0 a2 3c 83 62 70 3d
       -0.18188904 -0.13053177 0.019859705 0.058687698
000200 23 55 81 3d 23 70 10 ba 72 e5 13 3e f1 02 f4 bd
       0.06315067 -0.0005509874 0.14442995 -0.119146235
000210 10 dc d4 bb ff 6d 67 bd 55 91 2c bd f3 2c d3 bc
       -0.00649596 -0.056501385 -0.042130787 -0.02577827
000220 86 81 69 be a8 a1 6c 3d 12 c4 94 3d 3b 60 d4 bd
       -0.22803316 0.057771355 0.0726396 -0.10369917
000230 bd 0f 46 be f8 52 20 3d 88 b7 15 be 2c 4b 99 bd
       -0.19341941 0.039141625 -0.14620793 -0.07485041
000240 37 ce 5b bd 99 0f 9f be 42 90 9d be 58 d9 06 be
       -0.05366346 -0.31066588 -0.30774122 -0.13168848
000250 89 86 40 be 57 04 92 bd 68 71 6a bd 10 ca 08 3d
       -0.18801321 -0.07129734 -0.05723706 0.033395827
000260 e0 97 0f bd 1c 70 83 3e 00 4c e7 bd c0 e4 b3 bb
       -0.03505695 0.2567147 -0.11293793 -0.0054899156
000270 37 03 a7 bd d6 02 31 bc ed 7a b9 bd b2 40 3a be
       -0.0815491 -0.010803899 -0.09056649 -0.18188742
000280 48 2a 42 3d 46 62 89 bc 73 86 77 bc 8a 8b 90 bd
       0.047403604 -0.016770493 -0.015107739 -0.07057865
000290 aa 88 06 be 24 46 6f be 04 3c 0a 3e 50 60 0e be
       -0.1313807 -0.233666 0.13499457 -0.13903928
0002a0 90 51 13 be 9a 85 6d bd c5 47 b9 be 71 7a cc be
       -0.14386582 -0.05798874 -0.36187568 -0.39937165
0002b0 06 1b 8d 3b 37 8a 80 bd 23 1a ab 3d 28 ba b3 bc
       0.0043062 -0.062763624 0.083545946 -0.021939352
0002c0 d7 d7 82 3d 95 f3 bc bd 94 b9 1a be 65 15 e4 bd
       0.063888244 -0.09226147 -0.15109855 -0.11136893
0002d0 ec fa 92 3b ae 97 91 be f3 22 92 3d 1f e8 92 3d
       0.0044854786 -0.28436035 0.07135572 0.0717318
0002e0 45 24 d6 bd 9d b4 98 bd 54 be ea 3d 72 16 49 3d
       -0.104561366 -0.07456324 0.114620835 0.04909367
0002f0 60 22 6b bc bf b1 86 3d 73 b9 02 bc f2 ee 36 bd
       -0.014351457 0.06576871 -0.007978785 -0.04466147
000300 cf a9 41 3d 60 2f 2b bd ce ad 17 be a2 f3 ae bc
       0.047281083 -0.041793227 -0.14812395 -0.021356408
000310 3c 7e 49 3e 33 af d9 bc 3b 68 b1 3c f5 2a d9 3c
       0.19677061 -0.0265728 0.021656146 0.026509741
000320 2a 11 4d bf ae cb 0c 3e 80 8f 76 3d 3d 58 20 bd
       -0.80104315 0.13749573 0.060195446 -0.03914665
000330 67 ac 69 bd 9e 8f c8 bd df 58 b9 be fd ff 7d 3e
       -0.05704918 -0.09793018 -0.36200616 0.24804683
000340 08 fc 20 3e 49 50 6c 3d f4 65 c2 bc f5 4e 92 3c
       0.15721142 0.057693753 -0.023730256 0.017859915
000350 45 60 97 3d 1d 97 02 be 18 a5 09 be c5 be 87 bb
       0.07391409 -0.12752958 -0.13441885 -0.0041426145
000360 e2 c6 06 be 6b 7f 8b be 66 43 57 bb 23 ec 40 bd
       -0.13161805 -0.2724565 -0.003284657 -0.047100198
000370 7b 1f 69 bd 6a 39 ee bd 65 d5 1c bf ca 14 2e be
       -0.056914788 -0.116320446 -0.61263114 -0.17000118
000380 7e 75 10 be aa 29 ad be 01 34 ff bd 76 f8 bf bb
       -0.1410732 -0.3382085 -0.12461091 -0.0058584763
000390 7a d0 9d bd 8d e8 45 be 94 85 9f be b0 02 06 3e
       -0.077057794 -0.19326992 -0.311566 0.13086963
0003a0 e2 f3 17 be 21 c6 ff bd 2c 66 5a 39 67 68 29 be
       -0.14839128 -0.12488962 0.00020828162 -0.16543733
0003b0 b6 36 69 3d e8 e0 2f 3e 7b 91 65 3e 43 57 fd bd
       0.056936942 0.17175639 0.22418778 -0.123701595
0003c0 62 df 86 3d fe 7c a0 3d 37 88 61 bd 33 18 5e 3d
       0.06585576 0.0783634 -0.055061545 0.054222297
0003d0 13 7d bf bc 2b 6b 79 bd 3e 01 2c bd 8b 02 96 bb
       -0.02337507 -0.06089322 -0.041993372 -0.00457794
0003e0 1e 01 8b 3d cf 84 16 bd 90 b0 38 3e f7 5e 09 3e
       0.067873225 -0.03674775 0.18036103 0.13415132
0003f0 5e f6 af bd be 69 60 3d 59 41 24 3e 05 41 89 be
       -0.08591913 0.054788344 0.16040553 -0.26807418

a2c_network.actor_mlp.2.bias f4 [128]
000000 a9 72 5c bc 50 e7 62 be 77 9d f2 bd f4 ee a3 be
       -0.0134550715 -0.22158551 -0.1184644 -0.32018244
000010 8f f9 b2 bd 5f 32 39 bd a9 dd 4a bf 4c d4 4f be
       -0.08739006 -0.045214053 -0.79244477 -0.20295829
000020 c9 ac 8d be 30 0d 0b 3e b8 b5 db bd a5 3e 41 be
       -0.27670887 0.1357925 -0.107280195 -0.18871553
000030 05 7a 98 be 71 c7 d4 3c 33 2b c5 3d e3 1b af be
       -0.29780594 0.025974007 0.0962738 -0.34200963
000040 16 19 ca 3d 9a 27 b1 bd 58 67 f4 bd ca 78 e9 bc
       0.09868066 -0.086501315 -0.11933774 -0.02849998
000050 42 a2 41 be 8a 15 1a bd 10 e6 46 3e 9f b8 a6 bd
       -0.18909553 -0.037618198 0.194237 -0.081406824
000060 93 42 89 3d 0a 29 c2 3a 9c c4 3b 3e 48 3b 36 be
       0.06702151 0.0014813256 0.1833672 -0.17796052
000070 8e f6 ef 3d 7f 9b 30 bf dd ff b7 be 36 7a 59 be
       0.117169484 -0.6898727 -0.35937396 -0.21238026
000080 aa 3e 0a be 49 f3 79 be 0c a1 90 be 56 0c cf bd
       -0.13500467 -0.24409212 -0.2824787 -0.10109775
000090 42 ac f7 bc 16 fe 8e be 13 31 6b 3e 39 80 fe 3d
       -0.030233506 -0.27928227 0.22967939 0.124268
0000a0 ec 7b b0 be fe 6a d5 3c b4 88 66 be 03 9e a2 bc
       -0.34469545 0.026051994 -0.22513086 -0.019850736
0000b0 90 4c 95 be e7 dc ad bd d7 c4 f4 bd be 13 1f bd
       -0.29159975 -0.084893994 -0.11951607 -0.038837187
0000c0 ce ca a9 be 84 94 d8 3d 08 f3 84 be 5e 62 c0 bb
       -0.3316254 0.10575202 -0.25966668 -0.0058711013
0000d0 b6 a3 13 be f7 9d b8 be 7f 09 8f bd ed c5 09 bd
       -0.1441792 -0.36058018 -0.06984233 -0.033636022
0000e0 88 c1 22 be 8b 18 f1 bd 18 24 a2 be be 03 57 3d
       -0.15894139 -0.11772259 -0.31668162 0.052493803
0000f0 f8 99 65 be 8a 63 49 be 6b 19 8c be f5 49 0c bf
       -0.22422016 -0.19666877 -0.27363142 -0.5480035
000100 e6 e4 90 be d5 c0 b7 be 8a 2e 82 bd d0 1b 27 be
       -0.28299636 -0.35889307 -0.06356533 -0.16319203
000110 95 be 65 3c 4c 66 76 be a6 33 fd bd 8e 6f 8a bb
       0.014022489 -0.2406246 -0.12363367 -0.004224724
000120 01 2c 15 be a2 05 97 bd fa b6 83 3d 0f ef 30 3e
       -0.14567567 -0.07374121 0.064313844 0.17278694
000130 e2 dd e1 3d 86 7f a2 be 7b ba 34 be a0 75 6f be
       0.11028649 -0.31737918 -0.17649262 -0.23384714
000140 37 c4 83 3c c2 90 f6 3c 81 21 14 bd 9f f6 4c 3a
       0.016084773 0.030098323 -0.036164764 0.0007818732
000150 c0 5f af bd 98 d3 3f bd ed 47 e2 3d 81 84 25 3e
       -0.08563185 -0.04683265 0.11048875 0.16163827
000160 b9 7a f1 3d 68 39 76 3d df b1 4d be b9 d6 01 3e
       0.117909856 0.06011334 -0.20087384 0.12679566
000170 4e d8 1d bf e8 ea 05 3e 5f 87 b6 bd 3e 08 ad bd
       -0.6165818 0.13077891 -0.08912539 -0.08448838
000180 3b 2c 15 3d e4 18 49 be 85 37 20 3e 39 10 31 be
       0.036419135 -0.19638401 0.15646179 -0.17291345
000190 63 9e 6a be 87 d8 5f be 06 da f4 b9 ec 7c 96 be
       -0.22911982 -0.21859942 -0.00046701747 -0.29392183
0001a0 24 b9 cd 3d 64 85 e7 be ed a8 a3 bd 41 ee 95 be
       0.100450784 -0.45218956 -0.079912044 -0.29283336
0001b0 44 94 85 3d df 42 4c be 34 64 36 be 65 78 5a be
       0.0652242 -0.19947384 -0.17811662 -0.2133499
0001c0 7f dd 7e 3d 74 6a 14 bd 42 70 00 3d 57 53 32 be
       0.062222954 -0.036234334 0.031357057 -0.17414604
0001d0 91 50 a7 be 58 62 46 be 73 db e3 bd c7 47 67 3c
       -0.32678655 -0.19373453 -0.11125841 0.014116234
0001e0 fb ee 9a be 43 81 19 be 52 89 88 be 6e ae 73 bf
       -0.30260453 -0.14990716 -0.26667267 -0.95188034
0001f0 5b 28 20 bc 3a 67 22 be a1 af de be 75 a8 97 bf
       -0.0097752465 -0.1585969 -0.4349337 -1.1848284
