python/rlgpu/saved_nn/241001162237286415/last_Aliengoep=2250rew=[6138.06].pth (torch, 539546 bytes, 18 tensors)

running_mean f8 [376]
000000 d2 6b 10 61 cb 6f 66 bf b6 f5 6e 71 00 8f 76 3f
       -0.002738854622760447 0.005507470827919849
000010 a3 d4 9b 58 97 06 71 3f 65 06 ba 3b e1 a9 7e 3f
       0.00415667647915999 0.007486228768927104
000020 1e 11 74 b4 75 bb dd 3f 94 36 c9 90 c9 e6 dc 3f
       0.4645666372528171 0.4515861429143595
000030 e5 83 ab 06 47 77 e5 3f 65 31 b6 ee 21 e0 e5 3f
       0.6708102350495407 0.6836099302613944
000040 92 da 30 3c 4a 63 a7 3f b5 58 60 a0 fd b1 bb 3f
       0.04567939743758588 0.1081846729797203
000050 7d 67 67 62 f0 26 d2 bf 01 62 42 af 5a 01 af 3f
       -0.28362664804227916 0.06055720700641488
000060 b9 a3 a9 2e 1c 9c b8 bf fc bd eb 11 14 f0 d1 bf
       -0.09613205088829958 -0.28027822256169066
000070 e2 4d e6 aa fa 32 ac 3f 37 94 b4 c1 06 04 bc 3f
       0.05507644020249437 0.10943643788466849
000080 a6 9c a4 0f 95 ec d2 bf 6a 86 40 e3 19 7d aa 3f
       -0.2956898358119794 0.051735695830086595
000090 cf b3 04 8d ca 40 b6 bf c7 e3 87 95 b6 01 d3 bf
       -0.08692613547164217 -0.29697956659907415
0000a0 6c ed 6a fd 0f e3 9b bf 44 a4 bc aa a0 cc 98 bf
       -0.027233362047565476 -0.02421809236617302
0000b0 66 11 de 28 52 82 bb 3f 4e 57 b4 03 89 a6 9b bf
       0.10745728967419196 -0.027002468920805094
0000c0 97 75 1c 67 1f 49 92 3f 1a 22 fe 80 af a2 b9 3f
       0.017857065838247612 0.10013863467441589
0000d0 57 ce 18 dd 91 67 78 bf ff 7e 9e 0e cd 09 83 bf
       -0.005958146839066445 -0.009296037682190226
0000e0 0e 58 15 04 1c a0 b1 3f 2d 79 ba 58 26 87 83 bf
       0.06884932613078851 -0.009535121519829015
0000f0 a4 09 06 13 8f 48 7b 3f 01 b2 e3 b1 8f 6d af 3f
       0.0066609944191235206 0.0613827614450635
000100 41 1a 43 e3 14 2e de 3f 24 28 4c 81 f5 e8 e0 3f
       0.47156259721342414 0.5284373784390977
000110 24 28 4c 81 f5 e8 e0 3f 41 1a 43 e3 14 2e de 3f
       0.5284373784390977 0.47156259721342414
000120 65 ac c2 f8 8e bd a1 3f d4 b8 1d 54 df d2 68 bf
       0.034649341455712336 -0.003030239285116124
000130 25 e6 d5 cb 6f ed 8f 3f e9 09 05 02 06 30 74 3f
       0.015589593322817905 0.004928611248319539
000140 c0 62 ff a8 e2 02 96 3f f9 24 b3 da 36 4c 5f 3f
       0.021495381893916088 0.0019102607428059233
000150 86 05 4f 5d d9 c9 96 3f 24 dc 0e e3 d4 74 4a 3f
       0.02225436813364958 0.0008073844420469806
000160 ef 12 3c 3a eb f1 99 3f 7b f3 75 26 07 e8 4a 3f
       0.02533690970359975 0.0008211169160144827
000170 a6 14 5c 8b 5c 05 97 3f c7 5c 6e 1d c6 ac 44 3f
       0.022481390004959544 0.0006309478147724861
000180 8d 2e d8 33 a3 72 c3 bf b1 e0 fb 01 90 36 c4 3f
       -0.1519359591624049 0.15791511628026947
000190 0f de fe d1 09 65 d0 bf 89 9a 87 be 11 af c7 3f
       -0.25616689212208227 0.18503019145210356
0001a0 b6 80 4e 11 c4 ce cc 3f cd aa 8a 90 e4 c8 c1 bf
       0.22505999417353956 -0.1389432626504771
0001b0 69 81 1d 2a ab 40 a6 bf e3 a8 a9 66 04 79 c2 bf
       -0.043462132349989364 -0.14431815159634373
0001c0 7e b8 1b de dc 88 cb bf 3a 63 ae 9d ec 8a b0 3f
       -0.21511422009593056 0.06461981629980765
0001d0 3a 89 c9 69 65 66 c7 bf c2 19 6f 2d cf d6 c1 bf
       -0.18281238236802172 -0.13936795919853578
0001e0 d5 16 73 94 8a 82 dc bf 49 6d b9 6d fe 6c e5 3f
       -0.4454676103308491 0.6695549147656631
0001f0 97 3c f6 03 84 0d ef 3f 78 24 06 cc ae 5e cd 3f
       0.9703998639469259 0.2294519897662075
000200 72 b5 2c bf 02 d9 d4 3f 92 c1 3e 3d cd d4 cb 3f
       0.3257452837886695 0.21743169298634918
000210 b7 f1 ae 4c 75 dc c8 3f 57 bb f0 bb 55 98 c9 bf
       0.19422785038285692 -0.19996139218116113
000220 17 52 bc cc 4c 5f d0 3f 5d 95 fd a1 4f 09 b4 bf
       0.2558166503306735 -0.07826707558486619
000230 4f b7 6b 65 82 0e d4 3f 9d dc ec 16 ad ff b8 bf
       0.31338558105823194 -0.09765130815218233
000240 a9 56 b6 dd 7e f5 ae 3f 37 df 67 42 df 4b b0 bf
       0.06046673256348118 -0.06365771647676587
000250 75 0c cb 4f 2c 66 c8 bf 5d db 2f ba 36 7e dc bf
       -0.1906180753340753 -0.4452034776908727
000260 f2 e7 d3 5d 96 66 e5 3f 58 86 7f 94 03 07 ef 3f
       0.6687728722165487 0.9696061992983216
000270 06 8a d2 48 5b 59 cd 3f 9c 93 4c 4b b8 d4 d4 3f
       0.2292894464090553 0.32548339227133183
000280 75 d0 93 86 b5 d1 cb 3f 46 9d 9b c2 9a d8 c8 3f
       0.2173373133770188 0.1941102457269414
000290 49 1a f2 aa dd 95 c9 bf ae a7 fb ff 15 5e d0 3f
       -0.19988604399641677 0.2557425498804332
0002a0 fc 9b 9a 4f e4 09 b4 bf db 1c a4 e0 d2 0b d4 3f
       -0.07827593749480849 0.3132216638336566
0002b0 60 d2 e7 ae 9b 02 b9 bf bc ab bf 87 0b ed ae 3f
       -0.09769604702143786 0.06040226013268277
0002c0 1b ae 0a 4e ff 48 b0 bf e8 4f de 21 e9 64 c8 bf
       -0.06361385016742142 -0.19057954934817123
0002d0 b4 c6 a9 53 25 e5 c1 3f ed e3 c7 62 f9 25 c2 3f
       0.1398054750930463 0.1417838795021277
0002e0 f4 aa 4a b8 c3 42 c2 3f dd 75 7c 19 fd 54 c2 3f
       0.14266249178520918 0.14321864838068069
0002f0 b4 9d 2e c7 39 5d c2 3f 52 00 21 53 ce 4c c2 3f
       0.14347002244651963 0.14296893176106323
000300 ee 81 63 57 2c 33 c2 3f 72 0e 38 92 5b 2e c2 3f
       0.1421866823866504 0.14203972472761311
000310 07 a3 06 27 3f 3f c2 3f cb 3b 6b 1d 10 38 c2 3f
       0.14255513577997922 0.14233590542286687
000320 cf 21 3f 7f bc 24 c2 3f 0a 9d 89 6f 51 68 c2 3f
       0.1417461034127556 0.14380853601617388
000330 68 d4 b9 fb 00 73 c2 3f 84 21 1b 58 06 9b c2 3f
       0.1441346387033804 0.14535598089265644
000340 09 5b 18 14 25 ae c2 3f 05 3f 18 18 57 56 c1 3f
       0.14593947869499171 0.13544739414691534
000350 ac fb c0 6f 8b 23 c1 3f 7f 0d b5 78 f8 eb c0 3f
       0.13389723736505965 0.13220125097187105
000360 1f 33 6b e2 d7 e4 c1 3f 3c b3 ec 25 d8 db c1 3f
       0.13979624324419945 0.13952161647594064
000370 66 ba bd 7b 86 04 c2 3f 7c 13 c0 02 9a 0a c3 3f
       0.14076310197875158 0.1487610352925478
000380 bc 13 6c af d5 17 c3 3f 62 23 63 42 5e 33 c3 3f
       0.14916487756286567 0.1500051330715691
000390 2a 49 3f 7b c2 69 c3 3f 54 8a 2a 2e 18 f3 c1 3f
       0.15166502969675238 0.14023115400512387
0003a0 53 4a 67 84 b8 94 c1 3f 19 03 d1 44 67 5a c1 3f
       0.13735109772695128 0.13557139263323206
0003b0 55 5c 32 b2 c6 92 c2 3f 18 52 b7 1a f9 75 c2 3f
       0.14510425282489572 0.144225252194375
0003c0 3d 0e 31 90 ed 78 c2 3f 9d 14 59 19 70 a8 c3 3f
       0.14431542912108056 0.1535778163689984
0003d0 39 7d 82 53 21 ab c3 3f 83 72 a6 5d 7e a9 c3 3f
       0.1536599786531754 0.153610034682874
0003e0 d4 10 0b 99 16 37 c3 3f 72 8a 44 ba 2d 9d c2 3f
       0.15011866066755053 0.14542171092132922
0003f0 97 69 79 0f c8 19 c2 3f 74 f3 bf c1 0c 1b c2 3f
       0.14141178851680244 0.14145049534263487
000400 4f 9c 13 fd e2 9f c2 3f ef b8 b8 62 7c 29 c3 3f
       0.1455043540692906 0.14970354862584354
000410 d0 dd 33 7a 86 19 c3 3f f1 93 4d 2e d0 3f c4 3f
       0.1492164704029464 0.15819742451563415
000420 d6 d7 bf e0 d1 31 c4 3f 12 8a ba 9b 0d 50 c4 3f
       0.15777038072673005 0.15869302848757677
000430 a4 79 df ce 57 cf c3 3f 9d 44 cc 7c c0 33 c3 3f
       0.15476510621279005 0.15001684278152974
000440 77 0b 85 16 6e d1 c2 3f f4 34 64 06 53 ef c2 3f
       0.14701629733653096 0.14792859851915063
000450 20 cd 08 ee ec 93 c3 3f 69 54 6a d8 80 1d c4 3f
       0.15295182822010478 0.1571503693309382
000460 34 54 32 33 33 c5 c3 3f a1 15 91 1c 97 c2 c4 3f
       0.1544555664046655 0.16218842406139536
000470 f1 bb 02 16 25 98 c4 3f e3 19 1b ea 9b f1 c4 3f
       0.16089309286823508 0.16362332278204325
000480 5d 7b 08 71 b2 7e c4 3f a8 e4 48 dc c9 b5 c3 3f
       0.16011648673244397 0.15398524528589985
000490 8d ec 22 47 ee a7 c3 3f be 07 68 bf e9 c5 c3 3f
       0.15356234048326592 0.15447732778562612
0004a0 a7 aa 3f 6a 65 ae c4 3f b1 a4 d7 b1 58 1d c5 3f
       0.16157214820789997 0.16495808299740625
0004b0 dd f3 f9 60 1b 70 c4 3f 8b 97 ad b6 52 09 c5 3f
       0.15967123255896257 0.1643470184309844
0004c0 4d 15 da 82 06 38 c5 3f af b3 85 f9 87 26 c5 3f
       0.1657722605633957 0.16523837741570221
0004d0 6c 18 53 ec fd ea c4 3f 2b c1 fb 88 f0 77 c4 3f
       0.1634213832787198 0.15991026581424114
0004e0 88 ae cf bd 70 ba c4 3f 8f fb e9 11 27 e3 c4 3f
       0.16193970935943391 0.16318214773852133
0004f0 5c 5f 02 1f d4 57 c6 3f e8 67 14 2f a1 a1 c6 3f
       0.17455531610607522 0.17680754469694127
000500 95 4e 02 26 77 4f c5 3f e5 0d 20 01 ab 99 c1 3f
       0.1664875922766568 0.13750207476560586
000510 be b3 42 ec dd e1 c1 3f b7 a9 e4 8c de fa c1 3f
       0.13970541034850997 0.14046842460204598
000520 78 1c 47 98 88 1e c2 3f be 26 64 40 d2 43 c2 3f
       0.1415568107169951 0.14269474166967727
000530 34 45 51 ef 45 41 c2 3f a0 70 48 52 9e 2e c2 3f
       0.14261697945998153 0.14204768197749207
000540 0f 2e 11 89 fc 1e c2 3f 44 78 16 66 87 06 c2 3f
       0.14157063191156324 0.14082424626116297
000550 1e 6c f4 ab 06 e2 c1 3f 6c 1d a4 e8 82 d9 c1 3f
       0.13971026798466907 0.13945041999270857
000560 51 10 e7 c5 8f 26 c2 3f 9b 3a 55 d2 83 1a c2 3f
       0.14180180705273185 0.141434171392082
000570 5d 6a 13 07 d4 2f c2 3f be 53 f9 80 2a 6f c2 3f
       0.14208460183620533 0.1440175180202043
000580 86 80 5a d4 1c a8 c1 3f 21 eb 14 3e 7c 93 c1 3f
       0.1379428898699226 0.1373133948453296
000590 8c 67 61 9e 88 87 c1 3f 13 5c 06 84 df 54 c2 3f
       0.13694865926191502 0.1432151217129279
0005a0 c6 0d 61 06 16 1e c2 3f 8f a8 3f ed 89 06 c2 3f
       0.14154315291862768 0.14082454761893756
0005b0 3c 02 55 8d f7 da c2 3f 58 ed d2 70 7c b8 c2 3f
       0.14730734253864053 0.14625506886464268
0005c0 a9 a8 90 d2 3d 2f c3 3f a5 81 2a aa 33 88 c3 3f
       0.1498791959905408 0.15259404953850467
0005d0 71 65 f4 96 e7 4e c2 3f a7 d4 32 6d 93 2a c2 3f
       0.14303297873338353 0.14192431289635474
0005e0 b0 3e 4a 52 06 35 c2 3f 52 fa 67 29 35 19 c3 3f
       0.1422431852156385 0.1492067768267185
0005f0 31 65 b1 3f 35 db c2 3f da 6a 84 75 9c b9 c2 3f
       0.14731469736106242 0.14628940332553136
000600 ae c4 70 d9 0a 9f c3 3f 7b 41 62 91 f1 88 c3 3f
       0.15329108826839416 0.15261668776339463
000610 86 f7 d1 dd f8 f2 c3 3f 69 5a dd 83 1c ef c3 3f
       0.15585242110313063 0.15573460043625012
000620 3a 19 66 09 81 32 c3 3f 51 45 84 6d a0 f8 c2 3f
       0.1499787612812698 0.14821248385900757
000630 92 22 f7 d8 f9 0e c3 3f 92 27 0b 39 f8 10 c3 3f
       0.14889453023922222 0.14895537171679202
000640 d1 ec b7 89 b4 5a c3 3f 77 61 f1 08 2f 8c c3 3f
       0.15120560383352324 0.15271556793846816
000650 f8 73 e6 86 e7 51 c4 3f 9b e3 ee 2d 91 4a c4 3f
       0.1587495239918153 0.1585256075175295
000660 a7 5a 09 90 a3 f0 c4 3f f6 c5 32 12 d6 ee c4 3f
       0.16359371693643718 0.1635387028559731
000670 c1 10 0a 63 07 21 c4 3f 3b 40 45 2c 40 b6 c3 3f
       0.15725796066192824 0.15399934922834455
000680 63 48 53 76 2a d7 c3 3f 0a 1f 51 98 28 a6 c3 3f
       0.1550038411865585 0.1535082572684064
000690 5c a6 0c a4 22 fe c3 3f aa 0e 20 76 b2 43 c4 3f
       0.15619309435105577 0.1583159519942588
0006a0 97 99 1d 1b 88 f3 c4 3f 3c 49 e2 bb ec d1 c4 3f
       0.16368199657445068 0.16265639471073168
0006b0 c0 ea 75 50 a2 0d c6 3f f3 cf a6 e5 0a 1a c6 3f
       0.17229107788792497 0.1726697560640101
0006c0 27 6d b3 91 b6 ca c4 3f 26 52 7c 08 19 79 c4 3f
       0.16243631471920958 0.15994561113679245
0006d0 38 9e e4 d6 1d 58 c4 3f a0 7b 85 a0 23 5f c4 3f
       0.15893910401176625 0.15915341699561925
0006e0 f5 2c ec bc f6 a4 c4 3f aa d1 a9 23 4d e0 c4 3f
       0.16128429627165244 0.16309513322233943
0006f0 a9 28 71 4e cc a2 c5 3f f3 79 52 d9 dd 92 c5 3f
       0.16903070287873348 0.1685445128577637
000700 fa 7a 7d ff c8 7c c7 3f 2e c7 6f 9b e7 91 c7 3f
       0.1834956405172859 0.18414015855483384
000710 bb ba 51 80 78 ae c5 3f 7e c4 af 07 e1 95 c5 3f
       0.1693869234618058 0.16863644481012224
000720 32 26 0d 63 25 10 c5 3f 69 00 29 f1 77 e9 c4 3f
       0.16455523811809908 0.16337489390753326
000730 41 79 01 5a 64 2e c5 3f ec f7 6d b4 e5 a4 c5 3f
       0.16547827143490149 0.16909476575887028
000740 73 da 85 7d b3 93 bf 3f d3 35 de 09 57 35 c0 3f
       0.12334749044917163 0.1266278074439656
000750 f6 a4 68 d5 93 74 c0 3f 19 1f 9d b2 99 9a c0 3f
       0.12855766220426518 0.1297180292260627
000760 23 d5 7b 9c d5 b6 c0 3f d9 06 23 c2 1e d0 c0 3f
       0.13057966366583526 0.13135132293068955
000770 ac 8f c0 f6 d3 b3 c0 3f 15 44 ce d2 e6 9d c0 3f
       0.1304879145474137 0.12981877606628758
000780 0e 3b 3b e8 61 ac c0 3f 64 ec 64 3d 53 97 c0 3f
       0.13026069487974506 0.12961807725682484
000790 0c de 48 41 bf 51 c0 3f c6 65 d9 fa 27 44 c0 3f
       0.12749472320295785 0.12707996128555815
0007a0 87 fd 71 40 bc 6d c0 3f c8 98 d8 7c 4a d8 c0 3f
       0.12834885737173016 0.13160067649841367
0007b0 25 f0 0a af a0 23 c1 3f 69 7a 73 78 4f fc c0 3f
       0.13389977023132463 0.13269990331078255
0007c0 59 97 e3 4c a4 b9 c0 3f e2 ba 06 db a9 90 c0 3f
       0.13066533808085515 0.12941477961199782
0007d0 4c ac ca 3d cb ea c0 3f 0e 6f 4a e9 fa be c0 3f
       0.13216534154102744 0.13082825080061194
0007e0 18 5d 61 b5 64 74 c0 3f 45 10 a8 0d a3 f3 c0 3f
       0.12855204445325152 0.13243520895787433
0007f0 d5 26 c7 c0 22 19 c1 3f c7 b5 3c f3 a6 a0 c1 3f
       0.1335795823381917 0.13771521450818922

running_var f8 [376]
000000 99 d3 c9 59 9a 55 93 3f 00 29 84 e4 a2 6d f4 3f
       0.018881236772773844 1.2767666746536293
000010 7c 65 b2 0c e0 d8 b2 3f 22 84 a6 d9 fa 8a 07 40
       0.07362175283414801 2.9428612712804503
000020 4b 62 a7 c9 e0 d6 cf 3f a0 e2 e2 e1 36 b3 cf 3f
       0.24874505850199777 0.24765668897250226
000030 37 ba aa 51 f9 43 cc 3f 34 d3 a0 7d 52 af cb 3f
       0.22082439887658875 0.21628790983381807
000040 00 e9 2e 21 8b 90 75 3f f0 ab 54 c8 6f 42 62 3f
       0.005264800524793722 0.002228945088651006
000050 24 1c dc 0c 13 8c 68 3f 9a 71 d1 5f 3e f1 74 3f
       0.0029964801859736646 0.005112880372589857
000060 d3 9b 89 87 d3 45 5f 3f 6b e5 29 bc 4a a2 67 3f
       0.0019087377278539277 0.0028850040119407414
000070 ee 3f 51 5c b9 6a 72 3f bd 93 7e 5f 80 35 63 3f
       0.004496311249638991 0.002344847420277378
000080 4b d7 63 e0 17 9d 62 3f 67 7e ff d2 f4 99 71 3f
       0.00227217353232848 0.004297214836668318
000090 a3 18 68 d8 e3 fe 64 3f 71 ad fc 55 dc 81 62 3f
       0.002562947283197907 0.0022591880259789578
0000a0 2a 2c f0 d9 8e 07 fc 3f 7c a7 33 a8 b7 30 e2 3f
       1.7518452180108945 0.5684469495001703
0000b0 00 60 5f b8 eb 52 e2 3f 10 1a ae 4c fc 86 f9 3f
       0.5726221657778297 1.5954554553333118
0000c0 9d e5 be c5 50 03 e1 3f fb 02 58 c8 87 7d e3 3f
       0.5316547262402086 0.6090735352482562
0000d0 4e 17 ef f5 8e 9c ee 3f 70 c1 8c ee 56 75 dc 3f
       0.9566111377141426 0.44466183944589144
0000e0 0b 7c 1b 7f a5 74 d3 3f f7 24 4d b8 07 e7 ed 3f
       0.3039945355685069 0.9344519233356142
0000f0 95 1c 6a ee c7 f7 dc 3f 0f c4 57 9f de e7 d4 3f
       0.4526233509317959 0.3266521984178902
000100 75 2b b7 1f 85 e5 cf 3f b9 cc 39 23 85 e5 cf 3f
       0.249191894994819 0.24919189662941735
000110 b9 cc 39 23 85 e5 cf 3f 75 2b b7 1f 85 e5 cf 3f
       0.24919189662941735 0.249191894994819
000120 38 68 ef 50 be ca 8e 3f 45 5f 8d b3 43 5b 85 3f
       0.015035139889665414 0.010427979390143735
000130 e6 07 f9 42 e7 07 8e 3f e3 6f 37 40 35 be 86 3f
       0.014663511973711917 0.011104980489953625
000140 53 11 91 eb b7 05 84 3f 99 4a c0 94 ae 2d 7d 3f
       0.009776532055305742 0.007123643834364168
000150 b2 51 65 c8 d4 1a 84 3f e2 56 66 53 c3 f3 7d 3f
       0.009816801419824415 0.007312548629121203
000160 11 b8 a4 e6 d6 d3 9c 3f 1c c3 89 40 3e e5 93 3f
       0.028151853396757135 0.019429180802435927
000170 81 56 30 85 6e d9 98 3f 4f dc f6 df 2d 67 91 3f
       0.024266936186981617 0.01699515990705108
000180 7f 42 2d 78 ad f8 15 40 b0 d9 b5 fb 1d 20 1b 40
       5.492849233400761 6.781364376997246
000190 af 78 f9 1c a7 85 0c 40 33 9a 34 5d c4 71 17 40
       3.5652601493485103 5.861100632033913
0001a0 30 e1 21 18 0c fd 1a 40 d6 87 db 97 de bb 0b 40
       6.747116448467111 3.466733156573336
0001b0 da 61 5c fc 36 59 13 40 0a 2d 27 03 6e b9 14 40
       4.837123816622318 5.181083726183042
0001c0 bc 5a 2f 50 f4 6b 03 40 2e 66 a1 30 fd 73 13 40
       2.4277120842410493 4.863270530558607
0001d0 66 b9 c3 29 8c 59 13 40 d1 df c1 8f f6 33 04 40
       4.837448742457445 2.5253726225891815
0001e0 b5 b7 64 0f 7b d9 c1 3f 3f b6 40 76 6e b7 c6 3f
       0.1394494843638633 0.17747288488446775
0001f0 d4 0d 87 4b 62 62 93 3f 7d 6c eb 41 58 9b db 3f
       0.018929992542110544 0.431356491446145
000200 b5 e2 2e 42 39 6f da 3f 58 4d 73 11 8f 68 dc 3f
       0.41303855384061744 0.443881766358762
000210 a0 be 3e b2 ea 9a dc 3f b3 da 7c 23 46 90 d7 3f
       0.4469553700136917 0.3681807848510445
000220 91 18 95 dc f7 21 dd 3f 23 52 9c d7 3a 74 de 3f
       0.45519825497866245 0.47584410720563336
000230 4e df 8c 41 52 5c dc 3f 12 44 0c 53 a0 d2 d7 3f
       0.44313484574694406 0.372230607129553
000240 82 cf 1e 9d 5e af e1 3f ad 2d 30 83 58 89 dc 3f
       0.552657420039836 0.4458829194197403
000250 48 9a e4 c0 18 61 d7 3f c2 2f 59 d7 3f d6 c1 3f
       0.3653013118477344 0.13935087218339787
000260 48 4f 1c 7a 12 ce c6 3f 73 d0 42 a9 7a 24 94 3f
       0.178163823723134 0.019670406895514646
000270 d5 66 7b 55 5d 94 db 3f 31 c2 4e ef 88 69 da 3f
       0.430930455664208 0.4126913392056251
000280 9a de 49 e3 92 61 dc 3f 56 7a a7 0c 47 93 dc 3f
       0.4434554309477591 0.44648910747301807
000290 6f dd 76 82 5d 89 d7 3f b3 3d bf 6e 8a 1a dd 3f
       0.3677591108384694 0.45474491896763
0002a0 d6 b1 ca 3e 10 6c de 3f 75 ba cc 91 9f 55 dc 3f
       0.47534567005166417 0.44272603262189786
0002b0 7c f5 3b 54 3a cb d7 3f 30 80 20 fd 2e ab e1 3f
       0.37177904344556345 0.552146429432474
0002c0 db b5 e1 0d b6 81 dc 3f eb 5a 1d 45 0d 5a d7 3f
       0.4454169402659695 0.3648713278720794
0002d0 b9 39 5e 08 f5 ed b3 3f 5b 9e 52 44 8e 56 b4 3f
       0.0778496880941252 0.07944573562655803
0002e0 ba f2 fd bc e3 7f b4 3f b7 54 6b 92 2d 9e b4 3f
       0.08007644046842702 0.08053860497178077
0002f0 45 3f 8a 1f 99 a9 b4 3f 93 3a 9c 15 87 93 b4 3f
       0.08071286220569814 0.08037609365076497
000300 56 25 fb 98 23 79 b4 3f 99 14 0b 37 80 61 b4 3f
       0.07997343525780329 0.07961274474935677
000310 97 82 35 32 fe 76 b4 3f 17 95 51 16 76 6d b4 3f
       0.0799406883793473 0.0797952465523689
000320 f6 5e d1 fc f5 4e b4 3f 23 9f 23 3b 4b e6 b4 3f
       0.07932984754858893 0.08163900560213881
000330 b8 48 34 13 42 03 b5 3f 26 70 36 93 1d 32 b5 3f
       0.08208096474507698 0.08279595226343925
000340 71 0b b5 43 95 4f b5 3f 15 7b cf de 74 6f b3 3f
       0.08324559119232135 0.07591944160183701
000350 64 1f 5c 0e a9 16 b3 3f e7 7c 63 8a f6 db b2 3f
       0.07456451988775609 0.07366886976841479
000360 41 6c 56 17 cd 3d b4 3f fe a3 de be 2f 30 b4 3f
       0.0790680105186974 0.07886026773361718
000370 e8 5f 42 22 32 6b b4 3f bc 7e 9f 5f fb ed b5 3f
       0.07976067863853553 0.08566256603762218
000380 60 f3 40 f1 f2 16 b6 3f ed 45 25 3c df 2e b6 3f
       0.08628767385466807 0.08665271013639826
000390 8a e9 78 81 61 86 b6 3f 2d 12 1d 03 f9 7d b4 3f
       0.0879879895300403 0.08004719091429342
0003a0 d0 b3 4c b8 dd df b3 3f d0 a1 46 8c a1 ac b3 3f
       0.07763467549803171 0.07685289072708845
0003b0 1c 64 3e bb 3c 68 b5 3f c5 57 32 2a 60 37 b5 3f
       0.08362178393726122 0.08287621526900953
0003c0 59 6c e3 8c e7 3f b5 3f 7c f3 05 99 83 ed b6 3f
       0.08300635518701095 0.08956167684477906
0003d0 ce b4 72 8d 54 08 b7 3f 39 ed 72 83 7a 05 b7 3f
       0.08997086003610663 0.0899273463173146
0003e0 8b e1 f4 f1 66 6c b6 3f a9 95 1f 78 b8 98 b5 3f
       0.08759158522742021 0.08436158116054195
0003f0 da 2e df 08 be c6 b4 3f 8d 35 32 dc b3 ec b4 3f
       0.08115756718251124 0.08173679471857138
000400 31 f0 aa dd 1a ab b5 3f 4d 9b 1b 0b d7 64 b6 3f
       0.08464210426149134 0.08747619649112189
000410 5f b1 ff 34 33 49 b6 3f f1 75 02 e3 67 e3 b7 3f
       0.08705444377819081 0.09331368725039348
000420 67 68 f2 0d 63 e2 b7 3f 67 96 33 8c 32 11 b8 3f
       0.09329814043522476 0.09401241228950995
000430 c5 7d 5f 38 b9 62 b7 3f 61 62 47 bf 27 8f b6 3f
       0.09135015131277331 0.08812187595266031
000440 ee 21 84 45 26 f5 b5 3f 49 49 3a e0 90 3f b6 3f
       0.08577193448230222 0.08690743898686039
000450 74 80 49 e3 a4 28 b7 3f 9d c7 2a 4d 91 e0 b7 3f
       0.09046392964364874 0.09327037939035994
000460 bd aa c0 69 2d 5b b7 3f 6e 55 86 cf 19 bb b8 3f
       0.09123500663614954 0.09660493198892592
000470 89 67 0c 9f c1 8b b8 3f 01 27 60 66 1c 11 b9 3f
       0.09588251240748326 0.09791734218029192
000480 b1 2a 63 b0 4b 75 b8 3f 38 df b0 1f 5c 60 b7 3f
       0.09553978973705558 0.09131408475593339
000490 a3 01 fb ad 48 4b b7 3f 84 ac 69 db cb 8b b7 3f
       0.09099249122210167 0.0919768725085977
0004a0 07 0a 50 e4 13 d2 b8 3f ee 9c a4 a2 3f 63 b9 3f
       0.09695553134955769 0.09917066307808728
0004b0 46 da c5 93 aa 65 b8 3f ea 70 4d f6 63 68 b9 3f
       0.09530130489097485 0.09924912226910335
0004c0 28 ff c5 f7 d5 95 b9 3f 8b b6 83 b7 00 a1 b9 3f
       0.0999425630488956 0.10011295776686262
0004d0 bd 3c ce c5 70 50 b9 3f b6 ad a6 f9 22 95 b8 3f
       0.09888367490042334 0.0960256442546584
0004e0 5e d8 cc 56 22 17 b9 3f 76 2e 7f e1 c5 3e b9 3f
       0.09800924891610083 0.09861408953946146
0004f0 b9 86 70 8c 50 4b bb 3f d3 0e e4 c0 d8 a9 bb 3f
       0.10661796024990168 0.10806040486573502
000500 40 09 76 a0 54 c2 b9 3f bd 33 95 52 30 ed b2 3f
       0.10062149922854235 0.07393171325857302
000510 7d 9b fc 7f 78 63 b3 3f 99 4d 84 bb a5 81 b3 3f
       0.07573655247379736 0.07619701221510979
000520 3a ad a0 94 8a b7 b3 3f 9f ea 93 f5 10 ed b3 3f
       0.07701936844448634 0.07783609386016586
000530 ae d3 55 31 d4 ea b3 3f bc 84 bd 5a 46 de b3 3f
       0.07780195431207801 0.07761039462413327
000540 ca b9 c0 06 ec bd b3 3f 7a e5 c0 b0 cd 99 b3 3f
       0.07711672940124639 0.07656560483237299
000550 d5 36 c5 20 1c 65 b3 3f 00 3a 39 40 da 55 b3 3f
       0.07576156425531207 0.07552875583608198
000560 0d 9d f4 1d dd fe b3 3f 4b 2e 24 0f c5 02 b4 3f
       0.07810766202293369 0.07816726321851168
000570 ac 66 14 9a a0 1b b4 3f c6 fe 61 17 d8 77 b4 3f
       0.07854655992232534 0.07995367594593991
000580 ef 5e b9 84 cd 61 b3 3f 51 fc d4 aa b3 28 b3 3f
       0.07571110239348021 0.0748398105688335
000590 8f ae 20 46 61 25 b3 3f bf 5a 41 fa 85 3e b4 3f
       0.07478912317372476 0.07907903060673059
0005a0 26 03 d2 06 b5 ee b3 3f 3e a6 04 dd 11 de b3 3f
       0.07786113182556828 0.07760726591063702
0005b0 7f dc 46 39 ef 23 b5 3f df 9d 85 6f 74 13 b5 3f
       0.0825795664630835 0.08232810709670656
0005c0 77 0f f0 f4 64 b3 b5 3f 2a 82 8b 2c 6a 37 b6 3f
       0.08476859073567576 0.08678306186221421
0005d0 47 b5 76 fe a0 82 b4 3f 69 b4 2d 1a 34 26 b4 3f
       0.08011823856823695 0.07870793952106826
0005e0 b6 a8 57 4f 7a 4b b4 3f 1e 7c b8 d0 c8 82 b5 3f
       0.07927669941969637 0.08402686210364194
0005f0 79 c5 a6 ae 33 25 b5 3f 55 6e d5 ae 47 0b b5 3f
       0.08259890569640572 0.0822033693161129
000600 22 ec 22 ae 06 5c b6 3f 2b 5b b2 47 78 5f b6 3f
       0.08734170676591238 0.0873942542115002
000610 d4 9b a5 ac 61 f4 b6 3f 1d 12 90 c9 66 f6 b6 3f
       0.08966646637928416 0.08969728871313305
000620 34 af 5f fe f6 ee b5 3f ba d9 60 52 6d 73 b5 3f
       0.08567756376549768 0.08379252682866581
000630 9c 42 48 d4 a3 a8 b5 3f 0a 3e 98 bb 45 a4 b5 3f
       0.0846044915454151 0.08453784780453347
000640 a6 58 fb 1a d2 0d b6 3f b3 57 5c 02 db 5a b6 3f
       0.08614838751541018 0.08732384498247718
000650 25 e3 1b d5 1b 78 b7 3f 39 6b 96 61 b5 8c b7 3f
       0.09167646363119937 0.09199079163083192
000660 c8 4b 27 4b dc 73 b8 3f 01 ad 32 ca 3c 78 b8 3f
       0.09551789126207588 0.09558467804406591
000670 39 f9 4c 5b e0 5f b7 3f 3d 01 4a d6 45 a4 b6 3f
       0.09130670765896277 0.08844410401980425
000680 a3 e7 02 73 93 e2 b6 3f a7 5b bf 13 78 96 b6 3f
       0.08939477498907293 0.08823347551456938
000690 01 b8 10 ea 2a 14 b7 3f ac c9 32 a4 51 7a b7 3f
       0.09015148367390681 0.09171018847226858
0006a0 6f 3a a8 9c cb 7c b8 3f 14 7b ad 96 3d 60 b8 3f
       0.09565422606122252 0.09521851471570769
0006b0 0d 7d 60 a3 1c 16 ba 3f 2d 5f c5 43 d3 2c ba 3f
       0.10189990032857939 0.10224647907795932
0006c0 98 33 c3 fe 5f 65 b8 3f 4e 28 77 9b 86 d7 b7 3f
       0.09529685945308441 0.09313241286796023
0006d0 e9 9f 9d 6c da ae b7 3f e3 bf 99 ec a5 b7 b7 3f
       0.09251179839850433 0.09264599825269175
0006e0 4e 1a 52 66 da 1a b8 3f bc 55 ea 38 1d 6d b8 3f
       0.0941597461515837 0.09541494979415338
0006f0 d5 8f 20 a3 ae b7 b9 3f 91 36 27 48 5a 8e b9 3f
       0.10045901758763816 0.09982837926437528
000700 a7 3b b8 cf 0a 35 bc 3f 50 55 3a ca 3f 55 bc 3f
       0.11018436023026244 0.11067579924777715
000710 f8 8a b6 a9 33 c1 b9 3f c6 79 17 77 2d b2 b9 3f
       0.10060427564034657 0.10037502439033749
000720 03 79 d6 f5 f9 d0 b8 3f 83 28 18 44 8e bc b8 3f
       0.09693872692011855 0.09662713205776367
000730 b3 9b c4 8c 33 1a b9 3f e9 f6 16 d2 fe a4 b9 3f
       0.09805605112761277 0.1001738799013442
000740 39 9f 2a 77 60 65 b3 3f fb ac bb 14 5b 16 b4 3f
       0.07576563748682198 0.07846612220935249
000750 a1 16 21 2e 89 71 b4 3f ba 0f d1 93 cb ae b4 3f
       0.07985741974070006 0.08079216345600929
000760 a6 c5 ec cc 04 d8 b4 3f 85 3d 88 d9 29 fd b4 3f
       0.08142118456887334 0.0819879680714078
000770 7f a2 95 e8 47 e2 b4 3f 52 6c 6a 4f 00 ad b4 3f
       0.0815777724107054 0.08076478899822462
000780 17 cc 4c 57 0b c4 b4 3f e3 48 eb d7 0c a5 b4 3f
       0.0811163986334552 0.08064346572362839
000790 d3 25 5e ba 31 37 b4 3f cd 1d c2 dd f4 6f b4 3f
       0.0789671974181581 0.07983332075138279
0007a0 e3 b1 72 fe a6 bc b4 3f 8e 88 98 ca e8 3f b5 3f
       0.08100360595808058 0.08300642915904374
0007b0 9f 19 ef 24 1b af b5 3f 43 18 48 98 6f 91 b5 3f
       0.08470315601070987 0.08425042598546022
0007c0 b9 a7 63 13 82 1f b5 3f 9f 60 74 b5 d8 07 b5 3f
       0.08251202557917638 0.08215097837490014
0007d0 6b 98 12 89 a8 7a b5 3f e4 e2 c3 9b 59 38 b5 3f
       0.08390286776065785 0.08289108326779232
0007e0 6d 91 cf ce 14 d6 b4 3f c9 27 2d d8 c5 9b b5 3f
       0.08139162110416516 0.08440815475219589
0007f0 60 11 c5 a9 e6 ea b5 3f c2 20 20 e9 ea 8a b6 3f
       0.0856155552365343 0.08805721465626262

count f8 []
000000 00 00 10 80 74 d2 fa 41
       7200000001.0

running_mean f8 [1]
000000 32 31 17 a5 fd c9 70 40
       268.62442502078477

running_var f8 [1]
000000 16 73 77 a7 5f c6 c1 40
       9100.747298175043

count f8 []
000000 00 00 40 80 74 d2 da 41
       1800000001.0

a2c_network.sigma f4 [15]
000000 54 de 23 c0 e0 19 02 c0 80 1a dd bf f2 fa b8 bf
       -2.5604448 -2.0328293 -1.7273712 -1.4451582
000010 55 9a b6 bf 2b 28 d7 bf 65 c8 a5 bf e6 f6 c8 bf
       -1.4265848 -1.6809133 -1.295178 -1.5700347
000020 17 0a bb bf df ab b4 bf dd 5b ae bf 1c 56 f0 bf
       -1.4612454 -1.4114951 -1.3621784 -1.8776278
000030 cf cd aa bf 05 c4 c6 bf 2e 78 ee bf
       -1.3344058 -1.552857 -1.8630426

a2c_network.actor_mlp.0.weight f4 [128, 376]
000000 53 ae 6e be 16 3a d7 bd 5c ae a0 3e b1 08 ca bc
       -0.23308687 -0.10509126 0.31383026 -0.024662348
000010 e6 0c 66 3c ef 93 e8 3d 3f 03 81 3d 80 fc 2c 3e
       0.014041161 0.11356341 0.06299447 0.16893196
000020 f7 2c b1 bd 0e 9e a0 bd ab e5 3f 3e 94 e9 aa be
       -0.086511545 -0.078426465 0.18739955 -0.3338133
000030 34 4a d6 3d f6 26 55 3e dd 16 8c 3e b1 fa 7b 3d
       0.10463372 0.20815644 0.27361193 0.061518375
000040 19 42 b8 3d 85 d4 f4 3e 9c 2f dd be 63 cf 38 bd
       0.08996982 0.4781839 -0.43200386 -0.045119654
000050 96 27 10 3b f9 c7 62 3e 6f ea 85 bd 20 b6 0e be
       0.0021996251 0.22146596 -0.06538855 -0.13936663
000060 c1 9b ea 3d 74 76 8e 3e 63 62 6a be 30 a5 61 3d
       0.11455489 0.27824748 -0.22889094 0.055089176
000070 fb 2d bc bc 6b 54 65 bd b2 03 25 3e fe 75 86 bd
       -0.022971144 -0.05598871 0.16114691 -0.06565474
000080 e4 28 34 3e 98 b9 29 be b3 6a 65 be d4 21 3f 3e
       0.17593724 -0.16574705 -0.22403984 0.18665248
000090 5a 5e 40 3f 3c 48 97 be 5b db 33 bf 88 ee 0e bf
       0.7514397 -0.29547298 -0.70256585 -0.5583272
0000a0 0b 38 08 be 1f bb f6 3e 27 a9 d5 3f f3 24 d7 3f
       -0.13302629 0.48189637 1.6692246 1.6808151
0000b0 41 b3 df be af 5b f1 bd 51 81 bc 3c aa fd af 3e
       -0.43691447 -0.117850654 0.023010882 0.34373218
0000c0 c8 e3 2f 3e 57 60 18 be 13 e4 80 3d d0 d5 95 bd
       0.17176735 -0.148805 0.06293502 -0.07316172
0000d0 d2 cf c6 bd c6 2c 7e 3d b5 89 13 3e 29 38 6f 3e
       -0.09707607 0.062054418 0.14408 0.23361267
0000e0 a5 29 48 be 74 4d d9 3c b4 68 23 3e bc bc 47 be
       -0.19547136 0.02652619 0.1595791 -0.1950559
0000f0 87 e2 a4 3e dd 79 a9 be f7 f0 82 be 74 58 58 be
       0.32204077 -0.33100787 -0.25574467 -0.21127492
000100 a2 4f 6d 3d 4d 62 ba 3d 54 e3 cc bd 08 99 c2 bd
       0.057937272 0.09100781 -0.10004297 -0.09501845
000110 1a 0a 3d be b0 9a 93 3d ed dc 47 bc 48 a7 79 3d
       -0.18460885 0.07207239 -0.012198669 0.060950547
000120 af 89 b2 bd 14 21 8f bd 93 7a 2f 3e 8e 34 45 bd
       -0.08717667 -0.06988731 0.17136602 -0.048145823
000130 dd d5 ff bc cf 68 db bd 72 bb 21 be 7b d0 74 3e
       -0.031229908 -0.1071335 -0.15794161 0.23907654
000140 ff e3 ab 3c d5 f5 4d bd e2 d8 44 be 40 0c 21 be
       0.02098274 -0.05028327 -0.19223359 -0.15727329
000150 89 84 09 be 8b b0 b4 3c eb 1b 52 be ae 84 b9 bd
       -0.13429464 0.022056838 -0.20518462 -0.0905851
000160 8f fe 7c be 00 05 e3 bc 2e f7 63 bd ef 31 d0 bd
       -0.24706481 -0.027712345 -0.05565565 -0.10165774
000170 fd 61 90 3c 22 27 03 3d 6e 75 93 ba 8d 0e 8c bc
       0.01762485 0.03201974 -0.0011250207 -0.017096782
000180 98 d4 32 be f4 43 5c be 49 c3 7b bd 95 14 20 be
       -0.1746391 -0.21510297 -0.061465535 -0.15632851
000190 19 7f 69 bd 26 cf 85 bc 68 a6 7c be 88 28 80 3d
       -0.057005975 -0.016334128 -0.24672854 0.06257731
0001a0 1a 55 4b be 0c 6c a0 3d 81 12 dc bc 26 e8 14 3e
       -0.19856682 0.07833108 -0.026864292 0.14541683
0001b0 7d 11 1c be 7c cd 65 3d 54 dd 0c 3d aa 2c 51 3d
       -0.15241046 0.05610417 0.034390762 0.051067986
0001c0 34 a5 88 3d db 3e 85 3d 4e 11 a0 bd 62 6a eb 3d
       0.06672135 0.06506129 -0.078158006 0.114949
0001d0 1f ca b5 3c cf d0 44 be 2c 98 83 bd a3 d6 53 3d
       0.022191105 -0.19220279 -0.06425509 0.051718365
0001e0 ac 64 0b be 57 ae 56 3d 08 54 64 3d 78 de 15 bd
       -0.13612622 0.052412357 0.0557442 -0.036589116
0001f0 63 a4 3e bd 3a 6a 62 bd f7 a1 86 3d 4a 57 a4 bd
       -0.04654349 -0.055277087 0.06573861 -0.080244616
000200 96 85 66 3c ed 83 de 3c 55 50 08 3e 06 b9 77 3c
       0.014069935 0.027162516 0.13311894 0.015119797
000210 b0 9d 96 3c 72 de ac bd e1 7c b3 bd 49 82 d8 bd
       0.018385738 -0.084408656 -0.08764053 -0.10571725
000220 e8 40 0f bc e7 4c 9a 3d 6b 24 34 3e ca 7b 26 bd
       -0.008743502 0.07534199 0.17592017 -0.0406454
000230 a7 87 2a 3d ce b1 17 3d 34 ec 3d bc 39 c8 ab bc
       0.041633274 0.037034802 -0.01159196 -0.020969497
000240 d5 2d 19 3d 88 cc a5 be 3c 85 8e 3c 16 28 33 be
       0.037397224 -0.32382607 0.017397515 -0.1749576
000250 ca e3 7b bd b0 e7 33 bd 61 6a 97 bd c7 ee 06 3e
       -0.061496533 -0.043922126 -0.07393337 0.13177024
000260 ab 38 f9 3d 5b ae 2a bd 4f 36 54 3e 40 e0 76 3c
       0.12169012 -0.041670185 0.20723842 0.015068114
000270 e6 b7 95 be 1c ad b3 3d 3d bd c9 3c fa f5 ea 3d
       -0.29241866 0.08773252 0.024626369 0.114726976
000280 3c 30 bf bd 8a 41 a4 3a a7 98 77 3d d5 8b 01 3e
       -0.09335372 0.0012531739 0.060448315 0.12650998
000290 4f 32 e2 3d fa 4e ea 3d 7e 11 16 3b 86 06 44 3e
       0.11044752 0.11440845 0.002289861 0.19143113
0002a0 8b 71 f0 bd 16 2c ec 3c 7e 40 5a bc 65 77 15 3e
       -0.117404066 0.028829616 -0.01332104 0.14596327
0002b0 4a 72 59 3a dd f0 bd bc 28 ed 8b bd 25 24 f4 bd
       0.00082949235 -0.023186142 -0.06832343 -0.119209565
0002c0 f9 9d 54 3d ea 51 71 bd 9a 36 0c be 47 a1 98 bb
       0.051908467 -0.05891601 -0.13692704 -0.0046578976
0002d0 0f ab 2e bc 98 cc ab bd df 3e 47 bd 70 4a b9 3d
       -0.010660901 -0.083886325 -0.048643943 0.09047401
0002e0 41 56 3b bd fa be b6 bd 00 b2 70 3c 98 7f 3b 3d
       -0.045736555 -0.08923145 0.014690876 0.04577598
0002f0 a8 db 64 bd 23 06 29 3d 99 aa 49 3d 48 84 36 bd
       -0.055873543 0.041265618 0.04923496 -0.044559747
000300 d4 95 07 bc d8 dd 66 bd ae 27 a5 3d a0 0c 2e 3e
       -0.008275468 -0.05636391 0.08064209 0.16997004
000310 0c 40 6a bd f9 7a 08 bd 76 5e 64 bd 65 bd 03 be
       -0.057189986 -0.0333204 -0.055754147 -0.12865217
000320 97 63 b4 bd 0a d3 85 38 88 27 44 3d a2 d7 23 be
       -0.08808058 6.381243e-05 0.047889262 -0.16000226
000330 a2 13 71 bd 5a 54 00 3e ca 36 a9 bd df 6c a2 3d
       -0.058856614 0.12532178 -0.08262403 0.07930922
000340 26 8a 0e 3e 5d 09 3b bc 14 88 b6 3c 5d 41 c0 3d
       0.13919887 -0.011415807 0.022281684 0.09387467
000350 cf ff 6c bd 10 b3 81 3d ec 5c 37 ba 44 5a 9e 3d
       -0.057861146 0.063329816 -0.00069947424 0.077320606
000360 7d 53 4f bd 5e e6 9b bd e4 f6 4f 3d 61 44 65 be
       -0.05061673 -0.076122984 0.050772563 -0.22389366
000370 93 33 a5 3c 88 4f 63 3d f0 29 be 3d 34 ae 85 3d
       0.020166194 0.05549577 0.09285343 0.06527367
000380 38 6f 14 3d fd 8a 08 3d b6 97 56 bd 1f 45 77 be
       0.03623888 0.033335675 -0.052390777 -0.24147461
000390 b4 cb 46 3e b2 5b 82 3d 8a a9 75 3e b6 3a 11 3d
       0.19413644 0.06365146 0.23990455 0.03545638
0003a0 34 dc c2 bd 78 4b fc 3d 43 e3 b5 3d ad 2e 02 be
       -0.09514657 0.12319082 0.08881237 -0.12713118
0003b0 8d 09 ac bc a4 05 e5 3d bc 7c 05 3e 35 d4 1b 3e
       -0.021000648 0.111827165 0.13035864 0.1521767
0003c0 36 6d 1c 3e 15 c3 f6 3d 95 e0 f1 3d 5d 59 a4 bc
       0.15276036 0.12048928 0.11810414 -0.020062143
0003d0 42 de 36 3c f3 2d c6 3d a1 ff de 3c f8 20 9f bd
       0.011161389 0.09676733 0.027221503 -0.0776996
0003e0 e5 37 05 3d b1 ca d6 bc 40 9c 6a bb 8c 8f 48 bd
       0.03252401 -0.026219698 -0.0035798699 -0.048965022
0003f0 7e dc 26 bd 38 c7 0f 3e 79 b3 7a 3d 52 1e 4a bd
       -0.04073762 0.1404084 0.061206315 -0.049345322

a2c_network.actor_mlp.0.bias f4 [128]
000000 e2 db 9b be da b6 64 be 71 02 d1 be 10 62 c0 be
       -0.30441195 -0.22335377 -0.40822175 -0.37574816
000010 f4 93 31 be 9e 66 2a bd 36 83 9f be e1 21 47 be
       -0.17341596 -0.04160177 -0.31154794 -0.19446518
000020 26 3a 85 be a7 58 51 bb e9 4f b5 bd 6d 44 ee bd
       -0.26020926 -0.003194371 -0.08853132 -0.11634145
000030 9b 49 8f be 62 0e 69 be 55 7e 54 bc ee 3c d7 be
       -0.27985844 -0.22759393 -0.012969573 -0.42038673
000040 41 fe 20 3c c6 a0 11 be 55 06 a9 be 31 bb f7 be
       0.009826244 -0.14221486 -0.33012643 -0.48385003
000050 40 13 3f be a3 9e af be 3f e4 c8 be 62 82 d3 be
       -0.18659687 -0.34300718 -0.39236638 -0.41310412
000060 87 2d 5b 3d 38 3b 95 bd 9d 3b 7a be c6 5a 8c be
       0.053510215 -0.07286686 -0.24436803 -0.27413005
000070 4a 6c e8 bc 3e 4d 0b bf 08 64 e8 be fd 22 87 be
       -0.028371949 -0.5441474 -0.45388818 -0.2639388
000080 de a0 c0 be d1 22 32 be 5d 9a 16 be 2c c4 62 be
       -0.37622732 -0.17396094 -0.14707322 -0.22145146
000090 4f a4 b6 3d f9 92 6a be f1 df 8b be da a5 c5 be
       0.08918058 -0.22907628 -0.2731929 -0.38603097
0000a0 20 1d 4a bd 0b b9 c3 be 94 47 72 be e5 ef 24 bd
       -0.049344182 -0.38227114 -0.23660117 -0.040267844
0000b0 ed 3f 6b be 39 ec 49 bc fb d8 6a be 2e d5 9a be
       -0.22973605 -0.012324386 -0.22934334 -0.30240768
0000c0 ae e1 c1 be aa 57 b3 bd 0f f9 16 be 01 41 58 bd
       -0.37867492 -0.08756955 -0.14743446 -0.052796368
0000d0 14 6c 33 be 51 44 9e be 60 4c 0b be 46 a9 d5 be
       -0.17521697 -0.30911496 -0.13603354 -0.41730708
0000e0 ff 37 a1 be 69 f7 a7 be d6 a9 bc be c9 f9 99 be
       -0.31488034 -0.32805946 -0.36848325 -0.30073383
0000f0 25 c9 59 be 7d 17 64 3c 15 c6 88 be 8e cb ce be
       -0.21268137 0.013921616 -0.26713625 -0.40389675
000100 b4 84 98 be 53 54 86 be 8e 9a 5e bd 03 ca 16 be
       -0.29788744 -0.2623621 -0.054346614 -0.14725499
000110 eb f8 e0 be db 3b be bd 9b 9a b1 3d 96 0e ec be
       -0.4393991 -0.0928876 0.08672067 -0.46104878
000120 39 06 39 bd f1 76 bd be af c2 91 be e1 3b af be
       -0.04517195 -0.37004808 -0.28468844 -0.3422537
000130 20 cf 26 bf e5 08 b7 bd 33 ce c0 bd fb 58 c1 be
       -0.651598 -0.08937243 -0.094143294 -0.377632
000140 e2 d9 f9 be 49 36 bf be 5a dc 99 be 4e 2f 27 be
       -0.48799044 -0.37346104 -0.30050927 -0.16326639
000150 02 78 78 be dd 10 e8 bd 15 7f ef be d8 2a 38 bd
       -0.2426453 -0.113313414 -0.46776643 -0.044962734
000160 32 fb 43 be 7a 41 1f bf 34 3b 56 be ee c8 81 be
       -0.19138792 -0.62209284 -0.20921022 -0.2534861
000170 a9 13 02 be 05 0e c5 be 67 37 15 bd 1b c1 e0 bd
       -0.12702812 -0.3848726 -0.03642979 -0.10974332
000180 df 2a 35 be 9e 42 4b be 13 9b 68 be 28 d2 fd be
       -0.17692135 -0.19849631 -0.22715406 -0.495744
000190 9f 4c e0 be e6 db f2 3b 19 b0 7e be ef 7c 74 be
       -0.43808457 0.007411468 -0.24871863 -0.23875783
0001a0 e0 b6 2f be 5f 8b a0 be 7c 2f 63 be 39 cb 20 be
       -0.17159605 -0.31356332 -0.22186083 -0.15702523
0001b0 c0 9d a3 be da 14 a5 bd 5b 4f 20 bf d7 4d d5 be
       -0.3195629 -0.08060618 -0.62621087 -0.4166095
0001c0 e0 8b aa be 99 00 01 be 45 e5 09 bf d2 01 41 be
       -0.3330984 -0.12597884 -0.5386546 -0.1884835
0001d0 32 83 c8 be 46 27 a3 be a2 b3 06 bc d6 f4 cb bd
       -0.39162594 -0.318659 -0.008221539 -0.09958808
0001e0 dc 9b aa be 5d 3d 37 be ad 9e 8b be 93 e7 2a 3d
       -0.33322036 -0.17894502 -0.27269498 0.041724753
0001f0 e6 8d c2 bd 83 48 7a be ab dd 38 be 3b 09 bb be
       -0.09499721 -0.24441724 -0.1805331 -0.3653048

a2c_network.actor_mlp.2.weight f4 [128, 128]
000000 3c 33 22 3e e9 ad 1b 3e 8b 70 8e 3d 74 63 84 bd
       0.15839857 0.1520306 0.069550596 -0.06464282
000010 3f 35 02 bd 18 00 88 bd 04 f6 e7 ba 24 29 a4 3d
       -0.03178906 -0.06640643 -0.001769722 0.080156595
000020 86 9d 27 be 37 2d 93 bd 8a 02 49 3e 8d 90 74 3b
       -0.16368684 -0.071863584 0.19629875 0.0037317604
000030 a4 17 8c be e0 91 93 bd 99 0d 41 be ff 01 c7 bd
       -0.27361786 -0.07205558 -0.18852843 -0.097171776
000040 a6 5b 8b bd 74 c5 29 bd 6a 8a 22 be bf 3e 1c be
       -0.0680459 -0.04144807 -0.15873113 -0.1525831
000050 01 c7 fe 3d 71 45 ee 3c 1f d8 45 be 76 48 ce 3d
       0.12440301 0.029085847 -0.19320725 0.100724146
000060 05 1f a3 bd b9 4f 2d be 97 a5 0d bc c8 fd 5f bd
       -0.07964901 -0.16924943 -0.008645437 -0.054685384
000070 8a 91 4d be 5c 25 b5 3d b8 2d ba 3d b0 a4 8a be
       -0.2007505 0.08845016 0.090907514 -0.27078772
000080 2b c8 3a be 24 7c cb bd be a3 98 bd 0a b0 ad bd
       -0.1824042 -0.09935787 -0.07453106 -0.084808424
000090 ca 6d 91 3d 46 88 ce 3c 62 6a f6 bc 1b 3d 69 3d
       0.07101019 0.025211465 -0.030080024 0.05694304
0000a0 4e af 22 3e 59 a9 40 3d 2c 6c ef 3d c4 fd e4 3d
       0.15887186 0.047036503 0.11690554 0.111812145
0000b0 f4 bf 40 bc f5 4a 1e bc ed ba 35 3d 68 2b b1 bd
       -0.011764515 -0.009661426 0.04436772 -0.08650857
0000c0 cd 09 25 3c ab ba 61 be a2 fa 48 be 55 bb 4e 3e
       0.0100731375 -0.22043864 -0.19626859 0.20188649
0000d0 9c 43 cd 3d 53 a0 a5 3c d6 21 bc bd 87 0f 47 3d
       0.10022661 0.02021805 -0.09186141 0.048598792
0000e0 87 76 00 be 32 60 de bd d5 c4 aa ba 08 bf 64 3d
       -0.12545215 -0.108581915 -0.0013028631 0.055846244
0000f0 18 60 77 3d 43 9a 29 3e 67 ec 77 be e6 8f 12 3d
       0.060394377 0.16562752 -0.24211274 0.035781763
000100 e3 ae b3 3d 33 a0 97 3d 97 c9 20 be b6 7b ec bd
       0.08773591 0.074036025 -0.157019 -0.115470335
000110 1a 38 79 be 11 d0 f8 3d d4 c6 df bd 82 87 9b bd
       -0.24337807 0.121490605 -0.10926595 -0.075942054
000120 28 fc f2 3d 42 ba 00 be b1 90 ab bd bb 8e ff 3c
       0.11864501 -0.12571052 -0.08377207 0.031195989
000130 82 a7 41 3d 0c ea 35 bd 40 2d 8a 3d 55 e4 1a be
       0.04727889 -0.044412658 0.06746912 -0.15126164
000140 e7 eb b3 3d cc 2a 87 3c b5 d4 8c bd fe 48 dc bd
       0.08785229 0.0164999 -0.06876508 -0.1075611
000150 5c fa 4c be b0 26 0a bd 35 1e cc 3b d8 a2 32 bc
       -0.2001738 -0.0337283 0.006229187 -0.010903083
000160 88 73 97 be c0 0f aa bc c9 b2 f3 bd 89 5c a9 be
       -0.2958033 -0.020759463 -0.11899335 -0.3307841
000170 1e c8 2c be ac 85 9f 3b 76 8b 6b be 65 72 3d be
       -0.16873214 0.00486823 -0.23002419 -0.1850067
000180 91 3b 6e 3b 9b 69 d4 bd 63 41 23 3d b0 46 06 3e
       0.0036351422 -0.10371705 0.03985728 0.13112903
000190 6f 09 f8 3c 15 3a 99 3d 47 45 3b 3d 4a c3 00 be
       0.030277936 0.074817814 0.045720365 -0.12574497
0001a0 e2 8e 86 bd 50 bb 59 be 3a 87 35 be 09 c9 f6 bd
       -0.065702215 -0.2126286 -0.17727366 -0.12050063
0001b0 5b 34 a8 bd 6d 0e 2f be a1 bc cc 3d d3 6e 32 be
       -0.08213111 -0.17095347 0.099969156 -0.17425089
0001c0 62 21 5f be e4 ff cf 3d 66 dc 1d bd af 18 de 3d
       -0.21790078 0.10156229 -0.038540266 0.10844552
0001d0 3a af f3 3d 81 64 3e 3c 7b 37 21 be d0 0e 1b be
       0.11898656 0.011620642 -0.1574382 -0.1514237
0001e0 16 10 43 bd 2a e9 45 be a4 02 c4 bd a7 5c 8a 3d
       -0.047622763 -0.19327226 -0.09570816 0.06755953
0001f0 95 2a 34 bd c1 0d 7a bd ff 0d 97 3d 7e ce a0 3d
       -0.043985922 -0.061048273 0.073757164 0.07851885
000200 0a 76 b0 3d b9 9d 62 bd bd 8d e5 3d ab 56 c3 bd
       0.08616264 -0.055326197 0.11208675 -0.09538015
000210 77 3c a4 3d b9 af db 3c 02 ab f3 bd ed c1 db bc
       0.08019345 0.02681719 -0.118978515 -0.02682587
000220 3a 0b 22 be e7 16 e4 bc 37 9e d1 3d 33 60 e3 bc
       -0.15824595 -0.027842952 0.10235255 -0.027755832
000230 ed f9 5b be c6 c3 12 3d 03 55 48 be d5 2a 89 3d
       -0.21482058 0.035831235 -0.1956368 0.06697623
000240 b4 14 7b 3d 05 68 8f be 2a b6 16 be ad 98 95 bd
       0.06129904 -0.28009048 -0.14717928 -0.07304511
000250 da 28 6c be 36 9d ee 3c d2 ee 26 3d 0f a6 b3 3d
       -0.23062459 0.029127698 0.0407551 0.087719075
000260 12 b6 92 bc cc da 22 3e b0 5c 71 3d e7 a5 0a 3e
       -0.017909084 0.15903777 0.058926284 0.13539849
000270 79 df 82 bd 86 8a ea bd a7 30 98 bc 86 9f a7 be
       -0.0639028 -0.114522025 -0.018577887 -0.32738894
000280 f2 90 de 3c fc 98 93 bd 97 b6 86 bd 2e 4f 9e 3d
       0.027168725 -0.07206914 -0.06577795 0.07729946
000290 d7 4c fb bd 63 1b 10 be 96 01 53 3d 35 b9 1b b9
       -0.122705154 -0.14072947 0.051515184 -0.00014850947
0002a0 16 e8 ca bd e3 79 c2 3d c6 48 42 be 5b a0 c9 be
       -0.09907548 0.09495904 -0.18973073 -0.39380154
0002b0 ad 71 a3 bd d0 53 7d bd c1 19 f7 3d 0b ee a7 bd
       -0.07980666 -0.061847508 0.12065459 -0.081997
0002c0 55 79 84 bc e0 52 91 3b 5e 5b 06 be 9c 42 ac 3c
       -0.016171137 0.0044349283 -0.13120791 0.021027856
0002d0 a0 60 e0 3c 8f 15 98 bd ae 0c 0a 3d 19 aa 0d 3e
       0.027389824 -0.07425987 0.0337035 0.13834418
0002e0 73 bd 92 bd d9 62 05 be 79 8d b0 3d e3 c1 21 bc
       -0.07165041 -0.13025989 0.08620734 -0.009872886
0002f0 f4 af 75 bd fd 8d d7 bc 4c 73 eb 3c 50 51 5b bd
       -0.059982255 -0.026312822 0.028741501 -0.053544343
000300 99 bd 16 3e 41 6d eb bd b3 85 0a be a0 0d b6 b9
       0.14720763 -0.11495448 -0.13527565 -0.00034723897
000310 a2 93 10 3e 4a b6 cc bc fd 0f 66 3c e2 13 1b bd
       0.14118817 -0.024989266 0.014041898 -0.03786076
000320 46 08 ee be f9 60 b8 3d 66 d8 c2 bb 13 3d 47 3b
       -0.46490687 0.09002871 -0.005946207 0.0030401393
000330 77 bf e8 bd ac 7e 32 bd 53 37 89 bd 0a 36 1b 3e
       -0.11364644 -0.043577835 -0.067000054 0.15157333
000340 7a f9 82 3d 93 e3 3c 3b 31 d8 81 bd 7d c3 24 bd
       0.0639524 0.0028822168 -0.06340063 -0.040225495
000350 f8 fb 9c 3d 1d 4e da bd 6b 7f 01 be cf d3 2a bd
       0.07665247 -0.1065943 -0.12646262 -0.041705903
000360 c8 ac b7 bd 3d 46 73 bd 11 8e 3b 3d 1c e2 ee 3c
       -0.08968502 -0.059393156 0.045789782 0.029160552
000370 37 e9 f5 3d 78 13 fe bc 2e 99 d4 be bb 98 18 be
       0.12007373 -0.031015143 -0.41523117 -0.14902012
000380 29 c9 d3 bd 79 de f9 bd e7 a7 97 3d dd 95 fd bc
       -0.10341103 -0.122006364 0.07405072 -0.03095525
000390 09 25 12 be 39 3e 73 be ad 06 84 be 21 23 46 3e
       -0.1427194 -0.23754205 -0.25786343 0.19349338
0003a0 97 24 35 be 5d d7 41 bd 0c e3 a3 3d f0 ff 0d be
       -0.17689739 -0.047324527 0.0800229 -0.13867164
0003b0 9c 46 1d bd a4 f1 ff 3d 5f 33 1c 3e f4 69 c0 bd
       -0.038397416 0.12497261 0.15253972 -0.09395209
0003c0 8f 5c 93 3d 4b ac 79 3d 3f 61 e4 bd 4e 28 02 3e
       0.071953885 0.060955327 -0.11151361 0.12710688
0003d0 d0 13 82 3d ee d7 c9 bd f8 34 b8 bd b6 90 b4 3d
       0.06351435 -0.098556384 -0.08994478 0.08816664
0003e0 48 0b cd bc e9 33 a7 bc d5 74 5d 3e 64 cf d6 3d
       -0.025029793 -0.020410495 0.21626599 0.10488775
0003f0 72 95 74 be f7 81 c9 3d 8d 10 1a 3e 1e ae 15 be
       -0.23885134 0.09839242 0.15045376 -0.14617202

a2c_network.actor_mlp.2.bias f4 [128]
000000 88 04 13 3d 34 90 04 be 53 aa 03 bd 76 6f 6c be
       0.035892993 -0.12945634 -0.032144856 -0.23089394
000010 94 c5 df bc e6 0d be 3c a5 37 de be a0 4a 63 be
       -0.027315892 0.023199987 -0.43401828 -0.22196436
000020 a0 71 0a be d1 55 49 3e 52 f2 2c 3c 55 8f 08 be
       -0.13519907 0.19661643 0.010555821 -0.13335927
000030 dd 56 ff bd b7 73 d3 3d 65 cc 41 3e ba 5a 93 be
       -0.1246774 0.10324805 0.18925627 -0.28780156
000040 9c 37 2b 3e b5 08 26 3c 2f 31 2b 3d e5 d4 91 3d
       0.16720432 0.010133912 0.041794952 0.071206845
000050 f9 02 21 be ef 0e 99 3d 65 3a 1a 3e 75 78 92 3d
       -0.1572379 0.074735515 0.15061338 0.071518816
000060 71 a2 09 3e 7f b9 cc 3d 0b ed 08 3e d5 ad 3d be
       0.13440873 0.09996318 0.13371675 -0.18523343
000070 1f 91 21 3e 73 32 b0 be 2d 66 88 be 3f 95 2d be
       0.15778016 -0.3441349 -0.26640454 -0.16951464
000080 4b 17 d9 bc 9f 8b 18 be 33 fa 84 be 98 c0 3e bd
       -0.026500365 -0.14897011 -0.25972137 -0.04657039
000090 b5 f9 cd 3d 35 b0 32 be 3c 44 56 3e b0 07 d8 3d
       0.100573935 -0.1745003 0.20924467 0.10548341
0000a0 19 f5 a8 be c9 6c c9 3d c7 c8 55 be a0 2b a2 bc
       -0.32999495 0.09835202 -0.20877372 -0.019796193
0000b0 3d b7 5d be e3 dc a7 3d 74 26 a1 3b 00 ba a6 3c
       -0.21651931 0.08196428 0.004917914 0.020352364
0000c0 26 cd 9b be ae 54 d1 3d ee 81 0b be 77 93 ae 3d
       -0.30429953 0.102212295 -0.13623783 0.085242204
0000d0 a2 b5 55 3d fc be 7c be 2a 70 16 3c 81 ff d8 3d
       0.05217517 -0.2468223 0.009182015 0.105956085
0000e0 39 7a ff bc 32 62 21 bd c3 fe 3a be 57 cc 0d 3e
       -0.03118621 -0.039400287 -0.18261246 0.1384748
0000f0 a6 f4 04 be 2b 8a b9 bd f6 4e 7e be a2 54 d3 be
       -0.12983951 -0.090595566 -0.24834809 -0.41275507
000100 56 ac 46 be 4e 8c 86 be 62 76 be 3a d1 38 2e be
       -0.19401678 -0.2627892 0.001453113 -0.17013861
000110 80 06 9b 3d e5 77 e8 bc a7 4e e9 bd 3f 59 f8 bc
       0.07569599 -0.028377483 -0.11391955 -0.030315993
000120 02 a0 e2 bd 91 5b 1c bb b7 c7 c3 3d f0 d9 35 3e
       -0.11065675 -0.0023858289 0.09559577 0.17758918
000130 f7 1b 04 3e 08 c0 34 be 33 12 3b bd 3e 4b 3b bd
       0.12901293 -0.17651379 -0.045671653 -0.045726053
000140 bf 21 a0 3d f5 1f 15 3e 23 1f d5 3d a7 6b 34 3d
       0.078189366 0.14562972 0.104063295 0.044047978
000150 7f 97 80 bd 23 72 93 3a 79 30 28 3e 5c a5 50 3e
       -0.062788956 0.0011249225 0.16424741 0.2037558
000160 2d 72 c5 3d 3e 4f 32 3e 12 1a e2 bd 69 04 c0 3d
       0.09640918 0.17413041 -0.11040129 0.09375841
000170 02 17 b8 be 74 99 67 3e 79 ab ca bd 4c 17 96 3c
       -0.35955054 0.22617131 -0.09895987 0.018321656
000180 14 a7 22 3d 6c 22 b3 bd 94 a0 1e 3e 81 5e 14 be
       0.03971012 -0.087468 0.15490943 -0.14489175
000190 12 b6 a2 bd 6c 35 21 be 95 0b 03 3e 92 ae 91 be
       -0.079448834 -0.15743035 0.12797387 -0.284535
0001a0 f9 a3 e6 3d 6d ed ab be db 42 e3 bd d0 b5 fa bd
       0.11261744 -0.3357958 -0.11096736 -0.12241709
0001b0 18 36 f4 3d 5c da 6d be 27 4d 11 be d5 c6 13 be
       0.1192438 -0.23227829 -0.14189588 -0.14431317
0001c0 72 0d e1 3d 87 f6 a4 bc ee 44 bf 3d de a0 01 bc
       0.109888926 -0.020137085 0.09339319 -0.007911889
0001d0 17 a5 80 be ed ec 32 be 48 1e 8b bc 19 db 43 3e
       -0.25125954 -0.17473193 -0.016982213 0.19126548
0001e0 ae 24 41 be 5c 07 a2 bd 8b 96 89 be fc 25 05 bf
       -0.18861648 -0.0791156 -0.26872668 -0.52011085
0001f0 ba a1 e1 3d a3 38 17 be 27 07 8b be 6c 03 1a bf
       0.11017175 -0.14767699 -0.27153894 -0.6016147
