python/rlgpu/saved_nn/241001162237286415/last_Aliengoep=1750rew=[6321.07].pth (torch, 539546 bytes, 18 tensors)

running_mean f8 [376]
-0.015814683608614006 0.00384468992198269 -0.002412764493852619 0.008497976345297057 0.4679214439237706 0.4560431424246183 0.6605911102647972 0.6722364483041624
0.04404083429767734 0.10727458087248717 -0.2883064512351038 0.057539124431723584 -0.09556569084095791 -0.28595043981077983 0.051651137970744096 0.10944823201175036
-0.2936914313166547 0.04775270621690176 -0.08724359529078338 -0.2956259873918126 -0.02893967108869616 -0.025042477702773694 0.11008745088484688 -0.02804550984267118
0.018974418597366753 0.10369485017508578 -0.006661421876801012 -0.009010567751315503 0.07157923948338069 -0.010758230387060403 0.006471710899953974 0.06511055337645792
0.4715452655105583 0.5284547099464112 0.5284547099464112 0.4715452655105583 0.03322224345396292 -0.0012685320407654986 0.016462973143050556 0.0059120773590128
0.02252411921159614 0.0012945927293027328 0.024954462463635786 0.000907031750607901 0.024764492640240682 0.0019455305634172556 0.023803451524788154 0.00024127710431423826
-0.16083424905476476 0.15616904174880927 -0.24540423996834734 0.18472161891312333 0.22540462441841808 -0.15336900153997632 -0.04122762785089112 -0.13676125830949995
-0.21668147436172513 0.059070979898283506 -0.18337865228443692 -0.1423447499446763 -0.43947021961081134 0.6549935331027125 0.9636114185743352 0.2162073639181246
0.3143677270767758 0.1857126471908102 0.160956604195472 -0.19083393855391098 0.22811767133243183 -0.09971677171670139 0.32064011733142733 -0.047668370383243334
0.01069132208253399 -0.07133708552678678 -0.15043910632217902 -0.43919116523150603 0.6541670561293441 0.9627429965670351 0.21604652119197165 0.3141012369324348
0.18563025484032578 0.16085076774071996 -0.19075406771738224 0.2280615430235329 -0.0997139929515588 0.3204511520862431 -0.04774106213936684 0.010659929490524061
-0.0712713180939526 -0.15041063448543873 0.13831305712971764 0.14085859789631985 0.1419970311524364 0.14244071412948944 0.14233631248997738 0.14154628522082321
0.1404147043956634 0.14016284243601249 0.14088464748898127 0.1410211711572127 0.14065469892578591 0.14282625801652485 0.14384169629201987 0.14523502939900498
0.14520054606842017 0.1347857542052722 0.13262807867116977 0.1307327594949382 0.1378033232698275 0.13806391606675367 0.13959046414556264 0.14780777838741233
0.1491847918576115 0.15002042887767558 0.15083397148197694 0.13983490650200317 0.1360926220727468 0.1341610353306908 0.14300845852495003 0.14269374686911765
0.14304829719662732 0.15269084995387136 0.1539138449240762 0.15362551949516534 0.1495385954794206 0.144916451428285 0.1400458922732137 0.14006277952077253
0.1436856801040408 0.14794292899027417 0.14793116317815042 0.1573353392456304 0.15806254920521076 0.15865832722759907 0.1541854729121622 0.1493885611795286
0.14568780213121596 0.14657749551897342 0.15126331614449853 0.15526776030015732 0.15310523208370444 0.16141842177608104 0.16119517236624042 0.16354476584341024
0.15963140029270545 0.15329394302014934 0.1524388625945634 0.15343909465655292 0.16023113393476776 0.16313505864636318 0.1583944923850321 0.16411088135036678
0.16618202189475154 0.16526206942570473 0.16301514335684553 0.1595544712939763 0.16137709638149203 0.16298676334604087 0.17443809839096888 0.17599825270098546
0.1656326862788761 0.13551336483579107 0.1378980783999661 0.13856724590568892 0.13960679257829015 0.1406693538218723 0.14061852492648372 0.14025132600374512
0.13990886622297707 0.13934242837835797 0.13830300991534833 0.13788821076161753 0.1396755996522798 0.13948816598376781 0.14038409480500066 0.14221421560659994
0.13624678134188234 0.13560564447433776 0.13586140821789502 0.1419934662752688 0.14044238955254798 0.13942278883777492 0.14482406111668544 0.14429811163437276
0.14831704873178334 0.15107422569676598 0.14140565191877302 0.14012995111142898 0.14130880857396633 0.14805526541296923 0.1463142876065759 0.14486622597457544
0.15063208095381123 0.1505030443612471 0.1544028775160823 0.15472427155081867 0.14826348538816514 0.1462857115731249 0.14775035365480604 0.14787645251324205
0.15018639824518457 0.15106350929253354 0.1562224133204032 0.156411664381366 0.1624712765778195 0.16293578366367217 0.15563943299000657 0.15202798253989053
0.15377700585786844 0.15274273186748985 0.15537372932043722 0.15665431220799406 0.16146807010355826 0.16092795214163505 0.17139348634997123 0.17219322579578736
0.16123295177407534 0.15796440096146022 0.15771800724687166 0.1584937876946254 0.16038521063018255 0.16164708484590087 0.16764548160760945 0.16762674341444106
0.1832580195593552 0.18411714690190392 0.16894125759990755 0.1669250878308445 0.16369484002732504 0.16311438557573094 0.1650136246556846 0.16845735589493285
0.12198815181801724 0.12585715793593083 0.12794110833591169 0.12894535388943043 0.12953066211328876 0.13004155764641814 0.12890501269099253 0.1281770559831354
0.12875905955518635 0.12840106615685906 0.1265582612016017 0.1261990719339969 0.12782224659680855 0.13100167154629544 0.13274695907078513 0.13142795888222755
0.1287293243859526 0.12759529366088018 0.13045095712597266 0.12964621066009221 0.12765692387583374 0.13168222125290466 0.1332109380765156 0.13706203088271315
00000000: 1514 9573 b931 90bf b038 4d2f e67e 6f3f
00000010: d66e 0213 efc3 63bf 8fc1 e113 6367 813f
00000020: f7fa afc8 6cf2 dd3f f4d7 9193 cf2f dd3f
00000030: 46b3 d3f7 8f23 e53f 87a8 1403 f682 e53f
00000040: 2e81 fe2d 858c a63f b618 8ad0 5876 bb3f
00000050: 2ef5 d1e6 9c73 d2bf de75 59a3 c475 ad3f
00000060: 6114 c83c fe76 b8bf 46e7 d012 034d d2bf
00000070: 2664 c598 0472 aa3f e871 18a1 cc04 bc3f
00000080: a7b5 2725 d7cb d2bf 7182 feee 0a73 a83f
00000090: 2633 8fa4 9855 b6bf c983 ec42 89eb d2bf
000000a0: 3023 8873 5ca2 9dbf 6415 fa3a bca4 99bf
000000b0: c31b 40f1 b02e bc3f 60b1 4b4e f6b7 9cbf
000000c0: 2e60 58ad 076e 933f 3cff 43e6 be8b ba3f
000000d0: b506 b1d1 0149 7bbf 8e7a 7bee 2174 82bf
000000e0: 0c57 a75c 0453 b23f 97ed 663d 6908 86bf
000000f0: 4baa a1aa 1482 7a3f 6b58 60d1 15ab b03f
00000100: 20e5 7c31 cc2d de3f 5262 14da 19e9 e03f
00000110: 5262 14da 19e9 e03f 20e5 7c31 cc2d de3f
00000120: eadf 4482 8102 a13f 23cc 41e8 9bc8 54bf
00000130: 3e31 fa6c abdb 903f 98bb 882e 4337 783f
00000140: 4040 8a0d 9010 973f 5d91 c65b ea35 553f
00000150: 4aab aea0 a98d 993f 9d17 47da bbb8 4d3f
00000160: d5ab f7f7 dc5b 993f 74ef 2a89 25e0 5f3f
00000170: e6d3 5297 ee5f 983f 5854 6b8b ea9f 2f3f
00000180: e12a e277 3796 c4bf c7b9 7adf 58fd c33f
00000190: 675d 7bf8 6769 cfbf 084b 0c40 f5a4 c73f
000001a0: 3244 1f09 0fda cc3f b3cc ea6e 98a1 c3bf
000001b0: 575a 9fa2 c91b a5bf 4149 e695 6481 c1bf
000001c0: 982e 04f3 37bc cbbf f591 9c2d 8d3e ae3f
000001d0: af50 2ca1 f378 c7bf f584 e24e 5a38 c2bf
000001e0: 00d7 32b3 4720 dcbf 8990 78ff b4f5 e43f
000001f0: a686 1a9d e7d5 ee3f 3963 97d2 aeac cb3f
00000200: 559b add0 991e d43f caad 1199 6ec5 c73f
00000210: 6121 8cdb 399a c43f 6d28 871a 3f6d c8bf
00000220: aa98 01b9 f532 cd3f 53cc 62d1 0987 b9bf
00000230: 6157 6e20 5e85 d43f af04 b317 fd67 a8bf
00000240: 045b 90f5 54e5 853f 625a 54b1 2543 b2bf
00000250: 9fbb d8b0 9641 c3bf 0222 d742 b51b dcbf
00000260: b146 06c0 efee e43f acab 9666 cace ee3f
00000270: 3c90 7793 69a7 cb3f 5582 1013 3c1a d43f
00000280: ebfa d770 bbc2 c73f 25cf 7d09 c296 c43f
00000290: 886a 3619 a16a c8bf 9974 61e2 1e31 cd3f
000002a0: 8836 ae32 db86 b9bf 8a42 8b8c 4582 d43f
000002b0: 8638 2139 8471 a8bf f6d3 5084 dfd4 853f
000002c0: 1039 5b4c d63e b2bf eef3 0ada a740 c3bf
000002d0: 74af 7d04 3eb4 c13f 259d a98f a707 c23f
000002e0: 2ae3 766e f52c c23f a00b 6750 7f3b c23f
000002f0: 85be 9687 1338 c23f 8b65 f24c 301e c23f
00000300: 80e1 a0e9 1bf9 c13f fb43 3024 dbf0 c13f
00000310: fea0 bc14 8208 c23f f0f8 1453 fb0c c23f
00000320: f61d f521 f900 c23f bd73 987d 2148 c23f
00000330: c60c b09a 6769 c23f 2f4c c0ba 0f97 c23f
00000340: 8dd3 5c76 ee95 c23f 99a0 23db a840 c13f
00000350: 4845 36f6 f4f9 c03f c3f6 45df d9bb c03f
00000360: d9ac 5c0f 8aa3 c13f bad7 2112 14ac c13f
00000370: f458 2baf 19de c13f 5859 2283 5deb c23f
00000380: a164 0bbd 7c18 c33f 2e79 e191 de33 c33f
00000390: 9b08 520f 874e c33f 0df6 2137 1ce6 c13f
000003a0: 42c1 83a8 7b6b c13f d847 9255 302c c13f
000003b0: 9040 35e6 194e c23f 91c2 12e8 c943 c23f
000003c0: d69f 1a17 684f c23f 1ba4 79af 5f8b c33f
000003d0: efdd 2ce9 72b3 c33f 0c08 0843 00aa c33f
000003e0: 1075 89a8 1424 c33f b7b7 c44d 9f8c c23f
000003f0: ef54 a017 06ed c13f 99db b6c0 93ed c13f
00000400: d4a5 79d8 4a64 c23f d405 d83c cbef c23f
00000410: 1267 f489 68ef c23f 7d53 487c 9023 c43f
00000420: cf85 c7c3 643b c43f 0b1e 5783 ea4e c43f
00000430: 2b88 d67d 59bc c33f 1ccf 5414 2a1f c33f
00000440: 5633 cadc e5a5 c23f aab2 ca26 0dc3 c23f
00000450: a96a f6a9 985c c33f 4061 4e60 d0df c33f
00000460: 25b0 52c6 f398 c33f a106 40dd 5ba9 c43f
00000470: da04 cb1c 0ba2 c43f cb5d 5dee 08ef c43f
00000480: 56ff d53d cd6e c43f 9524 f9cb 229f c33f
00000490: d0d5 bddc 1d83 c33f b026 bd6a e4a3 c33f
000004a0: 6181 062c 7482 c43f 4acc db0e 9ce1 c43f
000004b0: 8b82 544e 4546 c43f dca5 28da 9501 c53f
000004c0: 754d 9cd6 7345 c53f 87f1 b9b7 4e27 c53f
000004d0: 2c36 bc22 aedd c43f 81b0 11ea 476c c43f
000004e0: e116 a433 01a8 c43f 0746 2011 c0dc c43f
000004f0: 8b00 e2d3 fc53 c63f 047f c059 1c87 c63f
00000500: 05b3 5bad 7333 c53f 7600 127f 8058 c13f
00000510: 565d 74ec a4a6 c13f c419 bb4e 92bc c13f
00000520: cd2b 36a8 a2de c13f 4471 1b11 7401 c23f
00000530: 67b0 e2ae c9ff c13f 640f 3465 c1f3 c13f
00000540: 618f 6ca2 88e8 c13f 4846 6a02 f9d5 c13f
00000550: 262c 43bc e9b3 c13f 29d0 dc25 52a6 c13f
00000560: 2f22 47da e3e0 c13f 9526 8a8b bfda c13f
00000570: 0b74 0824 1bf8 c13f f73f 874e 1334 c23f
00000580: 163a 06d7 8870 c13f dccb 1598 865b c13f
00000590: 77cc 8a18 e863 c13f 4df0 f286 d72c c23f
000005a0: 29d6 0c27 04fa c13f b40b 301f 9bd8 c13f
000005b0: d4c4 1547 9889 c23f 5b0e 2c4b 5c78 c23f
000005c0: f901 df94 0dfc c23f cc6c 5175 6656 c33f
000005d0: e2f7 3a95 9419 c23f 6b59 9b3a c7ef c13f
000005e0: dc1f bb33 6816 c23f c182 7995 79f3 c23f
000005f0: 9698 1a34 6dba c23f 2089 6dfb f98a c23f
00000600: d567 b67a e947 c33f 6d70 bd0a af43 c33f
00000610: c580 ab36 79c3 c33f f3a5 1a43 01ce c33f
00000620: 3c71 7742 4cfa c23f 8911 8a7d 7db9 c23f
00000630: dcbc 75cc 7be9 c23f 9e49 b297 9ded c23f
00000640: 5130 62d2 4e39 c33f ece4 0390 0c56 c33f
00000650: 7c81 0e96 18ff c33f f88d 9d23 4c05 c43f
00000660: 2676 b8d9 dbcb c43f 4e80 176b 14db c43f
00000670: e77c 5431 feeb c33f daf7 8a26 a775 c33f
00000680: f7a6 8405 f7ae c33f d749 09e7 128d c33f
00000690: eb5e 0b4f 49e3 c33f 7bf8 da9d 3f0d c43f
000006a0: d1b4 3858 fcaa c43f 25f4 ba81 4999 c43f
000006b0: 256e 4fc5 38f0 c53f fd5c b178 6d0a c63f
000006c0: 171f 7407 48a3 c43f dfe5 0770 2d38 c43f
000006d0: 23cc 8e89 1a30 c43f 2c40 6241 8649 c43f
000006e0: 2598 35a9 8087 c43f b114 7407 dab0 c43f
000006f0: 4ad6 693a 6875 c53f 7433 730a cb74 c53f
00000700: 395b 5eb0 ff74 c73f ebca 4992 2691 c73f
00000710: 7519 2bfc dd9f c53f 95c5 8e20 cd5d c53f
00000720: f07c 38d8 f3f3 c43f ea06 c7a3 eee0 c43f
00000730: e031 a59c 2a1f c53f 7570 2bb9 0290 c53f
00000740: 5fd0 8e92 9d3a bf3f beb2 a65c 161c c03f
00000750: 21f1 0ece 5f60 c03f 5d8f f606 4881 c03f
00000760: e78a cdf2 7594 c03f 7d2b 9ba6 33a5 c03f
00000770: f82d e69e f57f c03f bec6 c513 1b68 c03f
00000780: 0637 ed46 2d7b c03f a726 f535 726f c03f
00000790: fb22 73a4 0f33 c03f 17fc 5e8b 4a27 c03f
000007a0: 35d2 6ab8 7a5c c03f 429f 81ab a9c4 c03f
000007b0: d31d ed33 dafd c03f 07f0 96a0 a1d2 c03f
000007c0: 3f0d 23d7 337a c03f c8d0 b2e6 0a55 c03f
000007d0: f841 4bf1 9db2 c03f 21ef 6a3d 3f98 c03f
000007e0: 25cc 93e4 0f57 c03f 6578 df88 f6da c03f
000007f0: ef09 4157 0e0d c13f 7311 15a6 3f8b c13f

running_var f8 [376]
0.019836089952410322 1.2810152374862123 0.07934151780977797 2.938450592912551 0.24897154463048843 0.24806838068626105 0.22421104183504303 0.22033513489741718
0.005384290786009237 0.0022718317926461893 0.003233834943415227 0.005347288871741419 0.0019472548518241737 0.0031078032306783403 0.00454312394720871 0.0023581307437651917
0.002521715587312567 0.004421106702448935 0.0026024803928698724 0.002536760866244236 1.7603208199441038 0.5751849709453701 0.5874315541162944 1.6937632465905579
0.5494232929495907 0.6065057809536832 0.9959351247322308 0.4408352996050138 0.30957917081879976 0.9907740394347873 0.4497594533028164 0.3465525743285978
0.24919090882921882 0.2491909106165254 0.2491909106165254 0.24919090882921882 0.01557811530078725 0.010920387208958415 0.01535862337678801 0.011648057388924384
0.009849003506532582 0.006954841707698031 0.010023488743676206 0.007183993296947278 0.028629365428178857 0.01978380262101105 0.024323479780840776 0.01674807777689961
5.761091162353951 6.928526465128939 3.7655791306697526 6.0538239738673125 7.006434462857178 3.693533973000947 4.921847554213788 5.373230001771176
2.5680066437144675 4.934316975173582 5.09639628313156 2.689489763397926 0.14893488742456507 0.1914480586597832 0.023409014037291127 0.44055695361190045
0.41627590540473836 0.44743214315474644 0.45658952329291524 0.37570671156525187 0.4469205928618018 0.4779366405748535 0.42834730434113744 0.36605583894889576
0.5399053167762375 0.44158492055661885 0.372233793694668 0.1487928929426111 0.1921459160555895 0.024204352210231043 0.4400667036969639 0.41586684042509625
0.44693853734659245 0.45605298742792494 0.3752248493390482 0.44640438732041504 0.4773791630728749 0.4279018566922792 0.3655569296040431 0.5393350390076639
0.44106604798488125 0.3717423018209234 0.07673501257280776 0.07876690207487161 0.07960490146522786 0.07998760534359195 0.07989552866982426 0.07933182121254424
0.07864793613698429 0.07820259586693216 0.07869296439476672 0.07881430500652821 0.07851477326068047 0.08096609217481847 0.08193782253912252 0.08276910428621695
0.08275530322773436 0.07544654082619452 0.07360590426183551 0.07255221617477688 0.07760861198855439 0.07780688411708306 0.07893911980964671 0.08504319604805448
0.08641078051607129 0.08675576460982452 0.08745912057007385 0.0798131989446642 0.07671735932646162 0.07582198001719809 0.0821173015320802 0.08179423886320329
0.08214516162097821 0.0890215249991481 0.09029162455291675 0.09006716268301959 0.08725723022258497 0.08407667647515203 0.08019093870696399 0.08076096990730858
0.08334790845051977 0.08626124245209427 0.08620383965153401 0.09282516130982786 0.09366616530101911 0.09413580131204662 0.09103963895828805 0.08776759650691558
0.08486536663597138 0.08598979311267296 0.08930732973383446 0.09200323682644014 0.09035942913656528 0.0962160618463826 0.09627372801536391 0.09802455363732912
0.09531939396323524 0.09093055542033254 0.09026988228813439 0.09131241653612715 0.09609275821569675 0.09798704837702098 0.09450103869167678 0.09925720334896676
0.1004252493652262 0.10032687991500344 0.09875937181151913 0.09590494080776613 0.09774975486575946 0.0985839205226278 0.10666494041318211 0.1076319016943901
0.10015197982393029 0.0727120153671389 0.07466843047696321 0.07505771856238848 0.07584991746634058 0.07661731081374633 0.07660543522780455 0.07657271941907819
0.07617523512262586 0.07575476585987362 0.07499979052243043 0.07464641829289494 0.07687394923945771 0.07706096683262341 0.0775850036951285 0.07892419201925124
0.07475850859325948 0.0738836472348163 0.07431109446607548 0.07849529904475076 0.0773583461822159 0.07691613942241275 0.08112700465557914 0.08125342438455946
0.08395421924837881 0.08601110399870883 0.07925138836473353 0.07771226965161006 0.07894061432322648 0.08353068202908205 0.08220289095052212 0.08153469381311772
0.08580972977629511 0.08624722792178889 0.08899231761316738 0.08932725228678093 0.08477785761104197 0.0827240689015607 0.08413463101189826 0.08411871552977347
0.08578807949802507 0.08652588238655562 0.09028317362268487 0.09087963494994493 0.0951110008046567 0.09552901443712825 0.09050626514857281 0.08736976978586762
0.0888792992509573 0.08806133583109524 0.08995897893214491 0.09093775246153926 0.09451910687513909 0.09440550850931285 0.10167919272467445 0.10229843457907013
0.0948145420527387 0.09208467218452414 0.09201135389203657 0.09256837719257441 0.0939309258295964 0.0948207083972065 0.09995881343597515 0.09961478578431585
0.11043483374749176 0.11105911071169079 0.10067964244978242 0.0996040924675309 0.09671535347286615 0.09685289086304609 0.0981526286421044 0.10017120499912055
0.07425856407694113 0.07742293459449008 0.07893745697581668 0.07975978497720636 0.08018524677467585 0.08056241847393326 0.07994004459587883 0.07908458263650607
0.07953552262440042 0.07927293974051917 0.07780428734402728 0.07875312931516268 0.08020699401723679 0.08213442614211508 0.08342732606729894 0.08288647231240681
0.08063038090219861 0.08037500732621372 0.08221195349983776 0.08159004228052603 0.08031658904846703 0.08345284700920835 0.0849673930073205 0.0871739908753046
00000000: b124 8176 e94f 943f 31e5 6ad5 097f f43f
00000010: 5a3f 35c8 b94f b43f 0dc5 6b62 f281 0740
00000020: 6449 e9b0 4cde cf3f bd0d 1c67 b4c0 cf3f
00000030: 54b3 0a8a f2b2 cc3f e0a6 4513 f133 cc3f
00000040: 98b5 688d d60d 763f a6b3 0b68 609c 623f
00000050: 03fd 52ea d77d 6a3f 0ee9 38ed 09e7 753f
00000060: f5ba f4f9 60e7 5f3f 980f 9f27 8975 693f
00000070: 2023 668c cf9b 723f a8bf 92cd 5b51 633f
00000080: 7f36 46bf 6ba8 643f 3ab2 2fcb dd1b 723f
00000090: 8f9f a005 cc51 653f 3253 aa1e f9c7 643f
000000a0: 980b 022a 462a fc3f ed8d eb4f ea67 e23f
000000b0: 8e2c 3242 3dcc e23f 265f 747d a719 fb3f
000000c0: bf21 5c28 e094 e13f 07fe c0cf 7e68 e33f
000000d0: 1e34 b556 b3de ef3f 1475 ae42 a536 dc3f
000000e0: 7721 8c27 25d0 d33f aa24 23c2 6bb4 ef3f
000000f0: e827 c0df dbc8 dc3f fd7f 45d9 ea2d d63f
00000100: c9e5 f0d9 7ce5 cf3f d37a c7dd 7ce5 cf3f
00000110: d37a c7dd 7ce5 cf3f c9e5 f0d9 7ce5 cf3f
00000120: 0a68 003e 6be7 8f3f 5387 608f 6d5d 863f
00000130: 2349 eb88 5774 8f3f 01ff 60cc efda 873f
00000140: 6c83 abdf b62b 843f a349 ef1a ae7c 7c3f
00000150: 436e c4e2 3187 843f e7bb 3d84 f66c 7d3f
00000160: 0486 e030 0451 9d3f 34b5 fd84 3442 943f
00000170: 1409 bc18 41e8 983f 4b64 4a79 6826 913f
00000180: e256 4e7b 5b0b 1740 0fcc 44a4 cfb6 1b40
00000190: 47d0 85f3 e71f 0e40 e300 bea1 1d37 1840
000001a0: d727 7ec1 9606 1c40 d2a1 258a 5b8c 0d40
000001b0: b5fb 24ce f8af 1340 0ff9 6d01 307e 1540
000001c0: 9d50 3511 478b 0440 6adf d196 bdbc 1340
000001d0: 2706 0eb5 b562 1440 57c4 8535 1384 0540
000001e0: d068 5c63 4c10 c33f 64c9 69b7 5e81 c83f
000001f0: c217 e356 88f8 973f cf76 f2ca 1532 dc3f
00000200: 7edf f4b1 43a4 da3f 4ad8 816d baa2 dc3f
00000210: b650 8f43 c338 dd3f 9bde c329 940b d83f
00000220: 0f06 90d4 589a dc3f 0410 3590 8396 de3f
00000230: 7c65 decf 0a6a db3f 05e7 3278 756d d73f
00000240: dab1 cf83 e746 e13f cba2 0c66 ed42 dc3f
00000250: 749d 98b0 add2 d73f 4c6a 8840 a50b c33f
00000260: 5c65 c2c4 3c98 c83f 31bd a794 06c9 983f
00000270: 84f7 1b89 0d2a dc3f 0477 c7f3 8f9d da3f
00000280: b171 4e18 a49a dc3f 11bf 8fde f82f dd3f
00000290: 00b2 2316 af03 d83f 1f41 15b5 e391 dc3f
000002a0: 7b26 4c55 618d de3f 7006 1978 be62 db3f
000002b0: 3d6f 5ee4 4865 d73f 5efe 438e 3b42 e13f
000002c0: 6225 de16 6d3a dc3f 8414 3739 a0ca d73f
000002d0: f656 75e1 e7a4 b33f 0237 6b54 112a b43f
000002e0: 14fb 64a0 fc60 b43f b03c 0955 117a b43f
000002f0: 55c8 bb8a 0874 b43f d1d6 a319 174f b43f
00000300: d032 9b69 4522 b43f 93f5 b5d7 1505 b43f
00000310: 7235 80dc 3825 b43f 11c3 759e 2c2d b43f
00000320: 7950 684f 8b19 b43f dbcb f99d 31ba b43f
00000330: 6069 1c8c e0f9 b43f c64c 0724 5b30 b53f
00000340: ce05 ef98 732f b53f a9e0 71e9 7650 b33f
00000350: edda 9827 d6d7 b23f cd15 b933 c892 b23f
00000360: aff8 6072 28de b33f aac0 afe6 26eb b33f
00000370: fe1b f5a9 5a35 b43f e311 c611 64c5 b53f
00000380: c69e 5654 041f b63f 8319 bd33 a035 b63f
00000390: fedb 958e b863 b63f 4fa8 4147 a36e b43f
000003a0: d0b6 57b5 bfa3 b33f a8e8 7dbc 1169 b33f
000003b0: 311c 84b4 a305 b53f fb2d eb9c 77f0 b43f
000003c0: eacd af1e 7707 b53f 4bea 825a 1dca b63f
000003d0: 8ab7 8e16 5a1d b73f cec5 2a3e a40e b73f
000003e0: 7442 2566 7d56 b63f c730 d18f 0c86 b53f
000003f0: 5594 2eb3 6487 b43f ac8d 8b3c c0ac b43f
00000400: f127 fcdc 4956 b53f 7c7b 3e7f 3715 b63f
00000410: a9cc 1770 7411 b63f af56 12c8 63c3 b73f
00000420: cfa8 b57c 81fa b73f 439b 04ac 4819 b83f
00000430: a92a f7af 5f4e b73f 514e a5ec ef77 b63f
00000440: 54b9 4396 bcb9 b53f c06f 3555 6d03 b63f
00000450: eef9 7f5c d8dc b63f 35b3 4b2d 868d b73f
00000460: e2da 06a9 cb21 b73f 94e9 faa6 9da1 b83f
00000470: 963c 4a21 65a5 b83f aacb 131c 2318 b93f
00000480: 7c23 bf0f da66 b83f 1ec9 bc91 3947 b73f
00000490: 49c6 3d50 ed1b b73f 1ccc bd22 4060 b73f
000004a0: f139 ebf5 8899 b83f e7fb 35e0 ad15 b93f
000004b0: 8668 9e56 3831 b83f 44b7 468a eb68 b93f
000004c0: de5e b719 78b5 b93f 6008 25bc 05af b93f
000004d0: 5d9e 1a50 4b48 b93f d04e 4be8 398d b83f
000004e0: fa27 57c0 2006 b93f d25f 8eba cb3c b93f
000004f0: f253 b4be 644e bb3f 12a0 c8a9 c38d bb3f
00000500: de32 f965 8fa3 b93f 4832 0730 419d b23f
00000510: 7534 f162 781d b33f 45af 898e fb36 b33f
00000520: 6517 ec72 e66a b33f 57a4 402c 319d b33f
00000530: f4cf ffee 699c b33f a1b4 ab0d 459a b33f
00000540: dce5 9d5f 3880 b33f 2061 e211 aa64 b33f
00000550: 2f2d 80af 2f33 b33f 7dde 5415 071c b33f
00000560: 83d8 e5d9 02ae b33f 4f21 587c 44ba b33f
00000570: 74d6 875d 9cdc b33f 16fe 9537 6034 b43f
00000580: 177b 81a5 5f23 b33f 3e2e 95e8 09ea b23f
00000590: f435 7648 0d06 b33f 3375 4996 4418 b43f
000005a0: 16de ecae c1cd b33f 3395 5aaf c6b0 b33f
000005b0: 6b72 d147 bdc4 b43f ec70 6b40 06cd b43f
000005c0: bc72 0812 067e b53f 616e c4de d204 b63f
000005d0: 866a 30a9 d149 b43f 29cf a688 f3e4 b33f
000005e0: 0d2b d8bc 7335 b43f 1509 874b 4462 b53f
000005f0: cfe6 44a8 3f0b b53f c7ad 6a2b 75df b43f
00000600: 5a5a 115f a0f7 b53f 2b74 4b5f 4c14 b63f
00000610: 9769 be55 33c8 b63f 8e98 369b 26de b63f
00000620: 5947 dd6d 00b4 b53f 8035 8692 672d b53f
00000630: b339 a8e0 d889 b53f 4991 2edc cd88 b53f
00000640: 83a6 d423 35f6 b53f b498 1b6b 8f26 b63f
00000650: 56a9 164e cc1c b73f ab80 fb43 e343 b73f
00000660: ee21 f2cd 3159 b83f 989a d3e8 9674 b83f
00000670: fd6e e528 6b2b b73f 77ac e37f dd5d b63f
00000680: a202 9333 cbc0 b63f cac6 6f0d 308b b63f
00000690: e2bf 7e38 8d07 b73f 2a47 cb50 b247 b73f
000006a0: c837 e078 6732 b83f 7918 9c9b f52a b83f
000006b0: 0ba8 6fc7 a507 ba3f 55f8 f2ee 3a30 ba3f
000006c0: 243e 4d0d c445 b83f 53d3 7e6f dc92 b73f
000006d0: ecb4 d35b 0e8e b73f 1a97 afa8 8fb2 b73f
000006e0: 0168 856e db0b b83f 9aaf 8c81 2b46 b83f
000006f0: ea8b a79a e696 b93f 4a45 24c7 5a80 b93f
00000700: 69e0 480f 7545 bc3f 55f7 6db0 5e6e bc3f
00000710: aedd b11b 24c6 b93f 4920 b25f a77f b93f
00000720: dde1 2f60 56c2 b83f 9ba3 c7de 59cb b83f
00000730: 01c6 08da 8720 b93f cedd 78f1 d1a4 b93f
00000740: c38b 28f8 9b02 b33f bd2e 0b4c fdd1 b33f
00000750: 69fa 23c4 3e35 b43f 175a 0324 236b b43f
00000760: 17d8 8434 0587 b43f 7dd8 a118 bd9f b43f
00000770: cc19 2e65 f376 b43f 7fa6 0a20 e33e b43f
00000780: f6c4 8aa4 705c b43f dfaf a43b 3b4b b43f
00000790: 4495 a155 fbea b33f b2c4 dd42 2a29 b43f
000007a0: 73e9 3610 7288 b43f f0f6 2702 c306 b53f
000007b0: 4641 0d45 7e5b b53f 24d3 dc3f 0c38 b53f
000007c0: adf9 0951 31a4 b43f d0c0 e1db 7493 b43f
000007d0: 5e40 9fb3 d70b b53f 812c 46c3 15e3 b43f
000007e0: 9618 4ac3 a08f b43f dca2 a970 2a5d b53f
000007f0: b15c 314e 6cc0 b53f 4d09 dfdf 0851 b63f

count f8 []
5600000001.0
00000000: 0000 1080 93dc f441

running_mean f8 [1]
253.88243777965076
00000000: 5b8b 27ee 3cbc 6f40

running_var f8 [1]
9403.092698887272
00000000: 9ba0 8edd 8b5d c240

count f8 []
1400000001.0
00000000: 0000 4080 93dc d441

a2c_network.sigma f4 [15]
-2.5238497 -2.0546496 -1.7891369 -1.3862628 -1.4340184 -1.6296406 -1.3496773 -1.5630109
-1.5104295 -1.3726674 -1.4114407 -1.9392967 -1.3339639 -1.538825 -1.8389559
00000000: c186 21c0 617f 03c0 7002 e5bf 0f71 b1bf
00000010: ea8d b7bf 1098 d0bf 3ac2 acbf be10 c8bf
00000020: c155 c1bf 91b3 afbf 17aa b4bf e03a f8bf
00000030: 54bf aabf 38f8 c4bf e862 ebbf

a2c_network.actor_mlp.0.weight f4 [128, 376]
-0.16392842 -0.09105597 0.37659994 -0.0024452214 0.039941862 0.10692448 0.071442306 0.09784918
-0.043330003 -0.07883842 0.18171036 -0.23843399 0.13663898 0.19825576 0.26668957 -0.048840214
0.036841456 0.501922 -0.42911983 -0.06949485 0.04001352 0.16678028 0.007910282 -0.11147558
0.22712384 0.34239754 -0.1641045 0.061564233 -0.07378782 -0.046083868 0.0460728 -0.06280229
0.18277372 -0.17258328 -0.23087607 0.19348897 0.6801894 -0.24835066 -0.731835 -0.5675853
-0.10293211 0.440119 1.5376476 1.4210225 -0.4179571 -0.08202019 -0.034505684 0.30949065
0.26250717 -0.08334315 0.0771593 -0.17790355 -0.0082231695 0.060178045 0.10598924 0.29840466
-0.31539866 0.046717603 0.26145473 -0.163325 0.32794645 -0.25689563 -0.1948494 -0.12405729
0.08313 0.08878795 -0.1127031 -0.08525528 -0.19361553 0.08347019 -0.030010955 0.051638372
-0.05866926 -0.13227493 0.16222608 0.027254656 -0.07511065 -0.08354784 -0.12038045 0.2844392
-0.0023635088 -0.091398135 -0.13818386 -0.13559365 -0.09149652 0.01804208 -0.18249743 -0.028232202
-0.28438407 0.03263269 -0.027424559 -0.0411073 0.002161665 -0.046659954 -0.03997257 -0.018877773
-0.15080522 -0.24151047 -0.07659915 -0.17695865 -0.0703927 -0.020896226 -0.25592723 0.04977099
-0.16979522 0.12267471 0.051450294 0.09114006 -0.1253673 0.025836105 0.008848534 0.095372304
0.019520134 0.09902076 -0.08468196 0.061570194 0.017806573 -0.10655255 -0.08580264 0.09126571
-0.112190254 0.029513808 0.08698205 0.03831233 0.016368983 -0.007980567 0.054267723 -0.089051105
-0.009297228 0.053860802 0.15120913 0.02083801 -0.042311065 -0.015289026 -0.07611879 -0.0853306
0.03263978 0.04265153 0.08191102 0.009489631 0.030510273 0.014063703 -0.080599464 0.020200077
0.11473166 -0.29697096 0.014347627 -0.18790616 -0.024205009 0.044732664 0.006019513 0.10988971
0.1143563 -0.09455799 0.1788073 0.16645905 -0.29092893 0.118395664 0.057569016 0.17460608
-0.030137084 -0.008669336 0.077969186 0.14806803 0.08353186 0.09161521 -0.015530503 0.16275454
-0.16902642 0.041442286 0.027907774 0.14539617 0.02497976 -0.041671436 -0.100754455 -0.10468468
0.05947176 -0.0040117516 -0.12487576 0.005049732 -0.0132429795 -0.06775308 -0.045377903 0.10972398
-0.08868893 -0.107357524 0.043193202 0.063560896 -0.025729362 0.05365493 0.09013861 -0.009837382
0.034350563 -0.0134706795 0.08216844 0.1321805 -0.030107647 -0.008833344 0.0069957795 -0.10873776
-0.12978758 0.03876639 0.09101299 -0.16465104 -0.03212703 0.09179813 -0.12879911 0.09538482
0.15193471 0.04106896 0.09477575 0.09177318 -0.07361208 0.04348925 -0.033665594 -0.0082036555
-0.094114535 -0.07183699 0.12289869 -0.21425577 0.029991299 0.020597648 0.17219555 0.0947848
0.030833155 0.0671311 -0.101794705 -0.28846475 0.1879576 0.01847832 0.1945021 0.0633261
-0.116088256 0.08123894 0.07747407 -0.11071071 -0.022876365 0.07759499 0.07928284 0.09370535
0.13173479 0.1179839 0.081952915 -0.018278839 0.027866436 0.07728997 0.0429482 -0.14226148
0.042193964 -0.038566094 0.012534088 -0.04456887 -0.028130023 0.12809876 0.10251078 -0.021944566
00000000: dadc 27be 8d7b babd b5d1 c03e 0240 20bb
00000010: 149a 233d 39fb da3d 5850 923d 2765 c83d
00000020: cd7a 31bd 0a76 a1bd 4812 3a3e 0a28 74be
00000030: 17eb 0b3e 8f03 4b3e 898b 883e ad0c 48bd
00000040: 11e7 163d f67d 003f 98b5 dbbe 5153 8ebd
00000050: 37e5 233d 73c8 2a3e 219a 013c 4f4d e4bd
00000060: 2793 683e bb4e af3e 030b 28be c72a 7c3d
00000070: 121e 97bd 70c2 3cbd d5b6 3c3d 7d9e 80bd
00000080: 0929 3b3e acb9 30be c76a 6cbe f921 463e
00000090: e420 2e3f a34f 7ebe 8a59 3bbf 454d 11bf
000000a0: 12ce d2bd 4757 e13e a3d1 c43f 11e4 b53f
000000b0: 79fe d5be 34fa a7bd d555 0dbd 8f75 9e3e
000000c0: 5767 863e d0af aabd b205 9e3d 592c 36be
000000d0: 79ba 06bc 417d 763d e310 d93d 7fc8 983e
000000e0: ef7b a1be f55a 3f3d 65dd 853e ab3e 27be
000000f0: 99e8 a73e d387 83be 9a86 47be c011 febd
00000100: 1040 aa3d 75d6 b53d e2d0 e6bd 529a aebd
00000110: 2643 46be 6bf2 aa3d 89d9 f5bc c282 533d
00000120: 2e4f 70bd 1473 07be 981e 263e 2845 df3c
00000130: 9dd3 99bd 211b abbd 068a f6bd 04a2 913e
00000140: 19e5 1abb f22e bbbd 1280 0dbe 10d9 0abe
00000150: 8762 bbbd fccc 933c 9be0 3abe 3847 e7bc
00000160: ca9a 91be dba9 053d 78a9 e0bc 2160 28bd
00000170: b8aa 0d3b 821e 3fbd 47ba 23bd 8fa5 9abc
00000180: af6c 1abe 854e 77be 04e0 9cbd a634 35be
00000190: 0c2a 90bd 902e abbc e508 83be aadc 4b3d
000001a0: ccde 2dbe e13c fb3d 8bbd 523d a4a7 ba3d
000001b0: 4960 00be 3da6 d33c 71f9 103c 8e52 c33d
000001c0: b0e8 9f3c 65cb ca3d bc6d adbd 0731 7c3d
000001d0: 17df 913c 3938 dabd 4bb9 afbd 84e9 ba3d
000001e0: 01c4 e5bd f1c6 f13c a523 b23d 64ed 1c3d
000001f0: 3f18 863c edc0 02bc d547 5e3d 6d60 b6bd
00000200: 6753 18bc 259d 5c3d 91d6 1a3e 79b4 aa3c
00000210: 5e4e 2dbd d37e 7abc 2be4 9bbd cfc1 aebd
00000220: 4ab1 053d 5fb3 2e3d f7c0 a73d 667a 1b3c
00000230: aef0 f93c 726b 663c 5511 a5bd a27a a53c
00000240: 6ff8 ea3d 940c 98be 4f12 6b3c 796a 40be
00000250: 9549 c6bc 9939 373d 563f c53b db0d e13d
00000260: a333 ea3d 9fa7 c1bd 4319 373e 3e74 2a3e
00000270: a3f4 94be 6d79 f23d 7dcd 6b3d f0cb 323e
00000280: 0ce2 f6bc d509 0ebc 4fae 9f3d 259f 173e
00000290: c012 ab3d c1a0 bb3d a773 7ebc 20a9 263e
000002a0: 4315 2dbe 63bf 293d d89e e43c bce2 143e
000002b0: 5ba2 cc3c abaf 2abd 5a58 cebd ec64 d6bd
000002c0: a998 733d 0375 83bb ddbe ffbd 3978 a53b
000002d0: 15f9 58bc 20c2 8abd 2ede 39bd f7b6 e03d
000002e0: 8ba2 b5bd 43de dbbd 5beb 303d 372c 823d
000002f0: 62c6 d2bc 46c5 5b3d 979a b83d f82c 21bc
00000300: 2db3 0c3d 20b4 5cbc ed47 a83d 535a 073e
00000310: 50a4 f6bc bbb9 10bc da3c e53b e7b1 debd
00000320: 09e7 04be 82c9 1e3d 0565 ba3d 489a 28be
00000330: a297 03bd a800 bc3d eae3 03be 1e59 c33d
00000340: c694 1b3e ed37 283d ca19 c23d 94f3 bb3d
00000350: eec1 96bd c921 323d efe4 09bd a068 06bc
00000360: 1fbf c0bd 461f 93bd 4fb2 fb3d dd65 5bbe
00000370: 50b0 f53c 66bc a83c 0854 303e 891e c23d
00000380: d095 fc3c 087c 893d be79 d0bd a7b1 93be
00000390: f577 403e d95f 973c 8f2b 473e 1db1 813d
000003a0: aebf edbd 9a60 a63d baaa 9e3d 4cbc e2bd
000003b0: 3767 bbbc 1fea 9e3d 0b5f a23d 97e8 bf3d
000003c0: 7ce5 063e 8ba1 f13d eed6 a73d 81bd 95bc
000003d0: 2748 e43c 344a 9e3d 74ea 2f3d feac 11be
000003e0: 94d3 2c3d 7bf7 1dbd c75b 4d3c d98d 36bd
000003f0: ef70 e6bc 522c 033e 2cf1 d13d 17c5 b3bc

a2c_network.actor_mlp.0.bias f4 [128]
-0.27371648 -0.21586496 -0.40541357 -0.33884794 -0.14077738 -0.05616101 -0.30544728 -0.1936032
-0.27693996 0.007737048 -0.08507938 -0.13990155 -0.2612748 -0.23876803 -0.026365621 -0.36635593
0.006517006 -0.13608465 -0.32639065 -0.42858326 -0.16789263 -0.3239271 -0.33951962 -0.38458866
0.042026542 -0.06321622 -0.23665369 -0.26336065 -0.010657422 -0.52806944 -0.45851386 -0.24839073
-0.35490134 -0.15133253 -0.1378873 -0.20522642 0.1093338 -0.22079873 -0.26141295 -0.35502452
-0.068749815 -0.34918192 -0.22380012 -0.04985247 -0.21317537 -0.023798741 -0.19905806 -0.265534
-0.3675117 -0.06430895 -0.11790208 -0.024544448 -0.1939075 -0.3031858 -0.113324136 -0.34483466
-0.30662644 -0.31129336 -0.32365397 -0.3070006 -0.21482185 0.0130031975 -0.26369452 -0.37208912
-0.25850427 -0.2538866 -0.049932685 -0.13361815 -0.40968606 -0.08927128 0.122220196 -0.40588853
-0.04980883 -0.34838197 -0.24173425 -0.34836274 -0.5622197 -0.09355547 -0.10185151 -0.36786708
-0.38040373 -0.34609035 -0.28320727 -0.16881475 -0.21074139 -0.07503223 -0.419074 -0.04320883
-0.20941573 -0.5585194 -0.20852669 -0.22917597 -0.11294428 -0.33743662 -0.03129932 -0.1062128
-0.17016454 -0.18944784 -0.21768333 -0.45321506 -0.42221338 -0.015353009 -0.2335812 -0.2160101
-0.15163489 -0.29219812 -0.19636337 -0.14614174 -0.31126136 -0.049268883 -0.56969404 -0.4172258
-0.31232476 -0.11663133 -0.46502063 -0.16102466 -0.34728 -0.30326068 -0.0017548836 -0.10713121
-0.2927893 -0.16713451 -0.2557745 0.03760275 -0.11426998 -0.22082208 -0.161334 -0.34928665
00000000: 9124 8cbe b40b 5dbe 5e92 cfbe 7a7d adbe
00000010: f227 10be 1609 66bd 9663 9cbe eb3f 46be
00000020: 13cb 8dbe 1087 fd3b 193e aebd 5a42 0fbe
00000030: d0c5 85be 9b7f 74be b7fc d7bc 0193 bbbe
00000040: 9c8c d53b c659 0bbe ad1c a7be 446f dbbe
00000050: 0cec 2bbe c6d9 a5be 84d5 adbe cee8 c4be
00000060: 0624 2c3d 8177 81bd 5855 72be 35d7 86be
00000070: 789c 2ebc 8f2f 07bf 54c2 eabe 245a 7ebe
00000080: a1b5 b5be eaf6 1abe 5432 0dbe e026 52be
00000090: 66ea df3d 1019 62be ebd7 85be c6c5 b5be
000000a0: b4cc 8cbd f9c7 b2be dc2b 65be 1b32 4cbd
000000b0: a54a 5abe 94f5 c2bc e0d5 4bbe 13f4 87be
000000c0: 7e2a bcbe 69b4 83bd a576 f1bd 7011 c9bc
000000d0: b08f 46be 2b3b 9bbe 7c16 e8bd 2b8e b0be
000000e0: 24fe 9cbe d861 9fbe f9b5 a5be 2f2f 9dbe
000000f0: 42fa 5bbe 5d0b 553c f802 87be 7782 bebe
00000100: ac5a 84be 6dfd 81be 3786 4cbd 32d3 08be
00000110: 5fc2 d1be dcd3 b6bd 954e fa3d 9fd0 cfbe
00000120: 5804 4cbd 1f5f b2be 2f89 77be 9a5c b2be
00000130: a1ed 0fbf 039a bfbd 8697 d0bd 1359 bcbe
00000140: 47c4 c2be c132 b1be 8b00 91be c6dd 2cbe
00000150: 97cc 57be 7faa 99bd de90 d6be befb 30bd
00000160: 1471 56be 21fb 0ebf 0588 55be 1bad 6abe
00000170: 554f e7bd 7ec4 acbe b733 00bd 1986 d9bd
00000180: 9d3f 2ebe 9dfe 41be 61e8 5ebe ce0b e8be
00000190: 5a2c d8be 308b 7bbc e92f 6fbe c031 5dbe
000001a0: 2d46 1bbe fe9a 95be 7b13 49be 2ea6 15be
000001b0: a65d 9fbe 2bce 49bd 78d7 11bf 9f9e d5be
000001c0: 08e9 9fbe 68dc eebd 2f17 eebe a6e3 24be
000001d0: afce b1be fc44 9bbe 1f04 e6ba 9c67 dbbd
000001e0: 7be8 95be 4f25 2bbe e0f4 82be 5705 1a3d
000001f0: 6106 eabd 2f1f 62be bd34 25be b3d5 b2be

a2c_network.actor_mlp.2.weight f4 [128, 128]
0.14817706 0.13874719 0.0332195 -0.020425662 -0.0062074983 -0.081461646 -0.016536873 0.10897317
-0.15249057 -0.07394431 0.16454253 0.008208931 -0.1947398 -0.0714015 -0.16651955 -0.021470739
-0.010980361 -0.045013394 -0.17314953 -0.06295116 0.13936298 0.04560269 -0.21747135 0.04340667
-0.10804947 -0.19622026 0.005469201 0.0842601 -0.185511 0.007702306 0.08555954 -0.29951906
-0.15156786 -0.08829004 -0.0676007 -0.041188464 0.09592118 0.016471023 0.023343418 0.0154278325
0.15609525 0.056243334 0.12620085 0.11721307 0.014350436 0.020591656 0.038829237 -0.17928505
0.05350929 -0.22449239 -0.18416663 0.15925676 0.07280682 -0.024490304 -0.008379306 0.030500576
-0.0683845 -0.13525565 -0.04663263 -0.0033752953 0.06006141 0.17924656 -0.19964547 -0.0039315484
0.0913054 0.060894635 -0.12628098 -0.027102977 -0.18500261 0.06369099 -0.09414937 -0.007650639
0.13231988 -0.11289376 -0.054611478 0.053310074 0.1261462 -0.060923986 0.0805112 -0.19532534
0.20242788 0.038164888 -0.05015093 -0.07194184 -0.19341148 -0.05540222 0.11016189 0.0066123554
-0.2336367 0.029437859 -0.017908165 -0.2564868 -0.16998291 -0.043990005 -0.2554968 -0.13731314
0.056994222 -0.11630541 -0.03179439 0.09100362 0.020027038 0.0798108 0.027017925 -0.1572631
-0.07088097 -0.23065133 -0.0842364 -0.12404898 -0.07548279 -0.13617231 0.03976936 -0.15880992
-0.18926862 0.041128937 -0.0046153544 -0.0077277306 0.09826865 0.020205475 -0.10172675 -0.16557615
-0.08542759 -0.1582511 -0.0661649 0.05631535 -0.09922934 -0.06554982 0.06961258 0.0658342
0.101326354 -0.059903797 0.0800147 -0.12433153 0.078453876 0.017946823 -0.033420157 -0.03409658
-0.18429056 0.013683627 0.07868601 0.0020418337 -0.21639127 0.05655642 -0.20724978 0.0638675
0.031390652 -0.18664785 -0.0895835 -0.032031856 -0.14536893 0.056097697 0.05469943 0.120003164
0.02309421 0.1418427 0.027137458 0.16959217 -0.06305578 -0.09562663 -0.0133972 -0.22355402
0.031013297 -0.011919896 -0.09080235 0.12945329 -0.10669356 -0.15510957 -0.013188 -0.0014938317
-0.0033305127 0.06805534 -0.20941548 -0.38907415 -0.109976366 -0.06655232 0.123124115 -0.06495524
-0.023433173 0.011436927 -0.07177847 0.059695374 0.04812334 -0.10455777 0.019111985 0.18515292
-0.124225646 -0.11784084 0.08611449 -0.04871561 -0.10874273 -0.03661362 0.016419888 -0.04390644
0.120166436 -0.13753456 -0.1581758 0.032505892 0.1187522 -0.023689095 0.011733319 -0.014475238
-0.42906657 0.09829821 0.0019286905 -0.0020580797 -0.105223574 -0.047936726 -0.08053381 0.14274777
0.077897064 -0.0053906855 -0.115551285 -0.052028563 0.06225423 -0.10782564 -0.09484823 -0.06444337
-0.09180715 -0.049054395 0.0068618758 0.07079547 0.0951547 -0.027877817 -0.31054574 -0.2110082
-0.031195404 -0.089750156 0.060167577 0.022444528 -0.06165225 -0.222502 -0.22718908 0.19303218
-0.17981155 -0.08203608 0.07307783 -0.13534151 -0.0020204906 0.121783584 0.17006385 -0.098869376
0.06865216 0.08381653 -0.106385745 0.13597754 0.03557794 -0.07691582 -0.086189166 0.10136081
0.05788285 -0.013395812 0.1743408 0.0959786 -0.26022968 0.08028113 0.13733259 -0.138751
00000000: babb 173e be13 0e3e 2c11 083d b853 a7bc
00000010: 4568 cbbb 5dd5 a6bd 5678 87bc 532d df3d
00000020: 7d26 1cbe 1d70 97bd d67d 283e c17e 063c
00000030: df69 47be f33a 92bd 1a84 2abe 67e3 afbc
00000040: f9e6 33bc f75f 38bd 1c4e 31be 8aec 80bd
00000050: 2bb5 0e3e e3c9 3a3d cfb0 5ebe 31cb 313d
00000060: 0a49 ddbd f7ed 48be fc36 b33b 8f90 ac3d
00000070: 98f6 3dbe a063 fc3b d739 af3d 905a 99be
00000080: 9b34 1bbe 69d1 b4bd 3c72 8abd 3cb5 28bd
00000090: 5372 c43d 3dee 863c b23a bf3c 05c5 7c3c
000000a0: 6fd7 1f3e 695f 663d cc3a 013e 680d f03d
000000b0: 171e 6b3c d5af a83c 680b 1f3d 8096 37be
000000c0: 8f2c 5b3d 55e1 65be 2d96 3cbe 3414 233e
000000d0: be1b 953d e49f c8bc 5b49 09bc 58dc f93c
000000e0: 2c0d 8cbd 7580 0abe db01 3fbd 0f34 5dbb
000000f0: f402 763d 698c 373e dd6f 4cbe 38d4 80bb
00000100: 53fe ba3d a76c 793d cd4f 01be 1007 debc
00000110: 5371 3dbe 6c70 823d 63d1 c0bd 36b2 fabb
00000120: dd7e 073e d834 e7bd 49b0 5fbd aa5b 5a3d
00000130: 782c 013e 6e8b 79bd 0ee3 a43d 5e03 48be
00000140: 4149 4f3e c952 1c3d 106b 4dbd 3e56 93bd
00000150: a90d 46be 70ed 62bd 8f9c e13d 75ac d83b
00000160: 763e 6fbe aa27 f13c 25b4 92bc 3d52 83be
00000170: 0010 2ebe dd2e 34bd 7ad0 82be d19b 0cbe
00000180: c672 693d 8831 eebd d63a 02bd 1b60 ba3d
00000190: be0f a43c d873 a33d b254 dd3c 9409 21be
000001a0: 0b2a 91bd dd2f 6cbe 2284 acbd 640d febd
000001b0: b996 9abd c170 0bbe 32e5 223d 119f 22be
000001c0: a2cf 41be d176 283d 663c 97bb e738 fdbb
000001d0: 1341 c93d f485 a53c 1d56 d0bd cb8c 29be
000001e0: a9f4 aebd 940c 22be 7781 87bd edaa 663d
000001f0: c138 cbbd fc3e 86bd 0a91 8e3d 15d4 863d
00000200: 3184 cf3d af5d 75bd bfde a33d 87a1 febd
00000210: 6dac a03d 3705 933c 93e3 08bd dba8 0bbd
00000220: aab6 3cbe 4b31 603c 2126 a13d 49d0 053b
00000230: ac95 5dbe b4a7 673d 4939 54be f7cc 823d
00000240: 7c93 003d 9d20 3fbe 8e77 b7bd d633 03bd
00000250: 98db 14be b3c6 653d 820c 603d 38c4 f53d
00000260: 1230 bd3c 363f 113e 604f de3c 92a9 2d3e
00000270: 6423 81bd e5d7 c3bd ee7f 5bbc 58eb 64be
00000280: 990f fe3c ab4b 43bc 95f6 b9bd 678f 043e
00000290: 2782 dabd 0bd5 1ebe 7b12 58bc adcc c3ba
000002a0: bb44 5abb 9960 8b3d 0371 56be ba34 c7be
000002b0: 4a3b e1bd 954c 88bd 7f28 fc3d 4107 85bd
000002c0: edf6 bfbc f361 3b3c 9700 93bd 2383 743d
000002d0: fb1c 453d 6222 d6bd bd90 9c3c ba98 3d3e
000002e0: 046a febd 8a56 f1bd cb5c b03d 058a 47bd
000002f0: 82b4 debd 2af8 15bd 0083 863c 3dd7 33bd
00000300: d219 f63d dcd5 0cbe d6f8 21be e624 053d
00000310: 5a34 f33d a20f c2bc 1b3d 403c 8c29 6dbc
00000320: 9dae dbbe 9250 c93d 1dcc fc3a d9e0 06bb
00000330: 757f d7bd 4d59 44bd e9ee a4bd 792c 123e
00000340: 7f88 9f3d 59a4 b0bb 27a6 ecbd e71b 55bd
00000350: 4bfe 7e3d b0d3 dcbd ca3f c2bd e3fa 83bd
00000360: 6305 bcbd 43ed 48bd 96d9 e03b 37fd 903d
00000370: 78e0 c23d 0560 e4bc daff 9ebe 8912 58be
00000380: 818d ffbc eece b7bd 4772 763d 96dd b73c
00000390: 1287 7cbd 90d7 63be 41a4 68be 3aaa 453e
000003a0: 8520 38be 8802 a8bd d4a9 953d f796 0abe
000003b0: 356a 04bb ac69 f93d 3825 2e3e 077c cabd
000003c0: 8199 8c3d 00a8 ab3d c5e0 d9bd b23d 0b3e
000003d0: 2dba 113d 0b86 9dbd f283 b0bd 4296 cf3d
000003e0: 9116 6d3d 1c7a 5bbc 6586 323e 6e90 c43d
000003f0: d33c 85be 6f6a a43d eaa0 0c3e be14 0ebe

a2c_network.actor_mlp.2.bias f4 [128]
0.033126246 -0.10983865 -0.026439337 -0.23122995 -0.02761492 0.01375242 -0.41170445 -0.21259311
-0.117502905 0.19238226 0.028528906 -0.11326334 -0.12418686 0.11330136 0.19078144 -0.28254896
0.18155923 0.032506432 0.040919274 0.08357553 -0.14987303 0.08333105 0.15634255 0.073197775
0.15147114 0.095354944 0.13236043 -0.16777569 0.15460014 -0.29863513 -0.25617632 -0.16902897
-0.024277173 -0.12592019 -0.26285493 -0.03573294 0.10926679 -0.14833683 0.1996684 0.09716761
-0.33289292 0.10570386 -0.21774483 -0.012712678 -0.20103462 0.101829365 0.011301663 0.017634489
-0.2912119 0.101265416 -0.13211472 0.12322621 0.069873504 -0.24369709 0.0067581725 0.13067213
0.0024400025 -0.024183968 -0.15852864 0.15530287 -0.10491561 -0.08612551 -0.24991937 -0.38421735
-0.18338722 -0.28398007 -0.00288905 -0.17897187 0.07923614 -0.010130672 -0.1063649 -0.043263175
-0.106467456 0.009356612 0.09866637 0.18684538 0.12374564 -0.16706824 -0.023747314 -0.032170728
0.06983889 0.17122577 0.11904348 0.050223723 -0.05893525 0.0020248857 0.1638859 0.19823967
0.10099412 0.1817233 -0.09978679 0.09024697 -0.30837095 0.22018127 -0.09298991 0.04124229
0.035652924 -0.060766492 0.15805493 -0.14268927 -0.05213921 -0.13865936 0.13714583 -0.27465484
0.12613842 -0.30985862 -0.10569691 -0.13081878 0.13494869 -0.23430143 -0.13437253 -0.14236857
0.11571682 -0.024148922 0.1098763 0.011373081 -0.23651637 -0.1739182 0.006008859 0.21636072
-0.16357385 -0.0655524 -0.26147935 -0.4857323 0.124718264 -0.14429285 -0.25488997 -0.50650513
00000000: 63af 073d 16f3 e0bd 4f97 d8bc 8bc7 6cbe
00000010: af38 e2bc d551 613c edca d2be 02b2 59be
00000020: 5da5 f0bd dbff 443e 74b5 e93c 9cf6 e7bd
00000030: ae55 febd 8b0a e83d 365c 433e 42aa 90be
00000040: aaea 393e 7725 053d f89a 273d a629 ab3d
00000050: 5178 19be 78a9 aa3d 4318 203e b7e8 953d
00000060: 401b 1b3e 7449 c33d 7e89 073e 64cd 2bbe
00000070: 804f 1e3e b4e6 98be 8b29 83be ee15 2dbe
00000080: ece0 c6bc 39f1 00be ec94 86be b45c 12bd
00000090: 44c7 df3d 9ce5 17be e075 4c3e d0ff c63d
000000a0: f170 aabe 447b d83d 80f8 5ebe d648 50bc
000000b0: 05dc 4dbe ea8b d03d 9c2a 393c 3476 903c
000000c0: ba19 95be 3e64 cf3d 1549 07be 065e fc3d
000000d0: d719 8f3d bb8b 79be a973 dd3b eace 053e
000000e0: 73e8 1f3b 751d c6bc 5555 22be b707 1f3e
000000f0: ffdd d6bd 9262 b0bd ddea 7fbe 23b8 c4be
00000100: dcc9 3bbe d665 91be 3756 3dbb 6744 37be
00000110: 8f46 a23d 1efb 25bc d7d5 d9bd ba34 31bd
00000120: 9c0b dabd 7a4c 193c 9811 ca3d 6554 3f3e
00000130: 5b6e fd3d f013 2bbe ba89 c2bc 74c5 03bd
00000140: b107 8f3d cf55 2f3e 11cd f33d 64b7 4d3d
00000150: 1766 71bd f2b3 043b b5d1 273e 57ff 4a3e
00000160: 01d6 ce3d ac15 3a3e 045d ccbd 67d3 b83d
00000170: cce2 9dbe 3377 613e 7e71 bebd aded 283d
00000180: cd08 123d 49e6 78bd 27d9 213e 231d 12be
00000190: ed8f 55bd b8fc 0dbe f56f 0c3e 8f9f 8cbe
000001a0: 6e2a 013e caa5 9ebe 9f77 d8bd 5cf5 05be
000001b0: fd2f 0a3e b7ec 6fbe f498 09be 11c9 11be
000001c0: f1fc ec3d f6d3 c5bc d306 e13d 2956 3a3c
000001d0: 5931 72be 9d17 32be f6e5 c43b aa8d 5d3e
000001e0: e77f 27be 5640 86bd 9fe0 85be e7b1 f8be
000001f0: 4a6c ff3d 81c1 13be f080 82be 52aa 01bf

a2c_network.critic_mlp.0.weight f4 [128, 376]
0.0059941215 -0.25966382 -0.22424364 -0.07399625 0.02815004 0.15039471 -0.068125054 0.062411275
-0.32606968 -0.26070783 -0.3578531 -0.07117572 0.2612966 0.2126228 0.25165397 0.63605314
0.17618477 0.33684582 -0.36640197 0.13527246 0.05077656 0.16726366 0.04957702 0.06081693
-0.043673452 0.24920239 -0.06495121 0.28743407 0.03961456 -0.0049196575 0.2706278 0.005690507
0.013661614 0.03486783 0.0504796 -0.023984764 0.048197486 0.1167294 0.25745964 0.47203207
0.29432756 -0.47184792 0.10809042 -0.031082813 0.020597955 0.21904151 -0.000804806 -0.31676173
-0.061151985 -0.092400335 -0.009120251 -0.021497684 -0.08074927 -0.0013944146 0.0029380766 0.03921179
-0.034516647 -0.10579155 -0.024983564 0.11587889 -0.09509965 -0.31835836 -0.34211853 0.03278979
-0.0897573 0.03798325 0.013036969 0.03638854 -0.065936975 -0.0060387948 0.01980843 0.038729314
0.073186785 -0.016880454 -0.06811385 -0.18819195 -0.20792459 -0.29262096 0.020493383 -0.11679669
-0.03800758 0.12081434 -0.015062423 -0.030719401 0.12071932 0.14456509 0.038909357 0.013876493
-0.017656317 -0.0032041618 -0.037823364 -0.056301996 -0.06214189 -0.0727828 -0.026495762 -0.052456416
0.00021972298 0.0047965646 0.018084893 0.09103748 0.04788492 0.0077336733 -0.02616308 -0.03479236
-0.0017242008 0.007260099 -0.0011100004 -0.02122795 0.04582317 0.04891106 0.087416515 -0.0039748326
-0.014376452 -0.058339447 0.015006421 -0.0015170177 -8.2819206e-05 0.0059359786 0.031354092 0.050269835
0.082796514 0.047411986 -0.006870059 0.022387236 -0.039835047 0.053707607 0.052814238 0.010878749
0.0067436676 0.021900464 0.098738045 0.06982737 0.0052181473 0.025136583 -0.0011684459 0.038332872
-0.00046433907 -0.011362468 -0.058888778 0.06624691 0.04399484 0.030329691 -0.044675276 0.019871058
0.0073320162 -0.00011944828 -0.048994537 -0.032001358 0.011663705 0.00085183117 0.020065421 -0.03272502
-0.09614937 -0.08432401 0.066164546 0.089720026 0.09372115 0.12794007 0.10167806 -0.07642881
-0.009106615 0.055049695 0.005938837 0.0791401 0.0041142255 0.005995259 0.00470838 0.038707655
0.06297018 -0.012272522 0.054061558 0.05484521 -0.017812032 0.045125492 -0.01477116 -0.021819059
0.031519115 0.00696694 0.030491414 -0.02637474 0.0022496243 0.014258518 -0.019409565 0.065645434
-0.021795385 -0.010233609 -0.033998016 -0.051528048 0.02403665 -0.0021207854 -0.0033057395 -0.011566384
-0.027148506 0.06177541 0.034904003 -0.028408363 -0.016501032 -0.039697293 0.009902013 -0.012928249
-0.021645065 0.013128628 -0.07383721 0.031279348 0.030474078 -0.013437853 0.054644473 -0.046634283
0.04611367 -0.0639575 -0.044216033 0.005725766 -0.056220192 -0.0028542492 0.025912415 -0.028713586
0.07586304 -0.02745792 0.046107866 -0.047269993 -0.030019347 0.07980834 -0.1095506 0.017792566
-0.27855325 0.11632093 0.16042182 -0.1813567 0.12708741 -0.060503278 0.00983054 0.055099938
0.08817327 -0.024785226 -0.006847451 0.0039587575 -0.020592744 -0.06436297 -0.028491413 0.107651256
0.0075687827 0.027329242 0.030086957 -0.04207827 0.041531958 0.004798188 -0.05964799 -0.15998457
-0.096778855 0.025071777 -0.005246986 0.004976378 -0.03445081 -0.093730755 0.0031360218 0.04669325
00000000: 566a c43b a8f2 84be 20a0 65be 598b 97bd
00000010: ea9a e63c 1201 1a3e 2685 8bbd f7a2 7f3d
00000020: 9bf2 a6be 7f7b 85be 8638 b7be 93c4 91bd
00000030: abc8 853e cbb9 593e cad8 803e 61d4 223f
00000040: c869 343e 0e77 ac3e 0a99 bbbe dd84 0a3e
00000050: 15fb 4f3d 2a47 2b3e 4611 4b3d 2c1b 793d
00000060: efe2 32bd e92e 7f3e 2405 85bd 8f2a 933e
00000070: e042 223d 1435 a1bb ba8f 8a3e 6f77 ba3b
00000080: f6d4 5f3c 92d1 0e3d b2c3 4e3d b27b c4bc
00000090: ba6a 453d d30f ef3d c0d1 833e 30ae f13e
000000a0: 1ab2 963e 0d96 f1be 835e dd3d 62a1 febc
000000b0: 0bbd a83c 6b4c 603e 9ef9 52ba 982e a2be
000000c0: 817a 7abd 633c bdbd 1b6d 15bc e91b b0bc
000000d0: e05f a5bd cac4 b6ba bf8c 403b 8b9c 203d
000000e0: 5461 0dbd 3da9 d8bd 55aa ccbc e951 ed3d
000000f0: 9bc3 c2bd deff a2be 292a afbe 964e 063d
00000100: add2 b7bd 5394 1b3d 0399 553c 260c 153d
00000110: f709 87bd 15e1 c5bb 4a45 a23c a1a2 1e3d
00000120: f4e2 953d e148 8abc 467f 8bbd 64b5 40be
00000130: 2fea 54be 6ad2 95be bde1 a73c 1a33 efbd
00000140: d6ad 1bbd 826d f73d 62c8 76bc 41a7 fbbc
00000150: b13b f73d df08 143e 6b5f 1f3d 3b5a 633c
00000160: fba3 90bc eafc 51bb acec 1abd ec9c 66bd
00000170: 7f88 7ebd 260f 95bd a40d d9bc 8adc 56bd
00000180: 7065 6639 802c 9d3b c526 943c dc71 ba3d
00000190: fa22 443d c16a fd3b f553 d6bc 6f82 0ebd
000001a0: 94fe e1ba 20e6 ed3b 6f7d 91ba 3de6 adbc
000001b0: 14b1 3b3d f756 483d 6e07 b33d 503f 82bb
000001c0: 368b 6bbc 58f5 6ebd 7edd 753c abd6 c6ba
000001d0: 39af adb8 9982 c23b 266d 003d bee7 4d3d
000001e0: 3891 a93d 1233 423d 3b1e e1bb 7065 b73c
000001f0: 132a 23bd 82fc 5b3d be53 583d c83c 323c
00000200: fcf9 dc3b 9a68 b33c 2c37 ca3d a701 8f3d
00000210: fefc aa3b 3ceb cd3c 8a26 99ba ee02 1d3d
00000220: 8972 f3b9 a529 3abc 5c35 71bd 76ac 873d
00000230: ef33 343d f975 f83c 6cfd 36bd a1c8 a23c
00000240: 6941 f03b 4f80 fab8 7fae 48bd db13 03bd
00000250: 2019 3f3c 6c4d 5f3a 3d60 a43c ac0a 06bd
00000260: f6e9 c4bd 11b2 acbd 4781 873d 22bf b73d
00000270: e0f0 bf3d b902 033e 963c d03d b586 9cbd
00000280: e933 15bc ca7b 613d 939a c23b 3414 a23d
00000290: a0d0 863b e173 c43b c148 9a3b eb8b 1e3d
000002a0: 82f6 803d b012 49bc a76f 5d3d 5fa5 603d
000002b0: 8aea 91bc 82d5 383d bc02 72bc e2bd b2bc
000002c0: 301a 013d ee4a e43b 21c9 f93c d70f d8bc
000002d0: 6f6e 133b 8f9c 693c cf00 9fbc 1d71 863d
000002e0: 3c8c b2bc deaa 27bc 8141 0bbd 130f 53bd
000002f0: 82e8 c43c e0fc 0abb 1ba5 58bb ee80 3dbc
00000300: 8b66 debc 3608 7d3d 80f7 0e3d a8b8 e8bc
00000310: 2c2d 87bc a199 22bd 0d3c 223c 02d1 53bc
00000320: fe50 b1bc 7519 573c f737 97bd c61e 003d
00000330: c6a4 f93c 712a 5cbc e2d2 5f3d 9703 3fbd
00000340: b0e1 3c3d 26fc 82bd df1b 35bd 359f bb3b
00000350: 2547 66bd 5b0e 3bbb 4646 d43c c138 ebbc
00000360: 155e 9b3d 6fef e0bc 9adb 3c3d 2e9e 41bd
00000370: 22eb f5bc 8e72 a33d 115c e0bd b7c1 913c
00000380: 889e 8ebe ab39 ee3d 9e45 243e 92b5 39be
00000390: 3423 023e 49d2 77bd 4610 213c 79b0 613d
000003a0: 3094 b43d 630a cbbc 9560 e0bb 77b8 813b
000003b0: 1db2 a8bc bcd0 83bd d366 e9bc 4378 dc3d
000003c0: 8d03 f83b 93e1 df3c ec78 f63c 445a 2cbd
000003d0: 6a1d 2a3d 1e3a 9d3b 7351 74bd ffd2 23be
000003e0: fe33 c6bd 5463 cd3c e9ee abbb e210 a33b
000003f0: 4b1c 0dbd e9f5 bfbd b785 4d3b 6c41 3f3d
