python/rlgpu/saved_nn/241001162237286415/last_Aliengoep=8750rew=[1410.62].pth (torch, 539546 bytes, 18 tensors)

running_mean f8 [376]
0	0xbf6f5415eec7f163	-0.003824274861697828
1	0x3f682ff634395a3b	0.0029525574371221087
2	0x3f9593ff642dde9e	0.021072378625346937
3	0x3f73f33ec203173f	0.00487064852513247
4	0x3fdd6100cd7cfbef	0.45904560153206736
5	0x3fdb9ae3031b4da9	0.4313285379732528
6	0x3fe65018eca46560	0.6972775098721904
7	0x3fe730582796dca9	0.7246514104107479
8	0x3fa47543abd09fd1	0.0399571559176476
9	0x3fbf8696b59c04eb	0.12314741071533646
10	0xbfd20ea91c896e2b	-0.28214481150436893
11	0x3fb46ae0a97a6160	0.07975582254073776
12	0xbfb82fdab632f15a	-0.09448019932000787
13	0xbfd18b0f3cbfcf6a	-0.2741125195745925
14	0x3faeb10d15d362d8	0.05994454280307132
15	0x3fba5a6685239258	0.10294190168821993
16	0xbfd2dafb184f073a	-0.2946155297650993
17	0x3fb1410baf1e1033	0.06739876771286006
18	0xbfb82d14f5066a1d	-0.09443789465004966
19	0xbfd2e1114e68a742	-0.2949870362959822
20	0xbf97544bc13fa75b	-0.022782500905953778
21	0xbf97df2c4be7f995	-0.023312275059646465
22	0x3fb8e26c83ff3998	0.09720495436270082
23	0xbf9a4703306981f8	-0.025661516027300352
24	0x3f86776b3e6f049f	0.010969961016487338
25	0x3fb64b2b68ac973b	0.08708449655077015
26	0xbf700c0ae23ddb02	-0.003917734636948779
27	0xbf780b0c0525b3fa	-0.005869910195866796
28	0x3fad818fa6bf7f66	0.05762909803865916
29	0xbf7b229bc491fe9f	-0.006624802082228292
30	0x3f7e976dc0ee8ec7	0.007468632435948037
31	0x3fa9c6d716c96e56	0.05034515526923815
32	0x3fdee4cd59835d65	0.4827149747993274
33	0x3fe08d9945956c3f	0.5172849997574146
34	0x3fe08d9945956c3f	0.5172849997574146
35	0x3fdee4cd59835d65	0.4827149747993274
36	0x3fa606ca43c49086	0.04302055432552358
37	0xbf8218e8806edac2	-0.008836571139778985
38	0x3f82223ea5701f1a	0.008854379104391397
39	0x3f85761f72710753	0.010479207687356917
40	0x3f9332dedb00f9fc	0.018748743168766055
41	0x3f537fb0d61643be	0.0011901118199128947
42	0x3f91ff2b6395519d	0.017574956849175306
43	0xbf4f34548db51577	-0.0009522831782439585
44	0x3f9a755f832f06c3	0.02583836782628769
45	0x3f54d57733b5982f	0.0012715972978525438
46	0x3f94319998439693	0.019720458906610516
47	0x3f4b5c8baac11331	0.0008350069015326864
48	0xbfc0bb6ba68d7eed	-0.13071962006051
49	0x3fc192e711e2f9d6	0.1372956120812449
50	0xbfcd79dcc4f4c03c	-0.2302814447116378
51	0x3fc14798b07a1a3c	0.1349974500373764
52	0x3fc92f7a5b3a6cbc	0.19676141218665133
53	0xbfb81b2fc8becd84	-0.0941648354626548
54	0xbfa833d4fdd4bb2f	-0.04727044676325531
55	0xbfcad54da2a8bc22	-0.20963449899997594
56	0xbfc7e04ae77c12fb	-0.18653236678087368
57	0x3fa9ada4e1c86b39	0.05015292411936518
58	0xbfca5870b610e7f7	-0.20582398309653602
59	0xbfc25d4d84d1f0dd	-0.14347237573009056
60	0xbfdf0fe2091b9f90	-0.48534441842502307
61	0x3fe649e6421c1076	0.6965209284976612
62	0x3fefad1ffce8633c	0.9898834170918245
63	0x3fac6178a7d4e567	0.05543114708639046
64	0x3fde25274b018750	0.47101766896058894
65	0x3fcb6eb3efd30dfa	0.21431588373353333
66	0x3fdc5a02411bf33c	0.44299370153730755
67	0xbfcb1685e05d725e	-0.21162484603236725
68	0x3fd082094da8d8cf	0.25793678840581163
69	0x3fb918202d11ff5b	0.09802437877988039
70	0x3fcaf336ef478525	0.2105473202091527
71	0xbfc40f23cf48d440	-0.15671203252137111
72	0x3fc9c522481cdd4b	0.2013285495865865
73	0xbfb8b980e0056aa2	-0.09658055753008424
74	0xbfce242b92931e52	-0.2354788270661055
75	0xbfdf0b4b85072cb3	-0.4850643920041861
76	0x3fe643dbb00a6a19	0.6957834661764678
77	0x3fefa789d03855e3	0.9892014567182595
78	0x3fac6273251bd93f	0.05543861225116808
79	0x3fde209a4fea6ae2	0.47073991588847097
80	0x3fcb6a5557200827	0.2141825366416594
81	0x3fdc54e4fcc74134	0.44268154797920833
82	0xbfcb11476b428878	-0.21146481263446382
83	0x3fd080412f170908	0.25782804106360446
84	0x3fb90db615e26d88	0.09786546739854007
85	0x3fcaf1faf22a4c29	0.21050965141748293
86	0xbfc40f895ab423fc	-0.1567241375817331
87	0x3fc9c057883f6f49	0.20118230965351305
88	0xbfb8b6819c63aa7f	-0.09653482502077713
89	0xbfce21f1d0d12ebb	-0.23541090675495532
90	0x3fc2cd0117b6e661	0.14688123376781717
91	0x3fc2ed6b244ec840	0.1478704383167173
92	0x3fc3010093f992e6	0.14846808648430637
93	0x3fc312dc2b6d9905	0.14901306267274364
94	0x3fc32bccad6ae446	0.14977415530828092
95	0x3fc32c090613e15b	0.14978134915123573
96	0x3fc3214ed4b8139b	0.14945397745773623
97	0x3fc32c5170fca644	0.1497899820035845
98	0x3fc3319b73abd653	0.14995139263162346
99	0x3fc312a3cf59b3b2	0.14900634407550012
100	0x3fc2f62d89aad263	0.14813775274309923
101	0x3fc319b94d9d750f	0.1492225293140241
102	0x3fc2fcdf3c02785f	0.14834204130324033
103	0x3fc319e4ffdf1c47	0.1492277383206064
104	0x3fc33b6601819585	0.1502501971582825
105	0x3fc1ffcdf51ec43c	0.1406190344692123
106	0x3fc1f8081250af87	0.14038182157798593
107	0x3fc1ec4705b05cd5	0.1400231149461663
108	0x3fc2e8ce91ec5d2d	0.14772970318947767
109	0x3fc2b8e9abc081c1	0.14626809011771338
110	0x3fc2cc861ef59168	0.146866574398824
111	0x3fc3b1ed3cb7863d	0.15386739220325465
112	0x3fc38a65cc715429	0.15266106112054104
113	0x3fc3aeedafe0e4d7	0.15377589309517845
114	0x3fc3dfc9307e26cb	0.1552669035702848
115	0x3fc26e765f398045	0.1439960446323331
116	0x3fc259e1744aa857	0.1433679406957846
117	0x3fc23df9b0e12c71	0.1425163377446981
118	0x3fc38be74672d948	0.15270701351046
119	0x3fc34cf132240292	0.15078558872484799
120	0x3fc32ec01ed2de3c	0.14986421113074921
121	0x3fc4418ed51a353a	0.15825066953076733
122	0x3fc41ca8d4ad28ea	0.15712461838331332
123	0x3fc4176d57314a1a	0.15696493871162503
124	0x3fc3a2a1ba20369f	0.15340062702346288
125	0x3fc316bdac5b653f	0.14913149753446395
126	0x3fc2d6f34a419241	0.1471847641543196
127	0x3fc2efc6e5145341	0.1479424112846122
128	0x3fc391b01be6c3c9	0.1528835426556994
129	0x3fc3f88e14c5fde1	0.1560227967674868
130	0x3fc3c626c3997e1c	0.1544846015049054
131	0x3fc4c279844254bf	0.16218489606823103
132	0x3fc49b07ff1686d6	0.16098117785900595
133	0x3fc4a6830b8a60ff	0.16133153975966505
134	0x3fc41e29d32f2d47	0.15717051326496742
135	0x3fc39e708b328803	0.15327269360301451
136	0x3fc36c730077329e	0.15174710772261774
137	0x3fc3a2434358e9c9	0.15338936603968836
138	0x3fc4738c6dd74c18	0.15977626193361583
139	0x3fc4eb53e3c5c985	0.16343163129529273
140	0x3fc46ce05e73a6d9	0.1595726453008897
141	0x3fc51e56ea717048	0.1649883885137362
142	0x3fc4f37831de01e2	0.1636800998203532
143	0x3fc523bff40ce863	0.16515349785351238
144	0x3fc4a8df468b7d6d	0.16140356964659067
145	0x3fc40e4c64db0b38	0.15668635296432298
146	0x3fc424ecf5f89447	0.15737688074401232
147	0x3fc44b4dbe446478	0.15854808607472015
148	0x3fc56d0c75bc76db	0.16739040135228475
149	0x3fc5e7a184ec8c4a	0.1711313151400609
150	0x3fc5011edc24cd47	0.16409669636923693
151	0x3fc5218de81fddf1	0.16508649667933598
152	0x3fc544716131b170	0.16615121122175536
153	0x3fc5053eb3e77a0f	0.1642225626410014
154	0x3fc4e62c95e6ace3	0.16327435798061804
155	0x3fc4b8bf60e7d060	0.16188804847445493
156	0x3fc50709608a9d34	0.16427724088610207
157	0x3fc54b4ee5fd15be	0.16636072378075356
158	0x3fc6843261b582c5	0.17590932627628866
159	0x3fc712008b27b3cd	0.18023688120538708
160	0x3fc5c4a877ac9d4f	0.17006402820082164
161	0x3fc3764d99a687c7	0.15204782488313937
162	0x3fc3beb07cb25d82	0.1542568787451551
163	0x3fc40b187fadd088	0.15658861383747458
164	0x3fc447f42e28c631	0.15844585660811242
165	0x3fc45bb94f9a1ac0	0.15904919039549803
166	0x3fc41e6565a36327	0.15717761481098444
167	0x3fc3c36ae0a41581	0.1544011685256628
168	0x3fc39bc5a4043f7d	0.1531912852155947
169	0x3fc380ffce2167a8	0.1523742443558238
170	0x3fc3682c1b785038	0.1516165861254437
171	0x3fc37f401ab59063	0.15232087425386273
172	0x3fc41e7e68e59134	0.15718059656058758
173	0x3fc4620ec780d2b5	0.1592424844872277
174	0x3fc469f887482d56	0.15948397260249675
175	0x3fc48099ce9c5d99	0.16017458523195385
176	0x3fc34a6363de6112	0.15070764900588834
177	0x3fc2c9dd847cadb7	0.14678544015019465
178	0x3fc2787ec0a3d10d	0.14430221945043123
179	0x3fc35d684493ff0e	0.15128806446590953
180	0x3fc3384d881295cb	0.15015572685403664
181	0x3fc36cd7fdf31294	0.15175914668920554
182	0x3fc4ebd5f0652e6e	0.1634471343808061
183	0x3fc50ef4d7497b86	0.16451893341124108
184	0x3fc536c6c7731eb0	0.16573414553407906
185	0x3fc541ef282666d7	0.16607465229463145
186	0x3fc3a06f86f92f83	0.1533336075830186
187	0x3fc31cc5dddfedc6	0.14931557973601012
188	0x3fc2d2b2cec828b5	0.14705500695010235
189	0x3fc3dabfb547354e	0.1551131854197742
190	0x3fc3ab2f07a31b35	0.1536616122523015
191	0x3fc40225690928ee	0.15631549481106027
192	0x3fc5a7b4416f6c9f	0.16918042368965744
193	0x3fc5cb309a2f5438	0.1702633622032026
194	0x3fc5d52301517016	0.17056691707955512
195	0x3fc55e7d1ee6a9b1	0.16694606789435576
196	0x3fc431bcd87bc2e6	0.15776787348251914
197	0x3fc3a5d314d1469b	0.15349806324461643
198	0x3fc37bec47c984b9	0.1522193289302203
199	0x3fc3ae6b34e924f0	0.15376033862620586
200	0x3fc3ea9009df1aa1	0.15559578401572075
201	0x3fc4ab6834165720	0.16148092788051205
202	0x3fc63015915d169d	0.17334241483529392
203	0x3fc659f57656ccb9	0.17462032583498457
204	0x3fc6a04ff905f351	0.17676734599435887
205	0x3fc61541507faf18	0.17252365522960456
206	0x3fc4c86aa4bcf941	0.16236622852188456
207	0x3fc43a715130ea5b	0.1580335279885102
208	0x3fc424c7312c3f38	0.1573723783590084
209	0x3fc419f4905b79cc	0.15704209374139422
210	0x3fc456ca27afa43f	0.15889861047551965
211	0x3fc52f1b129937cc	0.16550005348329788
212	0x3fc680b49fbbf30b	0.17580278205414177
213	0x3fc69cfc28aee20f	0.1766658018730287
214	0x3fc774a7e4d99605	0.18324755358041514
215	0x3fc6fbb4ad053192	0.179556450350344
216	0x3fc547545dbb1521	0.16623930527399813
217	0x3fc4d5065ca60709	0.16275100253920297
218	0x3fc4ada864f52991	0.161549615188346
219	0x3fc4a0d0b805baf0	0.16115769372432664
220	0x3fc4c179aed04978	0.16215439830609646
221	0x3fc585528ccb5ef1	0.16813117861487784
222	0x3fc660f5659c7cd7	0.17483394109237935
223	0x3fc6a9ce4f0a0a44	0.177057064622277
224	0x3fc8355c2378837b	0.18912841541262168
225	0x3fc7f5f6d617d390	0.18719373182070997
226	0x3fc5ebbd8fe8f9fe	0.17125672842844603
227	0x3fc595d76d896a12	0.16863530014491396
228	0x3fc564357c31d974	0.1671206337375214
229	0x3fc504571dddc38f	0.16419495542825444
230	0x3fc50ac720f120a6	0.16439141376964023
231	0x3fc5c505faa115f5	0.1700751756454079
232	0x3fc08d969c070e55	0.1293209325650532
233	0x3fc0f757268239a4	0.13254823093707302
234	0x3fc10614bb1b0e75	0.13299807678241718
235	0x3fc110f74afa47f7	0.133330260858713
236	0x3fc12ff3e198d606	0.1342758990810326
237	0x3fc15f1cc0e0d6c0	0.1357150975979291
238	0x3fc16b3555462d7a	0.136084238660583
239	0x3fc18c9e2b3e8d19	0.13710381614246428
240	0x3fc199175a5404f6	0.13748447332913089
241	0x3fc17c652cb50d6d	0.13660874064417375
242	0x3fc13946bb854934	0.1345604339245
243	0x3fc11ac8420b11c2	0.13362982964294018
244	0x3fc1137307ab7633	0.1334060466241894
245	0x3fc169d31cda0bb9	0.13604201229835924
246	0x3fc1ad84530c7167	0.1381078153143662
247	0x3fc148593edf54b2	0.13502040452900627
248	0x3fc14713d8475002	0.13498161373593126
249	0x3fc114d39cb774c5	0.1334480776994608
250	0x3fc156867fce8750	0.13545304527820656
251	0x3fc11ce79616118a	0.13369459942272172
252	0x3fc108f3b8243de4	0.13308569422996108
253	0x3fc1c5ebacef85a0	0.13885255760309878
254	0x3fc1cfc235c930c7	0.13915279032005953
255	0x3fc22bb21bb0357b	0.14195848800629193

running_var f8 [376]
0	0x3f8dc77495055649	0.014540587232356421
1	0x3ff4f28f002cb772	1.309218407327958
2	0x3fb3e5dc961ccae4	0.0777261606679463
3	0x4005b51e4da08968	2.7134367050759245
4	0x3fcfc90f0a856d4e	0.24832332624178338
5	0x3fcf657e598fdc93	0.24528483746664573
6	0x3fcb04bce949fdeb	0.2110820902926059
7	0x3fc98a4588d43112	0.1995322149381385
8	0x3f75b5aaa97215a7	0.005300203941378901
9	0x3f61e9925c5a7b53	0.002186570988512862
10	0x3f625173b76137e4	0.002236104973269969
11	0x3f70afd9fc1aaa21	0.004073955061964203
12	0x3f6110de529dabce	0.002083238815364186
13	0x3f618062cbd5e0de	0.0021364144910728097
14	0x3f6eda6550c37079	0.003766248590279683
15	0x3f634d145fb447f3	0.0023560903479244943
16	0x3f59e47b6ee2fe97	0.0015803532983652885
17	0x3f6f5abe079ba6f9	0.003827448989672241
18	0x3f62813cad1d0676	0.002258890636682771
19	0x3f5ad8a00c0487fb	0.0016385615309180135
20	0x3ffdc2139cfff264	1.859881985931815
21	0x3fdf34b079960a7e	0.4875909030307993
22	0x3fe1e408e91bc283	0.5590862801455646
23	0x3ff462530c776631	1.2740049826592321
24	0x3fe02c6a020934b1	0.505421642281041
25	0x3fe5e03b5b816dde	0.6836220538347637
26	0x3fe9aa8216b826ce	0.8020639842736388
27	0x3fdde376c92bd2bf	0.46700830121634945
28	0x3fd07f4f508502ae	0.25777037490119425
29	0x3fe8d43fd1594524	0.7759093369333283
30	0x3fd968978b57de2f	0.3970087872289438
31	0x3fcd419a7e8f6052	0.2285645597428379
32	0x3fcff63a91dc849f	0.2497018062795506
33	0x3fcff63a9488e9ab	0.24970180752445734
34	0x3fcff63a9488e9ab	0.24970180752445734
35	0x3fcff63a91dc849f	0.2497018062795506
36	0x3f8bd7dc67cbd874	0.0135953158546551
37	0x3f82b741b9ad5663	0.009138596991458308
38	0x3f899bb408255dcd	0.012504011629672096
39	0x3f8389bcebf3e91b	0.009540058088977113
40	0x3f83028a8f7c018e	0.009282190803333614
41	0x3f7f1e9e79eb4137	0.007597559974513771
42	0x3f82c7e462a8a2e4	0.009170326481652898
43	0x3f7f78f021fed679	0.007683694857339434
44	0x3f9ae3db7086552f	0.02625983118340008
45	0x3f91f737042db4ca	0.01754461253169807
46	0x3f982ffc31e95adb	0.02362054876933937
47	0x3f913f758af8da3d	0.016843639952833767
48	0x401343faf01f63b1	4.8163869399221975
49	0x4019e81f2e961948	6.476681449805547
50	0x400a8cc55cc20b11	3.31873581378148
51	0x40160eea01a02752	5.514564538383484
52	0x4016bc1ac227e443	5.683695825276177
53	0x4006207c6b5e0e09	2.7658623111799483
54	0x401274c304338bfb	4.61402517857186
55	0x4011d0cd11071407	4.453907266671201
56	0x40002044e6b127c4	2.0157564184964674
57	0x4011b1c0f8bfd937	4.423587691030028
58	0x40106b2840c64a4a	4.10464574060695
59	0x3fff1da5cf386cd3	1.944738206343392
60	0x3fbf824a70d4ca33	0.1230818295924017
61	0x3fc345cc664b0da3	0.15056757921966576
62	0x3f79670070335a32	0.006201745712323391
63	0x3fde93767d98fcde	0.47775041833297205
64	0x3fd7d690555c8cfc	0.372470935212007
65	0x3fdef8357a78595b	0.48389946899387376
66	0x3fd710ebd14ff0ba	0.3604077858033282
67	0x3fd887f96e330f15	0.38329921495118074
68	0x3fe0574cb6ec62e9	0.5106566975328778
69	0x3fdf3df81b99b2f6	0.48815729804373065
70	0x3fde7b82acfc3fc5	0.4762884797391929
71	0x3fd4cebc6cad8b3a	0.325118166094558
72	0x3fe19533bd1fa668	0.5494631475277858
73	0x3fda378633132fdb	0.4096389292506026
74	0x3fd30f0ee81ddf96	0.29779408137937347
75	0x3fbf843aa2a90b66	0.12311140509795634
76	0x3fc35de345eab1a4	0.15130272783188758
77	0x3f7c268dd2a83888	0.006872705455419965
78	0x3fde8d0ff3ed3914	0.47735976048433426
79	0x3fd7d3c2da756dfc	0.37229987462862346
80	0x3fdef2a5062145eb	0.4835598525870341
81	0x3fd70e483b4c72fa	0.3602467135513475
82	0x3fd883370e48a9dc	0.38300873179346495
83	0x3fe05499e76f469d	0.5103272934158728
84	0x3fdf37f84bbfe426	0.4877911319486564
85	0x3fde757007544c9c	0.4759178229880463
86	0x3fd4c9a4b0736bc5	0.32480733138589485
87	0x3fe192657623e51c	0.5491206462312763
88	0x3fda31f662df2d13	0.4092994657082311
89	0x3fd30af48fed1b5a	0.2975436597375186
90	0x3fb55a4b92a1cd85	0.08340904550441593
91	0x3fb592132f11574c	0.08426017665018753
92	0x3fb5aae1c59b34e3	0.08463870119449583
93	0x3fb5c822da788cae	0.08508508523714184
94	0x3fb5eaea3b1ef57f	0.08561576789266744
95	0x3fb5ed1df3313b6e	0.08564936816513377
96	0x3fb5eb995a060ad3	0.08562620590059149
97	0x3fb5ec91bfdd0e07	0.08564101156394353
98	0x3fb5efc0c2a74eae	0.08568958999904439
99	0x3fb5c47e27688056	0.08502949201693019
100	0x3fb59aa5fff3bf74	0.08439099787551446
101	0x3fb602ea56b4b683	0.08598198525279525
102	0x3fb5e6a6334e5277	0.0855506778010041
103	0x3fb6005a31d2704f	0.08594287601812421
104	0x3fb6313600ca5aa4	0.08668839949892032
105	0x3fb47f5cb20e833b	0.08006839129531056
106	0x3fb468c5fd87130e	0.07972371520652308
107	0x3fb472ffbe19512d	0.07987974539839078
108	0x3fb5d3666b973bd7	0.08525695921637975
109	0x3fb58e28495796d8	0.08420039930896495
110	0x3fb5ab33585192ae	0.08464356332985787
111	0x3fb6f70f31dbf21c	0.08970732657685015
112	0x3fb6d4172039f8f2	0.08917374169138606
113	0x3fb6f334aac684d0	0.08964852494547704
114	0x3fb740b18ddc6b13	0.09083089555171524
115	0x3fb544960d8d4daf	0.08307779150827942
116	0x3fb5189c4536b977	0.08240677537717099
117	0x3fb515d67ddf5213	0.0823644692712338
118	0x3fb6e92bfce2cd35	0.08949541973088489
119	0x3fb6891b6cf2a9a1	0.08802958879338131
120	0x3fb661ff582a45a6	0.08743282225102308
121	0x3fb7de1caa201fba	0.09323290971235468
122	0x3fb7bee525dc99d6	0.09275657820089775
123	0x3fb7b509dbac68a5	0.0926061784088313
124	0x3fb7155ec0f76a46	0.09016983233542772
125	0x3fb6589b5a9119f5	0.08728953324416706
126	0x3fb5f2617874684d	0.08572968664921739
127	0x3fb63bc49714a06e	0.08684948624125052
128	0x3fb7218c54ebce96	0.09035565446157032
129	0x3fb7a8e915b61599	0.09242111949978095
130	0x3fb75a4e2db8315d	0.09122170082281884
131	0x3fb8b11cb93fab71	0.09645251772569254
132	0x3fb888eaad124076	0.09583918309567871
133	0x3fb89a25f728113b	0.09610211643309167
134	0x3fb7dea03d536ae1	0.0932407521935761
135	0x3fb7373d639da3a8	0.09068664247537461
136	0x3fb6eae93e580aea	0.08952195903843188
137	0x3fb759c15c41260f	0.09121330740267573
138	0x3fb87d9d827b5dbc	0.09566673694222677
139	0x3fb91c1254059a52	0.09808458854022575
140	0x3fb861d0b07dcfe4	0.09524254139779448
141	0x3fb94f52c40ba316	0.09886662756219908
142	0x3fb91afe3e2a5b1a	0.09806813256942029
143	0x3fb963384476ef5b	0.09917022391794943
144	0x3fb8ba7d16deb088	0.09659559067103107
145	0x3fb7ec168ef71716	0.09344616880761367
146	0x3fb80fcd4ea52d5b	0.09399111909913442
147	0x3fb860731d92587a	0.0952217051693384
148	0x3fb9f0b3b4bbc20a	0.10132907068669553
149	0x3fba92359e44238d	0.10379347909851173
150	0x3fb949745bb7b7e7	0.0987770770950359
151	0x3fb9993976f4ad3e	0.09999426988786284
152	0x3fb9afee06df60bb	0.10034072559153888
153	0x3fb97b3c6114f7bc	0.09953667993701648
154	0x3fb9536966639a49	0.09892901181920268
155	0x3fb8fac117aafa4c	0.09757620647267479
156	0x3fb9931cbbfc695c	0.09990100469113855
157	0x3fb9e396574a0877	0.10112895613750249
158	0x3fbb96e8fdbb6d95	0.10777145571358056
159	0x3fbc56c96ff18ddf	0.11069926245686855
160	0x3fba7a5be3e42e3e	0.10342954934838475
161	0x3fb527053f1e1d0e	0.08262665549237999
162	0x3fb5994446f43eae	0.08436991436269167
163	0x3fb6039ed43f3560	0.08599274331864626
164	0x3fb65b57ccff048b	0.08733128313817155
165	0x3fb673d64b985f99	0.08770503373705053
166	0x3fb61b143ce0fcff	0.08635069357204726
167	0x3fb5a229964bbb96	0.08450565261203588
168	0x3fb55f80bcf0bffb	0.08348850834659054
169	0x3fb53ae9cb7ab795	0.0829301950240889
170	0x3fb519c759b3370f	0.08242460193579525
171	0x3fb539303fdc26c2	0.0829038768680688
172	0x3fb65752bec5a0f3	0.08726994664687364
173	0x3fb6cfb4de4c3aed	0.0891068499297309
174	0x3fb6d641b02aa4ff	0.08920679617826364
175	0x3fb6f12055863031	0.08961679542534352
176	0x3fb53d8e1141318d	0.08297050400978474
177	0x3fb4623690046b7b	0.07962361351057538
178	0x3fb3fb42b80d15a8	0.07805268281398148
179	0x3fb53987c1a3040d	0.08290909268818343
180	0x3fb505c1287603d6	0.0821190570623139
181	0x3fb56485abef6386	0.083565096355768
182	0x3fb792bb5744a9cb	0.09208269959041286
183	0x3fb7e989726a4f00	0.09340724032727721
184	0x3fb815bdca872ce0	0.09408174700290628
185	0x3fb82241487d8766	0.09427269000800961
186	0x3fb5df3cb09ffe98	0.08543757736333146
187	0x3fb4f3fc9b9db208	0.08184794234484383
188	0x3fb4a23dfa17e29f	0.08060061794084071
189	0x3fb610380f9fbdd2	0.08618498212285111
190	0x3fb5c83bc741c593	0.08508657087965892
191	0x3fb65d0740e87af9	0.08735699972792678
192	0x3fb8b05e3d837869	0.09644116403384974
193	0x3fb909c85828e88a	0.09780552055682015
194	0x3fb91569ae9dd7aa	0.09798298371410277
195	0x3fb871302e32d7ba	0.09547711494346248
196	0x3fb6caa5f1a97d57	0.08902966642334796
197	0x3fb5d52cac4b2cb3	0.08528403478992423
198	0x3fb5b59924c2de85	0.08480221889009883
199	0x3fb5faf5c70405e9	0.08586059674055203
200	0x3fb6504ea1615b39	0.08716288986157118
201	0x3fb7669e8b22faaf	0.0914095964135224
202	0x3fb985250aac81d2	0.09968787680236993
203	0x3fb9e2a6855d3436	0.10111466175040182
204	0x3fba414ca6dbe770	0.10255889009195385
205	0x3fb982cdd4817fb7	0.09965216100817896
206	0x3fb7b626b41b46a6	0.09262315652019967
207	0x3fb6c487663726f6	0.08893629308218096
208	0x3fb6c1b3cc1d31fc	0.08889316304448153
209	0x3fb6aed5427807eb	0.08860524056220213
210	0x3fb70293385156e8	0.08988304257340085
211	0x3fb834843eb0ea23	0.09455133944076315
212	0x3fba12679aa86096	0.10184333349059424
213	0x3fba4f9da6a00567	0.10277734106059243
214	0x3fbb736e1bc00d94	0.1072300737142114
215	0x3fbacf30bccc3c78	0.10472397431679947
216	0x3fb87a6817cf0ef0	0.09561777669210492
217	0x3fb7b9404122b481	0.09267045583938406
218	0x3fb79959be4f182c	0.09218369384970576
219	0x3fb786bf9f144977	0.09189984926005033
220	0x3fb7b0b04e0b0482	0.09253980546329113
221	0x3fb8bf2930bcc66f	0.09666688384893417
222	0x3fba25d32e34ee61	0.10213966253371033
223	0x3fba7ec66f5d9295	0.10349693507084574
224	0x3fbca1996d9d4ccd	0.11184081007131681
225	0x3fbc4693a9548908	0.11045191654242015
226	0x3fb97ab7b58410ec	0.09952877217807882
227	0x3fb90e44c168358b	0.09787397119381162
228	0x3fb8b8e090d47d95	0.09657100234880141
229	0x3fb857fd865b1aaf	0.09509262590573074
230	0x3fb854e379b07dcc	0.09504529686863988
231	0x3fb93a7fcc1bef5a	0.09854887707836948
232	0x3fb4e4d049cf623b	0.08161641885761466
233	0x3fb59276d72fed0b	0.08426611665338528
234	0x3fb5a03b06b12b4a	0.08447617448215997
235	0x3fb5b1510438459a	0.08473688462279086
236	0x3fb5dd03f38c0060	0.08540367790192382
237	0x3fb62262eabbe5c6	0.08646219473657543
238	0x3fb64654f012771e	0.0870106779206847
239	0x3fb665d3db789bc5	0.08749126537496384
240	0x3fb67d9c028877c1	0.08785414754717548
241	0x3fb6553280206eb4	0.08723750713437078
242	0x3fb5ebb71254e27e	0.0856279773478352
243	0x3fb601738b313df0	0.08595964573145642
244	0x3fb5fc1f2ee9a323	0.08587832351043949
245	0x3fb6601f17a0eb78	0.08740419699544855
246	0x3fb6c01519bfa7d1	0.08886844519261607
247	0x3fb64b7eff50f8d7	0.08708947881038696
248	0x3fb6446b521a27be	0.0869814944691418
249	0x3fb62b9f39caf6fb	0.08660311852414886
250	0x3fb67d7732e07d05	0.08785195343124393
251	0x3fb62a21f98d5361	0.08658039419726783
252	0x3fb6117dba5b598b	0.08620439338424128
253	0x3fb71f56b81042d7	0.090321941316016
254	0x3fb73aba5423b07e	0.09073986581978663
255	0x3fb79a650bb7af78	0.09219962631294532

count f8 []
0	0x421a13b860040000	28000000001.0

running_mean f8 [1]
0	0x40722228d9f7f931	290.1349734960996

running_var f8 [1]
0	0x40c0807b30fdad48	8448.96243258439

count f8 []
0	0x41fa13b860100000	7000000001.0

a2c_network.sigma f4 [15]
0	0xc0207b62	-2.5075307
1	0xc0146aff	-2.3190305
2	0xbfd9ff2d	-1.7030998
3	0xbfa8856b	-1.3165716
4	0xbfd5434d	-1.6661164
5	0xbfd62280	-1.6729279
6	0xbfc96477	-1.5733784
7	0xbfee1260	-1.8599358
8	0xbfe384bc	-1.7774882
9	0xbfc34ee6	-1.5258453
10	0xbfcf72fe	-1.6206968
11	0xbfff5a01	-1.9949342
12	0xbfc83d48	-1.5643702
13	0xbfeb70d4	-1.8393807
14	0xc0035fbc	-2.0527182

a2c_network.actor_mlp.0.weight f4 [128, 376]
0	0x3cfbb04e	0.030723717
1	0xbce3744e	-0.02776542
2	0x3e6251ae	0.22101471
3	0xbe5aa126	-0.21350536
4	0x3ddb0a4c	0.10695323
5	0xbdb46ef6	-0.088102266
6	0xbe83aee4	-0.25719368
7	0x3dd9f53a	0.106424764
8	0xbe8d2c27	-0.27572748
9	0xbe3bf6de	-0.18355891
10	0x3eb556a9	0.3541768
11	0xbeddb0b2	-0.4329887
12	0x3e3879cd	0.18015213
13	0x3ea5b2d3	0.32362995
14	0xbe2ce385	-0.16883667
15	0x3ea2f686	0.31828707
16	0x3e454b59	0.19267024
17	0x3f1bc9f6	0.6085504
18	0xbf31afa6	-0.69408643
19	0xbef6d132	-0.48206478
20	0x3be42751	0.0069626947
21	0x3e75b046	0.23993024
22	0xbec51e0d	-0.3849949
23	0xbd29c164	-0.041444197
24	0xbd22b041	-0.03971887
25	0x3f1c7f75	0.61131984
26	0xbe7fa569	-0.24965443
27	0x3ce6dbc6	0.028180968
28	0x3ee8bd3b	0.4545687
29	0x3e31f1a3	0.17377333
30	0x3e3c81d1	0.18408896
31	0x3cc0ed15	0.02355055
32	0x3e18f8c1	0.14938642
33	0xbe0e88a4	-0.13919312
34	0xbe4a39ca	-0.19748607
35	0x3e23f1b2	0.16010168
36	0x3f5d2111	0.8637858
37	0xbe9f184e	-0.3107323
38	0xbf0ef5f5	-0.5584405
39	0xbf21b9a3	-0.63173884
40	0xbce1230b	-0.02748253
41	0x3f0a1cbf	0.53950113
42	0x402092be	2.5089564
43	0x402a3404	2.6594248
44	0xbf21da1d	-0.6322344
45	0x3dc1bbb7	0.09459632
46	0xbd22b53f	-0.03972363
47	0x3f11320b	0.56716985
48	0x3db768e1	0.08955551
49	0xbca107e0	-0.019657075
50	0x3deab4c5	0.1146026
51	0xbea3f48c	-0.32022512
52	0xbe84963f	-0.2589588
53	0x3d84d5d8	0.064861
54	0xbe26f798	-0.16305387
55	0x3c853740	0.016261697
56	0xbdda7764	-0.10667303
57	0x3c802b2e	0.01564559
58	0xbe16e12c	-0.14734334
59	0xbe06df33	-0.13171081
60	0x3f0a6e78	0.5407481
61	0xbf17205d	-0.5903376
62	0xbe3d5421	-0.18489124
63	0xbe077681	-0.132288
64	0xbe13a09e	-0.1441674
65	0x3ed33778	0.41253257
66	0xbd8f01ee	-0.0698279
67	0xbe50cc65	-0.2039047
68	0xbd9cfe88	-0.076657355
69	0x3e8832b7	0.26601192
70	0x3dea3467	0.11435776
71	0x3d0d7e36	0.034544192
72	0xbe2c824f	-0.16846584
73	0x3de4a0d6	0.111634895
74	0x3eb6cb40	0.35701942
75	0xbd0c5ffa	-0.034271218
76	0xbe2f60ee	-0.1712682
77	0xbeb4164c	-0.3517326
78	0xbe8667e7	-0.26251146
79	0x3d49cac7	0.04926565
80	0x3e3037a6	0.17208728
81	0xbc095925	-0.00838307
82	0xbde508d4	-0.111833245
83	0xbe5c548e	-0.2151663
84	0xbe421bdc	-0.1895594
85	0x3e1c3753	0.1525548
86	0xbe889e71	-0.2668338
87	0xbdf49bce	-0.1194378
88	0xbee52ac8	-0.44759202
89	0x3d9fbf7f	0.07800197
90	0xbdafb280	-0.08578968
91	0xbc9d9dd8	-0.019240305
92	0xbdd7b7af	-0.10533082
93	0x3d26294a	0.04056672
94	0x3d506067	0.050873186
95	0xbdd862e8	-0.1056574
96	0xbd547e73	-0.051878404
97	0xbe8bcc9b	-0.2730454
98	0x3c113216	0.008862039
99	0xbe461d8a	-0.19347206
100	0xbd3f74e0	-0.04674232
101	0x3c82dcfa	0.01597451
102	0xbe994b64	-0.2994033
103	0xbc2eea39	-0.01067596
104	0xbe4e8f8d	-0.20171948
105	0x3e097d3e	0.13426682
106	0xbd19eb53	-0.03757794
107	0x3db91140	0.09036493
108	0xbd5c14ae	-0.05373066
109	0x3e1eb7d9	0.1549982
110	0x3d9dbb66	0.07701759
111	0xbc55056a	-0.013001779
112	0xbddd9c83	-0.10820868
113	0x3d986ac7	0.07442241
114	0x3db19d57	0.08672588
115	0x3e8e24ad	0.27762356
116	0x3d19e741	0.037574057
117	0xbdd84a82	-0.10561086
118	0x3d316ee6	0.04331865
119	0xbd3b0778	-0.04566142
120	0xbd4d4d21	-0.050122384
121	0xbdc5827d	-0.09644029
122	0xbd6d7e45	-0.057981748
123	0x3dc4d853	0.09611573
124	0x3e01ef48	0.12688935
125	0x3d82125a	0.063511565
126	0x3e0f936d	0.14021082
127	0x3d95cc3b	0.073143445
128	0x3da0a75e	0.07844423
129	0x3cee0d13	0.029058969
130	0x3e61e1d7	0.22058807
131	0xbda9945a	-0.08280249
132	0xbdb69c0d	-0.08916483
133	0xbda1961b	-0.078899585
134	0x3ca33938	0.019924745
135	0x3db29d3f	0.087213986
136	0x3b52b2f6	0.0032150126
137	0x3e0edadd	0.13950677
138	0x3e69716b	0.22797172
139	0xbddb835e	-0.10718416
140	0x3cd2ea9a	0.025746632
141	0x3db73aa5	0.089467324
142	0xbd55170f	-0.052023944
143	0x3dc59082	0.09646703
144	0x3e8b4219	0.27198866
145	0xbd19066c	-0.03735964
146	0x3d68f131	0.056870643
147	0x3d5d353f	0.054005858
148	0xbdfa6342	-0.12225963
149	0x3bfc6c6f	0.007703356
150	0xbda42cfd	-0.08016393
151	0x3953daf4	0.00020204094
152	0x3c79f81d	0.015256909
153	0xbe02b1a0	-0.12763071
154	0x3db18b5e	0.0866916
155	0x3da17738	0.07884067
156	0xbe026f70	-0.12737823
157	0x3e51c121	0.20483829
158	0xbd6a24c0	-0.057163954
159	0x3df26000	0.11834717
160	0xbe1c3252	-0.1525357
161	0x3c9b34d2	0.018946085
162	0x3e100ea1	0.1406808
163	0x3e0e4267	0.13892518
164	0x3e47e484	0.19520766
165	0x3e13fbc8	0.14451516
166	0x3ca7325e	0.02040976
167	0x3db56ab6	0.08858244
168	0xbe4e9f28	-0.20177901
169	0x3d6d3d88	0.05792001
170	0x3dad0efa	0.08450122
171	0x3e0fc7da	0.14041081
172	0xba83f91a	-0.0010068745
173	0x3df69666	0.12040405
174	0xbdbfcb58	-0.093649566
175	0xbcabde38	-0.020979986
176	0x3e1d1384	0.15339476
177	0xbe579480	-0.21052742
178	0xbe6e8631	-0.23293377
179	0x3dda0bd6	0.10646789
180	0x3cf5b86d	0.029995168
181	0xbc93f1d7	-0.018059654
182	0xbddabbe1	-0.10680366
183	0x3e1eb14f	0.15497325
184	0x3b8f78e6	0.004378426
185	0x3c047340	0.008084118
186	0xbd7e45b0	-0.062078178
187	0xbc5cf565	-0.013486241
188	0xbd90f84a	-0.070786074
189	0x3cb248a2	0.02176315
190	0x3de21a1c	0.11040136
191	0x3de1abdb	0.11019107
192	0xbc797ee6	-0.015228009
193	0x3dc808a2	0.097672716
194	0x3deb5a52	0.114918366
195	0x3da6cefb	0.08144947
196	0x3e2ac760	0.16677618
197	0x3cd9a269	0.026566701
198	0xbe273075	-0.16327079
199	0xbe1114f1	-0.14168145
200	0xbb0eb944	-0.0021777907
201	0xbd403d68	-0.04693356
202	0xbccf0718	-0.025271937
203	0xbd998902	-0.07496835
204	0xbe300c42	-0.17192176
205	0x3e293017	0.16522251
206	0xbd696c68	-0.05698815
207	0x3c93a2c0	0.018021941
208	0x3d6a5e30	0.05721873
209	0xbd8b2aa7	-0.06795245
210	0xbe095bf8	-0.1341399
211	0x3dbb6477	0.091500215
212	0xbda94499	-0.08265037
213	0x3dfd7005	0.12374882
214	0xbe02d0df	-0.1277499
215	0x3d92158f	0.07133018
216	0xbd531ce2	-0.051541217
217	0x3d45433b	0.04815982
218	0x3ce0e124	0.027451105
219	0xbe3ee3ea	-0.1864163
220	0x3d1b6cfc	0.037945732
221	0x3e32175c	0.17391723
222	0x3e4bb2bc	0.198924
223	0x3e0d39d1	0.13791586
224	0x3da6f19d	0.08151553
225	0x3ce4587a	0.02787422
226	0xbdb153fe	-0.08658598
227	0x3d98ad3a	0.07454915
228	0xbb385d9d	-0.002813197
229	0x3e293252	0.16523102
230	0x3d490fdb	0.049087387
231	0x3e13b2cb	0.14423673
232	0xbdf49a04	-0.11943439
233	0x3c8a4236	0.016877275
234	0x3de99f02	0.114072815
235	0xbeaa4974	-0.33259165
236	0xbe6ff5d0	-0.23433614
237	0x3c9f3d90	0.019438535
238	0x3e010e04	0.12603003
239	0x3e0333c8	0.12812722
240	0x3e2cbe23	0.16869406
241	0x3e04fee3	0.12987857
242	0x3e19795c	0.14987701
243	0xbd88820c	-0.066654295
244	0xbce21e7a	-0.027602423
245	0x3cd02e24	0.025412627
246	0x3c9c0d46	0.019049298
247	0xbd4956de	-0.04915511
248	0xbd6809a5	-0.056649823
249	0x3d094989	0.033517394
250	0xbd0edf96	-0.034881197
251	0xbe317bb6	-0.17332348
252	0xbe0ca46e	-0.137346
253	0x39812ee0	0.00024639722
254	0x3dc03363	0.09384801
255	0xbd103404	-0.035205856

a2c_network.actor_mlp.0.bias f4 [128]
0	0xbf10c6bd	-0.5655325
1	0xbed1a41d	-0.4094552
2	0xbf2ac3bb	-0.6670491
3	0xbf4268ac	-0.75940967
4	0xbea21314	-0.3165518
5	0xbd8c71cf	-0.06857645
6	0xbf2f117e	-0.68386066
7	0xbf014f63	-0.5051176
8	0xbeb67e14	-0.35643065
9	0xbe5415e3	-0.20711474
10	0xbe506709	-0.20351805
11	0xbe7448ec	-0.23855942
12	0xbe96cd53	-0.29453525
13	0xbe8f9062	-0.28039843
14	0xbe4ec795	-0.20193322
15	0xbf53ad6f	-0.82686514
16	0xbe639651	-0.2222531
17	0xbe431469	-0.19050755
18	0xbf160047	-0.58594173
19	0xbf5bb93f	-0.8582954
20	0xbe9a6ec8	-0.30162644
21	0xbf18e1e2	-0.5971967
22	0xbf6d6f04	-0.9274752
23	0xbf5a79b5	-0.8534196
24	0xbe254a27	-0.16141568
25	0xbe6afdc0	-0.2294836
26	0xbf0b2de0	-0.54366875
27	0xbf081d5d	-0.53169805
28	0xbe1625f6	-0.14662918
29	0xbf5426b8	-0.8287158
30	0xbf4071d1	-0.7517367
31	0xbee3976e	-0.4445147
32	0xbf09efee	-0.5388173
33	0xbeada2c1	-0.33913234
34	0xbe9efe10	-0.3105321
35	0xbef37e8e	-0.4755749
36	0xbe3e3e8d	-0.18578549
37	0xbec68393	-0.38772258
38	0xbecca801	-0.39971927
39	0xbf3fa2b5	-0.74857646
40	0x3d6d8d61	0.057996158
41	0xbf5765a1	-0.8413945
42	0xbf364e5a	-0.71213305
43	0xbe0b5e3f	-0.13610171
44	0xbe8e4f7b	-0.27795014
45	0x3cb28606	0.021792423
46	0xbf13512e	-0.57545745
47	0xbf0fcc85	-0.5617145
48	0xbf30882d	-0.6895779
49	0xbd879aff	-0.0662136
50	0xbecb86b2	-0.39751202
51	0xbe6acda9	-0.22930016
52	0xbe8b9c5b	-0.27267727
53	0xbf1c2018	-0.6098647
54	0xbe9c8dc0	-0.30576897
55	0xbf7d527f	-0.98954004
56	0xbedb0418	-0.4277656
57	0xbf2397d4	-0.63903546
58	0xbf360d34	-0.71113896
59	0xbeccf622	-0.40031534
60	0xbe9e2c17	-0.30893013
61	0xbe36afd3	-0.17840509
62	0xbeb15781	-0.34637073
63	0xbf438534	-0.76375127
64	0xbf1bcacc	-0.6085632
65	0xbee3c908	-0.44489312
66	0xbe407c51	-0.18797423
67	0xbe95786f	-0.29193446
68	0xbf147fb1	-0.5800734
69	0xbd454932	-0.048165508
70	0xbdaea504	-0.08527568
71	0xbf4e407d	-0.8056715
72	0x3dd9c2a9	0.106328316
73	0xbf27a58e	-0.6548699
74	0xbf193564	-0.5984709
75	0xbecd2039	-0.40063646
76	0xbf95a668	-1.1691408
77	0xbe5fd7b1	-0.21859623
78	0xbd8dbc7d	-0.06920717
79	0xbf0a90c7	-0.5412716
80	0xbf8a375e	-1.0798147
81	0xbf28f055	-0.6599172
82	0xbee85c5a	-0.4538296
83	0xbe1a212d	-0.15051718
84	0xbf0e3616	-0.5555128
85	0xbee72859	-0.4514797
86	0xbf686664	-0.90781236
87	0xbdfe5986	-0.12419419
88	0xbe66f549	-0.22554506
89	0xbf8f7cf8	-1.1210012
90	0xbecec759	-0.40386465
91	0xbeeda766	-0.46416777
92	0xbe8edf88	-0.27904916
93	0xbf476e99	-0.77903134
94	0xbe02318e	-0.12714216
95	0xbe7d585d	-0.24740739
96	0xbeabfefb	-0.33592972
97	0xbf0d1260	-0.55106163
98	0xbf44ec8c	-0.7692344
99	0xbf52a615	-0.8228467
100	0xbf68ed4d	-0.9098709
101	0xbd9d885d	-0.07692025
102	0xbef4b77b	-0.47796234
103	0xbf0f51ed	-0.55984384
104	0xbea5ab1b	-0.32357106
105	0xbf0853a7	-0.53252643
106	0xbf0418f7	-0.51600593
107	0xbe9577ad	-0.29192868
108	0xbf0d03bc	-0.55083823
109	0xbe3b72ad	-0.18305464
110	0xbf64c6d8	-0.8936591
111	0xbf2fa752	-0.68614686
112	0xbf0a7486	-0.5408405
113	0xbeb36970	-0.3504138
114	0xbf5b449d	-0.8565157
115	0xbeafa8e6	-0.34308547
116	0xbf53691f	-0.8258228
117	0xbedefc64	-0.43551934
118	0xbc904955	-0.017613092
119	0xbe39ce04	-0.18144995
120	0xbeff38c6	-0.49848002
121	0xbe9e6505	-0.30936447
122	0xbeb77a8e	-0.3583569
123	0xbd3431c5	-0.043992776
124	0x3c0528bc	0.008127388
125	0xbf11848c	-0.56842875
126	0xbe7a63c1	-0.24452116
127	0xbf251ea0	-0.64499855

a2c_network.actor_mlp.2.weight f4 [128, 128]
0	0x3e1d3017	0.15350376
1	0x3e29b02f	0.16571115
2	0xbe010611	-0.1259997
3	0xbcff14f2	-0.031137917
4	0x3db50aae	0.088399276
5	0xbbd770d2	-0.0065747285
6	0x3d4315f9	0.047628377
7	0xbc58e6e5	-0.013238643
8	0xbda39d0b	-0.07988938
9	0xbdfa5368	-0.1222294
10	0x3e81e3bd	0.25369063
11	0xbda2df85	-0.07952789
12	0xbf21706e	-0.6306218
13	0xbe02568f	-0.12728332
14	0xbe90cc90	-0.2828107
15	0xbccf0d0f	-0.025274782
16	0xbe5057c9	-0.20345987
17	0xbe074a18	-0.13211858
18	0xbe64be9e	-0.2233834
19	0xbddf8c85	-0.10915474
20	0x3e284d9e	0.16435859
21	0x3d65e44f	0.056125935
22	0xbee7b8ab	-0.45258078
23	0x3cd8491d	0.02640205
24	0xbd01a90d	-0.03165536
25	0xbe061a0f	-0.13095878
26	0xbe3a1f5d	-0.18176027
27	0xbe8577b8	-0.260679
28	0xbe62e25b	-0.2215666
29	0xbd0ea1f9	-0.034822438
30	0xbaa1257e	-0.0012294499
31	0xbe9de5a4	-0.30839264
32	0xbe4ac2cc	-0.19800872
33	0xbe21849f	-0.15773247
34	0xbdd5b1b5	-0.104342856
35	0xbef6a5a0	-0.48173237
36	0xbe1522f8	-0.14564121
37	0x3e146a20	0.14493608
38	0xbdcb0344	-0.09912732
39	0xbd8a2471	-0.06745232
40	0x3cd3d528	0.025858477
41	0xbe59bc7b	-0.21263306
42	0x3dd51694	0.10404697
43	0xbd5594fc	-0.052144036
44	0x3e226112	0.15857342
45	0xbd10fe80	-0.03539896
46	0x3c83f723	0.016109055
47	0x3d05b866	0.03264656
48	0xbe31b120	-0.17352724
49	0xbe822824	-0.2542125
50	0xbdcfd77a	-0.10148521
51	0x3d66f2fd	0.056384075
52	0xbcb7ef78	-0.022453055
53	0x3db67953	0.089098595
54	0xbe127948	-0.14304078
55	0x3e13596e	0.14389583
56	0xbe34f372	-0.17670992
57	0xbee10678	-0.43950248
58	0xbea7249e	-0.32645124
59	0xbce675c6	-0.02813233
60	0x3e0412f9	0.12897862
61	0x3dfbd92a	0.1229728
62	0xbe8a1c42	-0.26974684
63	0x3e83f3a4	0.2577182
64	0x3d37be70	0.04485935
65	0xbcd2543a	-0.025674928
66	0xbef429bf	-0.476881
67	0x3d81af07	0.06332212
68	0xbd78c547	-0.060735013
69	0x3de3ecfe	0.11129187
70	0xbe19f50c	-0.15034884
71	0xbe084582	-0.13307765
72	0xbd6f2660	-0.058386207
73	0x3ca63375	0.020288208
74	0xbe67d87a	-0.22641173
75	0xbd01f148	-0.031724244
76	0xbe40ad0e	-0.18816015
77	0xbe4cbe8c	-0.19994563
78	0xbdac0198	-0.083987415
79	0x3c4dbfc7	0.01255793
80	0x3d82a18c	0.06378469
81	0xbce83854	-0.028347172
82	0xbe1486c2	-0.14504531
83	0xbd7c0a8a	-0.06153349
84	0xbde91c09	-0.113823004
85	0x3e3a5976	0.18198189
86	0x3d1ed5ce	0.03877812
87	0xbec27db2	-0.37986523
88	0xbe5621bb	-0.20911305
89	0x3e01430c	0.12623233
90	0xbdf2e76f	-0.11860549
91	0xbdfdddd5	-0.12395827
92	0xbe839904	-0.2570268
93	0xbde7e4bb	-0.11322924
94	0xbf222706	-0.63340795
95	0xbea07d9a	-0.31345826
96	0xbe3254eb	-0.17415206
97	0x3d899f40	0.06719828
98	0xbe2b2200	-0.16712189
99	0x3de3a029	0.111145325
100	0xbe0fae99	-0.14031447
101	0x3e451074	0.19244558
102	0xbdefc32d	-0.11707149
103	0xbe685b3b	-0.22691052
104	0xbdaa33f1	-0.08310688
105	0xbeb882b0	-0.36037207
106	0xbe83be55	-0.2573115
107	0xbd3dc8a2	-0.046333916
108	0xbb99fa5a	-0.0046990337
109	0xbb90a2ff	-0.004413962
110	0x3d850422	0.06494929
111	0xbda710b0	-0.0815748
112	0xbe93bd24	-0.2885524
113	0x3e729d5d	0.23692842
114	0xbd7d346d	-0.061817575
115	0x3d420df5	0.04737659
116	0x3d40c284	0.047060505
117	0x3d1f3a1a	0.03887377
118	0xbe18503f	-0.14874361
119	0xbe7fcf60	-0.24981451
120	0xbe3753ea	-0.17903104
121	0xbe28430c	-0.16431826
122	0xbe4bc9c3	-0.19901185
123	0x3e060390	0.13087296
124	0xbe429cd6	-0.1900514
125	0xbd97047c	-0.07373902
126	0x3bfa0226	0.0076296506
127	0x3ce825bd	0.028338308
128	0x3d363cc9	0.044491563
129	0xbaa19b30	-0.0012329575
130	0x3e16b998	0.14719236
131	0xbe217bef	-0.15769933
132	0xbd1e3c1a	-0.038631536
133	0xbd6af310	-0.05736071
134	0xbd73d17b	-0.059525948
135	0xbb37f472	-0.0028069285
136	0xbe1f8e5c	-0.1558165
137	0x3e1b5bb9	0.15171708
138	0x3d818827	0.06324797
139	0xbe3be451	-0.18348815
140	0xbe39f5d3	-0.18160181
141	0x3d384126	0.044984005
142	0xbe1b40a2	-0.15161374
143	0xbc7ab687	-0.015302307
144	0xbd93632b	-0.07196649
145	0xbe9c1a9e	-0.30489057
146	0xbea686ab	-0.32524619
147	0xbe057d63	-0.13036112
148	0xbe40eb39	-0.1883973
149	0xbd8ac400	-0.06775665
150	0xbd042544	-0.0322621
151	0x3d0086f3	0.031378698
152	0xbdb38be5	-0.08766917
153	0x3e800c12	0.2500921
154	0xbdde7ee4	-0.10864046
155	0xbb8fe7b7	-0.0043916362
156	0xbdc65105	-0.09683422
157	0xbd167e1b	-0.036741357
158	0xbd8cff66	-0.06884651
159	0xbe6f4afe	-0.23368451
160	0x3d9b3a5c	0.075794905
161	0x3b9c3c6b	0.0047679446
162	0xbda5f0cc	-0.08102569
163	0xbd14c2f2	-0.036318727
164	0xbe2bb24a	-0.1676723
165	0xbe6e3b60	-0.23264837
166	0x3e140fe0	0.14459181
167	0xbe1a001d	-0.15039106
168	0xbe365962	-0.17807534
169	0xbd74dfc1	-0.0597837
170	0xbec02f2a	-0.37535983
171	0xbece933c	-0.40346706
172	0x3a8886e5	0.0010416178
173	0xbd3b637e	-0.04574918
174	0x3d851628	0.064983666
175	0xbcb94e7f	-0.022620438
176	0x3de231f4	0.11044684
177	0xbd703206	-0.058641456
178	0xbe12a523	-0.14320807
179	0xbca90f01	-0.020637037
180	0x3c8f2f91	0.017478736
181	0xbeb0d30b	-0.34536013
182	0x3d3979bb	0.045282107
183	0xbccf8385	-0.025331268
184	0xbded6d05	-0.115930595
185	0xbdad9dc0	-0.08477354
186	0x3da80b6a	0.08205302
187	0x3d646a02	0.05576516
188	0x3c0ef69b	0.0087257875
189	0x3d877a9b	0.06615182
190	0xbba51ed7	-0.005039077
191	0xbc8b031a	-0.016969252
192	0x3c6b2f63	0.01435456
193	0xbd99b66d	-0.07505498
194	0xbe670b5e	-0.2256293
195	0xbd2350f1	-0.039872114
196	0x3e40dc09	0.18833937
197	0xbd3f08d8	-0.046639293
198	0xbafed0ad	-0.0019440852
199	0x3c90ceff	0.017676828
200	0xbf495e09	-0.7865911
201	0x3dfe92c3	0.12430336
202	0x3da64353	0.0811831
203	0xbca17f3a	-0.019713987
204	0xbbf39a1f	-0.007434144
205	0xbe032a23	-0.12809043
206	0xbea9620c	-0.33082616
207	0x3e8904a2	0.26761347
208	0x3e0d04fb	0.13771431
209	0xbd06793f	-0.032830473
210	0xbd3dfa15	-0.046381075
211	0x3d94083b	0.07228132
212	0x3dc1244e	0.09430753
213	0xbdb346ce	-0.08753739
214	0xbe2bb4cc	-0.16768187
215	0xbc19937b	-0.009373541
216	0xbe009218	-0.1255573
217	0xbe8690d4	-0.2628237
218	0xbcba4fd0	-0.022743136
219	0xbdb7f9f5	-0.089832224
220	0xbd2c9812	-0.042137213
221	0xbdb70d75	-0.089381136
222	0xbf2b81f3	-0.6699516
223	0xbe148cae	-0.1450679
224	0xbd8287fc	-0.06373593
225	0xbe9a2b92	-0.30111367
226	0xbe1ecb99	-0.15507354
227	0x3c7abd13	0.015303868
228	0xbd704ebc	-0.058668837
229	0xbe4b9bcc	-0.1988365
230	0xbecea04d	-0.40356675
231	0x3df76e9e	0.120816454
232	0xbdd8822f	-0.105717055
233	0xbdf0cbc2	-0.11757614
234	0xbcc571c6	-0.024102103
235	0xbe40a9c1	-0.18814756
236	0x3d4a51fe	0.0493946
237	0x3e3c24dc	0.18373436
238	0x3e3dcbab	0.18534724
239	0xbd9a741b	-0.075416766
240	0x3d798aac	0.060923263
241	0x3d938cdb	0.072046004
242	0xbe02709a	-0.12738267
243	0x3cd8b162	0.02645177
244	0xbcd3f2ca	-0.025872607
245	0xbdc82213	-0.09772124
246	0xbcc8749f	-0.024469672
247	0x3c24ad89	0.01005114
248	0x3dad9c5c	0.08477089
249	0xbd495cc5	-0.049160738
250	0x3e0775cf	0.13228534
251	0x3df0e4ac	0.11762366
252	0xbd7fb565	-0.06242885
253	0x3d933f90	0.07189858
254	0x3e2639dc	0.16233009
255	0xbea4631c	-0.32106864

a2c_network.actor_mlp.2.bias f4 [128]
0	0xbcfc8533	-0.030825233
1	0xbe67ae8f	-0.22625183
2	0xbdfe34c1	-0.12412406
3	0xbea12623	-0.31474409
4	0xbdcf23b0	-0.10114229
5	0xbd65ab9b	-0.05607186
6	0xbf521d42	-0.82075894
7	0xbe569c05	-0.20957954
8	0xbe91c80b	-0.28472933
9	0x3e118e41	0.14214422
10	0xbdf06314	-0.11737648
11	0xbe25daab	-0.16196696
12	0xbe9ccf90	-0.30627108
13	0x3c8b8bf6	0.017034512
14	0x3d933226	0.071872994
15	0xbeb73edf	-0.35790154
16	0x3dd779da	0.10521288
17	0xbd928419	-0.07154102
18	0xbe0616f6	-0.13094696
19	0xbc9c4a3b	-0.019078365
20	0xbe48ab35	-0.1959656
21	0xbd56c44c	-0.052433297
22	0x3e38c849	0.18045153
23	0xbdc1a910	-0.09456074
24	0x3d6a4571	0.05719513
25	0xbcd5ca51	-0.026097449
26	0x3e380354	0.1797002
27	0xbe2ab090	-0.16668916
28	0x3e01d5fe	0.12679288
29	0xbf324606	-0.696381
30	0xbeb7c2e3	-0.35890874
31	0xbe53c88a	-0.20681968
32	0xbe0c5e01	-0.13707735
33	0xbe7fba0f	-0.2497332
34	0xbe903c68	-0.28171086
35	0xbdfae1ad	-0.122500755
36	0xbcd8814a	-0.026428837
37	0xbe99df66	-0.30053252
38	0x3e75cb90	0.24003434
39	0x3e150366	0.14552078
40	0xbea68775	-0.3252522
41	0x3d05c09f	0.0326544
42	0xbe734022	-0.23754933
43	0xbd016f96	-0.031600557
44	0xbe98b6f0	-0.2982707
45	0xbde53aaa	-0.1119283
46	0xbdfe3291	-0.124119885
47	0xbd2ebf43	-0.04266287
48	0xbeaf4b55	-0.3423716
49	0x3df8c86c	0.121476024
50	0xbe749341	-0.23884298
51	0xbbafcecb	-0.005365228
52	0xbe1af6c8	-0.15133202
53	0xbeb9fb7b	-0.36324677
54	0xbd80942b	-0.06278261
55	0xbcff72b6	-0.031182628
56	0xbe2d7872	-0.16940477
57	0xbe0365bf	-0.12831782
58	0xbeb0f183	-0.3455926
59	0x3d4ac8ae	0.04950779
60	0xbe6a90d5	-0.22906812
61	0xbe3ebe22	-0.18627217
62	0xbe9398d9	-0.2882755
63	0xbf13f886	-0.5780109
64	0xbe8bc504	-0.27298748
65	0xbebd50b8	-0.36975646
66	0xbd38c91b	-0.045113664
67	0xbe181331	-0.14851071
68	0x3c800740	0.015628457
69	0xbe83b020	-0.2572031
70	0xbde222fb	-0.11041828
71	0xbc3735d0	-0.0111822635
72	0xbe0bf2c4	-0.13666826
73	0xbdb41571	-0.08793152
74	0x3d9d2939	0.07673878
75	0x3e23f833	0.16012649
76	0x3de45bab	0.11150297
77	0xbea99286	-0.331196
78	0xbe4bf38c	-0.19917125
79	0xbe83eaaa	-0.25764972
80	0xbb8cc4d4	-0.0042959247
81	0x3c40e12d	0.011772436
82	0xbd242367	-0.040072825
83	0xbb826ebc	-0.0039804857
84	0xbdb79fc3	-0.08966019
85	0xbd2d9436	-0.042377673
86	0x3dbef838	0.09324688
87	0x3e122a91	0.1427405
88	0x3df32b3b	0.1187348
89	0x3d574f95	0.05256613
90	0xbe53d3f1	-0.20686318
91	0x3de51c66	0.11187057
92	0xbf1fa821	-0.6236592
93	0x3e0cafb2	0.13738897
94	0xbdd0f50e	-0.102029905
95	0xbdc8577e	-0.09782313
96	0x3cbe96ef	0.02326533
97	0xbe4abad5	-0.19797833
98	0x3e2ce668	0.16884768
99	0xbe2e4436	-0.17018208
100	0xbe81bd87	-0.2533991
101	0xbe6bfd52	-0.23045853
102	0xbc59b161	-0.013286919
103	0xbe9a58e1	-0.30145934
104	0x3db5221c	0.088443965
105	0xbee88eb8	-0.45421386
106	0xbdc95f95	-0.09832684
107	0xbe9a1028	-0.3009045
108	0x3d80d73f	0.06291055
109	0xbe545b0f	-0.20737861
110	0xbe49412c	-0.19653767
111	0xbe6e2cf1	-0.23259331
112	0x3d821464	0.063515455
113	0xbd49d966	-0.049279593
114	0x3d29d2b5	0.04146071
115	0xbe3ac103	-0.1823769
116	0xbea9b23a	-0.3314379
117	0xbe455caa	-0.1927363
118	0xbdde39cc	-0.10850868
119	0xba04f0c1	-0.00050712755
120	0xbe98c3c7	-0.29836866
121	0xbe05e2ad	-0.13074751
122	0xbe8cbc88	-0.27487588
123	0xbf7a2a95	-0.97721225
124	0xbd01fa61	-0.03173292
125	0xbe1cb7f4	-0.15304548
126	0xbee71c3e	-0.45138735
127	0xbf9793c2	-1.1841967

a2c_network.critic_mlp.0.weight f4 [128, 376]
0	0xbefad9c0	-0.48994255
1	0x3e09f38f	0.13471816
2	0x3d5bf449	0.053699765
3	0xbf2ec5ea	-0.6827074
4	0x3c70e58b	0.014703165
5	0x3d78687e	0.060646527
6	0x3d1b576c	0.03792517
7	0xbe61803d	-0.22021575
8	0x3d496bf0	0.049175203
9	0x3eb94df8	0.36192298
10	0x3ef16bd2	0.47152573
11	0xbf0f2a87	-0.55924267
12	0x3c5a020d	0.013306153
13	0xbe2ca4ee	-0.1685979
14	0x3f29bfad	0.663081
15	0x3f0bf49f	0.5467014
16	0xbcf279bc	-0.029599063
17	0x3ec4af34	0.3841492
18	0x3d5629e6	0.05228605
19	0xbe9cfd42	-0.3066197
20	0x3d25540c	0.040363356
21	0x3e872c0d	0.26400796
22	0x3e27dd6e	0.16393062
23	0x3e8668db	0.26251873
24	0x3e8c2bc7	0.2737715
25	0xbd1f9e74	-0.038969472
26	0x3e1dd8e8	0.15414774
27	0x3e616ff2	0.2201536
28	0x3d9007ee	0.070327625
29	0x3e1ecbb1	0.1550739
30	0x3de897d0	0.11357081
31	0xbcec1891	-0.028820308
32	0xbcfdad56	-0.030966442
33	0x3da2cfe0	0.07949805
34	0x3dc2c871	0.095108874
35	0xbd8c8561	-0.068613775
36	0xbeaea0c8	-0.3410704
37	0x3c1144f1	0.008866535
38	0xbd7ab15b	-0.061204296
39	0xbe60f8f3	-0.21969967
40	0x3e81f4c9	0.2538207
41	0x3e3e3bc4	0.18577486
42	0x3eec075c	0.46099365
43	0x3d0aee9b	0.03391896
44	0xbf069c6a	-0.5258242
45	0x3e7d9341	0.24763204
46	0x3f0f06ab	0.5586955
47	0x3a8090f7	0.0009808828
48	0xbd8728a5	-0.06599549
49	0xbd77cc8f	-0.060497817
50	0x3cc4840f	0.023988752
51	0x3bdd828c	0.006759947
52	0xbc60a78f	-0.013711824
53	0x3c903ded	0.017607654
54	0xbd5c360b	-0.053762477
55	0x3d69b3d4	0.057056263
56	0x3cc73f5e	0.024322208
57	0xbcad39c8	-0.021145716
58	0xbcbf0419	-0.023317384
59	0xbb716bac	-0.003683786
60	0xba09db6c	-0.00052588317
61	0xbe095554	-0.13411456
62	0x3d0163b9	0.031589244
63	0xbc0555cf	-0.008138134
64	0xbeb42b0f	-0.351891
65	0xbe03012b	-0.12793414
66	0xbdb45c99	-0.08806724
67	0xbecc6a5e	-0.39924902
68	0x3c1df585	0.009641056
69	0xbe07fde1	-0.13280441
70	0xbea9a2b7	-0.33131954
71	0xbe05ad8b	-0.13054483
72	0xbd12a33b	-0.0358002
73	0xbe9cc951	-0.30622342
74	0xbc1e883e	-0.009676037
75	0xbe0b1ea4	-0.13585907
76	0xbd7651f6	-0.060136758
77	0xbcb840d0	-0.022491843
78	0xbc7a1338	-0.015263371
79	0x3c891245	0.016732344
80	0xbd142b7c	-0.036174282
81	0x3d0b91ac	0.03407447
82	0x3db51bf4	0.08843222
83	0x3cd80571	0.026369782
84	0xbd21df52	-0.039519615
85	0x3b411446	0.0029461547
86	0x3cc6b7bd	0.024257535
87	0xbd649b5f	-0.055812236
88	0x3c8b285a	0.016987015
89	0xbdc68995	-0.096942104
90	0xbcb6b5a2	-0.022303406
91	0xbd0203cd	-0.031741906
92	0xbd6b4ab2	-0.057444282
93	0xbd7d487c	-0.061836705
94	0xbc8a6101	-0.016891958
95	0xbd68a513	-0.056798052
96	0x3ce7c8ea	0.028294045
97	0xbcf356d8	-0.029704496
98	0xbd0b5077	-0.034012284
99	0xbb84d064	-0.0040531624
100	0xbcbc7df9	-0.023009287
101	0xbd885078	-0.06655973
102	0xbd202a09	-0.039102588
103	0x3c09ef86	0.008418923
104	0xbcdc6b56	-0.02690665
105	0xbd177103	-0.03697301
106	0xbc5c121c	-0.013432052
107	0x3b643aee	0.0034825164
108	0x3c5a3340	0.013317883
109	0x3b3473fe	0.0027534957
110	0x3cc0ca89	0.023534076
111	0xbc0cd700	-0.008596182
112	0xbc9fcc91	-0.019506725
113	0xbcbcd022	-0.023048464
114	0xbc1c3978	-0.009535186
115	0xbcf07e84	-0.029357202
116	0xbd3b8c33	-0.045788
117	0x3c6e93b4	0.014561582
118	0xbbc43350	-0.0059875622
119	0x3c359f98	0.011085413
120	0x3c150992	0.00909652
121	0x3b0e0ab6	0.0021673865
122	0xbc3f0e4d	-0.011661124
123	0x3c738ae8	0.014864661
124	0xbac85001	-0.0015282632
125	0xbd5098bc	-0.05092691
126	0xbd904eef	-0.070463054
127	0x3c73ce62	0.014880748
128	0xbc226e68	-0.009914018
129	0xbcbe3121	-0.023216786
130	0xbc8d016b	-0.01721259
131	0x3d08d4ea	0.033406176
132	0x3badf7eb	0.005309095
133	0xbd6e1229	-0.058122788
134	0x3d6ea9d5	0.058267433
135	0xbd8c7e0e	-0.068599805
136	0xbd662f66	-0.056197546
137	0x3cdab570	0.026697844
138	0xbda6ee60	-0.08150935
139	0x3d14d239	0.036333296
140	0x38ea1689	0.00011162187
141	0x3da144b6	0.07874434
142	0xbcb9fda7	-0.022703959
143	0xbbb94a96	-0.0056546433
144	0x3c1b2103	0.00946832
145	0xbd0224c2	-0.031773336
146	0xbd5a82a0	-0.05334723
147	0x3ce2e1ae	0.027695503
148	0xbd104ea5	-0.03523125
149	0xbd47d681	-0.04878855
150	0xbcca7775	-0.024715165
151	0x3dad041d	0.0844805
152	0x3d575b5c	0.05257736
153	0x3d1e80b6	0.038696967
154	0x3abc9be9	0.0014389727
155	0xbdec8d20	-0.11550355
156	0xbdb3a865	-0.08772353
157	0x3e40e780	0.1883831
158	0xbd72c1a7	-0.059266713
159	0xbe4e93fa	-0.20173636
160	0xbe1f79f0	-0.15573859
161	0xbdbc7202	-0.09201433
162	0x3d11f93d	0.035638083
163	0x3d1013ac	0.03517501
164	0xbb0e8614	-0.0021747397
165	0x3d093d3f	0.033505674
166	0xbd4be3ba	-0.049777724
167	0x3bf07fb5	0.0073394426
168	0xbd2c5b9c	-0.042079553
169	0xbcb9f1a5	-0.022698233
170	0xb9cbdec5	-0.00038885153
171	0xba429282	-0.0007422344
172	0x3d19edaa	0.03758017
173	0xbb354d83	-0.0027664609
174	0xbc84412e	-0.016144361
175	0x3d883a76	0.066517755
176	0xbbd57896	-0.006514619
177	0xbce17ed6	-0.0275263
178	0xbd906ff7	-0.070526056
179	0xbc518d87	-0.01279009
180	0x3d8fabd4	0.070151955
181	0x3d47c3b7	0.048770633
182	0x3d379bfb	0.04482649
183	0x3d9b0c79	0.07570738
184	0x3caa058f	0.020754604
185	0x3c741e1f	0.01489976
186	0xbde906fe	-0.11378287
187	0xbd0d0f67	-0.034438517
188	0xbcfa8d57	-0.030584974
189	0x3c612ea8	0.013744034
190	0x3d5311c7	0.051530626
191	0x3d0b40f3	0.033997487
192	0x3e0447ec	0.12918061
193	0x3d455119	0.048173044
194	0x3ce1d8d8	0.02756922
195	0x3b7dac3a	0.0038707391
196	0xbdae06de	-0.084974036
197	0xbb211497	-0.0024578923
198	0xbdbb87e6	-0.0915678
199	0xbd0e48c9	-0.034737382
200	0x3d322003	0.04348756
201	0x3c898461	0.016786756
202	0x3dd6717a	0.10470863
203	0xbc111798	-0.008855723
204	0x3e1f5250	0.15558743
205	0xbdab3b35	-0.08360902
206	0xbd9a7cc0	-0.075433254
207	0xbcd5a8ed	-0.026081527
208	0xbd920109	-0.07129104
209	0x3deef8b9	0.11668534
210	0xbde1946c	-0.11014637
211	0x3c4359c0	0.011923254
212	0x3d81242b	0.063057266
213	0x3c9a5704	0.01884032
214	0xbca619fc	-0.020276062
215	0x3dd00cf5	0.10158721
216	0xbdcf1472	-0.101113215
217	0xbd96cb45	-0.07362989
218	0xbd8e51e8	-0.06949216
219	0xbdd290fb	-0.10281559
220	0x3e01196c	0.12607354
221	0xbb5ff0e7	-0.0034170689
222	0xbe15184e	-0.14560053
223	0xbd46b0bc	-0.04850839
224	0xbda6f104	-0.08151439
225	0x3e9c8202	0.30567938
226	0x3d3109f8	0.043222398
227	0xbda41aab	-0.08012899
228	0xbe320b9b	-0.1738724
229	0xbe316bf8	-0.17326343
230	0x3e24db0b	0.16099183
231	0x3d7d7f99	0.061889265
232	0x3cb5b122	0.02217919
233	0x3bd8eb5d	0.0066198544
234	0xbc20ee89	-0.009822496
235	0xbd3c964a	-0.046041764
236	0x3c2b60da	0.010460103
237	0xbd6317dd	-0.05544268
238	0x3d52c08f	0.05145317
239	0xbc32dedc	-0.010917392
240	0xbce31ccb	-0.02772369
241	0xbcdf46ab	-0.027255377
242	0xbd01bc0b	-0.031673472
243	0x3b2c0b44	0.0026251832
244	0x3b3f43b5	0.0029184644
245	0xbc873344	-0.016503938
246	0xbaa0a00a	-0.0012254727
247	0x3a3490dc	0.0006888041
248	0xbd1701a2	-0.03686679
249	0xbc937a0d	-0.018002534
250	0xbd246517	-0.04013547
251	0xbcafd2d1	-0.02146283
252	0x3cc8f1f6	0.024529438
253	0x3d10c197	0.03534087
254	0x3d0e9512	0.034810133
255	0xbcc44a64	-0.023961253
