python/rlgpu/saved_nn/241001162237286415/last_Aliengoep=5000rew=[6030.94].pth (torch, 539546 bytes, 18 tensors)

running_mean f8 [376]
0	0x3f7ab0721f2fcb95	0.006515928066607742
1	0x3f654b584cfb6448	0.002599403822256128
2	0xbf88111075ec74fd	-0.011751297568077574
3	0x3f65ec8eb306eab5	0.002676275930040129
4	0x3fdd735693059c41	0.4601646838913816
5	0x3fdba7e53644c313	0.432122519489938
6	0x3fe62f88fbe24997	0.693302623711406
7	0x3fe754c5c2cc4557	0.7290982060095911
8	0x3fa646c27ebdcf0e	0.043508604022376315
9	0x3fbdda28379267d6	0.11661006314025654
10	0xbfd1dd39460293f1	-0.27912742459221734
11	0x3fb336b7bb555ce7	0.07505367587633636
12	0xbfb8a94c79a01670	-0.09633329362267218
13	0xbfd1a760287b0e36	-0.2758407969779201
14	0x3fae963d1ebd37a9	0.059739980699858926
15	0x3fbb23caa4dee8f2	0.1060148861423931
16	0xbfd3075404272129	-0.29732227712203724
17	0x3fb06356a45d15ed	0.06401578438552465
18	0xbfb6f4364f4dce4f	-0.08966388164645277
19	0xbfd33c2467b2bf6b	-0.3005457890203533
20	0xbf998b9dd95ff3b7	-0.02494665755510869
21	0xbf93aed1cda4b32e	-0.019221571136927178
22	0x3fb9a7150995fd4a	0.10020572170286815
23	0xbf9c482eaec1ee54	-0.027619103828767713
24	0x3f8b8eef338a9ffa	0.01345621944467722
25	0x3fb737933e6ba2d3	0.09069175981461379
26	0xbf7c7bbbb7c67489	-0.006953938744485141
27	0xbf8369eb81dbb71a	-0.00947937002225845
28	0x3fafb5f0908c9512	0.06193496479526507
29	0xbf821b4594192dac	-0.008841079313376486
30	0x3f826981dc7113b0	0.008990301647040372
31	0x3faacf297b6f2dd5	0.0523617709328296
32	0x3fde59250df444e7	0.4741909633895162
33	0x3fe0d36d6b6cf150	0.525809011283437
34	0x3fe0d36d6b6cf150	0.525809011283437
35	0x3fde59250df444e7	0.4741909633895162
36	0x3fa4fbe28088b3ec	0.04098422831552981
37	0xbf7f4f6b9f63b6bd	-0.007644100571480625
38	0x3f82de1e0139f5ce	0.009212717449595422
39	0x3f7e7253bb0aa648	0.007433249542978589
40	0x3f94602193279632	0.019897961241346525
41	0x3f5dea18d5aa9273	0.0018258326078150172
42	0x3f917bcada59eccb	0.017073793007949683
43	0xbf4d462d5cbc6e29	-0.0008933755393373866
44	0x3f9a9dc67314e9f6	0.025992489599255784
45	0xbed64797215ae3e1	-5.311882451835567e-06
46	0x3f948c3d5b56a4ef	0.020066221904618094
47	0x3f39d90a51325759	0.000394406336633115
48	0xbfc0ffeb91026689	-0.13281006413017263
49	0x3fc3cdd9ae7e4111	0.1547195531861765
50	0xbfcf6e1bed72089b	-0.2455477628137189
51	0x3fc297f43eac5daa	0.1452622705480569
52	0x3fcbccbe53bb4071	0.2171857746930104
53	0xbfb881168c8446c2	-0.09571972780784235
54	0xbfa8fcb925ace6a7	-0.048803125237509896
55	0xbfc66b679b6c42a1	-0.17515273179062255
56	0xbfc9869697596752	-0.1994198073396612
57	0x3fb023a6e4993b61	0.06304400521297061
58	0xbfc7b1e032c8e582	-0.18511583785747737
59	0xbfc137a035ff7938	-0.13451006542795496
60	0xbfdf8f9f1ee52592	-0.49314096467113544
61	0x3fe513a2f38bc11c	0.6586470371967468
62	0x3fef854fb8459e63	0.9850233649312482
63	0x3fc4a02245b348ab	0.161136898072589
64	0x3fda67e7325962bf	0.41259174267683457
65	0x3fd165d17ed5f0a9	0.2718394983892361
66	0x3fd6349ed9bc7ed5	0.34696170104323915
67	0xbfccdd17a4dd37e2	-0.22549720335012952
68	0x3fd20237cc0a2b18	0.281385373361148
69	0xbf8d598f921622bb	-0.014330979963021453
70	0x3fd0ca81b4a69935	0.2623600258033492
71	0xbfc19d9de49518f7	-0.13762258206606479
72	0x3fc7812380493dac	0.18362849964112848
73	0xbfb0162ce2b8dab7	-0.06283836875159464
74	0xbfd0787389fcc505	-0.2573517653973599
75	0xbfdf8b70ad6811ce	-0.4928857510970176
76	0x3fe50e19b1e3dada	0.657971236650009
77	0x3fef800102046bb0	0.984375480594613
78	0x3fc49c36b1b3755f	0.16101726223761667
79	0x3fda63855d7eaa08	0.41232427721357157
80	0x3fd163910c10a846	0.2717020623991896
81	0x3fd6316ac079604c	0.346766174281133
82	0xbfccda679f5f938d	-0.22541518480207082
83	0x3fd2013a1f6af7f1	0.2813248926939869
84	0xbf8d6e09700d28b8	-0.01437003491595977
85	0x3fd0c978352f4827	0.262296726167849
86	0xbfc19dd12e1e0029	-0.13762869598213115
87	0x3fc77d4408e4c383	0.18351030763872353
88	0xbfb014f3ea473b4e	-0.06281971425708585
89	0xbfd078185ec7dc9f	-0.25733002906731345
90	0x3fc26ef5904a8378	0.14401120706045467
91	0x3fc2895ffcc216ab	0.14481735078532174
92	0x3fc28e3559f05e84	0.1449648560671798
93	0x3fc29e3b45dff7f8	0.14545384322985888
94	0x3fc2be6c9fac5345	0.146436288800624
95	0x3fc2c44b551b522f	0.1466154256401224
96	0x3fc2c4e46eb0d2e3	0.14663367657489976
97	0x3fc2d206b65acb5f	0.14703449157749568
98	0x3fc2dc7774af2922	0.14735310742828128
99	0x3fc2ba32195237c3	0.14630724178681306
100	0x3fc2973c68aa5168	0.14524035559282855
101	0x3fc2c966cbd617bf	0.14677128746933296
102	0x3fc298f6d2ed7d90	0.1452930955810925
103	0x3fc2a9573c2596a8	0.14579286991936624
104	0x3fc2d9536ad4076b	0.14725725856993263
105	0x3fc19571ff43c762	0.1373732086572615
106	0x3fc1a475ce882a96	0.13783142647328778
107	0x3fc1842b97b33587	0.1368460169527845
108	0x3fc29a1dee9ac035	0.14532827520952343
109	0x3fc26c2a4db7e158	0.14392594141805648
110	0x3fc285e5288a6360	0.14471115569611026
111	0x3fc3667a938c3374	0.15156490520930854
112	0x3fc324c776c605fb	0.1495599107693549
113	0x3fc33ea740abc7ed	0.15034952790989511
114	0x3fc38a768df9ef77	0.15266305859028836
115	0x3fc2274048e8b211	0.14182284889228972
116	0x3fc233d624fb8618	0.14220692449366434
117	0x3fc1f3f1a45963a0	0.1402570774542058
118	0x3fc34088697e5062	0.1504068865875779
119	0x3fc305c9d6813e14	0.14861414884443092
120	0x3fc2fa9939b12d56	0.1482726604175279
121	0x3fc3ff0b282af6fe	0.1562208124286641
122	0x3fc3b41c8cf21bf5	0.15393406755558173
123	0x3fc3b52f59b51403	0.15396682625046773
124	0x3fc34e859ff0fccb	0.1508338004077586
125	0x3fc2f6669384f1cc	0.14814455226031809
126	0x3fc2dbfac3e8ea08	0.14733824315938215
127	0x3fc2c574c0dd0f36	0.1466508809772848
128	0x3fc33b5d507d175c	0.15024916105374586
129	0x3fc3c13faf7eff69	0.15433498448509944
130	0x3fc39a99a6e84e40	0.1531555237748865
131	0x3fc493ad5d8f296b	0.16075675075837678
132	0x3fc43bc34a159a16	0.1580738174190663
133	0x3fc45063d218dba6	0.1587033058037523
134	0x3fc3e454c0e83a6b	0.15540561122221005
135	0x3fc3a0453be8b5a5	0.15332856583829116
136	0x3fc3907117f9edd3	0.15284551306454705
137	0x3fc394155556e773	0.15295664469686762
138	0x3fc426b6ec4adf7d	0.15743147409170524
139	0x3fc4b6a4707a3c22	0.16182380191864448
140	0x3fc44743913baefd	0.1584248026987253
141	0x3fc50e588ae08b0e	0.1645003011809298
142	0x3fc4a289ae713e8d	0.1612102605599727
143	0x3fc4dfd0884909fd	0.16308027891689383
144	0x3fc48b23fe797628	0.16049623418341352
145	0x3fc425120ae75773	0.1573813012352577
146	0x3fc45c50e6da2d1e	0.1590672614296204
147	0x3fc449dff110437f	0.15850447912864848
148	0x3fc530e3e56e3a53	0.16555451109566607
149	0x3fc5b49dd88a5a3e	0.16957448075545928
150	0x3fc4e8fdfb3c5508	0.163360355065983
151	0x3fc527b3049fccb5	0.16527402616302359
152	0x3fc526620b14f234	0.16523385563950088
153	0x3fc4f92740a9addf	0.1638535562263845
154	0x3fc4eca3528d051f	0.16347161799243623
155	0x3fc4e0facae8c85a	0.16311583430939686
156	0x3fc54f7949bf4c42	0.16648784733715344
157	0x3fc53ea490f1b211	0.16597420766210338
158	0x3fc689272196d3c6	0.1760605730065931
159	0x3fc6f7697fd28381	0.1794254182941835
160	0x3fc5b360916789e2	0.16953665828539416
161	0x3fc29a968fc34cf4	0.14534265536949642
162	0x3fc2dce1eda68efb	0.1473657999423422
163	0x3fc304cca7b6e6ba	0.14858396710569882
164	0x3fc32e8af8d17b43	0.14985787534075187
165	0x3fc34acfd5e3e205	0.15072057670455777
166	0x3fc32c6e2aae41f1	0.14979340633409735
167	0x3fc2fc5b2a742507	0.14832629750188905
168	0x3fc2eb1a36aa3af2	0.14779975575625987
169	0x3fc2de088d876db5	0.147400921922651
170	0x3fc2bec3d761c74c	0.14644668595024724
171	0x3fc2bdfa60529fb7	0.14642266944178825
172	0x3fc341d4870d433d	0.15044647783590817
173	0x3fc33cf73a5420c7	0.1502980265434017
174	0x3fc323e4d9d0435a	0.14953289637972028
175	0x3fc34c23667de44f	0.1507610559890815
176	0x3fc26bc330e06e3d	0.1439136494308161
177	0x3fc248630f15b72f	0.1428340743690852
178	0x3fc21ea60781e519	0.1415603195817219
179	0x3fc313ee22cbc67e	0.14904572199843708
180	0x3fc2e76882a89864	0.14768701915562865
181	0x3fc2e4dbaaabe021	0.14760919412197018
182	0x3fc4169610ae032e	0.15693927587928996
183	0x3fc3dca21c3a912f	0.15517069223745625
184	0x3fc3f2a4a7b5037c	0.15584238232443315
185	0x3fc41dfba65f5cab	0.15716500877053838
186	0x3fc2f27d96073367	0.1480252249297351
187	0x3fc2d85b7b9d8d6f	0.14722770248327374
188	0x3fc2bca6d39a4e15	0.14638219196477623
189	0x3fc3c11f2b9c7d02	0.154331108374187
190	0x3fc38f06b8eac6a9	0.15280231503634426
191	0x3fc3a3e08faf5c5a	0.1534386350237778
192	0x3fc4e82525ead27c	0.1633345065253201
193	0x3fc4a2b15e5e671a	0.16121499164437908
194	0x3fc4a6c832dd5ffc	0.1613397835124032
195	0x3fc4601d3c33e015	0.15918317260343487
196	0x3fc3bb98c0aa032a	0.15416249663760456
197	0x3fc39d2872a1d9fb	0.15323358151699992
198	0x3fc390c3b2e36687	0.15285536036281064
199	0x3fc3b23e9b84bf68	0.1538770923011683
200	0x3fc3fba5589a6185	0.15611712290116145
201	0x3fc4754740fbbc7b	0.15982905076041107
202	0x3fc59595051b6276	0.16862738370288682
203	0x3fc5507c3de0e1e0	0.1665187170163014
204	0x3fc58ebc57f6efcd	0.16841844840189282
205	0x3fc541935e312e0d	0.16606371020530766
206	0x3fc48d8624b542f2	0.1605689696539439
207	0x3fc45c7e98131c78	0.15907270837326215
208	0x3fc4524d3a46baf9	0.15876164765855785
209	0x3fc42f29d24a0b43	0.15768931167630215
210	0x3fc487ed2c947f90	0.160398146407712
211	0x3fc51c3dc17ea26c	0.1649243540571378
212	0x3fc61bd552ba93df	0.1727244047116576
213	0x3fc5c13bdddd7cee	0.16995952924023733
214	0x3fc683c67a1359fd	0.1758964630195833
215	0x3fc6536b6f5e5bd8	0.17442076623839742
216	0x3fc5312a6b02e9d0	0.1655629179493432
217	0x3fc516eaaadb9e30	0.1647618612544064
218	0x3fc4ddb2ebf71f18	0.16301571389907887
219	0x3fc4c43a55e2aaf7	0.16223839944480975
220	0x3fc50c4526d51346	0.1644369544611896
221	0x3fc597a5fc4c1fa7	0.16869044131476338
222	0x3fc6597d76391447	0.17460602066617723
223	0x3fc6447bf5277cef	0.17396497221395843
224	0x3fc7a7857c570a2d	0.18479984828270926
225	0x3fc7ab3d8614adf4	0.1849133400622659
226	0x3fc60163d3e18440	0.17191741796253446
227	0x3fc6106ddf61b4a7	0.1723763790827537
228	0x3fc5806deb2d6d74	0.1679818533255958
229	0x3fc51bd77c57b910	0.16491216250819507
230	0x3fc5584d2fb8bbb7	0.16675724821240376
231	0x3fc607c385642c19	0.1721119309735009
232	0x3fc0325132ba8686	0.12653555848105585
233	0x3fc09869062a3d5d	0.12965119172120412
234	0x3fc0b58014453e43	0.1305389498688659
235	0x3fc0c30e9cef9f69	0.13095266974346068
236	0x3fc0e198fb511324	0.13188469191859398
237	0x3fc10db1221c30e0	0.13323034444363824
238	0x3fc10c62063dc739	0.13319039635421762
239	0x3fc110819f3944aa	0.13331623339266702
240	0x3fc121837c74a4b7	0.13383525444922892
241	0x3fc10a8ef23b52c5	0.13313471629830623
242	0x3fc0c83632439577	0.1311099763326344
243	0x3fc0c065adf34fbf	0.1308714961402284
244	0x3fc0a74aeadb2bd8	0.1301053663977132
245	0x3fc0fa5a703325e4	0.13264017561441144
246	0x3fc1449923ed701a	0.13490595106384334
247	0x3fc0ff1cf351dccc	0.13278543358658224
248	0x3fc10456bedcb64c	0.13294491118851892
249	0x3fc0d577076178dd	0.1315144334830113
250	0x3fc13d87978a525a	0.13469023608617442
251	0x3fc1111d03808a0f	0.13333475752831744
252	0x3fc0d73f1234d2df	0.13156879796010565
253	0x3fc16ceecee327d0	0.13613686658783175
254	0x3fc152efa34dadf2	0.1353435084705406
255	0x3fc1c3dccdbf6e00	0.13878974958684864

running_var f8 [376]
0	0x3f8ea1198b688910	0.014955710951714468
1	0x3ff44e8020f9c3cf	1.2691651619063469
2	0x3fb091ed58f4d92d	0.06472667142665918
3	0x4006f17b5f80c4b0	2.8679110966846437
4	0x3fcfcc0571d504be	0.24841373499115166
5	0x3fcf690bcf105a1c	0.24539325342694063
6	0x3fcb379c5aa50dce	0.21263460565579212
7	0x3fc94827850d36ce	0.19751447674427997
8	0x3f7498b90acb5ac2	0.005028460331877484
9	0x3f61cd9f9a7b5b05	0.0021732442145138164
10	0x3f63b2e81ec0240d	0.002404645309074477
11	0x3f726f112e94a3ba	0.004500453106893449
12	0x3f5fe62846e24fc3	0.0019469636277209413
13	0x3f6350a0b630d788	0.0023577822589925836
14	0x3f70e2564320645c	0.004122101747293074
15	0x3f630a02f8c7a915	0.00232410984448451
16	0x3f5b3c322eda5369	0.0016623010700744462
17	0x3f706264001f5718	0.004000082613819143
18	0x3f637edec0855361	0.0023798323274299292
19	0x3f5b946dfcdecbd4	0.0016833376025544482
20	0x3ffbcf8dd12e9816	1.7381723567173188
21	0x3fe0af9c7671f7ca	0.5214369119055331
22	0x3fe2990c236b0638	0.5811825458296829
23	0x3ff578521be30f09	1.3418751801809228
24	0x3fe02d47e3ce47a7	0.505527443822065
25	0x3fe5840f02684b20	0.6723704382914981
26	0x3feb9caedd8ceec2	0.8628763510855253
27	0x3fddec521efab92c	0.4675488760502897
28	0x3fd20284a513dc38	0.2814036953054173
29	0x3fe9447596438d9a	0.7896068510857959
30	0x3fdbfaa0d6171b47	0.43717213542224836
31	0x3fd0dccd9bbc319a	0.2634767552233598
32	0x3fcfea3127acf5cb	0.24933447301184083
33	0x3fcfea312b25debb	0.24933447462875855
34	0x3fcfea312b25debb	0.24933447462875855
35	0x3fcfea3127acf5cb	0.24933447301184083
36	0x3f8c680a51bf43a4	0.01387031614277296
37	0x3f837e5c183e88ab	0.0095183558367505
38	0x3f8b0165da483d38	0.01318625996012078
39	0x3f849295436e7a8b	0.01004520999941618
40	0x3f83b19bf9cb366a	0.009616106567956712
41	0x3f7f086e47ec2945	0.0075763995980742726
42	0x3f83338ec79b4469	0.009375682322032302
43	0x3f7f4eb4c96e57f9	0.0076434194551406815
44	0x3f9bae61d3c0aa36	0.02703240256247793
45	0x3f930af596cf82ed	0.018596494035480516
46	0x3f98a303c7b12ad5	0.02405935198138816
47	0x3f91ed1422291082	0.017505945763574456
48	0x4013d710a6cfddc0	4.960024458348414
49	0x401990b3ed397e26	6.391311365732269
50	0x400a0af9ccb5d248	3.2553592675197116
51	0x401655398528503c	5.583227234445129
52	0x4017cd1298c58dc3	5.950266253526425
53	0x4007b06dd0558224	2.9611469532103616
54	0x4012c7ac78c50dde	4.694993865039093
55	0x4012a0d93ed67421	4.657078725661479
56	0x40011c9070fef1e7	2.138947375088026
57	0x401224aeb6de6e86	4.535822732282787
58	0x4010816f0a6fce73	4.126400149416088
59	0x4000c9190dc7ee97	2.098192317642155
60	0x3fbdd7b2b70a11d0	0.11657254189237354
61	0x3fc67c14a58d5284	0.17566164096446724
62	0x3f832c95c67a2ff8	0.009362383002802219
63	0x3fdc88c7a1bfcc87	0.4458483771879362
64	0x3fd9618cc8c5a746	0.39657897574089807
65	0x3fdd5705c033d665	0.4584364296891635
66	0x3fd9b83ac1889938	0.4018694772697873
67	0x3fd7cf51a62e5afe	0.3720287440168447
68	0x3fdfa2bbde13c5c1	0.4943074864123354
69	0x3fde7da707589c9e	0.4764192172755858
70	0x3fde320abaf5a866	0.4718043161179878
71	0x3fd60f151fbaef06	0.34467056368497173
72	0x3fe1be515b18ff5b	0.5544821528674037
73	0x3fdc4c7f3f715cc3	0.4421690101202779
74	0x3fd5be26dc74cfef	0.33973094490943273
75	0x3fbdd841d9e6f2c3	0.11658107347370632
76	0x3fc68fce6cad4cf9	0.17626362139217358
77	0x3f8475fa54f18d09	0.009990649907371212
78	0x3fdc833fc7982e63	0.4455108117260577
79	0x3fd95e5768e7e02c	0.3963831448049884
80	0x3fdd52023cf10118	0.4581304164057811
81	0x3fd9b3d4c694b9b5	0.4016010226504492
82	0x3fd7ca5b67ac3087	0.3717258942058454
83	0x3fdf9d01fc201cc7	0.4939579927599422
84	0x3fde778e06d9303c	0.4760470454100447
85	0x3fde2c286e8197c1	0.4714451865351031
86	0x3fd609dedcec98fd	0.34435245108251405
87	0x3fe1bb5e44df3d5b	0.5541220994145236
88	0x3fdc46aea06d104a	0.4418140951786468
89	0x3fd5b926b002f1f1	0.33942572773574314
90	0x3fb49ff624622347	0.08056581867471123
91	0x3fb4ce1721e1b41d	0.08126968934239227
92	0x3fb4d1bff332df42	0.08132552802532891
93	0x3fb4ec4b904945c0	0.08173057816136176
94	0x3fb51ab9ae9d6ff8	0.0824390460306289
95	0x3fb526a75724e73c	0.0826210582498818
96	0x3fb535e0f6bba2df	0.08285337470773467
97	0x3fb539f4baa9751a	0.08291558797050805
98	0x3fb544c08b13c664	0.08308032412949157
99	0x3fb513c7ca826c5c	0.0823330754669071
100	0x3fb4dee40c571671	0.08152604390405728
101	0x3fb556a7edd99b2f	0.08335351521382671
102	0x3fb51aa5aa118f02	0.08243785287919184
103	0x3fb525c4dfd81427	0.08260755982344446
104	0x3fb56d98ec193442	0.08370357288477329
105	0x3fb3aeaebee5e0fa	0.07688419495196178
106	0x3fb3bc7c2702f419	0.07709480240278345
107	0x3fb3a61567194f15	0.0767529846864899
108	0x3fb52cb42540799b	0.08271337422818308
109	0x3fb4e8e3bc538b33	0.08167861316500762
110	0x3fb50bc60c8fe13f	0.08221090132417873
111	0x3fb65296f5b7a122	0.08719771861035899
112	0x3fb6059bf438d0a6	0.08602308952760271
113	0x3fb619ff99384e13	0.08633420458527778
114	0x3fb69122118b31bb	0.08815205505670225
115	0x3fb4a7233a679106	0.08067531753437515
116	0x3fb4aeaf4a455e90	0.08079047740226941
117	0x3fb4740bd9ea0022	0.07989572591941443
118	0x3fb64736160c3366	0.08702409780762607
119	0x3fb5eb2d63fbec26	0.08561977091805825
120	0x3fb5dce1b487d1f3	0.085401636671868
121	0x3fb746e5c9c49189	0.09092556167576595
122	0x3fb6ee0837f48254	0.08956958166209833
123	0x3fb6ee3c99b7d5ea	0.08957270386584751
124	0x3fb666bcc0787ff8	0.08750514697067036
125	0x3fb5f3e3da45ce84	0.08575271681712066
126	0x3fb5c53ac875bdca	0.08504073518792335
127	0x3fb5c7ccf1b49629	0.08507996464739932
128	0x3fb66eb065e3d622	0.08762648093746653
129	0x3fb71ee82f3491d9	0.09031535294031502
130	0x3fb6e1b93344098e	0.08938176633458836
131	0x3fb83510bd66bc95	0.094559713593059
132	0x3fb7c6f68dbb0756	0.09287968597621207
133	0x3fb7e6737892b9bd	0.09336015409164751
134	0x3fb756272d93e382	0.0911583410524042
135	0x3fb702d303a8f973	0.08988684501034587
136	0x3fb6e90171b755b6	0.08949288393281205
137	0x3fb70d943ed3064d	0.09005095037266493
138	0x3fb7d985ba56a2f4	0.09316287802961282
139	0x3fb896808c355523	0.09604648039870205
140	0x3fb7f1a2447d916f	0.0935307900632034
141	0x3fb8fd496b822274	0.09761484980311669
142	0x3fb86e8f3bf04c7f	0.09543700421663635
143	0x3fb8ca8bb39a7b69	0.09684060225343462
144	0x3fb859dc78c472db	0.09512117336675933
145	0x3fb7d4d4f65fbe24	0.09309130682935823
146	0x3fb828558942b4ea	0.09436544991577347
147	0x3fb8265297655a73	0.09433475681485408
148	0x3fb96549e6a01d26	0.09920179253105185
149	0x3fba101d70f5cbdb	0.10180839546028102
150	0x3fb8eb94eb236134	0.09734469166449317
151	0x3fb9676bca503771	0.09923433007517503
152	0x3fb94d436c78e356	0.09883519552466899
153	0x3fb92f8cfae1cec7	0.0983818161492379
154	0x3fb9222cb821ad62	0.09817771430396285
155	0x3fb8fba6743a3de3	0.09758987748704544
156	0x3fb9bd8d8b06dce2	0.100548597757427
157	0x3fb99a4383fa7f5b	0.1000101277554654
158	0x3fbb65294810a640	0.10701234826469719
159	0x3fbbf5e760b7867f	0.10922094451191276
160	0x3fba258873aeb43e	0.1021352083614184
161	0x3fb402b00bc5e9af	0.07816601073674322
162	0x3fb46e9622466100	0.07981241547384244
163	0x3fb4a2b392360aa5	0.0806076271019643
164	0x3fb4dee1da7ce04f	0.08152591308760403
165	0x3fb5045da50c7409	0.08209786681659649
166	0x3fb4d7f2c5110d69	0.081420109855619
167	0x3fb49ded7706aca4	0.08053478389654117
168	0x3fb47d672e4bccc6	0.08003849869037358
169	0x3fb46d59f967a441	0.07979357089028928
170	0x3fb442ad5ff5818a	0.0791424140238687
171	0x3fb43f327c8979dc	0.07908931293920979
172	0x3fb5357c50aa62df	0.0828473755776815
173	0x3fb543a49c344f1d	0.08306340039808587
174	0x3fb519e695f3e654	0.08242646370845225
175	0x3fb54f782f49ab0e	0.08324385790335162
176	0x3fb4110f69dc7c59	0.07838531813148232
177	0x3fb3becd7bdb2167	0.07713016771152113
178	0x3fb3929260a21253	0.07645525798040724
179	0x3fb4eb7c7bb8eac6	0.08171823521198993
180	0x3fb4ade93e3e53e9	0.08077867288223185
181	0x3fb4bc533315d57b	0.08099861142348701
182	0x3fb68138eab379f7	0.0879092762947734
183	0x3fb64fdb391d0db5	0.08715601105091404
184	0x3fb66280cbdcc7e5	0.08744053818807591
185	0x3fb69e30125535c2	0.08835125396327384
186	0x3fb4fbdedef9db16	0.08196824020147306
187	0x3fb4ab034bc86827	0.08073444938818906
188	0x3fb49cab06cccc20	0.08051556507125257
189	0x3fb6077e841c0c26	0.08605185246783317
190	0x3fb5be53c35f5e2a	0.0849354125961034
191	0x3fb5f3cb0ab709a3	0.08575123797985511
192	0x3fb7c2b670a699f6	0.09281482935202931
193	0x3fb78465b3bbfe2d	0.09186397207303605
194	0x3fb785553bfb756b	0.0918782493058267
195	0x3fb72312b2fd1ffe	0.09037892217486385
196	0x3fb63b3f5e1d15c1	0.08684154555984148
197	0x3fb5e47b93a5ab61	0.08551761965433748
198	0x3fb5ed61bfe83d73	0.08565340934022973
199	0x3fb61bff996002db	0.08636472219951534
200	0x3fb6871ab3ac21be	0.08799902807743984
201	0x3fb738ffa8260872	0.09071348052205666
202	0x3fb8ce0c051e51de	0.09689402699434121
203	0x3fb88d97d3826417	0.0959105388050293
204	0x3fb8dfd7ec7db104	0.09716558002191183
205	0x3fb87620c3b611e1	0.09555249002557488
206	0x3fb77e59a33c8bdf	0.09177170024172153
207	0x3fb71240fd686c6a	0.09012228190151608
208	0x3fb71b74532d167b	0.090262670809432
209	0x3fb6e763e1ad544b	0.08946823367780714
210	0x3fb766b0ceeebcde	0.09141068508209879
211	0x3fb839ab671bfc80	0.0946299673778288
212	0x3fb9a4d0ffcb8ff5	0.10017114872931628
213	0x3fb93bfd92ec9349	0.09857163273825366
214	0x3fba44f72f072040	0.10261483095303081
215	0x3fba045a4f26465f	0.10162891800271144
216	0x3fb87891c402030f	0.09558974299762844
217	0x3fb8344dbb2f5c12	0.09454809017130142
218	0x3fb7f53402a522fc	0.09358525337769302
219	0x3fb7d186a99e96b7	0.09304086342907679
220	0x3fb837af82d6fed2	0.09459969467479404
221	0x3fb8f84162fa2643	0.09753807703432309
222	0x3fba377e1c07f5ee	0.1024092501101774
223	0x3fba0d5c6b5b8948	0.10176637288126245
224	0x3fbbfad2a08884f4	0.10929600161809444
225	0x3fbbffe87234c913	0.10937359607922685
226	0x3fb9b7c90da584da	0.10046059210937433
227	0x3fb9d72e462a1c5e	0.10093964779854178
228	0x3fb8f7311b7e1f3e	0.0975218479271662
229	0x3fb8900843ca510e	0.09594775824581722
230	0x3fb8ddb694f88bfc	0.09713307511314889
231	0x3fb9b4fb65301599	0.10041781635671611
232	0x3fb44dc854de806c	0.07931186744690571
233	0x3fb4f60bb6701e02	0.08187936023761469
234	0x3fb51affe6e20824	0.08244323145666549
235	0x3fb53128e83c722b	0.08278136892153813
236	0x3fb55c4375b6a492	0.08343907951224797
237	0x3fb59c8de032ba69	0.0844200775488645
238	0x3fb5ab6a93461962	0.08464685531189312
239	0x3fb59e87bc66513a	0.08445022916413772
240	0x3fb5bb42681d06b6	0.0848886017020288
241	0x3fb59b5ef6059888	0.0844020224227241
242	0x3fb5344362fe9d84	0.08282872359142429
243	0x3fb56df0255c19b1	0.0837087718210572
244	0x3fb550a7af85ff7a	0.08326194796791056
245	0x3fb5b2ca5a4a08a9	0.08475937561346093
246	0x3fb61d5159383820	0.08638485363209769
247	0x3fb5d28428212f29	0.08524347285964197
248	0x3fb5d0aea1347181	0.08521548686662152
249	0x3fb5b3df588911b3	0.08477588569173271
250	0x3fb63bbb605ef21f	0.08684893706135498
251	0x3fb5fc593d42158e	0.0858817839199075
252	0x3fb5b172d3c623b2	0.08473889990103947
253	0x3fb68fe3ae58cd35	0.08813307768359809
254	0x3fb679fd7ac1bd51	0.08779892203323426
255	0x3fb6fb821eb3d013	0.08977521180696639

count f8 []
0	0x420dcd6500080000	16000000001.0

running_mean f8 [1]
0	0x4072ee6c46fc5c37	302.9014348848172

running_var f8 [1]
0	0x40bfd4fce846a854	8148.98791925058

count f8 []
0	0x41edcd6500200000	4000000001.0

a2c_network.sigma f4 [15]
0	0xc01f228e	-2.486484
1	0xc00b57eb	-2.177241
2	0xbfdf0997	-1.7424802
3	0xbfbe67a8	-1.4875383
4	0xbfb4fb6a	-1.4139225
5	0xbfd97e87	-1.6991738
6	0xbfa3eaf8	-1.2806082
7	0xbfc7a80c	-1.5598159
8	0xbfc261f8	-1.5186148
9	0xbfadd88e	-1.3581712
10	0xbfb62fd8	-1.4233351
11	0xc002959a	-2.040381
12	0xbfb56cef	-1.4173869
13	0xbfc0fd94	-1.5077386
14	0xc001f986	-2.0308547

a2c_network.actor_mlp.0.weight f4 [128, 376]
0	0xbe75d36e	-0.24006435
1	0xbdefe758	-0.11714047
2	0x3ea0462e	0.31303543
3	0xbca02db0	-0.019553035
4	0x3c9bb15a	0.019005466
5	0x3d9370f4	0.071992785
6	0xbcc40109	-0.023926275
7	0x3dec89f8	0.11549753
8	0xbda61bb3	-0.08110752
9	0xbd07d993	-0.03316648
10	0x3ea01913	0.3126913
11	0xbeeb5aca	-0.45967704
12	0x3e9ac687	0.3022959
13	0x3e8037cd	0.25042573
14	0x3c34adf5	0.011027803
15	0x3d5edb01	0.054408077
16	0x3de2c4c6	0.11072688
17	0x3f1c89a3	0.61147517
18	0xbf254ce5	-0.64570457
19	0xbe297050	-0.1654675
20	0xbd884d5d	-0.06655381
21	0x3e23c1df	0.15991925
22	0xbe176830	-0.14785838
23	0xbe0822a4	-0.13294464
24	0x3dcbf74f	0.0995928
25	0x3e8b6f1a	0.272332
26	0xbe90b593	-0.2826353
27	0x3d3b3c50	0.045711815
28	0x3e8bb7bb	0.27288613
29	0x3e2bae6f	0.1676576
30	0x3e5fcc95	0.21855386
31	0xbe8c2394	-0.27370894
32	0x3e121d53	0.14268999
33	0xbe07ad57	-0.13249718
34	0xbe435e6f	-0.19078992
35	0x3e1d1643	0.15340523
36	0x3f6f9392	0.9358455
37	0xbeab4eeb	-0.33458647
38	0xbf38d6b8	-0.72202635
39	0xbf07ba84	-0.53018975
40	0x3d71997d	0.05898427
41	0x3f43f829	0.7655054
42	0x400a55f7	2.1614969
43	0x40169bd8	2.353262
44	0xbee6a839	-0.4505022
45	0xbc27d73e	-0.010244189
46	0x3d516dc7	0.051130082
47	0x3f043f48	0.5165906
48	0x3e5ada16	0.21372256
49	0x3c0555d6	0.008138141
50	0x3df79ed7	0.12090843
51	0xbe674183	-0.22583584
52	0xbc59f637	-0.013303331
53	0x3ae0976c	0.0017134971
54	0x3e089119	0.133366
55	0x3dfe9856	0.124313995
56	0xbe67eede	-0.22649714
57	0xbda4767c	-0.080304116
58	0x3d46ef47	0.048568036
59	0xbe8c8ee1	-0.27452758
60	0x3e9f08a6	0.31061286
61	0xbef752a2	-0.4830523
62	0xbec827aa	-0.3909276
63	0xbdd53f2b	-0.10412439
64	0xbde04d63	-0.1095226
65	0x3e3b7db4	0.1830967
66	0xbd0526a0	-0.03250754
67	0xbe0f9a47	-0.14023696
68	0xbe12ec5d	-0.14347978
69	0x3e46ef19	0.19427146
70	0xbd3c31d2	-0.04594595
71	0x3dabb585	0.083842315
72	0xbdda5e7e	-0.10662554
73	0xbdde1b89	-0.10845096
74	0x3e5b0b7b	0.21391098
75	0xbe14620a	-0.14490524
76	0xbd8e921b	-0.06961461
77	0xbe282eb8	-0.16424072
78	0xbdb6ea93	-0.0893146
79	0x3e193f5e	0.14965579
80	0x3d784221	0.06060994
81	0x3d6b3e16	0.057432257
82	0xbd9c73da	-0.076392844
83	0xbe251e26	-0.16124782
84	0xbe341fdf	-0.17590283
85	0x3c9f0d9b	0.019415667
86	0xbe95441c	-0.29153526
87	0xbe372e55	-0.17888768
88	0xbec38c0b	-0.38192782
89	0xbcce3b3d	-0.025174731
90	0xbdc20a80	-0.09474659
91	0xbd771f5a	-0.060332634
92	0xbdf79260	-0.12088466
93	0x3e0894b5	0.13337977
94	0xbc82a9cb	-0.015950104
95	0xbdcb8eec	-0.099393696
96	0xbe0b09b1	-0.13577916
97	0xbe142232	-0.1446617
98	0x3d34dabc	0.044153914
99	0xbc58670a	-0.01320816
100	0x3d1051e1	0.035234336
101	0x3cec9a3e	0.028882142
102	0xbe5cf34c	-0.21577185
103	0xbc11d1dd	-0.008900133
104	0xbe8822fc	-0.2658919
105	0x3dec2305	0.11530117
106	0xbd4c84ae	-0.04993122
107	0x3ded981f	0.116012804
108	0xbe4a34e5	-0.1974674
109	0x3db3600f	0.08758556
110	0x3d7479af	0.05968636
111	0x3e25a545	0.16176327
112	0xbd8b747f	-0.06809329
113	0x3d98e8b8	0.074662626
114	0x3c89ed2f	0.01683673
115	0x3e6f9986	0.23398408
116	0x3d4e14d8	0.050312847
117	0xbe01c365	-0.12672193
118	0x3d4ce87f	0.050026413
119	0x3cbb6696	0.022876065
120	0xbdb35df4	-0.087581545
121	0x3d988bc2	0.07448532
122	0xbc1a47aa	-0.0094165
123	0xbcedae19	-0.02901368
124	0xbd501d1c	-0.05080901
125	0xbd37907c	-0.044815525
126	0x3dc9c83b	0.09852644
127	0xbb8f0ed3	-0.004365781
128	0x3da74038	0.08166546
129	0xbd393463	-0.045215975
130	0x3e1ac2d7	0.15113388
131	0xbb5545cb	-0.003254282
132	0xba961226	-0.00114495
133	0xbe57b501	-0.21065141
134	0xbd6ef4b9	-0.058338854
135	0xbbe3122e	-0.0069296574
136	0x3d5afe59	0.05346522
137	0x3e21b72d	0.15792532
138	0x3e6d96dc	0.2320208
139	0xbd40d58d	-0.047078658
140	0x3d9f1dfe	0.077693924
141	0x3d7a678e	0.061133914
142	0xbcd82fd5	-0.026389996
143	0x3dbae70a	0.091260985
144	0x3e253b0c	0.16135806
145	0xbe19ccb9	-0.15019502
146	0x3de6e5d7	0.11274307
147	0x3cd58126	0.02606256
148	0xbd430a59	-0.04761729
149	0xbbc225a6	-0.005924898
150	0xbda5f821	-0.081039675
151	0x3dbfb366	0.093603894
152	0x3d62f42e	0.05540865
153	0x3c3d1226	0.011539971
154	0x3d8bfdfb	0.06835552
155	0x3dadfb54	0.08495203
156	0xbe1907d1	-0.14944388
157	0x3e066da9	0.1312777
158	0xbdf159bc	-0.117846936
159	0x3e50d127	0.20392285
160	0xbe45a7c0	-0.19302273
161	0xbd95d934	-0.07316819
162	0x3d41c4b4	0.04730673
163	0x3e37edc6	0.17961797
164	0x3e317649	0.17330278
165	0x3e0fb38e	0.14033338
166	0x3ceaabab	0.02864631
167	0x3e11051c	0.14162105
168	0xbe256e71	-0.16155411
169	0x3c80eb71	0.015737267
170	0x3ceffc96	0.029295247
171	0x3e3e038c	0.1855604
172	0xbd7561de	-0.059907787
173	0xbd027132	-0.031846233
174	0xbd84e0bc	-0.06488177
175	0xbd65cd75	-0.056104142
176	0x3e4e2fd7	0.20135437
177	0xbe421534	-0.18953401
178	0xbda1b053	-0.07894959
179	0x3d43c853	0.047798466
180	0x3d740588	0.059575588
181	0xbdcb8f93	-0.09939494
182	0xbdb6d5e4	-0.08927515
183	0x3e218076	0.1577166
184	0xbd6d80ca	-0.05798415
185	0xbcceb30d	-0.025231862
186	0x3d018914	0.03162487
187	0xbd98bb9c	-0.07457659
188	0xbda24963	-0.07924154
189	0x3dcf3ad3	0.10118642
190	0x3e199ac5	0.15000446
191	0x3cfb5b83	0.030683285
192	0xbb4390bb	-0.0029840905
193	0x3de3220b	0.110904776
194	0x3dd99f80	0.10626125
195	0x3dbb4a05	0.091449775
196	0x3dc5e270	0.0966233
197	0xbdff20bb	-0.12457415
198	0xbd04b669	-0.032400522
199	0xbcfaaac3	-0.030599004
200	0x3da0b908	0.07847792
201	0x3d11eff3	0.035629224
202	0x3d3ea482	0.046543606
203	0xbdac6e88	-0.0841952
204	0xbd9e7e9f	-0.07738995
205	0x3e12c8e7	0.1433445
206	0xbd915011	-0.070953496
207	0x3c08d2b7	0.00835102
208	0x3d5d6c9c	0.054058656
209	0x3c91b2ca	0.017785449
210	0xbdfdcea9	-0.12392933
211	0x3d4f17b1	0.050559703
212	0xbe519a6d	-0.20469065
213	0x3ddf5b11	0.109060414
214	0xbe0764ab	-0.13221996
215	0x3dbb965d	0.09159539
216	0xbdbe0d58	-0.09279889
217	0xbd41c7f4	-0.04730983
218	0xbce3f66d	-0.027827466
219	0xbcf32e6f	-0.029685227
220	0x3d3571e5	0.04429807
221	0x3e327c3d	0.17430206
222	0x3d6c2875	0.05765577
223	0x3dff3f79	0.12463278
224	0x3d689cad	0.056790043
225	0x3c975d31	0.018477054
226	0xbd1dd831	-0.038536254
227	0xbe20b84b	-0.15695302
228	0xbd18f4f2	-0.037342973
229	0x3c662adf	0.014048307
230	0x3daaea05	0.08345417
231	0x3cb71ef1	0.022353621
232	0xbdf3f3f7	-0.11911767
233	0x3d750ae5	0.059824843
234	0x3e397372	0.18110445
235	0xbe6775cb	-0.22603528
236	0xbde688bf	-0.11256551
237	0x3e15a9d5	0.14615567
238	0x3dfa91b2	0.122348204
239	0x3dfa6b3b	0.12227484
240	0x3e7778c9	0.2416717
241	0x3e179de4	0.14806324
242	0x3db4626e	0.088078365
243	0xbd090219	-0.033449266
244	0x3de95f37	0.11395114
245	0x3dcca2ae	0.09991966
246	0x3dc65a43	0.09685185
247	0xbd5f4c54	-0.05451615
248	0xbc707687	-0.014676697
249	0xbd70fdeb	-0.058835905
250	0x3ce8a796	0.028400224
251	0xbe183970	-0.1486566
252	0xbd65a4ef	-0.056065496
253	0x3d9ff764	0.07810858
254	0x3dc2933e	0.095007405
255	0xbc4b3b31	-0.012404249

a2c_network.actor_mlp.0.bias f4 [128]
0	0xbeb59c27	-0.35470697
1	0xbe97031a	-0.29494554
2	0xbf017f3c	-0.5058477
3	0xbf15b938	-0.58485746
4	0xbe3dd4c8	-0.18538201
5	0xbc144f61	-0.0090521285
6	0xbf0174b6	-0.5056871
7	0xbeb57e36	-0.35447854
8	0xbea685f2	-0.32524067
9	0xbcbfb8a2	-0.02340347
10	0xbe00a622	-0.12563375
11	0xbdd1e786	-0.10249238
12	0xbea60dff	-0.32432553
13	0xbe7da4a6	-0.2476984
14	0xbd3b19b3	-0.045678806
15	0xbf1b781f	-0.60730165
16	0xbd807d39	-0.06273884
17	0xbe21c0cc	-0.15796202
18	0xbef910bf	-0.4864559
19	0xbf3885c8	-0.72079134
20	0xbe715d7c	-0.23570818
21	0xbf054fb5	-0.5207475
22	0xbf2937b7	-0.6610064
23	0xbf1d5f26	-0.6147331
24	0xbcb8107d	-0.0224688
25	0xbe11f308	-0.14252865
26	0xbec6b797	-0.38811943
27	0xbea81626	-0.32829398
28	0xbd804942	-0.06263973
29	0xbf2f3b37	-0.6844973
30	0xbf08d9d3	-0.53457373
31	0xbed83c72	-0.42233616
32	0xbeee261e	-0.46513456
33	0xbe70624d	-0.23474999
34	0xbe4c89d4	-0.19974452
35	0xbeb88df7	-0.3604581
36	0xbd972b4d	-0.07381306
37	0xbe994a9a	-0.2993973
38	0xbeaec45d	-0.34134188
39	0xbf130f43	-0.5744516
40	0x3cbf38fd	0.023342604
41	0xbf167eff	-0.5878753
42	0xbee4a168	-0.44654393
43	0xbd81d8f1	-0.063402064
44	0xbe87fe0c	-0.2656101
45	0x3d81678d	0.06318579
46	0xbed75dcd	-0.42063752
47	0xbedd70f6	-0.43250245
48	0xbf0a4f40	-0.54027176
49	0xbdc7bb5c	-0.09752533
50	0xbe81c8ea	-0.25348598
51	0xbde0d15e	-0.109774336
52	0xbe1b6183	-0.15173917
53	0xbeed2277	-0.46315357
54	0xbe7cc2e2	-0.24683717
55	0xbf35fa8c	-0.7108543
56	0xbeac3c3c	-0.33639705
57	0xbef8be35	-0.48582616
58	0xbf0a6f9c	-0.5407655
59	0xbeb257a2	-0.34832484
60	0xbe73b432	-0.23799208
61	0xbd7d3535	-0.06181832
62	0xbea7d8cd	-0.32782593
63	0xbf105076	-0.56372774
64	0xbef0b2b9	-0.47011355
65	0xbeb9d666	-0.36296386
66	0xbe07ae61	-0.13250114
67	0xbe8c9471	-0.27457002
68	0xbf00660c	-0.5015571
69	0xbd59f7fb	-0.05321501
70	0xbd5c07c7	-0.053718355
71	0xbf29296b	-0.66078824
72	0x3d449123	0.047989976
73	0xbf0552d3	-0.52079505
74	0xbed4d266	-0.4156677
75	0xbebb21f6	-0.36549348
76	0xbf61026b	-0.87894315
77	0xbe0fb673	-0.14034443
78	0xbd220cff	-0.039563175
79	0xbee28006	-0.442383
80	0xbf5afdce	-0.85543525
81	0xbef81039	-0.48449877
82	0xbebc0421	-0.367219
83	0xbe0b85fd	-0.13625331
84	0xbeb63ea9	-0.3559468
85	0xbea3fea9	-0.32030228
86	0xbf23d298	-0.63993216
87	0xbdd7d904	-0.10539439
88	0xbe44d39e	-0.1922135
89	0xbf677340	-0.9041023
90	0xbe84bee6	-0.25926894
91	0xbec07a34	-0.37593234
92	0xbe4e8776	-0.20168862
93	0xbf16deb5	-0.58933574
94	0xbe088b89	-0.13334478
95	0xbe1a12ad	-0.15046187
96	0xbe8426ec	-0.25810945
97	0xbebc3024	-0.36755478
98	0xbef7b731	-0.4838195
99	0xbf2f1327	-0.683886
100	0xbf2b31e6	-0.66873014
101	0xbd38a7a3	-0.045081746
102	0xbeb34309	-0.3501208
103	0xbedd3899	-0.43207243
104	0xbe7bd0e3	-0.24591403
105	0xbee64538	-0.44974685
106	0xbec7f78e	-0.39056057
107	0xbe693e6e	-0.22777721
108	0xbed69747	-0.4191229
109	0xbdcec2df	-0.100957625
110	0xbf5a80dd	-0.8535288
111	0xbf0b5711	-0.5442973
112	0xbecf440d	-0.40481606
113	0xbe4fcfa6	-0.20294055
114	0xbf325856	-0.6966604
115	0xbe8b60c6	-0.2722227
116	0xbf19e73c	-0.6011846
117	0xbeca937a	-0.3956564
118	0x3c38ea5d	0.011286345
119	0xbde09968	-0.1096676
120	0xbedf7a0f	-0.4364781
121	0xbe927b1f	-0.2860956
122	0xbeb8e0bf	-0.36108968
123	0x3c67618b	0.014122377
124	0xbd3297f2	-0.043601938
125	0xbee36030	-0.44409323
126	0xbe88d15e	-0.26722234
127	0xbee5a944	-0.44855702

a2c_network.actor_mlp.2.weight f4 [128, 128]
0	0x3e6b4712	0.2297633
1	0x3e2a694e	0.16641733
2	0x3d1f4992	0.03888852
3	0xbbdaca51	-0.00667695
4	0x3b8f807e	0.004379331
5	0xbcf962cb	-0.030442616
6	0x3b81a040	0.003955871
7	0x3cfe8404	0.03106881
8	0xbe2d4332	-0.16920164
9	0xbce20d43	-0.027594214
10	0x3e8ff1fa	0.281143
11	0xbbe2f865	-0.0069265836
12	0xbed46bf5	-0.41488615
13	0xbd5dcb7e	-0.054149143
14	0xbe0598c1	-0.13046552
15	0xbba0568e	-0.0048931306
16	0xbe036e0b	-0.12834947
17	0xbb971e18	-0.0046117418
18	0xbdc9e136	-0.09857409
19	0xbe0e6fd5	-0.13909848
20	0x3db99f2f	0.09063565
21	0x3dcca284	0.09991935
22	0xbe3c4c22	-0.18388417
23	0xbc8143be	-0.015779372
24	0x3da20066	0.07910232
25	0xbe121ac2	-0.1426802
26	0xbe477011	-0.19476344
27	0xbdd1000b	-0.10205086
28	0xbe7a21b5	-0.2442692
29	0x3dd21b1d	0.10259078
30	0x3ddaa25e	0.106755
31	0xbea891a4	-0.32923615
32	0xbe73c1fd	-0.2380447
33	0xbda4692d	-0.08027873
34	0xbd838533	-0.0642189
35	0xbeb425af	-0.35185
36	0xbd082711	-0.03324038
37	0x3d2092dc	0.039202556
38	0x3d46fbc1	0.048579935
39	0x3d5bbf65	0.053649325
40	0x3e53accd	0.20671387
41	0x3cde6ae0	0.027150571
42	0x3e23128c	0.15925044
43	0x3bbf78fb	0.0058432794
44	0x3d6c9978	0.057763547
45	0xbcb43ced	-0.022001708
46	0x3d7c8295	0.06164797
47	0xbba6bd6c	-0.005088499
48	0xbdaddf6b	-0.08489879
49	0xbe0a46d6	-0.13503584
50	0xbe9cca48	-0.30623078
51	0x3e5ef899	0.2177452
52	0x3d88140d	0.066444494
53	0x3d92d591	0.07169641
54	0xbd783a4c	-0.06060247
55	0x3e0e3f23	0.13891272
56	0xbe19b5a2	-0.15010694
57	0xbe9f8c25	-0.3116161
58	0xbe92059e	-0.2851991
59	0xbc11901a	-0.008884454
60	0x3e2b71f5	0.1674269
61	0x3e1e5890	0.15463471
62	0xbe8d6bed	-0.27621403
63	0x3da3e062	0.08001782
64	0x3d41d675	0.047323663
65	0x3d9c43fb	0.07630154
66	0xbee52607	-0.44755575
67	0x3d2f990e	0.042870574
68	0xbe2e44bc	-0.17018408
69	0x3e1f8e14	0.15581542
70	0xbddfa943	-0.10920956
71	0xbdb91b77	-0.09038442
72	0x3d562cc4	0.052288786
73	0x3d11e956	0.035622917
74	0xbe1d8799	-0.15383758
75	0x3d53a7d4	0.051673725
76	0x3de945ce	0.11390267
77	0xbcfe16fd	-0.031016821
78	0x3d38b564	0.045094863
79	0xbe616ec5	-0.22014911
80	0x3d234d0f	0.03986841
81	0xbd086a7b	-0.033304673
82	0x3bd8d21f	0.0066168453
83	0xbdc4ee29	-0.09615738
84	0xbe204c9e	-0.15654227
85	0x3ddee614	0.10883728
86	0x3dfe9f9b	0.12432786
87	0xbe5d0b23	-0.2158628
88	0xbe56cd32	-0.20976713
89	0x3d04f8eb	0.03246395
90	0xbe2ec57e	-0.17067525
91	0xbe9677fd	-0.2938842
92	0xbdf4ee4c	-0.11959514
93	0x3d99dc46	0.07512717
94	0xbe9322ee	-0.28737587
95	0xbe7f68c0	-0.24942303
96	0xbe12fe31	-0.14354779
97	0x3bfe532b	0.0077613792
98	0x3d81f69b	0.063458644
99	0x3e21c3c5	0.15797336
100	0xbd81c6da	-0.06336756
101	0xbe197045	-0.14984234
102	0xbdcc38cc	-0.09971771
103	0xbe498647	-0.19680129
104	0xbd4c5e1c	-0.049894437
105	0xbe8182bf	-0.25295064
106	0xbe414113	-0.1887248
107	0xba40a2e2	-0.000734849
108	0x3d8ae86a	0.06782611
109	0xbd263a95	-0.040583212
110	0x3db3cba1	0.087790735
111	0x3de8da64	0.1136978
112	0xbe745955	-0.23862202
113	0x3dfae938	0.12251514
114	0xbd40446b	-0.04694025
115	0x3e1bc027	0.15210019
116	0x3d61bfb5	0.055114467
117	0xba4abbbe	-0.0007733664
118	0xbe177904	-0.14792258
119	0xbdb27813	-0.087143086
120	0xbe43277f	-0.19058035
121	0xbe289ec4	-0.16466814
122	0xbe19f185	-0.15033539
123	0x3d815d34	0.06316605
124	0xbc8bf660	-0.017085254
125	0xbd53e14c	-0.05172853
126	0x3d2f0afc	0.042735085
127	0x3da9c609	0.08289725
128	0x3da5273d	0.08064125
129	0x39dc6937	0.0004204006
130	0x3e1c49b0	0.15262485
131	0xbd6fe5a6	-0.05856862
132	0x3d811853	0.063034676
133	0xbd245a5c	-0.040125236
134	0xbd0e48e9	-0.0347375
135	0x3d441650	0.04787284
136	0xbe46de48	-0.19420731
137	0x3c5fbbf1	0.013655649
138	0x3e060976	0.13089547
139	0xbd0642f5	-0.0327787
140	0xbdf72ed9	-0.12069482
141	0x3cd0b1a0	0.025475323
142	0xbe644b4d	-0.2229435
143	0xbd1a35bb	-0.037648898
144	0x3cd253c9	0.025674718
145	0xbea4130d	-0.32045785
146	0xbe4a58da	-0.19760457
147	0xbe372a6e	-0.1788728
148	0xbe5fee97	-0.21868359
149	0xbb86eb92	-0.0041174376
150	0x3c22ff52	0.009948568
151	0x3d806e32	0.06271018
152	0xbdb479e5	-0.08812312
153	0x3e7a3552	0.24434403
154	0xbd962d4b	-0.07332858
155	0x3dbc6625	0.0919917
156	0xbd10dd3b	-0.03536723
157	0xbda4c7fb	-0.08045956
158	0xbdbf0d36	-0.09328692
159	0xbe3a4618	-0.18190801
160	0x3ce9f31b	0.028558305
161	0xbb6e62e4	-0.0036374861
162	0xbd530fa7	-0.0515286
163	0xbd591668	-0.052999884
164	0xbded983d	-0.11601303
165	0xbe394420	-0.18092394
166	0x3da59259	0.08084554
167	0xbd338fd1	-0.043838326
168	0xbe459497	-0.19294964
169	0x3b9b35bd	0.0047366307
170	0xbe5e45f5	-0.21706374
171	0xbec5b60f	-0.38615462
172	0xbd0447b2	-0.032294936
173	0xbdce206f	-0.1006478
174	0x3dd9ed15	0.10640923
175	0xbd9cc992	-0.07655634
176	0xbcdbaf94	-0.02681712
177	0xbc6c639d	-0.0144280465
178	0xbe4413cb	-0.19148175
179	0x3d3d332d	0.046191383
180	0x3dcf54be	0.10123585
181	0xbe1a3925	-0.15060861
182	0x3d84d255	0.0648543
183	0x3d8bbb44	0.068228275
184	0xbe2c7c5a	-0.16844311
185	0xbdb0f3bf	-0.08640241
186	0x3d21e6e4	0.039526835
187	0x3d0109d3	0.03150351
188	0xbd70c1ba	-0.058778502
189	0x3cb15c4a	0.021650452
190	0xbb6dc243	-0.003627912
191	0xbc75c5c3	-0.015000763
192	0x3da81e43	0.08208897
193	0x3cda9f3c	0.026687257
194	0xbe00e538	-0.1258744
195	0xbaa0c8af	-0.001226684
196	0x3e3fd5b6	0.18733868
197	0xbdcd83ee	-0.10034929
198	0x3bc5af2c	0.006032845
199	0x3ca94698	0.020663545
200	0xbf2daf00	-0.67845154
201	0x3da2d40a	0.079505995
202	0xbdd85a26	-0.105640694
203	0xbc95191a	-0.018200446
204	0xbd0617c0	-0.032737494
205	0x3ab1d5a2	0.0013567696
206	0xbe007e96	-0.12548289
207	0x3e850b93	0.25985393
208	0xbb9ff457	-0.0048814225
209	0x3d06f197	0.03294524
210	0xbc8faadc	-0.017537527
211	0x3ceb0a6d	0.028691495
212	0x3d997f45	0.07494978
213	0xbdc7a2b3	-0.09747829
214	0xbe352d12	-0.17692974
215	0xbd9bf097	-0.07614248
216	0xbe0077ad	-0.12545653
217	0xbe05f356	-0.13081107
218	0xbd287656	-0.04112848
219	0x3cdde8ea	0.027088601
220	0x3b59458c	0.0033153025
221	0xbc17726c	-0.009243589
222	0xbeebff8f	-0.46093413
223	0xbe708001	-0.2348633
224	0xbdcea1a5	-0.10089425
225	0xbe826d68	-0.25474095
226	0xbd6e77fb	-0.05821989
227	0xbc07dd3a	-0.008292491
228	0xbd363a29	-0.04448906
229	0xbe26539c	-0.16242832
230	0xbe82b941	-0.25531963
231	0x3e34e300	0.17664719
232	0xbe201e68	-0.15636599
233	0xbdf9b21e	-0.12192176
234	0x3d6ca38a	0.05777315
235	0xbe087956	-0.13327536
236	0x3d6bd420	0.057575345
237	0x3dfa8a21	0.12233377
238	0x3e7c2568	0.24623644
239	0xbd839ca0	-0.06426358
240	0x3d4c44c4	0.049870268
241	0x3c77c1ec	0.015121918
242	0xbd5c3526	-0.053761624
243	0x3dbdf85b	0.09275886
244	0x3d510868	0.051033407
245	0x3c29a4fd	0.010354278
246	0xbdc99ae3	-0.098439954
247	0x3cef845e	0.029237922
248	0x3da01bec	0.07817826
249	0xbd63b69b	-0.055594068
250	0x3e542468	0.20717013
251	0x3e1dfdea	0.15428892
252	0xbe905bb3	-0.2819496
253	0x3c8a7174	0.016899802
254	0x3e142727	0.1446806
255	0xbe6b3364	-0.22968823

a2c_network.actor_mlp.2.bias f4 [128]
0	0x3d339458	0.043842643
1	0xbe41a7fe	-0.1891174
2	0xbdb2b1f6	-0.087253496
3	0xbe8f7f19	-0.28026655
4	0xbd83d480	-0.064370155
5	0x3c900066	0.017578315
6	0xbf2b0a3c	-0.6681249
7	0xbe55135f	-0.2080817
8	0xbe31ac38	-0.17350852
9	0x3e40a302	0.18812183
10	0xbd9943f8	-0.07483667
11	0xbe36b4df	-0.17842434
12	0xbe4550bf	-0.19269083
13	0x3d7fcbef	0.062450346
14	0x3e03035e	0.12794253
15	0xbe9f2791	-0.31084874
16	0x3de3c75c	0.11122009
17	0xbd962747	-0.0733171
18	0xbc939859	-0.018016981
19	0x3cde1f8c	0.027114652
20	0xbe42088c	-0.18948573
21	0x3c3ad26f	0.01140271
22	0x3e2e4990	0.1702025
23	0xbc82a0a0	-0.015945733
24	0x3d98e6cc	0.07465896
25	0x3d5f0fa1	0.054458264
26	0x3e10875d	0.14114137
27	0xbe1d9d82	-0.15392116
28	0x3e2daac7	0.16959678
29	0xbefcdc86	-0.49386996
30	0xbea3ed24	-0.3201686
31	0xbe59ec8b	-0.2128164
32	0xbdae4753	-0.08509698
33	0xbe545647	-0.20736037
34	0xbe912081	-0.2834511
35	0xbd3312ac	-0.04371898
36	0x3d244584	0.040105358
37	0xbe7a4fe4	-0.24444538
38	0x3e69b750	0.22823834
39	0x3de03200	0.10947037
40	0xbeaf6128	-0.34253812
41	0x3d83e4c8	0.06440121
42	0xbe4cabc2	-0.19987395
43	0x3d45b565	0.048268694
44	0xbe955ad6	-0.29170865
45	0xbc973ac4	-0.018460639
46	0xbbc8ff7f	-0.006133973
47	0xbc890d64	-0.016730018
48	0xbeb1439b	-0.3462189
49	0x3dc9f31c	0.098608226
50	0xbe42007e	-0.189455
51	0x3ccc09f3	0.024907088
52	0xbd8d5ff4	-0.06903067
53	0xbea00901	-0.3125687
54	0xbd30252a	-0.043004192
55	0xba15e1fd	-0.0005717574
56	0xbe0523c1	-0.1300192
57	0xbdb15e13	-0.08660521
58	0xbe7b1cd9	-0.24522723
59	0x3daa64fa	0.08320041
60	0xbe2b37df	-0.16720532
61	0xbe1963d2	-0.14979485
62	0xbe7bd819	-0.24594153
63	0xbefe124d	-0.49623337
64	0xbe5ecff7	-0.2175902
65	0xbea00fd3	-0.31262073
66	0xbd2cea91	-0.042215887
67	0xbe3a26f6	-0.18178925
68	0x3d811dd3	0.06304517
69	0xbe04eaa9	-0.12980141
70	0xbe0faa72	-0.14029863
71	0xbcb74dc1	-0.022375943
72	0xbde9f122	-0.114229456
73	0xbcbf5e54	-0.023360409
74	0x3d271ec0	0.04080081
75	0x3e051d6d	0.12999506
76	0x3df6e2c0	0.12054968
77	0xbe8c170d	-0.27361336
78	0xbe04fbdb	-0.129867
79	0xbdf91073	-0.121613406
80	0x3d97e1ab	0.074160896
81	0x3de59aa0	0.11211133
82	0x3d5fe5c3	0.054662477
83	0x3cc53487	0.024072899
84	0xbdcdbe8a	-0.10046108
85	0xbc505531	-0.012715624
86	0x3e178d6c	0.14800042
87	0x3e427c56	0.18992743
88	0x3db7ca4b	0.08974131
89	0x3dc5b12b	0.09652933
90	0xbe270e5b	-0.1631407
91	0x3df72b8a	0.12068851
92	0xbefd5e95	-0.49486223
93	0x3e3b301d	0.18280073
94	0xbdcf141f	-0.1011126
95	0xbd3fd92b	-0.046837967
96	0x3d297740	0.04137349
97	0xbe08c39b	-0.13355868
98	0x3e1d2331	0.15345456
99	0xbe23ed55	-0.16008504
100	0xbe2eceac	-0.17071027
101	0xbe4b1088	-0.19830525
102	0x3db3a67b	0.08771988
103	0xbe91a874	-0.28448832
104	0x3de11790	0.10990822
105	0xbed2418a	-0.41065627
106	0xbdb5a4e4	-0.08869341
107	0xbe4342d1	-0.19068457
108	0x3db8d28b	0.09024533
109	0xbe58b255	-0.21161778
110	0xbe148699	-0.1450447
111	0xbe0e88ff	-0.13919447
112	0x3d8a9cb5	0.06768171
113	0x3b1eed3b	0.0024250287
114	0x3cecb2b8	0.028893813
115	0xbda0f7ca	-0.07859762
116	0xbe901155	-0.28138223
117	0xbe627a1e	-0.22116897
118	0xbdb31e3a	-0.08746
119	0x3da7614f	0.08172857
120	0xbe7182bd	-0.23585029
121	0xbde9f579	-0.11423773
122	0xbe84f782	-0.25970083
123	0xbf2ee351	-0.6831561
124	0x3d2fec1a	0.042949773
125	0xbe303c3a	-0.17210475
126	0xbebe450e	-0.3716206
127	0xbf6af409	-0.9177862

a2c_network.critic_mlp.0.weight f4 [128, 376]
0	0x3e44bc82	0.19212535
1	0x3b0d8d41	0.0021599086
2	0xbeea6e4e	-0.4578728
3	0xbe8766fe	-0.26445764
4	0x3d2188c4	0.03943707
5	0x3e26e63f	0.1629877
6	0xbd3bd152	-0.04585392
7	0xbdaf92dc	-0.08572933
8	0xbe00f37d	-0.12592883
9	0xbdbf0a11	-0.09328092
10	0x3dbbfbcd	0.091788866
11	0xbf35ba3e	-0.7098731
12	0x3e3aa9a4	0.18228775
13	0x3e33f4a3	0.1757379
14	0x3f373169	0.7155977
15	0x3f427861	0.75964934
16	0xbe19c670	-0.15017104
17	0x3e7b9936	0.24570164
18	0x3e27dac8	0.16392052
19	0x3dfd6fb2	0.1237482
20	0xbc0f82b0	-0.008759186
21	0x3e12bbb2	0.14329413
22	0x3bb9f62f	0.0056750993
23	0x3e085d08	0.13316739
24	0xba91ecab	-0.0011133155
25	0x3e22d6b2	0.15902212
26	0xbd26a801	-0.040687565
27	0x3bf99772	0.0076169306
28	0x3dcbcc60	0.09951091
29	0xbc6fd887	-0.0146390265
30	0xbcf530ff	-0.02993059
31	0xbe44b2ef	-0.19208883
32	0x3a7d8a90	0.00096718315
33	0x3d42d068	0.047562033
34	0x3d816144	0.0631738
35	0xbd163d32	-0.036679454
36	0x3e4fc81e	0.20291182
37	0x3e455dcd	0.19274063
38	0x3d49ff31	0.049315635
39	0x3ede3b36	0.4340455
40	0x3f2743dd	0.65337926
41	0xbf039a71	-0.51407534
42	0x3ec18f30	0.37804556
43	0x3ebee470	0.3728366
44	0x3bd237d5	0.006415347
45	0x3eaffcea	0.34372646
46	0x3e397e04	0.18114477
47	0xbf0baa02	-0.54556286
48	0xbd8f7497	-0.070046596
49	0xbc35ceeb	-0.011096696
50	0x3d2f2c28	0.04276672
51	0xbc460c4d	-0.012087894
52	0x3d05bd4b	0.032651227
53	0xbd0c9827	-0.03432479
54	0xbc85fcc8	-0.016355887
55	0x3cb41dda	0.02198689
56	0xbc6e6438	-0.014550261
57	0xbda31d9e	-0.079646334
58	0xbce90a50	-0.0284473
59	0x3dee0c0f	0.11623394
60	0x3d4e0b56	0.05030378
61	0xbe4b0b9b	-0.19828646
62	0xbdcdd092	-0.10049547
63	0x3b2a4352	0.0025980067
64	0xbe6a1e02	-0.2286301
65	0xbe147cbf	-0.14500712
66	0xbddb022c	-0.106937736
67	0xbe27b80b	-0.163788
68	0xbcd59a01	-0.026074411
69	0xbdcf6c42	-0.101280704
70	0xbe74f863	-0.23922877
71	0xbe3b9852	-0.18319824
72	0x3e47bc76	0.19505486
73	0x3c83cc97	0.016088767
74	0x3e64a022	0.22326711
75	0x3d9405bd	0.07227657
76	0xbe0303c9	-0.12794413
77	0xbc60d5f0	-0.013722882
78	0x3d52bc49	0.051449094
79	0xbdfa2682	-0.12214376
80	0xbe3c0e7d	-0.18364902
81	0x3c7b88ec	0.015352469
82	0xbda64e5b	-0.08120414
83	0x3d8dba28	0.06920272
84	0x3c8accb3	0.016943311
85	0xbd49299b	-0.049111944
86	0x3b62e8d8	0.003462365
87	0x3d9af56a	0.0756634
88	0x3d8a6ca7	0.06759005
89	0x3e1286fd	0.14309306
90	0xbd2d6e71	-0.042341653
91	0xbe771b74	-0.24131566
92	0x3b40e3ee	0.0029432732
93	0xbd1c2423	-0.0381204
94	0xbc411fcf	-0.011787369
95	0xb995f6df	-0.00028603428
96	0xbdbcc759	-0.0921771
97	0xbdb415c8	-0.08793217
98	0xbda8f89e	-0.08250545
99	0xbbed8e82	-0.0072496543
100	0xbd7d0ae6	-0.06177797
101	0xbb907f80	-0.0044097304
102	0xbc5a7d29	-0.013335505
103	0x3c9c8046	0.019104134
104	0x3be3f319	0.0069564697
105	0xbc0d0ee9	-0.008609512
106	0x3bf98e29	0.0076158238
107	0xbc3efbda	-0.011656726
108	0xbcbf708b	-0.023369094
109	0xbc843425	-0.016138146
110	0x3d005827	0.03133407
111	0x3d225d7c	0.039639935
112	0x3d3a474f	0.04547816
113	0xbd71accc	-0.059002683
114	0x3d418043	0.04724146
115	0xbc7edf68	-0.015556194
116	0xbb9d9206	-0.004808667
117	0x3d191ced	0.0373811
118	0xbd65c12d	-0.05609243
119	0x3bbe2409	0.0058026356
120	0xbc98a691	-0.018634113
121	0x3dbbc56f	0.09168517
122	0x3dad0d5c	0.08449814
123	0x3db8b195	0.09018246
124	0xbc775c53	-0.015097695
125	0x3c125ab3	0.008932757
126	0x3c974452	0.018465195
127	0x3d35193d	0.044213522
128	0xbc5391f8	-0.01291322
129	0xbc73b439	-0.014874511
130	0xbb3d924e	-0.0028926316
131	0x3dfa9930	0.122362494
132	0x3d3cf857	0.046135273
133	0x3dc687ce	0.096938714
134	0x3d05a55c	0.032628402
135	0x3c0a6013	0.008445757
136	0x3d9744ae	0.073861465
137	0x3bac5375	0.0052589723
138	0xbd30ce87	-0.04316571
139	0x3dbb4b98	0.09145278
140	0xbd000b4f	-0.031260785
141	0x3e052a33	0.13004379
142	0xbd485f76	-0.048919164
143	0x3de7f8d2	0.113267556
144	0x3d70d738	0.058799
145	0xbce8ae34	-0.028403379
146	0x3ce5d4a6	0.0280555
147	0x3c11d7cd	0.008901549
148	0xbc15082d	-0.009096188
149	0x3cd785bc	0.026308887
150	0xbd066f90	-0.032821238
151	0xbe76f9ed	-0.24118777
152	0xbd3b6c06	-0.045757316
153	0xbe5c0e91	-0.21489932
154	0xbd92ca0f	-0.07167446
155	0xbcbe1eae	-0.023207989
156	0x3e050101	0.12988664
157	0x3ba40876	0.0050058914
158	0x3d5c0740	0.05371785
159	0xbdb0a5f9	-0.08625407
160	0xbde6f3b3	-0.11276951
161	0xbdc4bd8f	-0.09606468
162	0xbd820b8c	-0.06349859
163	0x3c422889	0.011850485
164	0xbd674f80	-0.0564723
165	0x3c8e9eb0	0.017409652
166	0xbceb8bb1	-0.028753133
167	0x3da2b3c2	0.07944442
168	0x3ce9d3a6	0.028543305
169	0x3c8d7586	0.017267954
170	0xbd109b6f	-0.035304483
171	0xbcf22f4c	-0.029563569
172	0xbd93cf46	-0.07217269
173	0x3a9b21a6	0.001183559
174	0xbd1747a2	-0.03693355
175	0x3dad6e21	0.08468271
176	0xbd3ac033	-0.04559345
177	0xbdd5bbeb	-0.10436233
178	0x392d85f4	0.00016548467
179	0x3beb151d	0.0071741478
180	0xbd0ffa79	-0.03515098
181	0xbccec5b5	-0.025240758
182	0x3c4ee041	0.0126267085
183	0x3d9c8ab5	0.07643644
184	0x3c2bfb85	0.010496979
185	0x3d6c7c8e	0.057735972
186	0xbdaf3a9e	-0.08556102
187	0xbd5773bf	-0.05260062
188	0x39762f13	0.00023477925
189	0x3c5d2476	0.0134974625
190	0xbd434ecc	-0.04768257
191	0xbd0e5ab6	-0.034754477
192	0x3d62dad6	0.05538448
193	0x3ceb6be9	0.028737979
194	0x3d80461e	0.06263374
195	0xbce64087	-0.02810694
196	0xbd7e4317	-0.0620757
197	0xbc99ba1d	-0.018765504
198	0xbcb6b6a7	-0.022303892
199	0x3c26a1e0	0.01017043
200	0xbcae131d	-0.021249348
201	0xbb0f9677	-0.0021909752
202	0x3d6beb4f	0.057597455
203	0xbb70b5f0	-0.0036729537
204	0x3e11685e	0.14199969
205	0xbd517fa5	-0.051147122
206	0xbd1ca515	-0.038243372
207	0x3d5229e0	0.051309466
208	0x3d26a971	0.040688936
209	0x3cbf0b6c	0.023320876
210	0xbda458f8	-0.08024782
211	0x3ce56631	0.02800283
212	0x3d5dabbc	0.054118857
213	0xbd33b532	-0.043873973
214	0x3915a9f6	0.00014273063
215	0x3d6ab6b4	0.057303146
216	0xbd054885	-0.032539863
217	0x3cf5b85c	0.029995136
218	0x3ce47a17	0.027890248
219	0xbd946500	-0.07245827
220	0x3d63a13f	0.055573698
221	0x3d3cb55a	0.046071388
222	0xbdce2bf1	-0.10066975
223	0xbe5173c4	-0.20454317
224	0xbe93905d	-0.28821078
225	0x3e99825b	0.29982266
226	0x3d4c5e4c	0.049894616
227	0x3db371a8	0.087619126
228	0x3c902219	0.017594384
229	0xbd8235d6	-0.06357925
230	0x3e215265	0.15754087
231	0x3d095b03	0.03353406
232	0x3e0b9423	0.13630728
233	0xbcdc2287	-0.026871933
234	0xbca63c6c	-0.020292483
235	0xbe0bf52b	-0.13667743
236	0xbdac298c	-0.08406362
237	0xbdd43df8	-0.10363382
238	0xbbfec544	-0.0077749807
239	0xbc3c2d48	-0.011485405
240	0xbc17308f	-0.009227886
241	0x3c8ba587	0.017046703
242	0xbcddf4f0	-0.027094334
243	0xbcafa4f3	-0.021440959
244	0xbd6be71d	-0.057593454
245	0x3c2c3747	0.010511226
246	0xbc4afab1	-0.012388871
247	0xbd8b2e39	-0.06795926
248	0xbd2c97e4	-0.04213704
249	0xbd140a21	-0.036142472
250	0xbd42677c	-0.04746197
251	0xbcd410ec	-0.025886975
252	0xbbcc97aa	-0.0062436657
253	0xbce8d87c	-0.02842354
254	0xbd876d8f	-0.066126935
255	0xbc00c58e	-0.007859601
