python/rlgpu/saved_nn/241001162237286415/last_Aliengoep=5500rew=[5934.08].pth (torch, 539546 bytes, 18 tensors)

running_mean f8 [376]
0	0x3f747b181d65fed8	0.0050002042756884454
1	0x3f65f0475e559d3f	0.0026780504146476643
2	0xbf8a47b3521ba0af	-0.012832070296511537
3	0x3f64c6a1b1c1e3eb	0.0025361211865484365
4	0x3fdd62deb8fef8c2	0.45915954652799595
5	0x3fdb873040365987	0.43012624998791477
6	0x3fe63b70d18783aa	0.6947559444780513
7	0x3fe7710c8db6e199	0.7325499313220006
8	0x3fa56eb0614331c5	0.04186011493002043
9	0x3fbe457538f159e1	0.1182473434467748
10	0xbfd1de67937dc7db	-0.2791994991631534
11	0x3fb3a4e8ed52863c	0.0767350749397559
12	0xbfb8945efefe48cc	-0.09601396298811266
13	0xbfd1a2edc143601a	-0.27556938050611424
14	0x3fae53a6b51a4c8a	0.05923195801474275
15	0x3fbb00a8b3fc63be	0.1054788054865545
16	0xbfd2fdc80d1898b7	-0.2967395904437455
17	0x3fb0980e7abbb7b8	0.06482019897859359
18	0xbfb706a9ac18ea32	-0.08994541598887265
19	0xbfd337befde020ef	-0.30027746956376594
20	0xbf994452619ba032	-0.024674689490808706
21	0xbf942b3f8c517741	-0.019696228923172802
22	0x3fb96b61960556bc	0.09929475700968288
23	0xbf9c457d9356bffe	-0.02760883533272817
24	0x3f8b639d3ea22ee7	0.01337359282867774
25	0x3fb724203c7cadf0	0.09039498783811672
26	0xbf7a75f67fdbc272	-0.006460154427018071
27	0xbf821a85a102c85d	-0.008839649177705572
28	0x3faf5903c817a105	0.061226003814057996
29	0xbf8225b41f3dcaac	-0.008860976413165154
30	0x3f8234aa6f50905c	0.008889514467291963
31	0x3faa7c896ff68ee5	0.05173139087426452
32	0x3fde5176ff53bcb8	0.4737222188404746
33	0x3fe0d74472bae9cd	0.526277755815778
34	0x3fe0d74472bae9cd	0.526277755815778
35	0x3fde5176ff53bcb8	0.4737222188404746
36	0x3fa59a4f952b22ad	0.04219292350677981
37	0xbf80253ef96bc314	-0.00788354109451598
38	0x3f80e21fe3236c8c	0.008243798369610887
39	0x3f816ce8a772e52d	0.008508508310443997
40	0x3f94601b2a7ed840	0.019897865742415144
41	0x3f5e574f12df0e9b	0.0018518707470186805
42	0x3f916abd08251523	0.017008737203714774
43	0xbf5568495f089836	-0.0013066021457546323
44	0x3f9acb5e70bf5f9d	0.026166415816845413
45	0x3f356370c6b5596b	0.00032636168790158596
46	0x3f94bf50d7046eb0	0.020261061786284784
47	0x3f386ab5a2bb07f0	0.00037257132019530206
48	0xbfc0e7abe62e24de	-0.13207005252141973
49	0x3fc339ea6f3f586f	0.15020494873050746
50	0xbfcebe19db53e9ba	-0.24017642220844754
51	0x3fc25884f24fad6b	0.1433263953361846
52	0x3fcbb862a3dd134d	0.2165644931902996
53	0xbfb7e782dbd3115b	-0.0933763300591343
54	0xbfa8974ed9989fc6	-0.04802938848689524
55	0xbfc70d9c800708c7	-0.180102884782235
56	0xbfc9539cb1e91014	-0.19786413847953155
57	0x3faecf4256248dba	0.06017501164958668
58	0xbfc7f33a62a4532e	-0.1871102315568804
59	0xbfc15a727685e94b	-0.13557272708187393
60	0xbfdfcfd121c6c241	-0.4970591382835075
61	0x3fe515455e9d94ef	0.6588465545616183
62	0x3fef8e1d4776347e	0.9860979457604484
63	0x3fc1528364f61579	0.13533060483693385
64	0x3fdb4f79c9507b21	0.42672581348044686
65	0x3fd1473d69a962b4	0.2699731380321666
66	0x3fd79e7d7f5dbfc2	0.36904847562891174
67	0xbfcc9e8095d18b92	-0.2235871058975048
68	0x3fd21a330a3abed3	0.28284908293697447
69	0xbf7ae026b2b4f248	-0.006561423458432865
70	0x3fd03e47f05e3e19	0.2538013312668866
71	0xbfc0fa75d920bd7f	-0.1326434431261809
72	0x3fc800e298adb398	0.1875270123959154
73	0xbfae8472f22e3e38	-0.05960425573641398
74	0xbfd0965ef513900f	-0.2591779130291351
75	0xbfdfcb9f8522c87d	-0.49680316926526996
76	0x3fe50fcfc816d1a9	0.6581801326743079
77	0x3fef88e258865657	0.9854594925879593
78	0x3fc14f4d3ef5dea0	0.13523259710540447
79	0x3fdb4b17b0334126	0.4264582844453052
80	0x3fd144f05f95c80b	0.2698327001045306
81	0x3fd79b136edbd84c	0.36884008241702726
82	0xbfcc9bbc44457232	-0.22350266774709976
83	0x3fd2192fa331beae	0.2827872365660181
84	0xbf7b142d83203d60	-0.006611039907525068
85	0x3fd03d619d3d8ca3	0.25374641757498234
86	0xbfc0faced60309fd	-0.13265405130194088
87	0x3fc7fcf141f5449f	0.1874066898404054
88	0xbfae8291aba3a41b	-0.059589912607244076
89	0xbfd095fb92c66b92	-0.25915421803954886
90	0x3fc279754ccefe5d	0.14433161020677945
91	0x3fc29253315a3bdf	0.14509048375882025
92	0x3fc295c2693ead13	0.14519529475124013
93	0x3fc2a51a3f67fe5d	0.1456635293579777
94	0x3fc2c605640b0ee7	0.14666812310144126
95	0x3fc2ccd2f480b7f1	0.1468757337437974
96	0x3fc2cfaff6493baf	0.14696311498343337
97	0x3fc2dd5a3b1cb906	0.1473801411279469
98	0x3fc2e6d03154f0a8	0.14766886147288472
99	0x3fc2c2ce8a70b74b	0.1465700317361843
100	0x3fc2a011c5e93588	0.14550993121740086
101	0x3fc2d2a213012d7a	0.1470530121608638
102	0x3fc29f92766b8960	0.1454947546217893
103	0x3fc2ab55a5cfe090	0.14585371586122564
104	0x3fc2dae3ec4225f5	0.14730500255636483
105	0x3fc19f64ca6d453a	0.13767681011317184
106	0x3fc1b3dcaa54ac99	0.1383014518445165
107	0x3fc193ab278310b9	0.13731898717208482
108	0x3fc2a3173088f357	0.14560212964888805
109	0x3fc2718798aefa6f	0.14408965068101362
110	0x3fc28c76ee747e0c	0.14491163867295176
111	0x3fc371ddd189af3a	0.15191242915477138
112	0x3fc32b2b0ad5e675	0.1497548869045208
113	0x3fc33f2e15e496b0	0.15036560124388165
114	0x3fc3883d8a1ddd00	0.15259522670724124
115	0x3fc22ef9fec5c1b9	0.14205861034453252
116	0x3fc2457685745fa9	0.14274484173142568
117	0x3fc20455613c94c6	0.14075724838145315
118	0x3fc348fb3a3207f9	0.15066471425603803
119	0x3fc309c44a545972	0.14873555783624287
120	0x3fc2fe078f50d28c	0.14837736604535612
121	0x3fc40ce0d5f40828	0.15664301344810494
122	0x3fc3bd91cd9881a6	0.15422270335058136
123	0x3fc3b5cadd86a410	0.15398536507316907
124	0x3fc34dceb28da0f1	0.15081199377460267
125	0x3fc2fda35509b363	0.14836541797867672
126	0x3fc2ee02d365b07c	0.14788852045183265
127	0x3fc2d87e465bd794	0.14723185000883332
128	0x3fc3453078f94029	0.15054899126926216
129	0x3fc3c383e62540f1	0.15440415132116628
130	0x3fc39e3db32ab06e	0.1532666325414342
131	0x3fc4a45acde2c27e	0.16126570752159702
132	0x3fc4484a39755f38	0.15845611386861846
133	0x3fc44fb6f499abce	0.15868269866345347
134	0x3fc3e14288f85b0a	0.15531188667292667
135	0x3fc3a5b1e4584bea	0.15349410676625946
136	0x3fc39f57dcd923d5	0.15330026897052443
137	0x3fc3a7061b693caf	0.15353466356689213
138	0x3fc42fad21ef87eb	0.157704965181494
139	0x3fc4b6dcee3c1bad	0.16183053619917356
140	0x3fc44b5a870b3eed	0.15854961008016435
141	0x3fc520ea2af3f486	0.16506697747528082
142	0x3fc4b12bd25da053	0.1616568352867512
143	0x3fc4de7890915783	0.16303927477809674
144	0x3fc48681380cdd4d	0.16035475956753445
145	0x3fc42934dedb9da1	0.15750752336246612
146	0x3fc46917c40da33b	0.15945717881120366
147	0x3fc45ad51c4581bf	0.15902198677487253
148	0x3fc5361febb5903e	0.16571425446739058
149	0x3fc5b1ef873c0e34	0.1694926653218417
150	0x3fc4ed77f19eeb2b	0.16349696443452308
151	0x3fc538a26a0a16a8	0.16579084565835456
152	0x3fc5346c2daa05b3	0.1656623099297981
153	0x3fc4f1e60a33dc6c	0.1636321592156692
154	0x3fc4e47b13a2476e	0.16322267969786303
155	0x3fc4e3f5c843e292	0.16320678976605457
156	0x3fc55c54b7e2363a	0.16688021639531475
157	0x3fc550911e3d73a9	0.16652120567860365
158	0x3fc6818b7b4cfc72	0.17582839508574782
159	0x3fc6ebcd104dd0fb	0.1790710763558606
160	0x3fc5bc6644b89a0f	0.16981199603579042
161	0x3fc2c35d7b96e20b	0.1465870717490961
162	0x3fc30539d0b11241	0.14859697999976798
163	0x3fc32d464cd7c27c	0.149819171448616
164	0x3fc3573ad3ad156b	0.15109954200503792
165	0x3fc37250a0f044cf	0.1519261155922664
166	0x3fc3511fbbd54df9	0.15091320678276057
167	0x3fc3200b201565db	0.14941538874226876
168	0x3fc30fa97096ff0a	0.14891546247053383
169	0x3fc302b4028f3089	0.14851999402015206
170	0x3fc2e38af66e73af	0.1475690558699205
171	0x3fc2e469e2aac60b	0.14759563033798914
172	0x3fc36d1a85794df1	0.15176707761075606
173	0x3fc369bbd8a39203	0.1516642387206418
174	0x3fc34c5e18cf89a1	0.1507680531640974
175	0x3fc37173060195e4	0.1518996981932751
176	0x3fc28c551cbdd8d6	0.14490760711095757
177	0x3fc268e90b7c2875	0.14382660923758164
178	0x3fc23da2313ec2cd	0.1425059071020968
179	0x3fc3325f87bfbce0	0.14997476700180012
180	0x3fc305721c82e5f2	0.14860369102625232
181	0x3fc3083ead8197b7	0.14868911239608248
182	0x3fc4426710776cdf	0.15827644638088764
183	0x3fc40a0108f85157	0.15655529916751718
184	0x3fc4167b50258c20	0.156936086782566
185	0x3fc43b152aca784c	0.15805306043052025
186	0x3fc30dd43cdb8317	0.14885952922397713
187	0x3fc2f5cb3d9a2f9e	0.14812603481220504
188	0x3fc2d8db1002d92c	0.1472429111651733
189	0x3fc3dca2c9cb1e0d	0.15517077305979435
190	0x3fc3a8cb126f023b	0.15358866119460565
191	0x3fc3c3038d2452ad	0.15438885108655623
192	0x3fc512bbbc107430	0.1646341961176474
193	0x3fc4ce0733c3cffa	0.1625374796636832
194	0x3fc4c56d69205a7a	0.16227500565647174
195	0x3fc4750258b3b375	0.1598208363642716
196	0x3fc3d0b39b07a392	0.15480656690422429
197	0x3fc3b61b2dddc5f8	0.1539949392277291
198	0x3fc3aabc4f9f993b	0.15364793670523533
199	0x3fc3cd6cbb01af1a	0.15470656520062037
200	0x3fc411b44b9ec1db	0.15679029171361844
201	0x3fc48e31b8f0be2b	0.16058942346852353
202	0x3fc5bee6006530c5	0.16988825816441114
203	0x3fc5788c9ff7c7de	0.16774137316639232
204	0x3fc5a6b27c2b1fac	0.16914969504273125
205	0x3fc54ef019e651c3	0.16647149338372288
206	0x3fc49c27a25f232a	0.16101546695997487
207	0x3fc47130c84b7138	0.15970430164350957
208	0x3fc46a5f1da441aa	0.1594962019667155
209	0x3fc44814053a89e4	0.1584496522455786
210	0x3fc499411d4f5048	0.16092695170539373
211	0x3fc52f91f1811150	0.16551422397800275
212	0x3fc6422f03a074ed	0.17389476468171186
213	0x3fc5e54a51619d7f	0.17105988477417708
214	0x3fc697316fc65b2e	0.17648904760127365
215	0x3fc65e39b81854a5	0.17475053299918844
216	0x3fc53c1fd3d05e6e	0.16589734880902846
217	0x3fc5287787481a06	0.16529745202588247
218	0x3fc4f508be04f063	0.16372784879957
219	0x3fc4d9c4864502fa	0.16289574199802087
220	0x3fc517d1cbfe9345	0.16478941403070216
221	0x3fc5a5bc88abf673	0.16912037537979394
222	0x3fc6736a1482ce69	0.17539716722022838
223	0x3fc65ca00d1648d2	0.17470169676796005
224	0x3fc7b0e402a5e100	0.18508577470107213
225	0x3fc7b1380e7ceaf5	0.18509579379482202
226	0x3fc60c5e811e8d7b	0.1722524767365988
227	0x3fc61bad3cd7ca01	0.17271962614866257
228	0x3fc593aea12a952c	0.16856940144968158
229	0x3fc52ced8ae50cb1	0.16543359071701993
230	0x3fc55d04d4430610	0.16690121044489148
231	0x3fc60fb4d61985b0	0.17235432104193427
232	0x3fc04238ea426897	0.12702094496200253
233	0x3fc0a48a546374a2	0.13002137299091482
234	0x3fc0bdbd3ef14d66	0.1307903821312763
235	0x3fc0ca1cfd4d43d0	0.13116800659420713
236	0x3fc0eb2cfd45c926	0.13217699400736044
237	0x3fc11c43e453b40d	0.13367508553292887
238	0x3fc120d5963ff65f	0.13381452404421432
239	0x3fc12782c61581aa	0.13401827499457158
240	0x3fc13475c88f4215	0.13441345494221993
241	0x3fc11a372795cc72	0.1336125319754476
242	0x3fc0d754f930f380	0.13157140891589947
243	0x3fc0cd622d0505ea	0.13126780698989587
244	0x3fc0b0f9a7d82dfc	0.13040085502176157
245	0x3fc102aa720c9afb	0.13289385384378946
246	0x3fc14fff1e8827ed	0.13525380125821532
247	0x3fc10e58bbe6fc02	0.13325032401004938
248	0x3fc11b24d8b18a07	0.13364086704957875
249	0x3fc0e74490b31426	0.1320577341595321
250	0x3fc1446083a7a1a3	0.13489920071084524
251	0x3fc11220006dc71a	0.13336563130320017
252	0x3fc0dc0634c8af92	0.13171460702266963
253	0x3fc179510a409f68	0.13651478767973946
254	0x3fc15d9620dcab90	0.1356685314616155
255	0x3fc1cc1d1d7b310d	0.13904155673515853

running_var f8 [376]
0	0x3f8e033ef95893f3	0.014654628738819375
1	0x3ff4522c7185011e	1.2700619158131938
2	0x3fb0823496ea2c35	0.06448677715722868
3	0x4006b66a7f293d41	2.8390703138790347
4	0x3fcfc95d37f9869d	0.24833264573230887
5	0x3fcf60090cf07182	0.24511826640890538
6	0x3fcb2521634c9170	0.2120706305369242
7	0x3fc913f06315ec22	0.19592099035421123
8	0x3f7493e90376ddd3	0.005023870667563784
9	0x3f61c270e5ad6657	0.0021679120085707315
10	0x3f635e02b5819abb	0.0023641636762932994
11	0x3f723024be6ae6e9	0.004440444498578813
12	0x3f600950306dcb87	0.0019575658984022945
13	0x3f630f13a3f230a6	0.002326525077995428
14	0x3f7099e37461ccaf	0.004053009504889334
15	0x3f62ffc7aec2db32	0.002319231038281266
16	0x3f5a5101a5aabd10	0.0016062275014226447
17	0x3f7024c1e68309ae	0.003941304610807368
18	0x3f635351b10f03be	0.002359065584159186
19	0x3f5ae31e4bf87184	0.001641063296012297
20	0x3ffba67f7bf96e72	1.7281489222285953
21	0x3fe0615ff721b19c	0.5118865801610357
22	0x3fe282f88ec64b99	0.5784876621786338
23	0x3ff547afc4ad7127	1.330001610061183
24	0x3fe032a557f15e48	0.5061823575624169
25	0x3fe5f32b0b5c19ea	0.685933611094524
26	0x3feb51b60e4ae132	0.8537245062971464
27	0x3fde2da5d48645fd	0.47153611902567133
28	0x3fd1c90aaaa7a9fa	0.2778956095268367
29	0x3fe8ddf26006e8a6	0.7770931125189875
30	0x3fdbd4dcfc7801f8	0.4348671403422766
31	0x3fd050ffa894078b	0.2549437662383915
32	0x3fcfe9645922887a	0.24931005813875
33	0x3fcfe9645cb01628	0.24931005979321808
34	0x3fcfe9645cb01628	0.24931005979321808
35	0x3fcfe9645922887a	0.24931005813875
36	0x3f8c2d0db700ce40	0.01375780787211689
37	0x3f8355962c5ce402	0.009440587262007586
38	0x3f8ad3b6f35b27f1	0.013099126149786118
39	0x3f846f36d3bf25df	0.009977749192233652
40	0x3f83a9c95c7df81d	0.009601185927518735
41	0x3f7f3794ff2913b4	0.0076213665184398545
42	0x3f832e304b0be4f6	0.009365441599117546
43	0x3f7f747bf9212d6b	0.007679447431722645
44	0x3f9ba3b790afc07d	0.026991718488659878
45	0x3f92eb86fe00cacf	0.018476590397947853
46	0x3f98afaf54bb66a7	0.024107684656746866
47	0x3f91f70b84e92ee6	0.01754396437381347
48	0x401392e318e3218d	4.893444432127933
49	0x40197493a75c29a9	6.3638445043565435
50	0x4009d62be2bf09fe	3.2295758928823934
51	0x4016507d59da6ccd	5.578603176075558
52	0x40178b8367068d28	5.886243448042741
53	0x400768a2c979439e	2.9260917415744663
54	0x4012b6167502074d	4.677820041893779
55	0x40126df6d4c7ab2c	4.607386898695761
56	0x4000f1a9e90ba4ac	2.1179998594930876
57	0x4011f9fe107b09f8	4.494133241185857
58	0x401049c0e3915a85	4.072024875399284
59	0x400068f75d43c667	2.0512530599888126
60	0x3fbd5a83a5ab6927	0.11466238779704395
61	0x3fc64ec155425d1b	0.17427841818855758
62	0x3f81ae3817cea870	0.008633077837505193
63	0x3fdce04440c52e71	0.4511881477853655
64	0x3fd92d8fa4568210	0.39340582893967824
65	0x3fddb3edb64bb6ea	0.4641069679481534
66	0x3fd95033c44b9775	0.39552015466175955
67	0x3fd814eb9ffb418c	0.3762768804854424
68	0x3fe008d9ab641233	0.5010803554037636
69	0x3fde9f52892a4f94	0.47847426791235503
70	0x3fde49b0910d4c31	0.47324766316632166
71	0x3fd5b9a618be75e3	0.3394561044350139
72	0x3fe1a8c1c5a63e2e	0.5518502102222038
73	0x3fdc4b83d9f9ceb4	0.44210907255840515
74	0x3fd52dff924e4654	0.33093251502677856
75	0x3fbd5ba175af5e8c	0.11467942355317912
76	0x3fc6625eca3065b8	0.17487702248108206
77	0x3f82f3d6cdf43798	0.0092541486360707
78	0x3fdcdab23a44367c	0.45084815683444623
79	0x3fd92a8c7e9e72da	0.3932219730866514
80	0x3fddaefef3158351	0.4638059018962411
81	0x3fd94c2bceb50dda	0.39527411638502274
82	0x3fd810172a4ceba3	0.37598208552270246
83	0x3fe0060d0d2eada7	0.5007386453120731
84	0x3fde995779375454	0.4781092342139506
85	0x3fde43e180827896	0.4728931193329883
86	0x3fd5b49d0780f0c7	0.3391487668302599
87	0x3fe1a5ea99e089fd	0.5515034680759637
88	0x3fdc45d52497b068	0.441762243018053
89	0x3fd5293a31234f0a	0.3306413154470965
90	0x3fb4b03cb1e10aa2	0.08081416456938453
91	0x3fb4dbf6e40b3e70	0.08148139064291526
92	0x3fb4dd89d3fdf415	0.08150540757738185
93	0x3fb4f70c1d623b78	0.08189464299560523
94	0x3fb526711ab1cf54	0.0826178255245485
95	0x3fb533a406065253	0.08281922480666397
96	0x3fb5461a3414b025	0.08310092708114832
97	0x3fb54b22eb1ace80	0.08317774047719162
98	0x3fb5546a233842fc	0.0833193145738384
99	0x3fb520f2e0a42c91	0.08253400787741529
100	0x3fb4ec91f86c099a	0.0817347747325016
101	0x3fb564efab518ea0	0.08357141430456716
102	0x3fb525156cd45848	0.08259710223168881
103	0x3fb5291603d2839e	0.08265817254370098
104	0x3fb570150937cfeb	0.08374148821877696
105	0x3fb3bd77a03e87d2	0.07710979139531496
106	0x3fb3d3c1383c6cb1	0.07744987128210103
107	0x3fb3bdfeca6b4dc3	0.07711784784196767
108	0x3fb53af63676391d	0.08293093518861779
109	0x3fb4f1d06d1f4910	0.08181479133716985
110	0x3fb5163b019ee576	0.08237046041076276
111	0x3fb663b82e55ea7c	0.08745909816017589
112	0x3fb60f849f451e0d	0.08617428673198209
113	0x3fb61aacaf27bc30	0.08634452129602788
114	0x3fb68d701339e163	0.0880956694544515
115	0x3fb4b2530f4daa09	0.08084601520173619
116	0x3fb4c9163893e787	0.08119334107678187
117	0x3fb48d4f85776a30	0.08028122909983249
118	0x3fb65448de0e6092	0.08722358151715273
119	0x3fb5f1b2a4254fdb	0.08571926600899309
120	0x3fb5e296ddcf7a61	0.08548872866911374
121	0x3fb75b366e527454	0.09123554414186802
122	0x3fb6fc0336fa9e6d	0.0897829064584756
123	0x3fb6eed5d15f468d	0.08958183633446933
124	0x3fb6649d3412904c	0.08747274895955676
125	0x3fb5fdebd492e439	0.08590578021802821
126	0x3fb5dff095af6f10	0.08544829992700564
127	0x3fb5e488834340fd	0.0855183906999208
128	0x3fb67d862d06a399	0.08785284613862955
129	0x3fb722877a4db9b4	0.09037062393119905
130	0x3fb6e77be5a4f72b	0.08946966511299752
131	0x3fb84d09f500be09	0.09492552024379831
132	0x3fb7d8f2596f0d60	0.09315409358446436
133	0x3fb7e4e78ebfe90c	0.09333655581568595
134	0x3fb7506e35f582aa	0.09107102219923982
135	0x3fb709e9baa93412	0.08999501044418448
136	0x3fb6fec495011c88	0.08982494962502774
137	0x3fb729b68f0e6a94	0.09048024170480523
138	0x3fb7e6bd4ebd12c8	0.09336455509498898
139	0x3fb896d2379f7a3e	0.09605134828550718
140	0x3fb7f7d01dc674cb	0.09362507559713433
141	0x3fb917920a31e6d9	0.09801590680026652
142	0x3fb88325eb3d0573	0.09575116150974398
143	0x3fb8c7d63fee07ef	0.09679926930223791
144	0x3fb851d270c2f99a	0.09499850514382616
145	0x3fb7d9e359d0c948	0.09316845839274379
146	0x3fb83a81ac5d6ac9	0.09464273889663412
147	0x3fb83f3d8af26adc	0.09471497194537498
148	0x3fb96cc976ddb8f8	0.09931620742802127
149	0x3fba0c03e202a8bc	0.10174583690482825
150	0x3fb8f218eac25451	0.09744411212371175
151	0x3fb97ed0929cb75b	0.09959128932379484
152	0x3fb9605eabee2b94	0.09912673661726351
153	0x3fb924acd3cd5710	0.0982158677191729
154	0x3fb915bf2e233281	0.09798807979968595
155	0x3fb8fedb0ac3573f	0.09763878834504867
156	0x3fb9cf0569b232e8	0.10081514196844987
157	0x3fb9b3f31da4eea3	0.10040206407296152
158	0x3fbb5a7ed91bcdf8	0.10684960175040448
159	0x3fbbe56f21b8b488	0.10896963666228221
160	0x3fba320157f7f014	0.1023255195395339
161	0x3fb42bab4f91b67f	0.07879133885009003
162	0x3fb496b2b20686a1	0.08042446943593486
163	0x3fb4cae48222cc40	0.08122089554926593
164	0x3fb50702e5797de8	0.08213823416144062
165	0x3fb52a63b6b1a5be	0.0826780625372043
166	0x3fb4f9dd544a6b5c	0.08193763072851595
167	0x3fb4be693870e99e	0.08103044155078584
168	0x3fb49f7b5597b767	0.08055849876083486
169	0x3fb48feacb645f0d	0.08032100167872276
170	0x3fb465a59c1af795	0.0796760088078073
171	0x3fb46491623ef2e6	0.07965954445439713
172	0x3fb5610339df3ebb	0.0835115448273837
173	0x3fb5712dc829c9e3	0.08375822197721265
174	0x3fb54158b4ed735a	0.08302835862327865
175	0x3fb571a4ce402d3f	0.08376531634728666
176	0x3fb42cc5def6b427	0.07880818074654937
177	0x3fb3dabb46d59827	0.07755632857660598
178	0x3fb3acbee1b0c7a0	0.07685463914893242
179	0x3fb5048601dc0ba4	0.08210027261161074
180	0x3fb4c680084dee96	0.08115387156243012
181	0x3fb4dcad2a62b057	0.08149225506594014
182	0x3fb6ac0746dfcf40	0.0885624454529621
183	0x3fb67cfd4f29dbea	0.0878446882505696
184	0x3fb681fa310c51c4	0.08792079637016231
185	0x3fb6b3225312022a	0.08867086914143188
186	0x3fb50ef563661d0f	0.08225949932795039
187	0x3fb4c1967fa8268b	0.0810789167082026
188	0x3fb4b2168e6a62cf	0.08084240891401893
189	0x3fb61b7438e1a0df	0.08635641468720533
190	0x3fb5cf9d1584a993	0.0851991822752665
191	0x3fb60c9dd5c6831d	0.0861300131714526
192	0x3fb7ea4967d5a92e	0.09341868195557332
193	0x3fb7ad3a48ab4b65	0.09248699449680726
194	0x3fb79c08b76aaa40	0.09222464063592728
195	0x3fb72b74804b1169	0.09050682193907779
196	0x3fb6444b04b09baf	0.0869795690965549
197	0x3fb5f3908e96edf0	0.08574775201025608
198	0x3fb5fec9cbe7c516	0.08591901043088898
199	0x3fb62f2de5c1b8e1	0.08665739878935909
200	0x3fb6923f8a679591	0.088169070520584
201	0x3fb74788137e9f83	0.09093523479407221
202	0x3fb8f2aefddfe280	0.09745305727109077
203	0x3fb8b0a3c78fcfc6	0.09644530889619238
204	0x3fb8ebf309316b90	0.09735030149879109
205	0x3fb872ee72886b0e	0.09550371452534653
206	0x3fb77d59d684a7cf	0.09175645339260473
207	0x3fb71a409385ade5	0.09024432756057583
208	0x3fb7298c29cd2c81	0.09047771473449197
209	0x3fb6f6b86f8cdda9	0.08970215533633187
210	0x3fb76a23bfac24d6	0.09146331243040903
211	0x3fb83f545140b5fd	0.09471632941923498
212	0x3fb9c47d515e8c9f	0.10065444218212115
213	0x3fb958b0c7ccdd92	0.09900956037460265
214	0x3fba49cb10a307cf	0.10268849521801758
215	0x3fb9fce5b27c2427	0.10151515586416392
216	0x3fb871ca69a39eb5	0.09548630789833619
217	0x3fb836f039456152	0.09458829305856867
218	0x3fb801c42ae63a09	0.09377695128771547
219	0x3fb7db81c93bdf4b	0.09319316065727638
220	0x3fb83251356957d3	0.09451777986518488
221	0x3fb8f5f074f71cd5	0.09750273566816088
222	0x3fba44bad5a1015e	0.10261123385953883
223	0x3fba18acf11846b8	0.1019390190706656
224	0x3fbbf118a961ef7b	0.10914758811298768
225	0x3fbbf0e2dd410f16	0.10914438153946224
226	0x3fb9b04f223d3e88	0.10034651361388047
227	0x3fb9d0112c12a53b	0.10083110166546742
228	0x3fb8fd1d6bee6f5b	0.09761222729724521
229	0x3fb8932204661915	0.09599506957429
230	0x3fb8cdefab497a7b	0.09689233714878213
231	0x3fb9a9730969cf69	0.10024184207742128
232	0x3fb46b700f27aaef	0.07976436967843957
233	0x3fb50db7e1ceaf78	0.08224057448268052
234	0x3fb52ca25e7fb5a0	0.0827123146734352
235	0x3fb540d88ddeacc6	0.08302072013491388
236	0x3fb56facdb6c980e	0.08373527867351546
237	0x3fb5b7932695d839	0.08483237926506683
238	0x3fb5cf77ac1b8d4c	0.08519695236059482
239	0x3fb5c68023573c70	0.08506012785731953
240	0x3fb5dd5b099282db	0.08540886863421397
241	0x3fb5b89f90201acf	0.08484837788283105
242	0x3fb5508c9e5c7fd0	0.08326033464663785
243	0x3fb5859d838f5e33	0.08407005750574896
244	0x3fb562e62bc2a403	0.08354033058516568
245	0x3fb5c3781f2cc519	0.0850138736830285
246	0x3fb6327488d918f7	0.08670738545433553
247	0x3fb5edfc01d80d1c	0.08566260380762397
248	0x3fb5f84957b67633	0.08581980124878257
249	0x3fb5d4be5f047fdf	0.08527746028676074
250	0x3fb64c13892ac491	0.08709833239369603
251	0x3fb6040e750c25d9	0.08599939687351056
252	0x3fb5bdd44015b530	0.08492781223840917
253	0x3fb6a5feda82f6e5	0.08847039065127722
254	0x3fb68d05eeebcf59	0.08808934290919747
255	0x3fb70ba16e931fe0	0.0900212187726761

count f8 []
0	0x4210642ac0040000	17600000001.0

running_mean f8 [1]
0	0x407309bd55bb0d2e	304.60872433726297

running_var f8 [1]
0	0x40bf5c2ba8af817c	8028.170542687523

count f8 []
0	0x41f0642ac0100000	4400000001.0

a2c_network.sigma f4 [15]
0	0xc0200524	-2.5003138
1	0xc00d5e9c	-2.2088995
2	0xbfe9efe5	-1.8276335
3	0xbfc1ad41	-1.5130998
4	0xbfb20762	-1.3908503
5	0xbfd9b726	-1.7009017
6	0xbfa535e2	-1.2907069
7	0xbfcb0436	-1.586066
8	0xbfc09857	-1.504649
9	0xbfb051b8	-1.3774939
10	0xbfb7112a	-1.4302113
11	0xc00356f8	-2.0521832
12	0xbfbff109	-1.4995433
13	0xbfcc07e8	-1.5939913
14	0xc0031b7a	-2.048552

a2c_network.actor_mlp.0.weight f4 [128, 376]
0	0xbe129d2b	-0.14317767
1	0xbddac362	-0.106817976
2	0x3e7f6c11	0.24943568
3	0x3c911a3c	0.017712705
4	0x3d28f67f	0.041250702
5	0x3db66d68	0.08907586
6	0xbd2a9efe	-0.041655533
7	0x3e12ee58	0.14348733
8	0xbd402f0d	-0.04691987
9	0xbd501cc9	-0.0508087
10	0x3eac9850	0.33709955
11	0xbee9c7ff	-0.45660397
12	0x3e7e225d	0.24817796
13	0x3e6c0781	0.23049738
14	0xbc361ae7	-0.011114812
15	0x3dfb49b5	0.12269918
16	0x3e065390	0.13117814
17	0x3f0f8d44	0.5607493
18	0xbf33697f	-0.7008285
19	0xbe576f22	-0.21038488
20	0xbd6b8d43	-0.057507765
21	0x3e1dc192	0.15405872
22	0xbe3796eb	-0.17928664
23	0xbe09e586	-0.13466462
24	0x3de7e4c5	0.11322931
25	0x3e356158	0.17712915
26	0xbe8606b1	-0.2617698
27	0x3cf04d0a	0.02933361
28	0x3e7fb585	0.24971588
29	0x3e2bc8bc	0.16775793
30	0x3e94282d	0.28936902
31	0xbe5289eb	-0.20560424
32	0x3e1d2dbc	0.15349478
33	0xbe12bda4	-0.14330155
34	0xbe4e6ebc	-0.2015943
35	0x3e2826ac	0.16421002
36	0x3f655dd0	0.8959627
37	0xbebe435d	-0.3716077
38	0xbf41ff65	-0.75780326
39	0xbf218412	-0.6309215
40	0x3cde382e	0.027126398
41	0x3f47651e	0.7788867
42	0x400d934b	2.212115
43	0x401de2db	2.4669712
44	0xbef2cbd2	-0.47421128
45	0xbc7334a7	-0.014844096
46	0xbbf43487	-0.007452551
47	0x3f06d385	0.52666503
48	0x3e4631d7	0.1935495
49	0x3d19a08d	0.03750663
50	0x3db512cc	0.08841476
51	0xbe52e9a2	-0.20596936
52	0xbc288f71	-0.010288105
53	0x3dac705c	0.08419868
54	0x3ddb6540	0.10712671
55	0x3dd39935	0.10331956
56	0xbe819a6e	-0.25313133
57	0xbd1a59b8	-0.03768322
58	0x3d07ed2e	0.033185177
59	0xbeab7922	-0.33490855
60	0x3e8ff96e	0.28119987
61	0xbf04c5d7	-0.5186438
62	0xbed7074e	-0.4199776
63	0xbd2dbd02	-0.04241658
64	0xbe1a98e5	-0.15097387
65	0x3e4c94dd	0.19978662
66	0xbc9fd570	-0.019510955
67	0xbe333799	-0.17501678
68	0xbe248515	-0.16066392
69	0x3e6393f3	0.22224407
70	0xbd6b8e32	-0.057508655
71	0x3da8b0aa	0.08236821
72	0xbe05d067	-0.1306778
73	0xbdda26c6	-0.10651927
74	0x3e5d574e	0.21615335
75	0xbe434d62	-0.19072488
76	0xbdd00d1c	-0.101587504
77	0xbe1c31bc	-0.15253347
78	0xbdc9c579	-0.09852118
79	0x3e182330	0.14857173
80	0x3dc87ff3	0.097900294
81	0x3d0f1563	0.034932505
82	0xbde00206	-0.10937886
83	0xbe44e271	-0.19227006
84	0xbe5f04e8	-0.21779215
85	0x3cc6b5cf	0.024256615
86	0xbe9c81aa	-0.30567676
87	0xbe44b0b0	-0.19208026
88	0xbee63fd2	-0.44970566
89	0xb9334de6	-0.0001709979
90	0xbe1036cb	-0.14083402
91	0xbd4a9dab	-0.04946677
92	0xbe147b96	-0.1450027
93	0x3dd4275a	0.10359068
94	0xbc56cb83	-0.013110044
95	0xbddbf8ee	-0.10740839
96	0xbe0947e4	-0.1340633
97	0xbdef45f0	-0.116832614
98	0x3cb244af	0.021761267
99	0xbd97fa44	-0.07420781
100	0x3cde9f90	0.027175695
101	0x3d434b45	0.047679204
102	0xbe65bdcb	-0.22435682
103	0xbc747e35	-0.014922668
104	0xbe751ff6	-0.23937973
105	0x3d9ac6b5	0.075574316
106	0xbdb7d3c8	-0.08975941
107	0x3d84d3c6	0.06485705
108	0xbe51b718	-0.20480001
109	0x3d672b72	0.056437917
110	0x3d55bd57	0.05218252
111	0x3df72dc4	0.12069276
112	0xbd32e545	-0.04367568
113	0x3dca958a	0.098918036
114	0x3d5f0adb	0.054453712
115	0x3e7dfed5	0.24804242
116	0x3ba34810	0.0049829558
117	0xbe50807a	-0.2036151
118	0x3dc5ad46	0.0965219
119	0xbc101518	-0.008794092
120	0xbdb11ffa	-0.08648677
121	0x3cb0eb7c	0.021596663
122	0x3bac8e6e	0.0052660024
123	0x3d777edb	0.060423713
124	0xbcead28a	-0.028664846
125	0xbbf57372	-0.007490569
126	0x3e10ff17	0.14159809
127	0x3c6db13e	0.01450759
128	0x3d8bd4c8	0.06827694
129	0xbd81bcda	-0.06334849
130	0x3dfaeb2e	0.12251888
131	0xbc8e61aa	-0.017380554
132	0xbcbe1aaa	-0.023206074
133	0xbe232420	-0.1593175
134	0xbd932845	-0.07185415
135	0x3d414696	0.047186457
136	0x3d5c430a	0.05377487
137	0x3e3b5825	0.18295343
138	0x3e6c0ce4	0.23051792
139	0xbdd8ecb8	-0.105920255
140	0x3d7ac6a9	0.061224613
141	0x3d126cfd	0.03574847
142	0xbd64814b	-0.055787366
143	0x3de3cb85	0.11122803
144	0x3e22d03e	0.1589975
145	0xbe0d31f7	-0.13788591
146	0x3dbe8dfd	0.09304426
147	0x3cf68985	0.030094871
148	0xbdb80101	-0.089845665
149	0xbdaeea26	-0.08540754
150	0xbdf4efcd	-0.11959801
151	0x3e052809	0.13003553
152	0x3dee9ead	0.11651359
153	0xbc3cda54	-0.011526663
154	0x3da44595	0.08021084
155	0x3bc43863	0.005988167
156	0xbe08fe68	-0.13378298
157	0x3e099be9	0.13438381
158	0xbdf9a39a	-0.12189408
159	0x3e5f452c	0.2180373
160	0xbe38db83	-0.18052487
161	0xbda056f6	-0.078290865
162	0x3db01854	0.0859839
163	0x3dfb8bc6	0.12282519
164	0x3e090474	0.13380605
165	0x3d926305	0.07147793
166	0xbc8ff2bb	-0.017571798
167	0x3dc0f583	0.09421828
168	0xbe3a79e6	-0.18210563
169	0xba8a39ca	-0.0010545787
170	0x3d24f51b	0.040272813
171	0x3e258d12	0.16167095
172	0xbccb8827	-0.024845196
173	0x3ce81780	0.028331518
174	0xbd591ccd	-0.053005982
175	0xbd070e36	-0.032972537
176	0x3e5b616e	0.21423885
177	0xbe36ff94	-0.17870933
178	0xbd36ffe1	-0.04467762
179	0x3d7d9769	0.061911974
180	0x3d26ce8e	0.04072433
181	0xbdb224e5	-0.08698443
182	0xbda87131	-0.082247145
183	0x3dfd4f12	0.12368597
184	0xbddce5ca	-0.10786016
185	0xbded94f2	-0.11600675
186	0xbcaa68ab	-0.020801863
187	0xbddc77eb	-0.1076506
188	0xbdece638	-0.11567348
189	0x3d6a34df	0.057179328
190	0x3de8ba24	0.113636285
191	0x3c049157	0.008091292
192	0x3d9af8fc	0.07567021
193	0x3e12a128	0.14319289
194	0x3d3f243d	0.04666542
195	0x3d0acdbe	0.033887617
196	0x3db4ecdc	0.0883424
197	0xbe1ba4a9	-0.15199532
198	0xbe127ae6	-0.14304695
199	0xbd5f0f77	-0.054458108
200	0x3cd955a1	0.026530089
201	0x3cb0f261	0.02159995
202	0x3d466f4e	0.048445992
203	0xbd81a05d	-0.06329415
204	0xbe11f39a	-0.14253083
205	0x3de87776	0.1135091
206	0xbd033611	-0.032033984
207	0x3d089a36	0.033350192
208	0x3d1335d6	0.035940014
209	0x3cf321bc	0.029679172
210	0xbe564635	-0.2092522
211	0x3d7bbb97	0.061458196
212	0xbe0cceb5	-0.13750727
213	0x3dde9bf5	0.1086959
214	0xbe0bb9df	-0.13645123
215	0x3dd7162f	0.10502278
216	0xbc05a23c	-0.0081563555
217	0xbd557e93	-0.052122664
218	0xbc14fe18	-0.009093784
219	0xbc60cade	-0.013720242
220	0x3c8d6302	0.017259125
221	0x3e055586	0.13020906
222	0x3dea68df	0.11445784
223	0x3df88164	0.12134054
224	0x3dc8d446	0.09806113
225	0x3cea6c7b	0.02861618
226	0xbce6c5bf	-0.028170465
227	0xbde61a24	-0.11235455
228	0xbd74ff7a	-0.059813954
229	0x3d231f43	0.039824735
230	0x3cae43b9	0.021272527
231	0x3caa57a2	0.02079374
232	0xbdeaa75b	-0.11457702
233	0x3d17eeec	0.037093088
234	0x3e35e585	0.17763336
235	0xbe6f797a	-0.23386183
236	0xbe067d3a	-0.13133708
237	0x3e029aae	0.12754318
238	0x3df52de6	0.11971645
239	0x3e09d2d5	0.13459332
240	0x3e808d46	0.25107783
241	0x3e2078b0	0.15671039
242	0x3dbae9a5	0.091265954
243	0xbd1bccbd	-0.03803705
244	0x3e12dd0a	0.14342132
245	0x3d80de8e	0.06292449
246	0x3d7841a3	0.06060947
247	0xbd4ab8f0	-0.049492776
248	0xbc4f74e1	-0.012662143
249	0xbd890080	-0.066895485
250	0x3d6938a2	0.056938775
251	0xbe13eb37	-0.14445196
252	0xbd841924	-0.06450108
253	0x3dd049a4	0.10170296
254	0x3dc3029d	0.09521983
255	0x3c873041	0.016502501

a2c_network.actor_mlp.0.bias f4 [128]
0	0xbec577c0	-0.38567924
1	0xbe9a5580	-0.30143356
2	0xbf08eeb5	-0.5348924
3	0xbf1d0146	-0.6133007
4	0xbe5b016f	-0.21387266
5	0xbcae039c	-0.021241955
6	0xbf040cd1	-0.51582056
7	0xbebf6ff9	-0.37390116
8	0xbeae97f0	-0.34100294
9	0xbd2e619f	-0.042573567
10	0xbe15c3e2	-0.14625505
11	0xbdfdf5b6	-0.12400381
12	0xbeaa8e27	-0.3331158
13	0xbe852ab4	-0.26009142
14	0xbd335766	-0.04378452
15	0xbf213952	-0.6297809
16	0xbd917f0b	-0.0710431
17	0xbe2bc09b	-0.16772692
18	0xbf02041f	-0.5078754
19	0xbf428b35	-0.75993663
20	0xbe83836d	-0.25686207
21	0xbf0b0b3e	-0.5431403
22	0xbf2ebbd3	-0.68255347
23	0xbf1c1a74	-0.60977864
24	0xbd243bb0	-0.040095985
25	0xbe2b0756	-0.16702017
26	0xbed8d598	-0.4235046
27	0xbeb4441e	-0.3520822
28	0xbd972d91	-0.07381738
29	0xbf2dae83	-0.6784441
30	0xbf0b0f7a	-0.5432049
31	0xbed7706f	-0.42077968
32	0xbef163c3	-0.47146425
33	0xbe75fe00	-0.24022675
34	0xbe5d7b52	-0.21629074
35	0xbebe3ef3	-0.371574
36	0xbda102fc	-0.07861897
37	0xbe90f189	-0.28309277
38	0xbead9e0d	-0.33909646
39	0xbf163dcd	-0.5868805
40	0x3ceb95f9	0.028758036
41	0xbf245502	-0.6419221
42	0xbeefddc6	-0.46848887
43	0xbd9fcad3	-0.078023575
44	0xbe8c7468	-0.2743256
45	0x3d875e99	0.0660984
46	0xbee065d1	-0.4382768
47	0xbeee7665	-0.46574703
48	0xbf115e4d	-0.56784517
49	0xbdcb65d5	-0.09931532
50	0xbe9c77e5	-0.30560222
51	0xbdfc3a65	-0.123158254
52	0xbe30fa64	-0.17283016
53	0xbefd1563	-0.4943038
54	0xbe80d07e	-0.25159067
55	0xbf4829e5	-0.78188926
56	0xbeb62d37	-0.3558137
57	0xbefb4b88	-0.49081063
58	0xbf153f44	-0.5829966
59	0xbeb4f800	-0.3534546
60	0xbe7eb85a	-0.24875012
61	0xbda6d122	-0.08145358
62	0xbeab1222	-0.33412272
63	0xbf1e074d	-0.6172989
64	0xbefae271	-0.49000886
65	0xbec5af9d	-0.38610545
66	0xbe0869f7	-0.13321672
67	0xbe8fdc67	-0.2809784
68	0xbf045382	-0.5168992
69	0xbd090f59	-0.033461902
70	0xbd51269b	-0.051062208
71	0xbf2c6934	-0.6734803
72	0x3d78dd5c	0.06075798
73	0xbf05423f	-0.5205421
74	0xbed9ab73	-0.42513618
75	0xbeb7654c	-0.3581947
76	0xbf6bb13d	-0.9206732
77	0xbe147711	-0.14498545
78	0xbd300d01	-0.04298115
79	0xbee5ba70	-0.44868803
80	0xbf66dbf7	-0.9017939
81	0xbf045930	-0.5169859
82	0xbebdd042	-0.3707295
83	0xbe17ff7c	-0.14843553
84	0xbeb9067e	-0.36137766
85	0xbeb2504d	-0.3482689
86	0xbf2ece1b	-0.6828324
87	0xbdc2a509	-0.09504134
88	0xbe48a2bc	-0.19593328
89	0xbf7515ab	-0.9573619
90	0xbe86398b	-0.26215777
91	0xbec2b177	-0.3802602
92	0xbe4d8483	-0.2007008
93	0xbf1b1a7d	-0.6058729
94	0xbe1cd445	-0.1531535
95	0xbe1f2dc2	-0.15544799
96	0xbe82208d	-0.2541546
97	0xbed11170	-0.40833616
98	0xbf0982c3	-0.5371515
99	0xbf30c66b	-0.6905276
100	0xbf379c3b	-0.71722764
101	0xbd86309d	-0.06552241
102	0xbebf2127	-0.3732998
103	0xbef45b9c	-0.47726142
104	0xbe903913	-0.28168544
105	0xbef3a217	-0.47584602
106	0xbed620e5	-0.41821972
107	0xbe79b189	-0.2438413
108	0xbed91a51	-0.4240289
109	0xbdde7014	-0.10861221
110	0xbf6259a2	-0.8841802
111	0xbf0fb572	-0.5613624
112	0xbed4bc73	-0.41550025
113	0xbe5e6eb5	-0.21721919
114	0xbf39fdb9	-0.72652775
115	0xbe96afe2	-0.29431063
116	0xbf2193b4	-0.63116
117	0xbedc947e	-0.4308204
118	0x3c69b969	0.014265397
119	0xbe00c68c	-0.1257574
120	0xbee2eb00	-0.44319916
121	0xbe927007	-0.28601095
122	0xbebb757f	-0.3661308
123	0x3c763aac	0.015028637
124	0xbc958557	-0.018252058
125	0xbee9357b	-0.45548615
126	0xbe8a83f8	-0.2705381
127	0xbef3e09d	-0.47632304

a2c_network.actor_mlp.2.weight f4 [128, 128]
0	0x3e868f58	0.26281238
1	0x3e1e57b9	0.15463151
2	0x3cf3c718	0.029758021
3	0xbc9efc5f	-0.01940745
4	0x3d2b670c	0.04184632
5	0xbc9727b4	-0.01845155
6	0x3cb5e4c8	0.022203818
7	0x3cfbf5d8	0.030756876
8	0xbe2183aa	-0.15772882
9	0xbcc6e678	-0.024279818
10	0x3e938542	0.28812605
11	0xbd326c8b	-0.043560546
12	0xbee58851	-0.44830564
13	0xbd368405	-0.044559497
14	0xbe0041c4	-0.12525088
15	0x3c093c8c	0.008376252
16	0xbe3decab	-0.18547313
17	0x3b13be6e	0.0022543925
18	0xbdcd6235	-0.10028497
19	0xbe06ed1d	-0.13176389
20	0x3dcdf89b	0.10057183
21	0x3dcace04	0.099025756
22	0xbe3b4506	-0.18288049
23	0xbc61bd79	-0.013778084
24	0x3d0a7a5a	0.03380809
25	0xbe2f5f7b	-0.17126267
26	0xbe3c030f	-0.18360542
27	0xbe130f2e	-0.1436126
28	0xbe4a95c6	-0.19783697
29	0x3d85dd68	0.065363705
30	0x3ddcab8c	0.107749075
31	0xbe852617	-0.26005623
32	0xbe7bef8c	-0.24603099
33	0xbd9b41c3	-0.075809024
34	0xbda4af77	-0.0804128
35	0xbee079fb	-0.43843064
36	0xbd130c9e	-0.035900705
37	0x3dc48664	0.095959455
38	0x3d06fb76	0.032954656
39	0x3d3effd9	0.046630714
40	0x3e21a313	0.15784864
41	0xbd681730	-0.05666274
42	0x3e28e909	0.16495146
43	0xbb0543b9	-0.0020334555
44	0x3cb52db1	0.022116514
45	0xbc9ffcab	-0.019529661
46	0x3d5c88c2	0.05384136
47	0xbbd70469	-0.006561805
48	0xbce57901	-0.0280118
49	0xbe164528	-0.14674819
50	0xbe500ca8	-0.20317328
51	0x3e5f15da	0.2178568
52	0x3dc4ffa2	0.096190706
53	0x3dd98448	0.10620934
54	0xbd86fa98	-0.06590766
55	0x3e133477	0.14375482
56	0xbe24ef32	-0.16106871
57	0xbea5472a	-0.32280856
58	0xbe7d8f88	-0.24761784
59	0xbccf3375	-0.025293091
60	0x3e4864e1	0.19569732
61	0x3e19a305	0.15003593
62	0xbe74ba6d	-0.23899241
63	0x3db893e9	0.090125866
64	0x3d96412c	0.07336649
65	0x3da226f2	0.079175845
66	0xbeef346d	-0.46719685
67	0x3db525e3	0.08845117
68	0xbe24bcd9	-0.16087665
69	0x3e364c2c	0.17802495
70	0xbdef2024	-0.11676052
71	0xbda5f11c	-0.081026286
72	0x3d860b38	0.065451086
73	0x3d2ccb82	0.042186268
74	0xbe2cb78f	-0.16866897
75	0x3d19022f	0.037355598
76	0x3d3ed662	0.04659117
77	0xbd40f7a3	-0.047111165
78	0x3d9255c9	0.071452685
79	0xbe2a6295	-0.16639169
80	0x3d96f0b3	0.073701285
81	0xbd732531	-0.05936164
82	0x3d0154ea	0.03157512
83	0xbdbdcf58	-0.09268063
84	0xbe06bbec	-0.13157624
85	0x3e00ac39	0.12565698
86	0x3da7d09f	0.08194088
87	0xbe845d76	-0.25852555
88	0xbe313852	-0.1730664
89	0x3c5fa547	0.013650245
90	0xbe71d573	-0.2361658
91	0xbe971c22	-0.2951365
92	0xbdfedaa1	-0.12444044
93	0xbba8f4ef	-0.0051561515
94	0xbe8f87ec	-0.28033388
95	0xbe89ba51	-0.2689996
96	0xbe2fd207	-0.17169963
97	0x3c86e4b7	0.016466482
98	0x3d266d53	0.040631603
99	0x3db0977c	0.08622643
100	0xbd878667	-0.06617432
101	0xbe4fb306	-0.20283136
102	0xbdaf32be	-0.085546
103	0xbe42d4bf	-0.19026469
104	0xbcd9ff69	-0.026611047
105	0xbe923a9c	-0.2856034
106	0xbe237649	-0.15963091
107	0x3cca01e5	0.024659107
108	0x3d58768b	0.052847426
109	0xbd73fb89	-0.059566054
110	0x3ddcbcbc	0.10778186
111	0x3dd07d30	0.101801276
112	0xbe8247dd	-0.25445452
113	0x3e1a8a48	0.15091813
114	0xbc9541b5	-0.018219808
115	0x3dc5b0ae	0.096528396
116	0x3dc37d60	0.09545398
117	0x3c4e766b	0.012601475
118	0xbe28c979	-0.16483106
119	0xbd95b38f	-0.07309639
120	0xbe12dcac	-0.14341992
121	0xbe0e65ea	-0.13906065
122	0xbe1c0670	-0.1523683
123	0x3d962c52	0.07332672
124	0xbc4cdc98	-0.0125037655
125	0xbd9afce9	-0.0756777
126	0x3d29d62b	0.041464012
127	0x3db51746	0.0884233
128	0x3db2a948	0.08723694
129	0x3c2c340b	0.010510455
130	0x3e0017d5	0.12509091
131	0xbd51d393	-0.051227164
132	0x3dda4e5a	0.106594756
133	0xbd7299b6	-0.05922862
134	0xbd2b63f4	-0.04184337
135	0x3d45f509	0.048329387
136	0xbe410a54	-0.18851596
137	0x3d6a989c	0.057274446
138	0x3e15484b	0.14578359
139	0xbd9a5f5d	-0.0753772
140	0xbdfe47d6	-0.12416045
141	0x3d5af9c3	0.053460848
142	0xbe560fd3	-0.20904474
143	0xbd8693fd	-0.06571195
144	0x3d8164d1	0.06318057
145	0xbeabee20	-0.33580112
146	0xbe2890a2	-0.16461423
147	0xbe0577ee	-0.13034031
148	0xbe3272df	-0.17426632
149	0xbb6d2bfc	-0.0036189547
150	0xb9924c56	-0.00027904165
151	0x3d6a886d	0.057259012
152	0xbd527523	-0.05138124
153	0x3e8274ec	0.2547983
154	0xbdff9e11	-0.12481321
155	0x3dc1875a	0.094496444
156	0xbd162d92	-0.036664553
157	0xbce3acc2	-0.027792338
158	0xbd5691d1	-0.052385155
159	0xbde954cd	-0.113931276
160	0x3cdc5a85	0.026898632
161	0xbc818e8b	-0.01581504
162	0x3d378bef	0.044811185
163	0xbd5c60c8	-0.053803235
164	0xbdc77589	-0.09739215
165	0xbe2f191b	-0.1709942
166	0x3dd08326	0.101812646
167	0xbded533d	-0.11588142
168	0xbe374446	-0.17897138
169	0xbdb31672	-0.087445155
170	0xbe672a59	-0.22574748
171	0xbec10eb7	-0.3770654
172	0x3cda5bc8	0.026655093
173	0xbdb23319	-0.08701152
174	0x3d9c5570	0.076334834
175	0xbd99dad9	-0.07512445
176	0xbc8c9a11	-0.017163308
177	0x3ba71444	0.0050988514
178	0xbe4fce3e	-0.20293519
179	0x3ca1db52	0.0197579
180	0x3dde683c	0.10859725
181	0xbe17fd78	-0.14842784
182	0x3d76e30b	0.06027512
183	0x3d9df037	0.07711833
184	0xbe21e95f	-0.1581168
185	0xbe0e9721	-0.13924839
186	0x3cc3e3dd	0.023912365
187	0x3d2638d9	0.040581558
188	0xbc018475	-0.007905115
189	0x3ca48617	0.02008347
190	0xbc4f308d	-0.012645853
191	0xbc9fe8d8	-0.019520208
192	0x3d8a1764	0.06742743
193	0x3c4be64f	0.012445047
194	0xbe012aea	-0.12614027
195	0xbbb7aae3	-0.005605088
196	0x3e3a6d98	0.18205869
197	0xbc74263a	-0.014901692
198	0x3c895c53	0.016767656
199	0x3cde0670	0.027102679
200	0xbf2e0a7a	-0.67984736
201	0x3de4b04a	0.11166437
202	0xbd87e36a	-0.06635173
203	0xbbf8906d	-0.0075855763
204	0xbd6c28be	-0.057656042
205	0xbc6a3f48	-0.014297314
206	0xbe362fd7	-0.17791687
207	0x3e81cced	0.25351658
208	0x3d8e930b	0.0696164
209	0x3de9fb74	0.11424914
210	0xbcce42df	-0.025178371
211	0x3d65c3eb	0.056095045
212	0x3d8fb9c9	0.070178576
213	0xbda1ebd1	-0.079063065
214	0xbe51ce75	-0.20488913
215	0xbd595e82	-0.053068645
216	0xbe153c91	-0.14573886
217	0xbe6b40cc	-0.22973937
218	0xbc911a38	-0.017712697
219	0x3bdc1001	0.006715775
220	0xbc9bd13f	-0.019020675
221	0x3c37776d	0.011197907
222	0xbef428fa	-0.47687513
223	0xbe5d5d4d	-0.21617623
224	0xbdfbc3de	-0.12293218
225	0xbe81666e	-0.2527346
226	0xbc70fcfa	-0.014708752
227	0xbcda420a	-0.026642818
228	0xbde1ca40	-0.11024904
229	0xbdeecada	-0.116597846
230	0xbead07a2	-0.33794886
231	0x3e2de58a	0.16982093
232	0xbe1a0aa4	-0.15043122
233	0xbdd6844a	-0.10474451
234	0x3d9c2a36	0.076252386
235	0xbe093422	-0.13398793
236	0x3d8dce8d	0.06924162
237	0x3deae5ff	0.114696495
238	0x3e649d21	0.22325565
239	0xbd1daf12	-0.03849704
240	0xbc7efe6e	-0.01556359
241	0xbcaba665	-0.020953367
242	0xbc297556	-0.0103429165
243	0x3dc4a931	0.09602583
244	0x3d97643b	0.07392164
245	0xb9f1ecc9	-0.0004614352
246	0xbdcad649	-0.09904153
247	0x3c0fbaea	0.008772591
248	0x3dcd4eaf	0.10024773
249	0xbd93a6e6	-0.07209568
250	0x3e82bea6	0.25536078
251	0x3e2cbae0	0.16868162
252	0xbe85f54d	-0.26163712
253	0xbced5205	-0.028969774
254	0x3e1a0862	0.1504226
255	0xbe5b05f6	-0.21388993

a2c_network.actor_mlp.2.bias f4 [128]
0	0x3d289b3c	0.041163668
1	0xbe3cc174	-0.18433172
2	0xbdd468b6	-0.103715345
3	0xbe8dd7f9	-0.27703837
4	0xbd969052	-0.07351746
5	0x3c0f4239	0.008743816
6	0xbf3eab69	-0.744803
7	0xbe56ae85	-0.20965011
8	0xbe41bfaf	-0.18920778
9	0x3e3d5940	0.18491077
10	0xbdb363da	-0.087592795
11	0xbe40f15a	-0.18842068
12	0xbe4f7c53	-0.2026227
13	0x3d903d9e	0.070430025
14	0x3de7c662	0.113171354
15	0xbe9f1ea4	-0.31078064
16	0x3de883b3	0.11353245
17	0xbd9e8a72	-0.0774125
18	0xbd012fa9	-0.031539593
19	0x3b1a91e8	0.0023585502
20	0xbe4a0369	-0.19727863
21	0xbc19c9bf	-0.009386479
22	0x3e3462c3	0.176158
23	0xbd11a11c	-0.035554036
24	0x3d842eb5	0.06454221
25	0x3d5f03e9	0.05444709
26	0x3e15b624	0.14620262
27	0xbe38c802	-0.18045047
28	0x3e277d73	0.16356449
29	0xbf056c95	-0.5211881
30	0xbea7bcbc	-0.3276118
31	0xbe50695f	-0.20352696
32	0xbdbd7460	-0.092507124
33	0xbe59e7f5	-0.21279891
34	0xbe963520	-0.29337406
35	0xbd50929b	-0.050921064
36	0x3cc273a5	0.023736784
37	0xbe847102	-0.25867468
38	0x3e65e89a	0.22452012
39	0x3ddc5764	0.10758856
40	0xbeaffb8b	-0.343716
41	0x3d5c384c	0.053764626
42	0xbe568a3b	-0.20951168
43	0x3ce496c3	0.02790392
44	0xbe9278d7	-0.28607818
45	0xbcb196aa	-0.021678288
46	0xbcfe86ea	-0.031070191
47	0xbbfeee06	-0.0077798394
48	0xbeb0e1c3	-0.34547243
49	0x3dcc7fae	0.099852905
50	0xbe410624	-0.18849999
51	0x3c3c7525	0.011502539
52	0xbda8544f	-0.082192056
53	0xbe9e3aad	-0.3090414
54	0xbd4c09a0	-0.049813867
55	0xbc9c7d27	-0.019102646
56	0xbe22bfc4	-0.15893465
57	0xbdb2b083	-0.08725073
58	0xbe751014	-0.23931915
59	0x3d9c8613	0.0764276
60	0xbe3a18db	-0.18173544
61	0xbe1cb20e	-0.15302297
62	0xbe830348	-0.2558844
63	0xbeffe1d9	-0.49976996
64	0xbe6331d6	-0.2218698
65	0xbea2759f	-0.31730363
66	0xbd6c84b0	-0.05774373
67	0xbe4373bc	-0.19087118
68	0x3d4dfb09	0.050288234
69	0xbe15cb41	-0.14628316
70	0xbe159562	-0.14607766
71	0xbc6dbd7d	-0.01451051
72	0xbdd67642	-0.10471775
73	0xbcad694a	-0.02116837
74	0x3d1fcab6	0.03901168
75	0x3e13e389	0.14442267
76	0x3dee4f68	0.11636239
77	0xbe8e2bf7	-0.27767918
78	0xbe16f2b4	-0.14741021
79	0xbe08c86a	-0.13357702
80	0x3d8e1a49	0.06938607
81	0x3dd7ae33	0.10531273
82	0x3d1e03b5	0.038577754
83	0x3ca71311	0.020394834
84	0xbdca2402	-0.09870149
85	0xbcb48aaa	-0.022038776
86	0x3e05e3c6	0.1307517
87	0x3e446f6b	0.19183128
88	0x3dbd4fcb	0.09243735
89	0x3db10451	0.086434014
90	0xbe37c554	-0.17946368
91	0x3dfc1668	0.12308961
92	0xbf0509b1	-0.5196791
93	0x3e2dc61e	0.16970107
94	0xbdc6640b	-0.096870504
95	0xbd7be482	-0.06149722
96	0x3d2ff83c	0.042961344
97	0xbe1549b1	-0.14578892
98	0x3e1fb145	0.15594967
99	0xbe2781e8	-0.16358149
100	0xbe3c9bbd	-0.18418784
101	0xbe4befb8	-0.19915664
102	0x3d8c3b36	0.06847231
103	0xbe921fbf	-0.28539845
104	0x3de028b0	0.109452605
105	0xbedeef81	-0.43542102
106	0xbdb07e04	-0.086177856
107	0xbe45be03	-0.19310765
108	0x3d9edb7e	0.077567086
109	0xbe5d6ec2	-0.21624282
110	0xbe152922	-0.14566472
111	0xbe138e2c	-0.14409703
112	0x3d51d0b9	0.051224444
113	0x3c4d5df0	0.0125346035
114	0x3cf03c82	0.029325727
115	0xbda3d6ae	-0.07999931
116	0xbe9341ec	-0.28761232
117	0xbe5c8e18	-0.2153858
118	0xbdb048e7	-0.08607655
119	0x3d96ef6a	0.07369883
120	0xbe72d13c	-0.23712629
121	0xbdfa7716	-0.12229745
122	0xbe8800dd	-0.2656316
123	0xbf3e5d34	-0.74360967
124	0x3d2937a5	0.041312832
125	0xbe348d28	-0.17631972
126	0xbecd8edd	-0.4014806
127	0xbf6b44e3	-0.9190199

a2c_network.critic_mlp.0.weight f4 [128, 376]
0	0x3e6b31ef	0.22968267
1	0xbc8a7648	-0.016902104
2	0xbec6e11c	-0.3884362
3	0xbecaa684	-0.39580166
4	0x3bf72bc4	0.007543059
5	0x3e22ed01	0.15910722
6	0x3c4ea5d5	0.01261278
7	0xbdf07f4c	-0.1174303
8	0x3c6680db	0.0140688075
9	0x3c30b42d	0.010785145
10	0x3e12561d	0.14290662
11	0xbf3b4731	-0.73155504
12	0x3dd33806	0.1031342
13	0x3e04c037	0.12963949
14	0x3f39dc57	0.72601837
15	0x3f497e3f	0.7870826
16	0xbe9daf31	-0.30797723
17	0x3ea1125e	0.31459326
18	0x3e336567	0.1751915
19	0x3e06b8e7	0.13156472
20	0xbd450c30	-0.048107326
21	0x3de75103	0.11294749
22	0x3d115b6f	0.03548759
23	0x3e49a67d	0.19692416
24	0xbbb4c1a9	-0.00551625
25	0x3e2d8f9a	0.16949311
26	0xbd1f4104	-0.038880363
27	0x3d84b0ff	0.06479072
28	0x3dbd34aa	0.092385605
29	0x3c666c9e	0.014063982
30	0x3b89aa2b	0.004201194
31	0xbd283c4b	-0.041073125
32	0xbcd35821	-0.02579886
33	0x3d983a15	0.07432953
34	0x3db83315	0.08994118
35	0xbd81efb4	-0.06344548
36	0x3d82581d	0.063644625
37	0x3dcd3bc4	0.10021165
38	0x3bccd3b3	0.0062508225
39	0x3ec79f24	0.38988602
40	0x3f128fc8	0.5725064
41	0xbeee30f3	-0.4652172
42	0x3eab7587	0.33488104
43	0x3ee06ed8	0.43834567
44	0xbc15bc9d	-0.009139207
45	0x3ed08c07	0.40731832
46	0x3e726b63	0.23673777
47	0xbf0f20e8	-0.55909586
48	0xbd02e2b4	-0.031954482
49	0xbd6f62df	-0.0584439
50	0x3c8790b1	0.016548486
51	0xbd011b94	-0.03152044
52	0x3d6b9807	0.05751803
53	0xbd02dace	-0.03194695
54	0xbd692848	-0.05692318
55	0x3a2c3faa	0.0006570766
56	0xbcb1b869	-0.021694379
57	0xbd665428	-0.0562326
58	0xbc6cb161	-0.014446587
59	0x3cce6731	0.02519569
60	0x3d8f90ea	0.07010062
61	0xbe1ddfc9	-0.15417399
62	0xbdad7737	-0.08470004
63	0x3ca4c3a4	0.02011282
64	0xbe848f14	-0.2589041
65	0xbda2c84e	-0.07948361
66	0xbdb70e4b	-0.08938273
67	0xbe431bce	-0.19053575
68	0xbc30faba	-0.010801965
69	0xbdd61cf4	-0.10454741
70	0xbe9a9869	-0.30194405
71	0xbdd8984b	-0.105759226
72	0x3e2d4f18	0.16924703
73	0xbbff5b28	-0.007792849
74	0x3e93ed44	0.28891957
75	0x3c9bcf7b	0.019019833
76	0xbd5e636a	-0.054294027
77	0x3c112737	0.008859447
78	0x3da68af5	0.08131973
79	0xbe28c519	-0.16481437
80	0xbdf321d0	-0.118716836
81	0x3c7d4099	0.015457296
82	0xbd2ba2e3	-0.041903388
83	0x3ddf6d3e	0.10909508
84	0xbbd794df	-0.006579026
85	0xbdc9aa8d	-0.09846983
86	0x3dce7728	0.10081321
87	0x3d72e2ca	0.059298314
88	0x3d7a0c2e	0.06104677
89	0x3e15cf25	0.146298
90	0xbd10e8f9	-0.03537843
91	0xbe795f22	-0.24352697
92	0x3cfcef3c	0.030875795
93	0xbb727694	-0.0036996948
94	0x3c535bde	0.012900321
95	0x3cfece85	0.031104336
96	0xbd9a31e7	-0.07529049
97	0xbd9e8f2c	-0.077421516
98	0xbda51a3c	-0.080616444
99	0x3b7df74e	0.0038752141
100	0xbd4bab14	-0.0497237
101	0xbc4b9268	-0.012425043
102	0x3bfa7979	0.007643875
103	0x3d11df6e	0.03561347
104	0x3bf1a08e	0.007373876
105	0x3d4223cf	0.04739743
106	0x3d2fa145	0.042878408
107	0xbd34a9e3	-0.04410733
108	0xbc4fa84f	-0.012674405
109	0x3c86785d	0.016414816
110	0x3b858774	0.004074985
111	0x3cfebb3f	0.031095145
112	0x3d19c26a	0.037538923
113	0xbd2de831	-0.042457763
114	0x3d337db1	0.04382104
115	0x3c7674e2	0.0150425155
116	0x3b873af4	0.004126901
117	0x3d3d00d3	0.046143364
118	0xbd4925d4	-0.04910834
119	0x3d6cd4b8	0.057820052
120	0xbc0529be	-0.008127628
121	0x3ddc7b43	0.10765698
122	0x3d67588a	0.05648092
123	0x3d873bb3	0.066031836
124	0xbd1058eb	-0.03524105
125	0xbcb17385	-0.02166153
126	0x3d067bdb	0.03283296
127	0x3cbc4f05	0.022986898
128	0x3ad09108	0.0015912363
129	0x3d0b7bc6	0.034053586
130	0x3c0669f1	0.008203969
131	0x3e0daa76	0.13834557
132	0x3cc2bd4c	0.023771904
133	0x3d69f92e	0.057122402
134	0x3d39eee0	0.045393825
135	0x3c38e70b	0.011285554
136	0x3d57875d	0.052619327
137	0x3c899e29	0.01679905
138	0xbcd43849	-0.025905745
139	0x3dd23e6d	0.10265813
140	0xbc5b0420	-0.013367683
141	0x3e17da60	0.14829397
142	0xbd6d975b	-0.058005672
143	0x3d81dcd7	0.0634095
144	0x3d34ad27	0.044110443
145	0xbc57b756	-0.013166269
146	0xbccdee99	-0.025138186
147	0x3d09c33d	0.03363346
148	0x3d3f3f2a	0.046691097
149	0x3d8b47d7	0.06800812
150	0xbc8fffe1	-0.017578067
151	0xbe89b2a0	-0.26894093
152	0xbc957884	-0.018245943
153	0xbe7764a9	-0.24159493
154	0xbe357e71	-0.17724015
155	0xbdd65fc1	-0.10467482
156	0xbc1acf43	-0.009448829
157	0x3d9da818	0.07698077
158	0x3d8430d2	0.06454624
159	0xbce663cf	-0.028123764
160	0xbe1511e5	-0.14557607
161	0xbe1ebdda	-0.1550211
162	0xbda5f953	-0.081041954
163	0x3c8916b3	0.016734457
164	0xbd8b292b	-0.067949615
165	0x3bb25fcc	0.005443549
166	0xbd211fe8	-0.03933707
167	0x3d805738	0.06266636
168	0x3c485cfc	0.0122292
169	0x3cba5dd4	0.022749819
170	0xbcf3b6aa	-0.029750187
171	0xbd0d2d47	-0.034467008
172	0xbdbbe132	-0.09173812
173	0xbcdab484	-0.026697405
174	0xbd447161	-0.04795969
175	0x3d8e1056	0.069367096
176	0xbd8057ff	-0.06266784
177	0xbd828d88	-0.06374651
178	0xbc56e891	-0.013116972
179	0xbc2bc293	-0.010483402
180	0xbc0c56bf	-0.008565604
181	0xbc84504d	-0.016151572
182	0x3c842e25	0.016135285
183	0x3d81e48f	0.06342422
184	0xbab762de	-0.0013991257
185	0x3d7288b9	0.05921242
186	0xbdd0d5a0	-0.10196996
187	0xbd2a79cc	-0.04162006
188	0x3cf48eec	0.029853307
189	0x3cdd0d9e	0.026984032
190	0xbb8c5162	-0.0042821625
191	0xbd09e9ab	-0.03367011
192	0x3d8d9b48	0.06914383
193	0x3cae66d1	0.021289261
194	0x3d7044cd	0.058659364
195	0xbcac9105	-0.021065244
196	0xbda89154	-0.08230844
197	0xbcb00a43	-0.021489268
198	0xbd568636	-0.052374087
199	0x3d6ba64d	0.057531644
200	0xba36a8d2	-0.0006967905
201	0xbc20dd46	-0.009818381
202	0x3dbe7a4a	0.093006685
203	0xbc29861e	-0.010346917
204	0x3e29c89c	0.16580433
205	0xbcaee014	-0.021347083
206	0xbdbe6539	-0.092966504
207	0x3d804ad9	0.06264276
208	0xbcef5511	-0.029215368
209	0x3d8706dc	0.06593105
210	0xbd3db9e3	-0.046319854
211	0x3c93b89d	0.018032366
212	0x3dbea5f6	0.09308998
213	0xbd07dbff	-0.03316879
214	0x3c07de40	0.008292735
215	0x3de1069e	0.1098759
216	0xbde8e0df	-0.11371016
217	0x3d1a85b2	0.037725158
218	0xbd3f01b1	-0.046632472
219	0xbdbce24a	-0.09222849
220	0x3da57f09	0.08080871
221	0x3d016885	0.03159382
222	0xbdd1a8db	-0.10237285
223	0xbe66abe2	-0.22526506
224	0xbe5e5077	-0.21710382
225	0x3eb86744	0.36016285
226	0x3d02f048	0.03196743
227	0x3d9a0b1a	0.07521649
228	0xbcaa886b	-0.020817002
229	0xbdc66cf5	-0.09688751
230	0x3df9822b	0.12183031
231	0xbccdb1d1	-0.025109204
232	0x3d9c6a98	0.07637519
233	0xbd6f9d45	-0.058499593
234	0xbb8594eb	-0.0040765903
235	0xbdebd5d7	-0.11515396
236	0xbdb97120	-0.0905478
237	0xbde68293	-0.11255374
238	0xbd0217e9	-0.031761084
239	0xbc690ef3	-0.014224756
240	0xbce2149c	-0.027597718
241	0x3bdf9bbb	0.0068239844
242	0xbcaee4a1	-0.021349253
243	0xbd816167	-0.06317406
244	0xbd18269c	-0.037146196
245	0xbb1211a6	-0.0022288351
246	0xbd3c702a	-0.046005405
247	0xbd30e04e	-0.043182664
248	0xbd732426	-0.059360646
249	0xbcfcaca5	-0.030844042
250	0xbcb0ad63	-0.021567052
251	0xbce2955d	-0.027659113
252	0xbc463d23	-0.012099537
253	0xbd52f924	-0.05150713
254	0xbd735868	-0.059410483
255	0xbcca2c44	-0.02467931
