python/rlgpu/saved_nn/241001162237286415/last_Aliengoep=500rew=[3659.51].pth (torch, 539546 bytes, 18 tensors)

running_mean f8 [376]
000000 8f 87 e4 37 88 63 b3 bf 9a 2d a3 08 53 1b 94 bf
       -0.07573748936240875 -0.019635484125314663
000010 b4 b1 70 77 9e 1d 95 bf 87 2e 0b 6f c2 33 85 3f
       -0.020620800056507085 0.010352629674705639
000020 40 8b 78 4b 56 19 dd 3f f9 cf 72 62 04 f2 dc 3f
       0.45467145319178215 0.45227155317411377
000030 89 f0 fd 33 ff 13 e3 3f 78 bb 33 b1 61 a3 e3 3f
       0.5961910262553981 0.6136940442064391
000040 01 1e 36 0b 46 39 a1 3f 52 c5 7d 4e 34 ea bb 3f
       0.03364008795602658 0.10904242435733139
000050 4b 31 2d a3 70 8c d4 bf cf 87 0e bd 70 57 a8 3f
       -0.3210717767258486 0.047542117193429705
000060 57 9a 6a 94 ce 5f b8 bf 7e ed 22 ac ca 8e d4 bf
       -0.09521189807365125 -0.3212153130550276
000070 fa af fc c8 56 d5 a5 3f 4f cd 9f c7 64 ae ba 3f
       0.04264327243285489 0.10422353623998969
000080 82 f7 20 8b d7 ff d2 bf b0 58 4b 47 6f 78 a2 3f
       -0.2968653544120273 0.036075093701286476
000090 37 33 e9 e0 4d fd b6 bf 63 62 28 e7 b5 49 d3 bf
       -0.0898026155566186 -0.30137393545149943
0000a0 56 3f 1b 6e 38 6b a7 bf d8 d1 8f 40 48 aa a3 bf
       -0.04573990196297355 -0.03840852535350664
0000b0 5a cd e1 e3 60 5a c1 3f 2d 0f 4b 1e 07 eb a7 bf
       0.13557063223889082 -0.04671499485769313
0000c0 2a 82 8f a8 76 e2 99 3f 7f 88 68 73 c0 c0 c0 3f
       0.025277952230569202 0.13088231692478655
0000d0 20 1b 72 50 74 13 94 bf 4c 58 d9 ab 5c b0 90 bf
       -0.019605462465302925 -0.01629776762850836
0000e0 65 4a be d9 e9 f3 b6 3f e2 58 b4 33 38 71 9a bf
       0.08965932432173813 -0.025822523265639392
0000f0 0c 54 d3 da 59 87 88 3f e6 7f 62 52 b2 d0 b6 3f
       0.0119769115357631 0.08912195693346767
000100 39 a6 a2 5f 68 94 de 3f ef ce c4 c2 cb b5 e0 3f
       0.4778080877245859 0.5221918872907433
000110 ef ce c4 c2 cb b5 e0 3f 39 a6 a2 5f 68 94 de 3f
       0.5221918872907433 0.4778080877245859
000120 f7 b2 74 74 6a cc a0 3f a7 42 97 53 cc dc 3d 3f
       0.032809569087794026 0.0004556654781398363
000130 bc 72 13 8a b0 05 97 3f 6f 25 1b aa 3b 29 90 3f
       0.022482641627777453 0.015782291657875754
000140 d4 3c eb a5 cf 18 9d 3f 0a 9f 2b 26 3f d2 52 3f
       0.028414959432493017 0.0011487595262966188
000150 d5 78 10 ff 09 91 a4 3f 87 ff 76 63 9f e5 61 3f
       0.040169060121330404 0.002184687906009178
000160 91 d8 86 65 fe a3 9e 3f ab 08 3a 3a 0c 5d 82 3f
       0.029922461458874287 0.008966537024438578
000170 a8 94 4c 8f be 02 a2 3f eb e7 76 49 68 06 f3 3e
       0.03517718791253205 1.814368132866527e-05
000180 47 e5 a4 4c d6 ea c1 bf a8 99 8b 4b ce ce c4 3f
       -0.13997915975941508 0.16256121338592533
000190 f3 0d 8f 33 17 d1 ca bf a5 7b 83 8d 3f 72 c4 3f
       -0.20950593965072492 0.15973657998889937
0001a0 6a 36 8b df f4 d1 cc 3f 6f b2 d3 fd 26 22 c8 bf
       0.22515736499046862 -0.18854224580663323
0001b0 b4 59 df 84 12 d8 a6 bf db c6 77 1e d1 25 be bf
       -0.044617251128943464 -0.11776453965992621
0001c0 38 aa d6 ff c5 8d c8 bf fc 99 ce ad a1 00 a6 3f
       -0.19182658187976798 0.04297356840770658
0001d0 d4 c0 32 26 5e 3d c3 bf 6d b3 ef 75 0a ce c3 bf
       -0.1503102957262913 -0.1547253681050295
0001e0 51 50 5a 88 94 87 d8 bf f8 aa 2b ad 4e d2 df 3f
       -0.38327515903188664 0.49721114073933803
0001f0 e1 a1 b8 b1 ea 10 ed 3f 30 a9 3e 18 e7 6b b6 3f
       0.908315035926588 0.08758396474755581
000200 ab 70 62 1a 44 1f d6 3f 2b 0e 46 d4 8c f4 b1 3f
       0.3456583268796389 0.07013778860532997
000210 ad 4c 86 7c f9 29 a7 3f 8e d2 ca ed e1 e9 c9 bf
       0.04524211545062804 -0.20245002852393096
000220 19 ad d4 71 18 88 b8 3f a6 b0 6f 7d ec c5 c3 bf
       0.09582665232726519 -0.15447765469378288
000230 2b 14 aa 59 b6 de d1 3f 94 64 93 d0 5d e8 c3 3f
       0.2792182803753486 0.15552876171458208
000240 eb d2 69 fb 2b 24 c9 bf 77 c2 ab a3 eb e5 c0 bf
       -0.19641637588542635 -0.1320166157888882
000250 5d 08 18 bc a5 bc a9 3f 5b 05 0b 1a 31 81 d8 bf
       0.050267390452078266 -0.3828852419211068
000260 58 ff c1 74 8c bd df 3f f6 bc 2c 53 c6 03 ed 3f
       0.49594413187150144 0.9067107796198843
000270 2e 64 76 e7 07 64 b6 3f 2d 19 a6 15 3d 18 d6 3f
       0.0874638500303184 0.3452294074453615
000280 fe d2 ce dc 19 f0 b1 3f 8e b8 3a 6f 47 1d a7 3f
       0.07006990090196649 0.04514525635509968
000290 67 6d 8c 08 51 e3 c9 bf 1e f3 d5 f3 bc 88 b8 3f
       -0.20224965016755478 0.09583645775815028
0002a0 8a 16 ff 69 53 c5 c3 bf 7a 91 9a e8 ba da d1 3f
       -0.15445940662009533 0.2789752265473663
0002b0 91 49 27 a4 30 e3 c3 3f 59 b8 53 01 59 20 c9 bf
       0.15537078872018786 -0.1962996727447173
0002c0 c9 ef a8 ec 74 e0 c0 bf 54 cf a6 f5 4b bd a9 3f
       -0.1318498759809457 0.050272344338195524
0002d0 90 b9 10 41 ab 6b c1 3f f0 81 e0 13 de d5 c1 3f
       0.1360982959462942 0.13933921785884662
0002e0 f7 35 3a 04 e0 fc c1 3f 46 4e bf 67 3e ff c1 3f
       0.14052963453688935 0.14060192170892288
0002f0 ae c4 f6 a0 57 ef c1 3f ad ae b7 d3 02 c9 c1 3f
       0.14011664733474077 0.13894687021035193
000300 82 e6 d6 a4 7e 99 c1 3f 55 04 91 8a 78 b1 c1 3f
       0.1374967865829611 0.138228480967913
000310 8c 8b 0d 72 98 d7 c1 3f 88 9c 42 cc f2 e8 c1 3f
       0.13939195221891187 0.13992152188913942
000320 d0 4f 8a 71 ff e6 c1 3f 36 46 f1 03 5d b1 c1 3f
       0.13986199420889855 0.1382251996279124
000330 0a fe a8 a2 c7 ea c1 3f f8 f1 8a 44 e0 6d c2 3f
       0.13997741167439443 0.14397815081419174
000340 8d ea d0 12 92 4d c2 3f 47 80 7e 64 2c f6 c0 3f
       0.14299226683381897 0.1325126162237231
000350 8b 68 7b 8e 73 96 c0 3f 0d ec b2 b7 b6 81 c0 3f
       0.12959141213542966 0.12895854921029618
000360 bb 43 09 b9 e3 25 c1 3f f6 56 46 d7 b3 48 c1 3f
       0.13396879706354334 0.13503120433295351
000370 f7 b7 bc 1d 4a 6f c1 3f c4 72 b4 d4 18 3a c2 3f
       0.13620878650675625 0.14239797960262568
000380 33 17 4b 83 e6 90 c2 3f fd 66 c4 cb 68 26 c3 3f
       0.14504701052481436 0.1496096606213583
000390 d1 ed 4d 8d cd 08 c3 3f 4c 1b fa 43 4a 74 c1 3f
       0.1487061443293514 0.13636139220417431
0003a0 d6 c4 51 8e 44 d7 c0 3f d2 b8 e9 84 0a b1 c0 3f
       0.131569451801204 0.1304028653134482
0003b0 d3 57 39 85 45 8c c1 3f 1d d6 2e 16 b6 a5 c1 3f
       0.13709324841573664 0.13786960681106644
0003c0 ff 2a 6e 23 9b b4 c1 3f 4c 91 d1 b1 c6 d2 c2 3f
       0.13832415800091977 0.1470573776488301
0003d0 f2 12 41 ab dd 3e c3 3f ad 25 09 ca 07 7b c3 3f
       0.15035601484318978 0.1521920906546205
0003e0 15 34 db 6c 61 0c c3 3f 9e fe 0a f7 8d 07 c2 3f
       0.1488153249287342 0.14085554659503868
0003f0 2a 77 48 1e 44 41 c1 3f 5e 98 a4 7d 29 44 c1 3f
       0.13480426291146702 0.1348926414004294
000400 4c f8 8a c5 3c a8 c1 3f a7 24 8e a3 3c 00 c2 3f
       0.13794669767043144 0.1406322287187198
000410 eb 6e 35 4a ce 3d c2 3f 1e e9 f4 93 d4 63 c3 3f
       0.14251116393540228 0.1514840815014588
000420 13 6d 8f 40 d1 cf c3 3f 36 09 c8 ac d4 15 c4 3f
       0.154779583476604 0.1569162219676145
000430 70 08 19 6a 8f aa c3 3f e3 22 2a 27 a7 a2 c2 3f
       0.1536425846152869 0.14558877384504063
000440 62 cf 46 92 24 df c1 3f 31 a5 27 5d 93 09 c2 3f
       0.13962227957164958 0.14091722534730303
000450 c9 e6 9c d7 44 9b c2 3f 16 60 cf 42 83 e0 c2 3f
       0.1453634312436434 0.14747658502778965
000460 ce 61 cd 7f 4f db c2 3f 6f 45 16 17 a4 ee c3 3f
       0.14731782665582077 0.15572024466795706
000470 35 4d 38 02 8b 39 c4 3f bc 65 10 09 2a 98 c4 3f
       0.15800607307810713 0.16089368288593942
000480 50 fe e3 6e fc 59 c4 3f b4 26 be 32 a7 30 c3 3f
       0.158996156831551 0.14992227533030233
000490 8f ac 17 94 89 a5 c2 3f f4 d5 95 c2 28 f3 c2 3f
       0.14567680102422684 0.14804563046679642
0004a0 db 7d e5 ae 1e cb c3 3f b2 6c ba ef b5 d0 c3 3f
       0.15463622608056835 0.1548068447635607
0004b0 34 7b f0 ad a0 83 c3 3f 46 7b 4c b0 24 56 c4 3f
       0.1524544572175387 0.1588788853486795
0004c0 8a d4 b5 cc 8f c3 c4 3f 3f df 38 b5 6f c6 c4 3f
       0.16221806998843064 0.1623057970880328
0004d0 62 ff c7 e7 cd dc c4 3f 77 2d e4 be 6a 48 c4 3f
       0.16298841302340877 0.1584599907003896
0004e0 a3 d4 85 65 60 92 c3 3f c8 ce 0e 7e 76 6c c4 3f
       0.15290455777327336 0.1595600238339243
0004f0 65 57 d8 82 f1 a3 c5 3f f1 94 72 b4 dd 66 c5 3f
       0.16906565560264677 0.16720172224919552
000500 bd b5 a9 da 98 b3 c4 3f b1 b9 96 48 b5 17 c1 3f
       0.1617308681192479 0.1335360149800642
000510 2b 5d d5 a1 b6 68 c1 3f 63 db d6 f4 9f 9d c1 3f
       0.13600809957527224 0.13762282805484025
000520 46 3a 51 05 3d ce c1 3f ce 14 80 2e 1a e6 c1 3f
       0.13910639533647123 0.139834664063676
000530 09 0a 4b 70 74 d2 c1 3f 37 54 74 24 05 b3 c1 3f
       0.13923507197439758 0.13827575950623025
000540 5b c5 53 90 ff 9e c1 3f 6f fa 26 4e db 85 c1 3f
       0.13766474292018924 0.13689748111751807
000550 e5 95 df 0c 74 6a c1 3f c4 b0 0a 7c 35 61 c1 3f
       0.13606119755347304 0.1357790809319167
000560 e7 6d 63 25 d9 20 c1 3f b5 f9 e7 f8 9d 57 c1 3f
       0.133814948326161 0.13548636106129455
000570 e6 c5 8c 48 98 bf c1 3f a4 2b 88 4a e9 ef c1 3f
       0.13865951101756407 0.14013401164296824
000580 38 66 a4 89 d8 56 c1 3f 97 d2 cf c8 38 2f c1 3f
       0.1354628250199299 0.13425359540237444
000590 8d fa b0 e3 0c 3b c1 3f 76 42 d4 21 0f d2 c1 3f
       0.13461457364788423 0.13922299529851373
0005a0 67 5d 43 18 16 a1 c1 3f 0e 70 de b9 9d 14 c1 3f
       0.13772846398090197 0.13344165397290947
0005b0 b2 bb ce 68 23 97 c1 3f 6e 57 88 d6 9a df c1 3f
       0.13742487542682863 0.1396363780519851
0005c0 b0 2e 01 0f 0c a2 c2 3f a3 07 21 2b e0 f9 c2 3f
       0.14557028515479464 0.14825059991750064
0005d0 fe 7f 38 a9 ad dc c1 3f b0 8a f9 cf 1f aa c1 3f
       0.13954706919412269 0.13800428061502634
0005e0 88 4d 09 cc 8f e5 c1 3f d7 37 03 a2 38 a3 c2 3f
       0.13981816733085517 0.14560611639757212
0005f0 48 b8 d2 09 dc 64 c2 3f 60 f4 b3 75 e0 a5 c1 3f
       0.14370298843044993 0.13787465808119048
000600 62 19 c5 10 a4 20 c2 3f 10 d2 bb 60 4d 88 c2 3f
       0.1416211206325882 0.1447846147854226
000610 44 bb d4 33 ab 2b c3 3f f8 63 6b f2 dc 80 c3 3f
       0.1497701647835702 0.1523700889290749
000620 40 9c e6 73 12 9d c2 3f c6 0a 7f 16 36 49 c2 3f
       0.14541845950336274 0.14285923098039727
000630 ce e9 79 08 b2 ab c2 3f a5 14 82 40 0b ae c2 3f
       0.14586472905996434 0.14593639993487276
000640 68 f6 1b 56 23 93 c2 3f ab f6 f9 9e 3d 45 c2 3f
       0.14511529640724352 0.14273805868645204
000650 74 07 30 8c 9a ba c2 3f f6 91 a9 94 44 3a c3 3f
       0.1463196930417855 0.1502156949892563
000660 6b bc c1 f3 b7 24 c4 3f 73 b7 3f 96 a6 83 c4 3f
       0.15737056162058435 0.16026766144153334
000670 8a fa 56 fc 52 7a c3 3f e0 77 25 21 32 d9 c2 3f
       0.15217053719785084 0.1472532903525794
000680 3e c6 f2 08 3f 6c c3 3f 8c 3e 7c 72 02 54 c3 3f
       0.15174091278963603 0.15100126829246496
000690 6b 0a 3d dd dc 38 c3 3f df 67 00 eb 1f ec c2 3f
       0.15017281344087804 0.14783095335661664
0006a0 3d ea 48 ef 54 60 c3 3f d1 ed da 27 dc e9 c3 3f
       0.15137731250600153 0.15557434030584585
0006b0 5c 24 17 b5 34 22 c5 3f 91 2b 9b a8 52 8a c5 3f
       0.16510638086609475 0.16828377945634235
0006c0 fe 95 6b bd 81 31 c4 3f 7e 30 de 9a 3b 76 c3 3f
       0.15776082753215798 0.15204567968283195
0006d0 e3 3d 10 ce b2 e3 c3 3f 9a b6 84 c1 ea fc c3 3f
       0.1553863054436838 0.1561559147752874
0006e0 13 7b 0e 63 59 c8 c3 3f 20 dc 58 3f 3e 8a c3 3f
       0.1545516713785778 0.1526563462554984
0006f0 3a 44 cf 80 87 71 c4 3f eb 31 03 ef 5b ef c4 3f
       0.15971463956387472 0.16355466051608344
000700 11 1a da 18 b3 82 c6 3f db 5b 9f ac 1a 08 c7 3f
       0.1758636351916754 0.17993482045014172
000710 da 99 66 fa 94 49 c5 3f 9c 42 af 20 e8 28 c4 3f
       0.16630804277993044 0.1574983749001334
000720 b0 04 93 01 2c c3 c4 3f db b1 74 14 60 9d c4 3f
       0.16220617367620127 0.16105271338291413
000730 ae 01 75 0c a4 7f c4 3f 23 b2 51 51 cd ae c4 3f
       0.16014528854613047 0.16158453436527606
000740 16 8d 78 39 4a 9f be 3f 9b 4d 96 61 dd be bf 3f
       0.11961807158563817 0.12400611526964271
000750 7d 7b f3 d4 70 1b c0 3f 8a 14 9b 97 b2 3b c0 3f
       0.12583742521288946 0.12682182695985872
000760 19 32 a9 84 b8 50 c0 3f c1 fb 27 1b b4 62 c0 3f
       0.12746340253433244 0.1280121929739533
000770 c8 c0 3c ed 12 47 c0 3f d3 4a 28 2b 3e 45 c0 3f
       0.12716900428632116 0.12711312396330374
000780 37 83 05 20 c5 41 c0 3f a5 33 c8 49 74 35 c0 3f
       0.12700714171935498 0.1266312942756517
000790 05 29 60 64 aa 0e c0 3f 69 58 85 e6 4b 32 bf 3f
       0.1254475584140168 0.12186121347380809
0007a0 e5 da 39 82 70 da bf 3f 01 51 54 59 a5 a7 c0 3f
       0.12442687205644239 0.13011614667687613
0007b0 70 1a 66 d0 28 e5 c0 3f c2 7e ee b6 71 70 c0 3f
       0.13199339080547956 0.12843152458389367
0007c0 2b e9 89 47 df c8 bf 3f 2e d3 c9 0c 41 a0 bf 3f
       0.12415881630468976 0.12353903352943682
0007d0 6a f8 78 2f ec fd bf 3f 41 12 11 26 96 c9 bf 3f
       0.12496830138204165 0.12416971616136953
0007e0 fe 56 8e f5 1b a9 bf 3f fd 76 fd 53 03 34 c0 3f
       0.12367415184993644 0.12658731080130528
0007f0 5a ad b8 84 ca a6 c0 3f d8 68 66 7f 40 8b c1 3f
       0.13009006004845497 0.13706213207917162

running_var f8 [376]
000000 54 04 36 ff 4d 6b 9c 3f 03 71 be 24 b4 73 f9 3f
       0.027753084852069357 1.5907479701336917
000010 9d 12 b3 f4 be 2a c0 3f 5e 3f 2f 69 e3 b9 09 40
       0.1263045019933501 3.215765783075695
000020 94 1d 14 f1 b0 bc cf 3f de f9 c6 89 5f b5 cf 3f
       0.24794589778342113 0.247722570680664
000030 58 42 37 a7 d3 d0 ce 3f c9 cb 83 e9 72 58 ce 3f
       0.240747887276046 0.23707424547282432
000040 57 97 73 f2 4c 72 7a 3f 3a 82 ac 30 98 45 65 3f
       0.006456661772267078 0.0025966618026276563
000050 3d 8c d9 65 2c 44 72 3f 3d 3f ed 65 19 0b 7c 3f
       0.0044595464983983564 0.0068465225329673
000060 f8 b3 ee 57 87 ca 62 3f 9b 6b 0c 32 17 9d 71 3f
       0.0022938388278448373 0.0043002039026544215
000070 6f 7e b7 05 ab d8 75 3f a1 dd c6 11 1f ee 63 3f
       0.005333583885174783 0.0024328810524953536
000080 d5 ea 4d 74 31 07 73 3f e1 de 24 ae e5 84 76 3f
       0.004645531826890721 0.005497834385373075
000090 4c 49 46 5a 3f c5 67 3f b8 e8 2f 69 a0 80 73 3f
       0.0029016721111442597 0.0047613397646221675
0000a0 f5 c5 b4 46 a8 71 01 40 6e eb a7 0f 57 6a e6 3f
       2.180496742622149 0.7004809671192171
0000b0 1a ac d1 7f 52 e0 e6 3f ea e9 69 d5 af b1 02 40
       0.7148830887284732 2.3367611573169045
0000c0 8a 05 c1 83 a4 43 e6 3f b1 57 de 3d 84 15 e7 3f
       0.6957571576423771 0.7213765343064918
0000d0 be e1 3a e1 00 4c f5 3f 5e e6 41 4e 83 42 dd 3f
       1.3310555265471602 0.45718462602926546
0000e0 58 32 b6 93 09 f9 d8 3f 56 fa fc 73 24 a3 f6 3f
       0.39020003724070795 1.4148296862400875
0000f0 8d f5 f9 ed c6 1f de 3f 4b 43 f4 9a 60 22 db 3f
       0.4706895183552085 0.42397322780839336
000100 05 48 e0 8c e1 ef cf 3f 3c cf bb 91 e1 ef cf 3f
       0.2495080888625695 0.2495080911245341
000110 3c cf bb 91 e1 ef cf 3f 05 48 e0 8c e1 ef cf 3f
       0.2495080911245341 0.2495080888625695
000120 06 f2 7b 7a 1d 9f 96 3f de 5c 92 22 39 66 91 3f
       0.02209135112842555 0.01699151299962131
000130 59 ef f0 18 b0 87 95 3f 1e ed 36 45 e9 16 92 3f
       0.02102542068699562 0.0176655243392193
000140 aa 94 7e 7b 36 90 87 3f 01 e8 ff 6d 5b a2 79 3f
       0.011505532878638942 0.0062583514663803195
000150 f3 f6 57 fd 0e b9 89 3f 1c ee 1b 0e e2 87 7b 3f
       0.012560002428468197 0.0067213850286367526
000160 d9 15 f4 55 5f ba a0 3f 30 2f 6e 96 a0 cc 98 3f
       0.03267190860973885 0.024218091184180668
000170 53 ec d0 00 d6 95 99 3f 9a 69 31 25 32 9b 8e 3f
       0.02498564128857723 0.014944450149575062
000180 5d 14 d0 e6 6f df 1e 40 99 eb 89 a1 f1 c9 20 40
       7.7182003082753825 8.394421623311972
000190 a5 26 a3 f7 1c 11 16 40 75 d2 c9 bb f8 5a 1f 40
       5.516712064106888 7.8388394681866105
0001a0 09 02 c7 3e 51 21 21 40 e8 9c 89 2a 72 f0 15 40
       8.565072976868594 5.484810509347177
0001b0 53 06 f1 4a 59 6e 18 40 b3 1c b3 57 b9 5c 1b 40
       6.107762499772053 6.840550775820861
0001c0 58 2c 17 b0 0d d1 0e 40 85 d3 05 a7 f5 3c 18 40
       3.852076888758841 6.05953083966313
0001d0 49 ea 72 0d 4a 1b 1b 40 54 4b 5b d8 1e fa 0f 40
       6.776649675501695 3.9971291449414057
0001e0 4e 31 83 41 8b 4f cc 3f 19 33 ba 78 4b 78 d5 3f
       0.22117748926974418 0.33546721257953177
0001f0 b0 ab b5 b6 72 00 b0 3f b1 70 87 ce cb 75 df 3f
       0.06250683746991004 0.49156470459798657
000200 40 23 e3 06 df e6 da 3f c9 7c af 74 65 45 dd 3f
       0.4203412596948972 0.4573606147295775
000210 f3 c1 b4 ba 2d d7 df 3f d2 a1 78 f9 2c 73 da 3f
       0.4975084613134008 0.4132797657244086
000220 69 be e5 59 77 85 db 3f d6 30 03 a1 d7 3d df 3f
       0.43002113131567526 0.4881495544802993
000230 d5 8c 3a c4 36 79 d9 3f 5a 8c 2c a4 1a 45 d7 3f
       0.3980233112617502 0.36359277756327446
000240 6c 7a b5 05 7e aa dd 3f a1 65 07 4c 82 c7 da 3f
       0.46353102262029355 0.41842706131645896
000250 61 ec 50 c3 8e 0e da 3f 0d 08 68 16 7e 3a cc 3f
       0.4071385295280319 0.22053505033551382
000260 93 c8 cf 3f 01 81 d5 3f ff e8 06 3f b3 52 b0 3f
       0.33599883300406325 0.06376190460915508
000270 a0 1f 76 94 75 62 df 3f 4c 12 f1 eb 77 d7 da 3f
       0.49038447855172684 0.419401150142481
000280 e7 a9 52 48 bf 32 dd 3f a5 b3 54 85 99 c3 df 3f
       0.4562223631170625 0.4963134576853981
000290 e9 9c 99 cf 05 62 da 3f 21 72 86 7b f8 72 db 3f
       0.41223283074800904 0.4288922506619049
0002a0 92 86 d8 d7 0d 2a df 3f 8a a5 8d 43 78 68 d9 3f
       0.48694177702609764 0.39700132939341215
0002b0 9e 49 45 f1 f9 33 d7 3f fc 4d 87 bd d1 97 dd 3f
       0.36254738389575347 0.4623913145889842
0002c0 37 a4 74 93 95 b5 da 3f 95 dd 30 c5 40 fc d9 3f
       0.4173330249782938 0.40602130181238155
0002d0 fb 98 6f 17 d5 cc b2 3f 5b 0d 88 df 00 76 b3 3f
       0.07343799421468937 0.07601933915434726
0002e0 5d 7a fc f4 62 af b3 3f 7c ff e5 a5 6c b7 b3 3f
       0.07689493638142993 0.0770175843263114
0002f0 d9 49 bf ba af a0 b3 3f 54 e3 56 09 ec 68 b3 3f
       0.07667063054331126 0.07581973293316696
000300 c5 8f 8f 0d 5b 2a b3 3f 52 e7 33 ba 10 3f b3 3f
       0.07486504632066644 0.07518105073895967
000310 d6 72 09 a6 df 74 b3 3f 75 0a d5 fe 85 8e b3 3f
       0.07600210002551519 0.07639348479737314
000320 c6 f5 05 d5 41 89 b3 3f 18 3f c2 46 fb 95 b3 3f
       0.07631312800182063 0.0765072868109623
000330 ca 51 13 5f 43 fa b3 3f 43 84 58 fa a5 9a b4 3f
       0.07803746291330707 0.08048474657017927
000340 12 ae 99 00 8d 6e b4 3f aa 2f 78 48 e3 84 b2 3f
       0.07981187119155944 0.07234020728372906
000350 74 8d 56 30 de df b1 3f db 98 6f d2 ba e2 b1 3f
       0.06982220344666762 0.06986587178798535
000360 41 d0 42 06 fd d8 b2 3f 4f a6 ff 6d 69 0c b3 3f
       0.07362347987037855 0.07440813956750357
000370 96 f1 17 65 07 50 b3 3f 0a b5 28 a6 0e 8a b4 3f
       0.0754398938951851 0.08023158604256167
000380 c0 dc c9 b9 c8 23 b5 3f 96 85 6c 6b ba d5 b5 3f
       0.08257727180340435 0.08529248354581961
000390 c9 5a f2 d7 55 b4 b5 3f 23 fa 61 2d 62 78 b3 3f
       0.08478294870506455 0.0760556565091766
0003a0 0e 0e 9b 15 4f 6d b2 3f 54 93 a7 53 84 6a b2 3f
       0.07198042180521488 0.0719378189310878
0003b0 4d 89 8b a0 05 ac b3 3f b6 fe 7a 65 d8 cc b3 3f
       0.07684359712178442 0.07734444119977976
0003c0 49 67 54 ba 81 f4 b3 3f a1 fd db 75 ca 93 b5 3f
       0.07794962691369024 0.08428635957169785
0003d0 af 9e 6f 2f 5e 4c b6 3f ed ed 86 58 2f 9a b6 3f
       0.08710278184991681 0.08829017554574366
0003e0 f7 9a ac 20 b9 f5 b5 3f f0 b9 13 01 82 82 b4 3f
       0.08578068778716018 0.08011639143271743
0003f0 b4 db cd d6 3b 3a b3 3f e0 b5 07 8f 04 79 b3 3f
       0.07510732645265145 0.07606533519693626
000400 c9 d7 4a ef 87 0e b4 3f bc aa 76 f4 1d 91 b4 3f
       0.07834672538851274 0.08033930986736498
000410 34 aa af 51 8b ec b4 3f 8a a3 7b 09 d7 91 b6 3f
       0.08173437828342217 0.08816284162061386
000420 dc b1 ad 4a cc 42 b7 3f 5d c2 f3 7c ba a2 b7 3f
       0.09086300681310128 0.09232678938475077
000430 7a 6b 77 4b 1a 03 b7 3f db 14 1f b5 2f 8f b5 3f
       0.08989109365886164 0.08421610042485687
000440 a9 c3 58 5c 55 53 b4 3f 8b 77 1c a4 34 c5 b4 3f
       0.07939656738814328 0.08113411909695693
000450 4b 84 4f 74 89 9b b5 3f ee 4c 62 ed 28 02 b6 3f
       0.08440455522169647 0.08597045703418235
000460 70 7d 3e 25 3f f8 b5 3f 3a 28 11 1a 4c 85 b7 3f
       0.08581919345168898 0.09187770496751649
000470 e6 2d 21 d3 62 fb b7 3f 4e 19 05 e2 ed 83 b8 3f
       0.09367959646731769 0.09576308029236211
000480 e6 9e f4 7c 69 25 b8 3f 53 f2 d0 9a 9e 7f b6 3f
       0.09432086277649496 0.08788481979076694
000490 b2 2e a9 56 00 a6 b5 3f 54 43 43 53 6b 3a b6 3f
       0.08456422916168085 0.08682890684873473
0004a0 1b 34 54 0a bf 74 b7 3f 3a ed 51 db ad 7f b7 3f
       0.0916251564232912 0.09179197887890647
0004b0 b0 05 67 21 40 0b b7 3f df a7 0e 08 ee 72 b8 3f
       0.09001541915406253 0.09550368973455602
0004c0 a7 3f 87 3b 11 f4 b8 3f 7b 4e 76 fe 63 26 b9 3f
       0.09747417167022708 0.09824204409079045
0004d0 4b d1 d6 c3 21 49 b9 3f a0 2c b6 e8 03 46 b8 3f
       0.09877215415219102 0.09481834823070523
0004e0 96 63 ad 47 01 72 b7 3f fc 0c 50 be 57 84 b8 3f
       0.09158332824644186 0.09576939007097346
0004f0 74 a1 2f 45 9b 4c ba 3f 3d 14 7f 59 5a f7 b9 3f
       0.10273142279732445 0.1014305561539723
000500 b5 1f 05 37 f6 e8 b8 3f 3a ce b6 68 04 f0 b1 3f
       0.09730471461546027 0.07006862217422674
000510 d7 fe 29 ab 21 73 b2 3f 4d 38 56 87 76 be b2 3f
       0.07206926754769981 0.07321873478051195
000520 b3 4b 14 80 d5 0b b3 3f 58 7f 7c 6c c2 30 b3 3f
       0.07439932228980588 0.0749627604350257
000530 9e cb 11 27 61 16 b3 3f e1 a2 7e 2a 6b f6 b2 3f
       0.07456023410649812 0.074072549700428
000540 bd ae 6e 28 9a cc b2 3f 5a be 66 22 fb a2 b2 3f
       0.07343448149793637 0.07279939260365023
000550 ec 74 50 df a7 77 b2 3f df 67 33 60 98 65 b2 3f
       0.07213830186852349 0.0718627199998134
000560 5a 19 6a 06 82 71 b2 3f 6a b0 d5 0e d8 e6 b2 3f
       0.07204449326136367 0.07383489954162462
000570 50 2d f3 13 03 69 b3 3f 35 51 ea 73 1b b4 b3 3f
       0.07582110631044725 0.07696696834529322
000580 04 4b 23 a1 a8 d6 b2 3f 87 d7 1d c5 d4 6c b2 3f
       0.07358793195752972 0.07197313129822024
000590 44 12 a3 ae e0 8f b2 3f 67 84 b8 f8 05 58 b3 3f
       0.07250789893721171 0.07556187937054092
0005a0 8e 31 39 52 36 09 b3 3f da 00 a1 25 28 69 b2 3f
       0.0743593168965104 0.071917065798519
0005b0 2e 36 f6 c0 32 4d b3 3f c4 2d 33 6b 41 ee b3 3f
       0.07539670191746303 0.0778542410582111
0005c0 3f 33 ba bb b5 ec b4 3f 9e 5c 2f 3a f2 74 b5 3f
       0.08173690636813279 0.08381570740253827
0005d0 d6 21 80 e3 6d db b3 3f e2 db cd 9c a6 4a b3 3f
       0.07756697468005966 0.07535783127046572
0005e0 f7 59 36 85 bb c0 b3 3f fe ad 57 b2 56 c2 b4 3f
       0.07715961458448094 0.08109037260117444
0005f0 a4 1d b2 76 a3 5a b4 3f aa 63 c3 9f c5 78 b3 3f
       0.0795080342087347 0.07606158400029864
000600 03 be 5e 6a 59 42 b4 3f 20 20 d2 1e a1 12 b5 3f
       0.0791374096577258 0.08231551172696117
000610 66 c4 55 54 aa fe b5 3f 24 da 84 d1 f2 73 b6 3f
       0.08591713484726568 0.08770673384865596
000620 93 85 ec fd 35 24 b5 3f e2 2f 11 2c a5 5e b4 3f
       0.08258378457369124 0.07956917119844278
000630 45 50 24 c5 67 0f b5 3f 2b 03 7e a0 13 0f b5 3f
       0.08226631701501315 0.0822613016916988
000640 f0 30 55 9d 01 f5 b4 3f 7c 6b 0b 7a 07 91 b4 3f
       0.08186349955684924 0.08033797006230076
000650 48 63 82 11 59 4d b5 3f 8f 4b b8 54 14 39 b6 3f
       0.08321148564790548 0.08680846279484754
000660 45 f0 69 73 57 8b b7 3f 87 00 68 29 ff 09 b8 3f
       0.09196993415565753 0.09390253792662594
000670 83 59 2a b0 f8 89 b6 3f 4a 1a 45 17 d3 5b b5 3f
       0.08804277707017687 0.08343238180268844
000680 78 dd e2 fa 43 4c b6 3f ea fc a6 d8 83 28 b6 3f
       0.08710121989394348 0.08655571021425926
000690 e4 0c be ec 77 11 b6 3f 4b 40 96 14 cf ab b5 3f
       0.08620404748767246 0.0846528458844215
0006a0 bf d2 39 39 1b 69 b6 3f dc 3a ae 4b 4e 52 b7 3f
       0.08754129550090804 0.09109963748617694
0006b0 f5 f0 11 16 0d 12 b9 3f 0a 60 96 3e e6 99 b9 3f
       0.0979316882020987 0.10000456836712615
0006c0 a0 b5 3b 1a f6 ad b7 3f fc 9c 5f 63 6c 6c b6 3f
       0.09249818935832943 0.08759190965757918
0006d0 71 0d a4 ce 56 18 b7 3f 33 a6 97 06 b0 41 b7 3f
       0.09021513504926816 0.09084606324145099
0006e0 82 27 19 c4 a8 07 b7 3f b5 47 83 54 19 b2 b6 3f
       0.08996062076144365 0.08865507424641701
0006f0 a0 5c 61 a6 a5 4b b8 3f b3 e4 48 9b 33 ee b8 3f
       0.09490428268451234 0.09738466778880443
000700 b7 0f 80 52 66 2f bb 3f b4 ec 2f 52 dc e0 bb 3f
       0.10619201196828852 0.10889985090755055
000710 14 48 79 25 e5 63 b9 3f 52 fb 19 2d 7a f2 b7 3f
       0.09918052830587981 0.0935436592207968
000720 aa b8 0a 6f 7d 8d b8 3f 55 8d 21 97 c9 94 b8 3f
       0.09590896569236187 0.09602031650279248
000730 65 5d a0 ce 94 6a b8 3f c3 aa 6c 0a 20 89 b8 3f
       0.0953763012370153 0.09584236387733384
000740 43 49 bf cf cf c1 b1 3f 76 6a 3a a8 98 ae b2 3f
       0.06936358282044801 0.07297662837155791
000750 3e 97 51 e6 a9 05 b3 3f 81 75 3c 48 b8 3b b3 3f
       0.07430517075553397 0.07513000262811965
000760 5d f5 40 5c 27 5c b3 3f 7c 02 e7 97 69 79 b3 3f
       0.07562490465439482 0.07607135733179321
000770 2b f0 5d 80 02 60 b3 3f f5 2f f2 7d 41 4b b3 3f
       0.0756837428470482 0.07536706280569645
000780 fc 04 2d c8 0d 44 b3 3f 9b 5a 9c f2 7f 30 b3 3f
       0.07525716912370578 0.07495879815210531
000790 e3 f0 c5 ca 30 f0 b2 3f af 38 9b f1 3f 9e b2 3f
       0.0739775176097655 0.07272720001785403
0007a0 74 60 ab ba 33 2e b3 3f 08 4d 9a 00 2c 20 b4 3f
       0.07492373759612453 0.07861590399470597
0007b0 5e 03 a9 79 d6 7e b4 3f 9c b7 3c 1e 3d f2 b3 3f
       0.08006039114208138 0.0779150198765976
0007c0 9e c0 0e b8 20 0e b3 3f 61 7b 3f 2b b0 23 b3 3f
       0.07443432324976348 0.07476330810412214
0007d0 04 ff ab 47 c9 57 b3 3f b6 6e 42 0b 13 2c b3 3f
       0.07555826186944264 0.07489127182855779
0007e0 61 cb 07 6e 0e 20 b3 3f a2 4c 68 be a9 ba b3 3f
       0.07470789133348667 0.07706700228327404
0007f0 d8 45 8b 22 56 83 b4 3f 86 23 2a ac c7 a2 b5 3f
       0.08012903540954797 0.084515075237631

count f8 []
000000 00 00 40 00 84 d7 d7 41
       1600000001.0

running_mean f8 [1]
000000 6e 09 3f 06 83 7d 63 40
       155.9222441893757

running_var f8 [1]
000000 c1 38 b7 bc 5b 66 ba 40
       6758.358348323208

count f8 []
000000 00 00 00 01 84 d7 b7 41
       400000001.0

a2c_network.sigma f4 [15]
000000 14 6e fd bf a3 43 c2 bf 6d d4 c3 bf 4e d2 4a bf
       -1.9799218 -1.5176891 -1.5299202 -0.7922715
000010 41 c6 55 bf 05 ab 81 bf f6 e7 4c bf 7b bc 84 bf
       -0.83505636 -1.0130316 -0.80041444 -1.037002
000020 38 04 85 bf 5f be 5f bf 2f fb 91 bf 17 7f b9 bf
       -1.0391912 -0.8739986 -1.140478 -1.449191
000030 01 ef 69 bf bc f1 96 bf 0d 38 a9 bf
       -0.91380316 -1.1792521 -1.322023

a2c_network.actor_mlp.0.weight f4 [128, 376]
000000 47 d4 54 be 24 75 7a 3d 54 eb 81 3e 4f 10 1e 3d
       -0.20784102 0.06114687 0.25374854 0.03858977
000010 ae 11 e4 3c 2c 1e 35 3e 56 71 a9 3d 60 ab 97 3d
       0.027840462 0.17687291 0.0827357 0.07405734
000020 04 74 96 3b 3c 72 5c be 23 7e 32 3e b5 8e 76 3d
       0.004591467 -0.21527952 0.1743093 0.06019469
000030 1b ba 97 3d 9b d7 8a 3d 95 d2 97 3e 0b f0 00 be
       0.07408544 0.06779405 0.2965285 -0.12591569
000040 4f c7 df bc 26 56 9e 3e 5e 67 52 be e4 c4 4b ba
       -0.027316717 0.309251 -0.20547244 -0.00077731744
000050 3a 1c ea 3c 2f 30 b1 3b 15 c5 a7 3c 1d 08 c0 bd
       0.028577913 0.0054073553 0.020479718 -0.093765475
000060 e8 04 9a 3e ab 5d 69 3e c0 01 11 be 04 be 79 3e
       0.30081868 0.22789638 -0.14160824 0.24388891
000070 54 43 a3 3c 8f ee 05 be 44 30 01 be 23 e3 f3 bd
       0.019929565 -0.13079284 -0.12616068 -0.11908557
000080 a7 d8 df 3d 39 f8 ca bd 39 2d 21 be 85 ca f5 3d
       0.10929995 -0.09910626 -0.15739907 0.12001518
000090 c1 eb 99 3e 31 fd 27 be 06 38 0b bf b6 4f 17 bf
       0.30062678 -0.16405179 -0.5438236 -0.59106004
0000a0 38 49 b4 bd 74 ea eb 3e f7 e0 88 3f aa c4 69 3f
       -0.08803028 0.4607731 1.0693654 0.9131571
0000b0 fc e1 3c be e6 33 8e bd cf 61 ac 3c 36 a5 af 3e
       -0.18445581 -0.069434926 0.021042733 0.34305733
0000c0 ae 78 82 3e bb c8 ba bd db 8d d6 3d fb 53 94 be
       0.25482696 -0.091203175 0.104762755 -0.28970322
0000d0 51 5b 27 bd 96 e2 3c bc d8 40 a9 3c e1 09 cb 3e
       -0.04085857 -0.011528632 0.020660803 0.39655975
0000e0 a7 54 82 be 10 12 f8 3d 70 1f 9b 3e 0c 06 27 be
       -0.2545521 0.1211282 0.30297422 -0.163109
0000f0 5d 14 48 3e b0 44 3c be 3b e6 09 be 66 11 13 be
       0.19539018 -0.18385577 -0.13466732 -0.14362106
000100 93 a6 83 3d fc 1d e1 3d 9b 17 3d be 73 a5 a4 bd
       0.06428256 0.10992047 -0.18466036 -0.080393694
000110 be c6 47 be cb 62 a7 3d a1 11 cb bd d9 4c 45 3d
       -0.19509408 0.0817314 -0.09915472 0.04816899
000120 c6 b2 6e bd 90 ac 12 3c b0 d2 9d 3d f9 82 cd 3c
       -0.05827596 0.008952275 0.07706201 0.025086867
000130 72 bf 84 bd d4 d7 1c 3d ab 10 6e bd 05 0a 8f 3e
       -0.06481828 0.038291767 -0.058121365 0.27937332
000140 af 7b 64 b9 78 b2 33 bb 2b 8d d9 bd 27 01 2c be
       -0.0002178985 -0.0027419608 -0.10622629 -0.16797315
000150 20 5c 82 bc f7 5f 74 bc 0c 76 a6 bd 41 f4 80 bd
       -0.01591307 -0.014915458 -0.081279844 -0.06296588
000160 ea bb d5 bc db af 50 bd 8e 95 7c bd 2e b5 ec bd
       -0.026090581 -0.05094896 -0.061666064 -0.11557995
000170 7b 06 4c bd ac 18 5f bd 59 21 4c bd 30 5c d3 3c
       -0.049810868 -0.05446689 -0.04983649 0.025800794
000180 34 24 3e bd 3d 9d d1 bd 5e ed 4f bd 87 6e 1a be
       -0.046421245 -0.10235069 -0.05076348 -0.15081225
000190 c9 b7 bf bd 51 fc 5c bc 85 40 9a be 4f 96 61 bd
       -0.09361226 -0.013487891 -0.3012735 -0.055074986
0001a0 65 7e 45 be ee 91 a4 bd 70 97 23 3e d3 4c d6 3d
       -0.19286497 -0.080356464 0.15975738 0.10463872
0001b0 a0 36 66 bd df da 6a bd 28 d0 9b bc 95 50 af 3d
       -0.05620444 -0.057337638 -0.019020155 0.08560292
0001c0 4f 24 a0 bd 40 37 03 3e fe 1c d7 bc 09 02 75 b9
       -0.07819425 0.12814045 -0.026258942 -0.00023365779
0001d0 9a 8e 02 3e 3e 3b 08 bc 9a 5d 0e be 71 ba 3d bd
       0.1274971 -0.008314906 -0.13902894 -0.046320383
0001e0 af 46 3c be ae 8a f9 3c f8 3f 85 3c 43 fb 96 3a
       -0.18386339 0.030461635 0.016265854 0.0011518974
0001f0 ef b9 6e 3d 6f ee 9b 3d f8 df b2 3c 97 8b 94 3c
       0.05828279 0.07613837 0.021835312 0.018132968
000200 62 c0 31 bb 09 96 e6 bd 86 7e 14 3e 53 c4 0a bd
       -0.0027122726 -0.11259086 0.1450139 -0.033878636
000210 33 06 35 bc ca 10 76 bd 4c 8b 80 bd 5e 45 da 3c
       -0.011048841 -0.060074605 -0.06276569 0.026644405
000220 be b1 90 bd fd 62 a7 3d 10 fe b0 3c a5 89 06 3a
       -0.07065152 0.081731774 0.021605521 0.0005132205
000230 98 aa 74 3d d5 9b 3f 3d 9c 0c a3 3d 69 6f 64 bd
       0.059733003 0.046779472 0.079613894 -0.05577031
000240 3d 6a 97 3d 6a 31 e9 bd 4a 8c d2 bc 1c b5 69 be
       0.0739331 -0.11386378 -0.02570166 -0.22822994
000250 1b a0 3d 3d 69 57 f4 3d 81 5a 00 bc b2 51 d9 3d
       0.046295267 0.11930735 -0.007834078 0.10611285
000260 81 29 c7 3d de c1 21 bd ca df df 3d c2 19 c1 3c
       0.09724713 -0.039491527 0.10931356 0.023571853
000270 7e 02 86 be b8 5c d4 3d 54 f3 a4 3b 11 c4 20 3e
       -0.26173776 0.10369247 0.00503389 0.15699793
000280 4d a4 89 3d 72 00 c3 bc 67 a4 22 bc 64 66 9b 3c
       0.06720791 -0.023803923 -0.009926892 0.018969722
000290 ec e3 1a bd 30 e1 7d 3a b2 a2 0c bd a8 24 fa 3c
       -0.03781502 0.00096847396 -0.034334846 0.030535057
0002a0 ca 2a 8e bd 37 63 99 3b df 46 81 bd d6 47 df 3c
       -0.06941755 0.004681017 -0.06312346 0.027255934
0002b0 eb 57 ae bd b2 0e 26 bd 55 fe 13 be aa bf 8a bd
       -0.08512863 -0.04054136 -0.14452489 -0.06774838
0002c0 47 7b af 3d 26 87 88 bd 81 73 cc bd 15 98 cf 3b
       0.08568435 -0.066664025 -0.09982968 0.0063352683
0002d0 07 1a f2 bb a2 40 1f bd 3d d5 b8 bd fc 64 15 3d
       -0.0073883566 -0.038879998 -0.09025047 0.03647326
0002e0 42 a7 bf bd 82 fe f6 bd ec c5 60 bc 32 72 55 bc
       -0.09358074 -0.12060262 -0.013719063 -0.013027715
0002f0 27 ec 3e be af c4 6e 3c 93 98 ad 3d 1e ad 31 bc
       -0.18644772 0.01457326 0.08476367 -0.010844497
000300 c8 9a 12 3d 90 b7 f5 bd 44 c2 05 3e 0a 41 d3 3d
       0.035792142 -0.119979024 0.13062388 0.103151396
000310 75 90 9f bb fd 6e e2 bd e5 69 43 3d dd 2c 46 ba
       -0.0048695155 -0.110563256 0.04770841 -0.0007559786
000320 1b 55 5c 3d 5a 77 a7 bd 80 e3 df bb d3 e5 68 bd
       0.0537921 -0.081770614 -0.00683254 -0.056859802
000330 5f e2 c0 bc 88 c1 9b 3d a1 64 e5 bd b4 fc 7a 3d
       -0.023545442 0.076052725 -0.11200834 0.061276153
000340 fd ec d7 3c f7 12 ca 3b 2e a5 2c 3d 4d 12 64 3c
       0.026358122 0.0061668116 0.042149715 0.013920379
000350 b2 97 4b 3d e3 20 f2 3c e0 32 40 bc 64 f7 a4 3d
       0.049705215 0.029556697 -0.01173088 0.080549985
000360 6c 90 cb bd cb 48 f9 3c 51 5d 1b 3e 3e 6e 28 be
       -0.09939656 0.030430218 0.15172316 -0.16448304
000370 dc bc 95 bd 8b 20 0b bd b5 51 24 3e 5d ae 91 3d
       -0.07311413 -0.033966582 0.16046794 0.07113335
000380 a9 e5 e6 3c 66 8f fd 3c bf a9 60 bd 1d a5 2b be
       0.028185682 0.030952167 -0.054849382 -0.16762204
000390 15 30 2c bd 6f 89 56 3d a7 8c 22 3d d5 a2 b2 bc
       -0.042038042 0.05237716 0.039684918 -0.02180616
0003a0 55 cd a4 bd 7f fd 63 3d b3 aa a5 3d d7 f5 34 bd
       -0.080469765 0.055661675 0.08089199 -0.044179764
0003b0 d7 98 33 3d 7e ac e1 3d 98 7d be 3d 72 e8 f6 3d
       0.04384693 0.110192284 0.09301299 0.12056054
0003c0 93 02 0b 3e eb 78 0f 3e c2 7c df 3d 1b 4c 60 bd
       0.135752 0.1401097 0.109124675 -0.05476008
0003d0 d3 76 1e 3c 8b 82 3e 3d 7e 20 6a 3d 61 df c2 bd
       0.009671885 0.046511214 0.057159893 -0.095152624
0003e0 d6 47 be 3c 82 e3 a8 bd ea df a3 3c ed e0 37 bd
       0.023227613 -0.08246519 0.020004231 -0.04489224
0003f0 81 a4 ae bc a7 24 f2 3d 40 1b 61 bd d9 9e 5e bb
       -0.021318676 0.11823397 -0.05495763 -0.0033969192

a2c_network.actor_mlp.0.bias f4 [128]
000000 0f 37 41 be 20 e6 20 be f6 96 a9 be ae 51 39 be
       -0.1886866 -0.15712786 -0.33122987 -0.18097565
000010 17 7d 8b bd 1a 2f 49 bd e2 e0 49 be 58 c0 3d be
       -0.06810968 -0.049117185 -0.19714692 -0.18530405
000020 52 d1 7d be c5 b9 30 bc 7e 80 96 bd d6 82 cb bd
       -0.2478688 -0.010786478 -0.07348727 -0.09937064
000030 ce 47 09 be 44 59 3b be 73 1f 85 bd 34 d5 90 be
       -0.13406298 -0.18295771 -0.06500139 -0.2828766
000040 ff be 2d bc e6 9d 0d be 36 d9 9d be 5c 09 9c be
       -0.010604619 -0.13829765 -0.3082978 -0.3047589
000050 81 a9 05 be ca 96 55 be 42 dd 7d be 67 68 6f be
       -0.13052942 -0.20858303 -0.24791434 -0.2337967
000060 f6 ba 6c 3d 63 1d 30 bd a0 91 1a be 06 63 73 be
       0.057795487 -0.042996775 -0.15094614 -0.23768243
000070 33 0a 3d 3d c8 a2 ef be b4 34 d7 be 05 9c 39 be
       0.046152305 -0.4680388 -0.42032397 -0.18125923
000080 61 8c 85 be a2 ef 97 bd 3a 8d dd bd 79 63 a4 bd
       -0.26083663 -0.07418753 -0.108179525 -0.080267854
000090 b4 b2 24 3e 42 5f 18 be 76 f0 57 be ff fb 64 be
       0.16083795 -0.14880088 -0.21087822 -0.22361754
0000a0 f1 65 80 bd 8c 47 89 be 75 2a 0c be 07 50 f9 38
       -0.06269444 -0.26812398 -0.13688071 0.000118881515
0000b0 7f af 16 be 18 0c 98 bd 73 d2 be bd 54 40 06 be
       -0.14715384 -0.07424182 -0.09317484 -0.13110477
0000c0 79 6f 99 be ab 62 54 3c de 45 82 bd 82 12 0a bb
       -0.2996786 0.012962977 -0.06360982 -0.002106816
0000d0 d5 7e 5b be b6 eb 84 be 1b 27 2a bd 5e 25 77 be
       -0.21435101 -0.25961083 -0.0415412 -0.24135348
0000e0 35 0b 81 be 7f 77 7b be 6e d4 5b be 6b 43 33 be
       -0.25203863 -0.24557303 -0.21467754 -0.17506187
0000f0 dc de 2b be db 44 df 3b e2 ce 34 be be 57 7f be
       -0.16784233 0.006813628 -0.17657045 -0.24935815
000100 3b e9 30 be 37 db 3a be 2c 54 ba bc 9f 01 7c bd
       -0.1727647 -0.18247686 -0.022745214 -0.061524983
000110 20 56 ac be e1 40 bf bd d0 c6 23 3e 98 f5 a7 be
       -0.33659458 -0.093385465 0.1599381 -0.3280456
000120 98 a7 a0 bd fe 22 8b be 5c 26 d5 bd 43 30 bd be
       -0.07844466 -0.27175134 -0.10407707 -0.36950883
000130 cb 27 ab be aa 05 80 bd e8 4a 42 bd 05 ad 99 be
       -0.33428797 -0.0625108 -0.047434717 -0.30014816
000140 a1 9c 3c be 84 89 8d be f3 5c 84 be 78 c9 14 be
       -0.18419124 -0.2764398 -0.25852165 -0.14529979
000150 f5 80 08 be ab 3e ce 3c 10 98 8c be c9 4b 8d bd
       -0.13330443 0.025176367 -0.27459764 -0.068992205
000160 a5 1c 31 be 5c 20 c9 be ca 92 23 be 83 fe 5c be
       -0.17296083 -0.392825 -0.15973964 -0.21581464
000170 23 7f a1 bd 6c 37 51 be 3c 4e da bc 44 a1 b8 bd
       -0.078855775 -0.20431298 -0.026648633 -0.09015134
000180 b2 33 cf bd 2c 0a 0d be 5d 54 25 be 1a 1f bf be
       -0.10117282 -0.13773412 -0.16145463 -0.37328416
000190 1c a1 8e be 09 e6 16 3c 8a a1 39 be 8b 16 f6 bd
       -0.27857292 0.009210118 -0.18128029 -0.120160185
0001a0 0c 4e ff bd b3 0b 4b be 06 65 80 bd fc a2 a6 bd
       -0.12466058 -0.19828682 -0.06269269 -0.081365556
0001b0 3d 7b 8a be 5f 94 d2 bc 46 f2 d0 be 24 2d b8 be
       -0.27047148 -0.025705514 -0.4080984 -0.3597194
0001c0 39 e5 83 be 8e 1f d6 bd 1d 38 b4 be cd e0 15 be
       -0.2576082 -0.10455237 -0.3519906 -0.14636536
0001d0 1b 0c 3c be 79 4c 80 be 39 e6 5c 3d 01 41 0f be
       -0.18363993 -0.25058344 0.053930495 -0.13989641
0001e0 10 82 68 be 75 9a 03 be 56 df 62 be 58 7f 9f 3c
       -0.22705865 -0.1285189 -0.22155508 0.019469902
0001f0 60 ab 1a be da de 14 be eb a0 c1 bd d7 c8 75 be
       -0.15104437 -0.14538136 -0.09454521 -0.24002396

a2c_network.actor_mlp.2.weight f4 [128, 128]
000000 ae 26 08 3e 66 05 ea 3d fc 08 8c bd 3d b0 1d bd
       0.13296005 0.11426811 -0.06837651 -0.038498152
000010 60 f4 55 bd 3b 23 40 bc f2 be 9d bc 38 3d c3 3d
       -0.052235007 -0.01172715 -0.019256089 0.09533161
000020 94 67 81 bd 5c a6 06 bd 12 3d 2b 3e e9 2b 9c bc
       -0.06318584 -0.032873496 0.16722515 -0.019063907
000030 f7 df 0b be 39 51 4c 3d cb 35 9e bd 13 09 4c bd
       -0.13659655 0.049882147 -0.07725104 -0.04981334
000040 f4 b6 b4 bb 7d bb ba bd b0 13 cc bc 41 19 26 bd
       -0.005514974 -0.09117792 -0.024911731 -0.040551428
000050 8e 38 81 3d 3e 43 30 3d 18 47 3f bd a4 9b 26 3d
       0.06309615 0.043032877 -0.04669866 0.040675774
000060 78 46 44 bd 9d cd 3e be ca e6 81 bd 6b b7 e7 bb
       -0.047918767 -0.18633123 -0.06342848 -0.0070714257
000070 0e 26 ab bd 5e 46 e2 3c c6 66 a3 3d 38 1c a6 be
       -0.08356868 0.027621444 0.07978587 -0.32443404
000080 01 c7 07 be a2 79 be bd ec 11 84 bc a9 88 24 3d
       -0.13259508 -0.09300543 -0.016121827 0.04016939
000090 93 04 8e 3d f0 3d be 3d f5 50 e7 bc 09 62 31 3e
       0.06934466 0.092891574 -0.028236846 0.17322554
0000a0 1f 5a 0d 3e a2 6e d5 3d 64 ee a7 bc 22 7e b9 3d
       0.1380391 0.10421492 -0.020499416 0.09057261
0000b0 b5 3e f4 3c f5 29 30 bd df 74 ae 3d db eb 87 bc
       0.029815057 -0.043008763 0.08518385 -0.016591957
0000c0 26 bc 69 3d e6 f3 1e be de 4b 74 bd 4b 61 53 3e
       0.057064198 -0.15522727 -0.059642665 0.20642583
0000d0 7c ac f1 3c cf 53 68 3c 21 27 af bc 02 f1 e6 bc
       0.029501192 0.014180138 -0.021380963 -0.028191093
0000e0 0d 19 76 3b a8 53 40 be c3 0a 00 be e0 44 7d 3d
       0.0037551553 -0.18781912 -0.12504105 0.061833262
0000f0 b6 65 89 3d fc 16 f8 3d 2e a5 c0 bd ea 6d 97 bd
       0.06708853 0.12113759 -0.094065055 -0.07394011
000100 f3 a9 23 3e c9 f5 96 3d 28 f0 fb bd f5 d6 56 bd
       0.15982799 0.073710985 -0.123016655 -0.052451093
000110 b2 83 57 be 5a 61 f2 3c b5 47 16 bd d4 77 53 3e
       -0.21046332 0.029587436 -0.03668948 0.2065118
000120 be 95 07 3e f9 3b 38 bd bc e1 69 bd 3e c2 0d bd
       0.13240716 -0.04497907 -0.057100043 -0.034609072
000130 70 25 6a 3e ad b4 40 3d 19 f5 8a 3d 32 e5 94 bd
       0.22865844 0.047047306 0.0678503 -0.07270278
000140 22 88 06 3e 5e b6 39 3c d8 61 bf bc a2 f1 73 3c
       0.13137868 0.011334984 -0.023362085 0.014889153
000150 28 b6 98 bd 4e 0b fd bb 54 4d 15 3e 46 0d ce 3d
       -0.074566185 -0.007722295 0.1458028 0.100611255
000160 16 f9 01 be 3f d8 a2 3d 28 65 37 bd 20 65 98 be
       -0.12692675 0.07951402 -0.044774204 -0.29764652
000170 24 8f 91 be 07 aa db bc 8d dd 5d be 5d bd 71 bd
       -0.2842952 -0.026814474 -0.21666546 -0.05901848
000180 77 ce b0 3d e0 30 8a bd 30 37 91 bc 25 42 be 3d
       0.0863313 -0.067476034 -0.01772651 0.0928996
000190 6f 88 d8 bc d9 fe 3b 3d 65 bb b6 bd a1 e5 d7 bd
       -0.026432244 0.04589734 -0.089224614 -0.10541845
0001a0 30 6f 0e be 4f ae 98 be 1b 37 e2 bc 1d e7 c7 bc
       -0.13909602 -0.29820487 -0.027614167 -0.024402196
0001b0 80 73 a1 3c 26 aa b8 bd 2c ed d4 bd c6 f3 f4 bd
       0.019708395 -0.09016828 -0.103967994 -0.119605586
0001c0 ba 32 2c be 66 fa ef 3c 90 47 1e 3d ec 1b b7 bc
       -0.16816226 0.029294204 0.038642466 -0.022352181
0001d0 6e 7a 50 3d 1c a2 a0 bc 4e 1a de bd b6 c7 48 be
       0.050898008 -0.01960855 -0.10844861 -0.19607434
0001e0 84 10 bc bb 94 5a aa bd 99 3c ba 3d a4 29 54 3d
       -0.0057392735 -0.08318058 0.09093589 0.051797524
0001f0 1f 89 66 bd 03 c1 ab bd 52 6e b0 3d 52 57 08 bc
       -0.056283113 -0.083864234 0.08614792 -0.0083216
000200 9d f8 55 3d 88 44 34 bd a5 33 f6 3b 2e 57 cb bd
       0.05223905 -0.04401067 0.0075134807 -0.099287376
000210 5a d8 88 3d c8 4c 3e b8 ef 3f 81 bd db 5d ae bd
       0.06681891 -4.5371038e-05 -0.063110225 -0.08513995
000220 3d 27 5c be 3d 32 9d bc 69 4e 93 3d 1f df 35 bd
       -0.21499343 -0.019188995 0.0719269 -0.044402238
000230 16 9c 4a be 1b 28 eb 3d e2 de 42 be 3a 92 f2 bd
       -0.19786105 0.11482259 -0.19030336 -0.11844297
000240 f1 e0 71 bd 5c 77 17 bd 7a c0 4c bd 31 d8 2d bd
       -0.05905241 -0.036979064 -0.049988247 -0.042442504
000250 62 98 e3 bd d3 c8 5a 3a bf 00 bd 3d eb 66 8c 3d
       -0.11113049 0.0008345965 0.09228658 0.068555675
000260 df d6 54 3d ea 05 e3 3d b1 5f aa 3c 44 a0 fd 3d
       0.05196273 0.110851124 0.020797582 0.12384084
000270 7f 62 82 bd bb 49 97 bc 76 ec aa ba 85 b4 5c be
       -0.06366443 -0.018467775 -0.0013040442 -0.21553238
000280 44 dd 9a 3a ec fe 50 bc fb b8 fd bc 20 70 34 3e
       0.001181521 -0.012756091 -0.030971995 0.17620897
000290 b0 91 05 be 44 a0 4e be d5 cf 78 3d 08 b6 c4 3c
       -0.13043857 -0.20178324 0.06074508 0.02401258
0002a0 c4 a1 5a 3d e3 a5 8a 3b 89 a8 0e be 4a ee 87 be
       0.053376928 0.004231201 -0.13931479 -0.26548988
0002b0 fc f1 3f be 90 dd d5 bd 3b 3c de 3d e3 4c a6 bd
       -0.18744653 -0.1044265 0.10851332 -0.08120134
0002c0 3a ff 79 bd ad 1d 4a 3c 11 ba 03 be 90 f4 15 bd
       -0.06103442 0.012336177 -0.12863947 -0.036610186
0002d0 cc 63 f7 bc 47 5b a5 3c 57 22 31 bb ee 28 02 3e
       -0.030198954 0.020185126 -0.0027028525 0.12710926
0002e0 a6 01 55 be d6 00 39 be 41 69 dd 3d b4 7e ae bd
       -0.2080141 -0.18066725 0.10811091 -0.085202605
0002f0 4c 0f 74 bd 5c bc 75 bd 53 77 31 3d 26 ec 1f bc
       -0.0595849 -0.059994087 0.043326687 -0.009760892
000300 93 94 b2 3d f6 93 a1 bc 72 9b 42 be 1c 0d 2d bb
       0.087197445 -0.019723874 -0.1900461 -0.002640552
000310 57 31 d1 3d 6d 36 5a 3d 65 7b 1f bd 93 52 74 bc
       0.10214489 0.05327456 -0.038936038 -0.014912265
000320 95 9a 59 be 5d 75 12 3e 74 a9 e3 bd 68 bb 18 3d
       -0.21250375 0.14302583 -0.11116305 0.0372881
000330 1f 6d 92 bc c2 61 d9 3b 44 2b 76 bd 3e 1e 0a 3e
       -0.017874299 0.006633968 -0.060099855 0.13488099
000340 c4 e5 b7 3d cd 52 01 3d 84 05 e4 3b f2 43 10 be
       0.08979371 0.031573106 0.0069586653 -0.14088419
000350 cb 8c 68 3d df a7 a8 bc 91 df 08 be 94 7a 96 bd
       0.056774896 -0.02058786 -0.13366534 -0.07347599
000360 9c d2 38 bd b5 9d 82 bd 5d 7d bf 3c 4c ac 1f 3b
       -0.045122728 -0.063777365 0.023375208 0.0024364172
000370 7b a8 39 3e 8d 25 9b 3c 8c 06 28 be 7c 23 18 be
       0.18130676 0.018938804 -0.16408747 -0.14857286
000380 7e 83 f1 bd 98 11 48 bd 6b 74 c0 bc 59 ba f6 3a
       -0.11792658 -0.048844904 -0.023493012 0.0018823846
000390 e3 d7 2f bc 16 af 16 be 06 03 e1 bd 59 6c 22 3e
       -0.010732624 -0.14715227 -0.10986905 0.15861644
0003a0 8b 8b 74 be b2 2f 41 bd 0d e5 0c 3c dc 46 05 be
       -0.23881356 -0.047164626 0.008599532 -0.13015312
0003b0 0c aa c6 3c a9 60 fc 3d c6 fd eb 3d df a6 65 3c
       0.024251007 0.12323124 0.11523013 0.014016836
0003c0 f0 06 5b 3d be f5 7b 3d 7a 87 ad bc 48 d8 b0 3d
       0.053473413 0.061513655 -0.021182764 0.086350024
0003d0 80 42 cb 3d dc 53 ae bd e8 fe 1e be df eb 07 3e
       0.09924793 -0.08512089 -0.15526927 0.13273571
0003e0 84 4a ec bb 2a a7 29 bc a3 57 05 3e 2e 72 8a 3d
       -0.0072110314 -0.010354796 0.13021712 0.06760059
0003f0 79 bc 36 be f1 44 5c 3d 45 f2 d1 3d 79 5e 96 bd
       -0.17845334 0.053776685 0.10251287 -0.07342238

a2c_network.actor_mlp.2.bias f4 [128]
000000 3f f8 3e 3a 6d 6b 01 bd 3c 17 ec 3c 02 cd 3f be
       0.00072849164 -0.03159659 0.028819673 -0.18730548
000010 13 1b ad bd c5 38 15 3d 34 bb a3 be ec e1 6d be
       -0.084524296 0.036431093 -0.31978762 -0.23230714
000020 25 9f 07 be cc 51 27 3e f9 fb 1d 3d 23 2b 56 bd
       -0.13244303 0.16339797 0.038570378 -0.052287232
000030 c2 53 12 be f0 74 fe 3d 5c 29 7e 3e 22 f9 8b be
       -0.14289764 0.12424648 0.24820465 -0.2733851
000040 90 fa 3e 3e 6d 8e a5 3d d5 ef c7 3d 58 95 ed 3d
       0.1865027 0.08083806 0.09762541 0.11600751
000050 f5 e5 15 be 8d 3c 14 3e 81 9c 2b 3e 3c f6 03 3e
       -0.14638503 0.14476223 0.1675892 0.128869
000060 7a 73 2c 3e 85 b9 0c 3e 67 3c e6 3d 1e fa 1c be
       0.16840926 0.13742645 0.112419896 -0.15329787
000070 63 6d 38 3e 09 50 8e be 20 89 76 be 1a 63 05 be
       0.18010478 -0.27795437 -0.24075747 -0.13026085
000080 0d 3d c4 bc ff 8d ca bd 4f 3b 6f be b5 9f 23 3d
       -0.023954893 -0.09890365 -0.23362468 0.03994723
000090 72 ba 1e 3e 64 80 d7 bd 7e f6 2c 3e 9f 02 a6 3d
       0.1550081 -0.105225354 0.16890904 0.08105969
0000a0 5d b3 a7 be 5d 1b b9 3d 66 dc 6c be c9 a6 94 bc
       -0.3275403 0.09038422 -0.2313095 -0.018145936
0000b0 5b b8 03 be b9 d1 15 3e 34 8c 8f 3c 78 e9 6c 3d
       -0.12863295 0.14630784 0.017522909 0.05783984
0000c0 a2 3b 92 be 6a 65 e7 3d 0b 15 07 be eb 1c 1c 3e
       -0.2856112 0.1129864 -0.13191621 0.15245406
0000d0 32 13 d5 3d a7 7a 65 be bb ca f2 3c c2 03 24 3e
       0.10404052 -0.2241007 0.029637685 0.16017058
0000e0 d2 c4 a5 3c 06 57 02 bc bb d4 1c be 3d f4 32 3e
       0.020235453 -0.007955318 -0.15315525 0.17475982
0000f0 83 64 12 bd 27 25 da bc 9f f6 78 be 61 91 a7 be
       -0.035740387 -0.026629044 -0.24312828 -0.32728103
000100 4a d7 27 be 44 50 75 be 4a 87 02 3d b8 7e 08 be
       -0.1639072 -0.239564 0.031867303 -0.1332959
000110 03 16 da 3d ea aa ea 3c 50 f3 0e be 78 7d 1d bd
       0.1064873 0.028645951 -0.13960004 -0.038449734
000120 d6 45 e4 bd 5b 7a 09 3b c7 49 c5 3d 7e 64 37 3e
       -0.11146133 0.002097747 0.096332125 0.17909428
000130 e9 04 f9 3d 6b b0 c7 bd 8d 85 78 3c a5 ad 1a 3c
       0.1215914 -0.09750446 0.01516856 0.009440814
000140 11 a2 ba 3d fa 36 3c 3e 3d e9 c1 3d 66 43 ad 3d
       0.09112943 0.18380347 0.09468315 0.08460121
000150 c9 4c 94 bd cf 42 ed 3b ff 04 48 3e 30 c9 2f 3e
       -0.07241208 0.00724063 0.19533156 0.1716659
000160 03 2c 9c 3d c2 d3 4c 3e 12 5a b9 bd 5c 68 dc 3d
       0.07625582 0.20002654 -0.09050383 0.107620925
000170 fc 6d 4f be 10 68 5f 3e ba 0e b9 bd 6e 11 bb 3d
       -0.202568 0.2181704 -0.09036012 0.09134184
000180 23 98 81 3d e8 a3 93 bb 71 76 2c 3e e2 88 0e be
       0.06327846 -0.004505623 0.16842057 -0.13919404
000190 f5 60 b7 3c d9 4c df bd 10 93 3f 3e e6 cd 81 be
       0.0223851 -0.109033294 0.18708444 -0.253524
0001a0 46 d6 0b 3e 49 9a 9a be 88 9c 89 bd bf 66 05 be
       0.13655958 -0.30195835 -0.06719309 -0.13027476
0001b0 30 e1 1f 3e af 79 54 be b3 32 f9 bd 25 65 14 be
       0.15613246 -0.20749544 -0.12167873 -0.14491709
0001c0 a7 d3 dd 3d 51 7b 68 3b 35 35 f8 3d bd a7 67 3d
       0.10831385 0.0035473893 0.121195234 0.056556452
0001d0 5b 2c 2b be 3c a9 03 be 52 52 00 3d 84 3c 87 3e
       -0.16716139 -0.12857527 0.031328507 0.26413357
0001e0 ef b7 09 be e3 6b de bc 6f d4 7c be 5f 6b d7 be
       -0.13449071 -0.027151054 -0.24690412 -0.42074105
0001f0 47 81 17 3e bd 26 19 be e0 e2 41 be 61 18 ba be
       0.14795409 -0.14956184 -0.18934202 -0.36346725
