python/rlgpu/saved_nn/241001162237286415/last_Aliengoep=6500rew=[4906.19].pth (torch, 539546 bytes, 18 tensors)

running_mean f8 [376]
0.0038130450110945195 0.002830609197345577 -0.0030102151886890493 0.003137873991790639 0.45723785534824074 0.43111012101392915 0.6966341480002763 0.7339833297376589
0.04002261541734676 0.12069758926324757 -0.27941925369350007 0.0780706956154158 -0.09435244676131811 -0.2746451358663097 0.05909250721739109 0.10451950990937842
-0.2963406319705022 0.06573373329495345 -0.09080937009384012 -0.29912294871011064 -0.024154854295473472 -0.020277352504173687 0.0976432288287961 -0.02708786994016945
0.012589628481462006 0.08982726455907596 -0.005401983117966863 -0.007400179160740971 0.05949053646338089 -0.00842237462401579 0.008600234424550908 0.05098492277455064
0.47583616895090003 0.5241638054228976 0.5241638054228976 0.47583616895090003 0.04315374778856159 -0.007989776425735541 0.007891153362735716 0.009025910482324987
0.01907935672570002 0.002046012948507502 0.017080878073029864 -0.001458920111665727 0.026158388924279827 0.0007761415555527903 0.019923010681586095 0.0008375919635612963
-0.13159902133790508 0.14524736560252557 -0.23019069225781838 0.13862051615885373 0.21326387641320063 -0.09468970375597248 -0.047248644477708 -0.1913138882024648
-0.19314912026306608 0.05448548230637376 -0.19435559057483964 -0.13899082614157077 -0.5007320482285259 0.6661251532573912 0.987735904468733 0.09655591280020367
0.4491456073461759 0.26110916998611605 0.3958710421680724 -0.20904231101243806 0.283153351722716 0.023775173115071633 0.23777713741908335 -0.13942829215805005
0.1903063455924682 -0.06228980116399842 -0.2565462362607463 -0.5004739610905341 0.6654633828702556 0.9871075167489393 0.09649595993501923 0.4488762090764447
0.2609710320338822 0.39564238103339155 -0.20895693324834122 0.28308657709002466 0.023696479729906256 0.2377318767314523 -0.13944266818612314 0.19018011522404615
-0.062276926217334445 -0.25651541605589 0.14569021343369845 0.1463580683685959 0.1464837048648132 0.14697786429047027 0.14803345016538128 0.14827014896936325
0.1483535841849866 0.14876612771905356 0.1489813258415811 0.14781562021007832 0.14676779564738748 0.14821864487205869 0.14671028676038292 0.14703824710597418
0.14854577834763102 0.13921971582926287 0.1398253829171279 0.13891319372352923 0.14680915433379615 0.14514084907782976 0.14599038466682496 0.15302639900329482
0.15088373111838452 0.15142426448103175 0.15363590272751623 0.14336734158486933 0.14409368214120816 0.14221943538124207 0.1517628912634969 0.14963023549859836
0.1491694109952712 0.1577329589430914 0.15536450331426993 0.15494746406433993 0.15188925510602488 0.14942206865059768 0.14898354130267058 0.14859164126075938
0.1517617962573997 0.15510815955411203 0.15388753104043312 0.162335290481485 0.15957108195848976 0.15945084142606183 0.1561257018509402 0.15422844551793727
0.15403535651305353 0.15474047685415598 0.15880707875506173 0.16239401916493276 0.15907343989533695 0.1660122800183265 0.16269571054804194 0.1635689252926057
0.16087856962503544 0.15795459929954003 0.15996466933682713 0.16008140354006098 0.16663242314757074 0.16994246724118584 0.16390035978317757 0.166602564498796
0.16628357114817743 0.1635949413262181 0.1632987849014892 0.1633429204353327 0.16732598761180562 0.16764460166482753 0.17603475936171747 0.17900793740897405
0.17023584111018858 0.1480099920123722 0.15000530832972464 0.15133904405127663 0.15271784484798356 0.15353284122457841 0.15236768738766035 0.1507050710557488
0.1501559947141108 0.14968373552849942 0.14873948702762158 0.14889041692105265 0.15332065968280645 0.15349228975584994 0.15263721084434007 0.15372133532688415
0.14609035159288797 0.1445496981853887 0.14305756280743212 0.1504674881784852 0.14908834934090937 0.14971207029168523 0.15988562509909757 0.15851651108878434
0.1587393689067794 0.15969583655928513 0.14971140469005487 0.14850153825807122 0.14732672266068547 0.15533327611648418 0.15366744518573042 0.15514115707403445
0.1662054515767882 0.1644963940108036 0.16391113646342742 0.1610806492695953 0.15529008076682382 0.15403315528601358 0.15346768323568466 0.15467066003899435
0.15665489430201834 0.16105362368460244 0.1713096888452962 0.1695707574084242 0.17059720557337194 0.16743816230959158 0.16111035222186942 0.15951729368625822
0.15921171952133098 0.1583984335057518 0.16062482704252332 0.16575469227370027 0.17502610006316327 0.17259670742745703 0.17770909600824847 0.17544424626992475
0.1658394439415798 0.1649464785675371 0.16349441385170768 0.16280991705010814 0.16431060663909539 0.16912278555781413 0.17581544201720947 0.175447049040796
0.18573283470618138 0.185441111924811 0.17210957353938183 0.17211605402228974 0.16856797686554914 0.16540535718324428 0.16632665772280125 0.17194752821187337
0.1276862373187496 0.1306187094994705 0.13115973028024763 0.13153073240872065 0.13265592860881667 0.13430667087707207 0.1347005340529749 0.13524824583453263
0.135585090545868 0.13463470536854652 0.13246109690395966 0.13196925691625783 0.13101094107273092 0.13346337181146592 0.1359824302967872 0.13395633498909496
0.13455071776687721 0.13318208157834638 0.13574820309453856 0.13394620628698875 0.13239252273904292 0.13732580294086444 0.13653899332224595 0.13953286435529438
00000000: 6ad0 ddf3 883c 6f3f 147a c5bd 3730 673f
00000010: 054a 42f9 e0a8 68bf c907 8f45 99b4 693f
00000020: 17b0 cd90 6243 dd3f f3ae aee7 4e97 db3f
00000030: 2f04 5eb2 d34a e63f a909 a19b ca7c e73f
00000040: 71c2 a220 d87d a43f ef78 9786 09e6 be3f
00000050: b41f 1f4b 01e2 d1bf e0b5 71ec 70fc b33f
00000060: 6d2f 2361 7b27 b8bf 1e48 2331 c993 d1bf
00000070: dbea df83 5f41 ae3f 78cf da64 cac1 ba3f
00000080: 8c83 b2b2 3ef7 d2bf 7fed be0a edd3 b03f
00000090: fd30 b96a 483f b7bf 495a 8c94 d424 d3bf
000000a0: bd6e f4d4 0cbc 98bf 3468 6b17 96c3 94bf
000000b0: a3da 7e8a 25ff b83f e699 0b2e ecbc 9bbf
000000c0: a3fa c554 97c8 893f d703 926b ebfe b63f
000000d0: 4611 34cd 6320 76bf f2c3 ad77 a64f 7ebf
000000e0: 233d 1029 8b75 ae3f 1eba 84fc bf3f 81bf
000000f0: 3125 bbec ff9c 813f 79c2 cf1f b21a aa3f
00000100: 9779 f98b 1974 de3f 5e39 412c f3c5 e03f
00000110: 5e39 412c f3c5 e03f 9779 f98b 1974 de3f
00000120: cb45 e77e 3f18 a63f 146a 9ba3 f15c 80bf
00000130: 0122 f7ac 3c29 803f 22a7 b432 2d7c 823f
00000140: d892 a9f4 8989 933f 31db 6ed6 ccc2 603f
00000150: 8bae d752 a67d 913f 5d74 b18a 27e7 57bf
00000160: c987 c8c3 43c9 9a3f 6eb2 904c bf6e 493f
00000170: 63d6 429d b266 943f 6939 a20b 3b72 4b3f
00000180: fa7b 6a9a 3cd8 c0bf 83e7 8b36 7797 c23f
00000190: 9ba3 8b7b e376 cdbf 3c7c ba2b 51be c13f
000001a0: ef72 4e0f 3b4c cb3f 455b e69c 953d b8bf
000001b0: d9c9 9f6d f930 a8bf ead2 8c36 f97c c8bf
000001c0: 1cf9 6341 1cb9 c8bf d4ae 3969 85e5 ab3f
000001d0: 6427 a8dc a4e0 c8bf bc6c 5c8e 73ca c1bf
000001e0: 6d6b 6637 ff05 e0bf 4b12 89b2 e550 e53f
000001f0: ece6 d853 889b ef3f 7659 b667 e3b7 b83f
00000200: 9468 ac37 cdbe dc3f 2fab 713c 03b6 d03f
00000210: 53e6 e27e f355 d93f dbab a300 e6c1 cabf
00000220: ebb7 593c 2f1f d23f 69a2 f1db 8458 983f
00000230: 78c9 7932 7b6f ce3f d75c 7a49 c9d8 c1bf
00000240: 053d 4555 f55b c83f b257 bfe5 72e4 afbf
00000250: 01b7 a9e7 406b d0bf fb44 ecf7 e103 e0bf
00000260: f29f 43dd 794b e53f a551 c280 6296 ef3f
00000270: eff5 1d90 f5b3 b83f f5e3 7b47 63ba dc3f
00000280: 377d f2d7 bfb3 d03f 98cc dc6b 3452 d93f
00000290: 797b 49cd 19bf cabf 8172 a229 171e d23f
000002a0: 958f e1d5 e343 983f 0a9f e385 ff6d ce3f
000002b0: 5f60 c3e1 41d9 c1bf 224f 9e6f d257 c83f
000002c0: e936 cce2 c2e2 afbf f84f b8a2 bf6a d0bf
000002d0: 63c2 0517 faa5 c23f 910d 9376 dcbb c23f
000002e0: f448 e560 fabf c23f 0a87 2eb0 2bd0 c23f
000002f0: 6051 9695 c2f2 c23f 82f2 6528 84fa c23f
00000300: b9d1 2810 40fd c23f 8a27 a7ba c40a c33f
00000310: d926 1af1 d111 c33f 7cf3 514b 9feb c23f
00000320: 5bad 3481 49c9 c23f db03 311c d4f8 c23f
00000330: 39b2 cf15 67c7 c23f e268 4a37 26d2 c23f
00000340: db20 fb4d 8c03 c33f f5f8 389f f3d1 c13f
00000350: 91ce 6353 cce5 c13f 9e42 0354 e8c7 c13f
00000360: 30fc 4e72 a4ca c23f 7c2d 0db0 f993 c23f
00000370: 2255 d61b d0af c23f fb67 9279 5e96 c33f
00000380: 1572 5379 2850 c33f 5029 e2cb de61 c33f
00000390: 1f62 da5c 57aa c33f e1f2 b56d dc59 c23f
000003a0: 9ea8 2d6a a971 c23f e1b4 e817 3f34 c23f
000003b0: 4e8f 5c67 f76c c33f f9c8 fa63 1527 c33f
000003c0: 1ee6 e4b6 fb17 c33f c1b8 14f6 9730 c43f
000003d0: 62d7 58ea fbe2 c33f a592 6089 51d5 c33f
000003e0: 9fa7 a56b 1b71 c33f 83d6 1329 4320 c33f
000003f0: 21c4 c486 e411 c33f 3343 d607 0d05 c33f
00000400: 7397 da37 ee6c c33f 3357 508c 95da c33f
00000410: 2259 8a2c 96b2 c33f c964 cd1d 67c7 c43f
00000420: 0b14 3341 d36c c43f a14f 9f9a e268 c43f
00000430: 1ce6 c14f edfb c33f 0965 cef8 c1bd c33f
00000440: ab5c 5339 6eb7 c33f ae5f ba33 89ce c33f
00000450: 282a d054 ca53 c43f a38f b0c4 53c9 c43f
00000460: f49f 01bb 845c c43f ade0 b4f0 e33f c53f
00000470: de6c 008a 36d3 c43f 9c05 6398 d3ef c43f
00000480: 4059 9541 ab97 c43f 8445 1f37 db37 c43f
00000490: 9a97 a8e7 b879 c43f e57f 7324 8c7d c43f
000004a0: 539f ef13 3654 c53f 1a50 80bd acc0 c53f
000004b0: 0623 89de affa c43f 16dd f99a 3b53 c53f
000004c0: fac4 f8b1 c748 c53f 30c1 64d5 adf0 c43f
000004d0: 8c70 507e f9e6 c43f e7c4 a6ba 6be8 c43f
000004e0: 4024 481e f06a c53f 442d c0d8 6075 c53f
000004f0: ae7a 3597 4e88 c63f c5ae 726a bbe9 c63f
00000500: a270 16bd 49ca c53f 6c51 96cd fdf1 c23f
00000510: 0254 c0ba 5f33 c33f 0471 67ea 135f c33f
00000520: e09f 9122 428c c33f 87f4 f5d1 f6a6 c33f
00000530: 1b09 26cd c880 c33f 534d c3c3 4d4a c33f
00000540: dd37 4cc7 4f38 c33f 2f44 6b2e d628 c33f
00000550: 5a27 3440 e509 c33f 948e ae57 d70e c33f
00000560: 2ec4 91e9 02a0 c33f 9042 58a6 a2a5 c33f
00000570: 0e53 5dba 9d89 c33f d494 f605 24ad c33f
00000580: d821 2db1 16b3 c23f 522c 2dc1 9a80 c23f
00000590: 9508 dad0 b54f c23f 043f 6bc6 8442 c33f
000005a0: 4e21 51b8 5315 c33f 1910 dcde c329 c33f
000005b0: 9558 73d5 2177 c43f 024d 80df 444a c43f
000005c0: fb69 0557 9251 c43f c12c aac5 e970 c43f
000005d0: 65b2 7d49 be29 c33f 98af 1c31 1902 c33f
000005e0: dcc6 d31f 9adb c23f a44e 73f6 f5e1 c33f
000005f0: bd2b c4f5 5fab c33f 09c3 f259 aadb c33f
00000600: 4338 7861 3846 c53f eb0c 4bc4 370e c53f
00000610: 32c2 4745 0afb c43f 58d0 506c 4a9e c43f
00000620: d0b2 249d 8be0 c33f c4ff 39c2 5bb7 c33f
00000630: 56bd 3e3c d4a4 c33f dd54 4289 3fcc c33f
00000640: 728b e47f 440d c43f 1d57 50b7 679d c43f
00000650: bd0b 8ad3 79ed c53f 40ac b69c 7eb4 c53f
00000660: ee01 5d15 21d6 c53f aa6b 9c1b 9d6e c53f
00000670: 2484 eb96 439f c43f 34b3 c30b 106b c43f
00000680: 11f5 3db4 0c61 c43f f189 d25d 6646 c43f
00000690: b361 89b5 5a8f c43f deae 3c23 7337 c53f
000006a0: eadd db57 4167 c63f b02b e61e a617 c63f
000006b0: bc50 c7f1 2bbf c63f d516 0002 f574 c63f
000006c0: 28d6 0e16 3a3a c53f 1ddb 8459 f71c c53f
000006d0: e32f 498c 62ed c43f 83eb 9892 f4d6 c43f
000006e0: 914e f344 2108 c53f 8057 7dc0 d0a5 c53f
000006f0: dd3f ccd2 1e81 c63f b0ab e784 0c75 c63f
00000700: 439f 6df1 17c6 c73f 2a85 86cb 88bc c73f
00000710: 380f d7be af07 c63f 0237 921b e607 c63f
00000720: 6c2c e5ad a293 c53f b6b5 d7b3 002c c53f
00000730: 5eab af21 314a c53f f625 2669 6002 c63f
00000740: 2b77 b7ca 0558 c03f b3e1 c526 1db8 c03f
00000750: 508c 0d90 d7c9 c03f 16a4 0ec1 ffd5 c03f
00000760: 8f68 7f95 defa c03f cd9c 8603 f630 c13f
00000770: 0571 41fa dd3d c13f 13b0 5984 d04f c13f
00000780: 311f dc2c da5a c13f d574 3bc4 b53b c13f
00000790: ffee 9837 7cf4 c03f 2031 445d 5ee4 c03f
000007a0: 08ac a96d f7c4 c03f ff72 92e8 5315 c13f
000007b0: 4a47 7a4d df67 c13f 2b62 ef2e 7b25 c13f
000007c0: e824 3b3a f538 c13f de66 6546 1c0c c13f
000007d0: 5212 6476 3260 c13f 7183 b637 2625 c13f
000007e0: 8d16 b3f9 3cf2 c03f fa93 4354 e493 c13f
000007f0: cc51 7917 1c7a c13f cec4 8f80 36dc c13f

running_var f8 [376]
0.014332993377801905 1.2797659909510029 0.06619214191881781 2.7651220460253523 0.24817198869992246 0.24525479144817905 0.21133551829446034 0.1952522602167189
0.004994559684202322 0.002141863327436746 0.0023081109539464734 0.004307538935771705 0.0019985912158536085 0.002244995190345322 0.003925949118566263 0.002306869022134124
0.0015280752142008871 0.0038567053460481777 0.0023258422957515112 0.0016033368062224863 1.721200996707455 0.49493003624212506 0.5718802036871333 1.3149209300630031
0.5088722460215606 0.6892304669242374 0.8284170255619525 0.4765492397191607 0.2697497355491171 0.762652675144824 0.42756381114673125 0.2422916305766774
0.2494166883372231 0.24941668984090634 0.24941668984090634 0.2494166883372231 0.013601861248181238 0.009310236809549904 0.012961311704774362 0.00986485472116683
0.00955567066424129 0.007676365860295831 0.009365302962320564 0.007717331344436275 0.0269003558527796 0.01823738453455777 0.02415316503758899 0.017508340860167334
4.803904839409958 6.3357215237468525 3.2090020990342114 5.5583663720577166 5.812870928940922 2.8650790710742458 4.667138191728361 4.506667368858596
2.06753741636473 4.456704977939914 4.037385231198718 1.9852114500292195 0.11403167243111223 0.16827216540149004 0.007532659388014821 0.4563488937405521
0.38482945914175926 0.47109708502032255 0.38391747909538654 0.3852144626133593 0.5065785336070348 0.48471672969263635 0.4750573041715548 0.3281881732410204
0.5513085941453698 0.4357200578174831 0.3147452374282338 0.11405966234458279 0.16888357260147263 0.008147259903084443 0.4560035692523188 0.38466313924692164
0.4707988989011282 0.3837036446020667 0.3849246905378436 0.5062506960702914 0.4843600930013317 0.4747071091640028 0.3278947245944946 0.5509778850755584
0.4353845820556962 0.3144749895528915 0.08194282719398158 0.08254058967825285 0.08257824269435295 0.08298558296842212 0.08374087825957542 0.08395796023278208
0.0842326311589229 0.0843107417498564 0.0843981912763967 0.08356896680373609 0.08278579049537602 0.08455527594972487 0.08362274449062905 0.08365419491208807
0.08477008429293251 0.07836920274086852 0.07869304979116874 0.07842628471456883 0.08395236393872296 0.08272801316026876 0.08330040021248417 0.08839218969371003
0.08712567805204709 0.08722915173239443 0.08895284698251735 0.08191852541153696 0.08229595244981248 0.081487326290751 0.08814914732918323 0.08650594633009602
0.08620444307151365 0.09213915531304014 0.09072694491607391 0.09038313754175864 0.08834386598715022 0.08677553274256057 0.08635917780600325 0.08663385777690732
0.08885133964338612 0.0910104361839388 0.0900526521839062 0.09580365875194381 0.09406388520289088 0.09398224901268117 0.09173826165461739 0.09062251988616171
0.09046850312895402 0.09147107249278408 0.0942637342672669 0.0965760067079533 0.09413090572971422 0.098797347374941 0.09659370276523518 0.09726511328799539
0.0954495848036436 0.09358522614360142 0.0951128641071959 0.0955896435307835 0.10006619832673222 0.10217669096482963 0.09785943266377156 0.10025941354752696
0.09965692270403029 0.09829232166891212 0.09813645286866232 0.09782674881073601 0.1012309843328027 0.10130468466052683 0.10709212569478334 0.10903875228515926
0.10274479107763017 0.07984734096377775 0.08146082670062339 0.08234206926594652 0.08332975335831276 0.0838580054595402 0.083008881762817 0.08198088867709144
0.08146940006348892 0.08117554302659429 0.08053667746514245 0.08061015943009975 0.0846295287561687 0.08507774629932915 0.08438943413304917 0.08508677784075697
0.07969129684221704 0.07810382433612775 0.07727686071576291 0.08246358414649639 0.08150740898022385 0.08223115866793007 0.08968988170234819 0.08923333809105818
0.08920933015932164 0.08983955926786141 0.0828842672686908 0.08136157442331868 0.08091353604902955 0.08647073337874915 0.08524169179452912 0.08665011618327095
0.09448852674970787 0.09384486736801571 0.09336580240409709 0.09139501151705469 0.08732098392405445 0.08577423777164714 0.08579418124292132 0.08662579569531409
0.0880437549285484 0.09122779553734908 0.0983943859754067 0.0976870565128844 0.09833296365828807 0.09616238267057983 0.0918065497304307 0.09009765304038658
0.09027746290736183 0.08965812594500508 0.09121242612319398 0.09483658461527338 0.10138459640996661 0.10003297235035438 0.10348907551075788 0.10196147321139262
0.09541785626653128 0.09431534485435984 0.0936116169828226 0.09312377695710072 0.09413894598215689 0.09744846680692167 0.10284598250174458 0.10240980989769603
0.10954414489615473 0.10932467655846201 0.10020271605730426 0.10036452853326687 0.09760251147146053 0.09595868568582964 0.09643963538522039 0.09990222145587697
0.08039480137045955 0.08281572367174193 0.08311142718972538 0.08341196465721817 0.0842121212298017 0.08542323466810228 0.08598087352699983 0.08610564323688445
0.08642081138314554 0.08575128657253221 0.08405778173008138 0.08470089596377137 0.08409213608790499 0.08553919886947599 0.08734664077770142 0.08629570377794452
0.08661964678852233 0.0862557671316499 0.08787262712540755 0.08657754983656721 0.08556365098198797 0.08916967203690615 0.08881943362710593 0.09047493171069104
00000000: 39d6 7dce 9d5a 8d3f 72ae 5ae7 eb79 f43f
00000010: ae23 cbdc f7f1 b03f 1c05 a94e f81e 0640
00000020: eeed 9f87 19c4 cf3f 7f86 3a4e 8264 cf3f
00000030: d269 c7d1 0a0d cb3f f3e9 0cac 06fe c83f
00000040: 486d 06e8 2c75 743f 52f5 331e d08b 613f
00000050: 32f6 01a2 75e8 623f 5ba9 af2d c8a4 713f
00000060: 8410 207d 595f 603f 7fbf 829d 1864 623f
00000070: 8dba 1ef1 a714 703f 90f7 32e0 dae5 623f
00000080: d354 8844 3609 593f bf58 9cea 1898 6f3f
00000090: 17aa 1113 a50d 633f f6b3 6bc9 e144 5a3f
000000a0: cd37 6b0e 0a8a fb3f 12f4 dd07 efac df3f
000000b0: 221d 82b6 d74c e23f df24 7787 ea09 f53f
000000c0: 3f26 d072 ae48 e03f c915 5b0d 2d0e e63f
000000d0: 309f 076c 6482 ea3f e5c1 e161 c87f de3f
000000e0: 5670 1265 9443 d13f 9b86 3e95 a667 e83f
000000f0: 6003 759a 345d db3f 92ee b582 6903 cf3f
00000100: 6914 bed3 e2ec cf3f 03bd f8d6 e2ec cf3f
00000110: 03bd f8d6 e2ec cf3f 6914 bed3 e2ec cf3f
00000120: 1b2b cee9 4adb 8b3f 0396 ebd4 3e11 833f
00000130: 5507 15cf 758b 8a3f 82f3 4163 0634 843f
00000140: 2040 f467 ec91 833f e753 27c5 4071 7f3f
00000150: 59bb 85af 1d2e 833f dbb9 c95b 359c 7f3f
00000160: fdc5 8d52 c48b 9b3f b4df 8f28 d2ac 923f
00000170: f8af b977 9bbb 983f 4f47 9bdd b4ed 913f
00000180: 9672 89d4 3237 1340 5d39 1462 c757 1940
00000190: a72d e14a 09ac 0940 3db2 ec64 c43b 1640
000001a0: 7dae 9e3c 6140 1740 5abe 7593 aeeb 0640
000001b0: 268b 2d46 26ab 1240 cbca 8ccf d306 1240
000001c0: c257 940e 518a 0040 78b0 4078 aad3 1140
000001d0: 5768 6550 4826 1040 e352 d814 6dc3 ff3f
000001e0: 78c0 ccff 2d31 bd3f 08fe 9c3b f189 c53f
000001f0: 6b2c 93db 90da 7e3f e29c 8bfd d134 dd3f
00000200: 4247 63bd 0ba1 d83f 4ece 5963 7426 de3f
00000210: ecf4 449e 1a92 d83f cbb7 b78f 5aa7 d83f
00000220: cc54 562f e435 e03f 0aa7 7651 9905 df3f
00000230: da22 49c0 5667 de3f 3d44 c0f7 0801 d53f
00000240: 8f75 bbeb 51a4 e13f 6f63 a261 d6e2 db3f
00000250: 80dd 5435 c924 d43f ba12 9097 0333 bd3f
00000260: f2d5 9316 fa9d c53f d7a2 afb6 82af 803f
00000270: 1c12 3398 292f dd3f c6b3 c224 529e d83f
00000280: 637b 71b4 9121 de3f 2300 3bbb 998e d83f
00000290: 001c 522b 9ba2 d83f 555f e6a8 3433 e03f
000002a0: 4168 bb79 c1ff de3f 2270 42ed 9961 de3f
000002b0: 9583 aa27 3afc d43f 2a00 a75f 9ca1 e13f
000002c0: 7228 474b 57dd db3f fb88 e2b4 5b20 d43f
000002d0: 469f f082 34fa b43f 09ba 424d 6121 b53f
000002e0: e5bf bb03 d923 b53f d48c e30c 8b3e b53f
000002f0: df93 76cd 0a70 b53f 854c 70d5 447e b53f
00000300: 1a67 150c 4590 b53f f662 8486 6395 b53f
00000310: 40a9 5faf 1e9b b53f 33ef 619b c664 b53f
00000320: 364b c016 7331 b53f e687 e820 6aa5 b53f
00000330: f3fc c9d8 4c68 b53f ab14 527f 5c6a b53f
00000340: 86a1 b703 7eb3 b53f a51e c90a 0110 b43f
00000350: b78b 464b 3a25 b43f 8af0 feb7 be13 b43f
00000360: 90e8 89f1 e67d b53f 7e85 fcbe a92d b53f
00000370: 4e05 a8ce 2c53 b53f ebd0 f4db dea0 b63f
00000380: 1118 e051 de4d b63f 00ce f251 a654 b63f
00000390: 9e0e ad20 9dc5 b63f a63f 94cb 9cf8 b43f
000003a0: 3978 5df8 5811 b53f c40e 7579 5adc b43f
000003b0: 09fa f248 f190 b63f 09b5 65f2 4025 b63f
000003c0: 6015 c38f 7e11 b63f 7d25 c082 6e96 b73f
000003d0: e0d0 478d e139 b73f 880a da6b 5923 b73f
000003e0: 6c8e 371f b49d b63f 01e7 38db eb36 b63f
000003f0: 2ae0 6294 a21b b63f 46cd e0f1 a22d b63f
00000400: b260 f91d f6be b63f d134 01bf 754c b73f
00000410: ce45 0ccc b00d b73f 053f 2dad 9686 b83f
00000420: 885d ae1e 9214 b83f 81fb e97d 380f b83f
00000430: 7f35 99a1 287c b73f 5432 3197 0933 b73f
00000440: 3ec6 419e f128 b73f 20f5 e2f0 a56a b73f
00000450: 6b72 e007 ab21 b83f 5091 6386 34b9 b83f
00000460: 44e8 a689 f618 b83f 1c2c e86f c84a b93f
00000470: 9a50 606a 5dba b83f d219 9dd0 5de6 b83f
00000480: 5eff 254d 626f b83f afef ac8d 33f5 b73f
00000490: c1f0 c410 5159 b83f 320f cd18 9078 b83f
000004a0: d694 3f39 f09d b93f 5181 1b6a 4028 ba3f
000004b0: 1c61 e5d6 500d b93f 2e82 4dd6 99aa b93f
000004c0: 9274 d5b7 1d83 b93f 5911 0483 af29 b93f
000004d0: 1ec9 9d77 781f b93f 1ded d07e 2c0b b93f
000004e0: 6c20 0d17 46ea b93f 246e 8c93 1aef b93f
000004f0: c9a9 84b9 636a bb3f 31b8 0fb3 f6e9 bb3f
00000500: 2b45 838d 7b4d ba3f 27ab 1c16 e070 b43f
00000510: c194 95e2 9dda b43f 850b 95ae 5e14 b53f
00000520: cb2b 7545 1955 b53f 24de f4de b777 b53f
00000530: 83e6 72f0 1140 b53f 32df c313 b3fc b43f
00000540: a9bd e5b8 2ddb b43f 7bc5 889e ebc7 b43f
00000550: 965e d73b 0d9e b43f 9845 7a0e dea2 b43f
00000560: 619c 48e2 47aa b53f c616 f9b9 a7c7 b53f
00000570: 74b9 bac3 8b9a b53f d4e7 2540 3fc8 b53f
00000580: 0491 b619 a666 b43f ba58 37bb 9cfe b33f
00000590: f901 8395 6ac8 b33f 4b28 055d 551c b53f
000005a0: 6ca6 f367 abdd b43f e0e1 30e9 190d b53f
000005b0: f395 b184 eaf5 b63f b262 d0fc fed7 b63f
000005c0: 4848 8833 6cd6 b63f e448 f1b0 b9ff b63f
000005d0: 889e 4541 e737 b53f ee99 4cb5 1cd4 b43f
000005e0: 6b61 22df bfb6 b43f c340 ec2b f222 b63f
000005f0: 0062 8346 66d2 b53f d4a5 33b7 b32e b63f
00000600: 38ba 3c6c 6630 b83f d33a 3e9c 3706 b83f
00000610: f0f0 e33b d2e6 b73f 1bb9 7bd9 a965 b73f
00000620: cb56 3502 ab5a b63f a68c 11ea 4cf5 b53f
00000630: 141d a082 9bf6 b53f 9458 80af 1b2d b63f
00000640: deff 0818 098a b63f d2af 516e b45a b73f
00000650: e6d6 dfdd 5f30 b93f ac20 f7d8 0402 b93f
00000660: 6bf6 075f 592c b93f a6f2 ac10 199e b83f
00000670: aa9a a650 a280 b73f 943b 41c9 a310 b73f
00000680: c8c2 c07e 6c1c b73f 5e23 c1be d5f3 b63f
00000690: 751c 3093 b259 b73f 3b0e 63dd 3547 b83f
000006a0: 9c22 e645 57f4 b93f b235 c4c8 c29b b93f
000006b0: e5dd cf92 427e ba3f ea18 e5a8 251a ba3f
000006c0: 9d82 1efc 4d6d b83f 6d12 a9e9 0c25 b83f
000006d0: d786 7751 eef6 b73f 40c0 82b8 f5d6 b73f
000006e0: 50f5 456e 7d19 b83f 6927 fbf9 61f2 b83f
000006f0: 17b7 5e43 1d54 ba3f b3d8 4c80 8737 ba3f
00000700: e119 ccc7 150b bc3f 18e1 76b6 b3fc bb3f
00000710: 31be 6f9c e2a6 b93f 4395 ba5f 7db1 b93f
00000720: e302 c76a 7afc b83f 0fac c998 bf90 b83f
00000730: 1187 0498 44b0 b83f c563 f325 3193 b93f
00000740: eb8f a7f2 c094 b43f afc3 c348 6933 b53f
00000750: 5529 b45d ca46 b53f 8c40 4c8c 7c5a b53f
00000760: 60d9 9bf2 ec8e b53f fed0 370f 4cde b53f
00000770: 2346 e1af d702 b63f 1b16 b4f9 040b b63f
00000780: e39a 959e ac1f b63f 4b40 6bdb cbf3 b53f
00000790: 1048 818f cf84 b53f 3e36 1b3a f5ae b53f
000007a0: 5f2c 59ee 0f87 b53f eda1 ab9d e5e5 b53f
000007b0: 8b41 8e75 595c b63f 9af6 82a9 7917 b63f
000007c0: 92d4 2586 b42c b63f ecfc eba2 db14 b63f
000007d0: 409c b70b d27e b63f 6aa9 1d41 f229 b63f
000007e0: c3a9 b1da 7fe7 b53f fe8c 31d9 d2d3 b63f
000007f0: 4c7b add2 debc b63f f424 ce78 5d29 b73f

count f8 []
20800000001.0
00000000: 0000 0440 1b5f 1342

running_mean f8 [1]
305.0184556154316
00000000: 4d8b 1d98 4b10 7340

running_var f8 [1]
7827.089520337997
00000000: 060c ceea 1693 be40

count f8 []
5200000001.0
00000000: 0000 1040 1b5f f341

a2c_network.sigma f4 [15]
-2.4661987 -2.2559915 -1.7834243 -1.451256 -1.4476672 -1.7595724 -1.2972751 -1.6416266
-1.5032783 -1.4038343 -1.4474759 -2.0835803 -1.447656 -1.7724617 -2.06793
00000000: 33d6 1dc0 2a62 10c0 3f47 e4bf c2c2 b9bf
00000010: 294d b9bf ab39 e1bf 1c0d a6bf d220 d2bf
00000020: 6c6b c0bf d8b0 b3bf e446 b9bf 6159 05c0
00000030: cb4c b9bf 06e0 e2bf f758 04c0

a2c_network.actor_mlp.0.weight f4 [128, 376]
-0.10924474 -0.121218525 0.26057324 -0.014564498 0.03355133 0.077971146 -0.09302456 0.10605969
-0.12132973 -0.032899737 0.40109116 -0.46407902 0.24795002 0.2221635 -0.036905102 0.1788026
0.16353926 0.5349567 -0.70978874 -0.26961923 -0.017567286 0.21365263 -0.25235727 -0.15516119
0.043311574 0.31491458 -0.41633275 0.07787023 0.32195222 0.21554665 0.26730826 -0.20004402
0.14482184 -0.13462861 -0.19292136 0.15553708 0.91554046 -0.4107716 -0.59835637 -0.5922562
0.13450722 0.7299738 2.3198826 2.5441902 -0.50681746 0.06922922 -0.082320936 0.5740182
0.16705343 0.048856642 0.15320401 -0.25624782 -0.1039876 0.015029285 -0.0023501364 0.04642781
-0.20502059 -0.0021420491 0.06730642 -0.21178162 0.3938479 -0.50419855 -0.33600006 -0.07033349
-0.1376966 0.21440202 0.045179456 -0.19866528 -0.122442506 0.26030615 -0.047076397 0.059016857
-0.14463411 -0.083151825 0.34077156 -0.17151222 -0.109931394 -0.20865366 -0.12193372 0.09633175
0.113768876 0.08857179 -0.1289802 -0.21426137 -0.1544383 -0.012028744 -0.29421014 -0.17842199
-0.49421534 0.09800302 -0.14590585 -0.050536983 -0.17913622 0.15642184 0.09585475 -0.11359961
-0.085062064 -0.10770192 0.020708313 -0.13262357 0.0040752133 0.0388216 -0.21771719 -0.02380246
-0.22265187 0.1256305 -0.058053974 0.11344708 -0.10851578 0.07812279 0.057320714 0.11224865
-0.097219735 0.14497942 0.1057368 0.25688037 -0.008748626 -0.16783509 0.109804146 -0.046688538
-0.072241634 -0.0076312413 -0.017138997 0.109168254 -0.04294333 0.05536369 0.14594352 0.04228515
0.07894627 -0.00372793 0.22038817 -0.028447172 0.04338254 -0.19744705 -0.060887303 0.03846461
0.021713588 0.15245894 0.26435852 -0.11444672 0.17562637 0.042832542 -0.093500696 0.11360869
0.28801134 -0.10665054 0.10018335 0.023778623 -0.14449142 -0.05922137 -0.114486784 0.15811527
0.08488939 -0.076883525 0.0990883 0.022727292 -0.06408201 0.118445255 -0.112661965 0.18936625
-0.13208386 -0.018923065 0.10292131 0.12575817 0.15829358 0.0995793 -0.022716343 0.050392356
-0.20564142 0.045651186 0.056515515 0.16189559 -0.03835481 0.039776176 -0.07127836 -0.06204995
0.087216474 -0.16534518 -0.13546626 0.11928122 0.055547643 -0.061664842 -0.053961605 0.14984848
-0.0961382 -0.09757702 -0.0729487 -0.10220558 -0.09661523 0.12246406 0.1259937 0.028244024
0.048464686 0.10376642 0.103932045 0.03612509 0.10334805 -0.07780403 -0.21479423 -0.08286543
-0.04941036 0.04454307 0.08014454 -0.12888086 -0.1538834 0.08442879 -0.026640814 0.004191436
-0.0175557 0.054650288 -0.21644057 0.1269173 -0.09792507 0.064406976 -0.11353621 0.16970296
-0.0408012 -0.06406096 0.0390508 -0.07713325 -0.029601006 0.18919992 0.11350836 0.12523422
0.11583951 0.030595653 -0.03838523 -0.0858983 -0.022451492 0.10600616 -0.06942609 0.18370762
-0.16341624 0.038505204 0.16694193 -0.26417977 -0.16150756 0.034942027 0.10955744 0.120171286
0.26053324 0.17333835 0.11213556 -0.04159785 0.1387235 0.09134313 0.052042283 -0.08067845
-0.07327553 -0.018727647 0.024354367 -0.15230373 -0.010829564 0.06810024 0.117195986 0.062082957
00000000: b5bb dfbd 6b41 f8bd db69 853e ef9f 6ebc
00000010: 1f6d 093d 56af 9f3d a983 bebd d335 d93d
00000020: b97b f8bd e0c1 06bd d25b cd3e c49b edbe
00000030: 9ce6 7d3e d47e 633e ce29 17bd 0718 373e
00000040: d676 273e ecf2 083f b7b4 35bf 880b 8abe
00000050: 45e9 8fbc c1c7 5a3e f934 81be 93e2 1ebe
00000060: 7a67 313d 7c3c a13e 9129 d5be 6d7a 9f3d
00000070: ecd6 a43e 43b8 5c3e a1dc 883e 57d8 4cbe
00000080: 2d4c 143e 15dc 09be 2d8d 45be 1d45 1f3e
00000090: dc60 6a3f a850 d2be e22d 19bf 1a9e 17bf
000000a0: 43bc 093e 90df 3a3f f578 1440 03d4 2240
000000b0: cabe 01bf 0dc8 8d3d e197 a8bd dbf2 123f
000000c0: 0e10 2b3e e71d 483d 83e1 1c3e ea32 83be
000000d0: 73f7 d4bd 643d 763c bf04 1abb 162b 3e3d
000000e0: ebf0 51be 9f61 0cbb f3d7 893d 48dd 58be
000000f0: 6fa6 c93e 2813 01bf 3308 acbe 010b 90bd
00000100: 5600 0dbe 348c 5b3e 180e 393d e96e 4bbe
00000110: 23c3 fabd d946 853e 2ed3 40bd a9bb 713d
00000120: f71a 14be 814b aabd 9c79 ae3e e6a0 2fbe
00000130: b623 e1bd 4ea9 55be 63b8 f9bd 9549 c53d
00000140: a8ff e83d 2065 b53d 6313 04be 5567 5bbe
00000150: 1325 1ebe 3614 45bc b6a2 96be 41b4 36be
00000160: cb09 fdbe cfb5 c83d 5868 15be deff 4ebd
00000170: 7c6f 37be 0c2d 203e 7f4f c43d eaa6 e8bd
00000180: 0535 aebd d392 dcbd 7ba4 a93c 79ce 07be
00000190: 5e89 853b 6603 1f3d 41f1 5ebe 60fd c2bc
000001a0: dafe 63be 48a5 003e 01ca 6dbd f156 e83d
000001b0: 853d debd d7fe 9f3d 20c9 6a3d 9fe2 e53d
000001c0: 241b c7bd 7c75 143e 898c d83d d385 833e
000001d0: 6656 0fbc f6dc 2bbe ffe0 e03d 7b3c 3fbd
000001e0: 6cf3 93bd 7e0f fabb 1567 8cbc 9b93 df3d
000001f0: 58e5 2fbd 09c5 623d 3872 153e 3233 2d3d
00000200: 95ae a13d 4950 74bb 70ad 613e 0b0a e9bc
00000210: e4b1 313d 8f2f 4abe f764 79bd 118d 1d3d
00000220: b2e0 b13c 321e 1c3e 005a 873e 0b63 eabd
00000230: 66d7 333e 2d71 2f3d 4b7d bfbd acab e83d
00000240: 3976 933e 996b dabd ee2c cd3d 63cb c23c
00000250: 8ff5 13be 1b92 72bd 0c78 eabd f8e8 213e
00000260: 7dda ad3d 1c75 9dbd ceee ca3d 962e ba3c
00000270: 6e3d 83bd 6d93 f23d 51bb e6bd 3ae9 413e
00000280: fe40 07be 8b04 9bbc 68c8 d23d c0c6 003e
00000290: b617 223e 3bf0 cb3d a017 babc 3768 4e3d
000002a0: aa93 52be bdfc 3a3d d07c 673d f5c7 253e
000002b0: ef19 1dbd 58ec 223d 64fa 91bd 1728 7ebd
000002c0: 8d9e b23d 3f50 29be abb7 0abe b649 f43d
000002d0: ed85 633d 4694 7cbd d806 5dbd e171 193e
000002e0: 1be4 c4bd 76d6 c7bd 2166 95bd 2951 d1bd
000002f0: 35de c5bd 70ce fa3d 7e04 013e 0360 e73c
00000300: e882 463d 7d83 d43d 53da d43d e7f7 133d
00000310: 24a8 d33d b857 9fbd 05f3 5bbe 5ab5 a9bd
00000320: 8562 4abd cb72 363d d222 a43d 58f9 03be
00000330: 9c93 1dbe 00e9 ac3d d63d dabc 5058 893b
00000340: f9d0 8fbc fbd8 5f3d 99a2 5dbe 9cf6 013e
00000350: f08c c8bd cee7 833d ac85 e8bd 9dc6 2d3e
00000360: 291f 27bd 6532 83bd bbf3 1f3d 0af8 9dbd
00000370: cf7d f2bc a0bd 413e 1277 e83d 663d 003e
00000380: 443d ed3d bca3 fa3c d539 1dbd 73eb afbd
00000390: 31ec b7bc c219 d93d 442f 8ebd da1d 3c3e
000003a0: 9656 27be a2b7 1d3d d3f2 2a3e 9242 87be
000003b0: 3d62 25be 5f1f 0f3d a75f e03d 5d1c f63d
000003c0: 9d64 853e 9c7f 313e 54a7 e53d 8262 2abd
000003d0: 880d 0e3e 1b12 bb3d 4a2a 553d be3a a5bd
000003e0: 7b11 96bd b96a 99bc cf82 c73c 82f5 1bbe
000003f0: 7c6e 31bc 2378 8b3d 7304 f03d b34a 7e3d

a2c_network.actor_mlp.0.bias f4 [128]
-0.3855058 -0.32951176 -0.5661633 -0.656452 -0.220728 -0.028306376 -0.57614857 -0.4310594
-0.3700014 -0.09182137 -0.16002312 -0.1866803 -0.3404894 -0.24874413 -0.06820989 -0.6892423
-0.12636311 -0.16998208 -0.5268915 -0.8151302 -0.2884122 -0.5872328 -0.7674052 -0.69824016
-0.10203648 -0.20358942 -0.45572004 -0.41181663 -0.099551976 -0.6990399 -0.64360434 -0.4134022
-0.4708131 -0.28361046 -0.24118264 -0.4306857 -0.1071207 -0.3167623 -0.3525996 -0.6474571
0.028954115 -0.725648 -0.5716296 -0.089568175 -0.31519252 0.039374504 -0.48940742 -0.5071402
-0.62910867 -0.09945066 -0.321194 -0.15370409 -0.20743409 -0.5285203 -0.30988714 -0.88282263
-0.36941293 -0.571032 -0.6465137 -0.3704763 -0.29324242 -0.116778314 -0.35704413 -0.65670884
-0.5359484 -0.42838338 -0.15009223 -0.29290065 -0.5350573 -0.014821311 -0.07470502 -0.7197559
0.08924974 -0.57801366 -0.4820712 -0.38738537 -1.0304339 -0.159981 -0.04590846 -0.47842854
-0.9178801 -0.5965188 -0.38426313 -0.14903435 -0.43415168 -0.4047582 -0.7471417 -0.10283941
-0.22695206 -1.0051769 -0.3081588 -0.41180143 -0.22264783 -0.69062555 -0.1389578 -0.20639427
-0.27308244 -0.48965338 -0.6004854 -0.71502477 -0.76577294 -0.096123 -0.39486066 -0.4700795
-0.28798074 -0.50647014 -0.47556883 -0.2938175 -0.44443753 -0.1514429 -0.9143958 -0.61657876
-0.47614 -0.23770542 -0.77564615 -0.32124174 -0.7218367 -0.44558457 0.0050614863 -0.17384243
-0.48937747 -0.3008764 -0.37686822 -0.012969751 -0.0055440497 -0.49904674 -0.27761617 -0.54985064
00000000: 0461 c5be c4b5 a8be 14f0 10bf 3d0d 28bf
00000010: 8506 62be c6e2 e7bc 797e 13bf d1b3 dcbe
00000020: d370 bdbe d80c bcbd 1add 23be 1f29 3fbe
00000030: a054 aebe c8b6 7ebe a0b1 8bbd 2f72 30bf
00000040: 5565 01be c80f 2ebe 5de2 06bf 5fac 50bf
00000050: c4aa 93be e454 16bf ab74 44bf debf 32bf
00000060: 81f8 d0bd bf79 50be 2354 e9be a1d9 d2be
00000070: e8e1 cbbd 47f4 32bf 41c3 24bf 74a9 d3be
00000080: 6a0e f1be 6435 91be 95f8 76be d682 dcbe
00000090: 1962 dbbd ab2e a2be ef87 b4be c0bf 25bf
000000a0: 2e31 ed3c 11c4 39bf 5156 12bf 856f b7bd
000000b0: ea60 a1be 2947 213d 9c93 fabe f1d3 01bf
000000c0: 440d 21bf caac cbbd 8a73 a4be 9b64 1dbe
000000d0: 9a69 54be 1b4d 07bf 87a9 9ebe aa00 62bf
000000e0: b123 bdbe 272f 12bf ec81 25bf 12af bdbe
000000f0: df23 96be 7829 efbd 7dce b6be 121e 28bf
00000100: ea33 09bf 1155 dbbe c7b1 19be 13f7 95be
00000110: 84f9 08bf 16d5 72bc f2fe 98bd ec41 38bf
00000120: 91c8 b63d b4f8 13bf 09d2 f6be 6057 c6be
00000130: 42e5 83bf 0fd2 23be 820a 3cbd 96f4 f4be
00000140: 31fa 6abf 75b5 18bf 23be c4be 769c 18be
00000150: 2149 debe 773c cfbe ae44 3fbf 789d d2bd
00000160: 1f66 68be a3a9 80bf fdc6 9dbe a3d7 d2be
00000170: cbfd 63be d6cc 30bf f44a 0ebe 0559 53be
00000180: 76d1 8bbe d9b3 fabe 69b9 19bf dd0b 37bf
00000190: b209 44bf 23dc c4bd 2d2b cabe 43ae f0be
000001a0: 3672 93be 07a8 01bf c27d f3be 3f6f 96be
000001b0: 518d e3be d913 1bbe d815 6abf 1bd8 1dbf
000001c0: 9fc8 f3be 0d69 73be bf90 46bf cc79 a4be
000001d0: 4aca 38bf a923 e4be d3da a53b c003 32be
000001e0: af8f fabe 790c 9abe dff4 c0be 147f 54bc
000001f0: dcaa b5bb 0e83 ffbe b523 8ebe 03c3 0cbf

a2c_network.actor_mlp.2.weight f4 [128, 128]
0.27023232 0.17043878 -0.007460622 0.026637934 0.112991266 0.0080808215 0.08984524 0.058844678
-0.118406534 -0.064245775 0.30247897 -0.018928764 -0.49376032 -0.11015566 -0.13839483 0.044857666
-0.21607852 -0.057178967 -0.16206884 -0.12593675 0.21614987 0.08926635 -0.25183648 -0.050222266
0.049087238 -0.075310595 -0.16434447 -0.2493091 -0.2557078 -0.06638499 0.08062809 -0.18789394
-0.23074326 -0.15157577 -0.079294935 -0.514409 -0.08683575 0.11261014 0.040735204 0.010397666
0.093027264 -0.1357308 0.0956717 -0.05988863 0.07455258 -0.044914063 0.028627427 0.048150677
-0.05528351 -0.15814584 -0.11709228 0.17764959 0.06471267 0.06992735 -0.01698016 0.1636445
-0.13923895 -0.24354124 -0.25008217 -0.021430852 0.19309923 0.14980988 -0.29077446 0.1138085
0.06936048 0.05645664 -0.42794544 0.07175499 -0.10052589 0.12948644 -0.06970756 -0.062423047
0.049752913 0.05942746 -0.19734782 0.017890904 -0.05268339 -0.043838188 0.050202664 -0.19715266
0.06456867 -0.036846716 -0.010463167 -0.08843943 -0.17581537 0.2246721 0.089732565 -0.333263
-0.16539793 0.0684574 -0.19069786 -0.1928732 -0.10314584 0.027394326 -0.36202598 -0.2736236
-0.18709174 0.013834547 -0.036505774 0.12362291 -0.0662281 -0.14083055 -0.10789598 -0.17279088
-0.049341884 -0.31253418 -0.22976041 -0.023158953 0.06533944 -0.018991416 0.11294946 0.08235674
-0.26626506 0.14265072 0.0057222755 0.06304736 0.10094578 -0.05873004 -0.1361357 -0.10845816
-0.120974705 -0.25445634 -0.13408086 0.10585401 -0.068658955 -0.020126702 0.017574713 0.08073218
0.0996381 0.018200789 0.1339781 -0.12718095 0.056764472 -0.059899997 -0.04328425 0.041427996
-0.19604039 0.04113463 0.16228068 -0.057823572 -0.13393672 0.054250244 -0.16649887 -0.13349979
0.048793633 -0.34961993 -0.16993831 -0.09027823 -0.19117197 -0.0198748 -0.042050563 0.053457856
-0.055120613 0.24448507 -0.100304805 0.029786235 -0.023619872 -0.04601968 -0.03247416 -0.11901264
0.038932122 0.0016102317 0.056473162 -0.060525604 -0.058903277 -0.16964966 0.053731166 -0.14689875
-0.18209298 -0.06444953 -0.29379493 -0.35696936 0.030994048 -0.076874904 0.09584301 -0.053444233
0.032794185 -0.043114662 -0.18020177 -0.03709996 0.031034537 -0.11961697 0.05549801 0.09019903
-0.13895692 -0.14412864 0.03954253 0.042863727 -0.031122679 0.032069363 -0.010482755 -0.04096488
0.071498334 0.028536735 -0.09837885 -0.05772442 0.19021839 -0.067423135 0.021651242 0.045589924
-0.81075364 0.09246062 -0.0055916947 0.018157544 -0.078260235 -0.029434204 -0.30690613 0.23265357
0.07660351 0.09885262 -0.07263171 0.09532714 0.05088945 -0.1187652 -0.20239855 -0.05912238
-0.1869946 -0.24202377 -0.03173983 0.046106923 -0.057417616 -0.03923079 -0.5580143 -0.22712903
-0.122778155 -0.24245457 -0.022973342 -0.0033090557 -0.105232015 -0.11606388 -0.25273484 0.16363145
-0.13647974 -0.19812304 0.04868827 -0.1356889 0.05590526 0.10336414 0.22941755 -0.0065221065
0.013959734 0.020029709 -0.0013183475 0.06677326 0.059647493 -0.058378246 -0.08047559 -0.00545358
0.12536703 -0.04237693 0.21190351 0.17702365 -0.12181862 0.026623387 0.15624571 -0.16061217
00000000: e45b 8a3e 8187 2e3e 3c78 f4bb cc37 da3c
00000010: f767 e73d 6c65 043c c800 b83d 1e07 713d
00000020: 207f f2bd 4a93 83bd 86de 9a3e 7f10 9bbc
00000030: 27ce fcbe 4a99 e1bd 60b7 0dbe acbc 373d
00000040: b043 5dbe 7e34 6abd 60f5 25be 90f5 00be
00000050: 6456 5d3e 47d1 b63d b6f0 80be ddb5 4dbd
00000060: b30f 493d 713c 9abd eb49 28be e24a 7fbe
00000070: 22ec 82be dbf4 87bd 5720 a53d 4567 40be
00000080: f647 6cbe ae36 1bbe 6265 a2bd 4fb0 03bf
00000090: f1d6 b1bd 25a0 e63d f5d9 263d f95a 2a3c
000000a0: 1485 be3d 04fd 0abe 86ef c33d c84d 75bd
000000b0: 06af 983d cff7 37bd 1184 ea3c a539 453d
000000c0: f670 62bd fcf0 21be 14ce efbd c6e9 353e
000000d0: 1488 843d 1236 8f3d fa19 8bbc 6c92 273e
000000e0: a894 0ebe e062 79be c50a 80be c18f afbc
000000f0: cebb 453e c367 193e 64e0 94be 6e14 e93d
00000100: de0c 8e3d 143f 673d aa1b dbbe 48f4 923d
00000110: 85e0 cdbd 1898 043e d6c2 8ebd 4faf 7fbd
00000120: b6c9 4b3d 356a 733d 8c15 4abe f28f 923c
00000130: 8aca 57bd ac8f 33bd 4fa1 4d3d 63e2 49be
00000140: 943c 843d 95ec 16bd b46d 2bbc bb1f b5bd
00000150: f208 34be 7110 663e b5c5 b73d 73a1 aabe
00000160: 135e 29be 6533 8c3d 4d46 43be 8d80 45be
00000170: 203e d3bd 116a e03c 785b b9be 6418 8cbe
00000180: fa94 3fbe 4caa 623c 1487 15bd 022e fd3d
00000190: 99a2 87bd e235 10be 91f8 dcbd 18f0 30be
000001a0: b71a 4abd 7b04 a0be 5046 6bbe d8b7 bdbc
000001b0: afd0 853d e393 9bbc 0c52 e73d a7aa a83d
000001c0: e553 88be 0813 123e ed81 bb3b f91e 813d
000001d0: a9bc ce3d e98e 70bd 2867 0bbe 501f debd
000001e0: 96c1 f7bd 1a48 82be 7e4c 09be fdc9 d83d
000001f0: 119d 8cbd c1e0 a4bc d8f8 8f3c ea56 a53d
00000200: 0f0f cc3d d219 953c 8e31 093e b93b 02be
00000210: dd81 683d b359 75bd d34a 31bd 67b0 293d
00000220: d0be 48be c97c 283d e82c 263e 69d8 6cbd
00000230: b526 09be 8135 5e3d ae7e 2abe 2bb4 08be
00000240: d5db 473d 6201 b3be 4f04 2ebe cbe3 b8bd
00000250: 96c2 43be 7ad0 a2bc 363d 2cbd a0f6 5a3d
00000260: 27c6 61bd 4b5a 7a3e 9b6c cdbd 4302 f43c
00000270: 767e c1bc 227f 3cbd a003 05bd e6bc f3bd
00000280: 4a77 1f3d 690e d33a 6750 673d b2e9 77bd
00000290: 9044 71bd a4b8 2dbe 3615 5c3d a06c 16be
000002a0: 9576 3abe 1dfe 83bd 4a6c 96be b0c4 b6be
000002b0: 3be7 fd3c 9770 9dbd 5749 c43d 57e8 5abd
000002c0: 3253 063d 0099 30bd d086 38be 21f6 17bd
000002d0: 243c fe3c bef9 f4bd e251 633d 45ba b83d
000002e0: b94a 0ebe 7596 13be 59f7 213d e091 2f3d
000002f0: fdf4 febc 2a5b 033d dcbf 2bbc caca 27bd
00000300: b86d 923d dfc5 e93c da7a c9bd 7170 6cbd
00000310: 9cc8 423e 2415 8abd f25d b13c 80bc 3a3d
00000320: 8d8d 4fbf fe5b bd3d 893a b7bb 21bf 943c
00000330: e746 a0bd 0020 f1bc cd22 9dbe bd3c 6e3e
00000340: 4de2 9c3d 3e73 ca3d efbf 94bd e03a c33d
00000350: 7571 503d 2b3b f3bd 9141 4fbe 4f2a 72bd
00000360: 837b 3fbe 14d5 77be a001 02bd 9dda 3c3d
00000370: bc2e 6bbd 77b0 20bd 06da 0ebf 8394 68be
00000380: 1d73 fbbd 0346 78be 9732 bcbc bedc 58bb
00000390: e283 d7bd e6b2 edbd 7666 81be 018f 273e
000003a0: 58c1 0bbe c4e0 4abe 5a6d 473d 08f2 0abe
000003b0: eafc 643d 94b0 d33d 6fec 6a3e 65b7 d5bb
000003c0: 5eb7 643c 5815 a43c 67cc acba 6bc0 883d
000003d0: ee50 743d 071e 6fbd 63d0 a4bd f2b3 b2bb
000003e0: 3760 003e 6f93 2dbd 3cfd 583e b045 353e
000003f0: 0a7c f9bd 4a19 da3c e0fe 1f3e 8477 24be

a2c_network.actor_mlp.2.bias f4 [128]
0.017976658 -0.18899666 -0.100766554 -0.29477614 -0.07136055 -0.009663389 -0.7377399 -0.20642999
-0.22605589 0.14951696 -0.09359959 -0.19424647 -0.22599268 0.036858074 0.09929261 -0.31329408
0.104493566 -0.06622949 -0.067983784 0.0015055925 -0.19501291 -0.03306298 0.18828382 -0.056983702
0.088351175 0.043130342 0.15679143 -0.17872456 0.15653013 -0.59576946 -0.32541445 -0.21368296
-0.122988544 -0.21356963 -0.2730823 -0.07195924 0.009370456 -0.27110457 0.22698714 0.11271486
-0.3477544 0.051214017 -0.21492401 0.014239746 -0.29339322 -0.032625515 -0.063924916 -0.0034808002
-0.33639187 0.09906438 -0.21091169 0.0048067593 -0.1009434 -0.34770277 -0.06813 -0.029463459
-0.15392 -0.096412145 -0.2644494 0.06822659 -0.20570864 -0.17224479 -0.26264286 -0.50127643
-0.26073506 -0.32351542 -0.06406198 -0.20053522 0.027862987 -0.17506874 -0.14988431 -0.017052757
-0.11225122 -0.036092997 0.0439255 0.14753495 0.116958946 -0.2924508 -0.15514752 -0.16072887
0.05892818 0.08081235 0.020519778 -0.0051959436 -0.10133433 -0.028241307 0.128773 0.17627467
0.10010409 0.08648823 -0.19502923 0.12571174 -0.566643 0.16126154 -0.09353357 -0.058340415
0.042605054 -0.17964792 0.15590756 -0.17259523 -0.18454385 -0.19778594 0.023691159 -0.2898853
0.10255542 -0.46439967 -0.09594229 -0.21546443 0.100170836 -0.20364715 -0.15234852 -0.16333169
0.051686477 -0.0074517857 0.020617157 -0.111573145 -0.2969853 -0.21025006 -0.10107864 0.056860015
-0.23685612 -0.13224217 -0.27640468 -0.7974553 0.035645604 -0.17794208 -0.41569996 -1.0254538
00000000: c943 933c 5788 41be b25e cebd e6ec 96be
00000010: 7b25 92bd 3153 1ebc 86dc 3cbf 6262 53be
00000020: 327b 67be f91a 193e 24b1 bfbd 8ce8 46be
00000030: a06a 67be 7ef8 163d ed59 cb3d 1568 a0be
00000040: b900 d63d 54a3 87bd 153b 8bbd 4d57 c53a
00000050: 77b1 47be 0c6d 07bd 79cd 403e be67 69bd
00000060: 76f1 b43d 71a9 303d ef8d 203e 9203 37be
00000070: 6f49 203e 5984 18bf b99c a6be b5cf 5abe
00000080: 6be1 fbbd ffb1 5abe 71d1 8bbe 5e5f 93bd
00000090: 8b86 193c 38ce 8abe 516f 683e 0cd7 e63d
000000a0: dd0c b2be cac5 513d 0a15 5cbe d34d 693c
000000b0: a337 96be 55a2 05bd 11eb 82bd 231e 64bb
000000c0: 8e3b acbe 44e2 ca3d 3cf9 57be 0582 9d3b
000000d0: 6abb cebd 1906 b2be be87 8bbd 5a5d f1bc
000000e0: 349d 1dbe bb73 c5bd e965 87be 62ba 8b3d
000000f0: 49a5 52be f060 30be 2079 86be a753 00bf
00000100: 117f 85be d0a3 a5be ed32 83bd 1b59 4dbe
00000110: eb40 e43c 3845 33be 467b 19be 39b2 8bbc
00000120: f8e3 e5bd 40d6 13bd 3aeb 333d 6713 173e
00000130: 2c88 ef3d 1cbc 95be fede 1ebe 1c96 24be
00000140: ad5e 713d f280 a53d 1819 a83c bc42 aabb
00000150: 6088 cfbd 505a e7bc 12dd 033e 5981 343e
00000160: 6003 cd3d be20 b13d beb5 47be 94ba 003e
00000170: 840f 11bf bf21 253e 878e bfbd 5cf6 6ebd
00000180: a382 2e3d a0f5 37be 3ba6 1f3e cebc 30be
00000190: 10f9 3cbe 6688 4abe f613 c23c d96b 94be
000001a0: 9308 d23d cbc5 edbe 647d c4bd b5a2 5cbe
000001b0: 5e26 cd3d e188 50be 4001 1cbe 6c40 27be
000001c0: 33b5 533d 1c2e f4bb 50e5 a83c 7680 e4bd
000001d0: 750e 98be cb4b 57be 5102 cfbd 0ce6 683d
000001e0: 698a 72be 7e6a 07be ea84 8dbe 0826 4cbf
000001f0: 2001 123d 7336 36be a0d6 d4be 1242 83bf

a2c_network.critic_mlp.0.weight f4 [128, 376]
-0.038924776 0.058359683 -0.39894435 -0.6014884 0.07496666 0.06977201 -0.02969264 -0.04217734
-0.028745977 0.18207997 0.24489076 -0.5690478 0.053162567 0.052378792 0.8286465 0.6813024
-0.21873455 0.2861551 0.09135699 0.08654379 -0.1151063 0.14720479 0.037577808 0.042620074
0.15156788 0.14116322 -0.049804866 0.17087512 0.018971993 -0.042577054 -0.016686106 -0.06715508
-0.03648928 0.08502033 0.100631975 -0.07413624 -0.16642626 0.021703027 -0.044585228 0.132554
0.553703 -0.10537719 0.5197742 0.4900461 -0.19789088 0.2251283 0.2984089 -0.4211178
-0.047945872 -0.039175082 -0.036772337 -0.030558137 0.034932133 -0.071769096 -0.09467002 -0.02319664
0.006605295 -0.061115764 -0.031053169 0.06697541 0.08796893 -0.13673995 -0.044033214 0.017931914
-0.2597279 -0.08191321 -0.05438021 -0.35635376 -0.004728346 -0.13286164 -0.3659031 -0.100372665
0.12421697 -0.09569226 0.20855871 -0.034600403 -0.052929945 -0.030665345 0.06916207 -0.07099871
-0.07681689 0.038026713 -0.039279256 0.12232477 -0.102237664 -0.048546117 0.10030444 -0.0021133544
0.094664045 0.031855617 -0.06577087 -0.1909849 0.008828045 -0.023839489 0.00998552 0.01397761
-0.05849928 -0.08257095 -0.04865906 0.0056955684 -0.043749362 -0.015931511 -0.0086309975 0.024527414
-0.008344975 0.033577107 0.056971114 -0.036550906 -0.018351914 0.010493585 -0.004447913 0.014536966
0.046901193 -0.030881206 0.039611507 0.026359554 -0.00504354 0.040316474 -0.047094733 0.05771927
-0.018637095 0.07362269 0.034847576 0.04591086 0.01917486 0.010269856 0.044195354 -0.016332189
-0.0037154644 0.010140923 -0.0015892672 0.09062657 -0.0076975524 0.0040783347 0.077283785 0.008775384
0.018936105 0.021849204 -0.06364209 0.08194487 -0.05572135 0.13759075 -0.047267627 0.03563398
-0.016162153 0.009575384 -0.014239202 -0.004324563 -0.028821914 -0.016370285 -0.047496323 -0.25338465
0.034213305 -0.0802945 -0.13982968 -0.13102344 -0.051387057 0.10980972 0.023372332 -0.16549318
-0.19161984 -0.1874375 -0.03292792 -0.003127387 -0.05771485 -0.022117341 -0.08788164 0.014157829
0.008321277 -0.005685532 -0.019831367 -0.028736074 -0.011965314 -0.005606941 -0.015847255 0.07029619
-0.04378352 -0.06525996 -0.027453557 -0.05083886 0.006526149 0.005103286 0.058240753 0.09210869
0.018538317 0.03530125 -0.124118365 -0.061492555 0.029950848 0.01315076 0.0091917645 0.000625631
0.11479387 0.052331083 0.0546051 -0.0008521659 -0.058649868 0.025848135 -0.018380972 0.02321712
-0.032849077 -0.018791711 0.122756295 -0.024494907 0.20082814 -0.07945679 -0.07187637 0.10149492
0.0070606056 0.11636338 -0.15246613 0.015114947 0.07604576 -0.025242984 0.015148942 0.069329634
-0.10404087 0.10194859 0.0012564296 -0.10286722 0.029210676 -0.011196282 -0.12696896 -0.17561062
-0.19335438 0.29286745 0.0850985 0.028184816 -0.08034978 -0.1456032 0.12565 -0.019951114
0.10990067 -0.014445149 0.035577644 -0.0183397 -0.013571745 -0.04992879 0.020561015 -0.012837333
-0.050716978 0.020171827 0.0102394195 -0.021738093 -0.03623862 0.0006115814 0.002860043 -0.03841425
-0.04947673 -0.06575018 -0.045916796 -0.015171836 -0.012509692 -0.079641245 -0.05156153 -0.010802776
00000000: 966f 1fbd 900a 6f3d 6f42 ccbe 25fb 19bf
00000010: 1f88 993d a1e4 8e3d fb3d f3bc 25c2 2cbd
00000020: af7c ebbc 2c73 3a3e a5c4 7a3e 1ead 11bf
00000030: fec0 593d 258b 563d 2d22 543f d669 2e3f
00000040: f3fb 5fbe ec82 923e 6019 bb3d df3d b13d
00000050: dabc ebbd dabc 163e 30eb 193d 6392 2e3d
00000060: 9c34 1b3e 178d 103e 3000 4cbd e3f9 2e3e
00000070: 276b 9b3c 4765 2ebd 4db1 88bc 9a88 89bd
00000080: c975 15bd 241f ae3d 2318 ce3d bed4 97bd
00000090: a56b 2abe 8cca b13c 009f 36bd 3cbc 073e
000000a0: 7bbf 0d3f ffcf d7bd ec0f 053f 53e7 fa3e
000000b0: e8a3 4abe 0888 663e 0dc9 983e c19c d7be
000000c0: e462 44bd 0d76 20bd 979e 16bd 0f55 fabc
000000d0: ff14 0f3d adfb 92bd 5be2 c1bd e106 bebc
000000e0: 3b71 d83b 8654 7abd 3763 febc 672a 893d
000000f0: 0e29 b43d 8f05 0cbe 2c5c 34bd f3e5 923c
00000100: 0efb 84be 1dc2 a7bd c8bd 5ebd 0074 b6be
00000110: 3ef0 9abb e20c 08be a757 bbbe 2f90 cdbd
00000120: 7765 fe3d 4efa c3bd 6a90 553e 27b9 0dbd
00000130: 12cd 58bd e435 fbbc d8a4 8d3d c667 91bd
00000140: 2c52 9dbd e6c1 1b3d 49e3 20bd 6985 fa3d
00000150: fb61 d1bd 4bd8 46bd 6a6c cd3d 3480 0abb
00000160: 39df c13d 097b 023d e1b2 86bd 8c91 43be
00000170: 81a3 103c 084b c3bc 4e9a 233c 5802 653c
00000180: f19c 6fbd f51a a9bd b94e 47bd e4a1 ba3b
00000190: 8832 33bd cd82 82bc 0769 0dbc b7ed c83c
000001a0: 5db9 08bc 2688 093d 8b5a 693d 67b6 15bd
000001b0: c156 96bc 49ed 2b3c ccbf 91bb 742c 6e3c
000001c0: 771b 403d 95fa fcbc ad3f 223d feef d73c
000001d0: 4844 a5bb e322 253d 68e6 40bd 0b6b 6c3d
000001e0: d2ac 98bc 7ec7 963d 55bc 0e3d 070d 3c3d
000001f0: 9914 9d3c e642 283c 3006 353d 15cb 85bc
00000200: 267f 73bb 1d26 263c f54e d0ba 6c9a b93d
00000210: c03b fcbb 8da3 853b f646 9e3d a1c6 0f3c
00000220: e41f 9b3c 1afd b23c c956 82bd b6d2 a73d
00000230: 123c 64bd 97e4 0c3e b39b 41bd f0f4 113d
00000240: 7e66 84bc 12e2 1c3c 8b4b 69bc 10b5 8dbb
00000250: ef1b ecbc fa1a 86bc 818b 42bd a2bb 81be
00000260: 4023 0c3d 7171 a4bd 832f 0fbe 022b 06be
00000270: 3c7b 52bd ebe3 e03d 5577 bf3c 0b77 29be
00000280: fe37 44be 9eef 3fbe 6ddf 06bd d9f4 4cbb
00000290: 6866 6cbd 6d2f b5bc 4afb b3bd 3df6 673c
000002a0: f755 083c b34d babb 6475 a2bc ea67 ebbc
000002b0: 2a0a 44bc 6eba b7bb 1ad2 81bc 73f7 8f3d
000002c0: 5956 33bd 04a7 85bd 48e6 e0bc 693c 50bd
000002d0: 4ed9 d53b 7739 a73b db8d 6e3d 7ba3 bc3d
000002e0: abdd 973c 0b98 103d c531 febd 9edf 7bbd
000002f0: 7b5b f53c 4976 573c 0e99 163c 6301 243a
00000300: 0c19 eb3d 1e59 563d 99a9 5f3d e363 5fba
00000310: d83a 70bd 78bf d33c b193 96bc d431 be3c
00000320: c18c 06bd 13f1 99bc a767 fb3d 8ba9 c8bc
00000330: e4a5 4d3e 3eba a2bd eb33 93bd 92dc cf3d
00000340: a75c e73b ec4f ee3d 1520 1cbe afa4 773c
00000350: e1bd 9b3d 60ca cebc 4533 783c b2fc 8d3d
00000360: 6113 d5bd 6cca d03d c8ae a43a 0dac d2bd
00000370: 3a4b ef3c 9c70 37bc 2704 02be 45d3 33be
00000380: b1fe 45be b9f2 953e 1f48 ae3d d8e3 e63c
00000390: 6d8e a4bd 0119 15be 65aa 003e 8570 a3bc
000003a0: 9a13 e13d 59ab 6cbc ddb9 113d 233d 96bc
000003b0: 065c 5ebc 2282 4cbd 936f a83c ad53 52bc
000003c0: 9bbc 4fbd 633f a53c 3dc3 273c 1614 b2bc
000003d0: f26e 14bd 8852 203a 8f6f 3b3b 4358 1dbd
000003e0: 1da8 4abd 08a8 86bd 4013 3cbd 4b93 78bc
000003f0: 74f5 4cbc f31a a3bd 2f32 53bd 20fe 30bc
