python/rlgpu/saved_nn/241001162237286415/last_Aliengoep=3250rew=[6429.78].pth (torch, 539546 bytes, 18 tensors)

running_mean f8 [376]
0.008354643489899572 0.0048582792876839245 0.00312700894461483 0.0048458727551136905 0.46125670143424 0.43923970340209945 0.680029246053965 0.7060939217952165
0.04621972782923921 0.11161527832727769 -0.27913263741890254 0.06609109389604885 -0.09601208624237528 -0.27482047475409715 0.05782800327373134 0.10742454939391571
-0.2972763849211017 0.05814418201506406 -0.08765678383598706 -0.29870421102292605 -0.025871910231422494 -0.021989697468573453 0.10361042519866075 -0.027251899237488084
0.015377324158638227 0.09635452695295998 -0.006063175091188666 -0.009863681619117699 0.06568987535225622 -0.009076857574166385 0.007500801457454986 0.056559514732608084
0.47176184881068833 0.5282381261721111 0.5282381261721111 0.47176184881068833 0.037018801592599654 -0.005800549350155598 0.014255644805194752 0.004601816996478916
0.02096815924273785 0.002144665192261246 0.019196333104761508 -0.0006625708476547155 0.02612448400115313 -0.0006740233995361016 0.02130836756695054 0.0001895971266117111
-0.13876730558088082 0.15487696521124755 -0.2558244776525644 0.1716033554943768 0.2241514154667728 -0.11854927609637922 -0.04709571937176371 -0.15630935751576563
-0.21051019969850773 0.069626710820082 -0.17885271145402892 -0.13514852476654415 -0.4690626797457172 0.6857719077129905 0.9784508554298368 0.21962441951789866
0.3638745622870306 0.24067725929760733 0.25580727240905643 -0.21059539541984196 0.27971851491215755 -0.04987582459597316 0.2863657297302327 -0.1420774354294349
0.12840554980526042 -0.058875719302096965 -0.24439243605195848 -0.46881002725107446 0.6850418581445218 0.9777413797054448 0.219467410782357 0.3636097806148347
0.24056757672927004 0.2556612273733206 -0.21051802805019068 0.2796445663026321 -0.049906212658452305 0.2862587536835455 -0.14209098666948655 0.12830965025509217
-0.05884858405336088 -0.2443669210133383 0.142074048301442 0.1434698805464744 0.14386235956496063 0.14430785690809037 0.14498695412947157 0.14500626845524317
0.14474175243407306 0.14487491303206304 0.14519803214510962 0.1445270197137916 0.14370478434281286 0.14561943341881703 0.1446908710711969 0.14540640896994522
0.1465730788750196 0.13646587759778175 0.13608697230378486 0.13481140981808498 0.1428916803277603 0.14202126424368272 0.14311284269048075 0.1505981964988969
0.149314696602495 0.14998791894479216 0.15220278143794785 0.14096286018098284 0.1399908704095804 0.1381399077112999 0.1481310628257969 0.14681477392371461
0.14685322747056406 0.15536813116184392 0.15367100424847843 0.1535954324317846 0.15046023405443987 0.14674820748165235 0.14472891992772863 0.1442163717378803
0.14831536936021705 0.1525691276481534 0.15181454037389397 0.1599478874236154 0.1577468464864762 0.1585585623093518 0.15503958023396183 0.1517525330131679
0.15055168738889077 0.15065227938312992 0.15564763826927683 0.16022621940942786 0.15712225170183677 0.16366937345985053 0.16089184172165366 0.16326056457288501
0.16018700449577083 0.15593100021311898 0.15704385095700224 0.15684222254941502 0.1640757156865372 0.16823267103833292 0.16221272005758783 0.16459038377976495
0.1651595534110803 0.16435056366624082 0.16323536839657915 0.1616292158714184 0.16469939181459137 0.16458108317186596 0.1756884099993128 0.17897585273819078
0.16833625581846792 0.14082927657112063 0.14297973790077792 0.1438492956367059 0.14495297170584084 0.1459884783920798 0.14557553894220343 0.1446493893241273
0.14406604712045554 0.14344929264596626 0.1424154632115063 0.14233698964813626 0.14568661105607467 0.1451809259971989 0.14498332152668975 0.14661015810611316
0.14040520332435172 0.13973277612864834 0.13871352800080775 0.14558839581997177 0.14408296981902435 0.14375391210265095 0.15162391827803443 0.14999022839094392
0.15221962261799504 0.1543292289365415 0.14525550409442547 0.14456675688564052 0.14398321063692993 0.15149093969199737 0.14981455596299456 0.1494306343925284
0.1578000567174441 0.15625553948247872 0.15823475222258226 0.15723509208836392 0.15223517787826746 0.1510457147512632 0.1508891590390575 0.15138963442960693
0.15383170680483446 0.15600897074537975 0.16328665680644952 0.16193612165452717 0.16586914486849136 0.16488182451423308 0.15940562652925847 0.1569354104569733
0.1570656839137167 0.1557362827738156 0.15864701117310467 0.16153706713645374 0.16781831564114907 0.16585231662035788 0.17413798050398188 0.17383378009775238
0.16448203082978993 0.1627841621205716 0.1611092621987646 0.16101362192916469 0.16338278801428965 0.16608084868704742 0.17171056695809195 0.1709377911339131
0.18436955656057905 0.1850448742101707 0.17102988895275476 0.17107891683125656 0.16637652804077083 0.16449025734823716 0.16654141314904206 0.17077228616484577
0.12567392048406817 0.12856782583687706 0.12990909989648375 0.13079415953048135 0.13182107449373603 0.1330072063905036 0.13270653739212585 0.1325972740064185
0.13317569438634985 0.13237372157080335 0.1299892518899693 0.1290710049812303 0.12916796689671425 0.13229665412456013 0.13483951031094335 0.13331666943753742
0.13271940038853716 0.13188942348835242 0.13500344843895948 0.13341565980453662 0.13085476304364108 0.13408803121029286 0.13409180436999849 0.13845441109673864
00000000: 878a 7844 3d1c 813f 1fab 7c6a 46e6 733f
00000010: 1d6f d824 d09d 693f db86 0f10 44d9 733f
00000020: 2e23 eed3 3a85 dd3f 59df 4dd8 801c dc3f
00000030: 9802 84b1 ccc2 e53f 8a79 c047 5298 e63f
00000040: eec7 e9b6 1caa a73f e04b 26a2 d192 bc3f
00000050: 6577 3d23 4fdd d1bf 2124 d78e 58eb b03f
00000060: 1486 6e82 3f94 b8bf 3bc3 d59d a896 d1bf
00000070: 8912 b5cd a19b ad3f 2435 6fde 2c80 bb3f
00000080: c7fd c687 9306 d3bf 992c 6a00 13c5 ad3f
00000090: 771d d9cb ac70 b6bf 3f57 6144 f81d d3bf
000000a0: 51e7 5081 2a7e 9abf 56e4 e79d 7784 96bf
000000b0: 33be c07b 3686 ba3f 6964 eaff ebe7 9bbf
000000c0: 3907 e482 257e 8f3f b0a2 15b6 b0aa b83f
000000d0: 590f a02b b3d5 78bf d733 c7ef 6833 84bf
000000e0: 37f6 503a 0dd1 b03f 66b3 7333 e396 82bf
000000f0: 59c6 410f 29b9 7e3f bbbd 1b64 5ef5 ac3f
00000100: 211d 099c 5831 de3f f11a 8da4 53e7 e03f
00000110: f11a 8da4 53e7 e03f 211d 099c 5831 de3f
00000120: c4ca 5adc 20f4 a23f edc0 1f1c 51c2 77bf
00000130: 9e0c c641 1032 8d3f a969 08d8 5ad9 723f
00000140: dacb d158 ad78 953f 717c 925b b091 613f
00000150: f662 8d1b 34a8 933f a562 9c0f 0cb6 45bf
00000160: eea9 a371 60c0 9a3f 426e 973a 1e16 46bf
00000170: 0126 5357 dcd1 953f 9be0 9aea d2d9 283f
00000180: 75a9 9c87 20c3 c1bf 7e36 3e26 02d3 c33f
00000190: d32d 42a1 6d5f d0bf 11b9 dd47 19f7 c53f
000001a0: 3a15 645b feb0 cc3f 7865 cccf 3e59 bebf
000001b0: 9075 f71c ee1c a8bf de63 4bed f101 c4bf
000001c0: 81fa 968b fff1 cabf 297a e65d 0ed3 b13f
000001d0: 3c7c 3f49 a5e4 c6bf 44cb fcfe 8b4c c1bf
000001e0: e90b 5279 1f05 debf 0492 84ed d7f1 e53f
000001f0: 580f 1a2b 784f ef3f efbd 9d29 a71c cc3f
00000200: 859f 3788 b849 d73f 457d c92e 83ce ce3f
00000210: e6da 4477 255f d03f b419 0238 caf4 cabf
00000220: b589 687c e8e6 d13f 9e60 00f7 5289 a9bf
00000230: d1bc f8ec d053 d23f f6a0 55e9 972f c2bf
00000240: 54ed 84d2 976f c03f baa9 dc51 f524 aebf
00000250: c0d0 1d58 4048 cfbf 8c22 c5c5 fb00 debf
00000260: b9e5 23e7 dceb e53f 58fc 384a a849 ef3f
00000270: f48b ec13 8217 cc3f d5c5 0ff5 6145 d73f
00000280: 1edd 4319 ebca ce3f c91c 9be8 c05c d03f
00000290: 53d4 d836 41f2 cabf b887 b152 b2e5 d13f
000002a0: d175 789e 4e8d a9bf 58ee 503c 1052 d23f
000002b0: eea1 6696 0930 c2bf 3eac cd5b 736c c03f
000002c0: aca5 d9cf 6621 aebf 0efe fc4e 6a47 cfbf
000002d0: 8052 887f 7b2f c23f bd3d 7496 385d c23f
000002e0: a87b baf0 146a c23f b5f0 fc0a ae78 c23f
000002f0: fb96 2ab9 ee8e c23f 5a79 5dbe 908f c23f
00000300: 20f8 88d2 e586 c23f 21e5 bdda 428b c23f
00000310: e8de c05f d995 c23f 0190 8783 dc7f c23f
00000320: 8cfb 831a eb64 c23f 3912 1958 a8a3 c23f
00000330: d7e8 a3ff 3a85 c23f bacd 935d ad9c c23f
00000340: a501 1f1a e8c2 c23f 6db5 a6c0 b677 c13f
00000350: c46b ba43 4c6b c13f 16ee 2512 8041 c13f
00000360: 6b69 f04a 464a c23f 42b0 a1b6 c02d c23f
00000370: 6c21 7f89 8551 c23f e750 663c cd46 c33f
00000380: f924 5c75 be1c c33f 91dc 54db cd32 c33f
00000390: b86f 5178 617b c33f cdc6 362d 120b c23f
000003a0: 8de8 1289 38eb c13f 273d f288 91ae c13f
000003b0: f4e3 2d6b f5f5 c23f e636 4996 d3ca c23f
000003c0: d828 a628 16cc c23f 1523 1759 1ae3 c33f
000003d0: cb9b cbd0 7dab c33f db03 8edf 03a9 c33f
000003e0: a860 4eec 4742 c33f 4eae f02f a5c8 c23f
000003f0: e8ff ef2c 7a86 c23f 95bb 149c ae75 c23f
00000400: b8b9 727e fffb c23f 8a64 d09a 6287 c33f
00000410: 6048 fbaa a86e c33f 633c c620 2c79 c43f
00000420: 2870 5a75 0c31 c43f f349 cf9f a54b c43f
00000430: 2560 5843 56d8 c33f 3f38 3083 a06c c33f
00000440: ffb0 d816 4745 c33f de5a 82ea 9248 c33f
00000450: a778 0806 43ec c33f 95a0 29f2 4a82 c43f
00000460: 2b42 44fa 941c c43f 8bf5 2e37 1ef3 c43f
00000470: 82a0 3197 1a98 c43f ae94 c8e0 b8e5 c43f
00000480: 6cda c6fc 0181 c43f 7b88 2c09 8cf5 c33f
00000490: f8f8 f24d 031a c43f 0fa8 3dec 6713 c43f
000004a0: 2382 78dc 6e00 c53f 1b3b 1dee a588 c53f
000004b0: d93e d2eb 62c3 c43f a3fb c835 4c11 c53f
000004c0: 16e3 42c0 f223 c53f 2949 0374 7009 c53f
000004d0: 3c2b 6884 e5e4 c43f 8b78 1f22 44b0 c43f
000004e0: a8e3 c1a2 de14 c53f c1b7 e130 fe10 c53f
000004f0: 60dc 9d33 f57c c63f 0662 2445 aee8 c63f
00000500: 2557 bcdc 0a8c c53f 5b9d 9898 b106 c23f
00000510: 9522 23f9 284d c23f 08f9 275a a769 c23f
00000520: f7a0 77a8 d18d c23f 62b5 241e c0af c23f
00000530: f45a 6d21 38a2 c23f ac49 4406 df83 c23f
00000540: 3f55 6c98 c170 c23f b73d 46e2 8b5c c23f
00000550: 0314 787e ab3a c23f 0561 c635 1938 c23f
00000560: 82b7 f9de dba5 c23f 849a 94e0 4995 c23f
00000570: 4617 3640 d08e c23f e6df 2925 1fc4 c23f
00000580: 69b0 3b36 ccf8 c13f 4d6f d37b c3e2 c13f
00000590: 255c 2369 5dc1 c13f 29a8 5cfb a3a2 c23f
000005a0: 0442 a48d 4f71 c23f af93 9337 8766 c23f
000005b0: 13d4 259d 6968 c33f 754f d43a e132 c33f
000005c0: 8014 7abe ee7b c33f 42b7 8c67 0fc1 c33f
000005d0: 8124 d37b bb97 c23f 5ed0 74da 2981 c23f
000005e0: aae9 6db6 0a6e c23f 2d08 cf1b 0e64 c33f
000005f0: 95b4 2995 1f2d c33f be43 de03 8b20 c33f
00000600: 6345 74d1 ca32 c43f d8b2 f277 2e00 c43f
00000610: e27d f14e 0941 c43f 0bcb 268d 4720 c43f
00000620: f4d9 243b 717c c33f 1960 874a 7755 c33f
00000630: 9764 b201 5650 c33f 2b0e 6a4c bc60 c33f
00000640: 9f45 e8e2 c1b0 c33f 97f4 9d19 1af8 c33f
00000650: 21ae 6dc1 93e6 c43f ff0c 46a5 52ba c43f
00000660: 8415 503c 333b c53f 1d29 fffd d81a c53f
00000670: 47eb 5e50 6767 c43f e69e bfa3 7516 c43f
00000680: 55dc dd73 ba1a c43f f135 a8a0 2aef c33f
00000690: 695e 4c96 8b4e c43f 7fae 3822 3fad c43f
000006a0: fa9c ac10 127b c53f cad5 ec11 a63a c53f
000006b0: 7cc7 a041 274a c63f 13de 3a70 2f40 c63f
000006c0: 43c8 9847 bf0d c53f c5ab 4e86 1cd6 c43f
000006d0: 1efa 1c72 3a9f c43f 00b9 3228 189c c43f
000006e0: 1d16 a029 bae9 c43f 5428 cd22 2342 c53f
000006f0: 3c37 bba2 9cfa c53f 960a 491f 4ae1 c53f
00000700: 7b21 e7ef 6b99 c73f 0937 83e9 8caf c73f
00000710: 5d65 d8b1 4ee4 c53f 19a5 69f8 e9e5 c53f
00000720: e3e9 6079 d34b c53f 6f20 e949 040e c53f
00000730: 2dcf 73a1 3a51 c53f b911 12c4 dddb c53f
00000740: f636 3841 1516 c03f 53c3 a417 e974 c03f
00000750: 860c c183 dca0 c03f 087a d8ee dcbd c03f
00000760: 00e5 ef51 83df c03f 352e ca50 6106 c13f
00000770: 3644 081f 87fc c03f 8fba b28d f2f8 c03f
00000780: a277 01b2 e60b c13f 5e8a 7f42 9ff1 c03f
00000790: 5a76 d9e0 7ca3 c03f 62cc a010 6685 c03f
000007a0: b78f c170 9388 c03f 23e8 6ac5 18ef c03f
000007b0: 8540 7fcb 6b42 c13f 8978 9f47 8510 c13f
000007c0: dd53 1b06 f3fc c03f ec0e 49ac c0e1 c03f
000007d0: 2f3f f201 cb47 c13f 603f d1ab c313 c13f
000007e0: a42d e64f d9bf c03f 73a7 6aee cb29 c13f
000007f0: 9523 3795 eb29 c13f 0ddf d2c7 dfb8 c13f

running_var f8 [376]
0.016999599621764314 1.2774192870830274 0.06781472768261122 2.9547045401196788 0.2484995421194122 0.24630878641886716 0.21758999607721116 0.20752578610099448
0.005075825976941864 0.0022034042183108732 0.002670293768673442 0.004789028391514981 0.00190411235316496 0.0026017324610028932 0.004353296915676273 0.0023434337815917677
0.0019515539117097615 0.004159232045847467 0.002480100240846288 0.001942591060285191 1.7306177666823397 0.5537891280200593 0.5711468617584942 1.4669856277354685
0.5170621174120132 0.6406226854912154 0.9167957034689507 0.45789568420925203 0.29329073336316297 0.8586360935152372 0.4475060239110965 0.2971859199908691
0.2492031880375655 0.24920318966054403 0.24920318966054403 0.2492031880375655 0.01433299293308356 0.009920326667875238 0.0138499106132045 0.010495415583685669
0.009705261356939988 0.007365555943731834 0.009570722067183679 0.0074924429702785695 0.02748341348430961 0.01901642364584887 0.024167433439185884 0.017284997316272224
5.208359943055175 6.532393204593417 3.369673795063726 5.685174625599858 6.397221313035622 3.208363632917306 4.783415556586402 4.958564750685068
2.282293662702378 4.7325904527483456 4.464701751814315 2.3161097823800003 0.12778694686223072 0.16661803688885324 0.01368360180942044 0.42664378245954576
0.40583773324379663 0.4497341711889651 0.42919553524855913 0.36400776287999914 0.47011172022354925 0.47967098536017644 0.4664461050476585 0.36483915410447937
0.5620705032134958 0.4477142131086868 0.36336658563827223 0.12774473326687222 0.16729170730552456 0.014360089120915026 0.4262777235201504 0.4055714451129902
0.44937263747044925 0.42882365954400686 0.36365281116239456 0.46971921238078584 0.479235384210927 0.4660589332090871 0.36445705668914014 0.5616367605284112
0.44730864160230427 0.362997530646618 0.0793679567255657 0.08051814939644641 0.08077028337493874 0.08114487300391418 0.0816331324647542 0.08168948381232621
0.0816904931317075 0.08155051479434881 0.08172956278596709 0.08125307283343515 0.08062010965307309 0.08276715629385482 0.08226543469721284 0.08260584119205866
0.08348457785816234 0.07646409338224525 0.0760198822917535 0.07545551359818452 0.08116630395504859 0.08051907938172939 0.08129589611724358 0.08677130259884204
0.08613741087230158 0.08637810944896372 0.08812116420697153 0.08032531392763964 0.07938191722267811 0.07856192876339281 0.08562423926140417 0.08456420644704805
0.08464272211901887 0.0905999780181306 0.08968971687683275 0.08962400397378958 0.0875533805810527 0.08503581500680088 0.08336384480082701 0.08354423247815947
0.08647593337162973 0.08931846184520281 0.08869954399488203 0.09428332779278721 0.09296926140251764 0.09359602340658413 0.09123583135505069 0.08906213020322296
0.08808186024931476 0.08864312576185174 0.09215965760744053 0.09520569517276757 0.09289341938910416 0.09734341353454798 0.09554880704262017 0.09732134542902383
0.09525986376435974 0.09237736582521047 0.09319749956614405 0.093418428169844 0.09845647917485219 0.10118251004463964 0.09683260132698876 0.0990881981217796
0.09915134462048346 0.09911356187206037 0.0983949476613754 0.09688900227203108 0.09961340114371885 0.09932857236687491 0.1071014066660373 0.10924441681432501
0.10161422581756747 0.07541852964498703 0.07717494895575182 0.07771353005803341 0.07852697469035148 0.07924933356434667 0.0789584416725849 0.0784844529470753
0.07792691002707855 0.07749054487879843 0.07676243373097635 0.07667351146421238 0.07993788586927907 0.07988908327910453 0.07966528551399643 0.08081448696481865
0.0764433335473098 0.07553086469342118 0.07500127306400294 0.0797863602697578 0.07871704166956922 0.07873245250816041 0.08466420640487353 0.08399224383484433
0.08542162903969863 0.08695141036448746 0.08062433742583482 0.07952222058446541 0.07943202040024488 0.08462241864366828 0.08338236518524425 0.08342999108462815
0.08949768824520425 0.08893102127826774 0.09028241668567777 0.0896509705455331 0.08616799469506554 0.08470887716099625 0.08492495439933836 0.085213253111544
0.0869703515150823 0.08860041002282215 0.09379268518263983 0.09331377703778658 0.09601005803068585 0.09539736467692063 0.09168487822378875 0.08939612733302468
0.0897510381147705 0.08872629006812395 0.09080138415535816 0.09288520188431283 0.09743838525720737 0.09635440452725247 0.1020484592283533 0.10190739958720248
0.09557988564158768 0.09397092720138286 0.09293513996720751 0.09283930924153663 0.09451351412726834 0.09638323430381363 0.10114222710393801 0.1003557219826636
0.10964381656812026 0.11013997547871973 0.10058540100361077 0.10084371305492533 0.09709159752723605 0.09627968250475795 0.09765353215950326 0.1001883496005685
0.07810090988568238 0.08049833186551887 0.08142257525285199 0.0821327245746902 0.08287619587571571 0.08374681058817457 0.08377017825986921 0.08338976646522084
0.08385649780181605 0.08327688291791654 0.08141985506171949 0.08183764118834552 0.08208288783786906 0.08401277890570936 0.08587182322111138 0.08517900604373076
0.08455086558573699 0.08452416943826468 0.08654168368804234 0.08537001651054771 0.0836482491745808 0.08611438490605784 0.08642180295825204 0.0890637053328513
00000000: 59aa aed1 5768 913f dfd1 d434 4f70 f43f
00000010: 797e 9555 4e5c b13f 0141 4922 3ca3 0740
00000020: 1da7 3c3f d5ce cf3f 4a78 31db 0b87 cf3f
00000030: 5f50 8b2e fdd9 cb3f 00b3 3078 3490 ca3f
00000040: dd70 23a9 63ca 743f db26 d7a1 df0c 623f
00000050: f17e 070d 03e0 653f 9885 2305 a99d 733f
00000060: 1765 3912 6d32 5f3f b584 a77a 3a50 653f
00000070: cb28 1f3e c3d4 713f 3c10 796e 8932 633f
00000080: 1006 8a0e 69f9 5f3f 1472 d059 4509 713f
00000090: a489 9bad 2551 643f 9206 b344 d1d3 5f3f
000000a0: 716f 5c41 9cb0 fb3f 963f 37fa a3b8 e13f
000000b0: 8de7 8ec8 d546 e23f c136 edeb c578 f73f
000000c0: 9d1f 89da c58b e03f b855 6825 fb7f e43f
000000d0: 0c66 70f1 6356 ed3f 4721 2ab3 294e dd3f
000000e0: e1ef 007f 46c5 d23f 4105 9a66 f279 eb3f
000000f0: 8a83 5d4e f0a3 dc3f 3051 cc17 1805 d33f
00000100: 7d13 57db e3e5 cf3f 6951 d3de e3e5 cf3f
00000110: 6951 d3de e3e5 cf3f 7d13 57db e3e5 cf3f
00000120: 890d 36bf 9d5a 8d3f 4252 d5b4 1b51 843f
00000130: 3b03 1789 575d 8c3f a3d4 84d5 9e7e 853f
00000140: 1a7c 0421 5ae0 833f 3baf 525e 582b 7e3f
00000150: 80a5 3892 d099 833f 4251 6458 65b0 7e3f
00000160: 82e5 63a8 9c24 9c3f 1d4d 9596 0a79 933f
00000170: b48c ff00 59bf 983f e745 bd88 28b3 913f
00000180: a4df 144f 5cd5 1440 8e5d 29af 2b21 1a40
00000190: 31e5 df88 17f5 0a40 7200 c46a 9ebd 1640
000001a0: 780c 132f c196 1940 d371 688d baaa 0940
000001b0: 6cdd 0ab0 3722 1340 bd29 7dff 91d5 1340
000001c0: ed65 092e 2342 0240 f6a9 0f31 2cee 1240
000001d0: ddbe a9c6 dadb 1140 6924 ca90 6487 0240
000001e0: 1d82 d09a 525b c03f 9840 ae65 bd53 c53f
000001f0: 1284 1af2 2506 8c3f b526 2db9 214e db3f
00000200: c5f3 f0d3 3ef9 d93f 089e 49d5 71c8 dc3f
00000210: 6ed5 de8c f077 db3f 70d2 4337 e74b d73f
00000220: 7de4 f477 4f16 de3f 4592 bdee edb2 de3f
00000230: 78ae a1c3 40da dd3f 7175 cb52 8659 d73f
00000240: ae24 ab47 7bfc e13f 5365 d083 59a7 dc3f
00000250: d1a2 71ec 6541 d73f e908 cf7d f059 c03f
00000260: 3476 e28d d069 c53f 03c4 2289 d268 8d3f
00000270: 7312 625c 2248 db3f 81e9 3cef e1f4 d93f
00000280: 31c8 6973 85c2 dc3f e785 5fca d871 db3f
00000290: e69e c270 1646 d73f 589d de2b e10f de3f
000002a0: 3d67 91e3 caab de3f 3e11 09d9 e8d3 dd3f
000002b0: 7dae d1b0 4353 d73f da6d d6a7 edf8 e13f
000002c0: f19a b96c b4a0 dc3f 9cfb a9fe 593b d73f
000002d0: f594 7c5a 7551 b43f e065 6462 d69c b43f
000002e0: f881 957d 5cad b43f e235 ca0f e9c5 b43f
000002f0: 96c6 34b2 e8e5 b43f 08ac 661d 9ae9 b43f
00000300: 5f11 650c abe9 b43f 5781 039a 7ee0 b43f
00000310: 2f38 4887 3aec b43f 65e4 845a 00cd b43f
00000320: 4821 5cfe 84a3 b43f 030c 7775 3a30 b53f
00000330: faa1 9df7 580f b53f dce2 600a a825 b53f
00000340: 3105 9fcb 3e5f b53f e820 659c 2693 b33f
00000350: 20f2 49fc 0976 b33f 9303 3573 0d51 b33f
00000360: 542d 069d 50c7 b43f be07 a6fc e59c b43f
00000370: 0c61 1fcf cecf b43f 59b2 e4e2 a436 b63f
00000380: 4b9d a8f2 190d b63f 8f71 2c33 e01c b63f
00000390: 34b9 5ace 1b8f b63f 8032 5c24 3390 b43f
000003a0: 8b7c 5d92 5f52 b43f 35dc bf72 a21c b43f
000003b0: 6063 5f5b 78eb b53f f52d 1af5 ffa5 b53f
000003c0: 5d79 583b 25ab b53f 422f 9b66 8f31 b73f
000003d0: d403 c6c0 e7f5 b63f 2a06 0146 99f1 b63f
000003e0: 03f7 3ffa e569 b63f ee62 713c e8c4 b53f
000003f0: 869f 163b 5557 b53f 915b 43a2 2763 b53f
00000400: b8e3 b869 4923 b63f 14de 8d20 93dd b63f
00000410: 3acd a068 03b5 b63f ed95 6dc1 f322 b83f
00000420: 8bd0 4161 d5cc b73f 4822 91b3 e8f5 b73f
00000430: 3bb0 e43f 3b5b b73f 98f1 8898 c6cc b63f
00000440: 2143 2465 888c b63f f890 29de 50b1 b63f
00000450: 5b3c 6f7b c697 b73f 91f4 2883 665f b83f
00000460: 4b31 4af6 dcc7 b73f a6a4 9c79 7feb b83f
00000470: 7a7c 6bf9 e275 b83f 3104 d23b 0dea b83f
00000480: 6c45 7d4f f362 b83f de22 1c05 0ba6 b73f
00000490: c59f b494 cadb b73f ee4c d525 45ea b73f
000004a0: b5a2 229e 7134 b93f a9a4 91d3 18e7 b93f
000004b0: 66d2 e277 05ca b83f c844 5a1a d85d b93f
000004c0: cfd8 7f86 fb61 b93f 5ba0 d4a2 815f b93f
000004d0: db17 4c4a 6930 b93f a5b6 19b8 b7cd b83f
000004e0: 7fd5 278c 4380 b93f d3c4 dfe9 986d b93f
000004f0: 5979 fc6e ff6a bb3f 54f5 7c2d 71f7 bb3f
00000500: 25df b1d0 6303 ba3f a56e 56f6 a04e b33f
00000510: 4fde d5c9 bcc1 b33f d253 0eae 08e5 b33f
00000520: f51c 2604 581a b43f 7d7f e32f af49 b43f
00000530: 8614 bad4 9e36 b43f 99f2 a69e 8e17 b43f
00000540: 526d 0b9a 04f3 b33f d5ef 009c 6bd6 b33f
00000550: d897 6fee b3a6 b33f 6551 3510 e0a0 b33f
00000560: 671a 852d cf76 b43f 9bbd fd67 9c73 b43f
00000570: e8bb e8b3 f164 b43f f191 8e1a 42b0 b43f
00000580: ef39 9551 ca91 b33f 7064 b2a1 fd55 b33f
00000590: c7df f78e 4833 b33f 1686 0600 e16c b43f
000005a0: bcd1 9bcf cc26 b43f 480b a85c cf27 b43f
000005b0: f395 a6ad 8dac b53f 8c68 6304 8480 b53f
000005c0: 78b7 181f 31de b53f cd46 db97 7242 b63f
000005d0: ed70 81ec cba3 b43f 0d30 b778 915b b43f
000005e0: 48cf df29 a855 b43f e93d 9598 d0a9 b53f
000005f0: 0aa4 88f3 8b58 b53f f2cb 36fb aa5b b53f
00000600: 6bac 140c 52e9 b63f 4473 fdf3 2ec4 b63f
00000610: e49e 119b bf1c b73f a337 8cb2 5df3 b63f
00000620: 815d 2d0f 1b0f b63f 3d5d 1621 7baf b53f
00000630: 4a6b c24d a4bd b53f 15c3 4c27 89d0 b53f
00000640: 5b99 7a5f b043 b63f 70d0 7537 84ae b63f
00000650: 70a5 7623 cc02 b83f 53be a464 69e3 b73f
00000660: 0830 547b 1d94 b83f 3176 6931 f66b b83f
00000670: 4548 8201 a978 b73f f6cd 4823 aae2 b63f
00000680: 3a28 7c8d ecf9 b63f 1954 2322 c4b6 b63f
00000690: c4f8 606f c23e b73f 891f 6018 53c7 b73f
000006a0: 5f04 0ed6 b8f1 b83f 8425 45a8 aeaa b83f
000006b0: 1333 fe0a d91f ba3f 558b 7274 9a16 ba3f
000006c0: 0e6d fc62 ec77 b83f fecf 1a8b 7a0e b83f
000006d0: 4aef ceea 98ca b73f eac2 f924 51c4 b73f
000006e0: 1de7 34a4 0932 b83f a4b3 3757 92ac b83f
000006f0: d5f0 a7fd 74e4 b93f 4ecb e19f e9b0 b93f
00000700: 1763 5efe 9d11 bc3f dcd0 a928 2232 bc3f
00000710: 56fb c3ff f6bf b93f 2fff 93c1 e4d0 b93f
00000720: 278b 18b4 feda b83f 1990 a007 c9a5 b83f
00000730: 7ac5 f666 d2ff b83f 1483 f994 f1a5 b93f
00000740: 7e31 bfd5 6bfe b33f 95b5 bee6 899b b43f
00000750: 26fa dd21 1cd8 b43f a6cb fa75 a606 b53f
00000760: d830 e7d6 5f37 b53f 28da 9e54 6e70 b53f
00000770: 3098 0160 f671 b53f 1409 ca1f 0859 b53f
00000780: 59ab 9d93 9e77 b53f 9630 a540 a251 b53f
00000790: 7b32 bc7e eed7 b43f 9458 7cc8 4ff3 b43f
000007a0: 952b d356 6203 b53f 099a d889 dc81 b53f
000007b0: e5ef 6120 b2fb b53f f17b 4395 4ace b53f
000007c0: 200b 8a22 20a5 b53f 187b 753f 60a3 b53f
000007d0: ad50 2e85 9827 b63f bcc6 f834 cfda b53f
000007e0: 488e 92be f869 b53f 19fd e2a2 970b b63f
000007f0: e5f6 5d41 bd1f b63f 0c49 aa05 e1cc b63f

count f8 []
10400000001.0
00000000: 0000 0840 1b5f 0342

running_mean f8 [1]
287.3650562665717
00000000: 0162 3d45 d7f5 7140

running_var f8 [1]
8652.908387908028
00000000: 8812 0e46 74e6 c040

count f8 []
2600000001.0
00000000: 0000 2040 1b5f e341

a2c_network.sigma f4 [15]
-2.556702 -2.0198731 -1.6557647 -1.4115914 -1.3667246 -1.6541206 -1.3002987 -1.6412474
-1.4739242 -1.3690555 -1.4024583 -1.8934746 -1.3016499 -1.5341055 -1.9291661
00000000: 01a1 23c0 9a45 01c0 19f0 d3bf 07af b4bf
00000010: d5f0 aebf 39ba d3bf 3070 a6bf 6514 d2bf
00000020: 8ca9 bcbf 363d afbf c183 b3bf 605d f2bf
00000030: 779c a6bf 925d c4bf eaee f6bf

a2c_network.actor_mlp.0.weight f4 [128, 376]
-0.22266951 -0.048991814 0.36760908 -0.062167723 0.035041157 0.1165374 0.08506833 0.13550988
-0.07598234 -0.086275354 0.23688065 -0.38922706 0.18105161 0.24303986 0.2488434 0.05922664
0.12223876 0.56965375 -0.5381634 -0.030862655 -0.041143637 0.2042667 -0.098000325 -0.16386096
0.15988779 0.18939249 -0.2430179 -0.12574518 0.107161336 0.017470364 0.17392288 -0.29256207
0.16427542 -0.15408523 -0.21237803 0.17499067 0.81510717 -0.267286 -0.8282952 -0.6518564
-0.0798281 0.59823704 1.939152 2.0046875 -0.535036 -0.104966186 0.0017945918 0.27818087
0.115230076 -0.071883254 0.11765314 -0.19461942 -0.12565409 0.0047417283 0.08232953 0.22123754
-0.07693493 -0.027876902 0.17941937 -0.3051185 0.31371826 -0.39914954 -0.30267334 -0.17829894
-0.0020365634 0.13570088 -0.10697506 -0.02221234 -0.19502407 0.14363827 -0.027456747 0.028189005
-0.044602413 -0.037059102 0.16058445 -0.13286297 0.03814442 -0.09760266 -0.15144968 0.20957425
0.043391682 -0.03768861 -0.037118625 -0.14156985 -0.15060462 0.008950783 -0.205084 -0.05207842
-0.31732792 -0.023320792 -0.033922333 -0.13179708 -0.07470606 0.054101877 0.0031358209 -0.012679767
-0.09219818 -0.15776521 0.05176097 -0.045598138 -0.039100148 0.03534553 -0.1971727 -0.01793589
-0.23232351 0.052848753 -0.010770049 0.14401644 -0.2155821 0.022583855 0.035524882 0.09050038
-0.0052217585 -0.00595962 -0.025817106 0.09065279 0.051656585 -0.14971346 -0.08533839 -0.018354295
-0.121413276 -0.004252529 0.054108553 -0.07186877 -0.036783125 0.08633807 0.073054604 0.025347566
0.025600076 -0.032164868 0.11225944 0.018004771 -0.03337921 -0.09299857 -0.06444381 -0.017185904
0.08119433 0.12706909 0.22604989 -0.0724777 -0.02140443 0.021066561 -0.038899805 0.032137197
0.2181961 -0.26595914 0.18560453 -0.10756207 -0.0046436773 0.065723434 -0.17025703 0.011059003
0.010407842 -0.08670831 0.0956872 0.12955065 -0.20900816 0.112411134 -0.019303845 0.21970426
-0.15349431 -0.015448239 0.09127197 0.16794313 0.11422628 0.12623988 -0.009829334 0.1483599
-0.13793732 0.0008864173 -0.018699965 0.16984645 0.023476377 -0.04927053 -0.0906272 -0.11682766
0.07394917 -0.087829106 -0.09219169 -0.021871483 0.015958712 -0.091518134 0.016833682 0.054438103
-0.13445179 -0.1107132 -0.042793173 0.09750072 -0.047949214 0.052007392 0.12969483 0.02757303
0.014485914 -0.011837859 0.07035947 0.12609892 -0.0028388717 -0.05908088 -0.13555847 -0.13716228
0.0023303218 0.050365247 0.01512326 -0.11075086 -0.098222844 0.11792413 -0.12737522 0.09091867
0.007944178 -0.019492192 -0.01838085 0.08867806 -0.12337966 0.038103666 -0.00987233 0.18732029
-0.16471547 -0.008887075 -0.06413209 -0.08517005 0.032675978 0.039649166 0.0714465 0.107726246
0.018103918 -0.004978448 -0.07870345 -0.20150417 0.022792807 -0.09785506 0.06557503 -0.053176593
-0.08453177 0.08347914 0.15698445 -0.13442303 -0.026769208 0.15562779 0.16062672 0.13729858
0.11596485 0.054158814 0.074739024 0.020406004 0.08250656 0.06579207 0.0091168815 -0.06700317
0.03934868 -0.048746906 -0.016259976 -0.1018831 -0.047551606 0.1403842 0.08023104 -0.02654868
00000000: 7a03 64be a4ab 48bd 4237 bc3e 95a3 7ebd
00000010: 5187 0f3d 29ab ee3d 4e38 ae3d 1ac3 0a3e
00000020: a19c 9bbd 22b1 b0bd d790 723e c548 c7be
00000030: 9865 393e 71df 783e ced0 7e3e a297 723d
00000040: 5158 fa3d d4d4 113f 14c5 09bf aed3 fcbc
00000050: 3b86 28bd 4a2b 513e 65b4 c8bd 2bcb 27be
00000060: a0b9 233e 1bf0 413e afd9 78be 58c3 00be
00000070: 6777 db3d 021e 8f3c d718 323e b2ca 95be
00000080: d137 283e 85c8 1dbe a079 59be c130 333e
00000090: ddaa 503f b6d9 88be 270b 54bf 10e0 26bf
000000a0: ea7c a3bd 1026 193f 2236 f83f cd4c 0040
000000b0: 1ff8 08bf 83f8 d6bd 8238 eb3a b96d 8e3e
000000c0: bffd eb3d 8737 93bd 21f4 f03d 504a 47be
000000d0: 77ab 00be 8060 9b3b 629c a83d 188c 623e
000000e0: 1090 9dbd 1a5e e4bc b6b9 373e 7e38 9cbe
000000f0: ae9f a03e 545d ccbe 00f8 9abe ff93 36be
00000100: dd77 05bb 2cf5 0a3e be15 dbbd a7f6 b5bc
00000110: 64b4 47be e915 133e f9ec e0bc a1ec e63c
00000120: 05b1 36bd 49cb 17bd 4070 243e 3b0d 08be
00000130: 533d 1c3d e7e3 c7bd a015 1bbe a29a 563e
00000140: 7abb 313d 5f5f 1abd b309 18bd b0f7 10be
00000150: 1938 1abe 4ea6 123c 8a01 52be 2e50 55bd
00000160: ce78 a2be 3f0b bfbc 25f2 0abd d0f5 06be
00000170: 7eff 98bd ee99 5d3d 5882 4d3b ccbe 4fbc
00000180: 66d2 bcbd 348d 21be 5003 543d 1dc5 3abd
00000190: 7a27 20bd 79c6 103d a4e7 49be 4aee 92bc
000001a0: 37e6 6dbe ef77 583d dc74 30bc 0c79 133e
000001b0: 8ec1 5cbe c701 b93c 8a82 113d 4358 b93d
000001c0: 491b abbb ea48 c3bb 657e d3bc 2ca8 b93d
000001d0: db95 533d 7c4e 19be e5c5 aebd bf5b 96bc
000001e0: 86a7 f8bd cc58 8bbb eea0 5d3d ef2f 93bd
000001f0: e7a9 16bd 04d2 b03d a79d 953d b3a5 cf3c
00000200: 40b7 d13c 4fbf 03bd 47e8 e53d be7e 933c
00000210: a3b8 08bd 0976 bebd 1efb 83bd 74c9 8cbc
00000220: 3649 a63d 661e 023e 9f79 673e 306f 94bd
00000230: 5858 afbc c893 ac3c 6755 1fbd 4ba2 033d
00000240: cc6e 5f3e cc2b 88be 1d0f 3e3e 8149 dcbd
00000250: fd29 98bb 029a 863d dc57 2ebe d230 353c
00000260: a785 2a3c 2094 b1bd a7f7 c33d eda8 043e
00000270: 3c06 56be cf37 e63d 1923 9ebc 27fa 603e
00000280: 9d2d 1dbe 9c1a 7dbc ccec ba3d 49f9 2b3e
00000290: 78ef e93d 0745 013e 370b 21bc a8eb 173e
000002a0: 713f 0dbe 755e 683a ab30 99bc 3aec 2d3e
000002b0: 8851 c03c e5cf 49bd c19a b9bd 5743 efbd
000002c0: aa72 973d bfdf b3bd ffce bcbd d32b b3bc
000002d0: d8bb 823c dc6d bbbd cae6 893c 7dfa 5e3d
000002e0: bbad 09be 9abd e2bd e547 2fbd 75ae c73d
000002f0: 6566 44bd b405 553d b9ce 043e d6e0 e13c
00000300: 5456 6d3c 94f3 41bc a018 903d 1320 013e
00000310: 5d0c 3abb cbfe 71bd d7cf 0abe 4574 0cbe
00000320: 50b8 183b ca4b 4e3d 8dc7 773c 59d1 e2bd
00000330: 0f29 c9bd 3582 f13d a66e 02be 9133 ba3d
00000340: 4c28 023c 17ae 9fbc 7093 96bc d89c b53d
00000350: 7aae fcbd 9712 1c3d 8ebf 21bc e4d0 3f3e
00000360: 2cab 28be 189b 11bc af57 83bd a36d aebd
00000370: 3fd7 053d 2a67 223d 8b52 923d 949f dc3d
00000380: ab4e 943c 4022 a3bb 462f a1bd 1c57 4ebe
00000390: fbb7 ba3c 3c68 c8bd 344c 863d b3cf 59bd
000003a0: fe1e adbd 1df7 aa3d 88c0 203e 31a6 09be
000003b0: 194b dbbc e45c 1f3e 557b 243e 0098 0c3e
000003c0: fb7e ed3d a2d5 5d3d c610 993d 7e2a a73c
000003d0: 33f9 a83d febd 863d f95e 153c f538 89bd
000003e0: 152c 213d d6aa 47bd a433 85bc 16a8 d0bd
000003f0: 79c5 42bd e0c0 0f3e 2c50 a43d 9e7c d9bc

a2c_network.actor_mlp.0.bias f4 [128]
-0.30775544 -0.27292824 -0.44804585 -0.46153224 -0.17302376 -0.021989515 -0.38511422 -0.22047265
-0.27891648 0.00969965 -0.10278986 -0.08990905 -0.3193382 -0.24939348 -0.008861222 -0.50407046
-0.005869804 -0.13049969 -0.39283744 -0.5991945 -0.21987137 -0.40280503 -0.52239805 -0.47578186
0.0067140595 -0.10284557 -0.32927504 -0.27739775 -0.04020544 -0.5546063 -0.4604073 -0.3182888
-0.40657753 -0.20876326 -0.1679647 -0.26370072 -0.0068243938 -0.24576405 -0.29285038 -0.46481967
-0.0020581381 -0.45228052 -0.29951698 -0.030758258 -0.22579417 0.037669595 -0.31103322 -0.3649759
-0.44969085 -0.08329194 -0.17830014 -0.08550057 -0.17919862 -0.37898576 -0.13200296 -0.5215962
-0.3072458 -0.3917352 -0.44767803 -0.30999807 -0.25965816 -0.014316703 -0.28700933 -0.4762453
-0.370679 -0.29960954 -0.077758975 -0.20923638 -0.47747135 -0.10093577 0.046308316 -0.5339348
-0.011480646 -0.42872685 -0.32812023 -0.3494505 -0.743466 -0.102401905 -0.02821758 -0.40463856
-0.61807656 -0.41254324 -0.33094418 -0.16435418 -0.28336465 -0.17962162 -0.52882034 -0.049671523
-0.19402413 -0.7222874 -0.24089904 -0.28938344 -0.1471782 -0.46460524 -0.077692784 -0.11905593
-0.21905933 -0.23923402 -0.34356946 -0.5668388 -0.5276091 -0.011356605 -0.27659336 -0.2950124
-0.15790309 -0.35371628 -0.28138864 -0.1806851 -0.34345528 -0.10886611 -0.67690945 -0.4733461
-0.34100237 -0.1475074 -0.59657377 -0.20687643 -0.43726632 -0.33323136 -0.016646076 -0.07980588
-0.34832057 -0.22599438 -0.3128132 0.019818263 -0.086750984 -0.33631876 -0.23079811 -0.3761105
00000000: 1f92 9dbe 40bd 8bbe 4466 e5be f44d ecbe
00000010: 242d 31be 5b23 b4bc b12d c5be 95c3 61be
00000020: 24ce 8ebe 48eb 1e3c 7d83 d2bd 3c22 b8bd
00000030: 4c80 a3be 0161 7fbe a92e 11bc c30a 01bf
00000040: 7c57 c0bb b6a1 05be fd21 c9be d064 19bf
00000050: f625 61be 763c cebe e1bb 05bf ae99 f3be
00000060: 9d01 dc3b b3a0 d2bd bd96 a8be 1407 8ebe
00000070: 76ae 24bd aefa 0dbf 81ba ebbe c0f6 a2be
00000080: ee2a d0be 09c6 55be f0fe 2bbe c803 87be
00000090: 2a9f dfbb 92a9 7bbe 7cf0 95be d8fc edbe
000000a0: d4e1 06bb 5091 e7be 4a5a 99be bef8 fbbc
000000b0: 9636 67be 6f4b 1a3d bf3f 9fbe 1fde babe
000000c0: e13d e6be f794 aabd 5094 36be ec1a afbd
000000d0: d87f 37be 6c0a c2be c92b 07be 5487 05bf
000000e0: 524f 9dbe 8491 c8be 0e36 e5be 11b8 9ebe
000000f0: eaf1 84be 9b90 6abc e3f2 92be 6dd6 f3be
00000100: a3c9 bdbe 6c66 99be 1940 9fbd 1042 56be
00000110: 2077 f4be 6ab7 cebd caad 3d3d f3af 08bf
00000120: 5219 3cbc 1682 dbbe 60ff a7be 2deb b2be
00000130: ca53 3ebf 17b8 d1bd 8e28 e7bc c92c cfbe
00000140: 443a 1ebf de38 d3be 8471 a9be 764c 28be
00000150: 2c15 91be bbee 37be c560 07bf 5e74 4bbd
00000160: 43ae 46be d4e7 38bf 3dae 76be 112a 94be
00000170: e2b5 16be bde0 edbe 651d 9fbd 98d3 f3bd
00000180: 1751 60be c3f9 74be 56e8 afbe 591c 11bf
00000190: 6411 07bf 0e11 3abc a59d 8dbe de0b 97be
000001a0: 59b1 21be 4d1a b5be 2c12 90be 8405 39be
000001b0: 5fd9 afbe 32f5 debd f049 2dbf 6c5a f2be
000001c0: dd97 aebe 2e0c 17be 0fb9 18bf 6ad7 53be
000001d0: 5fe1 dfbe 4d9d aabe 5a5d 88bc 4471 a3bd
000001e0: 1357 b2be 126b 67be 0d29 a0be e959 a23c
000001f0: 80aa b1bd f931 acbe 5756 6cbe 8e91 c0be

a2c_network.actor_mlp.2.weight f4 [128, 128]
0.27854583 0.16519722 0.08263427 -0.031014668 -0.028013876 -0.036744084 -0.011811551 0.034771264
-0.17376906 -0.04492806 0.24798082 0.028315943 -0.3346964 -0.05335148 -0.1379039 -0.038608048
-0.16155629 -0.008600674 -0.11939914 -0.2472374 0.10276371 0.101108596 -0.20325485 0.10589669
-0.08065164 -0.18025951 0.0010911692 -0.06693583 -0.21440044 0.09138069 0.0994435 -0.31029028
-0.2248508 -0.11965207 -0.06607048 -0.24710318 0.000843572 0.02599247 0.01112151 0.032661233
0.17358685 0.014321362 0.066204496 -0.010387668 0.055739462 0.0018967722 0.049107935 -0.12522542
-0.028165055 -0.1317229 -0.16160445 0.21881236 0.09543618 0.024438279 -0.07894234 0.114489585
-0.17463252 -0.12520014 -0.2099378 0.02249752 0.17677328 0.19053368 -0.1974141 0.018860564
0.10428587 0.0790028 -0.38086548 -0.05167891 -0.22585595 0.16439158 -0.15597862 -0.025240973
0.10814923 -0.054005135 -0.11894778 0.039593454 0.050052952 -0.11868499 0.03946176 -0.17337865
0.027013376 -0.008005753 -0.027835215 -0.13037153 -0.188635 -0.027176196 0.01620156 -0.11561595
-0.245921 -0.057904497 -0.039834507 -0.25240615 -0.18215734 0.052372314 -0.2349067 -0.2094262
-0.122690134 -0.017775424 0.003422114 0.12189499 0.021683687 -0.030342108 -0.0021191402 -0.19572689
-0.026239688 -0.24617216 -0.30029458 -0.08296854 0.038897727 -0.1951681 0.012846148 -0.057591423
-0.20538037 0.1382012 -0.013539715 0.18399626 0.10966179 0.0240146 -0.15799192 -0.12191449
-0.13341142 -0.18645713 -0.09085944 0.05021848 -0.01529188 -0.07770384 0.07109571 0.07985635
0.1013713 -0.0248998 0.12095297 -0.08123597 0.12500386 0.0019248319 -0.071383364 -0.0071696695
-0.16281503 -0.032960836 0.112466544 -0.0023207723 -0.15750004 0.027520629 -0.14361487 -0.023907084
0.0685172 -0.3330574 -0.21025078 -0.10809046 -0.18257107 0.0137271425 0.023043273 0.046724778
-0.09027269 0.21353506 -0.031801965 0.10501029 -0.035600062 -0.04421374 -0.044276822 -0.22236842
0.014141092 -0.053297304 -0.0650716 0.015487165 -0.10984311 -0.18885934 0.078281924 -0.005640206
-0.07832063 0.081813864 -0.16106652 -0.40796524 -0.06897195 -0.08510073 0.14192098 -0.07840449
-0.02593025 -0.0089612305 -0.13967896 -0.03457211 0.06542304 -0.12786223 0.09821541 0.10035707
-0.12554339 -0.077828474 0.08435157 0.0003748933 -0.06810409 -0.007804774 0.022362065 -0.06813786
0.14591455 -0.052998964 -0.11552628 -0.033053894 0.15244249 -0.13007276 0.012134823 0.019782612
-0.511645 0.0945232 -0.10648121 -0.0049590124 -0.12479594 -0.06378324 -0.11865616 0.15567708
-0.037543602 -0.050831318 -0.003914262 0.030565077 0.072708 -0.14735559 -0.19674313 -0.10633009
-0.10018354 -0.093842514 0.006073765 0.04753049 0.021719385 -0.03163588 -0.44162133 -0.16304055
-0.14637634 -0.14743519 0.09032638 0.047792964 -0.084307365 -0.27816585 -0.322685 0.18660873
-0.20202273 -0.08853609 0.08262486 -0.13076816 -0.0127451075 0.09693035 0.16967604 -0.15398914
0.0953506 0.06658279 -0.11000143 0.09226648 0.07821953 -0.055631153 -0.11764783 0.07750393
0.04109368 -0.06746492 0.22050329 0.1234377 -0.32871208 0.06501178 0.15112062 -0.19591026
00000000: 8f9d 8e3e 7629 293e 283c a93d 7912 febc
00000010: 5b7d e5bc f780 16bd 3c85 41bc 506c 0e3d
00000020: 84f0 31be 7c06 38bd afee 7d3e d6f6 e73c
00000030: 545d abbe 1587 5abd ae36 0dbe 7923 1ebd
00000040: 036f 25be d7e9 0cbc 8987 f4bd cd2b 7dbe
00000050: c875 d23d 0612 cf3d 0a22 50be 5de0 d83d
00000060: b02c a5bd f395 38be 9005 8f3a a715 89bd
00000070: ca8b 5bbe cd25 bb3d 09a9 cb3d 5ede 9ebe
00000080: 4a3f 66be 250c f5bd f64f 87bd 9e08 7dbe
00000090: 2923 5d3a 29ee d43c fe36 363c c9c7 053d
000000a0: c0c0 313e 25a4 6a3c 3996 873d 0a31 2abc
000000b0: 104f 643d 1d9d f83a 6725 493d 183b 00be
000000c0: 67ba e6bc 5ee2 06be a37b 25be 5910 603e
000000d0: 0b74 c33d c932 c83c 86ac a1bd 8479 ea3d
000000e0: ded2 32be 7734 00be eff9 56be b84c b83c
000000f0: 0e04 353e 431b 433e ec26 4abe 7881 9a3c
00000100: d593 d53d 38cc a13d cd00 c3be 44ad 53bd
00000110: c846 67be 4456 283e dcb8 1fbe 28c6 cebc
00000120: 587d dd3d 7d34 5dbd e59a f3bd bf2c 223d
00000130: 5304 4d3d 1e11 f3bd a8a2 213d 2c8a 31be
00000140: 284b dd3c 902a 03bc ad06 e4bc 1d80 05be
00000150: 8929 41be 9da0 debc 22b9 843c 0ec8 ecbd
00000160: b7d2 7bbe 442d 6dbd 8229 23bd 613b 81be
00000170: 7487 3abe 5a84 563d 628b 70be d273 56be
00000180: f744 fbbd c49d 91bc 8c45 603b 15a4 f93d
00000190: fda1 b13c 0390 f8bc 46e1 0abb a16c 48be
000001a0: 9df4 d6bc 8e14 7cbe 36c0 99be 69eb a9bd
000001b0: 3953 1f3d 25da 47be a678 523c fce4 6bbd
000001c0: 3b4f 52be 9e84 0d3e aed5 5dbc 8469 3c3e
000001d0: 5c96 e03d 44ba c43c a2c8 21be 4eae f9bd
000001e0: 019d 08be 9eee 3ebe 8414 babd e5b1 4d3d
000001f0: cb8a 7abc 3123 9fbd a19a 913d ba8b a33d
00000200: c29b cf3d aafa cbbc 31b6 f73d 0b5f a6bd
00000210: 0301 003e a44a fc3a 7131 92bd 8cef eabb
00000220: fcb8 26be f101 07bd dc54 e63d 1918 18bb
00000230: b147 21be f172 e13c c70f 13be cad8 c3bc
00000240: bf52 8c3d 8086 aabe fb4b 57be 885e ddbd
00000250: e9f3 3abe cfe7 603c 3fc5 bc3c 7b62 3f3d
00000260: e3e0 b8bd efa8 5a3e c742 02bd a30f d73d
00000270: 5fd1 11bd 7719 35bd 9d5b 35bd 8cb4 63be
00000280: 0ab0 673c 464e 5abd 4244 85bd e1bd 7d3c
00000290: 6df5 e0bd 5864 41be 4652 a03d 7ad1 b8bb
000002a0: 9166 a0bd 078e a73d 9fee 24be d2e0 d0be
000002b0: 2a41 8dbd 4b49 aebd bc53 113e 8992 a0bd
000002c0: ad6b d4bc 20d2 12bc 0008 0fbe 7c9b 0dbd
000002d0: 84fc 853d 51ee 02be 2925 c93d 0288 cd3d
000002e0: 728e 00be 8964 9fbd 84c0 ac3d 548d c439
000002f0: 287a 8bbd 31bf ffbb a630 b73c dd8b 8bbd
00000300: a06a 153e 7115 59bd 0b99 ecbd 8563 07bd
00000310: e219 1c3e cb31 05be 23d1 463c 250f a23c
00000320: 2bfb 02bf 6195 c13d d212 dabd 367f a2bb
00000330: 0495 ffbd caa0 82bd 0002 f3bd d069 1f3e
00000340: 52c7 19bd 8034 50bd 3643 80bb 9d63 fa3c
00000350: efe7 943d 62e4 16be 0877 49be 97c3 d9bd
00000360: 072d cdbd 8130 c0bd 6f06 c73b 55af 423d
00000370: daec b13c a094 01bd 311c e2be 1af4 26be
00000380: aee3 15be 40f9 16be 0afd b83d 8ec2 433d
00000390: 57a9 acbd c16b 8ebe f836 a5be 5c16 3f3e
000003a0: 0cdf 4ebe 6952 b5bd 3937 a93d 17e8 05be
000003b0: dbd0 50bc 6b83 c63d 8ebf 2d3e 54af 1dbe
000003c0: 2d47 c33d 8f5c 883d 6e48 e1bd 35f6 bc3d
000003d0: 9031 a03d 7edd 63bd 58f1 f0bd 61ba 9e3d
000003e0: d951 283d 0c2b 8abd 9dcb 613e e8cc fc3d
000003f0: f34c a8be e524 853d 5dbf 1a3e b39c 48be

a2c_network.actor_mlp.2.bias f4 [128]
0.050096717 -0.14939065 -0.051430475 -0.26038826 -0.037401892 0.026419047 -0.46181464 -0.2176756
-0.16676325 0.1925354 -0.003897297 -0.14127196 -0.1519237 0.10470229 0.15912865 -0.30626938
0.15082683 -0.041804865 0.017103776 0.045218527 -0.17519955 0.039618123 0.1702002 0.032073576
0.13285637 0.066713534 0.13142078 -0.1753146 0.16227444 -0.40676093 -0.29494572 -0.17687725
-0.057825804 -0.15307677 -0.26072147 -0.050827257 0.078215376 -0.23551077 0.22105308 0.10418755
-0.3376034 0.08693942 -0.2071021 0.008649661 -0.26446816 0.039505675 -0.004141419 0.014180745
-0.33403754 0.08916222 -0.16268273 0.0561848 0.018248122 -0.28023896 -0.012432042 0.051227715
-0.08087261 -0.061590176 -0.20520075 0.11921471 -0.15531166 -0.10216612 -0.24916118 -0.44918677
-0.18637398 -0.2843779 -0.02713973 -0.16430794 0.0511434 -0.09655049 -0.109524466 -0.044238698
-0.11023606 -0.016599102 0.07514664 0.1601246 0.12869258 -0.21299526 -0.08847 -0.08145322
0.07877095 0.14124575 0.08833379 0.022603152 -0.07979905 -0.01118645 0.138311 0.18977262
0.09215989 0.13606559 -0.13240057 0.1118077 -0.4201992 0.2156332 -0.10325516 -0.008954088
0.040432066 -0.0960272 0.14631368 -0.15869099 -0.11268167 -0.18203625 0.1132293 -0.29098633
0.098995335 -0.35712922 -0.10675982 -0.15872784 0.08768711 -0.2325671 -0.13877334 -0.1324767
0.1037968 -0.018225156 0.06004065 -0.055720206 -0.25792208 -0.22394763 -0.043722272 0.14320749
-0.19702718 -0.08833757 -0.2710038 -0.59745073 0.081767336 -0.14610521 -0.3117872 -0.74577355
00000000: 3732 4d3d ddf9 18be c3a8 52bd 9c51 85be
00000010: ba32 19bd c26c d83c f872 ecbe 5ae6 5ebe
00000020: fcc3 2abe 0028 453e cb69 7fbb 99a9 10be
00000030: e391 1bbe 276e d63d 9ff2 223e 57cf 9cbe
00000040: 5972 1a3e 943b 2bbd 381d 8c3c 1037 393d
00000050: 8367 33be 9d46 223d f648 2e3e 955f 033d
00000060: 800b 083e 1ba1 883d 2b93 063e ac85 33be
00000070: 452b 263e f842 d0be 2003 97be 4f1f 35be
00000080: c0da 6cbd 28c0 1cbe 497d 85be 3e30 50bd
00000090: 622f a03d bc29 71be bd5b 623e 4860 d53d
000000a0: 5ada acbe 4b0d b23d 9312 54be 4fb7 0d3c
000000b0: 5f68 87be b4d0 213d beb4 87bb 5b56 683c
000000c0: f806 abbe af9a b63d 4d96 26be 0822 663d
000000d0: 167d 953c 7b7b 8fbe c3af 4bbc 27d4 513d
000000e0: 8aa0 a5bd fb45 7cbd 2520 52be d826 f43d
000000f0: 050a 1fbe 793c d1bd 1c24 7fbe cffb e5be
00000100: d2d8 3ebe fb99 91be 2454 debc 5740 28be
00000110: be7b 513d 43bc c5bd 5d4e e0bd a333 35bd
00000120: 72c3 e1bd d7fa 87bc 7be6 993d b4f7 233e
00000130: fdc7 033e 6e1b 5abe c22f b5bd f2d0 a6bd
00000140: aa52 a13d baa2 103e 59e8 b43d 3f2a b93c
00000150: af6d a3bd 5f47 37bc 66a1 0d3e c153 423e
00000160: 53be bc3d c754 0b3e 0494 07be 6ffb e43d
00000170: 5924 d7be f3ce 5c3e 7177 d3bd 2bb4 12bc
00000180: 189c 253d e9a9 c4bd 41d3 153e e47f 22be
00000190: a6c5 e6bd b667 3abe c3e4 e73d 29fc 94be
000001a0: 11be ca3d a4d9 b6be e4a4 dabd 8d89 22be
000001b0: 4d95 b33d 1226 6ebe 991a 0ebe f9a7 07be
000001c0: 6b93 d43d ec4c 95bc 2fed 753d df3a 64bd
000001d0: 5d0e 84be 8752 65be 2016 33bd fca4 123e
000001e0: 7ec1 49be 54ea b4bd 03c1 8abe 88f2 18bf
000001f0: a275 a73d 9b9c 15be 92a2 9fbe 04eb 3ebf

a2c_network.critic_mlp.0.weight f4 [128, 376]
0.13050433 -0.20162636 -0.25782022 -0.2073993 0.051128134 0.10499156 -0.13643308 -0.0017751136
-0.2633967 -0.1482912 -0.24612235 -0.4935784 0.35901067 0.32220766 0.6405792 0.76703227
-0.00697532 0.36192545 -0.21446584 -0.0033531133 0.10630996 0.08333658 0.06650923 0.046215355
-0.020728838 0.104673654 0.048078552 0.1762576 0.13473769 -0.11035051 0.15876967 -0.047755674
0.06648628 -0.017956348 -0.00234472 0.028839596 -0.029746892 0.16252263 0.03023267 0.5185717
0.66614413 -0.7098314 0.13601515 0.13687018 0.02300194 0.12747963 0.25859112 -0.55679756
-0.035821587 0.021156956 0.026990304 0.044412572 0.043253195 -0.105832435 -0.01512052 0.0368151
-0.016096001 -0.08060076 0.014653107 0.050787248 -0.060670078 -0.30032963 -0.060381137 0.018565156
-0.17071979 -0.17814574 -0.07628298 -0.14478113 -0.023854375 -0.03354348 -0.18148112 -0.13658057
0.15633276 0.090187974 -0.006872692 -0.05271863 -0.17575407 -0.01629747 -0.049778298 -0.055229153
-0.14475662 0.003305465 -0.12925471 0.014059969 0.14972429 0.016640866 -0.066388726 0.068257995
0.1496317 0.08830399 -0.0070005488 -0.095797464 0.0106164655 -0.002292391 0.027375227 0.01825275
-0.031383093 -0.07501314 -0.066299684 0.011494181 -0.058666684 0.01377108 0.009844956 0.008812478
-0.021430582 0.025376128 0.022417918 -0.044693783 -0.0001646158 -0.0013064131 0.060295366 0.023510119
0.030986048 -0.024121795 0.030243587 -0.010156083 -0.00052567467 0.019313619 0.0003268003 -0.0062909625
0.05572386 0.0693334 0.034552958 0.066598855 -0.06707145 -0.002677337 0.00041921862 0.065380275
0.018361922 -0.010513759 0.114140905 0.068057835 0.05072118 0.055774577 -0.018778548 0.027377611
-0.009687186 0.03229835 -0.0025169456 0.07954605 0.058642056 0.09959983 -0.049082663 0.039989036
-0.01806677 -0.004390422 -0.048678458 0.052525613 0.06011532 0.010910386 0.029528968 -0.14120029
-0.037980083 -0.12021226 0.016268848 0.025429755 0.20397113 0.11397859 0.105546296 -0.11071061
0.021504143 0.07103752 -0.029209347 0.06523564 -0.042934943 0.020536061 0.002954117 0.12351283
0.06777969 0.028263789 0.024413986 0.04300261 -0.018190466 0.013695792 -0.011802828 0.061995666
0.04422314 -0.00440827 0.039420098 0.0076843207 -0.01824842 -0.024889348 -0.03327179 0.06495702
-0.028418377 0.03780437 -0.042894322 -0.05135477 0.006976891 0.014915172 -0.053898375 -0.06756109
0.0063445307 0.024859183 0.03253002 -0.027394589 -0.01494342 -0.024408286 -0.028182171 -0.045503594
-0.029953375 -0.0044179293 -0.03243082 -0.031770043 0.0693285 -0.060467303 0.02923217 -0.022480115
0.018528989 -0.034628756 -0.07267732 -0.005242619 -0.025472967 -0.04332655 0.009814254 -0.009623541
0.016564172 -0.042392913 -0.023455322 -0.062394794 0.006449525 0.03264056 0.009865151 -0.12376752
-0.23745774 0.11132295 0.15469143 0.03166189 0.09193441 -0.04073258 0.10788976 0.09368785
0.08179538 -0.022414066 0.024991995 -0.06579379 -0.035374388 -0.026684841 -0.036330488 0.028770532
-0.023517972 0.014150102 -0.022179117 -0.00567662 -0.008122508 0.0344771 0.010456526 -0.043800995
-0.06806373 -0.053529736 -0.05412548 -0.02090134 -0.04690564 -0.03988145 -0.012226046 0.060254365
00000000: eda2 053e 2477 4ebe 0301 84be 7b60 54be
00000010: bc6b 513d d105 d73d 1db5 0bbe eeaa e8ba
00000020: efdb 86be a6d9 17be 7f07 7cbe 4fb6 fcbe
00000030: 3fd0 b73e 67f8 a43e 00fd 233f 3a5c 443f
00000040: 3a91 e4bb 4b4e b93e ef9c 5bbe e8bf 5bbb
00000050: 09b9 d93d 5eac aa3d fe35 883d 504c 3d3d
00000060: 86cf a9bc 245f d63d 04ee 443d df7c 343e
00000070: adf8 093e 73ff e1bd 8494 223e 749b 43bd
00000080: f529 883d 3119 93bc e0a9 19bb 0441 ec3c
00000090: c1af f3bc 556c 263e 81aa f73c 1dc1 043f
000000a0: 6c88 2a3f 83b7 35bf 8e47 0b3e b227 0c3e
000000b0: 916e bc3c 058a 023e 0e66 843e 498a 0ebf
000000c0: a8b9 12bd 5a51 ad3c c51a dd3c f5e9 353d
000000d0: 432a 313d adbe d8bd 0fbc 77bc 6ecb 163d
000000e0: c3db 83bc 0312 a5bd 9613 703c 4a06 503d
000000f0: 3081 78bd cec4 99be 3652 77bd f415 983c
00000100: 2bd1 2ebe d66b 36be 403a 9cbd 8141 14be
00000110: 406a c3bc e364 09bd 30d6 39be c7db 0bbe
00000120: b215 203e 79b4 b83d 5234 e1bb 7def 57bd
00000130: e0f8 33be 4682 85bc 54e4 4bbd f737 62bd
00000140: 143b 14be 80a0 583b 595b 04be c95b 663c
00000150: 5351 193e 6d52 883c d0f6 87bd d9ca 8b3d
00000160: 0d39 193e b9d8 b43d dc64 e5bb 7631 c4bd
00000170: aff0 2d3c f03b 16bb 0342 e03c cb86 953c
00000180: 8f8b 00bd 7da0 99bd 21c8 87bd 1752 3c3c
00000190: 7a4c 70bd 19a0 613c bd4c 213c 3662 103c
000001a0: 308f afbc 99e1 cf3c c8a5 b73c d410 37bd
000001b0: b89c 2cb9 f33b abba 46f8 763d 4b98 c03c
000001c0: 74d6 fd3c 129b c5bc 66c1 f73c b365 26bc
000001d0: 6ecd 09ba 9837 9e3c 6556 ab39 6b24 cebb
000001e0: b43e 643d abfe 8d3d 6787 0d3d fb64 883d
000001f0: c25c 89bd 4376 2fbb 92ca db39 18e6 853d
00000200: be6b 963c e741 2cbc b5c2 e93d e861 8b3d
00000210: 03c1 4f3d e273 643d 78d5 99bc 0347 e03c
00000220: 01b7 1ebc 464b 043d 57f3 24bb 0ae9 a23d
00000230: a732 703d fffa cb3d e70a 49bd 8bcb 233d
00000240: c300 94bc 87dd 8fbb 1063 47bd 1925 573d
00000250: 7b3b 763d 7ac1 323c bce6 f13c cf96 10be
00000260: 0191 1bbd d831 f6bd 3f46 853c 1052 d03c
00000270: cfdd 503e 9b6d e93d a828 d83d 3fbc e2bd
00000280: 7529 b03c 1f7c 913d 7148 efbc 439a 853d
00000290: 8ddc 2fbd 3e3b a83c dc99 413b 4bf4 fc3d
000002a0: 14d0 8a3d 7689 e73c d7ff c73c 8123 303d
000002b0: 2c04 95bc 5164 603c a660 41bc 2bef 7d3d
000002c0: 5323 353d 4073 90bb f876 213d c1cc fb3b
000002d0: b67d 95bc bfe4 cbbc 0048 08bd 3008 853d
000002e0: a8cd e8bc c1d8 1a3d f5b1 2fbd 6159 52bd
000002f0: 679e e43b c45e 743c 8bc4 5cbd 785d 8abd
00000300: c8e5 cf3b 7ca5 cb3c 333e 053d 9e6a e0bc
00000310: 3fd5 74bc e3f3 c7bc 4cde e6bc fa61 3abd
00000320: c860 f5bc 47c4 90bb 2ed6 04bd 4e21 02bd
00000330: 1afc 8d3d 90ac 77bd 4e78 ef3c 3828 b8bc
00000340: 1bca 973c e2d6 0dbd d9d7 94bd 47ca abbb
00000350: afac d0bc 2e77 31bd f7cb 203c 0eac 1dbc
00000360: 96b1 873c 31a4 2dbd 6025 c0bc af91 7fbd
00000370: 8956 d33b 1cb2 053d 71a1 213c d379 fdbd
00000380: 1f28 73be 49fd e33d 6e67 1e3e e6af 013d
00000390: 1c48 bc3d 35d7 26bd 4ef5 dc3d 6adf bf3d
000003a0: 5684 a73d b49d b7bc 03bc cc3c e5be 86bd
000003b0: bce4 10bd 2b9a dabc 47cf 14bd 2eb0 eb3c
000003c0: c3a8 c0bc d4d5 673c fbb0 b5bc f102 babb
000003d0: 4514 05bc dc37 0d3d d951 2b3c ac68 33bd
000003e0: ff64 8bbd ff41 5bbd aeb2 5dbd 4939 abbc
000003f0: 2120 40bd bb5a 23bd c14f 48bc 48cd 763d
