python/rlgpu/saved_nn/241001162237286415/last_Aliengoep=1500rew=[5828.47].pth (torch, 539546 bytes, 18 tensors)

running_mean f8 [376]
000000 76 07 e3 c0 b6 5d 98 bf 35 03 b3 4e 15 f3 61 3f
       -0.02379499008453175 0.002191106430104029
000010 dd a8 6b 26 3d 29 54 bf 3c d8 23 48 98 66 82 3f
       -0.0012305352371933455 0.008984746648348467
000020 15 de 68 a9 64 0c de 3f c2 21 5b ec ac 60 dd 3f
       0.46950642150793104 0.4590256031192689
000030 f3 3a c0 c9 18 ea e4 3f 1f d4 3c 35 69 48 e5 3f
       0.6535762730071312 0.6650892295643905
000040 2b 32 8c 5a c9 d8 a5 3f 2a bc 8e 35 ca 66 bb 3f
       0.042669575026682637 0.10703719909246048
000050 5d 80 94 aa f1 aa d2 bf 46 d6 b7 db bf c4 ac 3f
       -0.2916835943051462 0.05618857915025592
000060 73 8b 0d cc 04 89 b8 bf 37 d0 71 4f 5d 86 d2 bf
       -0.09584074002991176 -0.28945095785389036
000070 a7 99 15 f9 8e 73 a9 3f 07 b3 93 d1 0d f5 bb 3f
       0.04970976629811057 0.10920797697663086
000080 ec b1 d8 9e ec bf d2 bf bb 21 c0 e0 07 50 a7 3f
       -0.2929641295657166 0.04553246134316021
000090 6f ef ad dc 78 49 b6 bf 29 77 e1 d3 8e dd d2 bf
       -0.08705859553987037 -0.29477282229878427
0000a0 51 c3 4f dd 92 a3 9e bf bf c2 34 e0 16 7c 9a bf
       -0.029920859105860235 -0.02586398833699621
0000b0 1d d7 97 9c 5f ab bc 3f c3 c0 c0 31 33 7c 9d bf
       0.11198995183061951 -0.028794097816160723
0000c0 30 9d c8 8c e4 ef 93 3f b7 c7 75 d0 ba 0f bb 3f
       0.019469805805923446 0.10570876683576001
0000d0 55 52 be 00 40 3c 7d bf 00 f2 45 6d 35 13 83 bf
       -0.0071375370133820075 -0.009313981435064456
0000e0 19 49 47 61 3a c0 b2 3f 25 2c 70 de e4 d0 87 bf
       0.07324566721880323 -0.01162890247180399
0000f0 a9 11 5f e4 11 c3 79 3f df 45 e8 97 a2 5c b1 3f
       0.006289548769875011 0.06781974991488181
000100 a7 0b 69 f7 3f 3b de 3f 68 fa 10 f7 5f e2 e0 3f
       0.4723663250080627 0.5276336503519135
000110 68 fa 10 f7 5f e2 e0 3f a7 0b 69 f7 3f 3b de 3f
       0.5276336503519135 0.4723663250080627
000120 ec bc 85 f7 95 db a0 3f 47 29 b9 14 bd 78 45 bf
       0.032925306763781 -0.0006552623030498327
000130 4f d9 c6 36 d6 14 91 3f b1 c4 fe 4f 60 36 7d 3f
       0.01668104848223467 0.0071319353300377955
000140 c1 19 7e 16 e5 dd 97 3f e6 0e ec 8a 02 df 51 3f
       0.023307399270857013 0.0010907673674304618
000150 d2 1a b7 60 4a 4c 9b 3f 03 cc a5 15 48 60 42 3f
       0.026658212807684496 0.0005607940650363966
000160 c3 16 ca 42 96 28 99 3f 3e 74 56 aa fc d6 66 3f
       0.024568889452459396 0.002788060652803042
000170 12 24 da 49 a1 86 99 3f de b8 bb d8 96 16 25 bf
       0.024927635319304704 -0.00016089049710594263
000180 9e eb f0 10 e8 aa c4 bf 03 a6 ba 9d 35 db c3 3f
       -0.161465652725238 0.1551272411500549
000190 99 6c 70 a5 51 c2 ce bf 49 e5 2f 41 82 87 c7 3f
       -0.24030514314731447 0.18382290060962195
0001a0 3f 9f b9 b1 36 df cc 3f 18 28 17 6d e1 a8 c4 bf
       0.22556193998320315 -0.16140382601435088
0001b0 b9 5e 60 01 ce 78 a4 bf 11 d2 32 6d 57 35 c1 bf
       -0.039984166782401194 -0.13444035369833832
0001c0 1d f0 4c b1 75 b1 cb bf ca 11 57 aa c0 5c ac 3f
       -0.2163531413769996 0.05539514617297277
0001d0 66 77 c4 e6 d8 0b c7 bf e7 a7 f9 b6 af 88 c2 bf
       -0.18004905002538435 -0.14479633745514706
0001e0 f9 37 48 e2 26 d1 db bf 5b 1e 2f 84 69 98 e4 3f
       -0.4346406183038876 0.6436050016136038
0001f0 f0 69 f4 19 b0 af ee 3f 67 b7 cc 74 07 07 ca 3f
       0.9589462763718171 0.20333951190098817
000200 84 7a c4 07 64 07 d4 3f 03 77 a2 2b 49 46 c5 3f
       0.3129510951857031 0.16620745306584447
000210 58 80 a5 4c fa ba c2 3f c0 73 fc 04 76 90 c8 bf
       0.14633110754494072 -0.19190860026801992
000220 90 68 68 6a e0 20 cb 3f 41 cf 14 ef e5 b5 bb bf
       0.2119408149308737 -0.1082442959494161
000230 88 8e bd 29 f7 71 d4 3f 0d 4c 6b 86 74 98 93 bf
       0.31945590091911713 -0.01913625784329658
000240 d4 db a0 0c ce 0f 96 bf 68 e2 48 6e bb f1 b2 bf
       -0.021544665833257273 -0.07400103991029428
000250 c6 48 9b fd 69 20 bf bf 5b 3a dd 99 70 cc db bf
       -0.12158834878508448 -0.4343530180530359
000260 ee 6e 7e 46 5c 91 e4 3f 13 f1 30 e5 1e a8 ee 3f
       0.6427441956361386 0.958022544516583
000270 90 0c 2d 63 f8 01 ca 3f 0b 68 eb 34 d3 02 d4 3f
       0.20318512766434482 0.31267242591786787
000280 18 94 b8 42 ae 43 c5 3f 90 0a ca b5 a2 b7 c2 3f
       0.16612795122014812 0.14622911335398614
000290 76 08 23 a5 7f 8d c8 bf 27 7a f0 bc 7a 1f cb 3f
       -0.1918181949932351 0.2118981764369476
0002a0 b4 25 51 0c 58 b5 bb bf 73 cd 2d 9b b6 6e d4 3f
       -0.10823583889682348 0.3192574038905242
0002b0 a5 a6 d9 74 fb ae 93 bf 37 55 b3 32 97 12 96 bf
       -0.01922219181725517 -0.02155529257728014
0002c0 c6 2b ce ff b7 ec b2 bf 72 0f f1 b4 ff 1e bf bf
       -0.07392454142806945 -0.12156675498505168
0002d0 b4 9c 0d ff e5 97 c1 3f da 4d 72 0b f8 f9 c1 3f
       0.1374480719925707 0.14044094618712571
0002e0 6f fd 94 ba 40 1f c2 3f d1 2b f3 74 04 27 c2 3f
       0.14157876120041687 0.1418157168430683
0002f0 22 94 3b 87 15 1a c2 3f 86 ea a8 c7 54 fa c1 3f
       0.14142102339897727 0.14045200108542505
000300 b5 c6 0e 81 9b d1 c1 3f 61 f7 c0 22 9d cd c1 3f
       0.13920921136518918 0.13908733555757194
000310 3c 93 98 b7 23 ee c1 3f 87 7b 08 a8 83 fc c1 3f
       0.1400799414124324 0.14051862435095705
000320 d2 64 f5 f7 ca f4 c1 3f a3 d4 83 2d d5 39 c2 3f
       0.140282984803696 0.14238991472635573
000330 42 d1 dd 41 71 5d c2 3f 72 d1 0e ee c9 88 c2 3f
       0.14347663608681144 0.14479946254654014
000340 ff a6 e8 d5 96 76 c2 3f ee 82 db f0 c6 20 c1 3f
       0.14424405522122893 0.133812778097329
000350 05 39 44 de 56 d5 c0 3f 5e 3f 4b 4c d5 9c c0 3f
       0.13151059964042858 0.1297861692933066
000360 18 43 c3 45 a2 86 c1 3f a8 35 9a b5 12 a1 c1 3f
       0.13692119985946571 0.13772806041053554
000370 2e 33 05 5b f7 d6 c1 3f 6a 9f 84 4f ca dd c2 3f
       0.1393727487979048 0.14739350207059526
000380 91 4a e1 6f 94 0f c3 3f a8 2a c3 67 81 28 c3 3f
       0.14891295874493385 0.14967362944147067
000390 8d 8d e2 e5 49 2d c3 3f 53 62 52 60 af ca c1 3f
       0.14981960034229438 0.13899795726026073
0003a0 11 61 4d ec 0e 48 c1 3f f8 06 fd a5 25 0e c1 3f
       0.1350115445918694 0.13324423413182962
0003b0 a2 30 ae 6b 0b 30 c2 3f 3c 07 b7 f0 89 3a c2 3f
       0.1420912051947925 0.14241146329555388
0003c0 8c d3 b0 8f 07 4b c2 3f 12 f0 fe 43 56 7f c3 3f
       0.1429147197356112 0.15232351608381173
0003d0 af 5e b4 82 4d ac c3 3f 6a 92 2c 0b 46 9d c3 3f
       0.15369576341685362 0.15323710961924358
0003e0 25 b5 63 83 ff 07 c3 3f d4 8b d5 d9 58 74 c2 3f
       0.14868158259870615 0.1441756309169181
0003f0 6a b6 7c fe ea c9 c1 3f 5d f7 16 d9 1e d2 c1 3f
       0.13897454668169767 0.13922486877521126
000400 77 90 de f2 49 4b c2 3f 19 de c8 6b 0c e4 c2 3f
       0.14292263373238587 0.14758448851510833
000410 e5 1b 0d 00 25 eb c2 3f f4 a1 96 47 eb 19 c4 3f
       0.14780104162693344 0.15704098697212
000420 63 20 93 4a 49 34 c4 3f 25 d0 4e 86 bd 41 c4 3f
       0.15784565106719403 0.15825623567582273
000430 45 be ed 26 e8 a3 c3 3f 34 96 25 f8 7b 07 c3 3f
       0.15343953991713213 0.14866590134185886
000440 c1 00 dd b8 59 83 c2 3f a5 bf 82 9c d4 ab c2 3f
       0.1446334984448239 0.14586885110975092
000450 01 66 43 2c e2 47 c3 3f 96 d9 a3 5a 38 d3 c3 3f
       0.1506312099580072 0.15488342691214702
000460 fd 8b ff 48 60 94 c3 3f bb 1c bf 5b 69 a3 c4 3f
       0.15296557964674654 0.1612369249325861
000470 71 f1 8b e0 62 9a c4 3f 27 e8 14 fa 9d e2 c4 3f
       0.1609614941043094 0.16316580496806063
000480 6f 28 8c c0 0a 5d c4 3f e4 fb c8 70 e0 85 c3 3f
       0.15908941652043349 0.15252309329113622
000490 5a f2 de e0 81 64 c3 3f 89 5e 06 57 83 95 c3 3f
       0.15150474052451807 0.1530002760816738
0004a0 ef 6a 7e ec d3 75 c4 3f fd 44 5b b9 04 d5 c4 3f
       0.1598458199267365 0.16275080729113958
0004b0 c4 2b 97 38 3f 43 c4 3f c7 6a 4b 62 34 00 c5 3f
       0.15830221427162716 0.1640687446550457
0004c0 c4 ad 5f a8 82 3e c5 3f 8d 9f 75 a8 44 22 c5 3f
       0.16597016545652654 0.16510828233299116
0004d0 06 81 ac 80 be d5 c4 3f b9 ec 1e 28 da 5e c4 3f
       0.16277295382406737 0.15914465865157526
0004e0 36 79 93 bf 87 94 c4 3f 89 b1 19 91 34 e0 c4 3f
       0.16078278402614793 0.1630922039506795
0004f0 bd 11 28 a0 91 5b c6 3f e2 d2 e9 dc cd 7e c6 3f
       0.17466945953505145 0.17574475561891406
000500 70 8f 75 68 61 34 c5 3f a2 05 68 ef bf 42 c1 3f
       0.16566102600620125 0.1348495406128168
000510 d8 aa 63 71 d3 8c c1 3f 88 07 f7 85 98 a7 c1 3f
       0.13711016689861455 0.13792711774118183
000520 30 7b f3 8c 2b ce c1 3f 03 e5 5f d0 7c f3 c1 3f
       0.13910431272867063 0.14024315046825828
000530 7d 8e df 1f a8 f2 c1 3f 3a 78 76 e9 33 e6 c1 3f
       0.14021779590904151 0.13983773135709204
000540 4f f7 de 9a 61 d8 c1 3f e3 2d e5 47 52 c4 c1 3f
       0.13941593229349755 0.13880375395306918
000550 a3 42 2a f9 d9 9e c1 3f 6d 4c a9 9b 02 8d c1 3f
       0.1376602617861141 0.13711578941965588
000560 fc 16 a7 4c f3 ba c1 3f b4 29 f2 62 a9 c0 c1 3f
       0.13851777308280322 0.138692067445232
000570 96 70 f5 6b b2 e7 c1 3f 29 60 51 ab e8 27 c2 3f
       0.13988333007262516 0.1418429218781523
000580 80 29 65 83 c6 67 c1 3f 4f 8c 9c a4 05 4e c1 3f
       0.1359794751718475 0.13519354379340817
000590 9e da 00 08 f0 5a c1 3f 70 8d ba 61 de 1a c2 3f
       0.13558769598758585 0.14144496700201215
0005a0 fd 20 a0 b6 63 e1 c1 3f 8e 5c 07 b6 89 b6 c1 3f
       0.13969084183941752 0.1383831156551633
0005b0 fe 8b 43 f7 29 5a c2 3f fc 36 d2 3c ce 5c c2 3f
       0.14337658475332654 0.14345720262320316
0005c0 06 08 a6 20 d8 e9 c2 3f 23 7a 8e 62 17 4c c3 3f
       0.1477613601128384 0.15075962364513015
0005d0 8a 0f 79 c9 09 0e c2 3f f7 4d 27 e9 21 df c1 3f
       0.14105341279548284 0.13962196239900468
0005e0 44 48 74 d2 0d 0e c2 3f 22 af c0 17 93 e1 c2 3f
       0.14105389381490074 0.14750898990438893
0005f0 ff 81 2f 4a 49 9f c2 3f a2 52 3b 5f 3a 63 c2 3f
       0.14548603174536365 0.14365319871889876
000600 09 73 84 fb 63 0f c3 3f 44 08 67 d4 19 21 c3 3f
       0.14890718251344762 0.14944765921797132
000610 e4 00 50 f7 92 b0 c3 3f 35 fa a7 88 51 ca c3 3f
       0.15382611347013786 0.15461177036918775
000620 3a 9e a2 c7 b5 e9 c2 3f f3 96 a5 e7 c2 a4 c2 3f
       0.14775726554693042 0.14565311728363603
000630 ca 6f ee 12 a2 dd c2 3f 0a 8b d6 3b b0 dd c2 3f
       0.14738870548614919 0.14739039346485355
000640 0b 40 b6 e0 19 19 c3 3f a3 55 ad 9f c1 24 c3 3f
       0.14920352432500325 0.14955921456082164
000650 08 b5 70 83 e3 c2 c3 3f 0a e2 df f2 23 df c3 3f
       0.15438503187161978 0.15524720534428155
000660 f2 6d de 69 b6 bb c4 3f 22 32 a0 f6 72 db c4 3f
       0.16197853249910527 0.162947054312455
000670 ad d6 b2 98 f4 db c3 3f 7f c0 71 f0 67 5b c3 3f
       0.15515000778184654 0.15122699013182125
000680 2f 9e 84 8c 84 a2 c3 3f 8b c4 e9 c0 66 81 c3 3f
       0.1533971487162815 0.1523865167578474
000690 03 ff a7 60 e9 c4 c3 3f 54 c2 67 02 bd d7 c3 3f
       0.1544467660860321 0.15502131097265937
0006a0 41 b7 ed ef 0e 6f c4 3f d7 94 30 aa 47 79 c4 3f
       0.15963923182737896 0.159951170063471
0006b0 7d ff ae 15 ac dc c5 3f 3a d6 11 07 fa 06 c6 3f
       0.17079688128250928 0.1720879110832117
0006c0 18 60 01 55 a8 96 c4 3f 69 b9 9a 5d 04 1b c4 3f
       0.16084770346310573 0.1570744950344747
0006d0 87 05 7e eb df 23 c4 3f ee e9 6e 4d 4d 3d c4 3f
       0.15734480856557928 0.15812078743859054
0006e0 56 77 0c 7d 78 66 c4 3f a4 63 9a 95 0a 7b c4 3f
       0.1593771563138328 0.16000492386663467
0006f0 4d d0 74 47 97 46 c5 3f c5 0f f5 3b 43 61 c5 3f
       0.1662167643459064 0.1670307200203053
000700 d4 6a 87 a5 3e 5f c7 3f a9 8a 68 28 f0 8b c7 3f
       0.18259413797826218 0.18395807240547882
000710 d0 8f 5a 29 68 9f c5 3f b2 b6 27 5e ba 3a c5 3f
       0.16892721194483196 0.16585473630350617
000720 0e f4 5f 00 2f f0 c4 3f fe 60 0b b4 47 da c4 3f
       0.163579821761147 0.16291137973053788
000730 da ce 07 47 5b 07 c5 3f 61 ca 31 2d 41 69 c5 3f
       0.16428700416837821 0.1672746153522722
000740 ff 39 74 ab 3e 16 bf 3f af 07 3c 41 5c 12 c0 3f
       0.12143317876709857 0.1255603140380663
000750 a8 8b 31 ee 5b 58 c0 3f bc cc 79 b0 66 77 c0 3f
       0.1276965058378583 0.1286438333223482
000760 6f 3f c8 df 14 88 c0 3f 01 32 0f 14 4f 96 c0 3f
       0.1291528790175067 0.1295870635934904
000770 a5 98 9a b4 27 6f c0 3f fc f6 18 12 d0 59 c0 3f
       0.12839218443440817 0.1277408684126654
000780 f2 96 28 01 69 6f c0 3f 60 1d 21 3a dc 65 c0 3f
       0.12839996868677123 0.1281085285029162
000790 18 0b f9 9e b5 2a c0 3f 64 ce 08 26 2c 19 c0 3f
       0.12630338919014927 0.12576820237301256
0007a0 21 fc 43 45 46 56 c0 3f ee 3f fb 72 e7 c0 c0 3f
       0.12763288862331115 0.13088696588829357
0007b0 28 ae bf 8b 87 f3 c0 3f a4 c0 49 ca e8 c1 c0 3f
       0.13243192981404772 0.13091764333103584
0007c0 2b 93 17 90 be 60 c0 3f 1e 4b 07 20 4d 43 c0 3f
       0.12795240436312247 0.12705387176409827
0007d0 d2 24 47 62 00 9f c0 3f 30 4f 20 e1 da 88 c0 3f
       0.12985234068609103 0.12917648308268204
0007e0 92 5f 1a b8 59 4d c0 3f 15 ce db d0 b5 cc c0 3f
       0.12736054887204468 0.13124726007627943
0007f0 58 7e 02 96 b1 0c c1 3f 1d bc 90 e7 74 89 c1 3f
       0.1331998808354793 0.13700734431174136

running_var f8 [376]
000000 3c f6 91 c8 e4 f8 94 3f b3 d0 69 5a ef bb f4 3f
       0.020480704061347263 1.2958825618525622
000010 1a 93 47 39 de 4b b5 3f cf 2e ae c3 fc 80 07 40
       0.08318890474727106 2.937982109788073
000020 84 10 1f 9e 8c e1 cf 3f 7b d9 db 3f 01 c9 cf 3f
       0.24907071800965153 0.24832168214897962
000030 99 1c 2f b0 29 fb cc 3f 8f 44 17 93 f1 82 cc 3f
       0.22641488173232885 0.22274608308956487
000040 76 05 a8 72 f1 72 76 3f 45 f0 6c 41 22 ea 62 3f
       0.005480712085501485 0.00230890932598807
000050 3f fd 2e f2 3c ae 6b 3f a0 d0 a4 29 55 7c 76 3f
       0.003378981623853555 0.005489666620906913
000060 60 41 f4 51 88 1d 60 3f b5 33 01 31 9d b3 6a 3f
       0.001967207193622908 0.003259474768162874
000070 a6 4e e9 bc d7 cd 72 3f 81 59 5e 20 f0 6c 63 3f
       0.0045908381712994936 0.002371281620933974
000080 c5 e4 1d 95 1a 1e 66 3f a0 68 06 51 5e 78 72 3f
       0.0026999015034872864 0.004509323524326231
000090 d6 fd e0 ae cb 82 65 3f e7 6a a0 23 b3 58 66 3f
       0.0026258447824429694 0.002727842217621446
0000a0 32 4d 7e db f7 6e fc 3f a4 54 bd 26 24 b7 e2 3f
       1.777091843982657 0.5848561054832726
0000b0 a5 93 df fb 9f 0c e3 3f ca 40 ed af 81 1e fc 3f
       0.5952911300088216 1.7574478981151054
0000c0 3b 15 96 cb 93 ea e1 3f 55 94 ab 55 aa 66 e3 3f
       0.5598849273962182 0.6062823937651368
0000d0 63 01 2f f8 ba 6e f0 3f 41 e0 bc e1 09 10 dc 3f
       1.0270337767288644 0.43847891850191806
0000e0 35 d5 98 ed 95 15 d4 3f 72 13 a8 26 b0 86 f0 3f
       0.31381748392898895 1.032882834436546
0000f0 37 41 d3 60 52 99 dc 3f fb c5 cc e6 ef 06 d7 3f
       0.4468580194052438 0.3597984079270586
000100 bc 42 c1 25 ff e6 cf 3f 9b 15 9d 29 ff e6 cf 3f
       0.2492369589185922 0.24923696071543308
000110 9b 15 9d 29 ff e6 cf 3f bc 42 c1 25 ff e6 cf 3f
       0.24923696071543308 0.2492369589185922
000120 11 21 12 c1 6b 65 90 3f f2 f4 50 25 14 24 87 3f
       0.016011890086276518 0.01129928339843864
000130 0e bc fe e3 e4 39 90 3f a1 d4 c9 c3 6d a0 88 3f
       0.01584584847995179 0.012024743592727484
000140 54 d3 77 49 4a 5e 84 3f b6 da 3f e7 d1 08 7c 3f
       0.009945469252650753 0.006844348845325745
000150 56 f6 b1 87 7f df 84 3f 64 84 d1 5f b1 09 7d 3f
       0.010191913918102074 0.007089321964572102
000160 d4 e4 b2 b4 c6 b3 9d 3f a0 23 d4 19 1b 86 94 3f
       0.029006104258517976 0.020042823268372367
000170 df b1 66 03 67 05 99 3f db 5e a1 38 8f f5 90 3f
       0.02443467100390417 0.016561734992449267
000180 03 f2 58 cc 7e c3 17 40 f8 83 c6 b3 4d 2d 1c 40
       5.9409133843696535 7.04424172305243
000190 93 1e 9e 0c 09 48 0f 40 33 27 a4 a7 22 c6 18 40
       3.9101735101465436 6.19349157275592
0001a0 66 27 66 01 75 b4 1c 40 58 4e 64 91 2e cd 0e 40
       7.176227590427379 3.8501864775405856
0001b0 60 5a c1 a3 17 fb 13 40 24 c0 cd ae 45 14 16 40
       4.995207365681011 5.519797068889634
0001c0 00 8c e1 9c 91 64 05 40 1a 61 55 84 a5 fc 13 40
       2.674105859406609 4.996725146971835
0001d0 2b 23 0c a3 4b 19 15 40 af 44 27 3b bf 72 06 40
       5.274702594390685 2.80602880681598
0001e0 85 4a 7b b5 d6 d9 c3 3f 46 44 e1 fc 12 f4 c9 3f
       0.15508540975004706 0.20276105258611404
0001f0 79 de fb d0 f9 3c 9b 3f 6c ce 40 1f f2 be dc 3f
       0.026599791889536626 0.44915440609040647
000200 6e f5 65 74 cb d5 da 3f 7a f4 7d 78 ad b0 dc 3f
       0.4192989956571499 0.4482835461311151
000210 da d2 7d 07 19 9c dd 3f 22 f6 17 66 7d 53 d8 3f
       0.4626524518164793 0.3800958153732116
000220 83 32 22 0b 2c 3f dc 3f 8a 19 ba 3a c2 c8 de 3f
       0.4413557156301879 0.481003339148082
000230 46 ba f8 83 de 04 db 3f a6 81 29 4e 34 28 d7 3f
       0.42217219245768367 0.36182887681027365
000240 a0 a5 88 59 bb fb e0 3f f1 fb c9 f8 6e fc db 3f
       0.5307289837557398 0.4372823171215137
000250 76 e7 94 68 85 0c d8 3f f3 bf fb cf 14 d4 c3 3f
       0.3757642289452784 0.1549097075981077
000260 0a 73 ed 5e 08 0b ca 3f 5e cc bd 63 f4 17 9c 3f
       0.2034616912377703 0.027435129726154243
000270 26 c6 a2 83 0e b6 dc 3f d3 c8 cf 34 69 ce da 3f
       0.4486118588930331 0.41884832532299504
000280 fc 08 ef 39 c8 a7 dc 3f 5a c8 e3 d9 7e 92 dd 3f
       0.4477406087645617 0.46206637647913384
000290 c8 fd 20 c6 f1 4a d8 3f f4 33 ea b3 f8 35 dc 3f
       0.379574244961955 0.4407941586476334
0002a0 b5 59 1a 75 df be de 3f 5a 7f 89 bf fa fc da 3f
       0.48039995609124314 0.4216906424026
0002b0 be 92 d5 e2 74 1f d7 3f d1 0b 3b 9d b6 f6 e0 3f
       0.36129495765480246 0.5301163741026987
0002c0 59 84 72 20 42 f3 db 3f 37 5e 72 2d bb 03 d8 3f
       0.43672230881390345 0.3752277320686263
0002d0 0b 4c aa 5d 3a 7a b3 3f 92 6d 22 f9 fc 15 b4 3f
       0.07608380114315609 0.07846051294693826
0002e0 c4 81 6b 15 33 4d b4 3f e2 95 e9 5f 55 5c b4 3f
       0.07930297158191651 0.07953389731991181
0002f0 6a 7c 2c ba 0a 48 b4 3f 65 42 56 04 ca 19 b4 3f
       0.07922427220590725 0.07851851087458213
000300 b4 ee 30 fe cb e6 b3 3f 28 95 61 69 e8 cf b3 3f
       0.07774043041075168 0.07739117214949387
000310 15 f0 87 11 c3 fd b3 3f 6d 09 08 43 9f 14 b4 3f
       0.07809085062029937 0.07843966852673186
000320 54 ae 05 9f 66 07 b4 3f 21 89 02 83 30 a8 b4 3f
       0.07823792822244374 0.0806913680885697
000330 47 9b 3c 16 17 ec b4 3f 06 6c 31 49 18 1e b5 3f
       0.08172745030297533 0.08249046122493561
000340 20 61 3f 81 bd 03 b5 3f 79 c9 a0 02 bc 21 b3 3f
       0.0820883217378463 0.07473349632417649
000350 1d 8d 69 82 89 a0 b2 3f 1a ab c4 07 1c 64 b2 3f
       0.07276210245031618 0.07184004964498705
000360 2b 1d 3c d1 d1 b4 b3 3f cf 02 f6 14 13 dd b3 3f
       0.07697783811828589 0.07759207975142178
000370 b6 ba 1f 4f f8 2d b4 3f e8 c2 6b a0 f0 b5 b5 3f
       0.07882644588219531 0.08480743328596996
000380 9a 8a 3c 4c a1 17 b6 3f 01 ae 7f ff 47 29 b6 3f
       0.08629806624643735 0.0865674017692797
000390 fd 0f c6 5a 1a 37 b6 3f 31 82 f7 76 fa 48 b4 3f
       0.08677830425409634 0.07923856167281752
0003a0 6c 12 93 90 01 70 b3 3f 37 97 24 17 22 3e b3 3f
       0.07592782764101863 0.0751668268681812
0003b0 c7 d4 00 91 08 dc b4 3f 38 6c 4e c9 3d e6 b4 3f
       0.08148244419210747 0.08163820423799073
0003c0 46 8e 71 d3 a4 05 b5 3f f5 a7 1e 7c 5b be b6 3f
       0.08211736833759983 0.08884212284343092
0003d0 ab ab 47 90 fd 19 b7 3f 72 49 b2 fd 8c 02 b7 3f
       0.09024033329448737 0.08988267129669739
0003e0 a3 d3 b5 2a 30 32 b6 3f 03 98 56 b9 fe 66 b5 3f
       0.08670331042033168 0.08360282921657362
0003f0 e3 d4 c0 dd d8 55 b4 3f 65 cc 43 f0 ab 87 b4 3f
       0.07943492330453554 0.08019518485871087
000400 18 4b 3f e2 e0 34 b5 3f 93 44 74 74 b3 08 b6 3f
       0.0828381111489701 0.08607026665801447
000410 2e 11 56 a2 a3 10 b6 3f 12 45 b2 f8 8d bc b7 3f
       0.08619139397894024 0.0927208645027984
000420 52 2c ec d3 5d f8 b7 3f 8d fa c8 db a3 0d b8 3f
       0.09363352226152813 0.09395813098761092
000430 bc 89 4b fa df 30 b7 3f 0d a9 77 21 3b 5b b6 3f
       0.09058952198714726 0.08732957427097095
000440 75 ef 25 11 cf 8a b5 3f 10 e1 57 85 16 e6 b5 3f
       0.08414930504471647 0.08554211383296129
000450 bd 6b 25 6b 49 c3 b6 3f fe 0e ae 93 ab 80 b7 3f
       0.08891733995316904 0.09180710177866655
000460 1b 56 3b 9a 22 21 b7 3f 3f 60 6a 06 5a a1 b8 3f
       0.09034935250687008 0.09621203095082452
000470 2d 1f d2 db 54 a3 b8 3f 25 40 5c 54 84 0e b9 3f
       0.09624224058836424 0.09787776050166082
000480 4a cd cc 40 5d 54 b8 3f 92 e4 e4 e0 6c 29 b7 3f
       0.09503729660064156 0.09047585001543926
000490 17 1b 50 06 ab f4 b6 3f 2f 52 a5 3f da 50 b7 3f
       0.08967083839534627 0.09107746175625019
0004a0 6c 16 92 7c 20 8d b8 3f 2b 14 17 d3 d0 09 b9 3f
       0.09590342561031101 0.09780602601593162
0004b0 52 55 eb 0b 60 33 b8 3f 17 8b cd 9a 28 70 b9 3f
       0.09453392306325739 0.0993676546036507
0004c0 8f 55 4e 67 49 b5 b9 3f 63 93 5a 8b 62 b1 b9 3f
       0.10042246601218195 0.1003629293650881
0004d0 a0 b7 69 53 6c 46 b9 3f 46 ef 2a 1a 2f 82 b8 3f
       0.09873082195710348 0.09573645008907503
0004e0 ae 45 1e d2 c3 f2 b8 3f 63 f8 0a 2a 4b 48 b9 3f
       0.09745429878082376 0.09875936294972258
0004f0 47 f3 81 af 75 60 bb 3f 31 91 c9 61 7d 89 bb 3f
       0.10694060835699047 0.10756667745005612
000500 70 21 95 dd 0a ac b9 3f fa d3 c8 0d 20 89 b2 3f
       0.1002814093564035 0.07240486465964571
000510 9f 94 7f 9f 18 03 b3 3f f4 98 e1 5b 56 24 b3 3f
       0.07426599401476829 0.07477321379846896
000520 99 e4 2a 70 9f 5f b3 3f b1 44 51 4e 21 96 b3 3f
       0.0756778382154998 0.0765095535473559
000530 5e 73 bb cc d7 96 b3 3f b4 de 88 87 42 94 b3 3f
       0.07652043102593839 0.07648101624442455
000540 4d 8e 0d 17 b8 75 b3 3f e9 05 2f ee 5a 57 b3 3f
       0.07601500094238496 0.07555168452292772
000550 15 5f ba 5d 28 20 b3 3f db 78 47 0d 43 02 b3 3f
       0.07470943725854469 0.07425326418112681
000560 7f 8e 01 1a 97 84 b3 3f 6c 1c 07 9c a3 a3 b3 3f
       0.07624191651262356 0.07671568450233374
000570 08 91 18 98 5a d3 b3 3f b6 7f b6 fc 27 32 b4 3f
       0.07744375432281825 0.0788903228735752
000580 38 a7 f7 de db 26 b3 3f cc 70 34 a4 a6 e5 b2 3f
       0.07481168931522297 0.07381669529826523
000590 b7 fa d9 e4 85 08 b3 3f 67 d0 03 01 32 0c b4 3f
       0.07434880101389295 0.07831108593728829
0005a0 6c 25 b7 0c a5 b6 b3 3f 78 27 31 1c e6 8c b3 3f
       0.07700568733630114 0.07636869610101182
0005b0 03 ef 43 93 d8 8e b4 3f 15 65 bf 58 f1 b5 b4 3f
       0.08030465693803639 0.08090122620287261
0005c0 02 26 7a 80 ae 73 b5 3f 10 b2 0e d4 ec 06 b6 3f
       0.08379641186379419 0.08604316880400398
0005d0 9f 1c 9f ee 8c 4a b4 3f 08 e2 4a 03 f3 dc b3 3f
       0.07926255059929808 0.07759016828902798
0005e0 e2 26 1f 35 32 3a b4 3f 1f 40 a8 71 f2 57 b5 3f
       0.07901300236622036 0.08337321543535879
0005f0 2a 83 73 96 d3 f1 b4 3f 08 11 dc 17 e0 b4 b4 3f
       0.08181497977376453 0.08088493902693383
000600 27 d4 1f 9f 52 b6 b5 3f fc 88 e5 8f 6b f4 b5 3f
       0.08481327423926698 0.08576080573178396
000610 06 ba 7c 4b 6f bf b6 3f aa 68 cd 06 4d eb b6 3f
       0.08885856240224407 0.08952790657113732
000620 0c f9 6c 08 4f ae b5 3f 28 3b 17 6c 55 20 b5 3f
       0.08469099002556763 0.08252462281164397
000630 3d 33 a9 78 72 8a b5 3f c0 2c 54 9e b0 82 b5 3f
       0.08414378591369327 0.0840254198594037
000640 8f 04 08 6b cb d7 b5 3f f5 ad b6 64 cf ef b5 3f
       0.08532401431149793 0.08569046219661643
000650 d4 a4 16 a9 2b d8 b6 3f 2e d7 37 2e 51 20 b7 3f
       0.08923600080619859 0.0903368699872231
000660 ed 16 27 d4 c6 55 b8 3f a2 df 06 c6 5e 88 b8 3f
       0.09505884818562622 0.0958308442558278
000670 2c 83 57 bf 68 27 b7 3f b3 00 28 ae df 49 b6 3f
       0.09044508620673913 0.08706472398626168
000680 e5 67 48 49 5c c1 b6 3f f5 1b b5 e4 28 8c b6 3f
       0.08888794697887155 0.08807616790464563
000690 f9 0e 33 46 3c ed b6 3f b3 72 f7 20 b7 0c b7 3f
       0.0895574256310815 0.09003777079437718
0006a0 49 7c 6f 65 15 f0 b7 3f 0c c8 71 1e 4e 11 b8 3f
       0.09350713468983075 0.0940140556647579
0006b0 7a 09 b2 28 be 00 ba 3f 04 91 64 0e 54 3f ba 3f
       0.1015738343576568 0.10252881385219231
0006c0 34 31 18 48 6b 47 b8 3f 2e f1 57 68 41 7c b7 3f
       0.09483976850623749 0.09173973844003022
0006d0 e3 7a a1 74 c0 8f b7 3f b2 3b 9d 20 87 b3 b7 3f
       0.09203722808295427 0.09258312746281552
0006e0 8c 34 47 ce 24 ef b7 3f 3c 57 77 de 99 0c b8 3f
       0.09349279438102281 0.09394227677634331
0006f0 e2 69 f9 fe 78 6a b9 3f 05 74 4b f5 c7 79 b9 3f
       0.09928089356382189 0.09951448191300478
000700 f2 e5 7c d9 6d 3d bc 3f f4 b5 d9 6d 5f 7c bc 3f
       0.11031233367693696 0.1112727778615506
000710 54 0a 08 14 32 da b9 3f b1 6a 52 49 09 65 b9 3f
       0.1009856509117893 0.09919794120871007
000720 35 60 a1 ef aa d1 b8 3f ff 80 92 e2 29 d6 b8 3f
       0.09694927549696859 0.09701787740278077
000730 8f a8 ba 44 26 13 b9 3f 87 e3 2e 08 fc 82 b9 3f
       0.09794844797093759 0.09965491485389864
000740 06 02 3d bb 82 d2 b2 3f 6b e6 a3 5d 75 af b3 3f
       0.07352463790176253 0.07689603363169233
000750 e2 a9 45 48 8c 15 b4 3f a8 d6 09 da bb 48 b4 3f
       0.07845379604774608 0.07923482964710138
000760 a5 20 40 fa 0b 61 b4 3f b9 ad 23 ef 57 76 b4 3f
       0.07960581645613958 0.0799307783924438
000770 a3 dc f9 58 9a 4a b4 3f 51 8a e9 11 78 16 b4 3f
       0.07926335022226509 0.07846785008727265
000780 4a 52 69 c6 99 37 b4 3f ac 6f c1 13 77 29 b4 3f
       0.07897339910534487 0.07875770790400222
000790 06 7c f9 72 db ca b3 3f 47 db e6 67 bf 01 b4 3f
       0.07731410557742899 0.07815166746773371
0007a0 dd bd d4 66 c1 6d b4 3f f5 78 04 cc 1a ef b4 3f
       0.07979973564646721 0.08177344780822067
0007b0 31 ee 01 fc 54 3a b5 3f fb cd 19 a9 c9 0d b5 3f
       0.08292132523086405 0.08224163416326029
0007c0 80 63 59 98 41 6c b4 3f c2 ea 1a e6 84 68 b4 3f
       0.07977685899221676 0.07971983545113928
0007d0 2a b7 be e2 d8 dd b4 3f 34 0b d1 a7 f8 ba b4 3f
       0.08151011977926417 0.08097795579037098
0007e0 ce 41 c8 a6 31 70 b4 3f cb b0 a3 5d d0 36 b5 3f
       0.07983694383461357 0.08286764417761387
0007f0 a1 33 b9 e5 ef af b5 3f 5d 98 1e 07 c6 3d b6 3f
       0.08471583708269616 0.08688008951011868

count f8 []
000000 00 00 10 00 a3 e1 f1 41
       4800000001.0

running_mean f8 [1]
000000 6d 63 40 57 38 73 6e 40
       243.60062754226547

running_var f8 [1]
000000 ef 90 b3 2c 1d 68 c2 40
       9424.22792667939

count f8 []
000000 00 00 40 00 a3 e1 d1 41
       1200000001.0

a2c_network.sigma f4 [15]
000000 52 10 21 c0 f0 8d 01 c0 6a 4a e5 bf 98 36 aa bf
       -2.516621 -2.0242882 -1.7913334 -1.3297911
000010 d9 35 b9 bf a1 71 cd bf 48 5e aa bf 61 3c c7 bf
       -1.4469558 -1.6050302 -1.3310022 -1.5565301
000020 39 c1 c3 bf a8 cd ae bf 07 cc b3 bf 54 ad f5 bf
       -1.5293342 -1.3656511 -1.4046639 -1.919352
000030 58 7c a5 bf c8 e2 c7 bf b4 90 e5 bf
       -1.2928572 -1.5616083 -1.7934785

a2c_network.actor_mlp.0.weight f4 [128, 376]
000000 96 00 44 be 48 b7 d6 bd 8c f8 c4 3e ba 8b 91 3a
       -0.19140849 -0.10484177 0.38470876 0.0011104264
000010 8e dd 85 3d da 16 07 3e 67 b7 53 3d 0f 5f ae 3d
       0.06536399 0.13192311 0.051688578 0.08514225
000020 fd 94 25 bc 0e ae d8 bd d7 cf 39 3e d0 4a 43 be
       -0.010106322 -0.10580073 0.18145691 -0.19071507
000030 30 77 c9 3d b6 ed 32 3e 1c 38 5d 3e d3 0a 64 bd
       0.09837186 0.17473492 0.21603435 -0.055674385
000040 79 cc a1 3d 65 93 f9 3e a7 5a b3 be 05 5e ac bd
       0.07900328 0.48745266 -0.350301 -0.0841637
000050 5c 59 81 3c 44 87 68 3e 70 0c f2 3b 69 1f 9c bd
       0.01578968 0.2270785 0.0073867366 -0.076231785
000060 20 3f 61 3e 9a 4e c5 3e 9a 21 3e be 78 ed 1b 3e
       0.21996737 0.3853653 -0.18567505 0.15227306
000070 9c aa c2 3c bd dd ae bd 70 05 15 3c 7b 36 c1 bd
       0.023762994 -0.08538387 0.009095535 -0.094342194
000080 26 df 34 3e ca 6f 2a be e5 20 66 be 16 d8 3f 3e
       0.1766325 -0.16644207 -0.22473486 0.18734774
000090 2d 58 1e 3f 8c 0c 10 be c7 cf 38 bf 76 fe ff be
       0.61853296 -0.14067286 -0.72192043 -0.49998826
0000a0 3a e4 db bd fb c5 ec 3e 6d 99 b8 3f e4 73 ae 3f
       -0.1073689 0.46244797 1.4421822 1.3629117
0000b0 b2 94 d5 be e0 41 e4 bd 6b 0d ad bc b0 f4 b3 3e
       -0.41715008 -0.11145377 -0.021124562 0.3514762
0000c0 5a 96 99 3e c5 ff bd bd cd 9a 33 3d f7 1b 23 be
       0.29997522 -0.092773 0.0438488 -0.15928636
0000d0 59 68 43 bd 25 8d 6c 3d 28 de 2f 3d bc 24 a8 3e
       -0.047706936 0.057751793 0.042936474 0.32840526
0000e0 fa ab 87 be b8 9d 8b 3d a1 4e 7a 3e 56 63 10 be
       -0.26498395 0.06817192 0.24444057 -0.14100394
0000f0 92 4e 93 3e cd b0 7a be b6 13 47 be 69 eb 07 be
       0.28770882 -0.24481507 -0.19441113 -0.13273396
000100 9c 30 ae 3d 2a 24 bc 3d 42 ce 18 be 34 72 ee bd
       0.08505365 0.09186585 -0.14922431 -0.11642876
000110 1d 0f 58 be a3 3b e0 3d 91 39 a1 bc 34 e5 9f 3d
       -0.21099515 0.10948875 -0.01968077 0.07807389
000120 5b b0 81 bd eb 28 9d bd 2e 5b 1d 3e 1a 83 96 3c
       -0.06332465 -0.0767382 0.15366814 0.018373061
000130 d0 3e dc bc be 8d e5 bd bf 52 c0 bd 23 e3 8d 3e
       -0.02688542 -0.11208676 -0.093907826 0.27712354
000140 74 57 1e bc 93 df d9 bd b2 36 17 be 3a c7 0e be
       -0.009664405 -0.106383465 -0.14766958 -0.13943186
000150 85 3b fa bc c5 fb 76 3d 6b ab 1b be e8 f7 25 bd
       -0.03054596 0.0602987 -0.1520211 -0.040519625
000160 31 86 7a be 53 3a 31 3d 94 47 a3 bc 2b 22 a3 bd
       -0.24465252 0.043268513 -0.019931592 -0.079655014
000170 ad 4d 72 bd cf e2 59 bd d5 a6 19 bc 51 a4 b0 bb
       -0.05915611 -0.053194817 -0.009378155 -0.005390682
000180 d8 10 ff bd 7e 77 73 be 60 4d 4b bd 3d da 39 be
       -0.124543846 -0.23776051 -0.049634337 -0.18149658
000190 78 49 13 be ea 8d b3 bc 59 55 8b be bc 05 64 3b
       -0.14383495 -0.021918256 -0.27213553 0.0034793457
0001a0 68 8f 3d be a0 98 a2 3d a7 37 a6 3d 8c 96 bf 3d
       -0.18511736 0.07939267 0.081160836 0.093548864
0001b0 11 45 1f be d1 f9 49 3c 61 00 83 bb fc 51 96 3d
       -0.1555369 0.012327627 -0.003997848 0.07339856
0001c0 05 a7 5a 3c ad 46 9d 3d 11 28 a9 bd f9 0c 7c 3d
       0.013345485 0.07679496 -0.08259595 0.06153581
0001d0 10 91 5c 3d 0c 90 00 be e2 0e ce bd 67 95 51 3d
       0.05384928 -0.1255495 -0.100614324 0.05116787
0001e0 16 4f 03 be 35 7e 41 3d 97 40 ae 3d 19 e1 86 bb
       -0.12823138 0.0472395 0.08508413 -0.004116189
0001f0 80 c7 bf bc 9a 2f 05 3d 5c 3d bf 3d 27 4c d4 bd
       -0.023410559 0.0325161 0.09337875 -0.103660874
000200 e0 49 ae 3c 44 a3 a0 3c bb 35 01 3e 3e bb 41 3d
       0.02127546 0.019609101 0.12618153 0.04729771
000210 4f c2 02 bd 32 b8 7d bd 58 02 dc bd a1 0e 88 bd
       -0.03192359 -0.06194324 -0.107426345 -0.06643415
000220 75 81 7c 3d 45 d7 5d 3d e1 1d 08 3e c6 00 3f 3d
       0.061646897 0.054160375 0.13292648 0.046631597
000230 86 d3 fa 3d 3d 7c 46 3d ed 0e 8f bb 13 6f 37 3b
       0.12247376 0.048458327 -0.004365793 0.002798979
000240 dc 20 16 3e 2c 01 a6 be 3c c1 87 3c 68 ea 70 be
       0.14660972 -0.3242277 0.016571634 -0.23526919
000250 13 bc 2e 3d 20 68 8c 3d 43 e4 dc 3c f9 9e ef 3d
       0.04265983 0.06855798 0.026964312 0.117002435
000260 6e 63 a6 3d 06 68 2c be 5a a3 37 3e ae 5d d7 3d
       0.081244335 -0.16836557 0.17933407 0.10515915
000270 54 a9 6b be c7 b9 d9 3d f1 c1 36 3d 54 e0 45 3e
       -0.23013812 0.10631137 0.04461855 0.19323856
000280 f4 50 b0 bd 77 d5 13 3c b2 d5 79 3d aa 9f fe 3d
       -0.086091906 0.009023062 0.06099481 0.12432797
000290 0b 11 9e 3d 5c ce b9 3d f7 e7 0d bd 18 ac 08 3e
       0.077180944 0.09072563 -0.034645047 0.13346899
0002a0 ab 35 49 be 73 da 12 3d 99 c2 c7 3c af 88 dc 3d
       -0.19649379 0.03585286 0.024384784 0.10768258
0002b0 07 46 7e bc 4d b3 dd bc 1a 17 c3 bd fa 15 05 be
       -0.0155196255 -0.027063036 -0.09525891 -0.12996665
0002c0 04 32 59 3d 11 8d 02 bd 66 e6 bc bd a6 fc 19 bc
       0.053026214 -0.031872813 -0.092236325 -0.009398615
0002d0 17 0e f7 3b 1f c1 84 bd e1 8e c9 bc d1 18 05 3e
       0.0075395214 -0.064821474 -0.024604263 0.12997748
0002e0 98 6f 99 bd 5f ac b9 bd 2c 82 94 3d 56 e8 e1 3c
       -0.07491988 -0.0906608 0.07251391 0.027576607
0002f0 d9 71 f4 bc ee 96 38 3d f7 f6 da 3d e9 9a 80 3c
       -0.029839443 0.045065813 0.10691636 0.015698867
000300 1e b1 0d 3d 30 e8 22 3b 11 ce 80 3d 75 c2 09 3e
       0.03459274 0.0024857633 0.06289304 0.13453086
000310 54 c0 39 bc 3c 8c 84 bd 11 46 b4 3c 21 2f e5 bd
       -0.0113373585 -0.0647206 0.022006067 -0.1119063
000320 09 7f 26 be 18 6e 2d 3d 1f a4 aa 3d 09 a3 38 be
       -0.16259398 0.04234132 0.08332085 -0.18030943
000330 9d 56 50 bd f7 b6 f0 3d ac ca 0d be 07 d5 85 3d
       -0.05086385 0.11753648 -0.13846844 0.06534772
000340 1a 54 ca 3d 84 fd aa 3d 33 ec bf 3d 59 01 ad 3d
       0.09879322 0.083491355 0.09371223 0.08447523
000350 87 8e 7f bd 70 de 60 3a 00 9c 31 bd e5 24 04 3c
       -0.062391784 0.00085780676 -0.043361664 0.008065437
000360 b0 f5 08 be 8a 1c b3 bd a9 4a e1 3d 4e 5e 39 be
       -0.13374972 -0.08745678 0.110005684 -0.1810238
000370 73 b5 bc 3c 0a 59 80 bc 24 dd 38 3e a4 c1 1a 3d
       0.02303574 -0.015667457 0.18053108 0.037782326
000380 b2 7a cc 3c 24 7e d3 3d 49 0b 0a be be c2 9c be
       0.02496085 0.10326794 -0.13480867 -0.30617326
000390 2e fa 28 3e e3 50 71 bc c6 d8 30 3e ef 0a 6c 3c
       0.16501686 -0.014728758 0.17270193 0.014406904
0003a0 23 79 cf bd ae e7 47 3d 9a 61 91 3d 44 5c b1 bd
       -0.10130527 0.04880493 0.07098694 -0.086601764
0003b0 b0 e9 2c 3c 8f f7 a4 3d 5d 77 38 3d 0f d5 81 3d
       0.010553762 0.080550306 0.04503571 0.06339466
0003c0 6d 8b f8 3d 22 2a d7 3d 4e 5b 69 3d 22 c3 26 bd
       0.12135968 0.10506083 0.05697184 -0.040713437
0003d0 46 a9 05 3d 45 25 e3 3d 69 04 a6 3d 5a 47 06 be
       0.032632135 0.11091093 0.0810631 -0.13113156
0003e0 2b 27 9c 3c 90 3d 9e bd 13 3b 37 bb d8 39 03 bd
       0.019061645 -0.07726586 -0.0027958795 -0.032037586
0003f0 2b 0c 09 bd 14 ce 02 3e 9d 60 df 3d 2e 03 99 bc
       -0.03345887 0.12773925 0.109070994 -0.018678274

a2c_network.actor_mlp.0.bias f4 [128]
000000 ff 05 84 be a9 d0 54 be b7 42 d7 be 8b 41 a5 be
       -0.25785825 -0.20782723 -0.42043087 -0.32276568
000010 3f 49 16 be bf f6 59 bd 9e 8c 91 be ef 71 55 be
       -0.14676379 -0.05321383 -0.28427595 -0.20844243
000020 bc 77 92 be 3e 5d 87 3c 7e c5 a7 bd b2 87 21 be
       -0.28606975 0.016523954 -0.081919655 -0.1577442
000030 8d 4a 7c be 1c ac 6f be f5 95 f4 bc 97 c2 b2 be
       -0.24637814 -0.23405498 -0.029856661 -0.34914085
000040 5c da 58 3c c0 81 0f be 11 c2 a1 be 8a 03 cc be
       0.013235655 -0.1401434 -0.31593373 -0.3984645
000050 77 98 32 be f1 85 9a be c7 92 a8 be 29 71 b3 be
       -0.17440973 -0.30180314 -0.32924482 -0.35047272
000060 1c 80 44 3d fa bb 69 bd a4 32 79 be e3 0a 86 be
       0.047973737 -0.057064034 -0.24335724 -0.2618018
000070 db 7b 54 bb fe 0f 06 bf 47 37 e6 be 90 fe 6e be
       -0.0032422456 -0.5236815 -0.44964048 -0.23339295
000080 dd 9e ac be 0e 94 15 be 2f 6f 0d be 94 79 2c be
       -0.33714953 -0.1460726 -0.13811944 -0.16843253
000090 fc 93 e8 3d 96 66 69 be 08 7e 7f be 40 5c ad be
       0.11356351 -0.2279304 -0.24950421 -0.33859444
0000a0 0a f6 94 bd 3b 56 a9 be 95 29 5d be 21 95 51 bd
       -0.07273491 -0.330736 -0.21597894 -0.05116761
0000b0 0c ce 55 be da 0f 13 bd 75 84 3b be 6b b9 78 be
       -0.20879382 -0.03590379 -0.18312247 -0.24289481
0000c0 74 2b b4 be dd 83 7c bd 00 4a c5 bd a9 e6 99 bc
       -0.35189402 -0.061649192 -0.09633255 -0.018786745
0000d0 4f 21 47 be 4f 55 8c be 13 e6 00 be 13 f7 a1 be
       -0.194463 -0.27408835 -0.12587766 -0.31633815
0000e0 e4 78 9a be da f5 9a be d0 63 a5 be 9a 0c 8e be
       -0.30170357 -0.30265695 -0.32302713 -0.2774399
0000f0 4c 34 51 be e1 46 09 3d 7c a2 82 be 8e e2 ae be
       -0.20430106 0.03351486 -0.2551459 -0.34157223
000100 ef 8e 70 be 91 ab 6c be d9 51 4d bd 3c 4c fa bd
       -0.23492025 -0.23112322 -0.050126884 -0.12221572
000110 1d 68 c8 be 7b 51 ab bd 16 ff 05 3e 14 aa d1 be
       -0.39141932 -0.083651505 0.13085589 -0.40950072
000120 2b 91 3f bd 63 22 ab be 63 64 64 be 8c 62 ae be
       -0.046769302 -0.33424672 -0.2230392 -0.3405956
000130 a1 16 05 bf 32 d1 b7 bd 2d 92 da bd 3d 0b b6 be
       -0.51987654 -0.08975448 -0.10672412 -0.3555545
000140 c5 65 b5 be 69 db aa be 97 b4 8e be ee 19 16 be
       -0.35429206 -0.33370522 -0.27872154 -0.14658329
000150 88 06 46 be 28 2d 07 bd 24 f1 cb be b0 cd 2d bd
       -0.19338429 -0.03300205 -0.39832413 -0.042432487
000160 29 92 5b be f6 26 0b bf e8 8b 4b be 3b 06 6e be
       -0.21442474 -0.54356325 -0.19877589 -0.23244564
000170 1a 08 e4 bd e6 ee a5 be c4 c7 03 bd c0 ab c3 bd
       -0.11134358 -0.32408828 -0.032172933 -0.09554243
000180 a0 5c 22 be ae 30 3f be f5 8d 5e be 34 f3 df be
       -0.15855646 -0.18670914 -0.2173384 -0.43740237
000190 5d 7b d2 be 26 36 a7 bc 6a 5f 6d be f7 65 4f be
       -0.41109744 -0.020411562 -0.23180929 -0.2025374
0001a0 9a c5 1a be 74 65 8b be 97 26 2b be 98 78 17 be
       -0.15114442 -0.2722584 -0.1671394 -0.14792097
0001b0 5b c2 a3 be 4d 51 41 bd 58 8a 07 bf 26 db d5 be
       -0.3198422 -0.047196675 -0.5294547 -0.4176876
0001c0 66 d1 9b be f0 8f f5 bd 75 bf e6 be f9 f1 19 be
       -0.30433196 -0.119903445 -0.45067945 -0.15033711
0001d0 f1 14 a9 be ce 23 91 be 3f eb 22 3b ae 65 f6 bd
       -0.3302379 -0.2834763 0.0024859456 -0.120311126
0001e0 08 e3 8c be d0 25 22 be 43 8b 86 be 98 f6 4f 3d
       -0.2751696 -0.15834737 -0.26278123 0.05077228
0001f0 d6 b3 ec bd 6a 1b 51 be c6 18 13 be cf 6e b0 be
       -0.115577385 -0.20420614 -0.14364919 -0.3445954

a2c_network.actor_mlp.2.weight f4 [128, 128]
000000 d0 1f f7 3d ac 5f 06 3e f6 85 4b 3d 27 b1 83 bd
       0.12066615 0.13122433 0.049688302 -0.064302735
000010 a1 fd 23 bd 64 ea 6f bd aa 4f 88 bb 52 83 af 3d
       -0.0400368 -0.05857314 -0.0041598873 0.08569969
000020 fc 9e 14 be b9 28 b7 bd 77 d8 2a 3e 65 b7 33 bc
       -0.14513773 -0.08943314 0.16684137 -0.010969018
000030 0d 51 52 be 9e 38 75 bd 17 99 14 be c8 2c 9e bd
       -0.20538731 -0.059868447 -0.14511524 -0.07723385
000040 58 96 b9 bc d5 35 ef bc 30 92 39 be 32 bb 38 bd
       -0.022654697 -0.029200474 -0.18122172 -0.0451004
000050 d4 b1 04 3e 84 69 90 3d 68 c1 1a be 75 e0 59 bc
       0.12958461 0.070513755 -0.15112841 -0.013298144
000060 16 c9 87 bd 43 21 4b be 1c d8 4c bd f6 cf fe 3b
       -0.06630151 -0.19836907 -0.050010785 0.0077762557
000070 1f 29 2a be 02 7b 94 3c 89 0f 9c 3d 6f 2b b4 be
       -0.16617249 0.018125061 0.076201506 -0.35189387
000080 d2 6e 2f be 03 35 e5 bd f5 ff 77 bd d7 3b 8b 3b
       -0.17132118 -0.11191752 -0.060546834 0.004249077
000090 86 7f cb 3d 23 fb 2c bd a1 a6 eb ba 87 16 ac 3d
       0.099364325 -0.04223169 -0.0017978736 0.08402734
0000a0 d9 f6 21 3e 78 4d b6 3d e8 73 f1 3d 54 c3 e4 3d
       0.15816821 0.08901495 0.117896855 0.111700684
0000b0 d2 a4 06 bc ba 86 2d 3c 5c 13 31 3d 38 25 fc bd
       -0.008218007 0.010591203 0.043231353 -0.123117864
0000c0 1b 5e aa 3d 5c 20 62 be 3c 15 e3 bd 2b a6 24 3e
       0.083187304 -0.22082657 -0.110880345 0.16079013
0000d0 32 80 a1 3d 33 39 80 bc 0f 3a 42 bd 1d d4 e0 bc
       0.078857794 -0.015652275 -0.04741865 -0.027444893
0000e0 11 9d 85 bd 31 f4 2e be d9 39 1c bd f0 04 0b 3c
       -0.06524099 -0.17085339 -0.038141105 0.008485064
0000f0 72 9d 81 3d fc 4e 2d 3e d6 e3 1f be 57 f6 51 3d
       0.063288584 0.16924661 -0.15614256 0.05126032
000100 e5 1c ba 3d 67 58 68 3d b6 a0 0b be 2b 70 35 bd
       0.090875424 0.056724932 -0.13635525 -0.044296425
000110 1d 65 07 be 45 93 4e 3d b8 1b a8 bd b4 b4 75 bc
       -0.13222165 0.050433416 -0.08208412 -0.014996696
000120 77 52 04 3e b6 b1 23 be 8e 02 af bd d9 fe 44 3d
       0.12922083 -0.1598576 -0.08545409 0.048094604
000130 94 0e 26 3e 4f 78 e7 bc c6 2c 81 3d fd 1f e1 bd
       0.16216499 -0.02825561 0.06307368 -0.109924294
000140 27 ca 5f 3e 14 e6 37 3d 78 39 d9 3b 37 b3 ab bd
       0.21854459 0.044897154 0.0066291653 -0.08383792
000150 e0 0b 18 be c7 f1 a1 bc 36 c2 ef 3d d8 e1 a6 3c
       -0.1484828 -0.019768609 0.11706965 0.020371363
000160 f0 7a 81 be f0 a1 b2 3c 91 7a 28 bd ac 38 98 be
       -0.25289106 0.021805733 -0.041132513 -0.29730737
000170 d6 37 3d be a2 28 5b 3c 5e f7 6d be f9 de f7 bd
       -0.18478331 0.013376387 -0.23238894 -0.121030755
000180 73 86 7c 3d f0 88 b5 bd e5 64 4a 3d 66 65 e7 3d
       0.06165166 -0.088640094 0.049412627 0.11298637
000190 69 33 8c 3c 5a 2b 03 3e 91 05 87 bd 32 5b 26 be
       0.017114358 0.12809506 -0.065928586 -0.16245726
0001a0 5f 10 b7 bd fc 1c 84 be a7 57 d6 bd c8 11 36 be
       -0.089386694 -0.25803363 -0.10465937 -0.1778022
0001b0 75 08 92 bc db 9d e4 bd b8 5b 3e 3d 5c 60 17 be
       -0.017826298 -0.11162921 0.04647419 -0.14782852
0001c0 6d 3b 3c be 3a 55 30 3d 6d 10 d7 3a ae 15 d1 bc
       -0.18382044 0.04305003 0.0016408094 -0.025523033
0001d0 4c af 93 3d 21 b5 6a 3b 76 56 e1 bd b2 77 36 be
       0.072111696 0.0035813528 -0.11002819 -0.17819098
0001e0 9f 8b 79 bd cc a1 26 be 3f a2 4d bd 70 c8 46 3d
       -0.06092417 -0.16272658 -0.050203558 0.048530996
0001f0 b3 95 bd bd 88 37 b7 bd d0 ee 81 3d 7c e8 84 3d
       -0.092570685 -0.089461386 0.06344378 0.064896554
000200 f1 b7 b3 3d da f7 00 bd 6a 13 90 3d 93 0e 03 be
       0.087753184 -0.03148637 0.07034953 -0.12798528
000210 74 6f 36 3d a7 2e 0d 3d ae e0 93 bd 1a 6c 9d bc
       0.044539884 0.03446832 -0.072205886 -0.019216586
000220 7c d9 4e be d3 08 05 3d 25 53 c5 3d 2b 20 9a 3c
       -0.20200151 0.03247912 0.09634999 0.018814167
000230 a1 a3 89 be 95 4c a4 3d 1e fa 5e be 24 4e df 3d
       -0.2688265 0.08022419 -0.217751 0.10903576
000240 a4 63 03 3c fa eb 21 be 82 67 96 bd 3b 8a 82 bd
       0.008019362 -0.15812674 -0.07343961 -0.063740216
000250 c4 d3 b3 bd 62 c4 78 3d 63 3b 5f 3d 10 0f 17 3e
       -0.087806255 0.06073416 0.054499995 0.1475184
000260 89 a1 c1 bc d8 ff 05 3e 7b 99 93 3c de 50 16 3e
       -0.023636596 0.13085878 0.018017521 0.14679286
000270 2e 82 51 bd 82 b7 c8 bd a4 23 b0 3c a5 98 53 be
       -0.05114954 -0.09800626 0.02150137 -0.20663698
000280 24 52 2a 3d 8b 99 97 bc 77 36 c2 bd 99 cd f8 3d
       0.04158224 -0.018505832 -0.094830446 0.1214859
000290 84 84 df bd fe 2d 22 be fd e2 2d bd c9 2e 64 3b
       -0.10913947 -0.15837857 -0.0424528 0.0034817925
0002a0 36 59 c6 3c e2 84 3a 3d b2 d0 63 be 31 b3 ba be
       0.024212461 0.045536883 -0.2224758 -0.36464837
0002b0 54 01 ef bd c3 39 a2 bd e1 8d ed 3d c0 9d 9c bd
       -0.11670175 -0.079211734 0.11599327 -0.07647276
0002c0 ed f2 8b 3c c1 1f 0a 3d 94 ba e8 bd 69 30 d2 3c
       0.01708361 0.03372169 -0.11363712 0.02565785
0002d0 eb d3 f7 3c f8 bc cb bd 46 31 70 bb 53 d4 33 3e
       0.030252418 -0.09948152 -0.0036650463 0.17561464
0002e0 a5 e7 20 be 4a f3 44 be a9 c6 80 3d b6 4b ba bc
       -0.15713365 -0.19233432 0.062878914 -0.02274118
0002f0 fe 50 98 bd c4 7b 10 bd ff c4 89 3c bd 2c 1f bd
       -0.07437323 -0.035274282 0.016817568 -0.038861025
000300 57 a2 e8 3d 99 79 05 be f5 15 f4 bd 4c 54 eb 3c
       0.11359089 -0.13034667 -0.119182505 0.02872672
000310 4d ce df 3d 34 81 e6 3c 38 e2 6b 3c af c8 39 bd
       0.109280206 0.02813778 0.0143971965 -0.045357402
000320 66 3b d3 be 6e 70 a0 3d 29 c9 35 bb 31 61 9d bb
       -0.41256255 0.07833944 -0.002773831 -0.004802846
000330 d4 52 f5 bd 74 72 77 bc 59 cc 81 bd 3d 78 06 3e
       -0.11978689 -0.015102971 -0.06337804 0.13131805
000340 a2 e5 be 3c 63 ee ef bc d9 bd c4 bd 8a 5b cb bd
       0.023302857 -0.029288476 -0.09606523 -0.09929569
000350 5c 01 49 3d d5 f5 88 bd ed bb e1 bd 47 94 79 bd
       0.049073562 -0.06687514 -0.11022172 -0.060932424
000360 cc 53 d2 bd 7a bc 8a bd 3a fe 0b bc 3e 4f 68 3d
       -0.10269889 -0.0677423 -0.008544499 0.056716196
000370 15 bf a4 3d 74 88 39 bd 35 a1 94 be 2a 08 68 be
       0.080442585 -0.045296147 -0.2902924 -0.22659364
000380 57 d5 08 bd f0 a1 9d bd 08 42 63 3d 92 b8 4b 3d
       -0.03340658 -0.07696903 0.055482894 0.049736567
000390 c8 4b c1 bd cc 9d 66 be 91 50 3b be 41 d5 3f 3e
       -0.09438282 -0.22521132 -0.18292452 0.18733694
0003a0 52 9c 40 be 0b 2b 90 bd 89 de 8c 3d 62 aa f1 bd
       -0.18809631 -0.0703946 0.06878383 -0.11800076
0003b0 24 95 56 bd c6 32 02 3e 93 05 40 3e 5c 67 4e bd
       -0.052388325 0.12714681 0.18752126 -0.05039154
0003c0 db c1 08 3d 5a 20 ed 3d fc fb cb bd 9a 09 c0 3d
       0.033388 0.11578436 -0.099601716 0.09376831
0003d0 20 38 6e 3d 3e 15 55 bd b3 e1 cb bd da b5 a6 3d
       0.058158994 -0.05202221 -0.09955158 0.08140154
0003e0 99 40 57 3d 1d d3 0a bc fd 96 2c 3e 99 8f a1 3d
       0.05255184 -0.008473185 0.16854472 0.07888717
0003f0 af b0 82 be e2 3b ce 3d 0d e4 13 3e ed 1e 37 be
       -0.25525424 0.100700155 0.14442463 -0.17882891

a2c_network.actor_mlp.2.bias f4 [128]
000000 8d af 07 3d fe 0f be bd 52 3a 8e bc d4 91 73 be
       0.033126403 -0.09280394 -0.017361794 -0.23786098
000010 21 be 0a bd e6 80 80 3c da 3c cc be d2 5b 5f be
       -0.033872727 0.015686464 -0.39890176 -0.2181237
000020 4b d2 f0 bd 73 76 3d 3e cb df f2 3c b5 87 dd bd
       -0.1175886 0.18502216 0.029647728 -0.108169
000030 2c 01 ff bd 83 1d d2 3d e4 8a 4f 3e 9e 65 96 be
       -0.124513954 0.10259535 0.20267826 -0.29374403
000040 f7 af 3b 3e dc 7e 6f 3d 51 b5 54 3d eb 5f b6 3d
       0.18328844 0.058470592 0.05193073 0.08905014
000050 15 64 1c be 8a 0b b3 3d 01 27 2f 3e 64 ac a2 3d
       -0.15272553 0.08742435 0.17104723 0.07943037
000060 22 c0 1a 3e 82 62 c4 3d 00 94 0a 3e 2c 64 2a be
       0.15112355 0.095891014 0.1353302 -0.16639775
000070 bf 55 24 3e 2c 58 9b be a8 86 83 be df 2c 2e be
       0.16048335 -0.30340707 -0.25688672 -0.17009304
000080 23 f3 ab bc ed b1 f3 bd fb d6 87 be 14 45 fd bc
       -0.02098996 -0.11899171 -0.26531205 -0.030916728
000090 90 e6 fa 3d a2 3d 04 be 2c 99 48 3e 5e ce cb 3d
       0.122510076 -0.12914136 0.1958968 0.09951471
0000a0 86 15 ab be 28 d1 d9 3d a2 e3 5b be 65 68 43 bc
       -0.3341486 0.106355965 -0.21473554 -0.011926745
0000b0 8d cf 39 be 8b 1c e1 3d 4b 66 f3 3b af a5 fa 3c
       -0.1814558 0.10991772 0.0074279658 0.030596582
0000c0 d2 79 94 be fe 71 d9 3d 23 6b fb bd 63 c0 fd 3d
       -0.28999192 0.106174454 -0.12276294 0.123902105
0000d0 9c 34 88 3d 7b 05 76 be 71 50 b5 b9 f3 15 04 3e
       0.066506594 -0.24025528 -0.00034582944 0.12898998
0000e0 e9 a7 39 3c 64 dc fb bb 7c fe 14 be d8 ca 1f 3e
       0.011331537 -0.0076861847 -0.14550203 0.15604722
0000f0 b8 d1 d1 bd 0a 4d b2 bd 38 65 7b be 61 8d c1 be
       -0.10245079 -0.087061 -0.2455033 -0.37803176
000100 a8 d0 35 be cc f1 89 be ff 76 67 3b c4 04 2d be
       -0.17755377 -0.2694229 0.003531873 -0.16896349
000110 b5 79 af 3d 11 3e 37 bc e6 23 d7 bd d7 64 3d bd
       0.08568136 -0.011184231 -0.10504894 -0.046238746
000120 3e fd e2 bd bb 98 3e 3c ce cc b5 3d 4f 1c 32 3e
       -0.11083458 0.0116330935 0.08876954 0.17393611
000130 28 31 fd 3d 97 04 20 be b3 e5 75 bc c5 a9 eb bc
       0.123628914 -0.15626751 -0.015008378 -0.028767476
000140 64 b3 94 3d 93 88 29 3e 0c 0d f3 3d dd 0a 6a 3d
       0.072607785 0.16556005 0.11867723 0.057139266
000150 d0 bd 5b bd 3b e8 e9 3b 45 97 27 3e e9 78 40 3e
       -0.053647816 0.0071382797 0.16366298 0.18796124
000160 83 00 c8 3d 7b be 44 3e b2 27 ae bd 6a 48 bc 3d
       0.097657226 0.19213288 -0.08503665 0.091934994
000170 b1 41 92 be 48 9d 5c 3e cc 9d b5 bd 86 c1 56 3d
       -0.28565744 0.21544373 -0.08867988 0.052430652
000180 53 b8 23 3d b9 27 49 bd a0 49 2c 3e 4d 3a 11 be
       0.039970707 -0.049110148 0.1682496 -0.14182396
000190 b3 07 39 bd 4b 7c 10 be 74 28 15 3e 36 31 8e be
       -0.04517336 -0.14109914 0.14566213 -0.2777192
0001a0 01 a8 01 3e 85 68 8f be 16 63 c1 bd ac 83 04 be
       0.12661745 -0.2800943 -0.09442727 -0.12940854
0001b0 34 c5 0d 3e 97 d4 70 be 2d 51 06 be 47 aa 11 be
       0.13844758 -0.23518597 -0.13116904 -0.14225112
0001c0 ce 1a e2 3d 8a a4 cf bc 64 db d1 3d c9 9b 01 3d
       0.11040269 -0.025347013 0.102469236 0.03164271
0001d0 4b f9 66 be 24 bd 21 be e0 d7 3a ba 5e b2 61 3e
       -0.22556035 -0.15794808 -0.0007127505 0.22040698
0001e0 d4 93 29 be 0f 43 75 bd 2d 46 86 be 0a aa f3 be
       -0.16560298 -0.059878405 -0.26225415 -0.47590667
0001f0 35 22 05 3e 43 c8 10 be e8 be 7d be 36 fd f2 be
       0.1300133 -0.14138894 -0.24779856 -0.4745881
