python/rlgpu/saved_nn/1234/last_Aliengoep=8250rew=[1079.39].pth (torch, 523930 bytes, 18 tensors)

running_mean f8 [361]
000000 b5 47 2c 2e 90 84 b3 bf f4 2b 3b e0 d3 16 78 bf
       -0.07624150397557979 -0.005881145134206445
000010 d8 2a 9b 80 42 04 d0 3f c0 e8 b6 72 b0 38 9a 3f
       0.2502599960250058 0.025606877328507194
000020 f3 05 b7 9e 0c 2e c4 bf a2 b5 1e 77 04 ab d4 3f
       -0.15765531301262534 0.3229380763321733
000030 86 0f 3d e5 0c 14 d8 3f 93 b6 35 b7 30 bf d9 3f
       0.3762237776429561 0.40229432956298544
000040 b9 d5 0a a4 11 54 e1 3f 35 ef ed 34 4d 40 c4 3f
       0.5415123180343279 0.1582123287624825
000050 3d 09 e6 da 02 cf bf 3f 2f b7 8b 31 b1 40 d5 bf
       0.12425248951152397 -0.3320734962315894
000060 93 45 59 c1 4a a2 cc 3f a6 67 0e 8d 29 3d 9a bf
       0.22370275917868962 -0.02562394069136755
000070 58 04 c7 89 60 e9 d3 bf 25 ae e5 64 9e aa b2 bf
       -0.311119207905056 -0.07291593516645685
000080 4a 89 09 ce 49 32 c3 3f 0c ae 07 c6 25 b1 d4 bf
       0.1499721771279588 -0.32331222857348574
000090 de 46 1c 0e 63 2a c6 bf d3 04 18 da ec 72 c3 bf
       -0.1731685465716088 -0.15194473885643464
0000a0 a7 69 5f e2 4f 10 d4 bf 45 e5 ac 20 8a 67 da 3f
       -0.3134956083937603 0.4125695532889789
0000b0 10 e5 61 ba 48 99 a1 bf f2 14 db 97 39 8f cc 3f
       -0.034372589828260414 0.22312087931474128
0000c0 fd 16 36 56 b8 a2 dd 3f 3d 4e 81 0b 52 ce a4 3f
       0.46305664462157364 0.04063660040324322
0000d0 cc 00 83 6e a0 8d c6 3f 19 bc 82 52 22 f4 da 3f
       0.176197103462988 0.42115076120075084
0000e0 15 b7 9b 9f 6c a1 90 3f 86 1e 60 ab eb e9 c3 3f
       0.016240784875598175 0.15557618968908943
0000f0 69 f4 a5 2e 54 c5 dc 3f 4d c1 6d 94 2c 64 b5 3f
       0.44954399638647274 0.08355978606937704
000100 b6 55 81 8a 8b 05 c0 3f 95 7d fe fe 8e 0e e2 bf
       0.12516922247838885 -0.5642771702149952
000110 4b 6e ea 07 8a 61 e6 3f 75 fc f3 97 2a 7e d7 bf
       0.6994066385845569 -0.3670755847851475
000120 b7 cc c2 03 23 c2 da 3f 2f 35 9d 16 a8 29 e8 3f
       0.41809916846541334 0.7550850335771083
000130 56 91 6d 7b 7f b3 d6 bf 8c fb c8 42 70 ce cc bf
       -0.3547056870795776 -0.22505000363340988
000140 00 bd 1a d9 e7 d0 e0 bf f2 cc d4 54 09 7e e3 bf
       -0.5255011787720889 -0.6091353089199443
000150 83 9b 82 5c 9b a4 ad 3f 36 7f e3 b0 52 dc dd bf
       0.0578964758326981 -0.4665724494388884
000160 99 8f e8 2e da dc d4 bf 6d f2 99 d7 f0 5b e4 3f
       -0.3259797533121343 0.6362232409442875
000170 62 2d 41 14 53 f4 df 3f 9e 8b 3d 10 a1 c7 ef 3f
       0.4992873857306305 0.9931187932200947
000180 61 3a d0 91 1c 8c df 3f c4 85 e6 26 f6 52 e3 3f
       0.49292673339451737 0.6038771400237057
000190 fb 6b 08 26 ca 23 bd 3f 35 09 f0 ca dc 97 e4 3f
       0.11382735661065617 0.6435378993631163
0001a0 05 3e fb c4 fc ac c6 3f 97 72 a6 1c ec 67 9a 3f
       0.17715415590508612 0.025787057160061435
0001b0 dd bd f5 56 38 a0 de bf d7 6c 76 f8 69 da e5 3f
       -0.47852905742817403 0.6829118588242648
0001c0 5a 37 59 b8 08 be dc 3f 3b 87 4f d1 39 2e cb bf
       0.44909875872405325 -0.21234820099112448
0001d0 46 0a 93 1b 3f 03 e6 bf eb 46 8f 80 c2 02 d4 3f
       -0.6878963030397436 0.31266844324737403
0001e0 6c 7c e6 a9 5a 57 e4 3f 37 19 95 6e c9 e2 df 3f
       0.635663348995775 0.4982169704347998
0001f0 08 09 2e 46 99 be ef 3f 49 fd a6 a8 0f 83 df 3f
       0.9920164461803163 0.49237433881713294
000200 ac 53 10 ab fa 4d e3 3f 99 6d a4 cd ac 11 bd 3f
       0.6032689419831647 0.11355094929279232
000210 18 07 ab db be 93 e4 3f f3 4e 07 20 1d ac c6 3f
       0.6430353441612366 0.17712749542135206
000220 ca 56 92 6d 95 40 9a 3f de 05 64 03 4d 99 de bf
       0.025636992275926564 -0.4781067402946898
000230 35 c1 9c a9 0c d5 e5 3f 11 d5 97 49 62 b6 dc 3f
       0.6822570145359693 0.44863183199716256
000240 6b 8d 4f f6 cc 29 cb bf f9 5a 50 24 4c ff e5 bf
       -0.21221315409557504 -0.687414236951411
000250 20 2b 4d 28 da fd d3 3f 49 b1 ce 43 8d e5 ca 3f
       0.31236890731513434 0.2101303654757294
000260 2e b7 32 4e 07 c5 cb 3f f2 c1 c2 29 cd c7 cb 3f
       0.2169503337694833 0.2170349553976077
000270 cf 26 9c e4 7b 6c cb 3f e8 54 af b0 77 05 cb 3f
       0.21424816763492635 0.21110435607139455
000280 58 b6 f5 ff d7 9d ca 3f 01 5a 80 03 e3 41 ca 3f
       0.20794200895345472 0.20513570471730705
000290 15 f6 1d 88 db 67 ca 3f 68 5c f8 78 da ba ca 3f
       0.2062944807657209 0.2088273134874925
0002a0 b4 9c 85 a0 e0 1d cb 3f ce 86 90 cb f8 8a cb 3f
       0.21184928739532938 0.21517858447719224
0002b0 9f c9 d6 9a 0a de cb 3f d8 e0 83 47 38 78 cb 3f
       0.2177136665391801 0.21460631839705147
0002c0 25 8f a9 a1 cd 05 cb 3f f3 f8 f5 70 51 29 ca 3f
       0.21111460107487648 0.2043859292570641
0002d0 0f 71 29 59 eb 20 c8 3f fa 3e 5d cf 0a d7 c7 3f
       0.1885046182022809 0.18625006795127047
0002e0 c0 36 a1 bc 57 c4 c7 3f 59 ac 62 a3 f9 91 c9 3f
       0.18567940435825925 0.19976730802349854
0002f0 bf 9f c9 42 74 62 ca 3f a4 ab 7e 20 93 0d cb 3f
       0.2061295820342348 0.2113517674127624
000300 0f bd e9 d6 2c e0 cc 3f 56 09 9b 14 b8 2d cc 3f
       0.2255912827854236 0.22014523512013778
000310 cb ea ad 6e 17 52 cb 3f 7a 4d a8 74 45 f9 c9 3f
       0.21344273475900474 0.20291965671695406
000320 d9 dc 06 64 b7 6f c7 3f d0 27 f6 69 71 20 c7 3f
       0.18309681305047468 0.18067758249190868
000330 ec 1f 23 f6 12 e6 c6 3f 02 a5 a6 a5 c0 1b c9 3f
       0.17889630335253004 0.19615943993020585
000340 55 d9 7d db ef 61 ca 3f 60 7f be 02 3d a2 cb 3f
       0.20611379830706747 0.2158886207007482
000350 3b e7 4d 02 34 06 ce 3f d3 13 0e 95 90 0e cd 3f
       0.2345643054248344 0.22700698164058383
000360 ee 08 a0 fe df 32 cb 3f d4 67 12 6e 6a f5 c8 3f
       0.21249008114688855 0.19498949408153854
000370 3b 04 7c d9 30 27 c7 3f 86 8d 53 ca 4f c4 c6 3f
       0.18088350886685753 0.17786595706193625
000380 79 92 8c 6c 26 78 c6 3f 86 24 7c 95 6f e5 c7 3f
       0.17554168987512123 0.18668932723111115
000390 2e aa 3d a2 1b 16 ca 3f 71 fc 9c 64 de 65 cc 3f
       0.20379968091886397 0.22185878670459006
0003a0 36 4a 2e 74 23 51 cf 3f 47 1d 30 42 a8 05 ce 3f
       0.24466365025416942 0.234547645872434
0003b0 f7 bb 9f c2 4d 87 cb 3f 68 36 e0 ba c5 de c8 3f
       0.21506664279101503 0.19429847359463115
0003c0 75 cb 4d 76 75 12 c7 3f 8d 29 5a f8 e5 94 c6 3f
       0.18025081898266718 0.17641901613781066
0003d0 19 bb e3 c0 f0 50 c6 3f 7c a3 5e 31 43 ad c7 3f
       0.17434510630069935 0.1849750510275746
0003e0 5b 46 eb ac 0e 4e ca 3f b2 49 66 6f 9f 4b cd 3f
       0.20550712054550754 0.22887032451087702
0003f0 83 d2 2b 5f 93 5c d0 3f e8 c8 9e 60 94 11 cf 3f
       0.25565037054119716 0.24272398679528995
000400 16 8f 9f 2c 40 d6 cb 3f 66 3f 57 05 cd da c8 3f
       0.2174759118926139 0.1941772724226169
000410 e2 2f c6 62 a4 1a c7 3f 15 38 54 48 29 7e c6 3f
       0.18050055335004261 0.17572513610542786
000420 f5 3d 43 02 f5 51 c6 3f f9 d6 5e b2 c1 94 c7 3f
       0.17437613115770004 0.18422719201560492
000430 2e aa d9 83 2d 97 ca 3f 9e 38 8d 29 f0 50 ce 3f
       0.20773858011246332 0.23684503582848476
000440 97 ed e7 1c a8 e2 d1 3f cb 2d f0 76 a0 c1 d0 3f
       0.2794590265545706 0.2618180428987357
000450 5d fc fb 82 f7 1c cc 3f b5 14 d1 43 24 6a c8 3f
       0.21963399787634588 0.190739186395296
000460 f4 a7 ce d5 7a 4d c7 3f 4c 32 64 50 dc f0 c5 3f
       0.1820519966107096 0.17141298222886048
000470 b4 1e 34 81 a8 91 c6 3f b5 da 7e fb 3c 40 c7 3f
       0.1763201361538812 0.18164789466910283
000480 d8 bd 23 4d 6c 1e cb 3f 58 ea 0b 91 c7 68 d0 3f
       0.21186593786795416 0.2563952366323625
000490 85 7f c9 fa db 1c c8 3f d3 69 e9 36 4b c6 c8 3f
       0.1883807158037564 0.19355144673575228
0004a0 a6 c1 2e f6 44 a6 c8 3f 33 14 22 47 99 5f c8 3f
       0.1925741388381656 0.19041744206711683
0004b0 66 cf eb dd 88 28 c8 3f 8d 9f 63 3c 87 ef c7 3f
       0.18873701892845957 0.18699732254685522
0004c0 ea 84 2e 84 1f d0 c7 3f 9f 2e 84 db 7e 15 c8 3f
       0.18603891328988392 0.18815599173136818
0004d0 c4 0e 51 7e f9 5d c8 3f 52 e7 73 44 06 92 c8 3f
       0.1903678766994884 0.19195631353778225
0004e0 87 2c d6 64 1f c6 c8 3f 25 d5 63 de 4e f0 c8 3f
       0.19354622291243492 0.19483362063298518
0004f0 e0 82 26 f4 9e 35 c8 3f a5 9e 6d 8c ea 86 c7 3f
       0.18913638039977965 0.1838048158344822
000500 4a c8 a8 e4 fd 06 c7 3f 70 6b b8 c7 dd e3 c5 3f
       0.1799008718967932 0.17101642848941934
000510 3c 42 af 56 2d 21 c6 3f 99 1a 83 e9 ec 4e c6 3f
       0.17288748486181926 0.17428361322364053
000520 85 c3 26 d5 bb cb c7 3f 33 9e 42 ab 24 40 c8 3f
       0.18590495975288604 0.18945749628368133
000530 ec 9c ec f7 8b 8f c8 3f 17 96 3f 77 a5 18 ca 3f
       0.19188069921185702 0.20387714693713185
000540 ce b6 54 22 22 c9 c8 3f 82 98 5d f6 bd 99 c7 3f
       0.1936381023055475 0.18437933473177642
000550 fc 68 68 1a b2 bc c6 3f 20 fd 98 63 9d 4d c5 3f
       0.17763353623815437 0.16643111575283687
000560 ac 37 fb 23 9a c4 c5 3f ad e8 17 39 ee 05 c6 3f
       0.1700623202981978 0.17205598628772148
000570 97 eb 44 67 80 d4 c7 3f 43 83 40 90 d6 9a c8 3f
       0.18617253344004034 0.19222528499178723
000580 b7 76 24 2a 02 59 c9 3f a1 01 75 42 f4 b6 cb 3f
       0.1980288224958053 0.2165208172318787
000590 cf a8 56 98 f6 cc c9 3f 7a b8 32 55 b8 8a c7 3f
       0.2015674823608777 0.18392089996399702
0005a0 84 26 a9 55 0e e7 c5 3f 4d e5 ce 8f 65 0f c5 3f
       0.171113769365821 0.1645323707760248
0005b0 85 38 72 63 10 91 c5 3f a3 e0 49 f0 a3 f7 c5 3f
       0.16848950248499164 0.1716198848041631
0005c0 0b e2 2d 60 cc 25 c7 3f 64 5f 39 4f ce 9e c8 3f
       0.1808410138726376 0.19234637134899935
0005d0 be 13 1e 2e 9c 76 ca 3f 59 1a c3 22 db d9 cd 3f
       0.2067446923430491 0.23321093747491053
0005e0 25 5b 3d 9c 3a 39 cb 3f 5f c5 da 4c 74 fc c7 3f
       0.21268398884668574 0.18739179375328782
0005f0 21 7f e1 79 cc f0 c5 3f 70 6b 13 c0 d7 02 c5 3f
       0.17141109420026004 0.16414925459579477
000600 5e 38 ef 0d 4f 82 c5 3f 67 52 47 3d 3f 09 c6 3f
       0.16803920917886023 0.17215719692343898
000610 f4 71 4f df 93 39 c7 3f 65 08 08 41 08 05 c9 3f
       0.18144462970566588 0.19546607184753664
000620 42 90 a6 87 ce e3 cb 3f c0 e2 80 8d 45 1d d0 3f
       0.2178896105152735 0.2517866021985746
000630 c8 e5 76 f8 26 0f cd 3f 52 7c 34 7a 4d 85 c8 3f
       0.22702490932515063 0.19156807391206826
000640 98 a8 e1 9a dd 17 c6 3f d7 8d 5f 49 8b 19 c5 3f
       0.17260332167217451 0.16484204371145836
000650 ca e6 cb 9a bb 8b c5 3f f8 df c0 9a 4e 2e c6 3f
       0.16832680757925395 0.17328817898101057
000660 07 b0 af 84 4c 4f c7 3f c7 9d 5d 9d f9 5e c9 3f
       0.18210751036474468 0.19821090873595734
000670 23 7b 92 c2 12 a6 cd 3f 07 14 bf b1 7b 5b d2 3f
       0.23163065434069904 0.28683369024321376
000680 b5 96 fd e6 b6 bb d0 3f e2 2b e8 b0 b3 8a c9 3f
       0.26145718152688896 0.1995453466227835
000690 0c ca 24 99 56 35 c6 3f ea 96 0a 21 31 80 c5 3f
       0.17350275495262257 0.16797460664127267
0006a0 80 16 54 31 a4 62 c5 3f a3 51 b7 37 5b 8f c6 3f
       0.1670727959500944 0.17624988766205005
0006b0 7f 5d c1 b8 75 fb c6 3f 23 8e e5 aa 8e 9a c9 3f
       0.1795489456296586 0.20002921433034357
0006c0 41 e4 3a 73 32 cf d0 3f 9a 6b 10 12 10 6d c7 3f
       0.2626463055890476 0.18301583177602937
0006d0 fb 45 64 0f 26 5f c7 3f a5 c9 d9 01 bc 8a c7 3f
       0.18259120704219342 0.1839213379895003
0006e0 c6 d1 46 e1 97 9a c7 3f 01 6b 04 67 fe 93 c7 3f
       0.1844053125365816 0.18420391111506976
0006f0 74 59 f3 25 d7 96 c7 3f 3c 81 74 f9 a3 8b c7 3f
       0.18429078438812108 0.18394899063515335
000700 e0 b4 eb 1c ef a5 c7 3f 08 7e 09 ad a9 ab c7 3f
       0.18475140487809139 0.1849262328059782
000710 2f fd 96 55 5a ac c7 3f ee 3d 64 0f 73 90 c7 3f
       0.18494729212941638 0.18409574748555663
000720 b8 10 bf 94 42 55 c4 3f 6c 9d ed be 6a 50 c4 3f
       0.15885193121915164 0.158704131342556
000730 60 3e 30 47 fe bf c6 3f 25 d1 38 fd 0a b1 c6 3f
       0.177734169731127 0.17727792133667566
000740 dd ac ca 84 eb 38 c6 3f 95 f8 d5 81 e5 95 c6 3f
       0.17361206039399849 0.17644947852744922
000750 0c 21 56 cf 5b d1 c5 3f 90 55 f9 21 b0 e5 c5 3f
       0.1704516184220285 0.17107202204594474
000760 2b af 70 9b 6e d9 c5 3f d2 a0 34 7c d7 d4 c3 3f
       0.17069799985744658 0.1549329143974832
000770 91 55 0d 64 05 47 c4 3f f4 4d c2 00 7b 41 c4 3f
       0.15841739068370633 0.15824830567417758
000780 a5 4c 19 11 d6 a2 c6 3f ff 4d e5 46 39 8f c6 3f
       0.17684436640647508 0.17624584161477228
000790 55 43 4b 2a 23 d7 c5 3f 4a 04 ff c0 e5 70 c6 3f
       0.17062797131668597 0.17532035754814707
0007a0 29 38 bd 8b 36 63 c5 3f f5 97 68 42 bb 9c c5 3f
       0.16709024260711772 0.16884556524854558
0007b0 8d 5f b7 c1 7b 74 c5 3f e8 b0 5d ab f7 95 c3 3f
       0.1676172920112972 0.15301414363364718
0007c0 ae 36 37 b5 d7 58 c4 3f 84 0e b5 69 19 70 c4 3f
       0.15896126125737936 0.15967099820601416
0007d0 87 4a cf 01 ef ec c4 3f cb 6b e4 46 03 e5 c5 3f
       0.16348064030042428 0.17105141603027926
0007e0 38 1e 03 a1 f5 a7 c5 3f 32 b2 de 95 9b 5f c6 3f
       0.16918821679995388 0.17479271715036898
0007f0 60 a7 8a 66 4e 4c c5 3f 7f cc d2 0c a6 1d c5 3f
       0.16639118201174607 0.16496730447906668

running_var f8 [361]
000000 45 f5 85 d7 a8 4a 9e 3f 39 14 92 fa c2 59 05 40
       0.029581678537842455 2.668828923781373
000010 d8 a2 74 7f fb 82 c1 3f a7 30 34 6f de aa 19 40
       0.13680976603907058 6.416864144859722
000020 10 d6 e4 63 df eb be 3f 70 90 ba fa b5 fc cb 3f
       0.12078663052383143 0.21864962332358884
000030 e9 0e 03 d8 fe 09 ce 3f f9 11 42 f7 33 c7 ce 3f
       0.23468003795107187 0.24045419285916106
000040 85 c1 a4 44 8d c7 cf 3f e0 08 a0 d5 1a c4 98 3f
       0.2482773385213585 0.024185580528872985
000050 ef b2 63 22 0f 1c 6f 3f 2e a2 a9 04 25 f3 78 3f
       0.0037975593178230997 0.006091255762477972
000060 14 c6 f0 5a 9e 7e 93 3f ee d4 79 51 17 78 77 3f
       0.01903769903237247 0.005729762160276082
000070 cc 77 c7 14 b0 0a 74 3f a5 1f 37 5b a4 61 a1 3f
       0.004893005196633337 0.033948074469264435
000080 e0 a5 86 62 9c b2 6d 3f 4f e6 57 3f a8 88 6a 3f
       0.0036252073661742074 0.0032389913637842836
000090 a0 64 64 a0 db 56 9a 3f 68 27 5f 24 f5 1e 6c 3f
       0.02572196165519769 0.003432730477446567
0000a0 e8 33 c8 c8 d6 7f 64 3f e5 33 1c 2d b4 85 1d 40
       0.0025023646360353598 7.38057013020168
0000b0 05 84 48 16 87 f8 fc 3f 88 96 f2 22 3a 5a 0b 40
       1.8106757040443437 3.419056199100684
0000c0 fa a6 95 c0 95 b2 16 40 ac 6e 09 64 d5 e2 f8 3f
       5.674399384626435 1.5553792865456826
0000d0 7c 59 dd c4 c1 44 09 40 91 f2 13 02 7d 80 15 40
       3.1585727100420495 5.375476868121624
0000e0 1d 36 98 bf 1a 43 f4 3f e5 7e 09 2e bb 93 f6 3f
       1.2663829311526407 1.411067180473702
0000f0 48 b8 54 da 44 ac 0a 40 7e 33 6a a5 ca 77 ea 3f
       3.3341157013992735 0.8271229964026217
000100 e8 73 d2 f4 2e e0 eb 3f f3 84 c5 ed 64 2d 27 40
       0.8711161405259391 11.588660650597808
000110 a5 7d 21 5f 79 2d 28 40 88 a4 11 46 71 5d 25 40
       12.08881661685775 10.682504834798479
000120 f1 7b 1a a0 d1 da 25 40 81 d0 75 74 18 9a 27 40
       10.927380564911774 11.800967826253556
000130 3d f4 b2 1e 43 de 20 40 22 66 8a ad 5b 8c 24 40
       8.43410583433626 10.274136946815876
000140 db 07 4b 72 48 b1 24 40 d1 09 94 7d 3b ac 21 40
       10.346255847605724 8.836391376801574
000150 b8 67 ce 1b 6a b5 20 40 f9 15 17 2e d0 11 20 40
       8.354325169511739 8.034791412656874
000160 b2 16 ea d3 65 77 1d 40 fa c8 15 d6 17 0c d6 3f
       7.366599379694593 0.3444881048846039
000170 df 85 2c c0 47 98 db 3f bf a3 33 21 7e 2b 75 3f
       0.431169450445024 0.005168430990331651
000180 86 89 29 40 c6 fe e0 3f 82 c9 4d 2a 92 36 db 3f
       0.5311003926438367 0.42520574694858493
000190 51 17 85 4b fb aa e6 3f 29 c0 cd d4 ea 18 d9 3f
       0.7083717799184602 0.392145831886412
0001a0 95 7c 50 2f d2 e2 e5 3f 95 5a ac 5b ab 49 e7 3f
       0.6839381145581621 0.7277428427213005
0001b0 8c 4b 31 85 40 42 e1 3f bc ee 39 0b e8 01 d6 3f
       0.5393374062935989 0.3438663587219073
0001c0 4f 27 04 47 34 1d e2 3f f0 57 15 f6 88 59 e5 3f
       0.5660649668727532 0.6671795660320168
0001d0 f3 5f b0 f7 9c 7a d2 3f f2 77 c8 ed 1e 69 e4 3f
       0.28873371303916356 0.637832130832747
0001e0 d3 17 b7 82 8f 0a d6 3f c9 1d fc de 6c a0 db 3f
       0.3443945671573349 0.43166658187734847
0001f0 a5 83 26 7b 35 a1 79 3f c5 98 e5 78 f9 fb e0 3f
       0.006257256422402079 0.5307586060778468
000200 25 ce 85 db be 33 db 3f 1d d2 61 ba aa a4 e6 3f
       0.4250332969452038 0.707600940730632
000210 2e ba cd 44 e2 14 d9 3f a2 24 30 bc 0f dc e5 3f
       0.39189964980224345 0.6831129718349482
000220 53 62 1f 1e f5 42 e7 3f 76 52 8b d3 a1 3e e1 3f
       0.7269235218364635 0.538895524189299
000230 d2 a1 2b f4 74 01 d6 3f cc c8 9d ef 74 19 e2 3f
       0.3438389191128667 0.5656075172430746
000240 0e ad 8a fc 51 53 e5 3f 75 1b ab a6 a5 77 d2 3f
       0.6664209301428927 0.2885526778813337
000250 29 03 8f 70 cc 63 e4 3f 0c e9 6b c1 03 25 b9 3f
       0.6371824453745819 0.09822104904370493
000260 5a 88 88 a5 9b 4e ba 3f fa b3 68 64 7b 4e ba 3f
       0.10276196280804709 0.10276004029647359
000270 96 9e bb 9c 4e db b9 3f 34 1e 4a 5c 01 50 b9 3f
       0.10100261045919931 0.0988770342174739
000280 9a 87 2b 7a e4 c5 b8 3f 2f f5 0c e8 d9 56 b8 3f
       0.09676959974924984 0.09507524409578559
000290 e4 09 e4 7c 2b 7b b8 3f c6 7d 27 a4 eb e3 b8 3f
       0.09562942313281259 0.0972277904288524
0002a0 7f 5c 1c 78 73 6b b9 3f 51 a1 06 1e c6 fd b9 3f
       0.09929582292930837 0.10152853234342742
0002b0 f9 5e ca 92 6e 14 bb 3f a0 ed d0 cd f3 ad ba 3f
       0.1057805164695046 0.10421680235679398
0002c0 57 d9 1d b9 60 cb b9 3f 4e 2a e4 fb b9 a1 b8 3f
       0.1007595493264025 0.09621775054635259
0002d0 9d 81 20 1b 9c 24 b6 3f b9 77 a0 c7 9b 94 b5 3f
       0.08649612104682665 0.08429883598043277
0002e0 3d 5a 02 14 ce b2 b5 3f 34 ea 9d 33 c8 f5 b7 3f
       0.08475959766870118 0.09359408626725313
0002f0 b9 05 e9 ed 31 15 b9 3f 90 13 96 e7 4e 34 ba 3f
       0.09797966059070164 0.10236066011391487
000300 63 de c9 52 0b 8e bc 3f 64 3d 69 31 a9 d4 bb 3f
       0.11154242297367882 0.10871369797063363
000310 2c 27 48 1e 4d 5f ba 3f dc 8f 1f 59 61 95 b8 3f
       0.1030166815691273 0.09602936197148843
000320 9b 9f e7 1f f4 6b b5 3f 63 eb 30 fd 6c c2 b4 3f
       0.08367849139142296 0.0810917013304056
000330 d1 1e 20 6f 15 c0 b4 3f 36 9d f7 6e f1 91 b7 3f
       0.08105596507095504 0.09207066497002789
000340 04 07 dc 96 30 50 b9 3f b9 cc 62 a6 2f 36 bb 3f
       0.09887984927265953 0.10629556476742409
000350 43 9e 13 0e 94 29 be 3f 12 ff de f5 ec 21 bd 3f
       0.11782193511646093 0.1137989139815512
000360 40 14 b5 1e 8b ac ba 3f 73 18 14 9a 2f 9f b7 3f
       0.10419530391398357 0.09227273475343782
000370 df 2b 33 74 dc 31 b5 3f 82 ac e6 56 56 65 b4 3f
       0.08279207074080784 0.07967128392799519
000380 f8 a4 2e c1 d4 51 b4 3f d9 35 96 c6 0d 49 b6 3f
       0.07937364307749195 0.08705221269902753
000390 13 9e 10 cd fd 56 b9 3f 30 92 0f 59 2a 63 bc 3f
       0.09898363357989863 0.11088814424835713
0003a0 e1 f0 92 6d e0 e5 bf 3f d4 5f 21 05 10 80 be 3f
       0.12460138964792435 0.1191415798688234
0003b0 f9 fa 76 cb 70 4b bb 3f 2c 64 f0 2c 23 b1 b7 3f
       0.10661988227273501 0.09254665228981257
0003c0 d4 3f 1f 08 e2 38 b5 3f 6d 23 bb ba 5a 46 b4 3f
       0.08289921472828549 0.07919852312910587
0003d0 01 fe a7 4b bf 39 b4 3f ba ec 22 e0 9b 23 b6 3f
       0.07900615307880089 0.0864808485229557
0003e0 6b 28 4c b9 5e cf b9 3f 95 fd 44 ac c3 af bd 3f
       0.10082046531548065 0.11596320110128595
0003f0 c8 64 2a ec 4e dc c0 3f 5e 8e 8d fc 0d ec bf 3f
       0.13172327548526241 0.12469565788119882
000400 e3 6a f1 14 26 e1 bb 3f 7d bc 3c b3 f1 d9 b7 3f
       0.1089042473917448 0.09316931367787791
000410 83 e5 f4 fe 09 65 b5 3f 1b 03 10 69 c5 4d b4 3f
       0.08357298349883106 0.07931169333461378
000420 bd e0 b6 5a d8 52 b4 3f 77 b8 8e fe 79 23 b6 3f
       0.07938911642748088 0.08647882904799241
000430 23 7d c4 2a 96 56 ba 3f b4 05 37 c6 ea 16 bf 3f
       0.10288370651368388 0.12144343699676236
000440 14 69 7b e3 e8 bc c2 3f f1 ab 1e e1 9f 7f c1 3f
       0.14639006717227032 0.13670729152849462
000450 69 38 4a a9 51 bb bc 3f 40 24 c7 c5 72 d3 b7 3f
       0.1122332609467961 0.09307019547044693
000460 cc 48 7f 1c 2d e8 b5 3f af 76 a0 1e 43 1e b4 3f
       0.08557397790653737 0.07858676431393506
000470 fe d7 e4 06 fe d0 b4 3f 61 1c 29 8e 67 10 b6 3f
       0.08131396930988896 0.08618781300275337
000480 31 c6 49 69 6b 56 bb 3f d3 a3 81 0b 13 1f c1 3f
       0.10678740807068078 0.1337608152564643
000490 e8 97 17 23 93 ff b5 3f 20 45 15 4b a8 f4 b6 3f
       0.08593101126425007 0.08967067559321551
0004a0 ec ea 28 96 64 c1 b6 3f e9 a5 0b 43 0b 5b b6 3f
       0.08888844171535099 0.08732672106602703
0004b0 82 07 d2 11 26 05 b6 3f 1e 0f 04 a6 09 b7 b5 3f
       0.08601606307095547 0.08482418349381901
0004c0 15 03 f1 1d 14 9a b5 3f d6 c5 4d 35 1d ef b5 3f
       0.08438230257980835 0.08567984153139405
0004d0 b9 8e b6 82 f0 53 b6 3f 2d 95 c5 f3 91 a4 b6 3f
       0.08721831504095236 0.08844864083728927
0004e0 bc 1f 76 99 16 ef b6 3f 00 d7 97 86 cc c0 b7 3f
       0.08958569761864416 0.09278562818493796
0004f0 9f aa 4c 49 ad ec b6 3f cd 3d 53 fa c7 c8 b5 3f
       0.0895489028886609 0.08509492742017884
000500 93 1d ff 3c a5 04 b5 3f 0b d1 ba 36 b7 7a b3 3f
       0.08210213412450278 0.07609124265838234
000510 df 2d ce 52 8a 99 b3 3f f1 b1 23 23 7b 13 b4 3f
       0.07656158944717316 0.07842225654503189
000520 6a 5f af 28 14 05 b6 3f 77 ea 48 71 bf b3 b6 3f
       0.0860149955109343 0.08868023410551894
000530 aa bc 49 d0 80 60 b7 3f da f3 cd 19 9d 82 b9 3f
       0.09131627164036851 0.09964925651543358
000540 44 50 29 2a fa 02 b8 3f 01 a5 01 f1 d5 1f b6 3f
       0.09379542855578032 0.08642327436395549
000550 2f 37 b9 6d 24 d7 b4 3f 78 de 9a 10 1b df b2 3f
       0.08140781096264214 0.07371682315248929
000560 65 bd fd d2 b7 37 b3 3f 50 6a d9 3d 2d e0 b3 3f
       0.07506894017364159 0.0776394153594222
000570 04 3a 27 01 b3 42 b6 3f ce 09 29 76 a9 5f b7 3f
       0.08695524957804684 0.09130343565724461
000580 9c 87 b9 93 9c b0 b8 3f a0 0e d3 a4 6c cb bb 3f
       0.09644487959442788 0.10857275985750414
000590 ef e1 96 5d bd 98 b9 3f 74 b0 5a d1 3b 6c b6 3f
       0.09998687300583929 0.08758901463687768
0005a0 27 4c 94 46 2f f9 b3 3f eb 6b 34 6f 24 b0 b2 3f
       0.07802100632788776 0.07300021853409049
0005b0 d0 5f f7 6e 5b 12 b3 3f 42 d8 ab 7e e4 f6 b3 3f
       0.07449885806215595 0.07798603146133679
0005c0 4e 2a aa 0a 4b a5 b5 3f 52 e5 3a 57 8b c9 b7 3f
       0.08455342302674149 0.09291907195701768
0005d0 af 43 d3 1d 16 5d ba 3f e9 f8 29 e4 c9 9a be 3f
       0.10298288562923007 0.1195493871727852
0005e0 c3 f1 81 30 4f a1 bb 3f fb 53 34 85 eb 36 b7 3f
       0.10793013510005438 0.0906817627149649
0005f0 ac 6b e0 48 d2 2d b4 3f a3 e5 79 5b 2a c1 b2 3f
       0.07882417945113102 0.07325997098259633
000600 1c eb c1 7d c8 23 b3 3f 12 30 f5 a1 10 38 b4 3f
       0.07476475782634079 0.07898048357054702
000610 dc 71 39 2c cc ed b5 3f 55 0d df 52 a3 83 b8 3f
       0.08565975265214071 0.09575863621926335
000620 e9 ef 1a 6b 38 5e bc 3f 11 71 2c 54 ee c8 c0 3f
       0.11081268896936049 0.13113192663230014
000630 8d c6 8d dc 1d 11 be 3f 28 35 10 c9 c0 19 b8 3f
       0.11744867930044674 0.09414296063205951
000640 b3 8c 37 f1 d1 88 b4 3f 8a 74 19 02 13 ff b2 3f
       0.08021270884596525 0.07420462418800092
000650 90 c8 f6 6f 6c 5b b3 3f 33 b9 31 af 41 92 b4 3f
       0.07561376317497293 0.08035669829562124
000660 07 7e 17 ec d7 3a b6 3f e2 76 98 a3 a2 2d b9 3f
       0.08683537973364973 0.09835258955032658
000670 5e fb e5 aa 84 b0 be 3f bc 4a 4f ba d0 5d c3 3f
       0.1198809544784871 0.15130051705508218
000680 be 2e bf 9d 83 aa c1 3f aa 94 f0 53 17 d8 b9 3f
       0.13801617815476236 0.10095353888808015
000690 29 94 37 b9 9d 25 b5 3f fc b5 c9 9a a8 c3 b3 3f
       0.08260522624875989 0.07720426348688386
0006a0 7c 5c ee 0a d1 a7 b3 3f 08 4e 94 33 31 60 b5 3f
       0.0767794276892903 0.08349902638683926
0006b0 ff e9 da c0 8b 57 b6 3f 17 aa d8 7e b2 08 ba 3f
       0.08727334459664603 0.10169520947298626
0006c0 52 21 fe 7d db c1 c1 3f 33 72 47 26 6a 20 b9 3f
       0.1387285580824576 0.09815085825489049
0006d0 4d 0e 08 50 a6 34 b9 3f 26 f2 80 b0 38 5d b9 3f
       0.09845962003606097 0.09907869633838881
0006e0 e4 fb 1f 39 03 65 b9 3f aa d1 75 a6 87 55 b9 3f
       0.09919757980968275 0.09896133245439978
0006f0 87 d9 72 bf 9f 54 b9 3f 3a 3f 82 3c c9 4c b9 3f
       0.09894750999487743 0.09882791259064741
000700 1a de 19 19 fe 6b b9 3f ba f9 dd 15 9f 77 b9 3f
       0.09930408585375297 0.09948152812828584
000710 1d 35 2e 1c db 7d b9 3f 7f f1 73 b0 c3 65 b9 3f
       0.09957665861130179 0.09920905168468684
000720 55 1f 9e 2e 05 02 b6 3f f5 c1 9f ad 41 fe b5 3f
       0.08596832645536996 0.08591089714878548
000730 f8 a6 9b 3c dc a3 b8 3f e4 c9 a7 cf 29 80 b8 3f
       0.09625030975044158 0.0957056171389819
000740 f2 47 3b 06 76 e4 b7 3f 2d dc 0f 9d 7c 3f b8 3f
       0.09332978870523315 0.09471873125572534
000750 e3 0f 04 86 46 9e b7 3f 1d a6 f1 c1 f8 d3 b7 3f
       0.09225884220000995 0.0930781816001844
000760 8e a5 27 c0 97 ce b7 3f b2 a1 0d db 3a 82 b5 3f
       0.09299610558777813 0.08401840064983082
000770 0e bb 2d ab d6 24 b6 3f e8 55 2c 26 02 24 b6 3f
       0.08649961165586381 0.08648694450342698
000780 5e bb 28 04 84 b9 b8 3f 30 1a 1a ca b1 84 b8 3f
       0.09658074475804088 0.09577475723390516
000790 72 bf ad bc 10 91 b7 3f d6 f3 28 85 bc 2c b8 3f
       0.09205727201856265 0.09443262339568945
0007a0 f0 c5 65 b2 70 4e b7 3f 39 dc ca 52 71 bc b7 3f
       0.0910406528035066 0.09271915694522272
0007b0 c4 fa 60 9b e6 96 b7 3f a9 ac 85 c7 32 6a b5 3f
       0.0921463136046255 0.08365170832773806
0007c0 b9 8b 43 01 57 6d b6 3f 9d 7a f4 43 76 93 b6 3f
       0.08760589390617114 0.08818759116227644
0007d0 66 2b f3 95 c5 06 b7 3f b2 c4 18 40 c1 e9 b7 3f
       0.08994707976232305 0.09341056647169202
0007e0 79 14 7b 32 53 7c b7 3f ef d7 41 54 5d 37 b8 3f
       0.09174079878273912 0.09459479624805998
0007f0 85 ed 73 1e 3e 65 b7 3f 4d 02 82 a6 dc 5b b7 3f
       0.09138859027364361 0.09124545159466742

count f8 []
000000 00 00 04 20 40 96 18 42
       26400000001.0

running_mean f8 [1]
000000 9e 5c 60 03 8a 6d 56 40
       89.71154865656214

running_var f8 [1]
000000 a4 f2 fb 35 27 6b 7b 40
       438.6970729676925

count f8 []
000000 00 00 10 20 40 96 f8 41
       6600000001.0

a2c_network.sigma f4 [15]
000000 66 de 69 bf e1 da 86 bf ae a0 a5 bf b1 1e 2b bf
       -0.9135498 -1.0535547 -1.293966 -0.66843706
000010 16 fa 1f bf 63 94 5f bf 22 f1 17 bf 38 16 11 bf
       -0.62490976 -0.87335795 -0.59352314 -0.5667453
000020 2a 6f 3c bf d5 c3 4e bf 30 9c 0b bf 0e 0f 40 bf
       -0.7360712 -0.80767566 -0.545352 -0.7502297
000030 7a 90 48 bf c6 e2 52 bf 4d ea fd be
       -0.78345454 -0.8237728 -0.4959282

a2c_network.actor_mlp.0.weight f4 [128, 361]
000000 23 6e 53 3f 51 f2 68 bf b0 25 88 3e 2d 3e 62 be
       0.8258993 -0.90994745 0.26591253 -0.2209403
000010 f4 16 12 bf bd eb 53 be 28 7f 71 bd 60 e0 b4 be
       -0.57066274 -0.20695396 -0.058959156 -0.35327435
000020 27 ba 6e bf fa 73 24 bf 33 2a 6b bf 05 b2 d4 be
       -0.93252796 -0.64239466 -0.91861266 -0.41542068
000030 cd 79 af bd 0a 14 c4 bd e9 68 82 bf 5c de 14 40
       -0.085681535 -0.09574135 -1.0188266 2.3260717
000040 a1 89 03 3f 9b 0e 6b bf c1 a9 21 40 68 df 09 3e
       0.5138188 -0.9181916 2.525986 0.13464129
000050 14 e6 db bf 48 22 da 3e 77 32 1c bf fb 1d b2 3f
       -1.7179589 0.4260428 -0.61014503 1.3915399
000060 8c c0 22 bf ad 2f 81 3f bd 29 be 3f 5d 1d 91 3f
       -0.63575053 1.0092674 1.4856488 1.1337086
000070 bf 1b 25 bd 2f fd 37 3f 67 6a af be cf 8c 79 bf
       -0.040309664 0.718707 -0.34260866 -0.9748048
000080 a8 7c 14 be 38 63 e7 3e e4 81 64 bf a0 72 3f 3f
       -0.14500678 0.45192885 -0.892607 0.7478428
000090 68 ec d2 bf 47 03 69 be b3 71 53 be a4 9c 9d be
       -1.6478395 -0.22755156 -0.20648842 -0.3078357
0000a0 0b f0 a5 3e 45 3a 4d bf 8c 24 91 3f bf b1 10 bf
       0.324097 -0.8016704 1.1339278 -0.5652122
0000b0 c9 9e 4e 3f 10 0c 5d bf 18 5f c8 3d 2a 06 54 bf
       0.80711037 -0.8634653 0.09783763 -0.82821906
0000c0 56 71 db 3e 5c d9 28 3e 6f d9 dc be b9 1c cf bf
       0.42859906 0.16489166 -0.4313464 -1.618064
0000d0 8a 47 06 bf 98 f0 0e bf 53 cf 84 3e 44 cc 5a bf
       -0.5245291 -0.55835867 0.25939426 -0.85467935
0000e0 a6 a0 6c bf 11 a0 c0 be a3 38 78 3f ce d4 09 bf
       -0.9243263 -0.3762212 0.9696142 -0.5384034
0000f0 ad 9a 24 bf 72 63 b3 bd 50 de d1 bf 75 b7 62 bf
       -0.64298517 -0.08759202 -1.6395969 -0.88561183
000100 5d 05 e7 3d a0 7b ce be f7 f2 18 bf f1 31 b6 bf
       0.1128032 -0.40328693 -0.59745735 -1.4233991
000110 07 91 9c be 1e 31 b8 be 3f 69 f2 bf b0 2f 4f bf
       -0.30579397 -0.35974973 -1.8938369 -0.8093214
000120 ac 23 ea 3d ff 4b 72 3f 57 3e 78 be 10 d8 5f be
       0.11432585 0.9464721 -0.24242531 -0.21859765
000130 50 cb 23 be c0 af 0c 3f ee 34 93 3e 3b af 57 3d
       -0.15995526 0.54955673 0.2875132 0.052657347
000140 2a 08 5b 3f 8b a2 b5 3d 74 b6 d5 3e ac b5 e1 be
       0.8555933 0.08868893 0.41740763 -0.44083917
000150 43 d0 40 be 60 a6 57 3d 25 e8 af bd b8 32 57 bf
       -0.18829446 0.052648902 -0.085892 -0.84061766
000160 c7 d7 6d bf 64 4a a2 be ac 5f 73 be 77 27 ff be
       -0.92907375 -0.3169738 -0.23766965 -0.49834797
000170 aa 57 53 3e d4 9a 6c be d1 3d 5e be 9c f8 e6 be
       0.2063891 -0.23105937 -0.21703269 -0.4511155
000180 73 c1 82 3e c0 bc 2c be d2 0b 3d 3e 56 d8 4f 3f
       0.25538215 -0.16868877 0.1846154 0.8118948
000190 65 55 08 bf 11 7a 06 bf ec c3 1e bf 75 04 48 3f
       -0.532553 -0.5253001 -0.62017703 0.781318
0001a0 60 bf 2c bc 56 28 02 be 2d e6 bd 3e 85 bf 4e 3e
       -0.010543674 -0.127107 0.37089673 0.20190246
0001b0 a8 4c 94 bc 0e 1b 96 3d db 95 29 3f ca f8 2f bf
       -0.018102959 0.07329379 0.66244286 -0.68738997
0001c0 fc 5b 58 3f 25 e4 97 bd 9f c1 8d 3d 77 b5 3c be
       0.84515357 -0.07416562 0.06921696 -0.18428598
0001d0 05 d6 c4 be e0 aa 1c 3d 62 8f df be 61 13 76 bf
       -0.38444534 0.038248897 -0.4366408 -0.9612332
0001e0 4f a6 54 be 32 f0 79 be ca 96 4b 3f 9b 3b ff be
       -0.20766567 -0.24408033 0.7952696 -0.49850163
0001f0 e8 41 31 be 71 62 9b be f9 38 4f bf f3 41 ae 3e
       -0.17310297 -0.30348542 -0.8094631 0.3403469
000200 00 09 55 3f d2 03 31 3d 85 c9 e9 3d 26 0b 13 3f
       0.8321686 0.043216534 0.1141539 0.57438886
000210 40 7e 12 3f d8 c7 a5 3e c4 af 4e 3f 17 21 4a 3d
       0.5722389 0.3237903 0.8073695 0.049347963
000220 06 e3 c2 3d b5 7d 28 bf 91 34 97 be f7 ac 71 be
       0.095159575 -0.65816814 -0.29532292 -0.23601137
000230 8b c3 00 3f ed 0c de 3e 4a 92 94 3e 0d 15 4a 3e
       0.50298375 0.43369237 0.2901786 0.19734593
000240 03 c7 4c bf ac 00 0f c0 98 a8 81 be a7 93 2d be
       -0.7999117 -2.234416 -0.2532394 -0.16950856
000250 b9 19 eb be 9e a2 28 3d 1e 7b 89 3e a9 ed 90 3e
       -0.45918062 0.04117071 0.26851743 0.2830632
000260 73 12 50 3e 04 ad 94 3e c1 10 00 3e ea 2b 14 3e
       0.20319538 0.2903825 0.12506391 0.14469877
000270 28 d9 9a be 64 d3 80 3e 41 84 97 3e 53 c2 d4 be
       -0.30243802 0.25161278 0.2959309 -0.41554508
000280 f0 5e 00 bf 5b fe 3a 3f f9 c0 1e bf 56 43 37 3e
       -0.50144863 0.73044366 -0.620132 0.1789678
000290 e0 ff 43 be 51 f9 66 3e 33 66 f4 bd f6 ec f8 3d
       -0.19140577 0.22556044 -0.119335555 0.12154572
0002a0 ee c7 bd be 8d 3e ae be 73 98 87 3e 83 9b 90 3f
       -0.37066597 -0.34032097 0.26483497 1.1297458
0002b0 3d 81 bb 3e 50 09 07 bf a6 1f 54 3d 4d 2c 44 3f
       0.36622038 -0.52748585 0.051787995 0.766301
0002c0 df 19 91 bf 8e 41 ae 3e f4 c8 bd bd 41 ff 0a be
       -1.133602 0.3403439 -0.092668444 -0.13573934
0002d0 29 59 56 3d 4e 28 95 3e 94 2b a5 bd 29 6c 24 bf
       0.052331124 0.29132313 -0.080649525 -0.6422754
0002e0 75 6c 10 be bc eb b7 bc db 23 5d 3e 40 43 3b be
       -0.14103873 -0.022451274 0.21595709 -0.18287373
0002f0 b4 04 29 3f 99 82 a8 be 60 71 99 3e b4 4a 8e be
       0.660228 -0.32912138 0.2996931 -0.2779137
000300 4a 43 9b 3e d8 41 9a 3d 7d cf 20 3f 33 fc 3b bf
       0.30324775 0.0753209 0.628166 -0.734317
000310 30 06 18 3d 3e 24 dc 3d 8a 6e 69 3f d6 e8 f1 3e
       0.037115276 0.107491 0.91184294 0.47247952
000320 7b 56 2a 3d d4 63 68 be 56 0c 17 be e4 9c 10 bf
       0.04158638 -0.22694331 -0.147508 -0.56489396
000330 83 df 1a 3f f4 a7 12 3f 17 12 ea 3e df 0f b0 3f
       0.604973 0.57287526 0.45716926 1.3754843
000340 4a 4c ca 3f a4 5c 1f 3f a7 1a c0 3e 8f 86 42 bf
       1.5804532 0.62250733 0.37520334 -0.7598657
000350 db 93 79 be 8c a8 0a bf 3b 59 51 be 86 72 5a 3d
       -0.24372809 -0.5416343 -0.20444195 0.053331874
000360 c0 79 93 3f 18 0c 59 3e 88 c3 67 bd 4d 1d 1f bf
       1.152153 0.2119602 -0.056582958 -0.62154084
000370 83 e2 b8 be 4f 72 14 bf 23 32 18 bf c5 40 d8 bb
       -0.36110315 -0.5798692 -0.594515 -0.006599518
000380 96 19 72 3e cc 0e c9 be 94 a3 38 3e 34 ba 74 bd
       0.23642573 -0.39269102 0.1803115 -0.05974789
000390 50 d5 04 3d f0 04 5c be 1e 34 6c 3e 29 a6 89 3f
       0.032429993 -0.21486259 0.23066756 1.0753833
0003a0 22 08 b3 3d 01 38 b9 bd e8 2e d5 be 86 29 f4 bd
       0.087417856 -0.09043885 -0.4163735 -0.119219825
0003b0 33 93 7f 3e 36 39 85 be 9e 6e 0a 3f 70 d3 15 be
       0.24958496 -0.2602021 0.5407504 -0.14631438
0003c0 16 02 19 bf b3 60 90 3f 25 d6 bd be 3b 63 ea 3e
       -0.5976881 1.127951 -0.37077442 0.45778832
0003d0 46 c5 a3 3c 33 f8 23 3f 37 66 00 3e 84 4c f6 bd
       0.019991528 0.64050597 0.12538992 -0.12026313
0003e0 f0 55 82 3c b8 31 e3 bd 04 88 f2 be 4d 0e 3a bd
       0.015910119 -0.110934675 -0.47369397 -0.045423795
0003f0 b0 b0 19 3d e0 46 1b bf 0c 96 92 3f ff 3d 1d be
       0.037522018 -0.6065502 1.1452041 -0.15355681

a2c_network.actor_mlp.0.bias f4 [128]
000000 0d d7 18 c0 47 25 7e c0 18 00 65 be 68 42 38 c0
       -2.3881257 -3.9710252 -0.22363317 -2.879053
000010 0a 7b 61 c0 cf 17 bf 3e ec 25 93 c0 cb 24 8a bf
       -3.5231347 0.37322852 -4.598379 -1.0792478
000020 2c c9 3c 3f 51 da 5c c0 9f d4 02 c0 9a bd f7 bf
       0.73744464 -3.450825 -2.0442274 -1.9354737
000030 a2 a3 ff bf 7d 54 17 c0 fe 82 20 c0 c0 0b 22 c0
       -1.9971812 -2.3645318 -2.5079951 -2.5319672
000040 45 c0 12 be 4f cd 32 c0 04 2d 84 c0 f7 00 47 c0
       -0.14331158 -2.793781 -4.130495 -3.109434
000050 ab b1 b7 bf d5 d6 28 c0 03 02 0c c0 49 d5 3c bf
       -1.4351095 -2.6381123 -2.1876228 -0.7376295
000060 ea 4a 14 c0 49 21 89 3e 4f 85 b6 bf fe 09 db bf
       -2.3170724 0.26783207 -1.4259433 -1.7112424
000070 72 10 f2 bf b5 ac 16 3e 3a fd 2f c0 07 54 35 c0
       -1.8911269 0.1471432 -2.7498307 -2.8332536
000080 d4 09 0c c0 36 ca 64 c0 69 78 d6 bf 71 74 2d c0
       -2.1880999 -3.574842 -1.6755496 -2.710232
000090 3f 74 46 c0 8d 58 d0 3d 83 d6 de bf d3 6d 10 c0
       -3.100845 0.1017314 -1.7409214 -2.2567031
0000a0 20 cf b3 bf 1a 65 2f c0 82 ab c9 bf c0 3b 58 bf
       -1.4047585 -2.7405457 -1.5755465 -0.8446617
0000b0 b1 de e6 bf 64 4b b9 bf 34 f1 4b c0 ef 2f 95 bf
       -1.803671 -1.4476132 -3.1865969 -1.1655253
0000c0 bc a6 5f c0 c1 8b 76 bf c5 03 d6 bf 64 16 56 c0
       -3.4945517 -0.96307 -1.67199 -3.3451166
0000d0 8b ba 20 c0 a5 07 f3 3e d1 27 ce bf fc 45 5d c0
       -2.5113857 0.4746677 -1.6105901 -3.4573965
0000e0 03 bf 00 c0 44 79 2e c0 c2 3c 0b c0 e8 78 a5 bf
       -2.0116584 -2.7261515 -2.1755834 -1.2927523
0000f0 3b 9e 54 c0 cd e5 73 bf 5a 26 38 c0 5c 33 94 c0
       -3.3221576 -0.95272523 -2.8773408 -4.6312695
000100 b6 56 e8 bf 4d f1 39 c0 2a ef 31 c0 ec d5 b5 bf
       -1.8151462 -2.9053528 -2.7802224 -1.4205909
000110 4f cf 51 c0 75 dc 17 c0 cc 6b e5 bf 5a 34 97 c0
       -3.278278 -2.3728306 -1.7923522 -4.7251406
000120 e3 6d 1b c0 76 d9 40 c0 e5 a4 3a c0 93 63 4a c0
       -2.428582 -3.0132728 -2.9163144 -3.1623275
000130 e2 67 7a c0 64 c1 4d c0 e6 c5 e9 bf 7c 98 4b bf
       -3.9125905 -3.2149286 -1.8263519 -0.7952955
000140 aa 4d 88 bf 50 f8 8a bf 07 40 fe bf 70 4a 53 3f
       -1.0648701 -1.0857029 -1.986329 0.8253546
000150 e4 c7 b1 bf 5c 75 16 c0 c4 b0 5a c0 4c 9d 06 c0
       -1.3889127 -2.350913 -3.417039 -2.1033506
000160 38 7b 1c c0 9c 01 35 bf 72 67 32 c0 46 7f 21 c0
       -2.4450207 -0.7070558 -2.7875638 -2.5233932
000170 da 10 d6 be 3f dd 60 be 34 a2 0c c0 f2 1a 7b c0
       -0.41809732 -0.21959399 -2.1974 -3.9235196
000180 99 30 2d c0 c1 8b 12 c0 d4 5d a0 bf fa cd 00 bf
       -2.7060912 -2.28978 -1.2528634 -0.50314295
000190 5a ca 28 c0 98 be d7 bf 13 fd 1c c0 0b 80 6a 3e
       -2.6373506 -1.685504 -2.4529464 0.22900407
0001a0 b7 b3 8b bf ca ae 1e c0 b1 ed 14 c0 dc cc 46 c0
       -1.091422 -2.4794183 -2.3270075 -3.1062536
0001b0 4e d1 10 bf e0 29 5f c0 64 45 ce bf 9f 48 c1 be
       -0.56569374 -3.4869308 -1.6114926 -0.37750718
0001c0 8e 46 4e c0 98 48 da bf 2f 9a 1b c0 2b 2c d9 3e
       -3.2230563 -1.7053404 -2.4312856 0.4241651
0001d0 57 af 89 bf d3 b8 4d c0 80 df 31 bf 5d 88 6e 3f
       -1.0756634 -3.2144058 -0.6948166 0.93176824
0001e0 9e 3c f7 bf 51 90 17 c0 8f 1e 4c c0 4a 99 e8 bf
       -1.9315374 -2.3681834 -3.1893651 -1.817178
0001f0 59 23 be be 5c d5 38 c0 1b 12 0c c0 9c 12 3c c0
       -0.37136343 -2.8880224 -2.188605 -2.9386358

a2c_network.actor_mlp.2.weight f4 [128, 128]
000000 83 64 73 be 74 ff bf bd 7f 38 b6 be e1 73 bb bc
       -0.23768811 -0.09374896 -0.35589978 -0.022882404
000010 2e 7a 21 3e a2 a9 98 bf 79 9d 8e 3e 6a 34 5a be
       0.15769264 -1.1926768 0.27854517 -0.21309057
000020 79 82 90 bd 7d 38 06 3d ea 83 52 be 66 b2 af be
       -0.07056136 0.032768715 -0.20558134 -0.34315795
000030 36 1b 67 bd 8c c1 ef be d1 d0 a1 be 51 84 79 bc
       -0.056422435 -0.46827352 -0.31604627 -0.015229301
000040 28 3f cb be 06 92 e9 bd 74 0b 94 3e ec d6 02 3e
       -0.39696622 -0.11404805 0.28914988 0.12777299
000050 92 f0 c2 be ae 57 a7 bd a6 bb 40 3d c6 a9 4d bf
       -0.38074166 -0.081710204 0.047053955 -0.8033718
000060 39 59 78 bc 8e de 00 bf 55 5a c0 3c ce 3f 99 bd
       -0.015157991 -0.5033959 0.023480574 -0.07482873
000070 f7 27 cb be 52 b9 e0 be d8 2d d5 3d 28 00 d3 be
       -0.39678928 -0.43891388 0.104091346 -0.41211057
000080 9e f9 13 be 8e 7a e8 bc 63 14 45 bf b5 69 59 be
       -0.1445069 -0.028378751 -0.7698423 -0.2123173
000090 a4 84 19 3d ed a4 e5 be 1d b0 f7 bd 44 a4 0f bd
       0.03748001 -0.4485239 -0.12094138 -0.035068765
0000a0 7a ae 8e be e0 a1 85 3e c3 61 2a 3d ba d5 89 be
       -0.2786749 0.26100063 0.04159714 -0.26920873
0000b0 ae 14 91 3e 50 69 03 bd c2 1f 90 3e c4 99 16 bf
       0.2833609 -0.032082856 0.2814923 -0.5882838
0000c0 d8 b7 44 3e f5 06 b5 be 39 f2 e4 be 01 33 4b 3e
       0.19210756 -0.3535687 -0.4471605 0.19843675
0000d0 75 39 46 bd fe 11 3f bf ac 9f c4 be a4 53 c9 3d
       -0.04839464 -0.7463683 -0.3840307 0.09830406
0000e0 c5 77 d6 3d a3 f8 36 3e f3 63 13 be 4b 93 d3 bd
       0.10472063 0.17868285 -0.14393596 -0.10330828
0000f0 5b 4d a7 3d 1b ef 73 bf 76 e0 45 3e 07 87 30 3e
       0.08169051 -0.9528672 0.19323906 0.17239009
000100 8a 2e 1d bf e7 ed d5 be a7 39 00 bf 50 47 10 bf
       -0.6139914 -0.41783068 -0.5008797 -0.56358814
000110 fc 64 7f bd 86 65 ed be d7 85 83 be a5 cf 18 3f
       -0.062352166 -0.4636652 -0.2568805 0.5969184
000120 06 f3 67 3e 40 ed f8 3d 93 04 2d bd 20 83 75 3e
       0.226513 0.12154627 -0.04224069 0.23975801
000130 18 d1 63 be 87 1e b4 bd 24 9c 14 bf 3c f4 18 bf
       -0.22247732 -0.08794885 -0.5805075 -0.5974767
000140 30 d3 47 be 36 24 10 bf 94 2e fd bd fc d2 49 bf
       -0.19514155 -0.56305254 -0.123624 -0.7883756
000150 ec 0b c6 be 96 47 0b 3c 57 14 c4 3d de c3 f6 bc
       -0.3868097 0.008500954 0.09574192 -0.030122694
000160 85 da a2 be f1 eb 04 bf 22 bb 71 be 89 09 16 3e
       -0.31807342 -0.5192252 -0.23606542 0.14652075
000170 78 8a c5 be 4f fc ab be fc e5 90 be 7e 3c 95 3d
       -0.38582206 -0.33590934 -0.28300464 0.072869286
000180 cd 1b 22 3b 09 35 bc 3e ea 3a c4 bd 4d e0 38 be
       0.002473581 0.36759213 -0.095815495 -0.18054314
000190 ed 09 b3 3d ff fe a7 bc 75 d8 4a 3e a2 cf 4e bf
       0.087421276 -0.020507334 0.19809134 -0.8078557
0001a0 82 a1 03 bf e6 df 40 be 6c 1c b9 bd b2 f1 2c be
       -0.51418316 -0.1883541 -0.09038624 -0.16889074
0001b0 69 14 c3 be ec ed 7d 3e c3 f6 31 bf ac 83 36 bf
       -0.3810151 0.24797791 -0.69517154 -0.71294665
0001c0 c6 f3 3a 3e 7b 85 b1 3d 08 ac 40 bd aa 92 cc be
       0.18257055 0.086680375 -0.04703906 -0.39955646
0001d0 72 1a 9d be 2a 24 a6 bd 1b ee 22 bf 50 33 0a bf
       -0.3068424 -0.081123665 -0.6364457 -0.53984547
0001e0 7c bf 84 be 88 d0 cc be c6 4f 56 be 60 37 87 be
       -0.2592734 -0.40002847 -0.20928869 -0.26409435
0001f0 c3 e6 8e be 18 56 48 3c d4 68 f4 be 43 d7 83 3d
       -0.27910432 0.012227558 -0.47736228 0.06437542
000200 eb 18 14 3d e7 f0 a8 3f 2e f3 44 3c f2 f9 75 bf
       0.036156576 1.3198518 0.012020869 -0.9608451
000210 84 3a dd be 8e 29 03 bf 6d d4 5c bd 08 48 8e 3e
       -0.43208706 -0.5123528 -0.053913523 0.2778933
000220 4b e7 1e bf 81 1b 08 3e d4 26 54 3e fe 2f 0b bf
       -0.62071675 0.13291742 0.20717937 -0.54370105
000230 6e e4 2c bf e8 07 41 bf 56 b1 1f 3f f3 96 3b bf
       -0.67536056 -0.7540269 0.6237997 -0.73277205
000240 41 53 f0 bd c8 cc 8a bd 9b ea 20 bf 37 3f ce bd
       -0.117346294 -0.0677734 -0.6285798 -0.10070651
000250 ef fe 5d be 62 4c 76 be 2e 78 33 be 00 3b 90 be
       -0.2167928 -0.24052575 -0.17526314 -0.28170013
000260 98 38 43 3d f4 58 37 bf cf ad a6 be 7c 49 59 bf
       0.047661394 -0.71620107 -0.3255448 -0.84877753
000270 d3 92 4d 3e 43 65 8f 3e ee 36 1b 3f 24 c9 81 be
       0.2007554 0.28006944 0.6063069 -0.2534877
000280 f7 26 21 3f 88 9f 7c 3e cc ff ba 3d 6f a6 6f 3e
       0.6295008 0.24670231 0.09130821 0.23403333
000290 22 83 1d bf 6c 32 05 bf ad 50 2f 3f ce 65 8e bd
       -0.6152822 -0.5203006 0.68482476 -0.069530115
0002a0 85 8b a7 be 1e 2f 35 bf da 1e 90 be 86 d7 4d be
       -0.32723632 -0.7077502 -0.28148538 -0.20101747
0002b0 03 96 1f bf 60 87 89 3e 61 a9 3b bf 7b bf 99 bf
       -0.62338275 0.26861095 -0.73305327 -1.201156
0002c0 b4 56 5e 3d 54 fa 03 bd 78 de 57 3e d0 1c df 3e
       0.054281905 -0.032221153 0.21080959 0.4357667
0002d0 bf ac 91 be 93 16 9b be 8e 1a 2d be 7b 63 3c bf
       -0.28452107 -0.3029066 -0.16904661 -0.73589295
0002e0 cc b3 e3 3e b3 fc 4e bf 1c c1 14 be f8 79 01 3f
       0.44473112 -0.8085434 -0.1452679 0.50576735
0002f0 e0 65 9f 3e 13 d4 13 bf b8 cd bf 3e 31 f1 1e bf
       0.31132412 -0.57745475 0.37461638 -0.6208678
000300 75 a4 ed be d0 cc 11 bf 31 a3 7a 3e ef 40 dc 3e
       -0.46414533 -0.56953144 0.24476315 0.4301829
000310 8d 3c c5 be 8a 7f 6b 3e 69 e2 47 3e 39 a6 17 bd
       -0.3852276 0.22997871 0.19519962 -0.037023757
000320 4c e3 1e 3c 4c 47 54 bd a3 23 3c be 16 79 7a be
       0.0096977465 -0.051825806 -0.1837297 -0.24460253
000330 c6 f9 9d bd b6 f5 c4 bf b8 36 84 3e 93 2f d7 be
       -0.07713656 -1.5387485 0.25822997 -0.42028484
000340 e3 4a 46 bf b3 c9 c9 be 82 57 c4 bd 51 de 80 bf
       -0.7745802 -0.39411697 -0.09587003 -1.0067846
000350 43 6d 2e bf e1 9a f6 be 3c d9 2c bf 14 28 0e 3f
       -0.6813547 -0.48165038 -0.67518973 0.55529904
000360 8e 9b 8d 3f 3d 4a 80 be 78 a2 06 be a9 28 25 bf
       1.1063097 -0.2505664 -0.13147914 -0.6451517
000370 a0 c9 39 be 15 e4 e9 3d 85 db 65 3d b6 2d 9b bf
       -0.1814332 0.11420456 0.056117553 -1.2123325
000380 ed 09 da 3d 4c fe 32 3e 35 10 da be be 32 03 bf
       0.106464244 0.17479819 -0.4259049 -0.512493
000390 23 26 c5 3c f4 eb ca be 42 a0 85 3e ae a6 b6 3e
       0.024066037 -0.39633143 0.2609883 0.35674042
0003a0 61 bf 04 bf ac bb 82 3c 45 cb 9a be d7 e9 1e bf
       -0.5185452 0.01595863 -0.30233207 -0.6207556
0003b0 71 d6 cf bf e4 a4 99 be 7b 0b 58 bf ca 23 0e be
       -1.6237317 -0.30008614 -0.8439252 -0.1388084
0003c0 46 a7 9e 3e 69 b2 64 3d 8e 64 03 3f c5 87 fd be
       0.30986995 0.055834208 0.5132531 -0.49517646
0003d0 0d 1f 15 bf ec 10 13 3e d8 e2 a2 3d 57 96 dc bf
       -0.58250505 0.14361924 0.07953423 -1.723338
0003e0 83 75 19 3f bd a8 76 3d 65 dd c4 3d 77 d3 8b be
       0.59944934 0.060219515 0.0961254 -0.27309772
0003f0 e1 db a7 3e ec 9b 47 bf b5 ce a1 bd 57 71 07 bf
       0.32784942 -0.7797229 -0.07900754 -0.5290732

a2c_network.actor_mlp.2.bias f4 [128]
000000 6f 27 0c c0 89 c1 30 bf ec d0 b3 be 34 f4 4a bf
       -2.1899068 -0.6904531 -0.35120332 -0.79278874
000010 fe f3 db be f7 90 61 bf 1d d7 d6 be c3 e5 36 bf
       -0.4295959 -0.88111824 -0.41960993 -0.7144434
000020 a7 c1 6d bf a1 63 74 bf 5e 75 5f bf 38 5a 7f bf
       -0.92873615 -0.9546452 -0.87288463 -0.9974704
000030 d3 2f 59 bf 7a 65 3c bf 48 07 ad bf 53 f8 1c bf
       -0.848386 -0.7359234 -1.3517847 -0.6131641
000040 26 95 13 bf 1e 42 e4 be 32 50 ba be da 33 32 c0
       -0.5764946 -0.44581693 -0.3638931 -2.7844148
000050 57 f2 71 bd c7 9a 05 bf a3 45 b8 be e3 7f 80 bf
       -0.059069004 -0.52189296 -0.3599063 -1.0039028
000060 d1 0d 6d bf bd 62 85 3e 9c c7 05 bf 1c 40 c2 be
       -0.9259921 0.26051894 -0.52257705 -0.37939537
000070 3c 51 ad be 44 51 07 bf 46 c7 56 be 3c 32 9f bf
       -0.3385104 -0.52858377 -0.20974454 -1.2437205
000080 a1 aa 95 bf 06 6c cc be 0e 84 88 bf 99 a6 08 bf
       -1.1692697 -0.39926165 -1.06653 -0.5337921
000090 ab c6 18 bf d3 d2 04 bf d0 d5 f0 be 36 1e 02 bf
       -0.59678143 -0.5188419 -0.47038126 -0.5082735
0000a0 88 2d 05 bf 51 21 20 bf 9b 23 ab bf 9c a5 28 bf
       -0.520226 -0.62550837 -1.3370241 -0.658777
0000b0 aa a8 ef be 8b 46 61 bf 08 43 3b bf 0b d3 b3 bf
       -0.46808368 -0.87998265 -0.73149157 -1.404878
0000c0 9b fe 62 bf e9 34 7a bf d5 1a f1 bf 9c b5 e8 be
       -0.8866975 -0.97736984 -1.8836313 -0.45451057
0000d0 d4 dd ad bf 9a 89 d5 be 2d 83 5b be be 91 06 bf
       -1.3583322 -0.41706544 -0.21436758 -0.52566135
0000e0 71 a2 25 be 89 77 a9 bf d0 af 9e bf 47 28 1d bf
       -0.16175248 -1.3239604 -1.2397404 -0.61389583
0000f0 80 a8 85 bf 4f d9 cb be da b3 81 bf 51 48 47 bf
       -1.0442047 -0.3981423 -1.0133011 -0.7784472
000100 66 9d 06 bf 64 c0 89 bf 1b 30 66 be 2c 9a 32 bf
       -0.5258392 -1.0761838 -0.22479288 -0.697665
000110 88 07 85 bf 4a fa 35 bf aa 47 20 bf b1 34 50 bf
       -1.0392923 -0.71085036 -0.6260935 -0.813304
000120 18 e3 1a bf ab 4f 6b bf 63 37 c3 be 11 6a 6a be
       -0.6050277 -0.9191844 -0.38128194 -0.22892024
000130 04 a3 73 bf 32 e9 5d bf c0 4b bd bd dc e7 e6 be
       -0.9517062 -0.8668395 -0.09242964 -0.4509877
000140 7f 0b 06 bf 47 4c f1 be 58 9d 62 be af 4a 80 bf
       -0.5236129 -0.47128507 -0.22130334 -1.0022792
000150 59 9a 21 bf 34 3b 6e 3e 1f 8b 22 bf 79 6d b1 bf
       -0.6312614 0.23264772 -0.6349353 -1.3861533
000160 d4 3f a1 bf ee b1 11 bf 07 65 cd be ff bd 47 bf
       -1.2597604 -0.56912124 -0.4011614 -0.78024286
000170 7f e0 33 bf a0 e6 65 bf 55 33 5d bf 0b cc 1d bf
       -0.7026443 -0.8980503 -0.8640645 -0.6163947
000180 fa ff 8d bf ed 99 30 bf 76 5e 03 bf 86 67 49 bf
       -1.1093743 -0.6898487 -0.5131601 -0.7867359
000190 ed 96 81 bf a3 ec a7 bf ca 51 24 bf f5 5c e0 be
       -1.0124184 -1.3119091 -0.641873 -0.4382092
0001a0 5b 2d c2 bf a9 e7 6e bf f1 a5 26 bf 59 b5 82 bd
       -1.5170091 -0.93322235 -0.65096956 -0.063822456
0001b0 9b b5 8a bf cf 70 62 bf 9d 73 fb bf e8 98 c1 be
       -1.0836672 -0.8845338 -1.9644657 -0.3781197
0001c0 7a 6d 0d bf 1b 24 50 bf e5 fc 2c bf e5 36 3f bf
       -0.5524517 -0.8130509 -0.67573386 -0.7469314
0001d0 1f e1 0e bf 20 61 15 bf b3 a3 52 bf f5 a2 09 bf
       -0.5581226 -0.58351326 -0.82281035 -0.5376428
0001e0 16 4a 4c bf 7d d2 dc be 29 7c 28 bf 2a 44 66 bf
       -0.79800546 -0.4312934 -0.65814453 -0.8994776
0001f0 76 d3 df be 3e fd e0 bf ed 32 4b bf 81 9b 87 bf
       -0.4371602 -1.7577283 -0.7937458 -1.0594331
