python/rlgpu/saved_nn/1234/last_Aliengoep=8000rew=[1153.94].pth (torch, 523930 bytes, 18 tensors)

running_mean f8 [361]
0	0xbfb3bddf8b7f6b1e	-0.07711598544794326
1	0xbf72bc8471732a9f	-0.00457431541071665
2	0x3fcfd97e0f64ed55	0.248824841992113
3	0x3f9a053321a9d7d4	0.025410460405019666
4	0xbfc40af906cc827b	-0.15658486206031683
5	0x3fd48d8af537f1b9	0.3211390871727207
6	0x3fd803914d009469	0.375217747876667
7	0x3fd9c28bc1944103	0.40249914077959675
8	0x3fe15adfabcb6cbb	0.5423429828037095
9	0x3fc415b38cf39b12	0.15691227323915108
10	0x3fbfd62516be3e80	0.12436134152653189
11	0xbfd5443fd86d1248	-0.332290612557959
12	0x3fcc7ff36b62092d	0.22265475028331974
13	0xbf9bc343fbba2efe	-0.027112066497052993
14	0xbfd3f3c8b9424902	-0.3117543992203907
15	0xbfb11e3d58fec803	-0.06686767027602518
16	0x3fc354e53dc2841b	0.15102830424896826
17	0xbfd4b127ab6b1eaf	-0.323312680626695
18	0xbfc5c229ec0e40d1	-0.1699879076591118
19	0xbfc37582e5ce24b8	-0.15202366085967411
20	0xbfd410f9fbc96f0d	-0.3135361632209744
21	0x3fda72b9388a5aee	0.41325216790703123
22	0xbfa030ed4a22c206	-0.031623282718445764
23	0x3fcc7a7ba4b490dd	0.22248788397076327
24	0x3fddaa6b86067e9e	0.4635266121713161
25	0x3fa638501a5c5758	0.04339838334833129
26	0x3fc68bf70c08819e	0.1761463936573024
27	0x3fdae3e041cc143f	0.4201584475088715
28	0x3f913cb9c1fc9a1f	0.01683321234227197
29	0x3fc3f80dfd620686	0.15600752708637716
30	0x3fdccb033278521f	0.4498908989783405
31	0x3fb6020248faa01e	0.08596815377916342
32	0x3fc0162802d97646	0.1256761564172157
33	0xbfe1fa8471dde173	-0.561830732723179
34	0x3fe63a0a60b2ffa9	0.6945850266129031
35	0xbfd76b110410cea6	-0.36590981862102934
36	0x3fdaa07fb64f8045	0.4160460739494776
37	0x3fe803ccdf5743e4	0.7504639017225796
38	0xbfd6debd5edae22e	-0.3573449541395658
39	0xbfcd666a59d73a3b	-0.22968797098879343
40	0xbfe0b556ed16caa6	-0.5221361761708365
41	0xbfe3562f48786788	-0.6042705932079437
42	0x3faed5b6be5885cc	0.060224257216997396
43	0xbfddc695f44fff10	-0.4652457128395193
44	0xbfd4b0f7e3528b9e	-0.32330128859956087
45	0x3fe4261e002ac2cc	0.6296529773008728
46	0x3fdff3883d76abbe	0.49923902513790697
47	0x3fefc62394c6a336	0.9929368882922975
48	0x3fe0002c867b5c8d	0.5000212313269842
49	0x3fe34b5ee247b716	0.6029505176099714
50	0x3fbc3f225161cb74	0.1103383492170858
51	0x3fe496eb08d1c70f	0.6434226200346717
52	0x3fc51a9a7ea461a6	0.16487437423417112
53	0x3f98cfc8a7f84cfa	0.024230132343359558
54	0xbfddd10d80eaff25	-0.46588456716198073
55	0x3fe5e1d1c16c4c0b	0.683815839557043
56	0x3fdc9402c01f1a9e	0.4465338588892481
57	0xbfcbe11c7b0a6ce1	-0.21780735023353429
58	0xbfe5f00846fcf58b	-0.6855508219229461
59	0x3fd3a05862e8cf8f	0.3066616979515339
60	0x3fe421898f7d6787	0.6290939142738673
61	0x3fdfe1e8d39d36e8	0.49816342034760774
62	0x3fefbd0ffb326b1e	0.9918289095106478
63	0x3fdff73ad6d9b32d	0.4994647119663565
64	0x3fe34664051c0acc	0.6023426151080797
65	0x3fbc2d1539a52c29	0.11006291062692299
66	0x3fe492d24ca0f2ed	0.6429225441603116
67	0x3fc51a05369d4ded	0.1648565785095423
68	0x3f98a84d3f185500	0.024079520202652027
69	0xbfddca49fd088014	-0.4654717417743097
70	0x3fe5dc6eacf5efb3	0.6831582430017903
71	0x3fdc8c6f1a7c27ff	0.44607141100334496
72	0xbfcbdc7880671cef	-0.21766573209445236
73	0xbfe5ec1ccc0e86f2	-0.6850723252757389
74	0x3fd39b80e5aa44bb	0.3063661806891777
75	0x3fcaf8d511fd85e0	0.21071875933107176
76	0x3fcbd96375f63514	0.21757167110300968
77	0x3fcbdbf395e8e4ef	0.21764988727389986
78	0x3fcb8040a5451d49	0.214851456354362
79	0x3fcb1851fa421c3a	0.2116796943630293
80	0x3fcaafbe5e36ea36	0.20848826980894025
81	0x3fca53b8153d1e72	0.20567990338371406
82	0x3fca79d81857b7b9	0.20684338749509637
83	0x3fcacd8d91c2287e	0.20939797989950998
84	0x3fcb317428019529	0.21244670823504322
85	0x3fcb9f29315fb7b4	0.21579470549425894
86	0x3fcbee7bca66d524	0.21821544058699616
87	0x3fcb896631eaff05	0.2151305907955178
88	0x3fcb1a69ad89c9d9	0.2117435548166913
89	0x3fca3c0d6aeb370d	0.20495765419621428
90	0x3fc830b973f7d8aa	0.1889869514704448
91	0x3fc7e7a7fa0a5342	0.18675708493233328
92	0x3fc7d2e4e3386b29	0.18612347693200462
93	0x3fc9a0494d381d99	0.20020405073613004
94	0x3fca728fd7b3e1e0	0.20662115127903657
95	0x3fcb1c50536b1124	0.21180156777530457
96	0x3fccef3b3fa83379	0.22605076416257555
97	0x3fcc3f7434e8d465	0.22068646033736453
98	0x3fcb6758e06b04a5	0.2140914054671487
99	0x3fca0bb1daacc813	0.2034818952320739
100	0x3fc77edb74095ef3	0.1835588757119165
101	0x3fc73071587e2848	0.1811658556073914
102	0x3fc6f3c860b57e4e	0.17931465837590327
103	0x3fc928d5fdb72be1	0.19655871284916684
104	0x3fca71c84b1b4ea0	0.20659736316030308
105	0x3fcbaff9d6536b0e	0.21630785908822542
106	0x3fce133bbc78e7ba	0.23496195509670575
107	0x3fcd200ab816c30c	0.22754034031597603
108	0x3fcb466a307028c5	0.21308638920920067
109	0x3fc906715754e3cd	0.19550911678541497
110	0x3fc735229219cd80	0.18130905278995257
111	0x3fc6d2b67d95c541	0.17830544597704015
112	0x3fc6858922fa2c3a	0.17595018585083883
113	0x3fc7f1b96ea3eb13	0.18706434156759907
114	0x3fca249ba22bbdfd	0.2042421857690754
115	0x3fcc72f418761b6c	0.22225810236360688
116	0x3fcf5b0f2322ac8e	0.24496640410993503
117	0x3fce165cd7677ec5	0.2350574542788221
118	0x3fcb9b63991d2924	0.2156795976282605
119	0x3fc8ee9d5dcdbc8d	0.19478194313294175
120	0x3fc71ed466e07952	0.18062834761890173
121	0x3fc6a14f1e0258fd	0.1767977615861084
122	0x3fc65cf9ddde8d2b	0.17471240361656135
123	0x3fc7b8bec079f8f5	0.18532547376884848
124	0x3fca5cf6f5248981	0.20596205682620553
125	0x3fcd57c6341cde4a	0.22924115700310416
126	0x3fd05f1e7abdc41c	0.255805606712842
127	0x3fcf20988bf6ae69	0.2431822474876413
128	0x3fcbeb3d58546742	0.21811644375775968
129	0x3fc8e998e56650e9	0.19462882233768333
130	0x3fc7253a6745d870	0.1808236126195797
131	0x3fc688729d8a8e4b	0.1760390538448625
132	0x3fc65c8e13b8aa0e	0.17469955409008303
133	0x3fc79fee6de8948a	0.18456821791292938
134	0x3fcaa74846e918ad	0.20823005163601263
135	0x3fce5bab799d3610	0.23717254102886942
136	0x3fd1dcfe4464af08	0.2791133563903121
137	0x3fd0c4f793b78df0	0.26202191758622373
138	0x3fcc31c1d4772cac	0.22026846765797836
139	0x3fc8753f138e53d6	0.19107807593232334
140	0x3fc754c1b5e06fea	0.18227406864832513
141	0x3fc5f58df0ccb34a	0.17155622728150838
142	0x3fc699a7d05f8910	0.17656419443580562
143	0x3fc74900ffa590a2	0.1819154022479142
144	0x3fcb316a3e37daa2	0.2124455264854151
145	0x3fd06aad323407c8	0.2565110197320988
146	0x3fc821b074e153ee	0.18852811533966424
147	0x3fc8c959d45f2b58	0.1936447417231999
148	0x3fc8aa0a03a2c66f	0.1926891820672156
149	0x3fc86478a9e5616c	0.19056614204124445
150	0x3fc82e515a906c72	0.1889135067184245
151	0x3fc7f5ae010e69a7	0.18718504954888468
152	0x3fc7d5ef83a3eff3	0.1862162964606565
153	0x3fc81a6dab0219f8	0.18830653047571366
154	0x3fc861e666978e6f	0.19048767098785244
155	0x3fc895223d75bb46	0.19205120087596067
156	0x3fc8c8d3fbdc18f4	0.1936287860664333
157	0x3fc8ecd54077b8fa	0.19472757003627078
158	0x3fc8319f933c7413	0.18901438416733693
159	0x3fc7878829e48026	0.18382360501800682
160	0x3fc7098ce7cd080e	0.17997895544436954
161	0x3fc5e82cca546346	0.17114791755082076
162	0x3fc6272f88e2aeff	0.173070852125754
163	0x3fc6523e891af98d	0.1743848962268654
164	0x3fc7cd490e7c01ba	0.18595231253858718
165	0x3fc83ffcbc2c0f56	0.1894527357873083
166	0x3fc88b288547a880	0.19174677379425376
167	0x3fca1228c4e30cb8	0.2036791764604453
168	0x3fc8c2e9f2146be7	0.19344829864789334
169	0x3fc798dfeb3d93cc	0.18435286508898086
170	0x3fc6bef33cd026c3	0.1777023360194133
171	0x3fc55147ccad9356	0.16654298299831777
172	0x3fc5c999604f49df	0.1702148170721349
173	0x3fc607ccc12b681e	0.17211303169352815
174	0x3fc7d513e11cc504	0.1861901139432477
175	0x3fc898ba2dbd6906	0.1921608661021496
176	0x3fc951ded3e22702	0.19781098695630567
177	0x3fcbacac060fd663	0.2162070302580786
178	0x3fc9c44ccd7fc5f1	0.20130310091148787
179	0x3fc787123cbe9ca4	0.18380954710048514
180	0x3fc5e99b7617f87c	0.17119162813463962
181	0x3fc512114f6a081e	0.1646138799442846
182	0x3fc594bb9dac81f1	0.16860146712225757
183	0x3fc5f7e9d3762b95	0.17162821603082237
184	0x3fc725479c346fe3	0.18082518698872638
185	0x3fc8985dddac006f	0.19214986156294198
186	0x3fca6ca9b6fea3bf	0.20644113002097517
187	0x3fcdca6f6c1bc512	0.23274033335432215
188	0x3fcb2d885209c6ef	0.21232704168101388
189	0x3fc7f7dcdc1ecb60	0.18725167034207413
190	0x3fc5f2dda5ef0176	0.17147417642810198
191	0x3fc50492e804aa54	0.16420208291067928
192	0x3fc584a50ebded19	0.16811049671000758
193	0x3fc608049eab6854	0.17211969134843008
194	0x3fc737b1f9844bf5	0.18138718303143234
195	0x3fc8fcd60e37336f	0.19521594709513176
196	0x3fcbd677d4d46ad3	0.21748254673078424
197	0x3fd012e40414db22	0.2511529960496991
198	0x3fccffa83a337483	0.22655203668447052
199	0x3fc87ffefe5b1ef3	0.19140613002513582
200	0x3fc6197c020fbfbe	0.17265272236499912
201	0x3fc51a4b6705acfa	0.16486494570140292
202	0x3fc58cb7a9472313	0.1683568550636428
203	0x3fc62b9b4c3bc498	0.17320576879823046
204	0x3fc74c1525b050ce	0.18200935688276448
205	0x3fc955604759f4d5	0.19791797145800297
206	0x3fcd946b2c531a1f	0.2310918775967403
207	0x3fd24d9c11edd38d	0.2859869170272809
208	0x3fd0b0bd3f0045b0	0.2607873072857627
209	0x3fc9848f818b142f	0.19935792756419476
210	0x3fc6346c154f3832	0.17347479858875797
211	0x3fc57f8faa018330	0.16795535851545074
212	0x3fc55f7412d6868e	0.16697550697158586
213	0x3fc689c244f1fab9	0.17607906691042333
214	0x3fc6f322314d0b9c	0.17929484755776748
215	0x3fc98d17638364cb	0.1996182666687559
216	0x3fd0c2b9841e77e0	0.26188505079505653
217	0x3fc757190442bd65	0.18234551151315795
218	0x3fc74a5acd6bb54e	0.18195662527379358
219	0x3fc7766190a71227	0.183300204878962
220	0x3fc785d7575f61d1	0.18377200857390943
221	0x3fc77fd094cbede6	0.1835880972429173
222	0x3fc782aa7d5f622d	0.18367510911663612
223	0x3fc77686b8e3ffd3	0.183304634359955
224	0x3fc78ff3b81dd6c7	0.18408056726518948
225	0x3fc7947ceb4ae46c	0.18421899308103507
226	0x3fc7947f94cefcab	0.1842193104366506
227	0x3fc77a27b27c0faf	0.18341537680691775
228	0x3fc4515e0635ef50	0.15873313239341735
229	0x3fc44bfed1746741	0.15856919505386638
230	0x3fc6ae3e17887bac	0.17719246052817306
231	0x3fc69fb7951c75c1	0.176749179657163
232	0x3fc6227ec597ef67	0.17292771003837545
233	0x3fc67d8a2963a675	0.1757061674209585
234	0x3fc5b6e2b14bb7b2	0.16964372307796577
235	0x3fc5ce33c15f2863	0.1703552908132365
236	0x3fc5c15e22e8e4b5	0.16996361450745714
237	0x3fc3cc2e89d7d093	0.15466863375298043
238	0x3fc445e78c121a90	0.158383315462022
239	0x3fc4402d1aa4898b	0.15820850182451482
240	0x3fc694f610b381d1	0.1764209348248316
241	0x3fc681132a1c7ade	0.17581405216420526
242	0x3fc5c1e95fc48a79	0.16998021293791846
243	0x3fc65799239d87c7	0.17454828490286742
244	0x3fc5490cf6ad94ef	0.1662918285830197
245	0x3fc5870152686b89	0.1681825306303291
246	0x3fc55efe1912f10e	0.1669614431792827
247	0x3fc38e8d754f26c2	0.15278785922992283
248	0x3fc45a028a09e5dd	0.15899688472909093
249	0x3fc47178578dfa53	0.15971283221365926
250	0x3fc4ea9e492b9826	0.16340998242157062
251	0x3fc5d8ceb0cbb1f6	0.17067893631555336
252	0x3fc593f5bbfbde5e	0.16857787779712202
253	0x3fc645a69282687a	0.17400056985644935
254	0x3fc5332232c006d0	0.16562297323257846
255	0x3fc507f74ed1f9e8	0.16430560444491893

running_var f8 [361]
0	0x3f9eb05ee63c2662	0.029969675829340743
1	0x40058dc04de9ed66	2.6942144476903875
2	0x3fc1ad02fe6a9144	0.13809239790601613
3	0x4019882cbe2d1e86	6.382983180526599
4	0x3fbf869374aa3813	0.12314721678032496
5	0x3fcbe7baba9c1c68	0.21800932037169507
6	0x3fce01cd34dd6e7a	0.2344299800996515
7	0x3fcec88357a708db	0.2404941728582973
8	0x3fcfc544f43c6112	0.24820768285349765
9	0x3f98cefc42a64b38	0.024227086608856058
10	0x3f6ef27b1255fa83	0.0037777332060494064
11	0x3f78e896de277583	0.006081189467719186
12	0x3f93a42f5027d0ec	0.019181002871804617
13	0x3f778a7e95e8d533	0.005747312998712051
14	0x3f7404b35c5a20ac	0.004887295368128413
15	0x3fa1113234c17eaa	0.03333432096473861
16	0x3f6d3a6b30772b24	0.0035678952733396874
17	0x3f6a81f4c48a672e	0.003235796033845959
18	0x3f9a67bc2aa76137	0.025786342719443325
19	0x3f6c425526df6c1f	0.0034495986101155253
20	0x3f649182fdab7242	0.002510791627498927
21	0x401d7e19ebb0acf9	7.373145754488399
22	0x3ffcb8a3218f8ec6	1.7950774489371937
23	0x400b47ccabeedb1a	3.4100583488719964
24	0x4016bef25c2a0051	5.686471405089905
25	0x3ff920a84712e73f	1.5704729820558467
26	0x40090aa5caa4e1cd	3.1301990348403934
27	0x4015a04aea0c9a9e	5.406535775203023
28	0x3ff3f62ea392f0d8	1.2476030721291433
29	0x3ff658b742703fb0	1.3966591449024968
30	0x400abfb5a2357ac4	3.3436081574030556
31	0x3fea7e71965b880b	0.827935022036628
32	0x3febccb26820cb49	0.868737414717864
33	0x4027328c46f5dfa2	11.598726480020392
34	0x4028256bb4528340	12.073087344238616
35	0x40255796c0f68958	10.671072034926212
36	0x4025f03fb2bcc62b	10.96923597864505
37	0x40279565b5277ca3	11.791791592664884
38	0x4020e5ed088c42f2	8.449074046251074
39	0x40249b51ef0978b1	10.303359479814704
40	0x4024d6efa48d0f1b	10.41979707929527
41	0x4021adc0d4398553	8.839361793538648
42	0x4020c236339b759a	8.379319775320983
43	0x40202b61eb5f7a58	8.084731440930383
44	0x401d7db801ab6ce5	7.372772241676306
45	0x3fd630ae99d224ed	0.3467213155896179
46	0x3fdbb85c542d0b8e	0.43312748165424686
47	0x3f75b4a0dea48052	0.005299213788276873
48	0x3fe0d21130797d54	0.5256429621476095
49	0x3fdb415cdf770464	0.42586442778344336
50	0x3fe6b7536b4ec48a	0.7098786445477725
51	0x3fd919f306d8e4e4	0.3922088209979633
52	0x3fe5f0a01133567f	0.6856232009838122
53	0x3fe749595f614388	0.7277037489785565
54	0x3fe184d1cb8559e1	0.5474633193032866
55	0x3fd5e990dfbe8851	0.3423807320597279
56	0x3fe2236d931a52c3	0.5668247101881082
57	0x3fe54da1b8e2a3b2	0.6657265292206971
58	0x3fd292c72a344fe6	0.29020861741559967
59	0x3fe477d900dc665f	0.6396298424544503
60	0x3fd62f060b5922e2	0.34662009342404876
61	0x3fdbc08819aeea95	0.4336261988461641
62	0x3f7a2fd164b6654b	0.006393258994102989
63	0x3fe0cf52d58d7732	0.5253080531071872
64	0x3fdb3e714ec78a07	0.42568619435601857
65	0x3fe6b0f4a9b35bc2	0.7091010393586361
66	0x3fd915cbd720999d	0.39195533760575946
67	0x3fe5e9d07c9361bb	0.6847917969817482
68	0x3fe7429984b06fdb	0.7268798438631124
69	0x3fe18105120e4e3c	0.5469994881299907
70	0x3fd5e91ee170d42b	0.34235355392167105
71	0x3fe21f9b7246698c	0.5663583023008854
72	0x3fe54769d3e5255f	0.6649674547744943
73	0x3fd28fa562e1a2f0	0.2900174584997748
74	0x3fe47273bd8671a5	0.6389712049163349
75	0x3fb939784fb5f4ea	0.09853317209304505
76	0x3fba63d263c04d2f	0.10308566031772125
77	0x3fba6365631534f5	0.10307916325583107
78	0x3fb9efea050edc23	0.10131704925048317
79	0x3fb963d3b054ad5a	0.09917948775244181
80	0x3fb8d8dc1c7bb8c4	0.09705901809113288
81	0x3fb869ddcc241635	0.09536539300832987
82	0x3fb88e708858965b	0.09592345551262708
83	0x3fb8f7f97535996c	0.09753378974492016
84	0x3fb980492c6e036a	0.09961373648367347
85	0x3fba12fecd52471a	0.10185234558801107
86	0x3fbb27824c58487a	0.10607160915268024
87	0x3fbac1f7596797d0	0.10452218945246661
88	0x3fb9e237facc31dd	0.10110807297696263
89	0x3fb8b6f22e03616e	0.09654153464669488
90	0x3fb637b7d1c44074	0.08678768988852587
91	0x3fb5a86e84123cdc	0.08460131382365738
92	0x3fb5c5135f449a2c	0.08503838611486775
93	0x3fb807695a87bcba	0.09386309108934912
94	0x3fb9289c0500067e	0.09827590105126124
95	0x3fba4692e82d720a	0.10263937157055394
96	0x3fbc9fa2c3bee768	0.11181084898899274
97	0x3fbbe96b51aba7f1	0.10903044456395584
98	0x3fba77183944a75c	0.10337973974369902
99	0x3fb8aab4ef8856f3	0.09635477874720859
100	0x3fb57f404e540713	0.08397294914541602
101	0x3fb4d6412f19bdc4	0.0813942661277372
102	0x3fb4d284c1dc48e1	0.08133725865289733
103	0x3fb7a31d9374e88f	0.0923326954843182
104	0x3fb9643d5daa6bab	0.09918578659782777
105	0x3fbb47ded10e50f0	0.10656540492920263
106	0x3fbe38e35338d4d5	0.11805554181849527
107	0x3fbd3651d2716e11	0.11411010158320091
108	0x3fbac3f71e7a1542	0.10455269331040021
109	0x3fb7b4582ae59356	0.092595587227675
110	0x3fb544571e02fdd5	0.08307404024798555
111	0x3fb477cbf314a0c3	0.07995295223793435
112	0x3fb46473fceb2575	0.0796577923275857
113	0x3fb65aa5c3b80aa2	0.08732067135137325
114	0x3fb96b127c0b96f0	0.09929004219483395
115	0x3fbc74528bd312ff	0.11114993966755192
116	0x3fbff1b163636b60	0.12478169132684291
117	0x3fbe936f986e87a7	0.11943719359854175
118	0x3fbb63d598de8cc9	0.10699210149919049
119	0x3fb7c595521faa87	0.09285863165829698
120	0x3fb549ee23b594ff	0.08315933582123945
121	0x3fb456f4137d9b97	0.07945180393072203
122	0x3fb44b27e7654192	0.07927178763680434
123	0x3fb634e1a687b5a2	0.08674440684963838
124	0x3fb9e4793881ecdd	0.10114247922495019
125	0x3fbdbfe2da9ee58e	0.11620920026225276
126	0x3fc0df9979b9981f	0.13182371562578596
127	0x3fbffd5cccd42e72	0.12495975495056102
128	0x3fbbfaf862affaac	0.10929825219498451
129	0x3fb7eddfdb98e3f9	0.09347342597256149
130	0x3fb5744fc2421e7e	0.0838060235274671
131	0x3fb45c65a2231524	0.07953486641334401
132	0x3fb462adc768321d	0.07963071935973472
133	0x3fb634db818bfea8	0.08674404061093333
134	0x3fba6d7a70179622	0.10323300587295894
135	0x3fbf254e0ab39d28	0.1216629768492693
136	0x3fc2b85a6e22f379	0.1462510144973768
137	0x3fc183b12cc06ec7	0.13683142361775522
138	0x3fbcd63fb4ad8b70	0.11264417801934967
139	0x3fb7e52477c20fa1	0.0933401863458685
140	0x3fb5f4173e585904	0.08575577995393152
141	0x3fb428654ee50a04	0.07874139000072239
142	0x3fb4ddbcddb85ddb	0.08150844967928299
143	0x3fb61fca87743f3a	0.08642259413704503
144	0x3fbb70cd4178e49d	0.10718996857112235
145	0x3fc1223d3a2dfb07	0.13385739651490544
146	0x3fb60b894c142040	0.08611353022945512
147	0x3fb6fd52ee2ebb45	0.08980291666987934
148	0x3fb6cb4bda2d4a2c	0.08903955532631674
149	0x3fb666f8cce6e95e	0.08750872614374347
150	0x3fb612e8592548b6	0.0862260072365498
151	0x3fb5c593e063ed48	0.08504604557304163
152	0x3fb5a80b9672cbfe	0.0845954172425962
153	0x3fb5fbc7f2d95f69	0.08587312392171288
154	0x3fb65edd7c956970	0.08738502780525947
155	0x3fb6add2e97879c9	0.08858984184232734
156	0x3fb6f76221d5a3f9	0.08971227003134165
157	0x3fb7c2c2215ab570	0.09281552614512179
158	0x3fb6ef3015175e6a	0.08958721651958404
159	0x3fb5d1693c6cc416	0.0852266094705246
160	0x3fb51117e1d7f63a	0.08229207290420329
161	0x3fb3899d736f28de	0.07631858890741536
162	0x3fb3a95f6b3ceec6	0.07680317276111301
163	0x3fb41fbe329454f7	0.07860935911988408
164	0x3fb60e12aa534c28	0.086152235587449
165	0x3fb6b96411eb9e61	0.08876634061345491
166	0x3fb7617469b50099	0.0913307912896947
167	0x3fb980e3b322c8de	0.09962294696268567
168	0x3fb802f4b7acc1bd	0.09379510387657937
169	0x3fb6273478c64172	0.08653572033495552
170	0x3fb4e470d11c20e1	0.08161072831365203
171	0x3fb2eea62f77ba5a	0.07395399721983989
172	0x3fb347016e38521e	0.07530220929067652
173	0x3fb3eb4f8a904d36	0.07780930645849513
174	0x3fb64ae64baf627b	0.08708037708073306
175	0x3fb762d8ce47caea	0.0913520339598041
176	0x3fb8ae131524eb0f	0.09640616670814615
177	0x3fbbc56e4574c40d	0.1084813041277501
178	0x3fb995e6309226fe	0.09994352994740649
179	0x3fb671259a1bebba	0.08766398441723214
180	0x3fb408160c208246	0.07824838443821944
181	0x3fb2bf76cc1ce563	0.0732340095827531
182	0x3fb32081e4fad080	0.0747147735626772
183	0x3fb40074f46b0985	0.07813197104682075
184	0x3fb5acf771f742da	0.08467051060075495
185	0x3fb7c8808be73744	0.09290316978078034
186	0x3fba572f724460a2	0.10289284267162427
187	0x3fbe8facd530392d	0.11937980847162484
188	0x3fbb9b186854fe8e	0.10783531710785096
189	0x3fb73ae9d5f81277	0.09074269746640505
190	0x3fb43cf908fac075	0.07905537099100164
191	0x3fb2d0157348cc9a	0.07348760666427481
192	0x3fb330d26810d7b7	0.07496371308010806
193	0x3fb4401ac8c6ea57	0.07910315896780538
194	0x3fb5f468717ab7a7	0.08576061983578019
195	0x3fb880ab8e3224ec	0.0957133505018139
196	0x3fbc549baa090a3e	0.11066601659062145
197	0x3fc0c13f65aeadab	0.13089745011289486
198	0x3fbe0705a0537375	0.11729464687546261
199	0x3fb81cf2bf887bea	0.09419171501257009
200	0x3fb4981738ff659c	0.08044572011512802
201	0x3fb30d60efc4e941	0.07442289212932442
202	0x3fb3676ac6728712	0.0757967695704134
203	0x3fb498d4226feb30	0.08045698014022373
204	0x3fb6407ffa21bee2	0.08692169052823887
205	0x3fb92944efd9d173	0.09828596931203552
206	0x3fbea2b405190332	0.11967015385108651
207	0x3fc354835ad44550	0.15101663527506526
208	0x3fc1a30fd4b21d7c	0.13778875241790078
209	0x3fb9da00a08e9353	0.10098270339819963
210	0x3fb532ee30530ac4	0.08280838660997875
211	0x3fb3d13b9919bf30	0.07741138923460933
212	0x3fb3b0a74ee769d6	0.07691426922193698
213	0x3fb563f038d3ce46	0.08355618846308585
214	0x3fb658e31acdd761	0.08729380993267234
215	0x3fba00cc69d01ed5	0.1015746839840362
216	0x3fc1b87ffd0cde29	0.13844299179048505
217	0x3fb90e86a1075a07	0.09787789756169483
218	0x3fb92427937ea1d9	0.09820792532867219
219	0x3fb94d9133d80ddd	0.09883983150216787
220	0x3fb9551b2d787f37	0.09895486698269172
221	0x3fb9466b449cdcfa	0.09873075890651598
222	0x3fb945950de8a4cd	0.09871799077577066
223	0x3fb93c8525bf1891	0.09857971355003971
224	0x3fb95a65c7c3e1d9	0.09903560759619924
225	0x3fb9644a0295e170	0.09918654025194029
226	0x3fb9699f814556c2	0.09926793008829818
227	0x3fb9536d4e28adc4	0.09892924459625535
228	0x3fb603d25049d31a	0.08599581203618492
229	0x3fb5ffbfeae6baed	0.08593368039030809
230	0x3fb896e755fc3599	0.09605260705230591
231	0x3fb873f0cc4825af	0.0955191134200024
232	0x3fb7d1bff5f2d166	0.09304427866556395
233	0x3fb82a6b04e48b09	0.09439724797679729
234	0x3fb785c7a73aba4d	0.09188506920575286
235	0x3fb7bee7e4648a96	0.0927567417716467
236	0x3fb7b896226593a6	0.09266031589284171
237	0x3fb57d7647a3b288	0.0839456486607536
238	0x3fb62aa0b1a3866b	0.08658794724353817
239	0x3fb629dff1932fd8	0.08657645843339823
240	0x3fb8b168910e2054	0.09645703832041025
241	0x3fb87c8fe34d07fb	0.09565066623056843
242	0x3fb77f915a9ea22f	0.09179027998346422
243	0x3fb8167bef55e4e9	0.09409308045532651
244	0x3fb735d749bf7dae	0.09066529798973619
245	0x3fb7a911e53fef1e	0.09242355200688876
246	0x3fb783834b3c5ed5	0.09185047709285794
247	0x3fb567491f8c8bd5	0.0836072637580821
248	0x3fb676a694604d6e	0.08774796602692955
249	0x3fb69d52da542783	0.08833806829730233
250	0x3fb70c0ce6016408	0.09002762427680022
251	0x3fb7e3992f1cad3b	0.09331662559695968
252	0x3fb76c4a78b4f570	0.09149613806672163
253	0x3fb82058bb9fbd94	0.09424357014335377
254	0x3fb74d9f06a9b218	0.09102815544765297
255	0x3fb747ae6da6f0cb	0.09093752076200017

count f8 []
0	0x4217d78400040000	25600000001.0

running_mean f8 [1]
0	0x40565faa2a13fc48	89.49476100875575

running_var f8 [1]
0	0x407b8fb250254188	440.98103346398466

count f8 []
0	0x41f7d78400100000	6400000001.0

a2c_network.sigma f4 [15]
0	0xbf75b963	-0.95986
1	0xbf8f012f	-1.1172236
2	0xbfb37d17	-1.4022549
3	0xbf333a2b	-0.7001063
4	0xbf2c3d46	-0.67280996
5	0xbf6215d6	-0.8831457
6	0xbf0e03c3	-0.5547449
7	0xbf1ed6f3	-0.62046736
8	0xbf403b02	-0.7509004
9	0xbf5c5fd6	-0.86083734
10	0xbf14659c	-0.57967544
11	0xbf312ace	-0.6920594
12	0xbf3fad57	-0.7487387
13	0xbf614eae	-0.8801068
14	0xbf0a8806	-0.54113805

a2c_network.actor_mlp.0.weight f4 [128, 361]
0	0x3f5943ac	0.84868884
1	0xbf1f780b	-0.62292546
2	0x3db85630	0.09000814
3	0xbe1a2cf3	-0.1505621
4	0xbf04ba2d	-0.5184658
5	0xbe25c2c3	-0.16187577
6	0xbe10304e	-0.14080927
7	0xbed6a00b	-0.41918978
8	0xbf754525	-0.9580863
9	0xbf41c63e	-0.7569312
10	0xbf54b86a	-0.83093894
11	0xbefe2afa	-0.49642164
12	0xbdbdea25	-0.09273175
13	0xbe7d326c	-0.24726266
14	0xbf86d90c	-1.0534987
15	0x401f1880	2.4858704
16	0x3f0e2e7e	0.5553969
17	0xbf7bbffe	-0.9833983
18	0x4029319d	2.6436532
19	0x3e2e0ff0	0.16998267
20	0xbfdcaa0a	-1.7239392
21	0x3ea0239b	0.31277165
22	0xbed9cfa5	-0.42541233
23	0x3f8c55c8	1.0963678
24	0xbf2466f9	-0.64219624
25	0x3f4977b2	0.78698266
26	0x3fc9293f	1.5715712
27	0x3f83f055	1.0307719
28	0x3e14fdb9	0.14549913
29	0x3f5e7cc4	0.8690913
30	0xbedab0a3	-0.42712888
31	0xbf538bc2	-0.8263513
32	0xbe4b7d45	-0.19872005
33	0x3eff793f	0.4989719
34	0xbf643788	-0.89147234
35	0x3f1206f2	0.5704185
36	0xbfec7f3b	-1.8476328
37	0xbe8d6d04	-0.27622235
38	0xbe583008	-0.21112072
39	0xbf0cefd5	-0.55053455
40	0x3efe877b	0.49712738
41	0xbf1e5101	-0.6184235
42	0x3f93d6a9	1.1549884
43	0xbeed47c2	-0.4634381
44	0x3f454a3c	0.770664
45	0xbf5d2d14	-0.8639691
46	0xbde5b465	-0.11216048
47	0xbf75f801	-0.9608155
48	0x3f08d5ef	0.53451437
49	0x3e543dba	0.20726672
50	0xbec1fe4b	-0.37889323
51	0xbfc10fd7	-1.5082959
52	0xbf1eb434	-0.6199372
53	0xbf100e84	-0.5627215
54	0x3ec9646b	0.39334425
55	0xbf2f1c3e	-0.6840247
56	0xbf736408	-0.9507451
57	0xbef8164d	-0.48454514
58	0x3f6b9204	0.9201968
59	0xbef6d8fd	-0.48212424
60	0xbf0f2064	-0.559088
61	0xbe8177f3	-0.25286826
62	0xbfd2fa6f	-1.6482676
63	0xbf68564c	-0.9075668
64	0x3e0464f3	0.12929134
65	0xbec2c8dc	-0.3804387
66	0xbf192787	-0.5982594
67	0xbfbbb1c6	-1.4663627
68	0xbe9f274d	-0.31084672
69	0xbeb2394f	-0.34809348
70	0xbfe5d77a	-1.7956383
71	0xbf397cd2	-0.72456086
72	0xbd740968	-0.059579283
73	0x3f7f419f	0.99709505
74	0xbe97468d	-0.29546013
75	0xbe05c23a	-0.13062373
76	0xbdb2f446	-0.08737998
77	0x3f19f2ad	0.6013592
78	0x3e6ea338	0.2330445
79	0xbce66bbb	-0.028127542
80	0x3f4b895f	0.79506487
81	0x3e57b38b	0.21064584
82	0x3ebfec35	0.374849
83	0xbe9ba2e8	-0.30397725
84	0xbd8365bd	-0.064158894
85	0x3e232e5e	0.15935656
86	0xbdea23a3	-0.114325784
87	0xbf50f7c0	-0.81628036
88	0xbf7fb41c	-0.998842
89	0xbee6addb	-0.45054516
90	0xbe48fd22	-0.19627813
91	0xbef39ee4	-0.4758216
92	0x3e5b6836	0.21426472
93	0xbddbf3c2	-0.107398525
94	0xbd13f918	-0.036126226
95	0xbea2fce2	-0.3183356
96	0x3e50d320	0.20393038
97	0xbe9d6f4c	-0.30748975
98	0x3e131771	0.14364411
99	0x3f4ddb77	0.80413
100	0xbf356883	-0.708626
101	0xbee76428	-0.451936
102	0xbf1a2141	-0.6020699
103	0x3f63085b	0.88684624
104	0x3da9a767	0.082838826
105	0xbda10a36	-0.07863276
106	0x3e822bb4	0.25423968
107	0x3da8b09c	0.082368106
108	0xbde068f8	-0.10957521
109	0xbbe301bc	-0.006927697
110	0x3f42ad90	0.76046085
111	0xbf2f769a	-0.68540347
112	0x3f6c586a	0.9232241
113	0xbced85b8	-0.028994426
114	0x3e7835db	0.24239294
115	0xbe31c77e	-0.17361256
116	0xbecfe992	-0.40607888
117	0xbda62885	-0.08113197
118	0xbeeeb652	-0.46623474
119	0xbf7fb74d	-0.9988907
120	0xbe43527c	-0.19074434
121	0xbda05d8d	-0.078303434
122	0x3f30b8db	0.6903207
123	0xbed504ce	-0.41605228
124	0x3bc3059c	0.0059515964
125	0xbeb9242b	-0.36160406
126	0xbf7a95cf	-0.9788484
127	0x3e9669b5	0.29377523
128	0x3f7683e1	0.9629498
129	0x3cf80760	0.030276954
130	0x3dad1c2d	0.0845264
131	0x3f0885cd	0.53329164
132	0x3f097631	0.5369597
133	0x3ee00e18	0.43760753
134	0x3f843f88	1.0331888
135	0x3d56ee45	0.052473325
136	0xbd8951e8	-0.067050755
137	0xbf5f0bcc	-0.87127376
138	0xbe8ed05f	-0.2789335
139	0xbe750ab6	-0.23929867
140	0x3ea14bbd	0.31503096
141	0x3eb6ccdb	0.35703167
142	0x3dfe6943	0.12422421
143	0x3e693b57	0.22776543
144	0xbf583c67	-0.84467167
145	0xc00e8cf6	-2.2273536
146	0xbe4974f7	-0.19673525
147	0xbe6866f8	-0.2269553
148	0xbee246b2	-0.4419456
149	0x3d75ca2c	0.06000726
150	0x3ee91de5	0.4553062
151	0x3ec33a87	0.3813059
152	0x3e8cacf6	0.2747571
153	0x3ebe79e4	0.3720237
154	0x3e3a91df	0.18219708
155	0x3dcbb041	0.09945727
156	0xbe93d2b9	-0.28871706
157	0x3e5c2ecc	0.21502227
158	0x3e875ade	0.26436514
159	0xbe946fbf	-0.28991506
160	0xbea095e7	-0.31364366
161	0x3f2f6aa1	0.6852208
162	0xbf367f4e	-0.71288
163	0x3e60942b	0.21931522
164	0xbd9de529	-0.077097245
165	0x3e62dda6	0.22154865
166	0xbdb12552	-0.086496964
167	0x3e04e815	0.12979157
168	0xbea6db62	-0.3258925
169	0xbeb99d95	-0.36253038
170	0x3e96dc9d	0.2946519
171	0x3f893422	1.0719035
172	0x3e9ef2aa	0.31044513
173	0xbf1f3eee	-0.622054
174	0x3de85c92	0.113457814
175	0x3f47374b	0.77818745
176	0xbf8c6e27	-1.0971116
177	0x3ea31709	0.31853512
178	0xbdeaa75b	-0.11457702
179	0xbe2af894	-0.16696388
180	0x3da7f661	0.0820129
181	0x3e71cd73	0.23613529
182	0x3cafd7fa	0.02146529
183	0xbf3857d5	-0.7200902
184	0xbd460612	-0.048345633
185	0xbd7cacd1	-0.061688248
186	0x3e736f1a	0.2377285
187	0xbe15bdd1	-0.1462319
188	0x3f28e1a1	0.6596928
189	0xbe988413	-0.29788265
190	0x3e989965	0.2980453
191	0xbec13781	-0.3773766
192	0x3ecc944a	0.39956886
193	0x3e47ef40	0.1952486
194	0x3f23888e	0.6388024
195	0xbf3bc7eb	-0.73351926
196	0x3d6a6dd0	0.05723363
197	0x3de6e374	0.11273852
198	0x3f708af1	0.9396201
199	0x3f041134	0.5158875
200	0x3dc9c148	0.098513186
201	0xbcf8d77f	-0.030376194
202	0xbca00361	-0.019532861
203	0xbf0d9c99	-0.55317074
204	0x3ef3460a	0.47514373
205	0x3f017bfc	0.5057981
206	0x3edead67	0.4349167
207	0x3fada4f9	1.3565971
208	0x3fc52b6e	1.5403879
209	0x3f1f2e8f	0.6218042
210	0x3ee4b31d	0.44667903
211	0xbf2c10ee	-0.6721333
212	0xbe233d6b	-0.15941398
213	0xbf4195e0	-0.75619316
214	0xbe88e584	-0.26737607
215	0x3d070331	0.032962028
216	0x3f849932	1.0359251
217	0x3e0ad531	0.13557889
218	0x3cb77746	0.022395741
219	0xbf0b9fa4	-0.5454047
220	0xbe2cf138	-0.16888893
221	0xbef9856c	-0.48734605
222	0xbf1d4dbf	-0.61446756
223	0xbbdd8b68	-0.0067610033
224	0x3e807193	0.2508665
225	0xbee6beb6	-0.45067376
226	0x3e41f5bc	0.18941396
227	0x3d9982ed	0.07495675
228	0x3e527514	0.20552474
229	0xbd90ac41	-0.07064105
230	0x3e80bd5e	0.25144476
231	0x3f89d8d6	1.0769298
232	0x3d268611	0.0406552
233	0xbe37e0e8	-0.17956889
234	0xbf14711e	-0.57985103
235	0xbe28d746	-0.1648837
236	0x3e79db25	0.24400003
237	0xbe867a52	-0.26265198
238	0x3f1d5d8a	0.61470854
239	0xbdd364dc	-0.10321972
240	0xbf1d4665	-0.6143554
241	0x3f8d19d7	1.1023511
242	0xbebd325c	-0.36952484
243	0x3ebc902b	0.3682874
244	0xbd1f3495	-0.038868506
245	0x3f1cfbca	0.613217
246	0x3e0e0c68	0.1387192
247	0xbd49cd78	-0.049268216
248	0x3cc2346d	0.02370664
249	0xbd43880a	-0.04773716
250	0xbefaec28	-0.49008298
251	0xbe2871bf	-0.1644964
252	0xbe0c6189	-0.13709082
253	0xbf0e6000	-0.55615234
254	0x3f8e9333	1.1138672
255	0xbe710409	-0.23536696

a2c_network.actor_mlp.0.bias f4 [128]
0	0xc01e3a26	-2.472299
1	0xc07ab4d6	-3.9172873
2	0xbe581fad	-0.21105833
3	0xc0392b40	-2.8932648
4	0xc061f975	-3.5308506
5	0x3eb5f7e3	0.35540685
6	0xc09071d0	-4.513893
7	0xbf876d6b	-1.0580267
8	0x3f352527	0.70759815
9	0xc05782f8	-3.3673687
10	0xc003647a	-2.0530076
11	0xbffc55eb	-1.971372
12	0xbff58aef	-1.9183024
13	0xc0187db3	-2.382672
14	0xc01fc34b	-2.4962947
15	0xc021cea7	-2.528238
16	0xbe227d14	-0.15868026
17	0xc02dfa99	-2.7184203
18	0xc082c1dd	-4.086165
19	0xc04247b1	-3.0356257
20	0xbfb13db2	-1.3846953
21	0xc0287574	-2.6321688
22	0xc00c9c6a	-2.1970468
23	0xbf416deb	-0.75558347
24	0xc00f45ce	-2.2386355
25	0x3e76d9fb	0.2410659
26	0xbfb21f60	-1.3915825
27	0xbfdd3094	-1.728045
28	0xbfedffcc	-1.8593688
29	0x3df1bc22	0.118034616
30	0xc03081d6	-2.7579246
31	0xc03324a6	-2.7991118
32	0xc00c813b	-2.1953876
33	0xc05f4868	-3.4887943
34	0xbfd0b3ea	-1.6304905
35	0xc02d988d	-2.712436
36	0xc0433888	-3.0503254
37	0x3d8db587	0.06919389
38	0xbfe13553	-1.7594398
39	0xc00c85f6	-2.1956763
40	0xbfb2c27f	-1.3965605
41	0xc02b0c04	-2.6726084
42	0xbfc9cd57	-1.576579
43	0xbf59454d	-0.8487137
44	0xbfe980fd	-1.8242489
45	0xbfb33ad0	-1.4002323
46	0xc04d6e33	-3.209851
47	0xbf97ab0b	-1.1849073
48	0xc05f2719	-3.4867613
49	0xbf770000	-0.96484375
50	0xbfda4f68	-1.7055483
51	0xc050aaab	-3.2604167
52	0xc01c5841	-2.4428866
53	0x3ee5e914	0.44904387
54	0xbfcd2caa	-1.6029255
55	0xc058c81d	-3.387214
56	0xbffee01a	-1.991214
57	0xc02b420a	-2.6759057
58	0xc009efc4	-2.1552591
59	0xbfa2755c	-1.2692065
60	0xc0545d65	-3.3182003
61	0xbf6eeb8c	-0.93328166
62	0xc0355102	-2.8330693
63	0xc0932178	-4.5978355
64	0xbfe562c0	-1.7920761
65	0xc0338ed2	-2.805592
66	0xc02d6cb3	-2.7097595
67	0xbfb6d743	-1.4284443
68	0xc04f58e2	-3.2398
69	0xc0199935	-2.399976
70	0xbfe488bc	-1.7854228
71	0xc093df22	-4.620988
72	0xc018ddfd	-2.388549
73	0xc0431c98	-3.0486202
74	0xc03957c6	-2.8959823
75	0xc049c5ba	-3.1526933
76	0xc07590ce	-3.8369632
77	0xc0477952	-3.1167798
78	0xbfe7de5b	-1.8114733
79	0xbf48d8be	-0.7845572
80	0xbf8745a3	-1.0568126
81	0xbf85f021	-1.0463907
82	0xbff7978a	-1.9343121
83	0x3f5750ef	0.8410787
84	0xbfaf856a	-1.371259
85	0xc0137276	-2.3038611
86	0xc05b0869	-3.4223883
87	0xc004f483	-2.0774238
88	0xc01bd446	-2.4348311
89	0xbf26dffc	-0.65185523
90	0xc032e649	-2.7953055
91	0xc02069bf	-2.5064542
92	0xbee6d7f3	-0.4508663
93	0xbe54305b	-0.20721571
94	0xc00f14be	-2.235641
95	0xc0784ff8	-3.879881
96	0xc02b1885	-2.6733716
97	0xc012a2c6	-2.291185
98	0xbf9f4d15	-1.2445399
99	0xbefd0ade	-0.49422354
100	0xc026584a	-2.5991387
101	0xbfda1fc3	-1.7040943
102	0xc01a84db	-2.4143589
103	0x3e516dbf	0.20452021
104	0xbf8ac79c	-1.0842166
105	0xc01c2161	-2.4395373
106	0xc012711f	-2.2881544
107	0xc03dab19	-2.963568
108	0xbf11d819	-0.56970364
109	0xc0609b0b	-3.509463
110	0xbfcab0f0	-1.5835247
111	0xbec7dd28	-0.39035916
112	0xc049cd2f	-3.1531484
113	0xbfda7372	-1.7066481
114	0xc01b10eb	-2.4229076
115	0x3edae837	0.4275529
116	0xbf8b1847	-1.0866784
117	0xc04bbb3d	-3.183303
118	0xbf30be7d	-0.6904066
119	0x3f703a0c	0.9383857
120	0xbff132eb	-1.8843664
121	0xc00ffc7a	-2.249785
122	0xc047c86d	-3.121608
123	0xbfe6de24	-1.8036542
124	0xbebc665d	-0.36796847
125	0xc03665c2	-2.8499608
126	0xc007637d	-2.1154473
127	0xc0366702	-2.850037

a2c_network.actor_mlp.2.weight f4 [128, 128]
0	0xbe6941ba	-0.22778979
1	0xbe046e87	-0.12932788
2	0xbea9c51d	-0.33158198
3	0xbd77d383	-0.060504448
4	0x3e0164f8	0.12636173
5	0xbf961d3b	-1.172767
6	0x3e8a7d40	0.27048683
7	0xbe725659	-0.23665752
8	0xbd029702	-0.031882294
9	0xbb19e834	-0.002348435
10	0xbe3b54a6	-0.1829401
11	0xbeb41419	-0.35171583
12	0x3a4f3f5a	0.00079058635
13	0xbef2ee4a	-0.47447425
14	0xbe82a9bd	-0.25520125
15	0x3ccfcda6	0.025366616
16	0xbede5ad9	-0.43428686
17	0xbe1b8959	-0.15189113
18	0x3eb73a9a	0.35786897
19	0x3db6d85e	0.089279875
20	0xbe8c61b5	-0.27418295
21	0xbdfe5e2a	-0.12420304
22	0x3c057fab	0.008148114
23	0xbf475db0	-0.7787733
24	0xbce41a40	-0.027844548
25	0xbedc9958	-0.43085742
26	0xbc8156b5	-0.015788415
27	0x3c2bd651	0.010488109
28	0xbeaf7c01	-0.34274295
29	0xbed2bb66	-0.411586
30	0x3e19942e	0.14997932
31	0xbee0ee78	-0.43931937
32	0xbd104a52	-0.035227127
33	0xbd872cea	-0.066003636
34	0xbf4d701e	-0.802492
35	0xbe53125c	-0.20612472
36	0x3bbac7cc	0.005700087
37	0xbef8dbbc	-0.48605144
38	0xbe0274d3	-0.12739877
39	0xbc4ec041	-0.012619079
40	0xbe91a59d	-0.28446665
41	0x3ea1df5d	0.31615725
42	0x3daed33a	0.08536382
43	0xbe959d3b	-0.2922152
44	0x3ea8c071	0.3295932
45	0xbd82c605	-0.063854255
46	0x3e81c4f7	0.25345585
47	0xbf075265	-0.528601
48	0x3e24f554	0.1610921
49	0xbebbc73d	-0.36675444
50	0xbed8f538	-0.42374587
51	0x3e435702	0.1907616
52	0xbdb35b13	-0.087576054
53	0xbf36fa2e	-0.71475494
54	0xbed96449	-0.42459324
55	0x3d7dd31d	0.06196891
56	0x3dac9306	0.0842648
57	0x3e185132	0.14874724
58	0xbe23743b	-0.15962307
59	0xbda13c9b	-0.07872888
60	0x3d36d5b4	0.044637397
61	0xbf813b01	-1.0096132
62	0x3e14fb06	0.14548883
63	0x3e86a4ee	0.26297706
64	0xbf27110c	-0.65260386
65	0xbeda9e55	-0.42698923
66	0xbf043557	-0.5164389
67	0xbf17b364	-0.59258103
68	0x3cc8e84c	0.02452483
69	0xbf01724d	-0.50565034
70	0xbe86591f	-0.2623987
71	0x3f0eca5b	0.5577752
72	0x3e633700	0.2218895
73	0x3de0d53d	0.10978172
74	0xbd900872	-0.07032861
75	0x3e52140e	0.20515463
76	0xbe861775	-0.2618977
77	0xbd9ac50f	-0.07557117
78	0xbf1cc583	-0.6123888
79	0xbf211a3f	-0.62930673
80	0xbe4519cf	-0.19248126
81	0xbf1a01a1	-0.60158736
82	0xbd866acc	-0.06563339
83	0xbf48934c	-0.7834976
84	0xbec066d6	-0.37578458
85	0x3b3bfdaa	0.002868513
86	0x3d707dfe	0.058713906
87	0x3c757ce5	0.01498339
88	0xbeb639dc	-0.35591018
89	0xbf0974c5	-0.536938
90	0xbe40881c	-0.18801922
91	0x3e491aa6	0.19639072
92	0xbed40e6a	-0.41417247
93	0xbeb18cb5	-0.34677663
94	0xbe959334	-0.2921387
95	0x3d191583	0.03737403
96	0xbbdf9e37	-0.0068242806
97	0x3edbce9e	0.42931074
98	0xbe0c9b7c	-0.13731188
99	0xbe365e17	-0.1780933
100	0x3e0fab24	0.14030129
101	0xbd74969d	-0.05971395
102	0x3e20f52f	0.1571853
103	0xbf41a900	-0.756485
104	0xbf042398	-0.5161681
105	0xbe0f7c65	-0.14012296
106	0xbdee6c8f	-0.116418
107	0xbe332e87	-0.17498218
108	0xbeaef9f1	-0.34175065
109	0x3e9214a5	0.28531376
110	0xbf2a09f0	-0.66421413
111	0xbf3125ae	-0.6919812
112	0x3e35282e	0.17691109
113	0x3dad726e	0.08469091
114	0xbdaa4596	-0.08314054
115	0xbeb34556	-0.35013837
116	0xbe853e4e	-0.26024097
117	0xbdeaebe5	-0.114707746
118	0xbf2af7b0	-0.6678419
119	0xbf077481	-0.52912146
120	0xbe9956d9	-0.29949072
121	0xbeb0fe10	-0.34568834
122	0xbe7e7d13	-0.248524
123	0xbe83be76	-0.25731248
124	0xbe93d345	-0.28872123
125	0xbb1dc47f	-0.002407342
126	0xbefb392e	-0.49067062
127	0x3dd67192	0.104708806
128	0x3d322c16	0.043499075
129	0x3f9bca61	1.2171136
130	0x3b85e1de	0.0040857634
131	0xbf46b972	-0.7762672
132	0xbee60b92	-0.44930702
133	0xbee2af3f	-0.44274327
134	0x3d089866	0.033348463
135	0x3ea27ef9	0.31737497
136	0xbf315825	-0.6927512
137	0x3df898b1	0.121384986
138	0x3e37bf1f	0.17944
139	0xbe7c4ee2	-0.24639466
140	0xbf197618	-0.5994582
141	0xbefcb6a1	-0.49358085
142	0x3f4f2a4f	0.8092393
143	0xbf22571f	-0.63414186
144	0xbe2d2339	-0.16907968
145	0x3d00f4e5	0.03148355
146	0xbf2f60a1	-0.6850682
147	0xbd4e4c14	-0.050365523
148	0xbef9dd02	-0.48801428
149	0xbedced03	-0.43149576
150	0xbe098f74	-0.1343363
151	0xbe93a54f	-0.28837058
152	0x3dcd5d7d	0.10027597
153	0xbf1da50d	-0.6157997
154	0xbed6790a	-0.4188922
155	0xbf54093b	-0.82826585
156	0x3cfb5c2f	0.030683605
157	0x3eaffbc4	0.3437177
158	0x3ee5e5e5	0.44901958
159	0xbe6d029d	-0.23145528
160	0x3f0dfbc4	0.5546229
161	0x3e408d4d	0.18803902
162	0x3e0a8036	0.13525471
163	0x3e99ee61	0.3006468
164	0xbf3462a2	-0.70463
165	0xbf1c51f0	-0.61062527
166	0x3f281d21	0.6566945
167	0x3c2e0928	0.0106223
168	0xbef9321b	-0.4867104
169	0xbeed3801	-0.4633179
170	0xbe566ffa	-0.20941153
171	0xbe7a48dd	-0.24441858
172	0xbf35460c	-0.7081001
173	0x3e3ee2f1	0.18641259
174	0xbf0f544a	-0.5598799
175	0xbfb26b3e	-1.3938978
176	0x3e42ef08	0.19036496
177	0xbd878218	-0.0661661
178	0x3e505c5b	0.20347731
179	0x3f1381ce	0.5761994
180	0xbea2adc6	-0.31773204
181	0xbe8b100b	-0.27160677
182	0xbe6f2801	-0.23355104
183	0xbf3691e9	-0.7131639
184	0x3ee1f648	0.4413321
185	0xbf560842	-0.8360635
186	0xbddbb84c	-0.10728511
187	0x3f1a5688	0.60288286
188	0x3e65f329	0.2245604
189	0xbf04b561	-0.5183926
190	0x3eef85c6	0.4678175
191	0xbf158892	-0.58411515
192	0xbedc2c79	-0.4300268
193	0xbf0ea21f	-0.5571613
194	0x3e6cef2a	0.23138109
195	0x3eae8520	0.3408594
196	0xbee59a1f	-0.44844148
197	0x3e9e77f4	0.30950892
198	0x3dbd0009	0.09228522
199	0x3e177e43	0.14794259
200	0x3e1d3208	0.15351117
201	0x3ca8dcff	0.020613192
202	0xbe18e226	-0.14930019
203	0xbe9a2192	-0.30103737
204	0xbdf99aae	-0.12187706
205	0xbfc4f298	-1.5386534
206	0x3e962832	0.29327542
207	0xbee21c9a	-0.44162446
208	0xbf29ff80	-0.6640549
209	0xbe8f5a7b	-0.2799872
210	0xbdc94371	-0.098273166
211	0xbf83016b	-1.0234808
212	0xbf0163c2	-0.50542843
213	0xbee32653	-0.44365177
214	0xbf2547c2	-0.6456262
215	0x3ee6ac5d	0.45053378
216	0x3f9565e9	1.1671726
217	0xbedb6dfc	-0.4285735
218	0xbc285f31	-0.010276602
219	0xbef27726	-0.47356528
220	0xbe4b11b6	-0.19830975
221	0x3e2a3abc	0.16623968
222	0x3e1fda40	0.156106
223	0xbf94069e	-1.156452
224	0x3cabea52	0.020985756
225	0x3e882c7f	0.26596448
226	0xbee78487	-0.45218298
227	0xbf0b5944	-0.54433084
228	0x3dc123c2	0.094306484
229	0xbec1cd19	-0.3785179
230	0x3ddb6e3c	0.10714385
231	0x3ee4beaf	0.4467673
232	0xbf349e95	-0.70554477
233	0xbd6b1d83	-0.05740119
234	0xbec06753	-0.3757883
235	0xbf3492c0	-0.7053642
236	0xbfc65303	-1.5494083
237	0xbea1a8f4	-0.31574214
238	0xbf60447f	-0.87604517
239	0xbd2f497f	-0.0427947
240	0x3e808740	0.25103188
241	0x3d84e8b5	0.06489698
242	0x3eb8a54a	0.36063606
243	0xbf12bc98	-0.5731902
244	0xbf336d5e	-0.70088756
245	0x3e9e5c89	0.30929974
246	0x3dfaa162	0.122378126
247	0xbfd33f0f	-1.6503619
248	0x3f3440d4	0.7041142
249	0x3e6a6092	0.22888401
250	0x3de7f299	0.11325569
251	0xbe689f14	-0.22716933
252	0x3ea956bc	0.33073986
253	0xbf2551cd	-0.64577943
254	0xbeda6bd9	-0.42660406
255	0xbf104794	-0.5635922

a2c_network.actor_mlp.2.bias f4 [128]
0	0xc009a2c2	-2.150559
1	0xbf2b5cd6	-0.6693853
2	0xbea98d57	-0.33115646
3	0xbf4ce8a2	-0.8004247
4	0xbee111f1	-0.43959
5	0xbf5dd26a	-0.8664919
6	0xbeda6413	-0.42654476
7	0xbf36c124	-0.7138846
8	0xbf77306d	-0.96558267
9	0xbf711e36	-0.94186723
10	0xbf510377	-0.8164591
11	0xbf80da60	-1.0066643
12	0xbf569dca	-0.83834517
13	0xbf3bb4be	-0.73322666
14	0xbfa5f5d3	-1.2965645
15	0xbf135295	-0.57547885
16	0xbf10cb2d	-0.5656002
17	0xbee73112	-0.45154625
18	0xbeb5a0b6	-0.35474175
19	0xc0308a4f	-2.7584417
20	0xbd96befa	-0.07360645
21	0xbf065529	-0.52473694
22	0xbeb3c20e	-0.3510899
23	0xbf7a5f4e	-0.97801673
24	0xbf6de511	-0.9292765
25	0x3e863fd7	0.2622058
26	0xbf078c9d	-0.52948934
27	0xbecbb596	-0.39786977
28	0xbeaf31a4	-0.3421756
29	0xbf071f07	-0.5278172
30	0xbe5b8191	-0.21436144
31	0xbf9f34ac	-1.2437949
32	0xbf96a6e6	-1.1769683
33	0xbec62c8b	-0.3870586
34	0xbf82ce51	-1.0219213
35	0xbf066ff9	-0.52514607
36	0xbf1c5214	-0.6106274
37	0xbf070543	-0.52742404
38	0xbef5f1d2	-0.48036057
39	0xbef12421	-0.47097877
40	0xbef644ee	-0.48099464
41	0xbf2098ff	-0.62733454
42	0xbfa8ce1d	-1.3187901
43	0xbf21cad4	-0.63200116
44	0xbeeeeabb	-0.4666346
45	0xbf59fb16	-0.8514875
46	0xbf3a8e96	-0.7287382
47	0xbfad0b1d	-1.3519017
48	0xbf5d823f	-0.86526865
49	0xbf779dad	-0.9672497
50	0xbfe336a8	-1.7751055
51	0xbeecf23b	-0.46278557
52	0xbfab7418	-1.3394804
53	0xbedaff52	-0.4277292
54	0xbe73b375	-0.23798926
55	0xbf01d7c3	-0.5071985
56	0xbe246190	-0.16052842
57	0xbfa12290	-1.2588673
58	0xbf9d1cf6	-1.2274463
59	0xbf1c0c52	-0.609563
60	0xbf85107b	-1.0395654
61	0xbebea13e	-0.37232393
62	0xbf81f9e7	-1.0154389
63	0xbf41dd72	-0.75728524
64	0xbf091090	-0.535409
65	0xbf8a1af5	-1.0789477
66	0xbe3a64af	-0.1820247
67	0xbf201f8e	-0.6254815
68	0xbf7ea298	-0.9946685
69	0xbf2e8fc2	-0.68188107
70	0xbf197e7c	-0.59958625
71	0xbf31cb70	-0.69451046
72	0xbf15f66d	-0.5857914
73	0xbf69c512	-0.9131633
74	0xbecaeb8d	-0.39632836
75	0xbe63477f	-0.22195242
76	0xbf708342	-0.93950284
77	0xbf5bdfc5	-0.8588832
78	0xbdb7d856	-0.0897681
79	0xbee70422	-0.4512034
80	0xbf03497c	-0.51284003
81	0xbee60e31	-0.44932702
82	0xbe4ce032	-0.20007399
83	0xbf75c13f	-0.95997995
84	0xbf1e8708	-0.6192479
85	0x3e750b99	0.23930205
86	0xbf2974ea	-0.6619402
87	0xbfaeedb7	-1.3666295
88	0xbf9e7a67	-1.2381104
89	0xbf08b746	-0.53404653
90	0xbec11ef8	-0.3771894
91	0xbf43577f	-0.76305383
92	0xbf37c813	-0.71789664
93	0xbf7a386b	-0.97742337
94	0xbf5b8f86	-0.85765874
95	0xbf1a97f9	-0.6038814
96	0xbf8706fc	-1.0549006
97	0xbf2e68ae	-0.6812848
98	0xbeeb2307	-0.4592516
99	0xbf470a91	-0.777505
100	0xbf81751f	-1.0113868
101	0xbfa3ae15	-1.2787501
102	0xbf20c468	-0.6279969
103	0xbed5297c	-0.41633213
104	0xbfbf2e41	-1.493599
105	0xbf663122	-0.8991872
106	0xbf289086	-0.65845525
107	0xbd7a5aae	-0.061121635
108	0xbf89b234	-1.0757508
109	0xbf5f03a4	-0.8711493
110	0xbffb7469	-1.96449
111	0xbec3a82c	-0.38214242
112	0xbf0ec73f	-0.55772775
113	0xbf4b01d0	-0.7929964
114	0xbf2b2b3a	-0.66862833
115	0xbf384b3d	-0.71989805
116	0xbf0eba95	-0.5575345
117	0xbf0f50d7	-0.55982727
118	0xbf493234	-0.7859223
119	0xbf0b07b3	-0.54308623
120	0xbf49b017	-0.78784317
121	0xbee3a372	-0.44460636
122	0xbf24c3b4	-0.6436112
123	0xbf5b6da3	-0.8571417
124	0xbed52821	-0.41632178
125	0xbfe05d32	-1.7528441
126	0xbf3b1dc7	-0.7309231
127	0xbf87bebe	-1.0605085

a2c_network.critic_mlp.0.weight f4 [128, 361]
0	0x3fcb752e	1.5895135
1	0x3e39d295	0.18146737
2	0xbf92ec51	-1.1478368
3	0xbf60b285	-0.877724
4	0xbfe31ae5	-1.7742583
5	0x3f093033	0.5358917
6	0x3ee47f16	0.4462821
7	0xbdfe6c8c	-0.124230474
8	0x3daf53fd	0.08560941
9	0xc05ae7c2	-3.4203954
10	0xbf1a74f4	-0.60334706
11	0xbece550f	-0.4029927
12	0xbf0d72cf	-0.5525331
13	0x3f6a1ae8	0.91447306
14	0x3f85a0c5	1.0439688
15	0xbf288f18	-0.65843344
16	0x3eba6df6	0.3641202
17	0x3e69a9cb	0.22818677
18	0xbeee6533	-0.46561584
19	0x3e948b93	0.29012737
20	0x3bf710a4	0.0075398255
21	0xbf7a8532	-0.9785949
22	0xbf4d81f9	-0.8027645
23	0xbdb219a0	-0.08696294
24	0xbe2543e5	-0.16139181
25	0xbf0b3c67	-0.5438904
26	0x3d612b25	0.054972786
27	0x3d8cd1ae	0.06875931
28	0x3da95177	0.08267491
29	0xbf19599e	-0.5990237
30	0x3ec3ef83	0.3826867
31	0x3eaa3af3	0.332481
32	0x3d1428e5	0.036171813
33	0x3e9eafc9	0.30993488
34	0xbcfbf887	-0.030758156
35	0xbe1ce691	-0.15322329
36	0x3e52efd6	0.20599303
37	0x3e4f9365	0.2027107
38	0x3de70052	0.11279358
39	0xbe087d05	-0.13328941
40	0x3e95745e	0.29190344
41	0x3cf07b6c	0.029355727
42	0xbe009f74	-0.12560827
43	0x3dc9162a	0.098186806
44	0x3cffae25	0.031210968
45	0xbeb10058	-0.34570575
46	0xbe0e61fc	-0.13904566
47	0x3fac8c3b	1.3480295
48	0xbd65a663	-0.056066882
49	0x3e5c2f96	0.21502528
50	0x3f03093f	0.51185983
51	0x3d8b06f1	0.06788433
52	0xbf072da7	-0.52804035
53	0xbd2e9eed	-0.042632032
54	0xbf46405c	-0.77441955
55	0xbd6e0edf	-0.05811965
56	0x3e351db5	0.17687114
57	0x3e0a3d19	0.1349987
58	0xbeae33e1	-0.34023955
59	0xbe0a5017	-0.13507114
60	0x3d5ada15	0.053430635
61	0xbd2241b3	-0.039613437
62	0x3fcfe735	1.6242434
63	0x3d1cae42	0.038252123
64	0x3e492177	0.19641672
65	0x3ec01df1	0.37522843
66	0xbe03c32f	-0.12867425
67	0xbf063cb6	-0.5243639
68	0x3d6d18c2	0.05788494
69	0xbee2d9d0	-0.44306803
70	0x3db48806	0.08815007
71	0x3c9d47cb	0.019199273
72	0x3e1e265f	0.15444325
73	0xbd989606	-0.0745049
74	0x3e509b25	0.20371683
75	0xbe2f084f	-0.17093013
76	0x3d84e3b9	0.06488747
77	0x3b323774	0.0027193697
78	0x3dcf8b16	0.101339504
79	0x3d852202	0.06500627
80	0xbcb3c1b0	-0.021942943
81	0x3e0ed69f	0.13949059
82	0x3c69c865	0.014268969
83	0x3d72b591	0.059255186
84	0x3d57e881	0.052711967
85	0x3d99d3c1	0.07511092
86	0xbefeed99	-0.49790648
87	0x3d95d49f	0.07315945
88	0xbbda882d	-0.0066690654
89	0xbcaafe74	-0.020873286
90	0xbd9f4c77	-0.077782564
91	0x3d6c916b	0.05775587
92	0xbde0f384	-0.10983947
93	0xbcab974a	-0.020946164
94	0x3d489dc2	0.048978575
95	0x3d91825e	0.07104944
96	0x3ea4fcb0	0.32224035
97	0x3e19dfdb	0.150268
98	0x3d70436c	0.05865805
99	0xbe3d80bc	-0.1850614
100	0xbc1a8e62	-0.009433361
101	0x3d8ac3d7	0.06775635
102	0x3ba7acb1	0.005117022
103	0xbd9c7b9d	-0.07640765
104	0x3bfa5c79	0.007640418
105	0x3cd39672	0.025828574
106	0xbe38ee52	-0.18059662
107	0x3e319231	0.17340924
108	0xbdd94b3e	-0.106100544
109	0x3dbf27e0	0.093337774
110	0x3e005e24	0.12535912
111	0xbd533a45	-0.051569242
112	0x3d908a07	0.070575766
113	0x3dc0fbbf	0.09423017
114	0xbda03705	-0.07822994
115	0x3e3b117b	0.18268387
116	0xbe6f5d57	-0.2337545
117	0x3e8a3bf2	0.2699886
118	0xbde5e1cc	-0.11224708
119	0xbd9d420d	-0.07678614
120	0x3e16604e	0.14685175
121	0x3da28e28	0.079372704
122	0x3e2e37bb	0.17013447
123	0x3d1b101b	0.037857156
124	0x3e00acf8	0.12565982
125	0x3e8f009e	0.27930158
126	0xbee8c503	-0.45462808
127	0x3eb63996	0.3559081
128	0x3cae2fe7	0.021263076
129	0x3b43f9eb	0.0029903601
130	0x3e5f75e4	0.21822315
131	0xbe7458a0	-0.23861933
132	0x3e569375	0.20954688
133	0x3e270c94	0.16313392
134	0xbbdcb996	-0.0067359908
135	0x3ea5bdcb	0.32371363
136	0x3fc1233f	1.5088881
137	0x3faa4ee7	1.3305329
138	0x3e2f6dc3	0.17131715
139	0xbe0256bc	-0.12728399
140	0xbe45c00e	-0.19311544
141	0x3e52a987	0.20572482
142	0x3d672d27	0.056439545
143	0x3dc4294f	0.095781915
144	0x3ecc0aac	0.39851892
145	0x3f81daa2	1.0144846
146	0xbd31ab65	-0.043376345
147	0xbe9b8750	-0.30376673
148	0xbe06cd40	-0.13164234
149	0x3df6ba6b	0.12047275
150	0xbeaf7ad6	-0.34273404
151	0xbdee3725	-0.11631612
152	0x3e40dff0	0.18835425
153	0xbce9bdbb	-0.028532853
154	0xbe87f1ae	-0.26551574
155	0xbcb3b3ba	-0.021936286
156	0x3c395e17	0.011313937
157	0xbe1c93cd	-0.15290757
158	0x3da8ebb4	0.08248082
159	0x3e337dfb	0.17528526
160	0xbdb8f825	-0.09031705
161	0x3e151fba	0.14562884
162	0x3e407e45	0.18798168
163	0x3e02ee33	0.12786178
164	0xbdc637ed	-0.09678636
165	0xbd0cbfd9	-0.034362648
166	0x3e0fa7f5	0.14028914
167	0x3d81af4f	0.063322656
168	0xbdeb0e5c	-0.11477348
169	0x3e212991	0.15738513
170	0xbe1ad0fc	-0.15118784
171	0xbe51da1c	-0.20493358
172	0x3db876b9	0.090070195
173	0x3e16fb5a	0.1474432
174	0xbe1d996a	-0.15390554
175	0x3b90ad71	0.004415207
176	0x3e0e6a84	0.1390782
177	0x3cf4d3eb	0.029886207
178	0x3e397433	0.18110733
179	0x3de00bdb	0.10939761
180	0xbdf1c2ad	-0.118047096
181	0xbcefd9c1	-0.029278638
182	0xbe86b511	-0.26310018
183	0x3cef38d8	0.02920191
184	0xbe27b883	-0.1637898
185	0x3b83e1df	0.0040247287
186	0x3d884223	0.066532396
187	0x3d9ca6a2	0.0764897
188	0x3e6cd07b	0.23126404
189	0xbe82807c	-0.2548865
190	0x3eb8e4eb	0.3611215
191	0x3dc91258	0.09817952
192	0xbe019b8a	-0.1265699
193	0x3cfab533	0.03060398
194	0xbe301519	-0.17195548
195	0x3cdb9b7e	0.026807543
196	0x3e0ea6f2	0.13930872
197	0x3f1697ce	0.58825386
198	0x3defc949	0.11708314
199	0x3e542843	0.20718484
200	0xbda92077	-0.08258145
201	0x3e094c84	0.13408095
202	0xbe72bf80	-0.23705864
203	0xbd70e8ab	-0.05881564
204	0xbe7622e5	-0.24036749
205	0x3c2c814c	0.010528874
206	0x3d3cc34f	0.0460847
207	0x3e460034	0.19336015
208	0x3e7b8c6b	0.24565284
209	0x3f37166b	0.7151858
210	0x3e69f294	0.22846442
211	0x3ee07f95	0.43847337
212	0x3e95255d	0.29130068
213	0xbe238a2e	-0.1597068
214	0xbe82b948	-0.25531983
215	0xbd86e89c	-0.065873355
216	0x3eba54c8	0.36392808
217	0xbdc9f476	-0.0986108
218	0x3de8f331	0.1137451
219	0x3d84c236	0.06482355
220	0x3d4421e2	0.047883876
221	0xbbb70f21	-0.0055865203
222	0xbd047911	-0.03234202
223	0xbd6e6264	-0.0581993
224	0xbcfe84fb	-0.03106927
225	0xbda75d1d	-0.08172057
226	0xbd433e86	-0.04766705
227	0x3d80629a	0.06268807
228	0x3b0ad0d0	0.002118159
229	0x3d868876	0.065689966
230	0xbd7bb7fe	-0.061454765
231	0x3cacaa63	0.02107734
232	0xbcdf8b9c	-0.02728825
233	0xbcd0358f	-0.025416164
234	0xbd9c1ef6	-0.07623093
235	0x3d557f2e	0.05212324
236	0xbd77b7ff	-0.060478207
237	0xbd54a944	-0.051919237
238	0xbd83a003	-0.06427004
239	0x3d979c70	0.07402885
240	0xbc6a99a0	-0.014318854
241	0x3c2c6aca	0.010523507
242	0xbc69a950	-0.014261559
243	0x3d20023a	0.039064623
244	0x3cdba668	0.026812747
245	0x3d8d0785	0.068862
246	0x3cfd4e28	0.030921057
247	0xbdb2b15f	-0.08725237
248	0xbcec3a5e	-0.028836425
249	0x3ccadec6	0.02476443
250	0x3cd1bc1b	0.025602391
251	0x3da39d0f	0.07988941
252	0x3da5c7a6	0.080947205
253	0x3d76ed9e	0.060285203
254	0x3d00f983	0.031487953
255	0x3cf01da2	0.029311005
