python/rlgpu/saved_nn/1234/last_Aliengoep=3000rew=[877.4].pth (torch, 523930 bytes, 18 tensors)

running_mean f8 [361]
00000000: 59b4 4f4b 6311 c2bf 554e 7b30 5869 a43f
00000010: 66f1 7b2d 8c2e a23f c824 4097 e3fd 93bf
00000020: eb33 96d8 8ae7 c9bf 65af 25c0 a386 d33f
00000030: 95dc 085d 6464 d53f 010d b6f3 2b03 df3f
00000040: ead1 3365 d8ec e03f 7d54 37e3 88ad bd3f
00000050: 673b 601c 5dd6 c03f 2ecf 294c ec83 d6bf
00000060: d077 112a 0f6b c53f fe08 7778 e482 b2bf
00000070: d63c d6c8 5ea1 d5bf a72c cac8 ca96 b13f
00000080: 1abd 8636 a208 c43f 816d cb27 ded9 d3bf
00000090: 5d08 72c5 85e7 a4bf 37f1 cc8a 7d0b c5bf
000000a0: 4ccd 138a 81d3 d3bf a92e 1cd0 2247 df3f
000000b0: 0a4a 6bd4 186c 93bf 87a8 6afa 1200 c53f
000000c0: 69a6 ee38 b956 dd3f 3445 7229 4f31 c03f
000000d0: c8b3 f381 e86f c83f ba15 dfa4 c98d de3f
000000e0: ddc6 b858 cebd a63f 83fd 22bf b1eb c13f
000000f0: 70b8 828a 0296 dd3f 63bc 8edb 4a63 be3f
00000100: d2f9 c241 a361 c13f b204 a9ab 820c d9bf
00000110: 22d1 fd0b 20a0 dc3f 2107 32bb 6b16 cebf
00000120: e5e9 7dcb df35 d63f 8844 987e 62a6 e13f
00000130: 4e5b 4a37 df88 d8bf 7b23 04b2 866c cebf
00000140: 2f2e 985e e7d7 d0bf 2971 d581 1ae2 d5bf
00000150: 8f1f b99e 83ab b93f e35c b841 3fe5 dcbf
00000160: ffe9 9709 2d07 d3bf 07aa d396 a10b d93f
00000170: e182 0ca7 5234 da3f c093 f814 ba77 ef3f
00000180: 3045 06a7 d84d dc3f 7f47 ade9 903e e23f
00000190: 9aa7 6da6 3226 b23f f493 7b2e 58c4 dc3f
000001a0: 2eb6 0bf6 ebdd b9bf e1c4 6b1a 4ee9 7f3f
000001b0: f1ed f29d 39a0 c8bf aa4f ead8 a395 e53f
000001c0: ec6c 6e07 318e d43f 19ae a0b1 c4e4 d6bf
000001d0: 0b12 fc88 a03a e4bf fdf7 062c 99c4 d73f
000001e0: 2c90 3c93 9f03 d93f 73a2 3a78 b520 da3f
000001f0: ef23 6503 f16c ef3f 3689 f175 6f46 dc3f
00000200: 0731 1e84 3d3a e23f 1308 31d3 a015 b23f
00000210: c9d5 e95d 2ec0 dc3f ed93 3564 3fd0 b9bf
00000220: c33f 126f 6f3b 7f3f 2861 782f 209a c8bf
00000230: 85af 6727 5b90 e53f e2a4 cd27 b889 d43f
00000240: df12 91f9 14df d6bf e5fb f49d b937 e4bf
00000250: 62db c323 acbe d73f 8738 d3f8 365f cc3f
00000260: 7ec2 686d 95d2 cd3f 8ccd a077 4aad cd3f
00000270: 3cc0 d906 7d09 cd3f 9eec 0b10 a347 cc3f
00000280: 1ede a798 4e9e cb3f c856 2646 6438 cb3f
00000290: 53a7 1c20 a581 cb3f 6b1c 66ac 941c cc3f
000002a0: b65d d40e 2ddd cc3f 2660 8c81 f28e cd3f
000002b0: 89b9 1d33 6eb0 cd3f 9151 10eb 5423 cd3f
000002c0: 9a65 7e1c 95c2 cc3f e456 b4c2 a535 cb3f
000002d0: 16bb 221b a69a c83f 176a d682 3a49 c83f
000002e0: 0ebb 5fb4 da0f c83f cf8a 70da 6e28 ca3f
000002f0: 276c 168f 5ab3 cb3f ec2a 38c5 8f91 cc3f
00000300: 3539 7395 ead8 ce3f 35e5 6585 c01e ce3f
00000310: 3d95 0048 9336 cd3f 8fbf cd7f e3de ca3f
00000320: e0c8 3b2f 2e89 c73f e9fd f6d9 8c2f c73f
00000330: 3816 6583 c4c5 c63f 3457 069e 1180 c93f
00000340: 6d92 589c 1ddb cb3f b766 5f03 c260 cd3f
00000350: b495 9834 6700 d03f 83db f6aa c51d cf3f
00000360: 7145 5e49 81d9 cc3f 337f 2a03 d38e c93f
00000370: 0c87 418b c7e8 c63f 86a7 7792 fe77 c63f
00000380: e0df dc9e a50d c63f e2a7 162d bf20 c83f
00000390: 220a 834e af89 cb3f 53ca ac21 f758 ce3f
000003a0: fc85 849d 6997 d03f 8bc0 a0b0 b70e d03f
000003b0: 6cfb cbc6 4e4b cd3f d143 b719 ef3e c93f
000003c0: 6725 d5f7 1c8b c63f 4b2c f66b 20f7 c53f
000003d0: dff0 6651 b5ad c53f 6122 16fc dfc4 c73f
000003e0: 4d1f 399e 2ef6 cb3f 4d59 9fce 9f66 cf3f
000003f0: bcef 1231 062f d13f e28b f6b2 c18d d03f
00000400: 7809 7388 a9bc cd3f 9d97 6b52 e803 c93f
00000410: 705b 2fb8 e152 c63f 8c6c cf12 7e99 c53f
00000420: bdfa 7338 4687 c53f e8ed 97b2 1792 c73f
00000430: 6f5b 6901 2f7c cc3f a203 4cbf a840 d03f
00000440: 6b01 8c8c a12d d23f 7e7d 5cf3 c092 d13f
00000450: 5907 1429 2600 ce3f ba12 32b1 bbe1 c73f
00000460: 717c a352 5c27 c63f 2ce7 a06f 664c c43f
00000470: f76a 160b 759b c53f 3bdb a54c 25f5 c63f
00000480: 9362 52d8 9e7a cd3f 855d 54cf a16c d13f
00000490: d321 0982 595d c93f f5a4 387c 2dfa c93f
000004a0: 9c65 e5c5 e9e4 c93f 0ff8 1549 01aa c93f
000004b0: 9173 0a10 d077 c93f ff0b 2eb0 be40 c93f
000004c0: ed0b 647f 5919 c93f 8df4 c6a8 9545 c93f
000004d0: 45f8 206d e57c c93f b57f 107d d0ae c93f
000004e0: d666 c9e0 31e8 c93f 503f 7f07 3b55 c93f
000004f0: 3c89 36c4 0197 c83f 569a b7d9 9f7d c83f
00000500: 05db 2b60 930b c83f 3dc7 ce02 530b c73f
00000510: 9864 3687 3561 c73f ec96 6594 372c c73f
00000520: 5837 eec1 a17d c83f feb2 35cf 50ee c83f
00000530: 648a ac6d cecd c83f 26f9 3d9c 0c46 ca3f
00000540: 10eb cf45 c412 c93f 04e7 8b45 b883 c83f
00000550: 3b50 0fbe 30c1 c73f 42db c6c2 b170 c63f
00000560: 4e39 a734 edf3 c63f ad80 4a24 41ae c63f
00000570: 9ee9 3368 0459 c83f 5793 331c c919 c93f
00000580: ca6c ecb7 b071 c93f 9e02 748c ef8f cb3f
00000590: 8616 bd82 07f7 c93f 83d8 65e5 bc20 c83f
000005a0: c8c7 78f4 bb00 c73f 758c 0a5e bf32 c63f
000005b0: edb4 fee4 3cba c63f 3c6d 980e 6d75 c63f
000005c0: 4353 2725 ad7d c73f 9a16 9620 66a2 c83f
000005d0: a5f9 6ace fe64 ca3f 4237 37c8 b32b cd3f
000005e0: 8452 c125 5b2e cb3f bc6c 3fa5 338e c83f
000005f0: 00d8 b4b0 4f07 c73f 0688 d0a4 812d c63f
00000600: e8f5 3114 d89b c63f a63a 9dc1 0f68 c63f
00000610: bb78 c885 7b68 c73f ab26 ad06 d1f6 c83f
00000620: b44e d60c e093 cb3f 396d 1a1f 4bf5 ce3f
00000630: 4b2f 0266 9baf cc3f 2b56 fe29 a714 c93f
00000640: 150f 8781 2222 c73f 0acb 32d9 a745 c63f
00000650: 0ca4 5bd1 2986 c63f db47 aeae ab70 c63f
00000660: 855b 5f8f 405f c73f e198 ff07 3650 c93f
00000670: c38f 97cd e1f8 cc3f 98b0 962b 8a2f d13f
00000680: 6fb3 4aae b622 d03f cb0e 06fa 1a22 ca3f
00000690: 5d84 5d40 2be8 c63f 700d b558 3e90 c63f
000006a0: 2583 3835 58b2 c53f 0ff5 db7d 6394 c63f
000006b0: 7daa 8c09 6ece c63f 5350 0694 618f c93f
000006c0: 0edf 9773 2112 d03f bd85 60b7 e5c3 c43f
000006d0: 92c3 1a69 9b0c c53f 0738 bfd2 3533 c53f
000006e0: 0009 ef64 6f22 c53f f33b 5a4e d116 c53f
000006f0: 2519 e205 440f c53f 02d2 fef5 4bf2 c43f
00000700: 800d 3472 e7fa c43f c8e6 d7ce bef5 c43f
00000710: 6474 531c d4fb c43f f989 bc1a 6e16 c53f
00000720: 4e64 caf1 ad1d c33f cb9f b620 ca0c c33f
00000730: 0391 a787 05a9 c43f 80f1 3419 5e84 c43f
00000740: 2155 0adc b5a0 c33f 2170 012b bbac c33f
00000750: ecb0 ddef dab3 c23f e407 d405 c2ee c23f
00000760: 3edc 86ca 49ff c23f a7d8 06de 5b44 c23f
00000770: 78df 8143 0477 c33f b2c6 c202 3b5a c33f
00000780: 2634 ac42 81fa c43f 4a9c e355 79bb c43f
00000790: 9707 c0fc 5563 c33f 9ab6 faba 4d72 c33f
000007a0: 0678 f43e e624 c23f ce53 7988 ebba c23f
000007b0: d126 102c 65d4 c23f 9d4a e1d8 2549 c23f
000007c0: ee25 9621 ffeb c33f 0ece 3136 e0e6 c33f
000007d0: 5bca bf4e 26ec c33f bda8 9678 714e c43f
000007e0: 0194 570f be65 c33f 3a72 b479 2357 c33f
000007f0: e5ec 3e4c dc0a c23f ec8c 6a96 6e30 c23f
-0.14115563561736869 0.039866214674159885 0.035511379768623993 -0.01952319727573551 -0.20237861228488838 0.3050927521169256 0.3342524441281481 0.48456858444133394
0.5289117790803719 0.11592917964238043 0.13154186139623933 -0.35180194318603497 0.16732968858826647 -0.07230976048507284 -0.33797425854659247 0.06870715524762493
0.15651347792070497 -0.3101725948924568 -0.04082887683127077 -0.16441315915461427 -0.30978430256000844 0.48871679614306146 -0.01896704479697501 0.16406476237654408
0.45841818389690175 0.1265047981619688 0.1909151682406487 0.4774040327141297 0.0444168551733932 0.1400053199085783 0.46228087927273176 0.11870258198062937
0.13579216681496448 -0.3913885761613286 0.44727326556246016 -0.23505922928239278 0.3470382201409435 0.551560637717686 -0.3833540000863892 -0.237686955377537
-0.26317772138347356 -0.34192526511266635 0.10027334809376341 -0.45149213235840885 -0.2973129838643728 0.3913349125784013 0.40944353402487194 0.9833650979604656
0.442251360998017 0.5701374591828737 0.07089535296623098 0.4494839147503733 -0.10104250676132473 0.007790856447841694 -0.1923896809802126 0.6745166050554776
0.32117868161885954 -0.3577129110951503 -0.6321566272241069 0.3713744096711478 0.39084615114757315 0.40824639073483765 0.9820485178289554 0.4417990352432243
0.5696094112804823 0.0706425204853363 0.44922980471832524 -0.10083385654941397 0.007625041283191028 -0.1922035438335652 0.6738715905789695 0.3209057224945139
-0.3573658406424282 -0.6318023762795489 0.37101272099191906 0.2216557230917184 0.23298900453803023 0.23185091820924375 0.22685206255437318 0.22093618663334252
0.2157686467542001 0.2126584379699834 0.2148939520641827 0.21962221544183377 0.22549975608920442 0.23092490506746904 0.23194673057464524 0.22764073827478318
0.2246881856088237 0.2125746918397261 0.19221950840934515 0.18973475826790384 0.18798383529016188 0.20435891786572433 0.2164109419507849 0.22319218759397275
0.24099476144187695 0.2353134776456415 0.22822800651298705 0.20992702236571545 0.18387391382527252 0.181138616970187 0.1779103890968814 0.1992208501439393
0.21762437948304428 0.22951531567269054 0.25002460609752153 0.24309607360711646 0.22538772661622944 0.19967115072813044 0.17897886561973342 0.1755369391606189
0.17229147202465267 0.18849935247027277 0.2151393063887364 0.2370900072506453 0.2592414892443171 0.2508982872850615 0.22886070925593616 0.19723309283884174
0.1761203966255309 0.17160420676768448 0.16936365580284637 0.18569564637097627 0.21845038152445753 0.2453193434618676 0.2684951285589212 0.2586521384893655
0.23232001459662022 0.19543174766948548 0.174404349264218 0.16874671858281365 0.16819074398514103 0.18414589138397663 0.22253978318141374 0.25394648248043883
0.284035098316983 0.27458213582755053 0.2343795490815477 0.18657632972840138 0.1730761912831187 0.15858154726611795 0.1688066772593044 0.1793562530762872
0.23030458033169462 0.2722553753569275 0.1981613049449736 0.2029473167943149 0.20229837572950948 0.20050064152377486 0.1989688947986932 0.19728835680515996
0.19608610840086219 0.19743605366776187 0.19912402943185917 0.20064741236364872 0.2023985240546639 0.19791353097979902 0.1921083648749774 0.1913337529251346
0.18785326190819532 0.18003308903785778 0.18265408613368517 0.1810368990510861 0.19133398026718385 0.1947728168264788 0.19378071170020228 0.2052627337361141
0.1958852139358318 0.19151976962876216 0.18558320312752294 0.17531415949425805 0.17931904860456388 0.17719282409689666 0.1902165898134855 0.19609941365265612
0.198782052809156 0.21533007009567923 0.20285123714181824 0.18849908066812668 0.17970990597819836 0.1734236916719031 0.17755852872270542 0.1754585572497066
0.1835228377737171 0.19245602217795438 0.2062071330928578 0.2278961875548991 0.21235217422021802 0.19183965271699843 0.17991062286608894 0.17326374576174447
0.17663098322002146 0.17505070642296977 0.18287605316522168 0.19503224206919376 0.21545029284299277 0.241860761820911 0.2241091011131807 0.19594277906860333
0.18072921108807152 0.17400072198287148 0.1759693405395243 0.1753134348805919 0.1825943660794246 0.19776034727619332 0.2263452772014017 0.2685265947027431
0.2521187498157848 0.2041658135241192 0.17896023409687958 0.176276963533478 0.16950514410657394 0.17640346188992637 0.17817473856242208 0.19968814590231662
0.25110660828021103 0.16222831205327096 0.16444723732049887 0.1656253127134166 0.16511337688832128 0.16475883794598153 0.16452837264314116 0.1636443091534972
0.16390698505720636 0.16374955272458736 0.16393519766907894 0.16474701219074442 0.1493432455652361 0.14882780644734192 0.16140812991864814 0.16028953772355337
0.15334199184568667 0.15370883560069706 0.1461137458057985 0.1479113129099111 0.14841577900890174 0.14271114674710825 0.15206960006957693 0.15119111666495183
0.16389480357648373 0.16197125142864116 0.1514689907199311 0.15192577009058966 0.14175108026478273 0.1463293472649227 0.1471067872192209 0.1428572949394792
0.15563954486815085 0.15548327108591348 0.15564421506094814 0.15864389789687108 0.15154243229986267 0.15109675829525476 0.1409564373296696 0.14210302681485787

running_var f8 [361]
00000000: 2b8b 3aef 9531 a63f dfab 5d6e aa12 0a40
00000010: d1ef 48c9 c559 ba3f 9a2e 0dec 5fc6 1340
00000020: ca24 1fab 4b98 cb3f 36f6 fbfe 3223 cb3f
00000030: d881 fabf ce7b cc3f b0df d08d 37f8 cf3f
00000040: 5082 ad29 a1e4 cf3f 397f d1cd 463f 953f
00000050: 9eb3 2dfa d0b5 6d3f aecf 6f08 7221 723f
00000060: ec7b f6fd 3397 973f 1dc8 da63 ec13 773f
00000070: a992 8bda 64d2 743f 1d2b 4c15 1c5c 903f
00000080: 6a45 8d57 9240 693f 01b7 073f f81e 6b3f
00000090: 690a 2030 c7ed 903f 78e6 3595 18be 6d3f
000000a0: eed3 4f37 5912 6a3f 0ef1 3a3b 8648 1840
000000b0: 9dac 58b9 39cd f83f 7019 9e13 0517 0140
000000c0: 8541 3a49 3774 1940 0917 d4c2 6fe0 ff3f
000000d0: 184d 6846 6a95 0640 f5b0 dd81 a3d2 1040
000000e0: 7892 e9c0 e376 e83f ecc6 b8f1 9e9f ee3f
000000f0: aa9e 0fec b370 0c40 dbcb 573d 5060 e93f
00000100: 5ec7 9ac2 1d58 eb3f 7c81 d57c e16c 2740
00000110: df32 5277 896f 2640 c842 c91e b3c0 2240
00000120: 504e 1794 3bfb 2740 9549 a717 043c 2740
00000130: 32c5 cfa5 9f35 2240 4394 6a81 a790 2340
00000140: 5f70 7c7e a88d 2440 71af dee9 4220 1c40
00000150: 9a60 407b 7203 2240 4539 f605 6ed9 2240
00000160: c0ed c3ea 6854 1c40 f7d2 b969 ecea d73f
00000170: 223c 9606 0bcf dc3f 76ff 2282 55f9 883f
00000180: ef7e 2ffb 9d8d e13f 2e1f e14b 409a dc3f
00000190: dfaf f420 00e7 e53f 7ca0 c8b0 db6e e13f
000001a0: 93af 6107 c28b e53f ae91 f88a ee74 e63f
000001b0: 9c13 6a29 c18b e53f ef0b 8bc6 6e36 d53f
000001c0: 100e 68c8 632d e33f 1ca0 df04 f263 e23f
000001d0: 55a2 fd70 8c98 d53f 3f24 a8cf 854d e23f
000001e0: e7a2 02cc 31e4 d73f df05 f1d7 05d5 dc3f
000001f0: 34a0 9ab6 3a97 8b3f 8de4 19c9 9288 e13f
00000200: 7781 2da4 a392 dc3f b592 70c3 4adf e53f
00000210: bf90 2764 6068 e13f b62f 0173 1384 e53f
00000220: cc2a 25b7 e16c e63f cca7 a9db 3984 e53f
00000230: f29d 1d31 0533 d53f 6b3d 8e64 d626 e33f
00000240: 738b dedb 1d5e e23f 8425 acb6 898f d53f
00000250: 6c67 1ec9 9f47 e23f 9b63 1495 72c6 bc3f
00000260: bb70 0b52 6b92 be3f 4ade 7bf1 b161 be3f
00000270: cf32 42ad a59b bd3f 9e45 0207 9ca8 bc3f
00000280: f6e8 528e 5fd3 bb3f 7cc5 962d f259 bb3f
00000290: 8d84 1a85 f3ad bb3f 2994 a5f4 bc6f bc3f
000002a0: 8804 c7c5 9b62 bd3f 856a 4c7c 983c be3f
000002b0: 6b95 f466 6a89 bf3f 379d 639d 87f0 be3f
000002c0: dacd 2f53 a9d9 bd3f 0f87 690c 72e3 bb3f
000002d0: 789e 5c8e 4dcc b83f 3412 17a7 be29 b83f
000002e0: 0dda 2bd8 bb4c b83f 5dbf 0b53 ab03 bb3f
000002f0: 5232 8a65 9205 bd3f 7370 5b5b 8e7e be3f
00000300: 85e9 d26e 2e9c c03f 4b18 19c2 2a39 c03f
00000310: 4cd8 2616 04a8 be3f cef6 f3e4 4ab7 bb3f
00000320: e1a6 4091 c9b0 b73f 56f2 4a8c c9e9 b63f
00000330: ae79 c360 ecf5 b63f a1c9 9a79 3188 ba3f
00000340: 922b de00 4299 bd3f aec4 909d c8e3 bf3f
00000350: a9aa 6fb3 b46a c13f db01 8601 dff0 c03f
00000360: 1232 a4a0 e7f9 be3f 01ac e6c3 b590 ba3f
00000370: e9ee 1eac 2a19 b73f 7b94 d9e8 d028 b63f
00000380: 2993 4952 cc3e b63f 7498 eae2 a835 b93f
00000390: 2f8a cb6b 33de bd3f 96d8 3f70 87aa c03f
000003a0: 120d c9be c035 c23f 154b bb1f 03a2 c13f
000003b0: 339e c1c8 91cc bf3f bad6 5231 5075 ba3f
000003c0: 3198 77fa d7d5 b63f a61c 74bf b4b5 b53f
000003d0: 514d 7e91 fded b53f a390 46be 6df9 b83f
000003e0: 6666 17ef a5aa be3f 16fb 58dc 5b64 c13f
000003f0: 90c3 446d 62fc c23f 5dda 7e4f fd4b c23f
00000400: 5995 807f 8f4d c03f 3fbd 3ed5 b475 ba3f
00000410: 5e2a f0db 35c2 b63f e85f f6df 857b b53f
00000420: 7dd3 c73a 04df b53f 4625 30a0 96e8 b83f
00000430: f465 024d a184 bf3f ed49 002c a81b c23f
00000440: 513c 6d83 0d54 c43f 6d9e cf84 8f93 c33f
00000450: d0bd 7a98 85d7 c03f 7c9d 6a55 66ec b93f
00000460: 6e02 3c0e 20f3 b63f a214 1863 aeaf b43f
00000470: 12ec d259 e833 b63f ad8c 7fb5 339b b83f
00000480: ff03 7bf4 fd86 c03f 2836 e36a cb7f c33f
00000490: bc8e c07f b13f b73f 53f6 4c71 ef16 b83f
000004a0: b182 bd3f 06f6 b73f 33ec 96c0 73a7 b73f
000004b0: eaaf cdfd da5f b73f 3d4f bd26 1d17 b73f
000004c0: 4621 4a8c 44ed b63f 3792 97a2 6b20 b73f
000004d0: a53c 2633 c569 b73f a27b 9c76 68b0 b73f
000004e0: c490 52b6 5efc b73f cc4e 8efa 9b48 b83f
000004f0: b960 b629 7d82 b73f 161b 3a64 2bf4 b63f
00000500: 2d9a 7e1e 3851 b63f a6c8 d8e6 defa b43f
00000510: 79e8 399c 121d b53f 80f9 d3c6 4728 b53f
00000520: c1a7 bcd5 d2cc b63f 5f2b 7771 746a b73f
00000530: 3f60 e68b 7abc b73f 17c5 7549 1bd7 b93f
00000540: a3ec 72ac 4991 b83f dc49 615d 7654 b73f
00000550: 1034 13e0 2244 b63f 0824 7d43 da82 b43f
00000560: 0bd9 212d 0ec1 b43f ea0f 50ff a1d1 b43f
00000570: 08bf 6011 eee4 b63f 4e27 d0ba 62eb b73f
00000580: dc18 54e9 55f1 b83f 5a6f 64a3 39c6 bb3f
00000590: 52a0 8f4b 700b ba3f 2395 628b ff70 b73f
000005a0: ae27 050a 31a9 b53f dd4e dddc 9873 b43f
000005b0: 21e7 1714 58ae b43f 0e39 6fe0 d7c8 b43f
000005c0: 8b95 5658 fd33 b63f bc7c ab48 def8 b73f
000005d0: 16de 695b 3075 ba3f caad da59 2706 be3f
000005e0: 7773 d1c7 42d8 bb3f 8f31 2d1f 3846 b83f
000005f0: 6793 6966 02f1 b53f 8bb2 b133 32a7 b43f
00000600: 1403 f0dc 03c9 b43f 3542 1b65 81f6 b43f
00000610: b12a 37e9 c25e b63f 9a34 4a81 82ad b83f
00000620: 58bc 8556 8f33 bc3f 3713 a9c3 fd33 c03f
00000630: 396b 15cf 6ee6 bd3f 02e8 d242 532f b93f
00000640: 311d efbf 4b50 b63f 20fb c6de cefb b43f
00000650: 3622 dc12 5ff9 b43f 3007 f859 133f b53f
00000660: 7489 c66c 509a b63f c98a 6168 ee65 b93f
00000670: d12f 4282 c922 be3f fa38 ac02 eb60 c23f
00000680: f472 5348 7b28 c13f 003e 786c a5f6 ba3f
00000690: 04e0 71bd c5b7 b63f 2732 bfd5 99bd b53f
000006a0: 7d6c 8cda a0d1 b43f b5d9 e2af 62de b53f
000006b0: f729 2c33 a5a0 b63f ca2d f79a 4266 ba3f
000006c0: 2d81 4593 381a c13f b218 bb1b 2bac b73f
000006d0: fff9 4586 1839 b83f 5060 c0ad c45d b83f
000006e0: 15d0 43e8 f43d b83f 5714 0a7b f927 b83f
000006f0: 351f d42b 1a18 b83f c96e 8a57 8cf8 b73f
00000700: f3a1 46ab 86fc b73f 8356 08ba 1bf8 b73f
00000710: 6dd5 d39b 9e05 b83f 8e54 50fa 2735 b83f
00000720: 9c8b 0934 6e59 b63f a75c 6d45 1a46 b63f
00000730: 6037 28a3 f1ef b73f be1a 7653 bfaf b73f
00000740: 691e aa68 0884 b63f 5297 de93 8777 b63f
00000750: 667d a48b 6f8b b53f 74ee 7a00 cef5 b53f
00000760: 88fa 7e34 ab17 b63f ce69 eb4f f359 b53f
00000770: a68d 4676 4720 b73f 941c 8ca9 bb00 b73f
00000780: bae9 1c24 e7a1 b83f af9d 72b6 8634 b83f
00000790: 46db ef25 f463 b63f d749 0347 864e b63f
000007a0: c1a8 83f0 9211 b53f 7136 89ad b1fc b53f
000007b0: 5748 0ae9 3a31 b63f 4e9d 8692 ffb2 b53f
000007c0: 38b7 88b7 8406 b83f e700 2c3d c006 b83f
000007d0: c637 2400 f1c8 b73f 8dc6 99eb aded b73f
000007e0: bd0e b2ed 2a9a b63f 2308 94c3 0e55 b63f
000007f0: b328 bb59 102a b53f 501f 49a2 8688 b53f
0.04334705872795149 3.2591141340576395 0.10293232120687824 4.943725288681572 0.2155851922564465 0.2120116944351353 0.22252830861999828 0.249762481924106
0.24916471991584155 0.020749193489222526 0.0036267358386141276 0.004426427308306486 0.02303773152891246 0.005634234808598063 0.005083459815726479 0.0159763706206305
0.0030825479738402677 0.003310665946847702 0.016532051384283628 0.0036306839116917976 0.0031825773717124506 6.070824552032958 1.5501038780301208 2.1362401516554925
6.363492149525318 1.9922940836417544 2.822956609781283 4.205701855808219 0.7645128982372418 0.956984970200407 3.55503067419689 0.7930070112328126
0.8545063782569107 11.712657834112854 11.217845658096335 9.376366579120614 11.990688922734222 11.61721872250636 9.104733640301308 9.782527965793753
10.276676132860471 7.031505254952081 9.006732799156726 9.424667536074262 7.082431476791896 0.3737135918120624 0.4501369060826069 0.01219431689639781
0.548537245365848 0.4469147435197439 0.684448303572477 0.5447824909979455 0.6733102935954655 0.7017739023472609 0.6733098801492932 0.3314473093889196
0.5992907442272912 0.5747003646074549 0.3374358275819181 0.571963220195478 0.37330288813477214 0.4505018814853354 0.01347204084170537 0.5479215553051674
0.44645014794334464 0.683507329672088 0.5439912754195787 0.67237255536883 0.7007912232450848 0.6723908701217112 0.3312390308041976 0.598490902326302
0.5739888471911015 0.336885860816061 0.5712431839085474 0.11240306987418906 0.11942168000263369 0.11867820878603044 0.11565623741098395 0.11194777651896579
0.10869405007079877 0.10684121716510292 0.1081230354270863 0.11107998822042532 0.11478589609670753 0.1181121161902557 0.12319054616508189 0.12085769264705425
0.11660249977995055 0.10893929293663639 0.09686741567258561 0.09438697413777036 0.09492086436862497 0.10552473809707182 0.11336626986503376 0.1191185925521852
0.12976627742120797 0.12674459912722322 0.1197512201386825 0.10826557244942167 0.09254131122784372 0.08950481104961602 0.08968999254600504 0.10364064425338039
0.11561977883518029 0.12456945273221962 0.13606890450986 0.13235080313098888 0.12100074455174362 0.10377059967747472 0.0902277631966474 0.08656030354321047
0.08689572342843789 0.09847503223372361 0.11667176610675577 0.1302041338055388 0.14226540866557308 0.13775672006030307 0.12421523238446568 0.1033525581759375
0.08920049538537068 0.08480386423262817 0.08566269685825502 0.0975559796848438 0.11979138457481894 0.13587520846518747 0.14832716308003713 0.14294401532761727
0.12736695981690607 0.10335855680636018 0.0889009153326383 0.08391606061775259 0.08543421206543474 0.09729901705590746 0.1231175244341996 0.14146902225964145
0.15881508748359122 0.15294069275772718 0.13157720513616633 0.10126342378008774 0.08964729640502764 0.08080568236626332 0.08672954743353525 0.09611819439992315
0.12911962926412454 0.15233748168104566 0.09081563347768457 0.09409996524933577 0.09359778457793301 0.0923988671483336 0.09130638786672277 0.09019643970287645
0.08955791878736816 0.0903384468034084 0.09145767687572233 0.092535523374393 0.09369461013062891 0.09485792986952929 0.09183485287064998 0.08966323086688663
0.0871768068742333 0.08195298324497688 0.08247486414066597 0.08264587978553628 0.08906285970866092 0.09146812219766563 0.09271970668339778 0.1009385160775945
0.09596691570452491 0.09113254337106674 0.0869771763857019 0.080121652104154 0.08107079126225274 0.08132374270650158 0.08943069385781766 0.09343545018068974
0.09743248888489425 0.10849342574186718 0.10173703999282793 0.09156796601253751 0.08461290831215137 0.07988887207221347 0.08078527918396762 0.0811896250663475
0.08673079878516014 0.09364117883841322 0.10335066062713624 0.1172813982363358 0.10876862886784787 0.0948214603533357 0.08570876121809833 0.08067621004165397
0.0811922468565281 0.0818863746492376 0.08738344377267528 0.09639754921427582 0.11016174185145766 0.1265866475461281 0.11679737621072385 0.09837837583009448
0.08716271816148403 0.08196728648088625 0.08193010530897812 0.08299370714669574 0.08829214721348483 0.09921159790387003 0.11771830968990506 0.14358270292763803
0.13404789954702034 0.10532602213083209 0.08874164462201867 0.0849243304102819 0.08132367454202157 0.08542458337874488 0.08838875293091762 0.10312286647165717
0.1336127013301022 0.09247083117506597 0.09462121275098666 0.09518079034785498 0.09469538374452242 0.09435996297732295 0.09411777086290558 0.09363629471993841
0.09369699174442996 0.09362958232699196 0.0938357477605984 0.09456109868217963 0.08730210085336271 0.08700718111991766 0.0935050032932998 0.0925254420054484
0.08795216136251728 0.08776137695403222 0.08415887030831967 0.08578193198894174 0.08629865676537396 0.08340378476297092 0.09033629071796287 0.08985493554438256
0.096220442120205 0.09455148653306965 0.08746267248339476 0.08713568910324142 0.08229940769129752 0.08588705527037079 0.0866886919923514 0.08476254775324785
0.09384946327983534 0.09385301106886211 0.09290987256483083 0.09347044946641798 0.08828991225351053 0.08723537707194899 0.0826730937070888 0.08411447011996853

count f8 []
00000000: 0000 0800 a3e1 0142
9600000001.0

running_mean f8 [1]
00000000: cf18 984c 1955 5540
85.32966914036955

running_var f8 [1]
00000000: e6a8 4e34 7b2b 8140
549.4351583619398

count f8 []
00000000: 0000 2000 a3e1 e141
2400000001.0

a2c_network.sigma f4 [15]
00000000: da72 85bf 536e c0be 4629 b2bf 5741 dcbd
00000010: 57aa 97bd 10bc a4bd 89de 33be 7e1d e43c
00000020: 1978 89be c234 a6be 9525 f5bd 1c1e 8f3d
00000030: 4e19 a3be c873 eebe 116a 043d
-1.0425675 -0.3758417 -1.3918846 -0.1075465 -0.074055366 -0.080436826 -0.17565359 0.027846094
-0.2684944 -0.32462126 -0.11970059 0.06988165 -0.31855243 -0.4657271 0.032327715

a2c_network.actor_mlp.0.weight f4 [128, 361]
00000000: 560a 353f 8f20 c8ba dbbe a43e 4fd1 febc
00000010: def9 4f3f 2e53 15bf bfe3 2e3d 1cea b3be
00000020: d778 50be 3d18 cdbe 5222 15bf baa4 fabe
00000030: 5f18 2fbe be28 703e a3fb 8fbf 3b09 323f
00000040: 5b68 e1be a2c1 4abf 56e7 2c3f 7417 963f
00000050: 6e58 87bf edcd eabe afd7 97be 7ff6 213e
00000060: 81dd 31be 3dd3 f83e 6d70 8f3f 1b56 f33e
00000070: cf7d 17bc d966 173f 80c1 a4be 9c69 3b3e
00000080: 4c97 84be 5026 823d 57d2 2ebf 7252 223f
00000090: de35 873e 8497 c4be 3ace 67be c6b3 9dbf
000000a0: 6f9f 8fbe 40cf f3be dfa5 503f faae be3d
000000b0: 2ac9 ff3e 7a22 80be 31ca dbbe bc09 63bf
000000c0: be29 1fbd 9bdb d7bd 25f3 1ebf da4a f6be
000000d0: f52c 4a3e 1215 acbe 6c27 803d 9f06 08bf
000000e0: 6b67 3bbf 9471 28be 1d40 5d3d 6d5b 263c
000000f0: ef2c 69be 56a8 d63e 9a48 30bf 8320 50bf
00000100: 01d7 573f c172 1abf 0e25 c6be 4c2e 26bf
00000110: 0e00 c3be d30f 85bf e18a 423a e6b6 2c3f
00000120: eb23 923e 30de 883d bb62 edbe ce78 d33d
00000130: a564 80bd a681 e43e 1971 30bd 988b 68be
00000140: c9aa 993e 53b6 b1bd 9d42 a0bc dae2 463d
00000150: b4c0 223e ac4d 503e c4b4 e03d dc74 aabe
00000160: 669e 83be 1c11 7dbd 9ee6 d7bd 4f59 febe
00000170: 6c31 45be de6c 85bd e436 bebe 5374 19be
00000180: df80 1e3f 52b3 a53e a94d 3ebe 8e77 a53d
00000190: 499c 0ebd 425c 9838 d00c b2be 9e8c 9e3e
000001a0: 72a2 ffbd 6102 313e 2ef1 983c e9c0 543e
000001b0: ccd1 623e 5939 2c3e f26f dd3e 423c 4ebf
000001c0: c69a fd3e 647c fabe b3bf 8c3e 0729 27be
000001d0: 88d7 b3be 53f2 12bc 51ed 21be 2938 00bf
000001e0: 3115 b7be 73b9 ffbe 6db8 433e f24e 66bf
000001f0: b831 a8bd 3a1c 20bf 4486 8dbe 0a6f 04bc
00000200: b310 db3e ba24 f1bd 2c5f 48bd a05c fb3d
00000210: 6ec2 9fbd bf07 c4be 47a5 1bbe e4e5 4ebe
00000220: f65a 033f 9049 96be 6ebc d9bd 4d5f e4be
00000230: 6661 fb3e 666c ed3e eb03 383e ca29 d1bd
00000240: 40f4 22bf e6ac b8bf 011a d8bc b514 ef3d
00000250: cb63 d5be f8b4 163c deea 5c3e 750e acbd
00000260: 8e37 dd3d 9849 fe3b 1d9f 923e 1458 3e3d
00000270: b760 dfbe 2645 51be 95b5 ecbc eb23 c1bc
00000280: 708c 87ba 192d 863d db46 3abf 3670 bcbe
00000290: 88bb 9dbe 8fb8 debb d2ab c3bd c10a 08bb
000002a0: aa13 a43e b2b6 103e 9fcc ef3e 82b3 383f
000002b0: fd2f c03d 79e6 3fbf 0241 403e e011 133f
000002c0: 7c13 40bf 9ca6 103d a5b0 e13d 3cce 8ebe
000002d0: f35a 62bc e511 bcbd 0f58 cd3e 4875 95be
000002e0: 7e3d 9dbc 6af6 e1bd cad9 c63d fa22 eabd
000002f0: f9d8 143f a7b4 b7be cf60 af3e 395f a2bd
00000300: 00a3 003f 3089 063f 5885 a83e 7233 bfbd
00000310: bbb5 cf3e 4ac6 05be 2e02 f63e 8c62 9d3e
00000320: 17df c23d e84b 2fbc d629 f33e 5d11 ba3e
00000330: 1e39 b9bd 6d97 6e3e 0f0f 913e 7af5 633f
00000340: ac32 a33e 1a90 813e e04c 0c3f 4e21 e7be
00000350: 12ee 88be 0872 84bd 0278 103e c9f8 203d
00000360: 4403 3d3f c00f 81be 53d3 643e 2ee7 943d
00000370: cb4f 113d 5700 09bd cc9a d6be 1e3a 3bbe
00000380: 08df 97be bb8e 51be 44cd 013e 4be4 8a3d
00000390: bca4 fa3e cba5 453b 9a49 b63e 53a0 e63d
000003a0: 3cc9 a33c 9e1c a7be 014d 65bf 5cc0 15bd
000003b0: 555b bc3d 2d6b c0be 77be 863c 15d0 233f
000003c0: 10d2 723e da8e cb3e e130 90be a8a2 45bd
000003d0: 754a 003e 5e95 b53e 14c8 77be 274e 67be
000003e0: c13b 8f3e 4989 6abc 0835 94be a35c 8cbe
000003f0: 60b3 39bf 1ff4 c8be 5ce7 de3e 36ed 823d
0.70718896 -0.0015268492 0.3217686 -0.031105665 0.8124064 -0.5833005 0.042697664 -0.3513955
-0.20358597 -0.40057555 -0.58255494 -0.489538 -0.1709914 0.23453042 -1.1248668 0.69545335
-0.4402493 -0.7920171 0.6754049 1.1725907 -1.0573862 -0.45860234 -0.2965674 0.15816687
-0.17369653 0.48598662 1.1206185 0.4752663 -0.009246304 0.5914131 -0.3217888 0.18302006
-0.2589668 0.06354964 -0.68289703 0.6340705 0.26408285 -0.38396847 -0.22637263 -1.2320487
-0.28051326 -0.47619057 0.815031 0.09310718 0.49958163 -0.25026304 -0.42927697 -0.8868673
-0.038858168 -0.10539933 -0.6208976 -0.48103982 0.19743712 -0.33609825 0.06257519 -0.53135103
-0.7320468 -0.16449577 0.05401622 0.010153634 -0.22771047 0.41925305 -0.6886078 -0.8129961
0.84312445 -0.6033135 -0.38700145 -0.64914393 -0.3808598 -1.0395454 0.0007421207 0.6746658
0.28543028 0.06683004 -0.46364388 0.10325776 -0.062691964 0.44630164 -0.04307661 -0.22709501
0.3001311 -0.08677354 -0.019563014 0.048556186 0.15893823 0.2034213 0.10971978 -0.33292282
-0.25706786 -0.061783895 -0.105420336 -0.49677512 -0.19257134 -0.065149054 -0.37151253 -0.1498578
0.6191539 0.32363373 -0.18584312 0.08079444 -0.034817014 7.265109e-05 -0.347754 0.30966657
-0.12482156 0.17286064 0.018669691 0.20776714 0.22150344 0.16818751 0.4324947 -0.80560696
0.49532145 -0.48923028 0.27490005 -0.16324244 -0.35125375 -0.008968907 -0.15813185 -0.50085694
-0.35758355 -0.49946174 0.19113322 -0.8996421 -0.08212608 -0.6254307 -0.276415 -0.008083114
0.42786178 -0.11774583 -0.048918888 0.12273526 -0.078007564 -0.3828716 -0.15199767 -0.20204884
0.5131067 -0.29353 -0.10631643 -0.4460396 0.49097747 0.46371764 0.17970245 -0.10213049
-0.63653946 -1.4427764 -0.026379587 0.116738714 -0.41677698 0.00919842 0.2157397 -0.08401195
0.10801612 0.007760238 0.2863702 0.046470717 -0.43628475 -0.20436534 -0.028895179 -0.023576697
-0.0010341536 0.065515704 -0.72764367 -0.3680436 -0.30807137 -0.0067969034 -0.095542565 -0.0020758363
0.32046252 0.14132193 0.468358 0.7214891 0.09384153 -0.7496105 0.18774799 0.5744915
-0.7502973 0.03531514 0.110200204 -0.2789172 -0.013815629 -0.091831006 0.40106246 -0.2919104
-0.01919436 -0.11033328 0.09709509 -0.114324525 0.58143574 -0.35880014 0.34253547 -0.079283185
0.5024872 0.5255308 0.32914233 -0.09335984 0.40568337 -0.13063923 0.48048538 0.30739248
0.09515207 -0.01069925 0.47492856 0.36341372 -0.09044097 0.23299952 0.283318 0.8904644
0.31874597 0.25305253 0.548048 -0.45142597 -0.26744133 -0.06467062 0.1410828 0.03929976
0.7383311 -0.2520733 0.22346239 0.072706565 0.035476487 -0.03344759 -0.41914976 -0.18283889
-0.29662347 -0.20464604 0.12675959 0.06781825 0.48953807 0.0030158635 0.3560303 0.11261048
0.019993417 -0.3263902 -0.89570624 -0.0365604 0.09197108 -0.3758177 0.016448243 0.63989383
0.23712945 0.39757425 -0.28162292 -0.048250824 0.12528403 0.3546552 -0.24197417 -0.22588407
0.27975276 -0.014314958 -0.2894671 -0.27414426 -0.7253933 -0.3924875 0.43535888 0.06392901

a2c_network.actor_mlp.0.bias f4 [128]
00000000: 227b 93bf 0375 b1bf 9433 f8be 5107 95bf
00000010: dd60 b4bf 19db 4fbd 0108 1ac0 f0cd 57bf
00000020: 2b0a 9d3d 30de d9bf 9838 93bf edb5 8bbf
00000030: 46c3 aebf 6a6e a4bf 002d c7bf b2e9 29bf
00000040: ce28 33be c5d6 6fbf 7d80 ffbf c657 b0bf
00000050: 6449 5fbf ba90 3ebf e194 4bbf 8acd 0ebf
00000060: 84fe 94bf 9d0d 10bd bad0 1dbf 34c2 85bf
00000070: b986 98bf 48f2 a63e 9d1f f2bf 8995 babf
00000080: 098b afbf 7b8f a7bf 740f 55bf 0ebd a2bf
00000090: d43c d2bf 021b 5bbd e2e9 7abf 7723 39bf
000000a0: 0d40 8abf ac59 c2bf 07fc 93bf 7ff8 3dbf
000000b0: b025 73bf 4d4f 38bf bd7c cdbf ea68 61bf
000000c0: 22d6 e9bf 1aaf 84bf 6feb a7bf 1311 dfbf
000000d0: 70de 85bf 263a 103e 499a 16bf 7f03 c6bf
000000e0: e659 9ebf 3b2b aebf 48a0 8cbf a681 87bf
000000f0: 28a4 d3bf 0d9f 32bf bf72 d4bf d583 0fc0
00000100: f8f0 5dbf 462d c4bf d926 a1bf fa53 77bf
00000110: 8830 d1bf 32a0 aabf d215 a7bf 6d4b 14c0
00000120: 69e8 83bf 4354 c5bf c0ef 9dbf 4b36 a1bf
00000130: 3092 e6bf 6df6 c1bf d662 97bf 47e7 f9be
00000140: cc25 90bf 4e97 d9be 3b77 82bf ba07 9a3e
00000150: fa0f 4cbf ffd2 a8bf f72d c5bf 124e 67bf
00000160: 2703 a7bf c370 fbbe 03ea ddbf 180b afbf
00000170: a57e ebbe eb64 c8be 8dcd 93bf 3b5f bfbf
00000180: d3f5 cabf b8b1 95bf 5791 8abf 44fc 01bf
00000190: 8ead bbbf b063 8fbf 63bb c9bf 9543 47be
000001a0: 5885 5bbf 03fa 83bf da16 b3bf 4e1c b3bf
000001b0: 248d 13bf 80b2 04c0 9e50 82bf 6340 44bf
000001c0: 8f66 dfbf 6d63 64bf 2202 b8bf 775d e73c
000001d0: 49e5 4cbf 1e5f eabf d8ab 32bf 56eb 943e
000001e0: 8f48 5cbf 4b01 8cbf e621 99bf b3f1 31bf
000001f0: 9f7f adbd 925f c0bf f85d 70bf 4ce2 babf
-1.1521952 -1.3863834 -0.4847685 -1.1642858 -1.409206 -0.050746057 -2.4067385 -0.8429861
0.07667955 -1.7020931 -1.1501646 -1.0914894 -1.3653343 -1.2846196 -1.5560608 -0.66372216
-0.17496035 -0.9368709 -1.9961087 -1.3776786 -0.8722136 -0.74439585 -0.79524046 -0.5578238
-1.1640172 -0.035169233 -0.61646616 -1.0449891 -1.1916114 0.3260672 -1.8915898 -1.4576885
-1.3714305 -1.3090662 -0.83226705 -1.2713945 -1.6424813 -0.053492554 -0.98013127 -0.7231974
-1.0800797 -1.5183616 -1.1561288 -0.742073 -0.9497938 -0.71996003 -1.6053692 -0.8805071
-1.8268473 -1.0365937 -1.3118724 -1.7427086 -1.0458508 0.14084682 -0.5882917 -1.5469817
-1.2371185 -1.3606943 -1.0986414 -1.058644 -1.6534472 -0.6977394 -1.6597518 -2.2424214
-0.86695814 -1.5326316 -1.258998 -0.96612513 -1.6342936 -1.3330138 -1.3053534 -2.3171036
-1.0305301 -1.541634 -1.2338791 -1.2594694 -1.8013363 -1.5153328 -1.1827037 -0.48809263
-1.1261535 -0.4249825 -1.0192636 0.3008402 -0.7971188 -1.3189391 -1.5404652 -0.903535
-1.3047837 -0.49109468 -1.733704 -1.367526 -0.4599506 -0.39139494 -1.1547104 -1.4950937
-1.585627 -1.169486 -1.0825604 -0.5077555 -1.466234 -1.1202297 -1.5760311 -0.19459374
-0.8575034 -1.0310673 -1.3991349 -1.3993013 -0.5763724 -2.0733948 -1.0180852 -0.76660746
-1.7453173 -0.8921421 -1.4375651 0.02824281 -0.8003736 -1.8310277 -0.6979346 0.29085797
-0.86048216 -1.0937895 -1.196347 -0.6950943 -0.084716074 -1.5029166 -0.93893385 -1.460031

a2c_network.actor_mlp.2.weight f4 [128, 128]
00000000: cb5d 7ebe 3644 9abe a7d8 25be b71a a5bb
00000010: 9fd1 69be 90b6 1dbf fb93 193f 80a7 b43d
00000020: 537e 86be ef02 913e e94f a6be f022 a6be
00000030: c317 203e 8c7d d1be 1331 7bbd 64a6 96be
00000040: e309 d7be 05e1 15bd a09c df3e 3a12 59be
00000050: 1a8a 8abd eb7a 03bf eb09 b7be be51 19bf
00000060: 3f63 7bbe 8558 eabe d674 6cbe a6bf 34be
00000070: 70be e0bd e55e 20bf 3977 71bc f984 d5be
00000080: 7f3d a3be b767 8fbe 6f79 26bf 6242 b0be
00000090: 28ea bc3d a426 85bf a59f a0bc 8fad 05be
000000a0: 6b74 57be 522e bebe f914 aebe 1cee 08be
000000b0: 067c e0bd dd81 443c 854e 8f3e ae57 cabe
000000c0: 21a7 883e 4e7e 19bf 9c24 c93b f7ee 083d
000000d0: ad60 b4be d245 dbbe b0d8 e1be dc6a 1c3e
000000e0: 6d93 ccbd 6e86 433e e63e 0ebe 6af8 3abe
000000f0: 0374 433d 1da3 fcbe 30e9 9cbd c943 f93c
00000100: 87ba 1abf 4944 ebbc c332 d83d 9c25 84bf
00000110: 8118 36be c8c6 aabe 5894 a7be f446 363f
00000120: f528 9c3d 4353 b63e 652f ba3c ad02 88be
00000130: 2e78 c0be 347a adbe 290e efbe 48b6 30bf
00000140: ff42 b63d 174d e0be 988a 833d e801 3ebf
00000150: 2d00 c4be 7482 10bf 4dc4 903e 68da 8bbe
00000160: c123 3abe 8096 15bf 3dee b9bd 0973 edbd
00000170: 4d7a c6be 4816 28be c539 31be 2eac 85be
00000180: 711c aebe d89c d8bd 89f4 1bbe d751 56bd
00000190: 3bb6 98be bf7f 5e3c fac7 24bd 34bb a1be
000001a0: 925d 03bf ba11 07bf 06f4 2cbe e3e3 b63d
000001b0: 27fd f6be 8d00 24be 83bc c4be af23 44bf
000001c0: 2f7d 313e f10d 1fbe 8273 bcbe e761 dcbe
000001d0: b7c4 3bbf 60f4 df3c 9e75 12bf 44bc 1fbf
000001e0: 75cf 2d3c dc91 89be dc61 4ebe 5bd2 39be
000001f0: ac24 5ebe cd8e bbbd b425 f9bd 6356 e83d
00000200: d989 69be ca03 993e f259 fabb 2080 d0be
00000210: 3de2 ffbe 7db0 06be 67d3 fb3e 9e2d 4e3e
00000220: 967e 02bf 5353 48be ba3e 1cbe af89 72be
00000230: 0865 d8be b830 e93d 187a f53e cf50 62bf
00000240: 5879 96bc 631d 0ebf 4459 4cbe cb87 59bd
00000250: 2ef0 aabe 895c 553e 52b8 c63d 3ad1 0abd
00000260: cba2 9abe 219c 0abd 3e95 4ebd cbbd 3cbf
00000270: 8737 1cbf 1fd1 b6be 42be 703e d2a7 1dbe
00000280: 3ef8 bd3e 9c24 b8be f300 62be eb3c a8be
00000290: 4bec 89bd 2eea 80bd 9923 993d e631 50bd
000002a0: 8c23 81be 8104 fb3d ee6d 973e 8343 37bf
000002b0: 1f18 21bf 8e82 a03e b646 113e 8a19 06bf
000002c0: eb42 7cbf adc8 863d 8cb4 1d3d 0344 473d
000002d0: c921 20be 5ede 11bf bf55 9abf 01de 66be
000002e0: 2211 5cbc 2dad 58bf e56c 4a3e 0ad5 413d
000002f0: 2b7f 5dbe fca2 68be 5d0b a9bc 396b c6be
00000300: 8835 27bf 3c4c 2bbf 79da 12be 63d8 c1bd
00000310: 5055 4c3e 9c01 1ebe bc9e 2b3d 59b5 da3e
00000320: 814d d2be 47e8 583d e2b9 e4be 9494 cdbb
00000330: 4788 42bf 3fd1 0cbf e5e9 093e 86e2 ad3d
00000340: ace6 01bf 966b 32be f66c 943d 5fb4 65be
00000350: c9f4 33be c605 a2be 47e4 54be b747 f63e
00000360: bc53 933e 5109 aebe 0bd4 8fbe 791b d23e
00000370: a8dd 98bd 5ea8 6e3e bea2 afbd e52b 82be
00000380: 9875 56bd 42d8 ed3e 64d8 7ebe 3e37 193d
00000390: bad7 a13e c936 82bd 30ce 963e 5ca0 ec3c
000003a0: c196 5b3e a87f c33e 3766 a5be 6862 1b3f
000003b0: f551 8cbe 5748 c7bd dcdc b1be df85 ccbd
000003c0: 7731 8d3e 9284 963c 2791 e9bd 82d4 94b9
000003d0: 32f9 47bf cb7f 71be 2027 923e 8f36 dcbe
000003e0: c0cd d03e 1637 483e 4752 41be c976 03be
000003f0: 64fd 293e a97b d53d bb3f 0c3d 7754 54be
-0.24840467 -0.30130166 -0.16195928 -0.005038585 -0.2283387 -0.61606693 0.59991425 0.088210106
-0.26268253 0.2832255 -0.32482842 -0.3244853 0.15634064 -0.40916097 -0.061326098 -0.2942382
-0.4199973 -0.03659155 0.43674183 -0.21198359 -0.06764622 -0.5135943 -0.35749754 -0.59890354
-0.24549578 -0.4577066 -0.23091444 -0.17651233 -0.10973823 -0.626448 -0.014737898 -0.41703013
-0.31882855 -0.28008816 -0.6502904 -0.34425646 0.09224349 -1.0402417 -0.019607374 -0.13054489
-0.21040504 -0.37144715 -0.34000376 -0.13372082 -0.109611556 0.011993852 0.27989593 -0.3952002
0.2669001 -0.5995835 0.0061383974 0.03343102 -0.35230008 -0.42826706 -0.44110632 0.15275139
-0.09989057 0.1909425 -0.13891181 -0.18258825 0.04771806 -0.49343196 -0.076616645 0.03042783
-0.6044087 -0.028719084 0.10556557 -1.0323977 -0.17782785 -0.33354783 -0.32730365 0.71202016
0.076249994 0.356104 0.022727678 -0.2656454 -0.3759169 -0.33882296 -0.4669049 -0.6902814
0.08899497 -0.43808815 0.06422919 -0.7422166 -0.38281384 -0.56449056 0.28274766 -0.27315068
-0.18177702 -0.5843277 -0.090786435 -0.11594207 -0.38765183 -0.1641475 -0.17307194 -0.26107925
-0.34006074 -0.105767906 -0.15230002 -0.052324142 -0.2982653 0.013580262 -0.040229775 -0.31588137
-0.5131465 -0.52761424 -0.16889963 0.08930185 -0.48240015 -0.16015835 -0.38425073 -0.7661695
0.1733291 -0.15532662 -0.36806875 -0.43043444 -0.7334704 0.027338207 -0.5721072 -0.62396646
0.010608544 -0.26869094 -0.20154518 -0.1814665 -0.21693677 -0.091580965 -0.121653944 0.11344602
-0.22806491 0.29885703 -0.007640117 -0.40722752 -0.49977294 -0.13153262 0.49184725 0.20134589
-0.50974405 -0.19563036 -0.15258303 -0.23685335 -0.4226458 0.113862455 0.47944713 -0.88404554
-0.018368408 -0.5551359 -0.19955927 -0.053108018 -0.33386368 0.2083608 0.09703125 -0.03389094
-0.30202326 -0.033840302 -0.050435297 -0.737271 -0.6102223 -0.35706422 0.23510078 -0.1539605
0.37103456 -0.3596543 -0.22070675 -0.32858977 -0.067345224 -0.06294666 0.07477493 -0.050828837
-0.25222433 0.122567184 0.29576057 -0.7158739 -0.6292743 0.31349605 0.1418713 -0.5238272
-0.9853961 0.065812446 0.03850226 0.048648845 -0.15637888 -0.5697993 -1.2057418 -0.22545625
-0.013431819 -0.84639245 0.19768102 0.04732231 -0.21630542 -0.22718424 -0.020635301 -0.3875368
-0.6531606 -0.669132 -0.14341153 -0.094651006 0.19954419 -0.15430301 0.041899428 0.42716482
-0.41074756 0.052955892 -0.44673067 -0.0062738154 -0.7598919 -0.55006784 0.1346813 0.084904715
-0.507426 -0.17423853 0.07247345 -0.22432087 -0.17573847 -0.3164503 -0.20790206 0.4810159
0.28774822 -0.33991483 -0.28091463 0.41036585 -0.074641526 0.23306414 -0.085759625 -0.25424114
-0.05235824 0.46454054 -0.24887234 0.0374062 0.316099 -0.06358106 0.29454184 0.028885059
0.21444227 0.3818333 -0.32304546 0.6069703 -0.27406278 -0.097305946 -0.34738815 -0.099864714
0.275768 0.018373761 -0.11404639 -0.0002838709 -0.78114617 -0.23583905 0.28545475 -0.43010375
0.40781975 0.19552264 -0.18879043 -0.12838282 0.16600567 0.10423977 0.034240466 -0.20735346

a2c_network.actor_mlp.2.bias f4 [128]
00000000: 8915 a7bf 3bc1 dabe a490 963c 269f f8be
00000010: 6fc8 12be 4ef4 d8be cc3b a2be 7a09 d9be
00000020: 1df5 0ebf 749f c2be 42ff 2dbe 3f84 29bf
00000030: 0608 e9be e223 0bbf 0800 d2be 46d9 68be
00000040: d72d 4cbe ad78 b0be 76aa edbd 19ba bebf
00000050: 5570 98be 4e08 18bf 9979 02be d7ab 1dbf
00000060: 0ccd babe 7d29 3c3e cfff 33be 91c4 d7be
00000070: 8eaf 423e 4608 7ebe 604c 90be 804c 32bf
00000080: e39a 4fbe 63ec b5bd 592d 33bf 95ce 87bd
00000090: e7a7 5abe 2033 7bbe 7041 15be 1abc 4dbe
000000a0: bbaf c8bd e54f f4be 64c3 1bbf 96b5 58be
000000b0: af8b f3be 23c7 cbbe ebd2 b2be 5991 4bbf
000000c0: fe91 9dbe 44e7 13bf 78eb 03bf 3cfd 48be
000000d0: 50fd 72bf 6800 efbe 6f47 a7bd efc5 08be
000000e0: 86ed 0a3e fa2e 27bf 9010 cebe 6d06 b2be
000000f0: 6608 2abf 1d7b 1abe f838 f2be 3986 91be
00000100: d972 98be 037a 26bf f999 013d 932a 06be
00000110: 885a e7be 4540 77be 519e 82be 4da8 09bf
00000120: 88df a4be 4f7e 1ebf d47b 94bd 2f7c 1f3d
00000130: d02d 1fbf a45c ecbe 769b 87be ee0f 37bc
00000140: c273 1cbe 2eaf dcbc f412 4a3c d667 09bf
00000150: 8b77 bebe ed64 633e a746 9ebe 5d0f c4be
00000160: c769 18bf 3e48 23be 3437 b1bd bc72 e1be
00000170: 3ef1 6fbd 96c6 fdbe ce69 2fbf 2b19 3bbe
00000180: 42cf f9be 17b9 d9be 72a1 dabd a766 aebe
00000190: 4311 10bf 9d57 12bf a49f 94be 452d 8dbd
000001a0: c8e7 05bf 06de 00bf 402a a8be e57c b73d
000001b0: 5645 79be 8f69 c6be 3a9c b0bf 34c0 3fbd
000001c0: 115a 02bf 3411 80be 6428 9bbe ff62 0ebf
000001d0: 97d0 66be 0f79 b4be b99b bfbe 2436 c3be
000001e0: bdeb 5cbe 23e0 28be a22c 9abe 49d9 ddbe
000001f0: 7c12 fabd 4782 66bf b603 92be 6219 f5be
-1.3053447 -0.42725548 0.018379517 -0.4855892 -0.14334272 -0.4237389 -0.31686246 -0.42390043
-0.55842763 -0.38012278 -0.16991904 -0.66217417 -0.45513934 -0.5435163 -0.4101565 -0.22739133
-0.19939362 -0.34467068 -0.116047785 -1.4900542 -0.29773203 -0.5938767 -0.12741698 -0.6159033
-0.36484563 0.18375202 -0.17578052 -0.42142156 0.19012281 -0.24807844 -0.2818327 -0.6964798
-0.20273928 -0.08882978 -0.6999107 -0.06631199 -0.21353112 -0.24531221 -0.14575744 -0.20091286
-0.09799143 -0.47717205 -0.6084502 -0.2116302 -0.47567508 -0.39800367 -0.34926543 -0.7951866
-0.30775446 -0.5777476 -0.5153117 -0.19627851 -0.94917774 -0.46679997 -0.08167922 -0.13356756
0.1356717 -0.65306056 -0.4024701 -0.34770527 -0.66419065 -0.15086026 -0.4730909 -0.28422716
-0.29775122 -0.65029925 0.03164098 -0.13102178 -0.45186257 -0.2414561 -0.2551141 -0.5377243
-0.3220179 -0.6191148 -0.07250181 0.03893679 -0.6217928 -0.4616443 -0.26485795 -0.0111732315
-0.15278533 -0.026939001 0.01233362 -0.53674066 -0.3720058 0.22206469 -0.30913278 -0.3829297
-0.59536403 -0.15945527 -0.08653107 -0.44032848 -0.058579676 -0.49565572 -0.6852082 -0.1827132
-0.48790938 -0.42524025 -0.106753245 -0.34062693 -0.5627634 -0.5716494 -0.29028046 -0.068934
-0.52306795 -0.5033878 -0.32844734 0.089593686 -0.24342856 -0.3875241 -1.3797677 -0.04681416
-0.5091868 -0.25013125 -0.30304253 -0.55619806 -0.22540508 -0.3524861 -0.37423494 -0.38127244
-0.21574302 -0.16491751 -0.30112177 -0.43329838 -0.12210557 -0.9004254 -0.28518456 -0.47870928

a2c_network.critic_mlp.0.weight f4 [128, 361]
00000000: 49f1 0640 8c97 f3bb 5511 6fbe 017a 0ebe
00000010: 29f8 583f e344 4ab9 2d3c 393e e049 963e
00000020: 8e71 933e 64e8 2ec0 e6c5 0cbf 171b 1abf
00000030: 8872 4e3e 7c27 d83e 2585 89be bf04 9b3e
00000040: 3fe7 f4bd 6ea7 57bd 7723 773e 4936 75be
00000050: 3ca3 3b3f 90bf c53d 5a52 173e 5fd9 ec3c
00000060: b3d3 53be cba9 0fbe a7f7 803e 7084 34bc
00000070: c74c afbc 68a7 bcbd 3613 b2bc 3a28 543e
00000080: 20dd ae3c 8d6a b8bd ae59 c2bb 9e22 fabb
00000090: 0164 ae3b eee7 363e 8b55 903c 83c7 393d
000000a0: 6fec 933d a056 dabd 14c2 e4bd 17dd 003d
000000b0: 5f7e 17bd 7ac4 09bc 897b 25bd 7937 8abe
000000c0: e152 1dbe c1b7 0fbe ac86 d13d 37a9 e93d
000000d0: 42c1 9e3d 1152 8d3c de5d 92bc 8396 80bd
000000e0: 6e9e e13d 4b93 8d3d 526c 25be 37e5 7f3c
000000f0: 005e 933d 0c51 56bc 9b9b e2bd 0484 8dbd
00000100: 0a5d f7bd 7990 283e 3a1a b73d 41a8 3bbd
00000110: 2795 f03c 968a eabc 5289 c93c da72 083d
00000120: 71dc 9fbb 7bf7 043d de39 9a3d cade a03d
00000130: 24a9 4c3c b78b 2e3d 9c25 a83c 641f 343c
00000140: bace 083d 8757 d83c 763b 113d 3822 423d
00000150: 4cc7 f53a 0e44 b53c 2e36 81be b82f e3bd
00000160: b9f0 1c3c 1ef5 1abc 135b f0bb 0a35 f33d
00000170: ec19 1b3d 570d d93c 0b44 ee3c 1a4b a1bd
00000180: 15eb 713d 5d9e b93c 502f 03bd 3dc8 96bd
00000190: 8c34 3dbd af94 f33d 3d1a fb3d 4cdb 883c
000001a0: 770c 3f3c 4764 9bbd 3970 29be f921 fd3d
000001b0: 308d 95bd 207b cd3d 10c0 323c 3cd1 81bc
000001c0: 4fea 51bd 7b2a 233e 69fd 9bbd 9406 a53d
000001d0: d847 8c3d c808 1f3e 05a1 933e 180f 62be
000001e0: 1868 8ebc a1bc 893b 5264 333c 29d2 81be
000001f0: 6145 393e 9c64 133e c3d6 a03e e4d4 3d3e
00000200: 1c94 a43d e89d 66bc 8efc 313d 4235 49bd
00000210: b485 54bd be06 e5bb dd09 d2bc a107 333e
00000220: 4035 e33f 3b8a 1c40 5327 233e 0524 e2bd
00000230: 759b 50bd ab51 83bd 8d67 a63d 4158 49be
00000240: e70b f83e 54dc 2640 b623 053d 0ec1 43bd
00000250: 3c8f bf3b 3c03 323c 4007 dcbc 0bab aa3c
00000260: 0124 993d 35f2 0d3d 3085 efbc ab2d dabd
00000270: 50ef 35bd 4144 41be f0e6 ce3d 4fe9 ad3d
00000280: cec3 4fbd 8d7c 4a3d 98a9 323e 7a89 1c3e
00000290: 10c8 023c c6f6 b2bd db3c da3c 3dc1 bcbd
000002a0: 71b7 fcbd 3f2b b03d 4f03 55bd 24f5 7dbc
000002b0: d3b6 5cbd 6101 ca3c 1bc4 b63c f1a1 c4bd
000002c0: 39f9 81bd c787 27bd da52 783c b7b0 71bd
000002d0: 6085 e43d 094a 93bd 9999 8dbc 9312 f3bb
000002e0: 5300 293e 2c4e c9bd 307f 38bc 5682 a33d
000002f0: ddda 2e3d 6a8b 1cbe 639c c43c 6680 3b3d
00000300: 06b7 c2bd 17ef 29bc 53df ae3d f40c 51bc
00000310: b9f3 113c 151c ff3e 2129 f83c f38b 55bd
00000320: 1b8f 813d cd55 ccbb 72e1 10be 197a 23bd
00000330: d3f7 eb3d e7e4 60bd c45e ecbd 8e03 8b3f
00000340: 1d8c b63f fc76 003f 544e ae3c 4c2e e13c
00000350: d1d1 1e3e d360 55bd e842 f3bd bc2e e43d
00000360: 3866 af3f ca29 05bc 235a a1bc 08fd 973b
00000370: eeee 753d 2cc3 be3c 6831 383d fd42 833c
00000380: 540f 5a3d d478 85bc 2d9a fbbc 9544 f93c
00000390: bd7a 0c3d de6e dcbc 2c85 b73c d4ff 18bc
000003a0: 310c b4bb 27b5 1ebc 77e9 04bd f072 9bba
000003b0: d1e6 183c 1e56 a13d c13d 363d fce7 8c3c
000003c0: 0722 5a3c e07e 0bbc 9d6a e0bb 6fd7 c33b
000003d0: 26ff f5bb d5de 8a3b d01c 16bd 1e88 193c
000003e0: e58a d63b c412 9a3c 0bc4 063d fc48 06bd
000003f0: 8c14 443c f2e3 843a 4825 ef3b 9fc5 28bc
2.1084769 -0.0074338373 -0.23346455 -0.13913728 0.8475366 -0.00019289883 0.18089361 0.29353237
0.28797573 -2.732934 -0.5498947 -0.60197586 0.20160878 0.42217624 -0.26859394 0.30277058
-0.11958169 -0.052649908 0.24134623 -0.2394649 0.7329595 0.09655678 0.14777508 0.028912244
-0.20686226 -0.14029615 0.25188944 -0.011017904 -0.021398915 -0.09211618 -0.021737676 0.2071847
0.021345675 -0.09004698 -0.005931101 -0.007633521 0.00532198 0.17861912 0.017618915 0.045356285
0.072228305 -0.10661054 -0.1116983 0.031460848 -0.03698575 -0.00840866 -0.040401015 -0.26995447
-0.15363647 -0.1403494 0.10230765 0.11409228 0.07751705 0.017251046 -0.017867025 -0.06278708
0.11016546 0.069128595 -0.16154602 0.015618614 0.071956635 -0.0130808465 -0.11064836 -0.069099456
-0.12078293 0.16461362 0.08940549 -0.045814756 0.029367996 -0.028630536 0.024601612 0.033312656
-0.0048785736 0.03246258 0.075305685 0.07854994 0.012491498 0.04261371 0.020525746 0.010993812
0.033400275 0.026408924 0.035457097 0.047395915 0.0018751412 0.022127178 -0.25236648 -0.11093086
0.009578877 -0.009457855 -0.0073350756 0.11875351 0.037866518 0.026495619 0.02908518 -0.078756526
0.059062082 0.022658521 -0.032027543 -0.07362411 -0.04619269 0.118935935 0.12260864 0.016706131
0.011660687 -0.07587486 -0.16546716 0.123599954 -0.0730232 0.1003325 0.010910049 -0.015846841
-0.051248845 0.15934174 -0.076166935 0.08057895 0.068496406 0.15530694 0.28833786 -0.2207607
-0.01738362 0.0042033945 0.010949211 -0.25355652 0.18092872 0.14393848 0.3141385 0.18538243
0.08036062 -0.014075734 0.043453746 -0.049123056 -0.05188532 -0.006989329 -0.025639469 0.17483379
1.7750626 2.445937 0.1593297 -0.110420264 -0.050929505 -0.06412061 0.081252195 -0.19662572
0.4844658 2.6071978 0.03250476 -0.047791533 0.0058459323 0.010865029 -0.026858926 0.020833513
0.0747757 0.034654815 -0.029238313 -0.10653242 -0.04441768 -0.18873693 0.101026416 0.08491766
-0.050723843 0.049435187 0.17447507 0.15286818 0.007982269 -0.087384745 0.026640346 -0.09216545
-0.12339676 0.086019985 -0.05200511 -0.015500341 -0.053885292 0.02465886 0.022310307 -0.096012
-0.063463636 -0.04090097 0.015156472 -0.05900642 0.11158252 -0.071918555 -0.017285155 -0.0074179857
0.1650403 -0.09829363 -0.011260793 0.07983844 0.042689193 -0.15287557 0.024000352 0.045776747
-0.09507565 -0.010371945 0.085386895 -0.012759436 0.008908206 0.49826112 0.03029305 -0.05213542
0.06326123 -0.006235814 -0.141485 -0.039911363 0.11521878 -0.0549058 -0.115415126 1.086046
1.4261509 0.50181556 0.021277584 0.027487896 0.15509726 -0.052094292 -0.11877996 0.111417264
1.370307 -0.008127639 -0.0196963 0.004638318 0.060042314 0.023286425 0.044968992 0.016023153
0.053237274 -0.016292967 -0.030713165 0.03042821 0.03429674 -0.026908334 0.022402368 -0.009338338
-0.0054946174 -0.009686745 -0.032449212 -0.0011859816 0.009332375 0.07877754 0.044492487 0.017200463
0.013313777 -0.008514136 -0.006848647 0.0059766094 -0.0075072227 0.0042379894 -0.03664857 0.009370832
0.0065473192 0.018807776 0.032901805 -0.032784447 0.011967789 0.0010138734 0.0072981454 -0.010301023
