python/rlgpu/saved_nn/1234/last_Aliengoep=9250rew=[1303.34].pth (torch, 523930 bytes, 18 tensors)

running_mean f8 [361]
0	0xbfb2a626f3b2d3e2	-0.07284778070136569
1	0xbf86420521bf58d6	-0.010868110744848652
2	0x3fd05349b4b18929	0.25508349080895926
3	0x3f9cc4a006be70eb	0.02809381524240077
4	0xbfc3c4c848bdc14a	-0.15444282104318524
5	0x3fd515adf63b7d04	0.32944821401720525
6	0x3fd85342febc51b4	0.38008189083600574
7	0x3fd9b082f8d060d6	0.4013984136413574
8	0x3fe1451f751d8b0d	0.5396878516588416
9	0x3fc4e00e1ab2229d	0.16308761886127324
10	0x3fbfb43ab8b6b5ca	0.12384383210765929
11	0xbfd52f990a777924	-0.3310301401342193
12	0x3fcd3feda206a244	0.22851343547269398
13	0xbf95c54d86a4379c	-0.021260463087905287
14	0xbfd3c1d8ec4a677b	-0.3087065036321445
15	0xbfb801acac12898a	-0.09377555085169412
16	0x3fc2dd58da298ae4	0.14737997677283154
17	0xbfd4ac184ebb84e0	-0.32300384224624956
18	0xbfc7a485e3c335ec	-0.18470834370820854
19	0xbfc35bd63c94692f	-0.1512401386069739
20	0xbfd40bf2b9362888	-0.3132292565065957
21	0x3fda28ad9ed692d7	0.40873280059376554
22	0xbfa7d6e1e255856d	-0.046561297300978
23	0x3fcce719b18de0c1	0.2258026234592361
24	0x3fdd897127070523	0.46151379405280774
25	0x3f9c629115833945	0.027719752252602054
26	0x3fc691b082c931a8	0.176321090565023
27	0x3fdb0f989d663fe6	0.42282691355739954
28	0x3f84ac4a49afa662	0.010094242452356631
29	0x3fc3b712186fd3be	0.15402437394337015
30	0x3fdcab2ed7b68333	0.4479481798717188
31	0x3fb29027c53a3386	0.07251213612671678
32	0x3fbf759d3931d893	0.12288839956622359
33	0xbfe2495a3f485945	-0.5714541660297888
34	0x3fe700d38188ede9	0.7188508539178972
35	0xbfd7b66f2ba718df	-0.3705099035545469
36	0x3fdb8ff5d9062162	0.43066164201493085
37	0x3fe8c6253d61ab54	0.774187679181845
38	0xbfd645a385be7153	-0.3480004125683724
39	0xbfcaa4935e60359f	-0.20814745052522896
40	0xbfe15b387b42d504	-0.5423853309099802
41	0xbfe40ea83e8722ff	-0.6267892094848263
42	0x3faa06e4a313d7a9	0.05083384028141264
43	0xbfde20f8ab13d116	-0.47076241213587033
44	0xbfd55f010d3866eb	-0.33392359057471194
45	0x3fe50f4fe660bda9	0.6581191539352648
46	0x3fe0107b92a6c457	0.50201204913004
47	0x3fefccceb30d1921	0.9937509057133732
48	0x3fde87b415e063b0	0.47703268181208625
49	0x3fe36a77852163aa	0.6067464447215702
50	0x3fbf77f36fb20b2c	0.12292405583324911
51	0x3fe4fa84c1150533	0.6555808802733395
52	0x3fcb7d91d35f05ad	0.2147695810399858
53	0x3f9dc6569d77b174	0.02907691322427426
54	0xbfe0bb2850cb33ba	-0.5228463724139296
55	0x3fe5ffe5e2955404	0.6874875474410378
56	0x3fdd4900ef0d915a	0.4575807890417046
57	0xbfc82ea14af6f7e6	-0.18892303619753575
58	0xbfe635646bb8794b	-0.6940176109235748
59	0x3fd4efe604f53825	0.3271422432343363
60	0x3fe50ab16066204f	0.6575552828590022
61	0x3fe007dbf9592bee	0.5009593839725974
62	0x3fefc3f49a5836cf	0.9926703466932966
63	0x3fde7ecf4d2fd879	0.47648985421927353
64	0x3fe365801502b421	0.6061401758539696
65	0x3fbf65ce5b1c6a79	0.12264718746556892
66	0x3fe4f643c6def1c0	0.6550616153904727
67	0x3fcb7bbe21c97ccb	0.2147138276077157
68	0x3f9d9fc9f55ac8ce	0.028929858780153243
69	0xbfe0b76986afc6ae	-0.5223891859625007
70	0x3fe5fa96963ce926	0.6868393835386868
71	0x3fdd41230616cf4e	0.4571006354774355
72	0xbfc82b0b18360145	-0.1888135784356654
73	0xbfe631606c7b72fb	-0.6935274237435743
74	0x3fd4ead65915b2a2	0.32683333110507296
75	0x3fca9a4536c4d82a	0.20783295797599638
76	0x3fcb7530f58ec08c	0.21451389303320345
77	0x3fcb79b82556f4c2	0.21465207885004217
78	0x3fcb20ea3f23f8dc	0.21194198687584886
79	0x3fcabd7fd5356879	0.2089080611284009
80	0x3fca58a736bce932	0.20583048031569146
81	0x3fc9fc3a7bfc7364	0.2030099015618375
82	0x3fca20ad6f8e642a	0.20412223765450338
83	0x3fca705989d9f4af	0.20655364256882566
84	0x3fcacfcf6a7bf8c6	0.2094668645804118
85	0x3fcb3afc07baf49c	0.2127375638719159
86	0x3fcb9c24f32490ab	0.2157026469441282
87	0x3fcb37a419b11adf	0.21263552908404557
88	0x3fcabb9710e4273b	0.2088497955776861
89	0x3fc9e65d131a2fc4	0.2023426383278758
90	0x3fc7e61da096a195	0.18671007481794946
91	0x3fc798413ca0a34a	0.18433394871069658
92	0x3fc78bbcd854b3c9	0.18395195544272117
93	0x3fc9569c59bb1e45	0.1979556501521406
94	0x3fca1fbbf3403c58	0.2040934503315579
95	0x3fcad0bf1314bd4c	0.20949543410959348
96	0x3fcca096182506e3	0.22365070513665505
97	0x3fcbebde72bb21e7	0.21813564874743394
98	0x3fcb08af540ae98d	0.2112025413860689
99	0x3fc9bae9008831c5	0.20101654554345152
100	0x3fc73a2574de3e26	0.18146198469592995
101	0x3fc6e499dd4659e5	0.17885134987291376
102	0x3fc6b1b904b2ec8a	0.17729866723479787
103	0x3fc8e3a3b5ed005f	0.1944470060643679
104	0x3fca1e7093205aad	0.20405394729524087
105	0x3fcb6531aad472b8	0.2140256961946727
106	0x3fcdca7a20f1e0f2	0.23274160965571117
107	0x3fcccd3557d7f3f4	0.2250124625133193
108	0x3fcaf36057ebb49f	0.21055225651744977
109	0x3fc8bdc80af84233	0.19329166923172778
110	0x3fc6f7bd3def7e83	0.179435401193576
111	0x3fc68de727c56021	0.17620553438132538
112	0x3fc64503971d25f0	0.1739811408863683
113	0x3fc7b08c330d3902	0.1850753068233147
114	0x3fc9d65baddd5d8c	0.20185419072616317
115	0x3fcc2735a5c9fcfb	0.219946580840748
116	0x3fcf1c9352de17d2	0.24305955454127443
117	0x3fcdc602a4d551fe	0.23260529564380755
118	0x3fcb477d88ed5f8e	0.21311921296978337
119	0x3fc8acdb53494d55	0.19277516905513417
120	0x3fc6ea6958c29cc8	0.17902867158884406
121	0x3fc6655142e03ebd	0.17496696248462298
122	0x3fc621892e573b70	0.17289843332988708
123	0x3fc77ae8aad88f2f	0.18343838064276372
124	0x3fca0bc51024f59b	0.20348418510722585
125	0x3fcd0c285113a432	0.22693351706337378
126	0x3fd049f5545588e2	0.25451405750039957
127	0x3fced598999b52f0	0.24089343548134634
128	0x3fcb93546b8bbedb	0.21543364764465064
129	0x3fc8ad35ef038f45	0.19278597040749382
130	0x3fc6fa7178efc4f8	0.17951792149646173
131	0x3fc655c9b65cf5f1	0.17449304012727354
132	0x3fc626a5b1670161	0.17305442011093944
133	0x3fc763b244fa8ec1	0.18272999160864425
134	0x3fca5006d0bc5ca0	0.2055672187059132
135	0x3fce125f46cbde64	0.23493567425588247
136	0x3fd1f2f55cc0acd4	0.2804540067470047
137	0x3fd0b0ff704632d5	0.26080308880118014
138	0x3fcbd8375d0dd6ce	0.21753589671759815
139	0x3fc84bae2d346f19	0.1898095818258916
140	0x3fc73ae9b57e89d7	0.1814853798105804
141	0x3fc5de803e75d32d	0.17085269021813457
142	0x3fc66d6576a040b9	0.17521351139339972
143	0x3fc7192701187d33	0.1804550891256241
144	0x3fcacee2289e9f38	0.2094385813081716
145	0x3fd0544047694a19	0.25514227842100606
146	0x3fc7fc349492dac5	0.18738419775555407
147	0x3fc8ac9be5b53ce0	0.1927676078434848
148	0x3fc888a48878defa	0.19167000449828447
149	0x3fc83d28dc2c8759	0.18936644316368748
150	0x3fc8027f81715d17	0.18757623501253626
151	0x3fc7c972f4cd5585	0.18583523705698837
152	0x3fc7ad842e9b33ac	0.18498279834457543
153	0x3fc7f6fbbd727a4b	0.18722483396864428
154	0x3fc8433b4716a8eb	0.1895517441856279
155	0x3fc87a5e16fc0f76	0.19123436090751128
156	0x3fc8af2f732c1326	0.19284623263970352
157	0x3fc8eec39fb66b0b	0.19478650377717374
158	0x3fc833903b39df92	0.18907359020135722
159	0x3fc773d1145c060a	0.1832219457065068
160	0x3fc6ec3b80925824	0.179084241656427
161	0x3fc5c69ff26e16a2	0.17012404763606975
162	0x3fc602b20ae8b6d5	0.17195725948970755
163	0x3fc63c7db26a7ad3	0.17372103893008858
164	0x3fc7bd54363dc21b	0.18546536110399434
165	0x3fc837a4135b14d3	0.1891980261336018
166	0x3fc893ef5ee1eb91	0.19201461918768506
167	0x3fca21a4f481b6e9	0.20415174425891472
168	0x3fc8d08429390260	0.19386341107203275
169	0x3fc78ca5b22e111f	0.18397971344178018
170	0x3fc6a3fb66c64de6	0.17687933462421696
171	0x3fc53410fdd368d9	0.16565143960799025
172	0x3fc5ab3104544f92	0.16928684913056863
173	0x3fc5fc4a4e8713a9	0.17176178774221043
174	0x3fc7cec7cbc96686	0.18599793863795727
175	0x3fc89d8e4659f920	0.19230822024469152
176	0x3fc96877c0f449a5	0.1985006038817804
177	0x3fcbcbd8778e97ed	0.21715837323898715
178	0x3fc9dd8f9de0e786	0.20207400521195157
179	0x3fc789db502aa2dd	0.18389455236799437
180	0x3fc5d094daac84e2	0.17042790105282452
181	0x3fc4f94ac38c42ac	0.16385778949963503
182	0x3fc57c0bd8d0fd62	0.1678480919526733
183	0x3fc5f65fd965b456	0.17158125033475596
184	0x3fc729871e084367	0.1809548279420838
185	0x3fc8b4826d7c1c5d	0.19300871225297814
186	0x3fca90eb43c5e6b7	0.20754757699233092
187	0x3fce00ed94a4941a	0.23440332181886064
188	0x3fcb544eb352a8f4	0.213510358390813
189	0x3fc80110f906a561	0.18753254088850738
190	0x3fc5ddc0e062ac78	0.17082987743683353
191	0x3fc4efa39e4e8ca3	0.16356320600343563
192	0x3fc571b0370b8e8d	0.1675319927954785
193	0x3fc60eb0bab4747c	0.17232331386995614
194	0x3fc7459c75f0c73f	0.18181186446013872
195	0x3fc923e4d812efc2	0.19640789556967603
196	0x3fcc09c2083de90b	0.21904778864320237
197	0x3fd03db8fe75505b	0.2537672505325241
198	0x3fcd389a4c24b872	0.22828987806264284
199	0x3fc88f40dbacf374	0.1918717453608242
200	0x3fc6088e75de5c02	0.17213612323095623
201	0x3fc50a2d404f4f36	0.16437307014586516
202	0x3fc57f820608f27a	0.16795373243975914
203	0x3fc639ddc3f9e58a	0.17364093846462608
204	0x3fc762da0418b9c0	0.1827042121889928
205	0x3fc985376d426cf3	0.19937794527945804
206	0x3fcddb8bd87ac13a	0.23326252050675028
207	0x3fd291a1b80348fe	0.2901386544227903
208	0x3fd0e2d4953c2708	0.26384462903716654
209	0x3fc99e4ad51e8bb2	0.20014319807259323
210	0x3fc63400492de038	0.17346194813922167
211	0x3fc57721841025c0	0.16769808720009216
212	0x3fc564988fc8a4a7	0.1671324445790436
213	0x3fc6a5d92f8d2059	0.17693629094924537
214	0x3fc72131c6be42f7	0.18070051388033168
215	0x3fc9cf858627c2e4	0.20164555597832312
216	0x3fd0fd4cc4db298e	0.26546019767979423
217	0x3fc7958efb39f658	0.1842516638461571
218	0x3fc786b387964c17	0.18379825706924244
219	0x3fc7b06c13532fda	0.18507147735215207
220	0x3fc7c02a05efd2d8	0.18555188455470417
221	0x3fc7b69213ec6559	0.1852591130525905
222	0x3fc7b8d77e47f261	0.18532842317644607
223	0x3fc7afa7675e0945	0.18504803225739344
224	0x3fc7ccd2bd11f7b7	0.1859382079309719
225	0x3fc7d79563fef9e9	0.18626658804528454
226	0x3fc7dc153f30d7f5	0.18640390000808763
227	0x3fc7bc3f31e81388	0.1854323381122891
228	0x3fc45531a82392ed	0.15884991369161786
229	0x3fc44fd31a46e451	0.15868605406811523
230	0x3fc6dbb672b4c808	0.1785800991142994
231	0x3fc6c9de5005fdfc	0.17803553492920787
232	0x3fc664ab52e754ab	0.1749471812060269
233	0x3fc6c7fc1f56324a	0.17797805338013212
234	0x3fc6129963a557bf	0.17244260182877544
235	0x3fc622819850ec0d	0.17292804658231412
236	0x3fc61b82795232dd	0.1727145283115509
237	0x3fc3e85ea20dd3dd	0.15552885926049856
238	0x3fc442683cbc9368	0.1582765862050579
239	0x3fc43b21b5005454	0.15805455530122237
240	0x3fc6b507bf23ba56	0.17739960511194636
241	0x3fc6a0690c27013b	0.1767703351342876
242	0x3fc6006550fb6c68	0.17188707784848423
243	0x3fc6a6e1ca11db34	0.1769678341549593
244	0x3fc5a82415b69009	0.16919375477039036
245	0x3fc5d898d59552cf	0.17067251614448373
246	0x3fc5b50aed140ace	0.16958748413170216
247	0x3fc3aa67f71d15bc	0.15363788190931682
248	0x3fc44fc4afdfd3f8	0.158684335590493
249	0x3fc464c24657ed73	0.15932491717090222
250	0x3fc4e7cbf90002e1	0.1633238759823348
251	0x3fc5f6898135e190	0.17158621605973368
252	0x3fc5cf6709175983	0.1703919214621231
253	0x3fc698b518586241	0.1765352600930488
254	0x3fc59065b271a98c	0.16846915448270428
255	0x3fc55e468d536a24	0.16693956280399036

running_var f8 [361]
0	0x3f9cdcc9dcaeb5cc	0.028185991377247352
1	0x4004a8d9b4113502	2.582446486258619
2	0x3fc0e6cb8219127f	0.13204330303610232
3	0x401a225386cee3b2	6.533521753671197
4	0x3fbcc43cec8ea06f	0.11236935401268665
5	0x3fcc46dd8e636cf8	0.22091264202649774
6	0x3fce28cdd51bfe5a	0.2356202402661321
7	0x3fcec170a28f58b2	0.24027831971642893
8	0x3fcfcc68040db2cc	0.24842548559117572
9	0x3f9897d66e97df87	0.024016714572979516
10	0x3f6fb9c738916721	0.003872765639738499
11	0x3f79097dea07f5e6	0.006112567760735632
12	0x3f9300e0488d9de4	0.01855802958325893
13	0x3f76add235bc6d14	0.005536862499663248
14	0x3f74457046f1c461	0.004949034292722394
15	0x3fa227f69c99fda2	0.035461145988843215
16	0x3f6e7ddd51c4442d	0.0037221262592841615
17	0x3f6aa1a3ff0e49f1	0.0032509043744053325
18	0x3f9a0d2c3a443be6	0.025440875107104598
19	0x3f6b9482e326d7b8	0.0033667141335298155
20	0x3f64526c23036ee1	0.002480708317404865
21	0x401da74a667e966a	7.4133697523844635
22	0x3ffdfee89a5225a2	1.8747335460815084
23	0x400b9fdaaf6e6a61	3.453053827817073
24	0x40167b54eff2dc84	5.620441197584231
25	0x3ff817ca727a2269	1.5058083030472977
26	0x400a2edb67f7767c	3.2728794214625037
27	0x401516a55c1a8d13	5.272115172501134
28	0x3ff53875d30f8742	1.3262842411572398
29	0x3ff7585456d13111	1.4590648070616832
30	0x400a5535d1a45b58	3.2916065576822966
31	0x3fea5233e29b4e6e	0.8225345064078746
32	0x3fec26486e31ad1b	0.8796732094027989
33	0x4027180578db63c9	11.546916748791675
34	0x402847c49affd7c4	12.140171855669799
35	0x402576e244393672	10.732195026382417
36	0x40258d05b059ad97	10.7754340276213
37	0x40279c807ece77ae	11.805667841628601
38	0x4020bf9c347f1c58	8.374238625065274
39	0x402452983145bf1a	10.161317386402107
40	0x40242fb1990afc0a	10.093151838866124
41	0x40219ba302b379b9	8.803978046806934
42	0x40207d5d6d0a04a9	8.244853408310819
43	0x401f5375c0b64439	7.831503878712334
44	0x401d57faeffd18ea	7.335918187926135
45	0x3fd589515c529426	0.33650621429325367
46	0x3fdb05ed53c34b50	0.4222367589947469
47	0x3f734fba3d4d87f2	0.004714705942065566
48	0x3fe14b32432e69ee	0.5404292404303399
49	0x3fdb1d01289c9793	0.4236452957724108
50	0x3fe68c51ad724a9b	0.7046287906290049
51	0x3fd8674274d529f7	0.3813024655288752
52	0x3fe5a99d6b4f6bdc	0.6769549461272351
53	0x3fe73ef7fda419a8	0.7264366105962852
54	0x3fe03c5068e27c6c	0.5073625610856545
55	0x3fd5dc3bdc63a63a	0.34156700632465553
56	0x3fe208b5807d19c9	0.5635631093544414
57	0x3fe58833ee34ccbc	0.6728763248887826
58	0x3fd220ade47fbfa4	0.28324458422047827
59	0x3fe446bca9e091e6	0.6336348836817336
60	0x3fd5884571465e21	0.3364423376274051
61	0x3fdb0e18e504a056	0.42273542752309845
62	0x3f77b018e6277b79	0.005783173810839475
63	0x3fe148596a66cd8e	0.5400816991954558
64	0x3fdb1a7ab42df9de	0.4234911689344737
65	0x3fe686302ecbe625	0.7038803972238311
66	0x3fd863fc51229f26	0.38110263751376505
67	0x3fe5a31338090a34	0.6761566252174078
68	0x3fe73868de291196	0.7256359423704903
69	0x3fe0395ee594b23f	0.507003258133018
70	0x3fd5dc00b996608b	0.3415529072167451
71	0x3fe20537c58e0a87	0.5631369455807808
72	0x3fe5820298947db7	0.6721203785017938
73	0x3fd21e3bdc5e3702	0.2830953266173851
74	0x3fe441a5f91e91fe	0.6330137124646738
75	0x3fb8d049a266400c	0.09692821707562888
76	0x3fb9f6c195899708	0.1014214506227199
77	0x3fb9f9028df37a8f	0.10145584073641543
78	0x3fb9882b494fd636	0.09973402538147344
79	0x3fb8ffddbb462a18	0.0976542074405774
80	0x3fb877c1b3928d58	0.09557734140485274
81	0x3fb807588ef2e78a	0.09386209001504944
82	0x3fb82968d54ad265	0.09438185889559632
83	0x3fb88e9e64cc0623	0.0959261890493726
84	0x3fb91322309424a4	0.09794820486071615
85	0x3fb9a4b4c65260f9	0.1001694664177001
86	0x3fbac3b81efc5406	0.10454893833623666
87	0x3fba5ee0772f861f	0.10301020536237403
88	0x3fb975f4f8bcd78a	0.09945612976738807
89	0x3fb8528b5ad336d9	0.09500952689560495
90	0x3fb5d9ac3fcbf911	0.0853526740793067
91	0x3fb5449247ff87b8	0.08307756669776623
92	0x3fb56590cfef0760	0.08358101917749883
93	0x3fb7a6c4a9fa21f2	0.09238843107062403
94	0x3fb8bf5d122d5412	0.09666997617507914
95	0x3fb9e45651e7cdf5	0.1011403989758078
96	0x3fbc3fc19896f13e	0.11034784293491826
97	0x3fbb83b0a9d3b4c1	0.1074781813255923
98	0x3fba0a4a236c3f00	0.10171950688186016
99	0x3fb84a2f1af537cd	0.09488195808555062
100	0x3fb523f6b5765adb	0.0825800126097919
101	0x3fb472e5bbeac354	0.07987819516962463
102	0x3fb472a6957a04a1	0.07987443112689842
103	0x3fb74288cbeb8b48	0.0908589837886612
104	0x3fb8f5d59b6f9bb1	0.09750113529990646
105	0x3fbae3d4b1692f84	0.10503892260856956
106	0x3fbde0055e752a50	0.11669953876586558
107	0x3fbcd1c8a149e644	0.11257604539596239
108	0x3fba5cd941193401	0.10297925795858022
109	0x3fb7573ba5a20ed7	0.09117481988692631
110	0x3fb4ef72f3e45a07	0.08177870230097294
111	0x3fb41a67d2eae1c8	0.07852791690209593
112	0x3fb402f16c180033	0.07816990746505396
113	0x3fb5f7ca30061d0c	0.08581222221811319
114	0x3fb8fb0412491351	0.09758019873067993
115	0x3fbc0e5b484608d2	0.10959406389705187
116	0x3fbfa4fcf4b8ae7a	0.12361126875537734
117	0x3fbe32719a932e17	0.11795721076776321
118	0x3fbafa1a7793e7e0	0.10537877482775526
119	0x3fb76da786cdd48b	0.09151694336999776
120	0x3fb4fe4eb1c522ac	0.08200542297448504
121	0x3fb401da97f1f57e	0.07815328797911111
122	0x3fb3ed6fe477a2d1	0.07784175231757763
123	0x3fb5d2c20d71a720	0.08524716213437644
124	0x3fb96e64d346e07f	0.09934072645308055
125	0x3fbd5a69d81d5ce5	0.11466084982145082
126	0x3fc0c46d84b44830	0.13099450092028198
127	0x3fbfa34f23cda218	0.12358564972021957
128	0x3fbb8aad18c5da27	0.10758478026205208
129	0x3fb798e670ed8365	0.09217682129884748
130	0x3fb5331ca3ccb5ee	0.08281115530981939
131	0x3fb40ff14678a8cd	0.07836826296321249
132	0x3fb40a78aedfcc73	0.07828478116407371
133	0x3fb5d2525b202e31	0.08524050450085309
134	0x3fb9ee96d1f51598	0.10129683137809875
135	0x3fbec3ba414cf261	0.12017406553509026
136	0x3fc2c70945cbac29	0.1466991034315879
137	0x3fc16a4a66b52b21	0.1360562325956716
138	0x3fbc5d10b56a99e2	0.11079506329642855
139	0x3fb79b4d705caa57	0.09221347802364598
140	0x3fb5c4dcec1bafc7	0.08503514065131333
141	0x3fb3f3577aca3afd	0.07793184993554898
142	0x3fb490b3daff0856	0.08033298584544588
143	0x3fb5c82ee489acae	0.08508580283676068
144	0x3fbae433a6d86a90	0.10504458258984983
145	0x3fc10311f43f6c24	0.13290619302901618
146	0x3fb5bf1789a8c164	0.08494708166904769
147	0x3fb6c1cbcd9fd30f	0.08889459390759334
148	0x3fb6882499b5a5a9	0.08801487686800748
149	0x3fb618e18f7b0386	0.08631715538923687
150	0x3fb5bb7c9a018617	0.08489207038794465
151	0x3fb56bdcb8e9c7cc	0.0836770965049986
152	0x3fb553c4dd696341	0.08330946355398529
153	0x3fb5aef8188b69c9	0.08470106696351033
154	0x3fb61ad84d38a7f7	0.08634712109838448
155	0x3fb67213b854d532	0.08767817735936914
156	0x3fb6bf4e915a9460	0.08885661171605497
157	0x3fb7a7a756877c9f	0.09240194189577487
158	0x3fb6ce67d3add92f	0.08908699911066685
159	0x3fb5935698b40970	0.0842794535456386
160	0x3fb4bf87c51bae09	0.08104752123079363
161	0x3fb33065d2d917d5	0.0749572410360025
162	0x3fb351b9087d60fb	0.07546574075002248
163	0x3fb3dc293e2edf1d	0.07757814186231511
164	0x3fb5d770c39c9e35	0.0853186109130711
165	0x3fb6929976e9590e	0.08817443040002024
166	0x3fb74dd9681180d4	0.0910316351960348
167	0x3fb977a4027cd728	0.09948182163938368
168	0x3fb7f0b34092f39b	0.09351654364122768
169	0x3fb5f08ec815fb3e	0.08570186982067882
170	0x3fb4907365c9d40d	0.08032914385860597
171	0x3fb29440437ae574	0.07257463118994228
172	0x3fb2f394626c2439	0.07402923014537145
173	0x3fb3b1f200934a6a	0.07693398012205824
174	0x3fb61ed4de374095	0.08640795159522192
175	0x3fb74d223b00288e	0.09102071705288692
176	0x3fb8acbd4a635ae2	0.09638579431644304
177	0x3fbbcf430529aae6	0.1086313140491871
178	0x3fb9926e569424f1	0.0998906098722221
179	0x3fb648fde927a660	0.08705126707322952
180	0x3fb3b0d7e4b86dc9	0.07691716512675052
181	0x3fb26603216e37c3	0.07186908308196309
182	0x3fb2d184a02a6a33	0.07350949201865191
183	0x3fb3d22837b6ff02	0.07742549286103542
184	0x3fb58ace7234b7a1	0.08414926803808821
185	0x3fb7cb21b611034b	0.09294329352361534
186	0x3fba67169d5e264e	0.1031355032156622
187	0x3fbeb2a9f25523d3	0.11991369406054213
188	0x3fbba8160b14773d	0.10803354044443565
189	0x3fb71a709d1ddd82	0.0902471908174132
190	0x3fb3e72d369413ed	0.07774622518998316
191	0x3fb277d8ae98943d	0.07214121115301082
192	0x3fb2e635a3742990	0.07382521858759206
193	0x3fb41aceeab00be2	0.07853406171493263
194	0x3fb5dbda397a1580	0.08538593199962996
195	0x3fb8901df781443d	0.09594905178643472
196	0x3fbc75e14641b58f	0.1111737057232942
197	0x3fc0e112d7c71f46	0.1318687013247148
198	0x3fbe2855daf5f5ad	0.11780296893808524
199	0x3fb80460ef7af130	0.0938168129604875
200	0x3fb4450704607174	0.07917827469686306
201	0x3fb2b865160f1e38	0.07312614239264625
202	0x3fb320e52c68e4c9	0.07472069105360214
203	0x3fb47b9aa0a5e85e	0.08001104757377805
204	0x3fb630385386f27e	0.08667327918278464
205	0x3fb9425fd571206c	0.09866904221519385
206	0x3fbed87ac7a6f7f7	0.12049071668931775
207	0x3fc3855cd821ff45	0.15250740578994218
208	0x3fc1c76978295a48	0.13889807097685236
209	0x3fb9d06e0ac13d9c	0.10083663713998309
210	0x3fb4f03c80fc017a	0.08179071568520682
211	0x3fb381ac914e3451	0.07619741961953365
212	0x3fb377842c3fe11b	0.07604242401419407
213	0x3fb554b5f50a84f2	0.0833238337750293
214	0x3fb65d888a9a4431	0.08736470588543523
215	0x3fba2c3684641eb2	0.10223713619427136
216	0x3fc1e64036c4f952	0.13983919786728422
217	0x3fb9282042b588a5	0.0982685244430593
218	0x3fb93b6da94bddd2	0.09856305487834696
219	0x3fb960f939c859fd	0.0991359487601144
220	0x3fb967e3044b0dea	0.09924143652738562
221	0x3fb9544990de2e67	0.09894237315000397
222	0x3fb9524d1bef7de0	0.09891206676501652
223	0x3fb94cebe93fd7e2	0.09882997936787732
224	0x3fb97099b29022f2	0.09937439546059659
225	0x3fb983657d685a7e	0.09966120063504921
226	0x3fb98eba575b3fd4	0.09983410485006
227	0x3fb971f15763cadc	0.09939487823048004
228	0x3fb5daf27c5b4d11	0.08537211929369827
229	0x3fb5d53fa7e7d192	0.08528516625648866
230	0x3fb89b931af47955	0.09612388046341398
231	0x3fb8736995860b0a	0.09551105404356633
232	0x3fb7ee4c061282fd	0.09347987316369806
233	0x3fb850ee0f317aa0	0.09498489256791709
234	0x3fb7c2b239fb07bd	0.09281457820455237
235	0x3fb7f4689f231875	0.09357313046629818
236	0x3fb7f6c00db9908b	0.09360885939674028
237	0x3fb574ad9251efd0	0.08381161520259117
238	0x3fb5f616bb6735fe	0.0857862670447602
239	0x3fb5f1a232a0689e	0.08571828590393912
240	0x3fb8a48a2c294625	0.09626067712931581
241	0x3fb86d3da96b532b	0.09541688333713398
242	0x3fb797ac56ea8240	0.09215809938405872
243	0x3fb842487118480b	0.09476139794449538
244	0x3fb777dbe6f23d3c	0.09167265308700662
245	0x3fb7dc759a664c53	0.09320769328614746
246	0x3fb7be89a1d9c712	0.09275112344201045
247	0x3fb55d126b75af4d	0.083451415286331
248	0x3fb63690093c3db2	0.08677005982848732
249	0x3fb6586747660728	0.08728642933968145
250	0x3fb6d42d00b8b02c	0.0891750456582378
251	0x3fb7d23fb7da9976	0.09305189360256869
252	0x3fb780337d937aab	0.09179994407484553
253	0x3fb84ffc98b66409	0.09497050026256217
254	0x3fb78dda17650582	0.09200823851735687
255	0x3fb783a83db494be	0.09185267931441651

count f8 []
0	0x421b9130a0040000	29600000001.0

running_mean f8 [1]
0	0x40569cc1e46112cf	90.449334234999

running_var f8 [1]
0	0x407abebb96fab56c	427.92079828198507

count f8 []
0	0x41fb9130a0100000	7400000001.0

a2c_network.sigma f4 [15]
0	0xbf90fdb2	-1.1327422
1	0xbfa05b93	-1.2527946
2	0xbf810013	-1.0078148
3	0xbf43d624	-0.7649863
4	0xbf26c814	-0.65149045
5	0xbf64b9f4	-0.8934624
6	0xbf024a2e	-0.5089444
7	0xbf170ab3	-0.590007
8	0xbf54e17a	-0.8315655
9	0xbf6ddd16	-0.92915475
10	0xbef8aecf	-0.48570868
11	0xbf50148d	-0.8128136
12	0xbf5a5278	-0.8528209
13	0xbf7ff82b	-0.9998805
14	0xbf38dfb0	-0.7221632

a2c_network.actor_mlp.0.weight f4 [128, 361]
0	0x3f2ce0be	0.6753043
1	0xbf2fd8b2	-0.68690026
2	0x3e39a0fa	0.18127814
3	0x3af7c320	0.0018902756
4	0xbf4445c0	-0.7666893
5	0xbc55c98b	-0.01304854
6	0xbd66383e	-0.05620598
7	0xbbc3d622	-0.0059764544
8	0xbf9d5a6d	-1.2293221
9	0xbf56bb13	-0.838792
10	0xbf691b03	-0.9105684
11	0xbec82da8	-0.39097333
12	0xbe9333fc	-0.28750598
13	0xbe0eef33	-0.13958435
14	0xbf76344a	-0.96173537
15	0x4025de77	2.5917032
16	0x3f6a4d64	0.9152434
17	0xbf4bd421	-0.7962056
18	0x402f8f60	2.743126
19	0xbdcd99a7	-0.100390725
20	0xbfd13e6f	-1.6347178
21	0x3f14156a	0.57845175
22	0xbf184e9c	-0.5949495
23	0x3fa7c843	1.310799
24	0xbef79c09	-0.48361233
25	0x3f8e7111	1.1128255
26	0x3fdf8c44	1.7464681
27	0x3f433b27	0.76262134
28	0xbe1b05d2	-0.15138939
29	0x3f5fdc0f	0.8744516
30	0xbe53e50a	-0.2069284
31	0xbf197a05	-0.5995181
32	0xbea0b32e	-0.31386703
33	0x3f017e95	0.50583774
34	0xbf26cc25	-0.6515525
35	0x3f48c284	0.7842181
36	0xbfe6213d	-1.7978894
37	0xbdc32e65	-0.095303334
38	0xbef72ec3	-0.48277864
39	0xbe92b72b	-0.2865537
40	0x3e25ecb8	0.16203582
41	0xbe743251	-0.23847319
42	0x3f0cdc0d	0.5502327
43	0xbf51d525	-0.8196586
44	0x3ea76e1c	0.32701194
45	0xbf817281	-1.0113069
46	0xbd3ffd69	-0.04687253
47	0xbf4fae7d	-0.81125623
48	0x3f11051f	0.5664844
49	0x3e1276f2	0.14303187
50	0xbf1dce93	-0.6164333
51	0xbfcda650	-1.606638
52	0xbebe0654	-0.37114203
53	0xbf1cb152	-0.6120807
54	0x3eec4de0	0.46153164
55	0xbf1d4420	-0.61432076
56	0xbf64f4cc	-0.8943603
57	0xbe90c20e	-0.28273052
58	0x3f86bba6	1.0526016
59	0xbf48568f	-0.7825708
60	0xbf4bfcde	-0.7968272
61	0xbf0754e5	-0.52863914
62	0xbfdb2cc2	-1.7123034
63	0xbf3f5718	-0.7474227
64	0xbda9d720	-0.08292985
65	0xbed91079	-0.4239538
66	0xbf38c18f	-0.72170347
67	0xbf9eed8f	-1.2416247
68	0x3d833319	0.064062305
69	0xbe707063	-0.23480372
70	0xbfc7a24f	-1.5596408
71	0xbf947950	-1.1599522
72	0x3e09168c	0.13387507
73	0x3ea5f9f0	0.3241725
74	0xbe510e37	-0.20415579
75	0xbe06f6ce	-0.13180086
76	0xbe25c45f	-0.16188191
77	0x3f0c6b25	0.5485099
78	0x3e98804d	0.29785386
79	0x3d9abee3	0.0755594
80	0x3f758bed	0.95916635
81	0x3e23bbbf	0.15989588
82	0x3ee1132e	0.43959945
83	0xbe910179	-0.28321436
84	0xbda7105f	-0.081574194
85	0xbdcab733	-0.09898224
86	0xbe299ddc	-0.16564125
87	0xbf111c76	-0.5668405
88	0xbf3bf79f	-0.73424715
89	0xbe9f8bf2	-0.31161457
90	0x3dcd711e	0.10031341
91	0xbeff85b7	-0.49906704
92	0x3eb6c912	0.3570028
93	0xbd8f94ee	-0.07010828
94	0x3d07e601	0.033178333
95	0xbe0ff5ad	-0.14058562
96	0x3ea101e5	0.31446758
97	0xbd584638	-0.05280134
98	0x3e9d4dc2	0.30723387
99	0x3f4ca097	0.7993254
100	0xbec5894a	-0.38581306
101	0xbf28011a	-0.6562668
102	0xbf1fee3b	-0.62472886
103	0x3f5d0470	0.86334896
104	0xbe09dea2	-0.13463834
105	0x3dab4278	0.08362287
106	0x3ee298ce	0.44257206
107	0x3e32cf45	0.1746188
108	0xbe55e4cb	-0.20888059
109	0xbe609171	-0.21930481
110	0x3f092572	0.5357276
111	0xbf6ca2e2	-0.9243604
112	0x3f25be3f	0.6474342
113	0xbe622853	-0.22085695
114	0x3d5a937d	0.053363312
115	0x3e399f62	0.18127206
116	0xbefd99fc	-0.49531543
117	0xba45149a	-0.00075180235
118	0xbede0ed6	-0.43370694
119	0xbf33e83e	-0.7027625
120	0xbe078210	-0.13233209
121	0xbeb889d4	-0.36042655
122	0x3ec81ba5	0.3908359
123	0xbee2ce5a	-0.4429806
124	0xbd253439	-0.040333007
125	0x3da05537	0.078287534
126	0xbf975c20	-1.1824989
127	0xbd544816	-0.05182656
128	0x3f30ec21	0.69110304
129	0x3e9bfb0d	0.30464974
130	0x3e944946	0.28962153
131	0x3f04c87b	0.5186841
132	0x3ec70662	0.38872057
133	0x3e1b1f4a	0.15148655
134	0x3f53fae8	0.8280473
135	0x3ea71fc6	0.3264143
136	0x3db9097a	0.09035011
137	0xbfa7b63f	-1.3102492
138	0xbb466cec	-0.0030277325
139	0x3edf7f92	0.43652016
140	0x3f14e3b9	0.5815998
141	0x3d457328	0.048205525
142	0x3ec25a6d	0.37959614
143	0x3e587b94	0.21140891
144	0xbe9c55d7	-0.3053424
145	0xc0119e42	-2.2752843
146	0xbe939936	-0.28827828
147	0xbd4f958a	-0.05067972
148	0xbea9d711	-0.33171895
149	0xbd20ecf8	-0.03928849
150	0x3e18d6f7	0.14925753
151	0x3e863b90	0.26217318
152	0x3e1211ef	0.14264654
153	0x3e3315bf	0.17488764
154	0x3e1c9fa0	0.15295267
155	0x3d9aaab7	0.075520925
156	0xbe6c6a13	-0.23087339
157	0x3e8aac37	0.27084514
158	0x3ea2ec8e	0.31821102
159	0xbec6547f	-0.3873634
160	0xbf3b4f1a	-0.73167574
161	0x3f120dfe	0.570526
162	0xbf4b4e83	-0.79416674
163	0x3e2e2851	0.17007567
164	0xbe1116b3	-0.14168815
165	0x3eaf35e1	0.34220794
166	0xbcde3b5c	-0.027127914
167	0x3e54c98f	0.20780014
168	0xbe81cacb	-0.2535003
169	0xbe96adaa	-0.2942937
170	0x3d411f09	0.047148738
171	0x3f6c7a1d	0.9237383
172	0x3f12ed03	0.573929
173	0xbf1f90d3	-0.6233036
174	0x3e933ee6	0.28758925
175	0x3f872179	1.055709
176	0xbf89dee3	-1.0771145
177	0x3e9e889a	0.30963594
178	0x3ba8df22	0.0051535526
179	0xbd9d7390	-0.076880574
180	0xbca1e1b7	-0.01976095
181	0x3ec2597c	0.37958896
182	0x3d0c8e78	0.034315556
183	0xbe788183	-0.24268155
184	0x3d6f93d8	0.058490604
185	0x3e7794a4	0.24177796
186	0x3eb0d6d3	0.34538898
187	0xbe10a74c	-0.14126319
188	0x3f2dc0bf	0.6787223
189	0xbea62602	-0.32450873
190	0x3d26cef0	0.040724695
191	0xbf1eb4ef	-0.6199483
192	0x3ecc2c18	0.3987739
193	0x3ecd7cb0	0.40134192
194	0x3f487d1b	0.78315896
195	0xbf13a438	-0.5767245
196	0x3e0bcba2	0.13651899
197	0x3e0a3de7	0.13500176
198	0x3f843cdd	1.0331074
199	0x3ea81d98	0.32835078
200	0xbe61463d	-0.2199945
201	0xbee9eb32	-0.45687252
202	0xbdda0376	-0.10645191
203	0xbd2d2ae7	-0.042277243
204	0x3f2c83e0	0.67388725
205	0x3f15433b	0.5830571
206	0x3f215698	0.63022757
207	0x3fd79cb0	1.6844692
208	0x3fc23a1a	1.5173981
209	0x3f33d808	0.7025151
210	0x3f140ab8	0.57828856
211	0xbf480477	-0.7813181
212	0xbe34f00b	-0.17669694
213	0xbe173515	-0.14766343
214	0xbd2b3bdd	-0.041805137
215	0x3e16fadd	0.14744134
216	0x3fa12020	1.2587929
217	0x3db59f8e	0.08868323
218	0xbdbfdef3	-0.09368696
219	0xbf54132b	-0.8284175
220	0xbe606c6b	-0.21916358
221	0xbef98717	-0.48735878
222	0xbf39d5f8	-0.72592115
223	0xbdcdf88a	-0.10057171
224	0x3e210186	0.15723237
225	0xbeec35e6	-0.4613487
226	0x3e641361	0.22273017
227	0xbe2faae1	-0.17155029
228	0xbe821243	-0.25404558
229	0xbbcfe77d	-0.006344734
230	0x3f036d71	0.5133887
231	0x3f910062	1.1328242
232	0x3e1c6318	0.15272176
233	0xbe37c7f2	-0.17947367
234	0xbee4fee5	-0.4472572
235	0xbdf837ee	-0.12120043
236	0x3ed2013f	0.41016576
237	0x3d73cafc	0.059519753
238	0x3ebf3459	0.37344626
239	0xbe37b98a	-0.17941871
240	0xbf21fb99	-0.6327453
241	0x3f71c7d6	0.9444555
242	0xbeb5ac13	-0.35482845
243	0x3e9b66fa	0.30352002
244	0xbc8bb315	-0.017053166
245	0x3f1eff78	0.62108564
246	0xbd9d1bd0	-0.076713204
247	0x3dc120a2	0.09430052
248	0xbe5f0922	-0.21780828
249	0xbe142024	-0.14465386
250	0xbece8726	-0.40337485
251	0xbe256058	-0.16150033
252	0x3df98a10	0.121845365
253	0xbf277091	-0.6540614
254	0x3f9c1750	1.2194614
255	0x3ba9e8ac	0.0051852074

a2c_network.actor_mlp.0.bias f4 [128]
0	0xc0280954	-2.6255693
1	0xc08ac41e	-4.33644
2	0xbe8af563	-0.2714034
3	0xc044253b	-3.0647724
4	0xc060367c	-3.5033255
5	0x3ee102eb	0.4394754
6	0xc09ba4ae	-4.8638525
7	0xbf872d1d	-1.0560642
8	0x3f544330	0.8291502
9	0xc06c9b52	-3.69698
10	0xc00a5030	-2.1611443
11	0xc00037d0	-2.0034065
12	0xc00fa9b8	-2.2447338
13	0xc01c3f1b	-2.4413517
14	0xc0278f8c	-2.6181364
15	0xc0294613	-2.644902
16	0xbdb97534	-0.09055558
17	0xc044140f	-3.0637243
18	0xc08cf655	-4.40507
19	0xc054662b	-3.3187358
20	0xbfc96ddb	-1.573665
21	0xc027627a	-2.6153855
22	0xc016dff6	-2.3574195
23	0xbf43a49d	-0.76423055
24	0xc0230b50	-2.5475655
25	0x3ea0c738	0.31401992
26	0xbfcef29c	-1.6167789
27	0xbfdf851a	-1.7462494
28	0xbff20966	-1.8909118
29	0x3e1c2761	0.15249397
30	0xc03afde4	-2.9217463
31	0xc0481723	-3.1264122
32	0xc00f6820	-2.2407303
33	0xc070fd4a	-3.7654595
34	0xbfeda722	-1.856663
35	0xc03b0a21	-2.9224932
36	0xc04d2046	-3.2050948
37	0x3e1cba6d	0.15305491
38	0xbfee7874	-1.8630509
39	0xc01d16ab	-2.4545085
40	0xbfb07ccd	-1.3788086
41	0xc03bc31a	-2.933783
42	0xbfcf3f50	-1.6191196
43	0xbf5579d6	-0.8338903
44	0xc00060b2	-2.0059018
45	0xbfccd242	-1.6001666
46	0xc052be37	-3.2928598
47	0xbf9f626d	-1.2451912
48	0xc070ae6d	-3.760646
49	0xbf7028e6	-0.93812406
50	0xbfd2161b	-1.6412996
51	0xc06e29c5	-3.7212994
52	0xc027f948	-2.62459
53	0x3efde18c	0.4958614
54	0xbfdc4070	-1.7207165
55	0xc06ecfe2	-3.7314382
56	0xc009daba	-2.153975
57	0xc0385162	-2.8799672
58	0xc0195394	-2.3957262
59	0xbfa4e7d7	-1.2883252
60	0xc06386a0	-3.5550919
61	0xbf830e1c	-1.0238681
62	0xc048e11a	-3.138739
63	0xc09fa9fa	-4.989499
64	0xbfeaf85b	-1.8357042
65	0xc0425af3	-3.036801
66	0xc03b344b	-2.9250667
67	0xbfb507dd	-1.4143025
68	0xc05fa57e	-3.4944758
69	0xc02a5e76	-2.6620154
70	0xbfda3fc8	-1.7050714
71	0xc09d2e10	-4.911873
72	0xc02a4661	-2.6605456
73	0xc053c023	-3.308602
74	0xc0591df5	-3.3924534
75	0xc0591cf0	-3.3923912
76	0xc089d19c	-4.306837
77	0xc0579fd2	-3.3691297
78	0xbff05100	-1.8774719
79	0xbf444848	-0.7667279
80	0xbf85669c	-1.0421939
81	0xbf86fe28	-1.0546312
82	0xc008c752	-2.1371655
83	0x3f6f2d27	0.9342827
84	0xbfb9afb8	-1.450675
85	0xc0222b5c	-2.5338964
86	0xc06b2ade	-3.6744914
87	0xc00e98a0	-2.2280655
88	0xc02c46e6	-2.6918273
89	0xbf46be67	-0.7763428
90	0xc03aabf4	-2.9167452
91	0xc02ab753	-2.6674392
92	0xbeb856de	-0.36003774
93	0xbe336575	-0.17519172
94	0xc0142074	-2.3144808
95	0xc082085f	-4.063522
96	0xc02b8b4b	-2.6803768
97	0xc018de3b	-2.3885639
98	0xbf9a6cfe	-1.2064512
99	0xbed16e37	-0.409044
100	0xc02f51c9	-2.7393668
101	0xbfd1d79f	-1.6393927
102	0xc01ee4c5	-2.482713
103	0x3e9b0b48	0.30282044
104	0xbf8cad02	-1.0990298
105	0xc0333664	-2.8001947
106	0xc0198df6	-2.3992896
107	0xc0586b41	-3.3815463
108	0xbefb3cd9	-0.4906986
109	0xc06b1e91	-3.6737406
110	0xbfd89412	-1.6920187
111	0xbe9f2b4d	-0.31087723
112	0xc05e2f13	-3.4716232
113	0xbfe0c56d	-1.756025
114	0xc01f9ef1	-2.494076
115	0x3ece5f1b	0.40306935
116	0xbf8cf437	-1.1012028
117	0xc05cc001	-3.449219
118	0xbf3e4fd4	-0.7434056
119	0x3f767e12	0.9628612
120	0xc0041ed9	-2.0643828
121	0xc01bd1a4	-2.4346704
122	0xc0622615	-3.5335743
123	0xbff2b207	-1.896058
124	0xbeb857b6	-0.36004418
125	0xc046d7c3	-3.106919
126	0xc0137ec3	-2.304612
127	0xc049ef1f	-3.1552198

a2c_network.actor_mlp.2.weight f4 [128, 128]
0	0xbde37b6b	-0.111075245
1	0xbd1ad7c3	-0.037803423
2	0xbedb411b	-0.4282311
3	0x3d99a030	0.075012565
4	0x3e82ade6	0.255233
5	0xbf934ca8	-1.1507769
6	0x3ed34c87	0.41269323
7	0xbe2817d0	-0.16415334
8	0xbe16e474	-0.14735585
9	0x3e2814a4	0.16414124
10	0xbe48ff20	-0.19628572
11	0xbec4edb3	-0.384626
12	0x3c3e8da6	0.011630451
13	0xbebe4714	-0.37163603
14	0xbeb43174	-0.3519398
15	0x3d8fb933	0.07017746
16	0xbe9de097	-0.3083541
17	0x3b4a46eb	0.0030865024
18	0x3ebd011f	0.36914918
19	0x3e53a30c	0.20667666
20	0xbecc8fda	-0.399535
21	0x3da6fec2	0.0815406
22	0x3e2d9495	0.16951211
23	0xbf618217	-0.88089126
24	0xbca7d22d	-0.020485962
25	0xbefce5ce	-0.49394077
26	0x3dab4334	0.08362427
27	0xbe3bb199	-0.18329467
28	0xbeb7b04e	-0.35876697
29	0xbf0b6abb	-0.5445973
30	0x3e06a8b7	0.13150297
31	0xbe9738f7	-0.29535648
32	0xbdde23c2	-0.10846664
33	0xbc396f3c	-0.011318024
34	0xbf433789	-0.76256615
35	0xbe6d1475	-0.23152335
36	0x3e1300dd	0.14355798
37	0xbe871e8d	-0.26390496
38	0xbe08dd1c	-0.13365597
39	0x3e014d52	0.12627152
40	0xbe758785	-0.23977478
41	0x3e986cdc	0.29770553
42	0xbca52a48	-0.020161763
43	0xbe623310	-0.22089791
44	0x3e8b74f0	0.27237654
45	0xbe6e550c	-0.2327463
46	0x3eeb1d6a	0.4592088
47	0xbf14d93a	-0.5814396
48	0x3e8a8ee6	0.27062148
49	0xbe8c8306	-0.27443713
50	0xbeb1f6a6	-0.3475849
51	0x3e827ef6	0.25487489
52	0xbc904fc6	-0.017616164
53	0xbf16a2a2	-0.5884191
54	0xbef90fe8	-0.48644948
55	0x3eba4327	0.36379358
56	0x3ea4c100	0.32178497
57	0x3e959ef8	0.29222846
58	0xbe1e25c7	-0.15444098
59	0x3cb93d5d	0.022612268
60	0x3e0f2676	0.13979515
61	0xbf7ceae3	-0.9879591
62	0x3e36b49c	0.17842335
63	0x3e898a39	0.26863268
64	0xbef6807a	-0.48144895
65	0xbec17a2f	-0.3778853
66	0xbedafdc8	-0.42771745
67	0xbf103e17	-0.5634474
68	0xbd9f663a	-0.0778317
69	0xbeb8db75	-0.36104932
70	0xbe8ec55b	-0.27884945
71	0x3f232132	0.6372253
72	0x3e912d93	0.28355083
73	0x3e8a5165	0.27015224
74	0x3e0432b8	0.12909973
75	0x3df7df6c	0.12103161
76	0xbdca52ee	-0.09879099
77	0xbd2f3445	-0.042774457
78	0xbedb5fc4	-0.428465
79	0xbef38d7c	-0.47568882
80	0xbe2f86d6	-0.1714128
81	0xbf0e9921	-0.55702406
82	0x3ce456b2	0.02787337
83	0xbf3952f8	-0.72392225
84	0xbec22cf4	-0.37924922
85	0xbc523616	-0.012830278
86	0x3dd32b1f	0.10310959
87	0xbe16fbad	-0.14744444
88	0xbe2fd732	-0.17171934
89	0xbeee3679	-0.46525934
90	0xbe2e3b3f	-0.17014788
91	0x3c9c2951	0.01906267
92	0xbf0f7291	-0.5603419
93	0xbec5077d	-0.38482276
94	0xbe98e12a	-0.29859287
95	0x3e41acb3	0.18913536
96	0xbce9fce5	-0.028562972
97	0x3eb0678f	0.3445401
98	0xbdb40d2f	-0.08791577
99	0xbe19e7e5	-0.15029867
100	0x3db52fad	0.08846984
101	0x3d4a9cd5	0.049465973
102	0x3e602a2d	0.21891089
103	0xbf25c066	-0.647467
104	0xbef35db8	-0.4753244
105	0xbe1bca11	-0.15213801
106	0x3d77d5bf	0.06050658
107	0xbd9c6fb2	-0.07638492
108	0xbed19c0b	-0.40939364
109	0x3e9d3c74	0.30710185
110	0xbf264937	-0.64955467
111	0xbf1eb50d	-0.6199501
112	0x3e8fe1f2	0.2810207
113	0x3cc98cfd	0.024603361
114	0x3d8d8071	0.06909264
115	0xbeb517f1	-0.35369828
116	0xbe2e4937	-0.17020117
117	0x3d29097e	0.041268818
118	0xbf2f7523	-0.6853811
119	0xbed27ce2	-0.41110903
120	0xbe8bf1e3	-0.27332982
121	0xbebde191	-0.37086156
122	0xbd3afa04	-0.04564859
123	0xbe1490ae	-0.14508316
124	0xbe326c31	-0.17424084
125	0x3d1f664f	0.03891593
126	0xbede8294	-0.43458998
127	0x3d9d6066	0.07684402
128	0x3ec0c238	0.37648177
129	0x3fad9fdc	1.356441
130	0xbd27f11f	-0.041001435
131	0xbf8c6238	-1.0967474
132	0xbef93708	-0.48674798
133	0xbf1758a3	-0.59119624
134	0xbea12eea	-0.31481105
135	0x3ea24d28	0.3169949
136	0xbf035cdb	-0.5131356
137	0x3e14d38d	0.14533825
138	0x3e3b35c4	0.18282229
139	0xbf9e1b03	-1.2351993
140	0xbf012ee5	-0.5046218
141	0xbf0ab2d5	-0.54179126
142	0x3f47672e	0.77891815
143	0xbf1a3f63	-0.6025297
144	0x3e97b3da	0.29629403
145	0xbebc8812	-0.36822563
146	0xbec742be	-0.38918108
147	0x3d5a2d72	0.053265996
148	0xbe509fb9	-0.2037343
149	0xbe4799ef	-0.19492315
150	0xbe97db70	-0.29659605
151	0xbe98486f	-0.29742762
152	0xbbc56136	-0.0060235513
153	0xbeb79ed8	-0.35863376
154	0xbef7324d	-0.48280564
155	0xbf1fc34c	-0.62407374
156	0x3caab28d	0.020837093
157	0x3ec014c9	0.37515858
158	0x3f4dfdf2	0.80465615
159	0xbe4a2981	-0.19742395
160	0x3ed20f3a	0.41027242
161	0x3cda792d	0.02666911
162	0x3eaea3ba	0.34109288
163	0xbe90e20c	-0.2829746
164	0xbf34f9f7	-0.70693916
165	0xbf1fe3e6	-0.6245712
166	0x3f4a3eba	0.79001963
167	0xbdad0711	-0.084486134
168	0xbe020461	-0.12696983
169	0xbe8c8cae	-0.2745108
170	0xbdecb36d	-0.1155766
171	0x3e4e044c	0.20118827
172	0xbf038811	-0.51379496
173	0x3eb061ba	0.3444956
174	0xbf37cad3	-0.7179386
175	0xbfa6a299	-1.3018371
176	0xbd98fc26	-0.074699685
177	0xbd361f1d	-0.044463266
178	0x3d8ff2a8	0.07028705
179	0x3e53e5af	0.20693086
180	0xbd0decd3	-0.03464968
181	0xbe8e6f13	-0.27819118
182	0xbe1a9067	-0.15094148
183	0xbf9f7e35	-1.246039
184	0x3ec8e7d9	0.39239386
185	0xbfc95a81	-1.5730745
186	0x3dd46345	0.10370497
187	0x3eaf4822	0.3423472
188	0x3d5e7c95	0.05431803
189	0xbed7f885	-0.42181793
190	0x3e51d7d5	0.2049249
191	0xbf4eb734	-0.80748296
192	0xbf502e0e	-0.81320274
193	0xbeead3cb	-0.4586471
194	0x3eeca498	0.46219325
195	0x3e68284a	0.22671619
196	0xbe5dbbcc	-0.2165367
197	0x3edb49c3	0.42829713
198	0x3e783568	0.24239123
199	0x3d74ed86	0.059796833
200	0x3dc1df37	0.09466403
201	0x3e84b04e	0.2591576
202	0xbf79f458	-0.97638464
203	0xbe8b68cc	-0.2722839
204	0xbefa9cd1	-0.48947766
205	0xbfb07622	-1.3786051
206	0x3e695a42	0.22788337
207	0xbeaa9732	-0.33318478
208	0xbf4fc053	-0.8115284
209	0xbe9549db	-0.2915791
210	0x3e025b38	0.1273011
211	0xbf33e2a5	-0.7026771
212	0xbf629fe1	-0.88525206
213	0xbeb86c21	-0.36019996
214	0xbf2fe1d0	-0.6870394
215	0x3eee7a31	0.465776
216	0x3f7d5041	0.9895058
217	0xbe073954	-0.13205463
218	0xbd7a8e1b	-0.06117068
219	0xbf861bec	-1.0477271
220	0xbde6ece8	-0.11275655
221	0x3e470ee0	0.19439268
222	0x3e4e1a9e	0.20127341
223	0xbf26c820	-0.65149117
224	0x3e9bdf61	0.30443862
225	0xbe098eb4	-0.13433343
226	0xbef9293d	-0.48664275
227	0xbf11726f	-0.56815237
228	0xbe850d98	-0.25986934
229	0xbea3a796	-0.31963795
230	0x3e1848af	0.14871477
231	0x3e6fb220	0.23407793
232	0xbed5c893	-0.41754588
233	0xbe8f4912	-0.27985436
234	0xbe85de21	-0.26146033
235	0xbf654acf	-0.89567274
236	0xbfbc4a90	-1.4710255
237	0xbe1d1f9d	-0.15344091
238	0xbf90fbf9	-1.1326896
239	0xbede170c	-0.43376958
240	0x3cf24c11	0.029577287
241	0xbda9a17d	-0.082827546
242	0x3f383669	0.71958023
243	0xbeabe498	-0.3357284
244	0xbea929c6	-0.33039683
245	0xbc496f3f	-0.01229459
246	0x3cf1c7e1	0.029514255
247	0xbfd42db2	-1.6576445
248	0x3f020323	0.50786036
249	0x3e8406ce	0.25786442
250	0x3eb08f53	0.34484348
251	0xbd341cae	-0.043972664
252	0x3eee74a1	0.46573356
253	0xbf32e3b0	-0.69878674
254	0xbe31013d	-0.17285629
255	0xbf3ea7e5	-0.74474937

a2c_network.actor_mlp.2.bias f4 [128]
0	0xc0115355	-2.2707112
1	0xbf428c4c	-0.75995326
2	0xbec2f492	-0.38077217
3	0xbf4b48ee	-0.79408157
4	0xbee759cb	-0.45185694
5	0xbf6267f2	-0.8843986
6	0xbee3fb20	-0.4452753
7	0xbf528922	-0.822405
8	0xbf828b97	-1.019885
9	0xbf7e0f07	-0.9924168
10	0xbf8270f2	-1.0190718
11	0xbf862de7	-1.0482758
12	0xbf5f0120	-0.8711109
13	0xbf4749dd	-0.7784708
14	0xbfb8062f	-1.4376887
15	0xbf226063	-0.63428324
16	0xbf1cbe87	-0.6122822
17	0xbee22343	-0.44167528
18	0xbeacce7d	-0.33751288
19	0xc03411fb	-2.8135974
20	0xbca98f48	-0.020698205
21	0xbefe6339	-0.49685076
22	0xbed7bd44	-0.42136586
23	0xbf85d1b1	-1.0454618
24	0xbf687a31	-0.9081145
25	0x3e89be81	0.26903155
26	0xbf122532	-0.57088006
27	0xbed855e8	-0.4225304
28	0xbed4d615	-0.41569582
29	0xbf26c905	-0.6515048
30	0xbe5756eb	-0.2102925
31	0xbfa1ad4c	-1.2631011
32	0xbf9fcdfd	-1.2484738
33	0xbed71789	-0.42010143
34	0xbf91e126	-1.1396835
35	0xbf12bd73	-0.57320327
36	0xbf22a315	-0.63530093
37	0xbf0ee473	-0.55817336
38	0xbf09c0e8	-0.53809977
39	0xbf032fbe	-0.51244724
40	0xbf191a5d	-0.5980585
41	0xbf29d6f9	-0.6634365
42	0xbfb09cfc	-1.3797908
43	0xbf328ff8	-0.6975093
44	0xbef64671	-0.48100618
45	0xbf7efc0a	-0.9960333
46	0xbf6015b0	-0.8753309
47	0xbfb80577	-1.4376668
48	0xbf6e9bd1	-0.93206507
49	0xbf848dd6	-1.0355785
50	0xbff8791a	-1.9411957
51	0xbeff01e1	-0.4980612
52	0xbfafa6df	-1.37228
53	0xbecdd5f7	-0.40202305
54	0xbe884a3c	-0.26619136
55	0xbf0f5e20	-0.56003
56	0xbe44e6da	-0.19228688
57	0xbfb5e6ef	-1.42111
58	0xbfb86c2d	-1.4408013
59	0xbf1c15ed	-0.60970956
60	0xbf887d92	-1.0663321
61	0xbeef2397	-0.4670684
62	0xbf877af1	-1.0584394
63	0xbf5021d4	-0.8130162
64	0xbf1230f4	-0.57105947
65	0xbf97379a	-1.1813843
66	0xbe76fc17	-0.24119602
67	0xbf425e5b	-0.75925225
68	0xbf894965	-1.0725523
69	0xbf4386f9	-0.76377827
70	0xbf251285	-0.64481384
71	0xbf6d34b2	-0.9265853
72	0xbf24910d	-0.6428383
73	0xbf6d46d2	-0.9268619
74	0xbed423fb	-0.414337
75	0xbe7e806b	-0.24853675
76	0xbf73ed5d	-0.9528406
77	0xbf6c01a9	-0.92190033
78	0xbd6f5af6	-0.058436356
79	0xbf038a1f	-0.5138263
80	0xbf1cad74	-0.6120217
81	0xbf0e3acf	-0.55558485
82	0xbe9975ea	-0.29972774
83	0xbf866393	-1.0499138
84	0xbf259e8a	-0.64695036
85	0x3e62ddc4	0.2215491
86	0xbf2b6c4f	-0.6696214
87	0xbfbfaddb	-1.4974931
88	0xbfbf96cf	-1.4967898
89	0xbf187713	-0.5955669
90	0xbf00ef34	-0.50364995
91	0xbf50c98b	-0.8155753
92	0xbf381ca7	-0.7191872
93	0xbf807848	-1.0036707
94	0xbf5b5979	-0.856834
95	0xbf3c1159	-0.7346397
96	0xbf920a47	-1.1409386
97	0xbf32be00	-0.69821167
98	0xbf30a134	-0.68995976
99	0xbf3f8e6f	-0.7482671
100	0xbf84fbe2	-1.0389369
101	0xbfbf207c	-1.4931788
102	0xbf283a28	-0.6571374
103	0xbf00a2e4	-0.5024855
104	0xbfcafbb9	-1.585807
105	0xbf7bd979	-0.9837871
106	0xbf2e2669	-0.6802736
107	0xbd65335b	-0.05595718
108	0xbf94c1be	-1.1621625
109	0xbf89adad	-1.0756127
110	0xc0027c17	-2.0388238
111	0xbedc7e72	-0.4306522
112	0xbf0b2498	-0.5435271
113	0xbf65fbab	-0.8983714
114	0xbf2eb123	-0.6823904
115	0xbf5547d0	-0.833127
116	0xbf289c75	-0.65863734
117	0xbf0f988d	-0.5609215
118	0xbf77c6ec	-0.96787906
119	0xbf1a8866	-0.6036438
120	0xbf63035f	-0.8867702
121	0xbed5d14f	-0.41761252
122	0xbf2f2f31	-0.68431383
123	0xbf8243d1	-1.0176946
124	0xbee36c36	-0.44418496
125	0xbfde1cd2	-1.7352545
126	0xbf40a77f	-0.7525558
127	0xbf90a7ab	-1.1301168

a2c_network.critic_mlp.0.weight f4 [128, 361]
0	0x3f92b0cf	1.1460208
1	0x3ef14e99	0.47130278
2	0xbfa1979b	-1.2624391
3	0xbf813e69	-1.0097171
4	0xbfbfab1d	-1.4974095
5	0x3f0cebf2	0.55047524
6	0x3f36b3d7	0.71368164
7	0xbefc41e9	-0.49269035
8	0x3b0813f0	0.0020763837
9	0xc061fe2d	-3.5311387
10	0xbef79452	-0.48355347
11	0xbf5277b5	-0.8221391
12	0xbec67da6	-0.38767737
13	0x3eecd04c	0.46252668
14	0x3f9e2a1c	1.2356601
15	0xbf76cee9	-0.9640947
16	0x3e549acd	0.20762177
17	0x3ea5ee61	0.3240843
18	0xbf0df2ba	-0.55448496
19	0x3f234666	0.63779294
20	0xbed0992a	-0.40741855
21	0xbf3c3ec7	-0.7353329
22	0xbf68cc09	-0.9093633
23	0xbeb09aba	-0.34493047
24	0x3e57a1aa	0.21057764
25	0xbf247445	-0.64239913
26	0xbe846a3a	-0.25862294
27	0xbe82dc89	-0.2555888
28	0x3e8fcc30	0.2808547
29	0xbf0b9942	-0.5453073
30	0x3e9ae31f	0.30251405
31	0x3d8ad89c	0.06779596
32	0xbe1801ab	-0.14844386
33	0x3e1267aa	0.14297357
34	0xbe21a45f	-0.15785359
35	0x3df667a1	0.120314844
36	0x3c61992f	0.013769432
37	0x3d3476b5	0.04405852
38	0x3e947386	0.28994387
39	0x3daad694	0.08341709
40	0x3e3e5368	0.18586504
41	0xbdbd2cf5	-0.092370905
42	0x3d369140	0.044572115
43	0x3e010c58	0.12602365
44	0x3d5f78cd	0.054558564
45	0xbf095bee	-0.536559
46	0x3d6ad954	0.057336167
47	0x3fd28658	1.6447248
48	0x3d19e506	0.03757193
49	0x3ede3379	0.43398646
50	0x3f1d9082	0.61548626
51	0xbeea6efc	-0.457878
52	0xbeea9060	-0.45813274
53	0x3e97dcdd	0.29660693
54	0xbf3a5e18	-0.72799826
55	0x3d9dd021	0.07705713
56	0x3e58cec1	0.2117262
57	0x3da45964	0.080248624
58	0xbe08c3f7	-0.13356005
59	0x3dabe637	0.08393519
60	0x3e221a75	0.15830405
61	0xbdd5a6e8	-0.104322255
62	0x3fea3424	1.8297162
63	0x3d5ee5c3	0.054418337
64	0x3ebd1627	0.36930963
65	0x3e5ec838	0.21756065
66	0x3cecf435	0.02892504
67	0xbf01015f	-0.5039272
68	0x3dea6b44	0.114462405
69	0xbf011ecd	-0.50437623
70	0x3e9d65a2	0.30741602
71	0x3d474f86	0.048659824
72	0x3eba18ba	0.3634699
73	0xbdef80b7	-0.11694472
74	0x3ed932f8	0.424217
75	0xbdcbc18b	-0.09949025
76	0x3cafc1b7	0.021454675
77	0xbc8830b5	-0.016624788
78	0x3de3a901	0.11116219
79	0x3c9b7583	0.018976932
80	0x3d1b8d46	0.037976526
81	0x3e1fd6d7	0.15609299
82	0xba9534cd	-0.0011383534
83	0xbcfbde8c	-0.030745767
84	0x3deb9c78	0.115044534
85	0x3d9bc89e	0.07606624
86	0xbe98253c	-0.29715908
87	0x3e17ff10	0.14843392
88	0x3d6b235c	0.05740677
89	0xbd187869	-0.037224207
90	0xbe089dfc	-0.13341516
91	0x3d0c904d	0.034317303
92	0xbd19c518	-0.03754148
93	0xbd90359e	-0.07041477
94	0x3d899ccf	0.06719362
95	0x3d434202	0.04767037
96	0x3e515303	0.20441823
97	0x3c86b64d	0.01644435
98	0x3ddd3933	0.108019255
99	0xbe3c44b9	-0.1838559
100	0xbd92fde9	-0.07177336
101	0x3dede6b3	0.11616268
102	0xbc8b2dc0	-0.016989589
103	0xbc57ca7f	-0.013170837
104	0x3c89abe9	0.016805606
105	0x3dc8a42a	0.09796937
106	0xbe5bce63	-0.21465449
107	0x3d0619e6	0.032739542
108	0xbd16c288	-0.036806613
109	0x3d593672	0.05303044
110	0x3cbfe86f	0.023426263
111	0xbda3f122	-0.08004977
112	0x3cb47685	0.02202917
113	0x3d0b92d0	0.03407556
114	0xbce8b9d0	-0.028408915
115	0x3dd8ad9d	0.10579989
116	0xbe9482a3	-0.29005918
117	0x3e7566f2	0.23965052
118	0xbe1d2d2e	-0.15349266
119	0xbca5668b	-0.020190498
120	0x3d9e256d	0.07721982
121	0xbca3af36	-0.019981008
122	0x3d9d88f3	0.076921366
123	0x3e1ff937	0.15622412
124	0x3d005177	0.03132769
125	0x3e3eeb6b	0.18644492
126	0xbeafed76	-0.34360856
127	0x3eb4a2d0	0.35280466
128	0x3dd06f41	0.1017747
129	0xbd707ad9	-0.058710907
130	0x3d9b6110	0.075868726
131	0xbcedf4fb	-0.02904748
132	0x3d1608f8	0.036629647
133	0x3e41d662	0.18929437
134	0x3dc9a44a	0.09845789
135	0x3e9f6a62	0.3113585
136	0x3fabdb01	1.342621
137	0x3fa648af	1.2990931
138	0x3e811fdd	0.25219622
139	0xbe881c93	-0.265843
140	0xbe5dba39	-0.2165307
141	0xbcf1946c	-0.029489718
142	0x3dd3d6b0	0.10343683
143	0x3e0d4b1d	0.13798185
144	0x3e4fca07	0.20291911
145	0x3eea5665	0.4576904
146	0xbd863b0e	-0.065542325
147	0xbe927f3a	-0.2861269
148	0xbda3b1ee	-0.07992922
149	0x3e542736	0.20718083
150	0xbe2c45af	-0.16823457
151	0xbe182b95	-0.14860375
152	0x3dee5552	0.11637367
153	0xbd03ea8d	-0.032206107
154	0xbe6522b1	-0.22376515
155	0xbe2700f8	-0.16308963
156	0x3dacb7ce	0.084334955
157	0xbd82a36d	-0.06378827
158	0x3e07e175	0.13269599
159	0x3e53ef92	0.20696858
160	0xbcec7836	-0.028865915
161	0x3e17a7f3	0.14810161
162	0x3db33161	0.08749653
163	0x3e07dee4	0.1326862
164	0xbda4219d	-0.08014224
165	0xbdd77497	-0.105202846
166	0x3e0f0a80	0.13968849
167	0x3e2ac4af	0.16676591
168	0xbe249d4d	-0.1607563
169	0x3d2fc0ee	0.0429086
170	0xbe14fbd9	-0.14549197
171	0xbe0aac0a	-0.1354219
172	0x3e40478b	0.18777291
173	0x3e02a84a	0.1275951
174	0xbd0eb84d	-0.03484373
175	0x3d43eb29	0.047831688
176	0xbcc668ad	-0.024219835
177	0x3d78473d	0.060614813
178	0x3e11f54a	0.14253727
179	0x3da20d4c	0.079126924
180	0xbd66c067	-0.056335833
181	0x3dea8afb	0.1145229
182	0xbe83ce5d	-0.2574338
183	0xbdc8c6b5	-0.09803525
184	0xbe91ae83	-0.28453454
185	0x3c8ce95f	0.017201124
186	0x3db8354c	0.089945406
187	0x3cefe83d	0.029285545
188	0x3dd4336e	0.10361372
189	0xbe7fd5cf	-0.24983905
190	0x3ebb393c	0.36567104
191	0x3e51ed74	0.20500737
192	0x3d8e584b	0.06950434
193	0xbd31251d	-0.043248285
194	0xbe957f64	-0.29198754
195	0x3e190f06	0.14947137
196	0x3de4f52d	0.11179576
197	0x3ec2fc3e	0.3808307
198	0x3e4697c0	0.19393826
199	0x3eb87935	0.36029974
200	0xbdb01bad	-0.08599029
201	0x3e20e523	0.15712409
202	0x3cebaae0	0.028768003
203	0xbc8c4cae	-0.017126407
204	0xbeb00fc5	-0.3438703
205	0xbc9b44e3	-0.018953746
206	0x3c6ebd39	0.014571481
207	0xbcf0ba2b	-0.029385647
208	0x3e943593	0.28947124
209	0x3f7e508e	0.99341667
210	0x3e24a3e5	0.16078146
211	0x3ee61fcf	0.44946143
212	0x3ed2c8e6	0.41168898
213	0x3dc071ce	0.093967065
214	0xbf0034b6	-0.5008043
215	0xbe4763f1	-0.19471718
216	0x3e6494f8	0.22322452
217	0xbd8aa3d3	-0.06769528
218	0x3e0d0e6e	0.13775036
219	0xbdbdbb4a	-0.09264238
220	0xbc155f16	-0.009116909
221	0xbcb578e4	-0.022152372
222	0xbd18a717	-0.037268724
223	0xbc316593	-0.01082744
224	0x3c8b3705	0.016994009
225	0x3dc42e0d	0.09579096
226	0x3dc9bbc7	0.09850269
227	0x3d34ae7e	0.04411172
228	0x3c81205b	0.015762499
229	0xbd2a7f82	-0.041625507
230	0xbbae64e4	-0.0053220857
231	0x3dfa9e72	0.12237252
232	0xbccf4266	-0.025300216
233	0xbdd97125	-0.10617284
234	0xbc81e8b8	-0.01585804
235	0x3cecfe34	0.028929807
236	0x3d565423	0.052326333
237	0xbbb5edee	-0.005552045
238	0x3c9b13be	0.018930312
239	0x3d4c2ce4	0.0498475
240	0xbd49da74	-0.0492806
241	0xbd47e62f	-0.048803505
242	0x3aa6c763	0.0012724217
243	0xbca4dc0d	-0.02012446
244	0x3cecd47c	0.028909914
245	0x3de096cd	0.10966263
246	0x3cfb5ed9	0.030684875
247	0xbd80becc	-0.062863916
248	0x3dd9b602	0.10630418
249	0x3d1b64ca	0.037937917
250	0x3ddd34cb	0.10801085
251	0xbd116c2e	-0.03550356
252	0x3d31b55c	0.04338585
253	0xbbb619ea	-0.0055572884
254	0x3ae818dd	0.0017707605
255	0x3ce7c75a	0.0282933
