python/rlgpu/saved_nn/1234/last_Aliengoep=6500rew=[1077.85].pth (torch, 523930 bytes, 18 tensors)

running_mean f8 [361]
000000 02 e7 9f 15 0f 60 b6 bf ad c0 77 bc 29 8f 80 3f
       -0.08740324285454551 0.008085561813431086
000010 2c 1d 41 1a a2 b0 cd 3f 14 8b 70 14 8a 4e 94 3f
       0.2319529178805423 0.019830853936706097
000020 1a 83 81 23 13 87 c4 bf 5b 55 4d eb 88 ec d3 3f
       -0.1603721545571027 0.3113119409439002
000030 b1 0c 53 a6 0a 86 d7 3f fe 76 da bb 4f 23 da 3f
       0.367556250024971 0.40840524048859084
000040 1f ee 43 4e e4 65 e1 3f f6 10 46 a4 9b df c2 3f
       0.5436879662151489 0.14744897385765626
000050 78 da f6 04 4f 11 c0 3f f5 b2 7a a1 28 79 d5 bf
       0.12552821867366837 -0.3355199410387251
000060 35 cb 41 8e 19 2c cb 3f 39 83 08 d8 7e 0e a2 bf
       0.21228331991331975 -0.03526684176563894
000070 6e 00 77 02 d2 4f d4 bf c5 ad 24 91 06 d3 99 bf
       -0.31737184754093206 -0.02521906147846466
000080 8e 44 db af 36 f5 c3 3f 64 82 89 04 b8 b3 d4 bf
       0.1559208258318318 -0.32346916621285104
000090 f8 67 f7 d9 2e a2 c2 bf 8a d3 6d 79 72 ba c3 bf
       -0.1455744327820978 -0.15412741593504747
0000a0 60 24 50 e9 20 0e d4 bf 81 68 86 db 03 ff da 3f
       -0.31336233887174636 0.4218148845481054
0000b0 37 92 d8 9a 41 ee 92 bf 59 a9 79 88 50 43 cb 3f
       -0.01848700053791871 0.21299177802877514
0000c0 dd c1 e5 b8 82 e8 dd 3f 0e ef c5 c5 56 fe b0 3f
       0.46731632286448904 0.06638090446898223
0000d0 12 8a 53 f0 01 ad c6 3f d3 8e ac 93 7d ea da 3f
       0.17715477213558067 0.4205621664170682
0000e0 66 bb c2 b1 ca 4d 9a 3f 5e 2a 4c 62 b9 3c c4 3f
       0.0256873770710472 0.15810315417941728
0000f0 48 62 d0 91 56 fd dc 3f 88 28 2c b7 99 23 ba 3f
       0.4529625343289223 0.10210571977600769
000100 c9 71 0a 44 50 8f c0 3f a9 2a 13 4d bf 0b e1 bf
       0.12937358209900499 -0.532683992897849
000110 4d fb 01 b4 6c 96 e4 3f dd da 17 9d 01 91 d6 bf
       0.6433623805786312 -0.35260048237925706
000120 c2 fc 92 1a 73 28 d9 3f ba ef dc 69 06 bd e6 3f
       0.39309384913572043 0.710574347270714
000130 65 86 01 fb fd e5 d7 bf d0 50 ca b2 f9 9b d0 bf
       -0.37341260444927676 -0.2595199819563847
000140 4a 39 b4 50 1d 74 de bf 73 21 62 88 10 a0 e1 bf
       -0.4758370674252502 -0.5507891334282661
000150 56 98 e0 fc 62 11 b2 3f b4 6f 8d 17 a8 e9 dd bf
       0.07057779954684071 -0.4673862676625007
000160 7d 5d 91 63 04 0c d4 bf 5c de 6f 0a c6 97 e2 3f
       -0.31323346827908677 0.5810270503852268
000170 fb 91 15 a0 05 94 de 3f d6 ee 2e 1e f0 ba ef 3f
       0.4777845443079795 0.9915695752638054
000180 9d 21 b9 d8 1c 78 e0 3f 2d bd 6f 47 a8 4a e3 3f
       0.5146621926187894 0.6028634448283917
000190 4a 01 29 af 82 b4 b6 3f f1 a9 bd 64 97 cd e3 3f
       0.0886918714177273 0.6188466041178896
0001a0 f1 e6 96 00 4b df b9 3f a2 34 88 e1 08 20 95 3f
       0.10106343044654033 0.020630015149482823
0001b0 ca 32 de 50 d0 d6 d8 bf 80 c7 09 c0 46 e0 e5 3f
       -0.38811118981611215 0.6836274863000966
0001c0 fd 68 d5 c2 89 50 db 3f 34 ad 98 7f 51 c5 d1 bf
       0.42679065729829785 -0.27766835651955835
0001d0 a8 3b e4 e0 7e 8e e5 bf 13 c3 fe 32 4e 65 d3 3f
       -0.6736444847500609 0.30305819492336744
0001e0 84 24 6a 6c 46 93 e2 3f 78 5d 61 dc 04 82 de 3f
       0.5804779164765397 0.47668572923199504
0001f0 68 4c 90 e6 7f b1 ef 3f 3d 9a 14 0b 89 73 e0 3f
       0.9904174330898856 0.5141034332671733
000200 96 b4 2a b0 9f 45 e3 3f 24 01 16 2e d1 a2 b6 3f
       0.6022489968069233 0.0884218919291056
000210 8c 02 60 49 ca c9 e3 3f 49 61 25 b2 13 e1 b9 3f
       0.6183825905901172 0.10109065150516473
000220 ba dd 37 f5 3d f7 94 3f e3 9f b8 2d 0a d1 d8 bf
       0.02047440346902161 -0.3877587744232171
000230 45 dc cc 65 ca da e5 3f 9a ee a6 a8 7d 49 db 3f
       0.6829578388486729 0.42636052579812544
000240 29 b7 e6 d0 ec c1 d1 bf 91 53 e3 27 ba 8a e5 bf
       -0.2774612464953515 -0.6731844691336041
000250 5f bc 53 01 66 60 d3 3f 54 ee ec a4 99 80 cb 3f
       0.3027586949310201 0.2148620658207273
000260 d7 80 b1 cc fb 6e cc 3f 12 7c 8c 57 cd 6b cc 3f
       0.22213695044320644 0.222039859531805
000270 cd dd a9 e5 9b 08 cc 3f c7 6c c4 c5 19 97 cb 3f
       0.21901272501030036 0.2155487266216822
000280 d3 f3 a5 cf 75 27 cb 3f 1b c7 87 37 c4 cc ca 3f
       0.21214172972750464 0.20937397681660105
000290 b9 4f 8c 8a 11 f8 ca 3f b5 ad 0e 8f dd 54 cb 3f
       0.210695450449405 0.21352738843175492
0002a0 84 e5 b5 69 4a c2 cb 3f 1e 34 1c 38 92 35 cc 3f
       0.2168667808689798 0.22038486232523352
0002b0 f5 86 7a 09 30 68 cc 3f 51 90 61 e0 65 ff cb 3f
       0.22192955458472566 0.2187316270457154
0002c0 11 f9 58 77 33 a4 cb 3f ce 10 58 46 d7 b2 ca 3f
       0.21594851806180107 0.208582791659984
0002d0 c0 39 5d a0 0f 99 c8 3f c1 88 d4 33 6c 57 c8 3f
       0.19217105226785058 0.19016792803546959
0002e0 d9 de 33 ef ff 37 c8 3f b2 25 14 0e 8b 06 ca 3f
       0.18920897655311 0.2033246821159032
0002f0 70 46 cf 71 e3 eb ca 3f 1d 06 ee 2d c9 8b cb 3f
       0.2103237443648598 0.21520342581429555
000300 00 56 46 e3 0e 65 cd 3f 32 8f 95 95 2f ba cc 3f
       0.22964655015373125 0.22443194202343758
000310 8e 67 da d9 c4 f4 cb 3f 4d e7 83 a8 be 7c ca 3f
       0.2184072555290268 0.20693190792354202
000320 9c 47 14 18 65 dc c7 3f e5 64 e2 74 69 97 c7 3f
       0.18641341853850413 0.18430822570079566
000330 72 0e ef 34 d3 4e c7 3f c5 c0 d7 25 3c 8a c9 3f
       0.18209304890307326 0.1995310959605431
000340 fc f3 44 0f f0 ef ca 3f 6b 55 a4 88 b6 1f cc 3f
       0.2104473185117114 0.2197178046414295
000350 b8 b7 7d 7a cb 81 ce 3f fa 49 bc 7e 31 9b cd 3f
       0.23833602410325994 0.23129862488038083
000360 38 48 50 b6 40 c3 cb 3f e0 4b da e5 48 6e c9 3f
       0.21689614202529284 0.19867812369611126
000370 b3 20 ea 0b 6d 86 c7 3f eb e0 ec 1a 43 2d c7 3f
       0.18378985482946106 0.181068790576098
000380 5d 28 03 5e 3e da c6 3f 62 26 23 e1 cf 51 c8 3f
       0.17853526678510692 0.189996704988789
000390 0a 20 5d 7e 95 9b ca 3f 6b 6e 04 56 0f e5 cc 3f
       0.20787304563623393 0.2257403535848995
0003a0 2a 46 44 c5 e1 bd cf 3f f1 86 6f 2c 02 90 ce 3f
       0.24798223621523735 0.23876979036054238
0003b0 4e 1f 49 43 62 1d cc 3f de 78 0b de 05 4f c9 3f
       0.21964672360831589 0.19772408811599623
0003c0 f7 60 59 ca 0a 64 c7 3f f2 bc e4 36 7f ed c6 3f
       0.18274054413155458 0.17912283115717959
0003d0 d3 7c 82 2e 2e aa c6 3f 67 44 d7 d2 1c 15 c8 3f
       0.1770684935663441 0.1881443051811715
0003e0 97 a4 4a bb 39 da ca 3f 13 0e 58 02 96 cb cd 3f
       0.20978471417518982 0.23277545084430126
0003f0 48 ae 8d a7 ba 86 d0 3f eb b5 d8 4f 3b 95 cf 3f
       0.25822321283951455 0.2467416896701445
000400 c0 73 dd 15 48 74 cc 3f 7b 1f 65 ed e1 41 c9 3f
       0.2222986323130538 0.19732307521394063
000410 db d3 20 c9 35 5d c7 3f 2c 27 de 58 f5 c5 c6 3f
       0.18253204651560292 0.1779162105488522
000420 97 be fc 2e b3 a1 c6 3f bf 18 b8 98 07 f8 c7 3f
       0.17680969042111336 0.1872567649554124
000430 20 5d 4b 7e a6 2c cb 3f 20 18 76 96 76 ce ce 3f
       0.21230012098997353 0.24067575785392226
000440 fe 60 3d 75 f6 d8 d1 3f f3 e9 00 a4 e4 ee d0 3f
       0.27886735390849526 0.264580879363762
000450 8d ac 1d be 7b b8 cc 3f 72 fe 2f bf ba ad c8 3f
       0.22437998564723607 0.19280180297208777
000460 f4 2f be e2 35 77 c7 3f da 93 7d 4a f0 08 c6 3f
       0.18332551547462084 0.17214778554185167
000470 84 db ff d2 9d cf c6 3f 33 78 96 9a 75 8d c7 3f
       0.17821095278460686 0.18400449798804316
000480 fa 66 ec 7f a9 c5 cb 3f 09 7a ca 15 11 98 d0 3f
       0.21696966882955576 0.25928141716022474
000490 08 01 a1 2a 87 6a c8 3f 9d 73 8b 52 89 07 c9 3f
       0.19075097638597804 0.19554249315743003
0004a0 86 7c 57 a4 9b ed c8 3f 63 1b cf ed b7 af c8 3f
       0.19475121998309336 0.19286250221031329
0004b0 57 19 cd e2 56 7e c8 3f f9 8c 19 e6 46 46 c8 3f
       0.19135557245517518 0.18964468226759104
0004c0 a7 ed 21 31 a4 22 c8 3f 43 46 e7 2c fc 60 c8 3f
       0.18855717085885468 0.19045974915074923
0004d0 56 aa f3 c5 47 a3 c8 3f 8e 10 be 99 aa d2 c8 3f
       0.19248292127243144 0.1939290285773762
0004e0 95 0f f4 32 f3 03 c9 3f 5b e9 f3 73 37 f9 c8 3f
       0.19543304431874434 0.19510548745877085
0004f0 50 f9 ec f8 c6 3d c8 3f 87 4e cf 45 d3 b7 c7 3f
       0.18938529162000828 0.18529740246468782
000500 3a 69 56 05 c5 44 c7 3f ac ba d0 4e 46 2b c6 3f
       0.1817861820280287 0.17319563721090014
000510 65 82 d3 1c 94 70 c6 3f 0c da 34 9b 7e 84 c6 3f
       0.17531062514810283 0.1759184129566197
000520 df b4 93 0f 7f f5 c7 3f 8b a3 17 02 ce 60 c8 3f
       0.18717945347399387 0.19045424558796883
000530 da 2b 61 ef 3f 8f c8 3f 85 e8 4e a9 65 07 ca 3f
       0.19187163532691792 0.2033507420254105
000540 9c 52 24 29 1c bf c8 3f a1 9f 11 c9 26 c0 c7 3f
       0.1933322144401658 0.18555149858297873
000550 7f ff 27 24 46 f8 c6 3f e1 58 b1 a6 fa 8f c5 3f
       0.1794517208618309 0.16845639361662904
000560 9d 99 2c a0 db 0a c6 3f 01 c2 f2 de d4 2a c6 3f
       0.1722063572025946 0.17318211446901446
000570 4c 63 51 9c 8c f0 c7 3f 87 fe 77 2e 98 a9 c8 3f
       0.18702848084174162 0.1926756121538242
000580 88 db ab ec 85 42 c9 3f 5b 71 09 38 de 82 cb 3f
       0.1973426252004311 0.2149312757127387
000590 b4 3e da 8d 12 ad c9 3f 7e ea 12 11 b2 97 c7 3f
       0.20059425283806365 0.1843168815010649
0005a0 d0 96 9c 69 34 23 c6 3f ee 37 02 8e c1 4b c5 3f
       0.17294936329670074 0.16637439188019648
0005b0 04 73 10 f3 84 cf c5 3f 0c bd 91 c6 71 0c c6 3f
       0.17039548748370958 0.17225477405325085
0005c0 81 a5 97 67 9c 31 c7 3f 28 c2 31 64 7a 87 c8 3f
       0.1812015062162509 0.19163446323683897
0005d0 5b dd 90 f6 71 48 ca 3f eb 25 94 8d d8 74 cd 3f
       0.20533585109090322 0.23012835419676433
0005e0 b8 9c d7 0c bd fc ca 3f 20 7e 7a 47 34 01 c8 3f
       0.21083796622335682 0.18753674974594592
0005f0 a4 ad ff 84 cd 27 c6 3f 6f cc aa 88 45 3b c5 3f
       0.17308968538359892 0.16587132619096986
000600 00 96 67 52 db b8 c5 3f 3f 70 2c 31 76 10 c6 3f
       0.1697038795820589 0.17237737084440316
000610 47 54 80 eb d8 33 c7 3f 71 fc 7f 5b 4b dd c8 3f
       0.18126975535474996 0.1942533680703238
000620 04 5d df da fa 97 cb 3f 77 bc 6a 69 9d a4 cf 3f
       0.21557555853971888 0.24721114775954664
000630 cb 62 e6 0c 84 ad cc 3f 3c 8e 5d 66 d9 84 c8 3f
       0.22404528264885068 0.19155423639596048
000640 6e f5 d4 a3 a0 4a c6 3f aa 36 33 17 8c 4c c5 3f
       0.1741524505577376 0.1663985360414036
000650 f7 f9 5d 4f a3 b8 c5 3f 9f fd ba 48 90 29 c6 3f
       0.1696972024473806 0.17314342070856711
000660 6f cb 24 50 43 39 c7 3f 2b a5 fa e0 5f 2a c9 3f
       0.181435026295357 0.19660566792780662
000670 c7 a9 0d bb 95 33 cd 3f a9 81 9f 16 83 f0 d1 3f
       0.228136745772032 0.28030469140324016
000680 82 0c 51 90 d8 6c d0 3f 59 25 2d 00 69 81 c9 3f
       0.2566434296933907 0.19926178463564773
000690 9c 4c 3c 0c 25 50 c6 3f d6 82 60 df d9 a6 c5 3f
       0.17432082269133253 0.16915439040260222
0006a0 f9 3b d9 f9 49 6a c5 3f 78 6a 42 4d 06 72 c6 3f
       0.16730618190419458 0.17535475513871623
0006b0 f4 6d 38 9c 25 be c6 3f 36 d1 d1 af 87 4b c9 3f
       0.17767782333326887 0.19761749348584495
0006c0 14 9b b4 e4 fd 75 d0 3f b9 da f6 b3 ad ec c6 3f
       0.2572016461803497 0.17909785544698822
0006d0 71 78 73 85 ad e9 c6 3f 23 65 0f a0 2d 19 c7 3f
       0.17900628105320807 0.18045587840496422
0006e0 44 12 3d 16 22 26 c7 3f bc e4 d2 5f 4d 22 c7 3f
       0.18085123144023119 0.18073432139298073
0006f0 46 fd 04 12 71 23 c7 3f 58 1d 31 d6 ae 10 c7 3f
       0.18076909427507298 0.1801966234072363
000700 00 ae ea a0 1e 25 c7 3f 62 68 ef a2 e6 21 c7 3f
       0.18082030160199736 0.18072207408733038
000710 17 e9 fa 69 dd 1e c7 3f 77 bf 76 38 27 10 c7 3f
       0.18062942194757944 0.18018045670532576
000720 a2 53 ed 5b 51 3e c4 3f 88 63 48 9a c9 38 c4 3f
       0.1581517886030755 0.1579830172857124
000730 20 fe a5 fd b9 61 c6 3f d5 ab 21 59 53 53 c6 3f
       0.1748573769109365 0.17441789486050988
000740 8e 65 90 97 23 ae c5 3f e4 38 c3 6c 6b f8 c5 3f
       0.16937680149639472 0.17164366541550813
000750 c7 e9 f9 7e a5 16 c5 3f 32 c0 4c 69 77 39 c5 3f
       0.16475361537943753 0.16581623689262553
000760 80 19 e5 fe 2a 2b c5 3f 4b 6e e5 2e 08 93 c3 3f
       0.16537988134423287 0.15292455949644287
000770 90 7e a2 66 e9 40 c4 3f ae be 05 d1 ef 3c c4 3f
       0.1582309485574922 0.1581096430413615
000780 c7 25 d7 2d a9 5d c6 3f 29 79 67 e6 4e 45 c6 3f
       0.17473330248166816 0.17399011850552284
000790 37 42 91 8e 9c 51 c5 3f 0b 27 0a 4f 51 c8 c5 3f
       0.16655308686542167 0.17017570838316262
0007a0 89 ac bd e1 4b 9c c4 3f 2f 5b 2c 47 68 ef c4 3f
       0.1610197880030209 0.1635561320806231
0007b0 62 5c ab 85 eb cb c4 3f 0d f1 5e 68 e2 55 c3 3f
       0.16247314478707425 0.15105848404153513
0007c0 8a f4 f8 61 c0 61 c4 3f 63 6a 69 c0 28 7d c4 3f
       0.15923313888371055 0.160069555235924
0007d0 b5 7e dc 65 d5 e1 c4 3f 5a fe bc 78 b8 9e c5 3f
       0.1631418940896673 0.1689062680761591
0007e0 6e 71 7d 84 c9 28 c5 3f 5e a5 c5 45 0b ae c5 3f
       0.16530722588766927 0.1693739023860798
0007f0 fb 40 69 31 6b 82 c4 3f 93 fc 8d 9c ef 62 c4 3f
       0.1602300635590906 0.1592692865778856

running_var f8 [361]
000000 3d 50 4a 42 22 be a0 3f 04 d1 09 27 dc c0 06 40
       0.03270060595710376 2.844169907557559
000010 15 8b 03 a5 42 dd c2 3f b8 7b 53 fd 4d 95 18 40
       0.14737732941929296 6.145805319042601
000020 ab a9 f1 94 76 16 c2 3f 5c ee 2a 5a 5f 71 cb 3f
       0.14131052277236952 0.21439735319823938
000030 2f 75 3f 6e 39 c1 cd 3f b5 93 e5 df 1b ed ce 3f
       0.23245923884579997 0.24161098892650804
000040 0b e1 d6 4d 7a c1 cf 3f 0c b2 51 fc 35 aa 98 3f
       0.24809197235823208 0.02408680298360548
000050 75 87 75 c5 6a 4a 6e 3f 66 de 81 0e 62 39 78 3f
       0.0036975942017968785 0.005914099725593402
000060 c7 b7 d3 41 c1 8a 94 3f d5 ea 95 b5 3d 83 78 3f
       0.020060557978403695 0.005984536220575894
000070 04 1e a1 8e 7c 90 73 3f c3 43 e9 3e d4 d0 9c 3f
       0.004776464988089927 0.028140369739336323
000080 c9 b4 91 27 f9 5a 6b 3f 41 bb 11 1a 7c 74 6a 3f
       0.0033392778682840058 0.0032293723930289235
000090 e7 9b 4b f8 bf 1c 9a 3f a2 a9 cc 40 f7 25 6d 3f
       0.025500297097916926 0.0035581425821835247
0000a0 02 7f 25 de 54 37 65 3f 2b 1f 93 12 56 f1 1c 40
       0.0025898606847220016 7.235679903249358
0000b0 4a 56 93 2d ca 88 fb 3f a8 b7 25 2a 76 4d 0a 40
       1.720895936994014 3.287823037410778
0000c0 9e e8 b6 c2 c4 46 17 40 c8 a4 a4 c6 40 a2 fa 3f
       5.819109957136019 1.66461255640961
0000d0 e9 d5 27 63 4b 89 07 40 17 97 73 24 8e f2 15 40
       2.942038321164308 5.486870355181757
0000e0 5b c2 7a 09 56 ec f1 3f 8e e8 78 dd 79 ac f4 3f
       1.120199238805205 1.2921084071408901
0000f0 7d e1 68 a1 92 8c 0b 40 32 67 54 b4 2e 87 ea 3f
       3.4436390504963 0.8290017625870176
000100 d6 16 6b 73 0d 85 eb 3f 88 e9 d7 92 fa 4d 27 40
       0.8599917654289253 11.652302349907373
000110 6b 9f f7 6d c5 c8 27 40 41 2b 02 d8 bf fc 24 40
       11.892131268002876 10.493651151909605
000120 64 8b 38 1a 67 69 26 40 26 ae 59 26 f0 6f 27 40
       11.205864734079746 11.718629072615908
000130 83 8b 30 50 d8 1b 21 40 bc 17 a7 1c e3 e5 24 40
       8.554384714055919 10.448998351475772
000140 ff 02 08 97 e2 ab 25 40 9f 23 ed 25 ab 84 21 40
       10.835713119247428 8.759118256757402
000150 39 9c b2 46 c6 17 21 40 99 87 f0 f6 bc fa 20 40
       8.546434602072724 8.489722935544522
000160 bb f3 fd 4d f9 a6 1d 40 f7 ab e4 5d da 1c d7 3f
       7.413060396790509 0.3611360470701465
000170 85 14 38 e0 ec ed dc 3f 5f a2 1c 72 93 c2 79 3f
       0.4520218076361931 0.006289077720602692
000180 e4 90 fe 42 d0 74 e0 3f 23 16 e1 d2 96 87 db 3f
       0.5142594631656974 0.4301507052772157
000190 33 20 cc 5c 10 e2 e6 3f 94 35 e8 e4 69 83 da 3f
       0.7150956928680955 0.41427085260587515
0001a0 fc f2 ce 55 68 64 e6 3f b2 ae 49 27 8f 37 e7 3f
       0.6997567821450441 0.7255321280803939
0001b0 4c fe 3e d0 b5 32 e3 3f e3 c2 c3 f9 ee d3 d5 3f
       0.5999402110391627 0.3410603942020726
0001c0 29 7a 4a 4b 58 5f e2 3f aa a5 77 40 0b 87 e4 3f
       0.5741387815977009 0.6414848574760772
0001d0 b0 b6 c4 d1 2a 4e d3 3f 69 1f 51 99 41 54 e4 3f
       0.30164595112988035 0.6352851862402363
0001e0 f3 83 81 92 25 1a d7 3f af 94 d0 2c 70 f5 dc 3f
       0.36097087199419703 0.45248035789911517
0001f0 3c e2 d1 b9 95 68 7e 3f a1 35 1e 10 f6 71 e0 3f
       0.007423958651195547 0.5139112772755433
000200 b0 38 81 55 21 84 db 3f 82 a6 2e 39 4f db e6 3f
       0.42993958807063404 0.714271175083198
000210 84 47 7a d5 b1 7d da 3f af dc d8 2e 3e 5d e6 3f
       0.4139217934363091 0.6988821902258645
000220 82 59 fb 8a 88 30 e7 3f 5b 81 02 00 c4 2d e3 3f
       0.7246744837273555 0.5993366241637362
000230 60 d4 bc 9a 27 d3 d5 3f d4 80 37 1a f5 5a e2 3f
       0.3410128604039695 0.5736032020613728
000240 7d 90 90 00 f8 80 e4 3f f0 f5 17 c8 f3 49 d3 3f
       0.6407432566670789 0.3013886884726551
000250 bf 2e 9b 25 9b 4e e4 3f 5b a0 b2 3a c5 ea b9 3f
       0.634595464181494 0.10123856242228284
000260 13 6c 6e 11 69 21 bb 3f cc 40 10 19 e6 19 bb 3f
       0.10597855258531323 0.10586393463040905
000270 e4 21 6e 0a 9c 9e ba 3f 3b e5 e4 41 32 09 ba 3f
       0.10398268942493122 0.10170282467597229
000280 24 f4 42 28 c2 77 b9 3f 57 44 45 5a 3b 0b b9 3f
       0.09948361857364368 0.0978276343714851
000290 fc 06 88 0a e5 36 b9 3f af e4 a7 ca ea aa b9 3f
       0.0984938765250511 0.10026423881199052
0002a0 ed 52 60 d2 97 3c ba 3f 70 b1 9b c0 32 d3 ba 3f
       0.10248707662715235 0.10478512956951191
0002b0 4d 62 e7 5e eb d9 bb 3f 3c d3 78 cc fc 6f bb 3f
       0.10879393641460773 0.10717754356376202
0002c0 eb fd 19 c0 3a 9b ba 3f 89 f3 ed 36 32 5d b9 3f
       0.10393111410120752 0.09907831040432148
0002d0 5c 91 62 c4 6f d5 b6 3f dc 56 cc cd 3e 4e b6 3f
       0.08919428391033563 0.08713142895097853
0002e0 c8 65 77 69 35 68 b6 3f 1a 3a 76 3d 8d ab b8 3f
       0.08752759766448215 0.09636767149479689
0002f0 3c bd 97 b4 c0 e0 b9 3f f5 1f 20 c1 38 f7 ba 3f
       0.10108570488931873 0.10533480372407651
000300 43 cd 7e 3b 9f 4e bd 3f 62 32 ba 0d 15 9e bc 3f
       0.11448092653772783 0.11178714356555866
000310 44 5b 62 5e 5d 36 bb 3f 8e 24 85 dc c8 4d b9 3f
       0.10629828981687434 0.09884314903060185
000320 8d 2d 07 de 92 16 b6 3f dd 9d 55 c8 dc 76 b5 3f
       0.08628194733244339 0.08384494677522221
000330 65 98 80 af 8a 73 b5 3f 94 dd 4d 62 c2 49 b8 3f
       0.08379427704548588 0.0948754777908703
000340 96 66 39 a4 78 29 ba 3f ed 04 d1 47 85 fd bb 3f
       0.10219530114536676 0.10933716777164522
000350 c5 c6 f3 b0 88 df be 3f 65 90 db 73 3a eb bd 3f
       0.12059835739253362 0.11687054947430082
000360 dc 19 fc 23 69 7e bb 3f 27 ff 0e 8b df 56 b8 3f
       0.10739762428793348 0.09507558007225879
000370 aa ab c9 9b 77 d1 b5 3f 98 54 70 db c9 0d b5 3f
       0.08522746613895885 0.08224164588348726
000380 33 42 34 66 dd 03 b5 3f bb 8b 27 2a 94 0a b7 3f
       0.08209022278993743 0.09000516919290551
000390 5d 66 64 58 e9 34 ba 3f 70 2f a8 62 e3 2d bd 3f
       0.10236986549389245 0.11398144873254323
0003a0 15 2e 41 bb 3f 45 c0 3f 20 c4 29 da b9 45 bf 3f
       0.12711331027308917 0.12215768409966232
0003b0 0e af 83 64 55 27 bc 3f ce 16 95 b0 e7 64 b8 3f
       0.1099751825710735 0.09528968869298213
0003c0 d3 29 6f 90 66 cc b5 3f 99 0f 95 51 e3 df b4 3f
       0.08515015627123228 0.08154125921015377
0003d0 4a 38 19 16 c9 e5 b4 3f eb 51 a7 49 c3 e5 b6 3f
       0.08163124837412386 0.08944340274985733
0003e0 a3 c1 f9 f6 83 b9 ba 3f e2 41 bf 96 83 7a be 3f
       0.10439324168851853 0.11905691557263468
0003f0 0a a8 31 6d f0 20 c1 3f 6c b9 f8 c0 4a 54 c0 3f
       0.13381772357689697 0.1275723879093208
000400 bb 2c c9 8b 84 c9 bc 3f e6 57 3b 65 6e 89 b8 3f
       0.11244991696109967 0.09584703418235527
000410 dd 37 25 24 20 ea b5 3f a9 aa 14 04 91 d8 b4 3f
       0.08560372240501075 0.08142954206111121
000420 73 3e 81 54 f8 f5 b4 3f e4 db 0f 2c b0 e4 b6 3f
       0.08187820494753754 0.08942700458270242
000430 81 27 38 c3 38 4e bb 3f 32 97 6a 01 4c dc bf 3f
       0.10666231886002998 0.12445521387652717
000440 99 c3 63 23 19 ce c2 3f e0 ad f0 14 d3 c5 c1 3f
       0.14691461780560358 0.13884962580173887
000450 bd f9 f7 e2 0a ad bd 3f 3d d4 87 c8 fd 6d b8 3f
       0.11592166939951816 0.09542833467260521
000460 74 20 4d 08 3f 56 b6 3f 52 64 f3 2b 4c 84 b4 3f
       0.08725351288478739 0.08014370034233423
000470 82 c2 6b 38 76 60 b5 3f 1f 84 17 ac c4 bf b6 3f
       0.0835031402346065 0.08886365128957195
000480 a5 79 5f 52 ec 62 bc 3f 11 07 22 3e c5 6c c1 3f
       0.11088444720323894 0.13613191160043717
000490 a1 04 13 94 27 88 b6 3f 49 ee cf b4 1d 65 b7 3f
       0.08801505436987835 0.0913866583286388
0004a0 ef 7c ea bb 11 3c b7 3f f0 24 9a 77 c0 e5 b6 3f
       0.09076033437530716 0.08944323463414938
0004b0 a5 be 35 68 f3 9b b6 3f 4f 4a c5 56 1b 51 b6 3f
       0.08831712049663538 0.08717509144234124
0004c0 6b dd 21 dc a7 2d b6 3f 92 36 75 8d a0 78 b6 3f
       0.08663415073703155 0.08777812436638957
0004d0 41 f5 79 c5 6e d2 b6 3f 41 6d f7 d6 9f 18 b7 3f
       0.08914844819260727 0.09021948812681037
0004e0 fc 07 3f f1 16 5c b7 3f 59 2a 83 e0 a3 f9 b7 3f
       0.09124892606544671 0.09365295630701932
0004f0 69 85 2c 2c db 2d b7 3f ec f5 52 c7 ca 3d b6 3f
       0.09054345921005837 0.08688037267980747
000500 01 50 5f be d0 93 b5 3f dc bd e9 ab 8e 18 b4 3f
       0.0842867340828093 0.07849971482368495
000510 20 31 87 bf e6 37 b4 3f 3a 4f 8e 01 0c 92 b4 3f
       0.07897798706034509 0.08035349882112267
000520 43 57 6c 28 87 6d b6 3f bd ae 7e 2b 5c 08 b7 3f
       0.08760876404661837 0.08997131406675414
000530 44 60 af eb 21 91 b7 3f 39 37 06 9d 72 9a b9 3f
       0.09205829624204492 0.1000129350051936
000540 5b 33 99 14 02 2f b8 3f 3a b2 51 3d 74 8c b6 3f
       0.09446728709117506 0.08808065888451547
000550 f8 ae bc ff e9 6c b5 3f 90 da 7c a6 8f 82 b3 3f
       0.08369314664440342 0.07621095480576856
000560 f6 76 05 42 1c d1 b3 3f ee 62 25 2b f3 4f b4 3f
       0.0774095212159088 0.07934493831033837
000570 d4 91 e7 09 a4 9d b6 3f 41 4c a5 b8 d2 9e b7 3f
       0.08834290735064282 0.0922671986384538
000580 4c 99 c0 56 a4 c5 b8 3f a2 2b 83 c0 f4 b9 bb 3f
       0.09676577680565862 0.1083062143326701
000590 98 10 03 dc 08 aa b9 3f 19 7d db f9 11 c3 b6 3f
       0.10025077220331224 0.08891403532060273
0005a0 8f 06 a4 2b 5d 9a b4 3f aa 33 8d 64 d0 54 b3 3f
       0.08048040690848722 0.07551290945884995
0005b0 85 1d 09 b0 98 a7 b3 3f 63 c3 d5 51 31 56 b4 3f
       0.07677606866592697 0.07944019554066765
0005c0 97 9e 39 5c e4 f2 b5 3f 7a b1 3a 0a e4 e3 b7 3f
       0.08573748828495763 0.09332108735788394
0005d0 99 6d bd 23 22 55 ba 3f 1f d9 82 2c 06 55 be 3f
       0.10286153194959126 0.11848486506173515
0005e0 29 b6 2e 20 92 90 bb 3f 6b 03 aa 1b 7e 85 b7 3f
       0.10767472539620172 0.09188068557160782
0005f0 dd c5 92 3a 05 cf b4 3f c2 2a a8 a2 e5 67 b3 3f
       0.08128388099682789 0.07580409260860235
000600 7b 31 63 55 e1 b4 b3 3f 59 3f 0c ac 6d 89 b4 3f
       0.07697876295714494 0.08022199106585272
000610 6c 31 ed b9 03 2a b6 3f 63 e8 45 5f cb 8b b8 3f
       0.08657859124395423 0.09588309360506879
000620 4e 38 fb 85 2c 34 bc 3f 71 05 ea fb 60 90 c0 3f
       0.11017111083057893 0.12940609264846217
000630 50 af d6 47 41 d7 bd 3f 50 fc 57 81 ac 62 b8 3f
       0.1165657806765783 0.09525564344220183
000640 69 50 79 20 27 2a b5 3f 0b 4d 49 c5 88 a4 b3 3f
       0.08267445128268637 0.07672934357224308
000650 04 b6 24 c3 8d e6 b3 3f 46 5b 33 89 c2 d7 b4 3f
       0.0777367211746523 0.0814172348940306
000660 ea be f0 ea bb 67 b6 3f fd 38 be 23 97 28 b9 3f
       0.0875203560433381 0.09827561018594007
000670 a5 09 2e 7b e9 5d be 3f a6 74 0e ce 29 12 c3 3f
       0.11862048394508536 0.14899179993964146
000680 8a 19 07 ea 5b 73 c1 3f af 4d fa e4 9b 15 ba 3f
       0.13633297850737974 0.1018922266032891
000690 3f e1 4c db 88 b5 b5 3f c7 fe e9 da db 61 b4 3f
       0.08480124811183475 0.07961820692616604
0006a0 8e f7 35 b8 88 17 b4 3f c8 c2 46 27 06 8d b5 3f
       0.0784841012700481 0.08418310603043289
0006b0 fd 77 f9 0e db 62 b6 3f e8 94 d6 3e 2b ec b9 3f
       0.08744591823185029 0.10125990184913614
0006c0 05 d5 1a 40 25 7f c1 3f 33 91 24 d9 a3 fb b8 3f
       0.13669267301671809 0.09758972216929322
0006d0 e2 e6 dd a6 45 1d b9 3f 1b a3 f1 e8 b4 4c b9 3f
       0.09810290645500744 0.09882670104128659
0006e0 ba 14 f1 58 9f 52 b9 3f 33 ef 6d 40 50 47 b9 3f
       0.09891696855000279 0.09874440739616545
0006f0 71 66 55 8b f4 44 b9 3f 50 37 02 92 90 33 b9 3f
       0.09870842363070566 0.09844306530632463
000700 9f 51 ec f3 4b 49 b9 3f 11 85 a9 54 af 47 b9 3f
       0.09877466874269779 0.09875007454822461
000710 25 aa 04 a8 a5 48 b9 3f 5e c9 a3 36 b0 40 b9 3f
       0.09876475669867853 0.09864331563929826
000720 3f f7 02 44 2c 57 b6 3f d3 56 02 f2 80 55 b6 3f
       0.08726765308798877 0.08724218281198697
000730 72 5d 47 39 1e ab b8 3f 79 1f 92 12 a3 89 b8 3f
       0.09636105440528356 0.09585017398251051
000740 a3 fb 62 a1 2c b5 b7 3f 28 9e 7b 91 6b f8 b7 3f
       0.09260825100044072 0.09363434125736403
000750 21 54 e1 cc 35 30 b7 3f e1 a0 b0 84 f0 75 b7 3f
       0.0905793786235596 0.09164336432934618
000760 bd e0 d1 31 49 6c b7 3f 48 b0 b6 69 6e 9e b5 3f
       0.09149606195740297 0.08444871979617219
000770 ec e0 07 13 8b 94 b6 3f e1 62 df 2e 10 99 b6 3f
       0.08820409025782155 0.08827305931425712
000780 21 4c e5 14 cc e2 b8 3f 9f 02 bc 86 70 aa b8 3f
       0.0972106505408168 0.09635070123114041
000790 2b 6a e4 5b 80 68 b7 3f d0 a6 97 b8 ce d8 b7 3f
       0.0914383148523618 0.0931519699730885
0007a0 05 9c 50 65 0a cf b6 3f d0 88 6a 32 70 5b b7 3f
       0.08909668897159413 0.09123898726332702
0007b0 dd f8 ea 14 91 39 b7 3f 31 46 96 47 ae 8b b5 3f
       0.0907221485203737 0.08416260955552769
0007c0 f8 0c d5 c7 40 f6 b6 3f f0 5c 95 7e 13 25 b7 3f
       0.08969502333370716 0.09040948715606922
0007d0 aa 9f b9 3e 72 78 b7 3f 85 08 49 83 47 14 b8 3f
       0.09168161422132806 0.09405943827826675
0007e0 25 e7 5b e6 2a 5d b7 3f f0 a6 a7 ed a0 d9 b7 3f
       0.09126537441252631 0.0931644993030678
0007f0 c1 20 56 81 86 e1 b6 3f 3a aa d1 3a 8a e5 b6 3f
       0.08937874467494834 0.089440001831158

count f8 []
000000 00 00 04 40 1b 5f 13 42
       20800000001.0

running_mean f8 [1]
000000 f4 23 02 e0 f6 18 56 40
       88.39006805619266

running_var f8 [1]
000000 c5 15 02 8c b5 bf 7c 40
       459.98182297529667

count f8 []
000000 00 00 10 40 1b 5f f3 41
       5200000001.0

a2c_network.sigma f4 [15]
000000 a6 ab 91 bf 0b 5a 2b bf 30 34 6a bf df c0 bf be
       -1.1380508 -0.6693427 -0.9148588 -0.37451836
000010 ba d3 d5 be 2d 22 1b bf c6 ec c8 be d6 14 d8 be
       -0.41763097 -0.60599023 -0.39243144 -0.42203397
000020 a0 1e f0 be ea a3 38 bf 3c 9a c2 be 64 84 cc be
       -0.46898365 -0.72125113 -0.38008296 -0.39944756
000030 5e 33 16 bf 0c 89 36 bf c8 4f ea be
       -0.5867213 -0.71302867 -0.45763993

a2c_network.actor_mlp.0.weight f4 [128, 361]
000000 91 9b 70 3f 6b e8 4f bf 7e ee c3 bd e1 d2 5a be
       0.93987375 -0.81214017 -0.09566973 -0.21369506
000010 be 9a 92 bf 40 a8 91 be 3b b1 87 be 5c e6 2f be
       -1.1453474 -0.28448677 -0.26502404 -0.17177719
000020 33 bc 64 bf 32 3b 80 be 94 d0 3b bf d5 20 fd bd
       -0.8934967 -0.25045162 -0.7336514 -0.12359778
000030 67 60 90 be 5d 6a ed be 9b 61 90 bf d1 30 da 3f
       -0.2819855 -0.4637021 -1.1279787 1.7046148
000040 89 42 6b 3e f5 33 57 bf ca 44 06 40 42 01 69 3e
       0.229746 -0.84063655 2.0979486 0.22754386
000050 04 80 ec bf 71 81 f5 bd 0b 8e 3c bf bb b3 a2 3f
       -1.8476567 -0.119875796 -0.7365424 1.2711099
000060 ff a7 4c bf 32 89 48 3f a0 88 c1 3f 65 66 78 3f
       -0.7994384 0.78334343 1.511982 0.9703124
000070 56 51 ff 3e a5 89 4f 3f 4a a9 85 be a0 9d 84 be
       0.49866742 0.81069404 -0.2610572 -0.25901508
000080 60 6d 89 bd 0f 68 9d be fb bb a6 bf 4f 27 04 3f
       -0.06710315 -0.30743453 -1.3026117 0.5162248
000090 47 d0 8f bf 51 95 0a be 27 c7 e6 bd f4 58 e5 be
       -1.1235436 -0.13533522 -0.11268454 -0.44794428
0000a0 cf 68 19 be a9 1e 20 bf d6 03 c8 3f ec d2 c6 be
       -0.14981388 -0.62546784 1.5626171 -0.38832796
0000b0 06 9d 99 3e 93 c4 54 bf d1 ed d4 3d 4a 55 6d bf
       0.30002612 -0.8311245 0.103969224 -0.92708266
0000c0 0c 30 04 3e ad d7 b6 3c 3a 3d f6 be 78 61 d0 bf
       0.12908953 0.02231964 -0.48093587 -1.6279745
0000d0 fa 17 35 bf 9a c4 17 bf 70 94 98 3e 58 a0 df be
       -0.7073971 -0.59284365 0.2980075 -0.4367702
0000e0 99 9e 18 bf 40 47 15 bf 7b ea a8 3e 85 8c a8 be
       -0.59617 -0.58311844 0.32991394 -0.32919708
0000f0 99 68 13 bf 64 77 3d be 18 07 b8 bf 62 36 60 bf
       -0.5758148 -0.18502575 -1.4377165 -0.8758298
000100 30 07 24 bc 92 4e b5 be dd 2e 0a bf 76 72 d8 bf
       -0.010011479 -0.35411507 -0.5397776 -1.6909931
000110 07 19 d9 be 9f 3c 32 bf 7f 0a 01 c0 8b b2 e7 be
       -0.42401907 -0.6962375 -2.0162656 -0.45253405
000120 f8 a5 14 3e 3b 7b 88 3e aa a9 a9 3e ec ec 19 be
       0.14516437 0.26656517 0.33137256 -0.15031785
000130 a3 a5 10 be 1f ff e5 3e 6b e0 2d 3e 99 7c 37 3c
       -0.14125685 0.44921204 0.1698014 0.01119914
000140 a2 27 3e 3f f2 1e 0d 3e ef b3 3e bc 66 f7 4e be
       0.74279225 0.13781336 -0.011639579 -0.20211563
000150 aa a5 b1 3c db 37 f3 3d 71 49 ac 3d 29 65 3a bf
       0.02168544 0.11875888 0.08412445 -0.7281061
000160 10 1c 55 bf 62 3b da bd db 23 09 bf 98 af 21 bf
       -0.83245945 -0.106558576 -0.53570336 -0.6315856
000170 74 76 2d 3e 18 16 a3 be 08 d7 c4 be 69 43 0c be
       0.16939718 -0.31852794 -0.38445306 -0.1369759
000180 7b 0c 04 3f 08 0a d7 bd 47 8f 6b be b7 8d 39 3f
       0.51581544 -0.1049996 -0.23003875 0.72481865
000190 e3 34 7a bf 5d dc de 3c 27 37 2f bf c6 e2 38 3f
       -0.9773695 0.027204687 -0.6844353 0.7222103
0001a0 8d b2 f9 be 1a 0f 60 3e 00 d5 02 3f 89 a9 ed 3d
       -0.48769036 0.21880761 0.5110626 0.11604602
0001b0 77 e7 a3 be b5 f9 d3 be 1f b2 3b 3e 1b e5 02 bf
       -0.3201253 -0.4140145 0.18329667 -0.5113084
0001c0 68 79 4d 3f 7e 8f 7a be c4 42 bc 3d 17 03 2e bd
       0.80263376 -0.244688 0.09192422 -0.042483415
0001d0 90 7b cf be 5d 35 6c 3c 9e 42 02 bf af 83 93 bf
       -0.40523958 0.01441702 -0.508829 -1.1524562
0001e0 50 4d 06 bf 8e 0b 09 be e5 67 65 3f c9 56 18 bf
       -0.5246172 -0.13383314 0.89611655 -0.59507424
0001f0 a2 e3 5f be 59 a4 d4 be aa 20 dc be 11 ed 8a 3e
       -0.21864179 -0.41531637 -0.4299367 0.27133992
000200 4c 4d 3e 3f 06 a3 c6 bd 0a 3f eb be fc 03 74 3f
       0.74336696 -0.09699063 -0.45946532 0.9531858
000210 1e 33 54 3e ce a1 46 bd f7 12 cb 3e 37 14 d4 be
       0.20722625 -0.048494153 0.39662907 -0.41421673
000220 57 04 65 3e d5 fe cf be b2 4a 29 bf fa b3 16 bf
       0.22364937 -0.4062411 -0.661296 -0.5886837
000230 20 bd 93 3e c5 d5 11 3f ff 8c d1 3e d9 ab c9 bc
       0.28855228 0.5696681 0.40927884 -0.024618076
000240 3d 40 1a bf aa c9 06 c0 16 69 a5 3c 67 21 63 be
       -0.6025427 -2.1060586 0.02019171 -0.2218071
000250 84 1c d1 be 42 5b 61 3e 6c 20 0e 3f 77 d7 a1 3e
       -0.40842068 0.22007468 0.5551822 0.316097
000260 29 9e b6 3e 2b 92 11 3f e6 5c 8f 3e 43 d0 6b 3e
       0.35667542 0.5686366 0.28000563 0.23028664
000270 cf 63 f2 bd f9 f6 53 bd b0 79 6c 3d 1f 20 87 be
       -0.11835443 -0.051749203 0.057733238 -0.26391694
000280 3f d0 5f be 06 28 e4 3e 5e 5e 4c bf ad 4f 73 3e
       -0.21856783 0.44561785 -0.7983149 0.23760863
000290 11 a0 01 3d 80 66 8d 3e c6 81 2e 3c 07 d2 35 3e
       0.03164679 0.27617264 0.010651058 0.177559
0002a0 14 8b c5 be 03 3b b4 be 26 1b 06 3e 9f 11 59 3f
       -0.3858267 -0.35201272 0.13096294 0.8479251
0002b0 18 ce 2f 3e d2 a2 f5 be b0 68 1d 3e 43 fe 4d 3f
       0.17168462 -0.47975785 0.15371966 0.804661
0002c0 0b 2d 89 bf f0 dc af 3e 74 3c 87 be 0f 4e 49 be
       -1.0716871 0.3434825 -0.2641331 -0.19658683
0002d0 2b 67 10 be 30 2f f8 3d c3 02 48 3e 6a ed ea be
       -0.14101855 0.12118375 0.19532304 -0.45884258
0002e0 11 9e 91 be ce ce 64 be 7b dc 82 3e cc 11 f1 3c
       -0.28440908 -0.22344515 0.25558838 0.029427432
0002f0 22 f2 b0 3e c0 42 a1 be 92 c3 b2 3e 71 b8 be be
       0.34559733 -0.3149624 0.34914833 -0.37250093
000300 99 b5 ec 3e fa 95 d5 3e b9 d4 a5 3e 59 50 64 bf
       0.46232298 0.41715986 0.32388857 -0.891851
000310 ff 95 10 3e b0 d2 75 3e 9f 76 2d 3f dd b2 58 3e
       0.14119719 0.24006152 0.67759126 0.21161981
000320 83 c7 48 3e 04 ed 6c be d7 ee 50 3e 20 55 ec be
       0.19607358 -0.2313729 0.2040361 -0.46158695
000330 74 f8 28 3e 57 e4 29 3e 3d 92 fa 3e 96 ac ad 3f
       0.16501027 0.16591011 0.48939696 1.3568294
000340 28 ad a5 3f 24 80 b1 3e 2c 1c 69 3f f7 7a 7f bf
       1.2943468 0.34668076 0.9105861 -0.99797004
000350 93 a5 d1 be dd 14 df be 5d 3c 7a be 95 aa 47 be
       -0.40946636 -0.43570605 -0.2443709 -0.19498666
000360 e6 88 8a 3f b0 96 ab 3b 45 0f 8f be 01 ea 6b bf
       1.0823028 0.005236469 -0.27941337 -0.92153937
000370 8d da a0 3d b3 49 0e bf 4e 08 19 bf cd 92 3c 3e
       0.07854185 -0.55581206 -0.59778297 0.18415375
000380 75 b2 04 3d 25 b5 17 bf f9 44 a8 3e 38 f1 fb be
       0.032396752 -0.5926078 0.32865122 -0.49207473
000390 c1 38 64 bd 2b 15 60 3d 8b d7 c7 3e b8 c3 77 3f
       -0.055718187 0.054707687 0.39031634 0.9678302
0003a0 4c 40 36 3e ce b0 be be 8b 26 49 bf fd 4f b2 3c
       0.17797965 -0.37244266 -0.78574437 0.021766657
0003b0 57 35 3c 3e 78 32 8b be af c9 b6 3e d3 6d 0d bf
       0.18379723 -0.27186942 0.35700747 -0.55245703
0003c0 44 bc 39 bf 73 e0 a5 3f 33 17 bc bd fd 45 6f 3e
       -0.72552896 1.2959121 -0.091841124 0.23366542
0003d0 0c 0f 30 be da 53 74 3f 9b 77 b2 be 5d 56 bb be
       -0.1719324 0.9544045 -0.34856877 -0.36589327
0003e0 eb 96 f9 bd 4e 99 8d be 1c 90 c4 be 25 85 d3 bd
       -0.121869884 -0.27656025 -0.38391197 -0.1032813
0003f0 bb 8c 1a be 63 d0 06 bf 6a a0 50 3f 73 a6 f8 bd
       -0.15092747 -0.5266172 0.8149477 -0.12141123

a2c_network.actor_mlp.0.bias f4 [128]
000000 0a 37 ff bf 38 3f 41 c0 aa d9 66 be d4 da 24 c0
       -1.9938672 -3.0194836 -0.2254397 -2.5758562
000010 0f 1d 32 c0 79 0c 97 3e 9d bb 81 c0 cf f8 73 bf
       -2.7830236 0.29501703 -4.054152 -0.95301527
000020 47 b8 05 3f 4f 61 39 c0 cf ff fc bf 30 3c e8 bf
       0.5223431 -2.8965642 -1.9765567 -1.8143368
000030 4a 5a e8 bf 24 27 07 c0 4a ac 08 c0 0f ef 09 c0
       -1.8152554 -2.111764 -2.1355157 -2.155216
000040 14 ad 11 be d2 23 02 c0 b8 3c 5b c0 d2 51 28 c0
       -0.1422618 -2.0334363 -3.425581 -2.629994
000050 4a ba 9a bf d8 10 05 c0 62 45 f2 bf 12 e1 3a bf
       -1.2088101 -2.079153 -1.8927424 -0.7299968
000060 6c 54 00 c0 80 0d a4 3d 4c 07 94 bf 03 72 ba bf
       -2.0051527 0.080103874 -1.1564727 -1.4566044
000070 b9 11 c9 bf 99 8a 1a 3e cf 1b 1f c0 8e 96 26 c0
       -1.5708534 0.15091933 -2.4860723 -2.6029391
000080 4c 4d f9 bf f2 10 33 c0 16 fe bf bf 44 01 1b c0
       -1.9476714 -2.7979093 -1.4999416 -2.4219522
000090 c7 c0 1e c0 6d a3 04 3e 88 4d ce bf 3d b1 f4 bf
       -2.4805162 0.12952967 -1.6117411 -1.9116589
0000a0 aa ea b2 bf 6c cc 1e c0 95 fa bb bf 6d 16 4c bf
       -1.3977864 -2.481227 -1.4685847 -0.7972172
0000b0 93 d6 c3 bf bf 3c 9c bf bb 14 33 c0 81 a5 a4 bf
       -1.5299858 -1.2206038 -2.7981403 -1.2863008
0000c0 02 eb 46 c0 5b 48 81 bf fa 21 c6 bf b5 32 3a c0
       -3.1080937 -1.0100206 -1.5479119 -2.909345
0000d0 ac 69 0d c0 4c c9 e2 3e e9 62 a4 bf d8 99 40 c0
       -2.2095747 0.44294202 -1.2842685 -3.0093899
0000e0 bb ef ef bf a4 23 1b c0 04 58 ee bf cd 52 9a bf
       -1.8745035 -2.4240503 -1.862061 -1.2056519
0000f0 18 ff 3d c0 60 c4 43 bf 3a 3f 1b c0 6d ad 84 c0
       -2.9686947 -0.7647152 -2.425734 -4.14617
000100 7f 9c d8 bf 6c 5c 1c c0 38 a4 25 c0 da 00 b6 bf
       -1.6922759 -2.443141 -2.588148 -1.421901
000110 bc a2 2e c0 48 b0 02 c0 21 34 d2 bf 01 f1 86 c0
       -2.7286825 -2.0420094 -1.6422158 -4.2169194
000120 11 31 08 c0 9f ed 34 c0 ac d0 20 c0 b1 46 2e c0
       -2.1279948 -2.8270032 -2.5127363 -2.7230647
000130 39 03 46 c0 83 97 24 c0 71 2e da bf a5 39 41 bf
       -3.0939467 -2.5717475 -1.7045423 -0.75478584
000140 79 35 8d bf be 82 6e bf 23 cc e1 bf fb 2d 39 3f
       -1.1031944 -0.93168247 -1.7640423 0.72335786
000150 66 ae a0 bf 5b 3e 03 c0 be 8d 45 c0 6b 0d dd bf
       -1.2553222 -2.0506809 -3.0867763 -1.726972
000160 4d 22 f0 bf 15 ec 30 bf bf 03 1d c0 74 01 0a c0
       -1.8760468 -0.6911023 -2.4533536 -2.1563387
000170 60 3c fd be ad 4f 77 be b9 b7 02 c0 dd a3 60 c0
       -0.49460125 -0.24151488 -2.0424635 -3.5100014
000180 d7 b6 1d c0 fb 48 ec bf 3b 97 8f bf 16 96 18 bf
       -2.4642847 -1.8459772 -1.1218027 -0.5960401
000190 18 81 1c c0 ff 37 d4 bf 14 31 07 c0 94 e7 22 3d
       -2.4453793 -1.6579589 -2.1123705 0.03977163
0001a0 88 02 87 bf 63 99 08 c0 df 9c 05 c0 a1 6c 21 c0
       -1.0547647 -2.134362 -2.0876997 -2.5222552
0001b0 f6 7c 07 bf 41 2f 4e c0 1d 16 b6 bf 72 3d f7 be
       -0.5292505 -3.2216341 -1.4225498 -0.48289067
0001c0 0d 65 36 c0 a0 69 d5 bf 44 45 1a c0 6e 63 a7 3e
       -2.8499177 -1.6672859 -2.4104776 0.32693046
0001d0 f0 ce 8b bf a3 9e 38 c0 ca 75 42 bf 9f 1d 4c 3f
       -1.0922527 -2.8846824 -0.7596098 0.797327
0001e0 5c 94 d3 bf 25 0d fb bf 80 21 34 c0 58 ff ba bf
       -1.6529651 -1.9613386 -2.8145447 -1.4609175
0001f0 32 f4 78 be 32 c9 1f c0 61 8e de bf 4f e2 31 c0
       -0.24311903 -2.496655 -1.73872 -2.7794378

a2c_network.actor_mlp.2.weight f4 [128, 128]
000000 29 f3 3d be a2 95 0e bc cf 85 bb be c6 b9 5d 3c
       -0.1854979 -0.008702667 -0.36625525 0.013533061
000010 e8 b1 4e 3e a6 69 86 bf 7f fb b7 3e 74 8c 24 be
       0.20185053 -1.0500991 0.35934064 -0.16069204
000020 3e 24 cf be 98 ea 4b bc de d8 27 be 08 ca 52 be
       -0.40457338 -0.012446068 -0.16391322 -0.20584881
000030 e7 2f 8f bd 01 9e 63 be 63 4f bc ba 83 51 82 bd
       -0.069915585 -0.22228242 -0.0014366921 -0.063632034
000040 2d c3 ae be 0c 96 33 be 3e 46 98 3e a8 fc de 3d
       -0.34133282 -0.17537707 0.2974109 0.10888034
000050 af 0c e7 be f4 23 7e be 42 ab ee 3b 60 a6 36 bf
       -0.45126864 -0.24818403 0.007283599 -0.7134762
000060 a8 96 c5 bd ee 7d d0 3c 78 ef bc bd ed d2 fc 3c
       -0.09647876 0.025450673 -0.092253625 0.030862296
000070 ea f8 d5 be 30 fe c8 be 81 4f bd 3d 81 48 c8 be
       -0.4179147 -0.3925643 0.0924368 -0.39117816
000080 04 07 4c be 2f 15 4f bd fa 13 27 bf 75 4d 57 be
       -0.19924551 -0.05055731 -0.65264857 -0.21025641
000090 2a fd bd 3d 8f c0 f6 be 35 8b 05 bd f0 ff 99 ba
       0.09276803 -0.48193786 -0.03260346 -0.0011749249
0000a0 6f 50 4b be ed dc 04 bd 30 17 62 bd d0 bd 2f be
       -0.19854902 -0.032437254 -0.055197895 -0.17162251
0000b0 ee 0e 22 3e e6 9d 28 be b2 65 64 3e bb 2e 1b bf
       0.15826008 -0.16466483 0.22304419 -0.6061818
0000c0 59 4d 29 3e 15 cd c2 be c2 5d ca be 7d fb 23 3e
       0.16533412 -0.3804709 -0.39524657 0.16013904
0000d0 68 46 0e bd ab d6 3a bf fd 0c 13 bf 62 4e ba 3d
       -0.034735113 -0.7298381 -0.57441694 0.090969816
0000e0 fe d0 e9 3d 0e 2b dc 3d 2e 44 93 be 0f 26 a5 3c
       0.11416815 0.107503995 -0.28762954 0.02015975
0000f0 15 43 4a bd 62 61 78 bf bd 4a 21 bd c5 53 8e 3e
       -0.04938038 -0.97023594 -0.039377917 0.27798286
000100 09 d8 06 bf 46 b3 5c be dc e5 da be 23 28 9f be
       -0.52673393 -0.21552762 -0.42753494 -0.3108531
000110 df 8d 4d be da 0e ee be 95 bc 0c bf f7 97 e8 3e
       -0.20073651 -0.46495706 -0.54975253 0.4542844
000120 45 4c 80 3e f2 98 7c 3e 46 3a 05 be 30 54 00 3e
       0.2505819 0.24667719 -0.13010511 0.12532115
000130 d4 a2 99 be 84 14 75 bc a9 27 42 bf b5 e1 38 bf
       -0.3000704 -0.014958505 -0.75841767 -0.722194
000140 91 2d b4 bc 4e ef 2a bf db 0d 17 3d 7e d5 20 bf
       -0.021994384 -0.667714 0.036878448 -0.62825763
000150 76 06 2b bf 6c 87 00 be 8c 5f 55 3e 27 3b 01 be
       -0.66806734 -0.1255166 0.2083723 -0.12620221
000160 46 d6 b2 be d4 d5 09 bf f0 e6 2b be 2f 97 e6 bd
       -0.34929103 -0.538419 -0.16787314 -0.11259305
000170 b9 70 77 be f1 aa 86 be bd 12 8a be 5e ed 71 3c
       -0.24164094 -0.26302293 -0.2696742 0.014766065
000180 d4 3b 77 be a1 f7 12 3e f9 37 eb be 59 5f 30 3c
       -0.24143916 0.14352275 -0.4594114 0.01076492
000190 e6 dd d6 3d 1c bd 31 be 58 a3 85 3d 43 9f 3f bf
       0.104915425 -0.17357296 0.06525296 -0.7485239
0001a0 0d 9d 1a bf 78 9d 4a be 92 43 a1 be 82 e6 c9 bd
       -0.6039589 -0.19786632 -0.31496865 -0.09858419
0001b0 90 f8 a7 be 26 3a 87 3d d4 5e 2c bf c1 52 23 bf
       -0.32806826 0.06602888 -0.67332196 -0.6379815
0001c0 ee f5 8f 3e 85 ca 51 be 83 91 dd bd ae 9c f2 be
       0.28117317 -0.20487411 -0.1081877 -0.47385162
0001d0 bb 45 1c be 99 69 ae bc 33 af 25 bf fd 89 22 bf
       -0.15260975 -0.021290587 -0.6472046 -0.63491803
0001e0 e8 7f a2 be dc ff 33 be 2b 20 a5 be 89 24 70 be
       -0.3173821 -0.17578071 -0.32251105 -0.23451437
0001f0 f9 a8 fc 3d 9b a3 c1 3d ec f5 c8 be 98 d2 d3 3d
       0.123369165 0.094550334 -0.39250124 0.10342902
000200 ab 7c 47 3e bb 36 74 3f 1c 5c ba 3c 4a b6 68 bf
       0.19481151 0.9539601 0.022749 -0.9090315
000210 b6 e8 8f be 8e 16 9f be e0 44 ba 3d a1 4f 92 3d
       -0.28107232 -0.31071895 0.09095168 0.07144094
000220 2a 73 13 bf f3 cc 61 3e 72 91 5c 3e d2 8d 06 bf
       -0.575976 0.22050838 0.21539858 -0.5256015
000230 d6 48 89 bf d5 2b f1 bc 3f 47 1a 3f 6c 32 bd be
       -1.0725353 -0.029439846 0.6026496 -0.3695253
000240 75 78 df be 60 32 ec bd 5b 95 2f bf b6 2c 17 bf
       -0.4364659 -0.11533046 -0.68587273 -0.590526
000250 90 80 9b be 59 77 ce be ea 78 55 be a9 97 00 bf
       -0.30371523 -0.4032543 -0.20846906 -0.50231415
000260 24 a3 26 bc f0 fa b5 be d0 41 2f bf 52 ec fe be
       -0.010170732 -0.35543013 -0.68459797 -0.49789673
000270 9e ad 07 be bb 34 81 3d cb 6b 1f 3f df ff ac be
       -0.13249823 0.06308886 0.62273854 -0.33788964
000280 14 da aa 3e a7 70 4c bd 43 99 a9 bc f5 be fc 3e
       0.33369505 -0.04991212 -0.020702964 0.4936444
000290 d6 5c 22 bf ed 6b 06 bf a6 e0 eb 3e 7c 75 91 3e
       -0.63422906 -0.5250843 0.4606983 0.28409946
0002a0 ce 50 ce be c0 9b 10 bf 7a cb 01 3c 14 e8 2b bf
       -0.40296024 -0.56487656 0.007922048 -0.67151
0002b0 88 80 4f bf e5 ce ca 3e 55 93 4e be 06 03 c2 bf
       -0.810555 0.39610973 -0.2017339 -1.5157173
0002c0 46 5a c7 be a8 16 b2 be 84 aa be 3e 7f 5b ab 3e
       -0.3893606 -0.3478291 0.37239468 0.33468243
0002d0 2e e9 db 3c 6b 33 0d be 07 cc ff be a9 de 88 bf
       0.026844587 -0.13789146 -0.49960348 -1.069295
0002e0 07 b0 f8 3e 26 2f 1c bf 09 50 75 be e4 48 d0 3e
       0.48571798 -0.6100944 -0.23956312 0.4068061
0002f0 b6 a6 1c be 78 35 b6 be b2 19 3a 3e f4 73 de bc
       -0.1529797 -0.35587668 0.18173864 -0.0271549
000300 df a2 be be 12 c2 4e bf 52 32 1b be cf 57 06 3e
       -0.37233636 -0.8076488 -0.15155914 0.13119434
000310 db 84 a0 bd 4b 8b 43 be 1f 5c 58 3e fb b9 e7 3d
       -0.0783784 -0.19096105 0.21128891 0.1131477
000320 aa 00 16 3d 35 b0 ff 3d 9d 7b f2 be c4 4b 06 3d
       0.036621727 0.12484781 -0.47359934 0.0327871
000330 7c b4 2b bf 40 75 9a bf ca fb b2 3e c3 7a 76 be
       -0.6707227 -1.2067032 0.34957725 -0.24070267
000340 b4 2d 60 bf 5b 00 75 3d 2a c9 a2 be 0e 4b f6 be
       -0.8756974 0.059814792 -0.317941 -0.48104137
000350 52 a8 fa be 22 05 e6 be fc 27 2a bf 2c a1 b2 3e
       -0.48956543 -0.4492579 -0.6646726 0.3488859
000360 dd 1e 59 3f 3b 50 f5 be f7 70 92 bd 51 5d f4 bc
       0.8481272 -0.47912773 -0.071504526 -0.029829653
000370 65 c4 12 be 38 59 14 3e 3b 72 18 bf 26 42 31 bf
       -0.14332731 0.14487159 -0.595493 -0.6924156
000380 9c a2 00 be da e8 fe 3e 56 56 0d be e9 e5 91 be
       -0.1256203 0.49787027 -0.13802466 -0.2849572
000390 87 f1 b5 3e da a2 29 bd 8b 89 77 3e 85 e0 29 3f
       0.35535833 -0.041415073 0.24173562 0.66358215
0003a0 9d 4b 0c 3e 98 c8 0b bd f2 12 10 bf de ac 91 be
       0.13700719 -0.034126848 -0.5627891 -0.284522
0003b0 2c 22 c2 bf 36 81 e7 be 60 ac c2 be 83 c8 35 be
       -1.5166678 -0.45215768 -0.38022137 -0.1775227
0003c0 3c b7 03 3f 8d d3 a0 3e ed 36 c1 3e da 8b 8b be
       0.5145147 0.314114 0.37737218 -0.27255136
0003d0 c4 dc 55 bf 86 b6 38 3d 9f 2e 3c 3e c1 40 94 bf
       -0.83539987 0.045095943 0.1837716 -1.1582261
0003e0 09 8b c7 3e 64 d8 2f 3e c0 fc e6 3e 23 51 0d bf
       0.38973263 0.1717239 0.45114708 -0.5520193
0003f0 bb c8 4c 3e cf b5 06 bf 17 38 e2 be 4b 55 dd bd
       0.19998448 -0.5262117 -0.44183418 -0.10807284

a2c_network.actor_mlp.2.bias f4 [128]
000000 30 83 02 c0 37 2c 28 bf 2b 22 82 be 4a c1 33 bf
       -2.039257 -0.65692466 -0.25416693 -0.7021681
000010 0d 0e b6 be 63 83 59 bf 2f 82 c3 be 10 d2 1c bf
       -0.35557595 -0.84966105 -0.3818526 -0.6125803
000020 45 f0 55 bf 53 eb 5b bf 0b a6 39 bf 7a 36 70 bf
       -0.8356975 -0.8590595 -0.72518986 -0.93833125
000030 40 5e 42 bf 9c 4c 29 bf e0 c4 70 bf 46 d5 f7 be
       -0.75925064 -0.6613252 -0.9405041 -0.48404902
000040 8b 87 f3 be e2 bd d7 be 4c 97 c2 be bb bc 15 c0
       -0.4756435 -0.42137057 -0.38006055 -2.3396442
000050 87 a1 11 be eb 0e 11 bf 7e eb 90 be 8e a9 6a bf
       -0.14221774 -0.5666339 -0.28304666 -0.9166497
000060 cf 13 3f bf de 86 76 3e 44 66 ef be af fd cc be
       -0.746396 0.24074885 -0.4675771 -0.40037295
000070 1f 83 56 be da 53 e6 be 27 b3 5b be d2 79 92 bf
       -0.20948456 -0.4498585 -0.2145506 -1.1443427
000080 33 09 64 bf ea 16 ad be 75 10 77 bf 81 54 fd be
       -0.89076537 -0.33806545 -0.96509486 -0.49478534
000090 3c 97 0e bf 6d 76 d1 be 34 2c ea be d6 c2 8f be
       -0.55699515 -0.40910664 -0.4573685 -0.28078336
0000a0 1e fc d4 be 8b 96 1d bf 99 99 99 bf 46 11 09 bf
       -0.415986 -0.61557835 -1.1999999 -0.5354198
0000b0 64 2f ef be dc 36 30 bf 25 cf 0f bf 7d 06 9b bf
       -0.46715844 -0.6883371 -0.5617545 -1.2111355
0000c0 fc 20 42 bf 29 f9 5c bf bd 40 b6 bf 68 60 cf be
       -0.7583158 -0.8631769 -1.4238507 -0.4050324
0000d0 a6 6c ac bf 56 56 f2 be 24 ce 25 be 9a 45 ed be
       -1.3470657 -0.47331494 -0.16191918 -0.46342164
0000e0 23 10 86 bd a5 07 9e bf 7c f1 74 bf 36 bc 19 bf
       -0.065460466 -1.2346083 -0.95680976 -0.6005281
0000f0 f9 87 5f bf be 58 98 be 04 8f 5e bf 8d 86 2f bf
       -0.8731685 -0.29755205 -0.86936975 -0.68564683
000100 29 b5 fd be f4 a6 75 bf 89 c0 f6 bd 32 e8 14 bf
       -0.49552277 -0.95957875 -0.12048442 -0.581668
000110 ca 5f 59 bf 57 23 23 bf 2a 1c ea be ac 77 23 bf
       -0.8491179 -0.637258 -0.45724612 -0.6385448
000120 e4 83 09 bf 0b 9e 5a bf c4 1b 89 be c3 ed 2b be
       -0.53716874 -0.85397404 -0.26778996 -0.16789918
000130 2e 71 65 bf 7d c6 37 bf b0 b2 11 be 04 dc ba be
       -0.89625823 -0.71787244 -0.1422832 -0.36495984
000140 20 3c 03 bf 29 ec ca be d5 03 7e be ac e3 60 bf
       -0.5126362 -0.396333 -0.2480615 -0.878474
000150 60 c4 18 bf 0b 50 7f 3e 78 0d fb be c6 24 9f bf
       -0.59674644 0.24932878 -0.49033713 -1.2433097
000160 12 c9 86 bf be ca eb be 33 10 8e be 2c 32 26 bf
       -1.0530112 -0.46053118 -0.27746734 -0.64920306
000170 9e 67 26 bf 81 e3 69 bf 80 af 4d bf 0a 53 0c bf
       -0.6500186 -0.9136277 -0.80345917 -0.5481421
000180 5a 16 6c bf f5 d0 25 bf 19 35 dc be d9 b1 2e bf
       -0.92221606 -0.6477197 -0.4300926 -0.68240124
000190 cc 2f 6f bf c4 4d 85 bf b2 b8 17 bf e5 90 bd be
       -0.9343231 -1.0414357 -0.592662 -0.37024608
0001a0 80 79 7b bf 27 0e 59 bf 95 fd 13 bf 99 b7 50 bd
       -0.9823227 -0.8478722 -0.5780881 -0.050956342
0001b0 df fc 5e bf fd b4 44 bf e0 9c 00 c0 25 55 84 be
       -0.871046 -0.76838666 -2.009575 -0.2584621
0001c0 f8 92 06 bf d6 16 21 bf b3 0b 18 bf 00 8b 30 bf
       -0.52568007 -0.6292547 -0.5939285 -0.689621
0001d0 94 63 e9 be 80 65 05 bf 56 fd 1c bf ba fc f9 be
       -0.45583785 -0.52108 -0.6132406 -0.48825628
0001e0 c8 21 21 bf 3a 88 d8 be 0f 07 0f bf 9e 8d 3e bf
       -0.6294217 -0.42291433 -0.55870146 -0.7443484
0001f0 fe 09 bf be e7 1a ec bf e1 f5 20 bf cd bf 78 bf
       -0.3731231 -1.844571 -0.6287518 -0.97167665
