python/rlgpu/saved_nn/1234/last_Aliengoep=10000rew=[1188.59].pth (torch, 523930 bytes, 18 tensors)

running_mean f8 [361]
000000 92 f0 07 03 0f 27 b2 bf 8d 9d 7d 99 96 16 8e bf
       -0.0709084875488222 -0.014691521224178295
000010 be 06 7b 1f 66 8b d0 3f 54 29 00 76 24 14 9e 3f
       0.2585082347323854 0.029373712255656173
000020 44 6c f8 a1 b7 d6 c3 bf 67 3a 70 59 17 62 d5 3f
       -0.1549901524420837 0.33411201223581205
000030 e3 87 8e b1 9f 7d d8 3f eb 0c 67 46 07 ac d9 3f
       0.3826674684479469 0.4011247813725293
000040 90 45 b0 02 79 3d e1 3f 2d 86 ba 04 17 57 c5 3f
       0.5387539913664785 0.16672027331246522
000050 fb 45 9a 8f 15 9e bf 3f 24 cd dc 4a 13 28 d5 bf
       0.12350592380450813 -0.330571005924144
000060 af 6e aa 7f 3f ab cd 3f 01 38 da a4 24 86 93 bf
       0.23178857549361484 -0.01906640297107032
000070 c6 3f 12 29 28 ac d3 bf d6 fe a5 f9 84 5b bb bf
       -0.3073826218687795 -0.1068652257436001
000080 e8 f9 9e 2c a9 af c2 3f fd 99 e2 b4 ea aa d4 bf
       0.14598574332008174 -0.3229319349724447
000090 a1 51 42 55 37 96 c8 bf a0 5a 1d cb c4 54 c3 bf
       -0.19208423293151802 -0.1510244361658879
0000a0 44 21 6d 0d 5e 0c d4 bf ea ec f5 b4 a8 e8 d9 3f
       -0.31325484572564144 0.40482537910402405
0000b0 c2 69 6b 22 48 54 ab bf 7f 0c 69 38 5b 16 cd 3f
       -0.053377393914803686 0.2272447610322139
0000c0 c9 a9 42 26 b5 76 dd 3f dd fe 93 b7 16 29 92 3f
       0.4603703378330946 0.01773486609908913
0000d0 e2 5a 9e bc 65 8f c6 3f 3c 0e 60 d2 ec 21 db 3f
       0.17625114164248773 0.4239456228681069
0000e0 47 41 29 1a dc 96 73 3f 70 3a 3b f1 ff 87 c3 3f
       0.00478254296702147 0.1525878837478163
0000f0 cb 2f 5c d8 3d 9a dc 3f 52 ea c4 58 98 a5 b0 3f
       0.44691415909687454 0.06502678076950844
000100 9c 8a 33 44 58 07 bf 3f e5 f4 02 1c 7e 69 e2 bf
       0.12120582261153817 -0.57537751647001
000110 6f 5d d8 3d 05 5e e7 3f 65 41 42 73 28 a2 d7 bf
       0.7302271087564075 -0.36927233939879606
000120 29 5d 81 c1 f4 fc db 3f ab db 2b 7d 72 20 e9 3f
       0.43731421372418083 0.7852108425857883
000130 e5 b6 19 99 3c 09 d6 bf 7c 1f ef 9d 77 09 c9 bf
       -0.34431376410689857 -0.19560141765236583
000140 09 9f fd 6b a2 b0 e1 bf ef 7d 7e b8 9a 64 e4 bf
       -0.5528118237679972 -0.6372808078194206
000150 7b c9 42 2b b4 09 a8 3f e8 5a 8d 75 e7 32 de bf
       0.0469490340050411 -0.47185694198326056
000160 58 a9 bf bb 98 98 d5 bf 15 59 da ac 1e 81 e5 3f
       -0.33743875822860536 0.6720116973909024
000170 46 0c e2 bc 19 04 e0 3f e4 a6 1c e4 05 d0 ef 3f
       0.5005005540009584 0.9941434340773552
000180 99 b0 b5 00 c1 de dd 3f ec 8f ed 56 fa 8b e3 3f
       0.46672082013425037 0.6108371446430261
000190 ed 9c 01 64 ac 81 bf 3f 44 2e c3 37 f4 38 e5 3f
       0.12307240907249524 0.6632023896322115
0001a0 f1 a9 db 66 80 8c cd 3f 23 c2 51 c2 a7 8d a0 3f
       0.23085026762358 0.03233074423849682
0001b0 32 a3 54 78 a8 83 e1 bf 77 f6 dc 6e 80 0d e6 3f
       -0.5473215437133148 0.689148155717432
0001c0 60 17 7d bb ad a4 dd 3f 12 ae 1c 56 37 08 c6 bf
       0.46317618665158555 -0.17212573723496455
0001d0 fd 72 83 2b 37 5d e6 bf 71 3e cd 8f 34 87 d5 3f
       -0.6988788461563612 0.33637727778566445
0001e0 95 f9 4b 37 7c 7c e5 3f ff 6c 6f 13 36 f7 df 3f
       0.6714459495558908 0.499463576297515
0001f0 a0 a3 46 86 4c c7 ef 3f 8b e9 4a 33 fc d5 dd 3f
       0.993078481919941 0.4661856175331642
000200 0f 3a 42 9b 07 87 e3 3f ac bc 7c 36 02 70 bf 3f
       0.6102331192394689 0.12280286627059195
000210 64 4e c6 ba 9f 34 e5 3f b2 73 3e bc 49 8a cd 3f
       0.6626738212530197 0.23078271571730863
000220 14 3c 5a a0 9b 7a a0 3f 1b dc fa 05 c2 7f e1 bf
       0.03218542416026807 -0.5468454472346623
000230 9b e5 29 16 3b 08 e6 3f ed 3f 99 38 b5 9c dd 3f
       0.6885047371753673 0.46268969084940076
000240 86 6f 70 59 29 05 c6 bf 8d f0 81 d5 27 59 e6 bf
       -0.1720325171198704 -0.6983832521505221
000250 65 e8 a7 dc 19 82 d5 3f ae 0e 74 70 1b 6c ca 3f
       0.33606573627878894 0.20642416945348913
000260 d1 24 16 1d 9d 46 cb 3f af 0f 68 d1 1a 4c cb 3f
       0.21309245987166617 0.2132600328915237
000270 db 78 44 8e 21 f4 ca 3f 5e af 0f 3b 53 91 ca 3f
       0.21057528921750798 0.20755997070170457
000280 cc 48 eb 1f 6f 2c ca 3f d9 ad 02 33 15 cf c9 3f
       0.2044810205321198 0.20163216582055446
000290 a3 92 29 a6 d7 f2 c9 3f cc 0e d1 b9 cd 41 ca 3f
       0.2027234612788976 0.20513316701009499
0002a0 dc b9 11 aa 8e a0 ca 3f 92 48 92 42 97 0b cb 3f
       0.20802481941377848 0.21129122496183023
0002b0 54 ce f7 c4 8f 79 cb 3f 6e c5 1e 6c 9b 15 cb 3f
       0.2146472656018995 0.2115968969278969
0002c0 c8 44 53 f0 84 91 ca 3f 4f 49 be 63 73 bd c9 3f
       0.2075658963645195 0.20109407778051966
0002d0 0e c8 50 e1 c6 bf c7 3f b6 0a b8 91 8f 6e c7 3f
       0.18554006578193633 0.18306154837781258
0002e0 30 1b 32 2a 97 67 c7 3f 3c ae 54 8f 7b 33 c9 3f
       0.18284883079851388 0.19688362597058695
0002f0 55 05 df 25 f4 fa c9 3f 0e f5 8a 44 69 b1 ca 3f
       0.20297099923304054 0.20853916022125712
000300 a6 a7 7f 6d 1f 82 cc 3f 6a 45 6b 7f da cb cb 3f
       0.22272103163350926 0.21715861531860564
000310 83 cd fc 96 7c e0 ca 3f 93 65 06 d4 87 94 c9 3f
       0.20997578976094297 0.19984529354841793
000320 30 fe b3 55 a7 16 c7 3f 0b 7f 47 32 f7 bb c6 3f
       0.18037883457871962 0.17761125521700935
000330 26 66 c2 54 4e 90 c6 3f 6b 2b 89 8b 22 c3 c8 3f
       0.17627886904374285 0.1934550458266487
000340 f4 c0 75 62 f4 fa c9 3f a4 ad 57 fb bc 48 cb 3f
       0.20297102744689932 0.21315729401190453
000350 1f 91 02 38 97 b1 cd 3f 85 96 ca 1c 63 b0 cc 3f
       0.23198213801254838 0.22413290887668694
000360 ca 05 a8 75 03 d2 ca 3f 6a 56 6d d9 5b 9b c8 3f
       0.20953410382212062 0.19224117390210732
000370 a1 ad 9c 2e e6 d7 c6 3f 02 54 0b e9 7a 68 c6 3f
       0.17846371913888695 0.17506348017801093
000380 90 80 c4 4d be 24 c6 3f b6 bd 67 05 7e 92 c7 3f
       0.17299631879086919 0.18415808929374372
000390 a6 65 cb f5 75 b7 c9 3f 60 da 5a 1f b1 0c cc 3f
       0.20091127874074494 0.2191373255825111
0003a0 6f b2 8f c5 0d 0c cf 3f 10 12 ba e6 0b ad cd 3f
       0.2425553526549211 0.2318434597583665
0003b0 db 3d 33 3e f2 26 cb 3f 01 e0 61 5f 3e 8d c8 3f
       0.21212604558102907 0.19181041390743306
0003c0 ae 02 11 e7 e7 ce c6 3f 20 c5 83 61 54 44 c6 3f
       0.17818926603833546 0.1739602543016554
0003d0 c4 1d 80 0e 37 04 c6 3f 8a 34 c7 e6 60 5e c7 3f
       0.17200363357572546 0.18256770389999516
0003e0 25 c5 a0 13 3b ec c9 3f bf 37 2b a5 0e f4 cc 3f
       0.20252169092558706 0.22619803490527876
0003f0 64 a4 29 9f fc 48 d0 3f 70 12 9e f6 09 c2 ce 3f
       0.2544547609637162 0.24029659788006397
000400 4e 01 de 83 ba 72 cb 3f a0 5f aa 22 52 90 c8 3f
       0.21443873823956 0.1919043225541346
000410 5b 2c 54 6b 9f e3 c6 3f 22 ce 51 41 51 39 c6 3f
       0.1788214944902816 0.1736241883223651
000420 66 3a b8 49 6e 0c c6 3f 1b b5 e4 0c b0 48 c7 3f
       0.17225435828773356 0.1819057524639128
000430 29 25 a1 ea c7 2e ca 3f 3e eb ce 30 61 fe cd 3f
       0.20455264050023317 0.23432555087296153
000440 a1 69 65 3b e7 09 d2 3f 2e df c6 7f bd b3 d0 3f
       0.2818544464149913 0.26097047308165855
000450 34 74 ae 75 ea bb cb 3f 89 01 3b 42 85 3b c8 3f
       0.21667223688283033 0.1893164227858615
000460 7d cc 45 ce a9 2b c7 3f 02 e7 06 95 41 d0 c5 3f
       0.1810199982824975 0.17041797424990796
000470 69 e3 a2 ed 95 57 c6 3f ea e7 8d 87 3a 08 c7 3f
       0.1745479021390353 0.1799386178861931
000480 9c 47 d4 43 2e ab ca 3f e0 ec a4 6e d8 54 d0 3f
       0.20834902107213515 0.25517855458356387
000490 c2 32 1f a6 2e e8 c7 3f f3 50 39 fc ac 9e c8 3f
       0.18677313910884236 0.1923423987924547
0004a0 f8 5d 07 04 d7 76 c8 3f 66 04 cc 90 ec 26 c8 3f
       0.19112670609204918 0.18868786878741445
0004b0 a6 a5 f6 04 cc e8 c7 3f 8f 03 05 e8 e7 ae c7 3f
       0.1867918991313619 0.18502520398217512
0004c0 d5 7a ba f9 9e 95 c7 3f 1b 75 7f 7d 4e e3 c7 3f
       0.18425357049723937 0.1866243469984646
0004d0 6a b3 8b 3b 49 34 c8 3f 26 66 d5 cf d6 6e c8 3f
       0.1890956440687675 0.1908825411617709
0004e0 21 7d eb 37 36 a4 c8 3f 48 12 97 25 49 f1 c8 3f
       0.19251134615385815 0.19486345611052713
0004f0 45 e8 0b b3 66 33 c8 3f b3 68 b6 97 9b 66 c7 3f
       0.18906863920693887 0.18281884105528476
000500 1a 55 f4 dc f0 d7 c6 3f 40 b3 9f 15 bf af c5 3f
       0.1784649924162885 0.1694258552155592
000510 b5 3b 40 32 5d eb c5 3f e2 75 cb 4c 4d 30 c6 3f
       0.17124524072320715 0.1733490586256457
000520 95 97 b7 92 fe b8 c7 3f e7 bb 15 21 10 3a c8 3f
       0.18533308185504596 0.1892719422862392
000530 f0 48 8d 4b 1d 9e c8 3f 2d 44 26 c2 65 2a ca 3f
       0.19232526959473928 0.20441886882739038
000540 82 f2 dd ea 81 d5 c8 3f fa a5 a7 db e7 81 c7 3f
       0.19401573150743806 0.18365190720878372
000550 a1 07 99 3d 1e 8f c6 3f aa 0c c5 ee 6d 1f c5 3f
       0.17624261863425963 0.1650216499202533
000560 9b e9 d2 aa b0 97 c5 3f 6b 50 19 15 de f6 c5 3f
       0.16869171467790242 0.17159629850596345
000570 28 e1 cc f6 14 d2 c7 3f 1e 0a 83 62 48 aa c8 3f
       0.18609869051739136 0.1926966172232633
000580 14 4e 68 0b 2d 7b c9 3f 2f 2d 92 64 a7 da cb 3f
       0.19907153183940862 0.2176102868146272
000590 77 09 bd b2 5c e6 c9 3f bc 3c 16 7a 52 86 c7 3f
       0.20234259345495406 0.18378668748161953
0005a0 0a d1 02 aa 98 bb c5 3f 77 7a 2b 6b 64 e7 c4 3f
       0.16978748608892885 0.16331153138067453
0005b0 33 91 a9 63 66 6c c5 3f d3 f0 11 25 80 f8 c5 3f
       0.16737060419394253 0.1716461354261641
0005c0 5e bf b2 02 b5 34 c7 3f 3a 45 05 29 bf d0 c8 3f
       0.18129599220037113 0.1938704443260038
0005d0 e4 e0 fe a7 0b ab ca 3f 17 24 fb 67 00 19 ce 3f
       0.2083448953906163 0.23513798787306037
0005e0 2d 17 3f c5 8e 61 cb 3f 73 39 f6 c9 27 01 c8 3f
       0.21391472464727582 0.18753526078621582
0005f0 03 3b 0c c7 4d ca c5 3f a6 3a a9 e0 fa df c4 3f
       0.17023632258538876 0.16308532686021698
000600 c0 72 b5 44 7e 65 c5 3f d1 69 c0 c5 b2 17 c6 3f
       0.16715982775612837 0.17259821563568647
000610 cf 12 ec e8 bc 58 c7 3f d7 13 77 37 e9 48 c9 3f
       0.18239556668426934 0.19753756721743684
000620 5f a8 ca 1c b9 2b cc 3f f1 c6 e2 09 a6 51 d0 3f
       0.22008432298509015 0.25498343434729437
000630 b6 80 ec 9d ef 4c cd 3f b0 70 4f d2 cf 93 c8 3f
       0.2289104004967208 0.1920108582406832
000640 0b de 1f 7b 9a f7 c5 3f bd 70 cc 0a be fc c4 3f
       0.17161875736177054 0.1639630844810024
000650 58 a8 1c cd f3 76 c5 3f eb a9 54 94 1d 49 c6 3f
       0.1676926375888026 0.17410630934439494
000660 48 00 9d 41 33 7d c7 3f 31 55 04 ad ef b0 c9 3f
       0.1835083074929591 0.20071216533748662
000670 c3 35 06 d5 29 07 ce 3f 0c c4 11 9d 1b b5 d2 3f
       0.23459360982489671 0.2923039468651616
000680 e1 57 3a ce 19 f9 d0 3f 03 0f 92 0d 07 ac c9 3f
       0.2652039064354295 0.2005623642218027
000690 10 a1 e3 55 01 2d c6 3f c1 80 c0 d1 f0 6d c5 3f
       0.17324845022017898 0.16741762391848705
0006a0 36 0b 71 b7 1d 67 c5 3f f3 0d 0a e8 f0 bf c6 3f
       0.167209353037913 0.17773257570307485
0006b0 7c cb bd 71 8e 4a c7 3f 54 e9 40 86 74 05 ca 3f
       0.18196278146532652 0.2032914786848986
0006c0 6d d5 8b de c7 1f d1 3f 5a 96 ae 12 43 af c7 3f
       0.2675647424033148 0.18503607189375054
0006d0 59 58 9b c3 e9 9d c7 3f 50 97 04 a1 7e c5 c7 3f
       0.18450662661661246 0.18571455824092675
0006e0 ee 90 3f dd 62 d5 c7 3f a1 2c b7 03 c4 ca c7 3f
       0.1861995296777716 0.18587541753217798
0006f0 4c 6e 86 32 22 ce c7 3f 09 08 b1 b7 21 c8 c7 3f
       0.18597819773718738 0.18579503506958897
000700 d3 46 cd fd 6b e8 c7 3f 79 a0 7e ed 9a f6 c7 3f
       0.1867804517046837 0.1872132930413988
000710 78 22 3f 64 56 fc c7 3f 99 e1 19 9f ce d7 c7 3f
       0.18738822836737135 0.18627341049774485
000720 ac 4f 43 cb f2 56 c4 3f 50 1a 98 b0 93 4f c4 3f
       0.158903455018501 0.15867849467049888
000730 8a 21 5b f0 29 ec c6 3f c1 0c a4 eb cd d9 c6 3f
       0.17908214794284688 0.1785218620862903
000740 d8 72 08 e2 e3 81 c6 3f ab 00 ab 77 fc ea c6 3f
       0.1758389333416719 0.17904620974696192
000750 d1 8f 47 cf d4 3f c6 3f 65 3c fe 7b f0 4b c6 3f
       0.17382297631331636 0.17419248632765796
000760 70 ee bd a3 d2 45 c6 3f 32 be 75 94 76 f6 c3 3f
       0.1740058230897037 0.1559589600469607
000770 3b 89 ee 79 bf 41 c4 3f f0 ce c6 c4 c3 37 c4 3f
       0.15825646833133952 0.15795180423958
000780 45 6f 3c 77 d4 bf c6 3f 97 43 3d 0a 14 ac c6 3f
       0.17772918531488294 0.1771264123913425
000790 c4 3b 9f 59 38 1d c6 3f f6 e8 2e f7 f9 cd c6 3f
       0.1727667272193384 0.1781609017323899
0007a0 61 a3 59 44 ce d9 c5 3f fc 61 7a 03 52 04 c6 3f
       0.17070940339479093 0.17200684709383995
0007b0 51 8f 67 32 3f e0 c5 3f 81 ec c8 62 8b ba c3 3f
       0.1709059711566803 0.15413038562278206
0007c0 68 61 2c 59 52 4c c4 3f 3a a9 16 76 6c 5e c4 3f
       0.15857915262382538 0.15913158193627358
0007d0 9e 04 dc b2 13 e5 c4 3f 3d 60 4f a6 69 03 c6 3f
       0.16324087365504608 0.1719791471539355
0007e0 1b d8 e2 1a d2 eb c5 3f 58 87 40 1b b2 c3 c6 3f
       0.17125917733000126 0.1778471596781468
0007f0 f3 0a 73 fc 0c c4 c5 3f dc 9d 4e 16 88 90 c5 3f
       0.1700454933798806 0.16847325410093006

running_var f8 [361]
000000 ae 50 6e ba 95 e2 9b 3f 7d 37 91 37 ea 30 04 40
       0.027231540206756825 2.5238842335883747
000010 f4 1e db cc c9 82 c0 3f 6d d5 59 60 14 46 1a 40
       0.12899134161693093 6.568437104685796
000020 2b 67 41 ae ca 55 bb 3f 0b 4e db 0b 48 7a cc 3f
       0.1067778277805728 0.22248173312128502
000030 20 2c b6 aa e7 3c ce 3f 1f be 6d 5b ab bf ce 3f
       0.23623367152717467 0.24022428478518607
000040 00 35 85 83 ce ce cf 3f f0 0a 5f 26 8d 73 98 3f
       0.24849873945132828 0.023878293482776536
000050 24 0b 31 21 fc 0c 70 3f 25 70 5f d5 6c 21 79 3f
       0.003918633347953091 0.00613539231377661
000060 2a 29 7b 47 e4 b0 92 3f 57 18 54 3b d8 fa 75 3f
       0.018252913344249645 0.0053661772301492805
000070 89 1f 73 a2 2a 6d 74 3f dc 16 de 4f a1 6a a2 3f
       0.004986921826635079 0.03596977329202186
000080 b6 96 17 95 e6 a7 6e 3f fc f5 d3 91 a5 b5 6a 3f
       0.003742170673592361 0.0032604440481225332
000090 58 37 84 4c 7c b7 99 3f cc 48 bb 0a f4 11 6b 3f
       0.025114004297442122 0.0033044592326883834
0000a0 70 55 38 90 e0 2c 64 3f 8b 05 c9 74 dd b1 1d 40
       0.002462805366813363 7.423696350831402
0000b0 0a b9 d3 e8 63 83 fe 3f d4 d7 ee 33 49 e6 0b 40
       1.9070777029806458 3.487444310881054
0000c0 f3 aa 1d 44 68 53 16 40 d3 47 da 09 fe 8e f7 3f
       5.581452431021478 1.4724102387303801
0000d0 7d 1d f6 c8 d0 c7 0a 40 45 80 c6 e1 9e c4 14 40
       3.347566194544639 5.192012336483519
0000e0 84 75 13 4a b7 a6 f5 3f f9 ed c7 cc 12 de f7 3f
       1.3532021421045508 1.4917171477562745
0000f0 65 8e 9a 35 12 0a 0a 40 42 1d 30 34 d6 1b ea 3f
       3.2549175441543405 0.8158980387969808
000100 d7 31 26 a3 48 3c ec 3f aa e0 06 ea d8 02 27 40
       0.8823588549144529 11.505561173762846
000110 cb d0 31 c9 af 4c 28 40 0f 2e 22 3b b2 84 25 40
       12.149778640109067 10.75917229454265
000120 78 d0 71 5e 55 56 25 40 a2 0e 75 47 3d 99 27 40
       10.668620063203193 11.799295647658543
000130 6b 31 d5 c8 19 a9 20 40 be 75 17 a6 d3 23 24 40
       8.330274845146695 10.069974127162705
000140 96 42 81 df ab dd 23 40 b5 d2 64 d2 5b 8a 21 40
       9.932951912430593 8.770231795127396
000150 58 21 2a d9 ec 50 20 40 be bd 49 ff ed c3 1e 40
       8.15805700911794 7.691337574840359
000160 5c 5e 1a 5e 31 42 1d 40 99 8b 28 ce a7 1d d5 3f
       7.314641447410022 0.3299350274339133
000170 36 83 21 52 bc b0 da 3f f3 24 a9 89 1f 26 72 3f
       0.41703708668324013 0.004430888361249818
000180 41 4e 0f f1 e9 78 e1 3f df 97 6e a7 23 ee da 3f
       0.5460099895667058 0.4207848677709744
000190 29 21 4c d6 48 80 e6 3f 45 16 d8 61 f0 f9 d7 3f
       0.7031597314353678 0.374630065489644
0001a0 08 05 d1 cd 8f 7b e5 3f b6 b0 0f 6d 45 3b e7 3f
       0.6713332195141968 0.7259852533438991
0001b0 4f b4 62 44 29 0b df 3f 8f e6 06 2a 6f cf d5 3f
       0.4850562255695125 0.3407857809466827
0001c0 d0 e6 57 af 08 f8 e1 3f e7 5a ed f8 0c 9f e5 3f
       0.5615275787997351 0.675665365396381
0001d0 03 b5 02 fb 50 e3 d1 3f 41 ed b0 3e bf 2a e4 3f
       0.27949928772689264 0.6302181457935278
0001e0 01 2d 60 43 f2 1c d5 3f 56 68 68 c0 ca b8 da 3f
       0.3298917444196406 0.41752880849674534
0001f0 3c 5e 7e e2 10 77 76 3f ee cf 43 72 09 76 e1 3f
       0.005484643894213156 0.5456588012443697
000200 34 5d f8 e4 d7 eb da 3f c4 cf ba 31 3e 7a e6 3f
       0.4206447349583471 0.7024222346576541
000210 6a e1 40 0e 26 f7 d7 3f d2 84 ab c4 2c 75 e5 3f
       0.3744597567743059 0.6705535737238739
000220 d5 b9 db d9 d1 34 e7 3f 1e 3c 60 e1 22 06 df 3f
       0.7251977210087782 0.484749527066869
000230 b3 80 2f 54 57 cf d5 3f ad 30 81 c0 b5 f4 e1 3f
       0.34078009816404203 0.5611218223434854
000240 25 54 4c aa e4 98 e5 3f e1 36 28 02 3c e1 d1 3f
       0.67491372357711 0.27937221727994027
000250 1d a9 c7 fb ce 25 e4 3f 31 99 01 7c 79 9b b8 3f
       0.6296152989937444 0.09612235333915888
000260 6b 57 a3 06 5a c3 b9 3f 85 c8 56 62 df c6 b9 3f
       0.10063707983075935 0.10069080496649192
000270 79 61 f9 b8 78 56 b9 3f 43 f6 36 3b bb cd b8 3f
       0.09897570148439695 0.09688921161338108
000280 a9 fa 87 64 4b 44 b8 3f 30 f5 83 2a 0b d2 b7 3f
       0.09479209141134483 0.09304876125311945
000290 f9 c0 b9 8d 37 f3 b7 3f 91 6a 2f 90 3a 58 b8 3f
       0.093554946995713 0.09509626407763451
0002a0 65 b4 80 72 0e dd b8 3f 4e a5 f3 ea a7 6f b9 3f
       0.09712305350758894 0.0993599842655801
0002b0 98 97 50 f0 f2 98 ba 3f 48 66 60 f0 a4 34 ba 3f
       0.10389631621418827 0.10236578816002251
0002c0 7e 4b 32 31 f9 44 b9 3f 2b a9 0b 3b b7 20 b8 3f
       0.09870870066724355 0.09424920264760732
0002d0 cf 51 8a 7c 8e a6 b5 3f 91 b1 68 b8 11 0d b5 3f
       0.08457270184073383 0.0822306704728304
0002e0 ba 33 86 b4 d8 31 b5 3f a6 7f aa fa 0b 76 b7 3f
       0.0827918472989059 0.09164500112319604
0002f0 cd cd f5 20 a8 8e b8 3f e5 61 e7 8e b8 b9 b9 3f
       0.09592676930133522 0.10049012650359364
000300 a8 a1 65 68 a8 19 bc 3f 70 7d df 27 8c 5b bb 3f
       0.10976650761370499 0.10686565373861412
000310 c9 6a 70 97 25 db b9 3f d2 6d bf 67 1e 1a b8 3f
       0.10100016543621416 0.0941485408106282
000320 28 ab 93 d5 c2 f1 b4 3f 04 9d a2 ea 84 3a b4 3f
       0.08181398119237981 0.07901793220900194
000330 e8 ec 3d 61 cb 3e b4 3f e1 ed 06 35 18 12 b7 3f
       0.07908316730565768 0.0901198510609258
000340 bf 4f 4f 3d 92 c4 b8 3f 60 2c 4a a0 67 bb ba 3f
       0.09674943920918987 0.10442207015346261
000350 cc 87 c1 53 3f c0 bd 3f 59 4e 28 23 49 ad bc 3f
       0.1162147120935792 0.11201912983261177
000360 76 16 6a 9c c8 31 ba 3f cd f0 a4 5f 6e 28 b7 3f
       0.10232213801108422 0.09046068034234907
000370 31 5f 36 83 47 c0 b4 3f ff 71 82 bc 81 e4 b3 3f
       0.08105894998004427 0.07770548679622634
000380 db 05 88 cf ab ce b3 3f 1f c7 d6 23 99 c6 b5 3f
       0.07737230126078691 0.08506161808943745
000390 37 b4 b8 89 6a cb b8 3f 5b 06 a0 e6 c5 e7 bb 3f
       0.09685388433781915 0.10900532608504802
0003a0 10 94 db 75 7e 8e bf 3f b6 df 84 a9 41 12 be 3f
       0.12326803567300737 0.11746607197426226
0003b0 02 6c de 82 0b cf ba 3f 6d 96 ef 2f 63 40 b7 3f
       0.10472175545730525 0.09082622452077667
0003c0 3c b9 12 1e 74 d3 b4 3f 58 00 27 12 1d d0 b3 3f
       0.08135152563292974 0.07739431088612159
0003d0 95 83 51 ba a7 bb b3 3f 9f 7e 72 06 a3 a1 b5 3f
       0.07708214091100125 0.084497632097277
0003e0 df 8f 23 77 e2 3c b9 3f 84 5a 14 da 9e 36 bd 3f
       0.09858527573265928 0.1141146929188413
0003f0 44 9d 04 b4 db c0 c0 3f 83 7f f8 74 10 89 bf 3f
       0.13088556566183673 0.12318518501024127
000400 f2 da 2e 7e 8c 5e bb 3f 0f fe b2 e3 0d 6d b7 3f
       0.10691145020141926 0.09150778588354334
000410 92 7b 86 8a 39 0d b5 3f fe 45 3f 92 63 e2 b3 3f
       0.08223304397550482 0.07767317123877857
000420 21 e0 57 ee ed db b3 3f 1a 8f 5c 68 ea a1 b5 3f
       0.07757460659911476 0.08450188682450879
000430 40 6c 6a fe 61 ba b9 3f c3 12 4f a5 ed a4 be 3f
       0.10050022565194272 0.1197041061960347
000440 dd 8b da 97 69 d9 c2 3f 95 a1 25 a7 15 6a c1 3f
       0.1472599021409157 0.13604994451021626
000450 a4 c3 2e e4 f5 31 bc 3f 7c 83 08 4d ec 78 b7 3f
       0.11013733692995104 0.09168888931936964
000460 dd b5 02 77 b2 a6 b5 3f c1 1c 24 e1 05 d2 b3 3f
       0.08457484632045671 0.07742344614608766
000470 f9 bb 38 7d 76 67 b4 3f 96 fa 8c ae ab a2 b5 3f
       0.07970371777695097 0.0845134068631331
000480 e9 92 ed e5 2d ad ba 3f 01 47 12 fb 9f ff c0 3f
       0.10420500625111696 0.132801053613143
000490 23 89 ed 9f 63 98 b5 3f eb db 7c 82 46 a6 b6 3f
       0.08435652403344256 0.0884746616910516
0004a0 21 cd 97 31 ae 66 b6 3f 23 38 5f 61 ba ef b5 3f
       0.08750427923932992 0.08568920972103959
0004b0 c6 b1 e5 64 9f 8b b5 3f b2 a1 7c f6 ab 39 b5 3f
       0.08416172231017702 0.08291125076050923
0004c0 bb c8 d0 12 4a 25 b5 3f 75 9c 29 5e b2 86 b5 3f
       0.0826002403198655 0.08408655928507065
0004d0 de fa 10 56 7f fa b5 3f b8 51 24 a6 29 58 b6 3f
       0.08585353709439 0.08728275591085477
0004e0 d3 65 92 ea 52 a7 b6 3f 4a 1c df 76 7c 9d b7 3f
       0.08849065996982768 0.09224679853569842
0004f0 e6 01 fc cc c1 bd b6 3f 1c 55 aa 3b 05 71 b5 3f
       0.08883296255590487 0.08375580507921082
000500 ab d7 68 0a 84 8f b4 3f 27 5c db cc 3d fb b2 3f
       0.08031487707270794 0.07414613963497683
000510 07 52 eb df 00 1f b3 3f d7 10 19 7a 4c b8 b3 3f
       0.07469182459619371 0.07703092556863865
000520 f9 44 f1 7e c3 c0 b5 3f f2 70 1d b8 51 88 b6 3f
       0.08497258996182556 0.08801756615634185
000530 1e 76 bc 9b 35 4c b7 3f 6b 3f 6b ba 93 75 b9 3f
       0.0910066132750775 0.09945033360713544
000540 f5 d9 15 70 4b e6 b7 3f fa cd 1b b9 3c d0 b5 3f
       0.09335776792963897 0.08520869750264373
000550 99 0b ce b5 78 5c b4 3f 17 1d 7e 9b 10 5e b2 3f
       0.07953600348086666 0.07174781604964085
000560 a2 e3 f7 7b df c3 b2 3f ac 6c a8 39 1b 95 b3 3f
       0.07330128456659549 0.07649393232024931
000570 9a 2d 77 2a 0f 11 b6 3f b1 a9 51 cb 2d 50 b7 3f
       0.08619780337101304 0.09106718267290749
000580 53 e5 5b 1d fd b5 b8 3f 7e c8 dc 99 53 d4 bb 3f
       0.09652692763110808 0.10870859629065596
000590 98 0a ea 69 b8 8c b9 3f 2f 54 45 1a 17 2f b6 3f
       0.09980347238346565 0.08665604010941828
0005a0 aa e6 58 c9 1e 79 b3 3f 91 33 be 36 e0 30 b2 3f
       0.07606689849572015 0.07105828606127164
0005b0 68 29 d3 e7 68 a5 b2 3f ae 0b c1 78 54 be b3 3f
       0.07283645305429831 0.07712295482728734
0005c0 48 3b d0 45 e6 85 b5 3f 39 8a d6 92 63 df b7 3f
       0.08407439426831076 0.09325239500916717
0005d0 7d f9 be ad 39 79 ba 3f 14 92 94 85 4e c1 be 3f
       0.1034122513947064 0.12013712655295478
0005e0 2a ad 18 a0 ae a7 bb 3f 1f 0f 94 ba de 04 b7 3f
       0.10802737625697448 0.0899180608285488
0005f0 49 b1 fd a2 40 af b3 3f 64 4e 1a 88 b5 43 b2 3f
       0.0768928907324994 0.07134565899678474
000600 c7 d3 0b 82 30 bd b2 3f a3 65 16 63 64 0f b4 3f
       0.07319930243450222 0.07835986537101873
000610 64 e4 d6 67 ee df b5 3f 5b 2d fa 3e db ae b8 3f
       0.08544817004339361 0.09641809737711553
000620 bd 77 bb 3d 73 90 bc 3f 6d 16 92 58 82 ef c0 3f
       0.11157913453231934 0.13230923962344168
000630 47 26 0c b8 c8 2f be 3f 5c 7c 18 a9 8e f4 b7 3f
       0.11791662686678094 0.09357539776145657
000640 0d 94 78 34 c4 0e b4 3f 73 11 99 69 9c 85 b2 3f
       0.07835031777410979 0.07235124185632973
000650 98 81 88 74 12 fb b2 3f ed c8 f9 ff b6 77 b4 3f
       0.07414355607079981 0.07995170354277877
000660 9e 2f 73 51 1a 3c b6 3f e4 c6 8f 2c 9e 68 b9 3f
       0.08685459602855736 0.09925259197168718
000670 34 53 21 eb 29 fc be 3f a0 ba 33 99 c3 9e c3 3f
       0.12103521337969597 0.15328259449548387
000680 89 92 1d f8 85 d6 c1 3f 2e 42 a4 23 f0 cb b9 3f
       0.1393592320920514 0.10076809759289837
000690 fc c7 fb 50 2d c3 b4 3f 3b 27 93 ca 06 52 b3 3f
       0.08110316493164754 0.07547037549661877
0006a0 ec 6d 05 22 ce 5a b3 3f a9 71 1d 89 47 5d b5 3f
       0.07560432749362861 0.08345458123716888
0006b0 02 3f 80 39 10 78 b6 3f 63 c0 b2 9e 24 5c ba 3f
       0.08776952174980227 0.10296849131077716
0006c0 03 8a aa fe c0 01 c2 3f 6b d3 0b fa 48 2c b9 3f
       0.14067852434989456 0.09833198647159029
0006d0 a3 2b 33 b8 5c 3c b9 3f 19 25 a7 13 c1 5e b9 3f
       0.09857730385844703 0.09910208444411629
0006e0 ff bc cc 38 65 65 b9 3f 3b 17 3a d7 65 50 b9 3f
       0.09920342098915923 0.09888302330554392
0006f0 ee ed 42 4e c3 4f b9 3f 41 bd c7 2d 7a 4e b9 3f
       0.09887333546333085 0.09885371797257837
000700 3a 3e 9a f8 a9 76 b9 3f 51 c3 65 68 53 8e b9 3f
       0.09946691817662492 0.09982796953933117
000710 8a d1 29 5d 49 9b b9 3f ab 16 a1 11 8d 78 b9 3f
       0.10002573513503968 0.09949571304704345
000720 70 e2 dd e3 9e c2 b5 3f 04 62 3d 11 ff b8 b5 3f
       0.08500092566635842 0.08485407038586606
000730 21 16 40 19 aa 92 b8 3f 1e 8e 99 56 8d 69 b8 3f
       0.09598792187178919 0.09536059726956878
000740 a4 ed 73 2d 1a f5 b7 3f 3a 7d a5 cd c8 5f b8 3f
       0.09358371362389178 0.09521155377068605
000750 90 66 a4 dd 56 df b7 3f 43 fd cb 7d 90 0d b8 3f
       0.09325163756548194 0.0939569766160178
000760 07 23 c0 c8 66 11 b8 3f fc 44 6a 10 c8 6d b5 3f
       0.09401552582870575 0.0837063827587094
000770 15 2c 12 d7 56 d9 b5 3f 7d 3a 03 0d d8 cf b5 3f
       0.08534758330112908 0.08520269696894363
000780 0f 7f 7b cd 8f 93 b8 3f 41 26 82 65 e8 5c b8 3f
       0.09600161329899158 0.09516766050560312
000790 eb 25 8a 4f bf 9d b7 3f 9e 97 4e 49 f0 55 b8 3f
       0.09225078288923043 0.09506131925317482
0007a0 95 36 c9 30 9e 9a b7 3f f1 f9 a7 ec 34 f9 b7 3f
       0.09220303240837276 0.09364634301889631
0007b0 85 eb d9 01 48 db b7 3f 00 cc 95 35 6c 58 b5 3f
       0.09318971677013906 0.08338047321539932
0007c0 b7 81 f0 22 9e 14 b6 3f b8 85 54 ec 20 31 b6 3f
       0.08625210145010596 0.08668714303759983
0007d0 09 a3 8c 8b 90 b1 b6 3f 55 9f 55 cd d6 c2 b7 3f
       0.0886469212242781 0.092816758280262
0007e0 ab f2 f6 8d 58 85 b7 3f 1d fa af 67 26 68 b8 3f
       0.09187844720777132 0.09533920318060791
0007f0 97 9c 02 84 5b b3 b7 3f 61 7d 83 98 8a a9 b7 3f
       0.09258052800088233 0.09243074630238858

count f8 []
000000 00 00 04 00 65 cd 1d 42
       32000000001.0

running_mean f8 [1]
000000 fc 62 7e 7a e7 bb 56 40
       90.93600332586715

running_var f8 [1]
000000 a4 d9 33 27 2d 5c 7a 40
       421.76102371458023

count f8 []
000000 00 00 10 00 65 cd fd 41
       8000000001.0

a2c_network.sigma f4 [15]
000000 ce 0c 97 bf e1 96 b4 bf 8e 6b 98 bf cd 5b 6b bf
       -1.1800783 -1.4108545 -1.1907823 -0.9193695
000010 ee 74 20 bf 11 88 77 bf 4f 30 21 bf 1b 4f 38 bf
       -0.6267842 -0.96691996 -0.6296434 -0.71995705
000020 24 9a 5d bf a8 61 7b bf cd ba 2e bf 23 0a 59 bf
       -0.86563325 -0.98195887 -0.68253785 -0.8478109
000030 d0 34 7f bf 37 4e 60 bf 36 3d 55 bf
       -0.9968996 -0.87619346 -0.83296525

a2c_network.actor_mlp.0.weight f4 [128, 361]
000000 7d 52 b2 3e e1 07 3a bf 4b 1b 1e be b9 f3 c1 bd
       0.3482856 -0.7266827 -0.15440099 -0.094703145
000010 61 f9 56 bf 3a f1 f2 bb 98 02 21 3d ab 91 08 3e
       -0.8397427 -0.0074140104 0.039309114 0.13336818
000020 0f cd aa bf dc af 40 bf 16 17 5b bf b6 81 a6 be
       -1.3343829 -0.7526834 -0.855821 -0.32520837
000030 b7 b0 75 be 54 14 a9 bd d7 0a 67 bf 77 ef 26 40
       -0.23993193 -0.082558304 -0.90250915 2.6083658
000040 9f dc 7d 3f be 72 76 bf cb d4 38 40 d2 52 b7 be
       0.99164766 -0.9626883 2.8879879 -0.35805374
000050 bb 31 d1 bf b2 c9 ea 3e e6 b5 33 be b1 76 a4 3f
       -1.6343302 0.45857006 -0.17549857 1.2848722
000060 ea c3 bc be b2 04 7a 3f 76 39 e6 3f d9 84 54 3f
       -0.3686822 0.97663414 1.7986286 0.8301521
000070 80 6e 48 be b5 a9 81 3f 90 d7 34 3c 88 b6 17 bf
       -0.19573402 1.0129915 0.011037722 -0.59262896
000080 cd ff 60 be 75 d9 32 3f 95 6e a1 be 20 7f 86 3f
       -0.2197258 0.69863063 -0.3152968 1.0507545
000090 8d 15 ec bf 45 1c a6 bd 88 88 42 bf 52 68 b1 be
       -1.8444077 -0.08110861 -0.7598958 -0.34649903
0000a0 bb cf 28 3a cf 8b 9e bd b7 0a 3a 3f 6b e1 5f bf
       0.00064396457 -0.0774151 0.726726 -0.87453336
0000b0 3f e3 85 3e 72 00 83 bf 38 30 59 be 25 88 20 bf
       0.26149938 -1.0234511 -0.212098 -0.6270774
0000c0 93 f2 14 3f cf 3b 4c 3e 84 d2 c9 be 10 50 e8 bf
       0.5818264 0.1994469 -0.39418423 -1.8149433
0000d0 bb e7 eb be 35 3d 35 bf 39 65 46 3f d3 16 4c bf
       -0.46075234 -0.7079652 0.77498204 -0.79722327
0000e0 d9 dd 22 bf 1f 95 f5 bc e3 ee 9e 3f 58 84 2b bf
       -0.6361976 -0.029978333 1.2416652 -0.66998816
0000f0 bc 2e 67 bf 6b 37 0b bf e8 a5 dd bf c3 5e 5a bf
       -0.90305686 -0.54381436 -1.7316256 -0.85300845
000100 5a 51 93 be 48 e5 87 be 87 5e 3e bf f2 62 75 bf
       -0.28773004 -0.26542115 -0.7436299 -0.95854104
000110 5a e9 28 3d 42 c7 22 be d9 e0 bc bf 6e c6 71 bf
       0.041238166 -0.15896323 -1.4756118 -0.94443405
000120 e2 76 63 3e 58 92 c1 3d 7f ad be bd 2d 06 c0 bd
       0.22213319 0.09451741 -0.093104355 -0.09376178
000130 c0 2b 4a bd a9 fc 1a 3f 7c 54 05 3e a3 88 c3 bd
       -0.04935813 0.6054178 0.1302051 -0.09547546
000140 b4 88 83 3f 42 ea e6 3e 82 75 de 3e e2 10 9e be
       1.0276093 0.451006 0.43449026 -0.30872256
000150 c3 92 92 bc 24 6d b2 bb 55 0f 13 be a3 4a 28 bf
       -0.017892247 -0.0054451395 -0.14361317 -0.65738887
000160 52 ac 57 bf 6a 91 d4 be 07 6a 6e 3d a2 d2 bb be
       -0.84247315 -0.41517192 0.058206584 -0.36684138
000170 2a bc 66 3e 73 0f 7b be d6 b3 86 bd c5 c8 c4 bd
       0.22532716 -0.24517612 -0.0657727 -0.09608606
000180 cb ba bb 3e b3 50 05 3e 45 25 3e 3e ef 2b 38 3f
       0.3666595 0.13019066 0.18568905 0.7194204
000190 db 3c 97 be 1e 3a 31 bf 6d 72 50 bf 10 d7 42 3f
       -0.29538617 -0.69229305 -0.814246 0.7610941
0001a0 34 d3 1c be eb 93 a7 3d 68 66 1e 3f 7f f6 5b 3e
       -0.15314943 0.0818251 0.6187501 0.2148075
0001b0 95 5d 71 be 03 39 6a be 5e 53 01 3f 76 27 88 bf
       -0.23570855 -0.2287331 0.50517833 -1.0637043
0001c0 5f 64 fb 3e c4 80 22 be 35 fa 9b 3e 72 b3 77 3e
       0.49100015 -0.15869433 0.3046433 0.24189547
0001d0 10 38 b1 be 91 2c ed 3d 39 44 e1 be 26 a8 4d bf
       -0.34613085 0.11580766 -0.43997362 -0.803347
0001e0 51 b4 da be f8 62 f1 be 74 cf d3 bc 98 0e aa be
       -0.42715696 -0.4714582 -0.025855757 -0.3321426
0001f0 b9 82 c8 3d 32 5a 10 bd 10 9a 80 bf db 6f b2 bd
       0.09790558 -0.035242267 -1.0047016 -0.08712741
000200 64 a2 31 3f e8 39 a0 3e 0b 3f f8 bd d3 d1 c2 3e
       0.69388413 0.3129418 -0.121213995 0.38050708
000210 19 b8 a5 3e 7a c3 02 3e 83 d1 40 3f b4 3e ac 3e
       0.32367018 0.12769881 0.7531969 0.3364159
000220 c3 72 cd bd 6a 4d a4 bf ca ca 4c 3d 83 00 aa 3e
       -0.10031655 -1.2836125 0.049998082 0.33203515
000230 df d1 9e 3e 4e a6 1a be 08 6b 47 3e a9 91 de 3d
       0.31019494 -0.15102503 0.19474423 0.10867626
000240 02 dc 18 bf 13 ce f8 bf c5 1d 85 be e0 aa 80 bd
       -0.59710705 -1.9437889 -0.25999275 -0.06282592
000250 b4 33 b9 be 4d a9 6b bd a1 7f 11 3e b5 40 a7 3e
       -0.3617226 -0.057534505 0.14208843 0.32666555
000260 79 27 58 3e b2 29 bf 3e 46 a2 72 3e 12 07 ca 3d
       0.21108808 0.37336498 0.23694715 0.0986463
000270 f8 5c 43 be ac ef c2 3e 3f 54 c1 3e e7 4d a2 be
       -0.19078434 0.3807348 0.37759587 -0.3170006
000280 77 25 4a bf 78 cf 01 3f 5c 5a 59 bf 85 58 5b 3e
       -0.78963417 0.507072 -0.849035 0.21420486
000290 41 af 22 be 34 e4 99 3e e8 75 08 3d 74 8d 3b 3e
       -0.15887167 0.30056918 0.03331557 0.18315679
0002a0 65 43 61 be 35 d1 8a be ca 19 2a 3e b3 c6 35 3f
       -0.21998365 -0.27112737 0.166114 0.71006316
0002b0 31 64 0c 3f d1 ec 23 bf 1f de aa 3e e9 bc 81 3f
       0.5484038 -0.6403323 0.3337259 1.0135776
0002c0 f2 dc 84 bf c0 1f a3 3e 21 a5 c0 bc 79 9c 17 be
       -1.0379927 0.3186016 -0.02351624 -0.14805783
0002d0 0d 20 c2 3d 5a a1 7b 3e b7 7b 88 bd d5 23 78 be
       0.094787695 0.2457327 -0.06664222 -0.24232419
0002e0 a1 f8 7c 3d f5 be be 3d 4d 1e 85 3e 08 ab aa bd
       0.06176055 0.09313766 0.2599968 -0.08333403
0002f0 f0 03 39 3f 3e a4 b3 be a0 bc 45 bc 1b 7a 3c bf
       0.72271633 -0.35086244 -0.0120688975 -0.7362382
000300 e2 a3 a1 3e 62 79 9f 3e 77 38 3c 3f 33 40 1e bf
       0.31570345 0.31147295 0.7352366 -0.6181671
000310 ae e2 a0 3c dc 4d 87 3e c4 35 88 3f be 68 4c 3e
       0.01963934 0.2642659 1.0641408 0.19961831
000320 40 59 82 be e6 5a a9 be cd 22 80 be bc 89 d2 3c
       -0.25458717 -0.33077163 -0.2502655 0.025700442
000330 4a 30 1f 3f 4f 77 f1 3e 01 f4 15 3f c4 70 e9 3f
       0.6218306 0.47161338 0.58575445 1.8237538
000340 fa 28 ce 3f 75 87 09 3f 3c b4 4f 3f dd e5 f9 be
       1.6106255 0.53722316 0.8113439 -0.48808184
000350 86 4e 97 3d 7b d8 bd be 74 d0 ce 3d cf b3 92 3d
       0.07388024 -0.37079224 0.10098353 0.07163202
000360 34 46 9c 3f 5e 5c a1 3d 90 23 8c bd 82 a5 2f bf
       1.2208924 0.07878946 -0.068427205 -0.6861192
000370 64 c4 6c be d0 b4 e1 be 6e 9b 21 bf 80 83 e4 3c
       -0.23121792 -0.4408326 -0.6312779 0.027894735
000380 b1 94 13 3e a1 b5 15 bf 80 67 37 3d 28 35 bd be
       0.1441219 -0.5848027 0.04477644 -0.36954618
000390 ed 90 ba be d0 02 ee bd b1 58 4a 3f ae fc 94 3f
       -0.36438695 -0.1162163 0.7904158 1.1639612
0003a0 c0 39 6a bd 38 9a b4 bc da 18 b0 be 57 a0 90 be
       -0.05718398 -0.022046193 -0.3439396 -0.2824733
0003b0 10 b3 b3 3e 68 7e 90 3c 24 8d ad 3e 64 ba d4 be
       0.3509755 0.0176384 0.33896744 -0.41548455
0003c0 23 f8 12 bf 6a 35 5e 3f 3b 06 ae bd 1f a2 e3 3e
       -0.57409877 0.86800253 -0.08497282 0.44459626
0003d0 88 f7 54 3d af bb 06 3f e3 37 68 be 19 2e 0b 3d
       0.051993877 0.5263013 -0.22677569 0.03397951
0003e0 e4 7c af be 8a 8d 38 be 2c 40 9d be 17 2a 8d 3d
       -0.3427497 -0.18022743 -0.30713022 0.068927936
0003f0 20 cf 1f 3e 90 d6 a9 be 57 b9 9f 3f b3 d3 9f 3d
       0.15606356 -0.3317151 1.2478436 0.0780405

a2c_network.actor_mlp.0.bias f4 [128]
000000 06 45 2a c0 22 90 8e c0 30 70 9e be eb 5e 47 c0
       -2.6604629 -4.4550943 -0.30944967 -3.1151683
000010 de 4f 72 c0 68 63 e3 3e 18 ec a0 c0 54 58 91 bf
       -3.7861247 0.44411778 -5.02882 -1.1355081
000020 14 8d 4d 3f 43 8e 7d c0 98 3b 0d c0 d9 43 ff bf
       0.80293393 -3.961808 -2.2067623 -1.994258
000030 5a f0 14 c0 aa c7 22 c0 f0 28 2b c0 d4 90 36 c0
       -2.32717 -2.5434365 -2.6743736 -2.8525896
000040 cf 61 fe bc 29 67 4d c0 8e ab 92 c0 06 13 58 c0
       -0.031052498 -3.2094214 -4.5834417 -3.376161
000050 cc 32 cb bf 7b 20 31 c0 8a b2 2b c0 56 79 46 bf
       -1.5874877 -2.7676075 -2.6827722 -0.77528894
000060 3f c9 1f c0 00 52 c8 3e f9 c1 eb bf 82 c6 e4 bf
       -2.496658 0.3912506 -1.8418571 -1.787308
000070 91 22 fc bf da b2 b6 3d bb bc 3f c0 30 f4 57 c0
       -1.9698049 0.08920832 -2.9958942 -3.374279
000080 45 a5 0a c0 01 79 82 c0 16 59 e9 bf ef d3 46 c0
       -2.1663373 -4.077271 -1.8230312 -3.1066854
000090 34 0b 55 c0 49 62 c8 3d 15 e2 e7 bf 41 51 2c c0
       -3.3288088 0.097843714 -1.811587 -2.6924593
0000a0 8e 73 ba bf 40 be 43 c0 73 41 d3 bf 32 50 48 bf
       -1.4566514 -3.058487 -1.6504349 -0.7824737
0000b0 27 6e 00 c0 3f 9f da bf b3 de 52 c0 62 f3 a0 bf
       -2.0067232 -1.7079848 -3.2948425 -1.2574275
0000c0 0c 63 7a c0 9d 75 64 bf 06 99 d4 bf f9 71 7f c0
       -3.9122953 -0.89241964 -1.6609199 -3.9913313
0000d0 f3 f7 23 c0 62 da 00 3f 6d 36 ee bf ff 73 71 c0
       -2.5620086 0.50333226 -1.861036 -3.7727048
0000e0 d1 ba 0c c0 6e b9 3a c0 66 4d 23 c0 17 6f a9 bf
       -2.1989024 -2.9175677 -2.551599 -1.3237027
0000f0 77 04 73 c0 bc 17 82 bf 0a b6 57 c0 bc a6 a2 c0
       -3.7971475 -1.0163493 -3.3704858 -5.0828533
000100 8b 7b f6 bf a3 50 48 c0 f7 bd 3d c0 18 79 bb bf
       -1.9256452 -3.1299217 -2.9647195 -1.464633
000110 81 eb 69 c0 eb e0 2f c0 a1 c1 e2 bf 66 7d a3 c0
       -3.654999 -2.748103 -1.7715341 -5.1090574
000120 b4 1e 3b c0 b0 14 5c c0 eb 9d 5d c0 b5 73 5d c0
       -2.923749 -3.4387627 -3.4627635 -3.4601872
000130 99 3b 90 c0 b7 8e 66 c0 36 4b e8 bf 9c fb 3b bf
       -4.507275 -3.6024606 -1.8147953 -0.734308
000140 50 8f 88 bf 44 f9 90 bf 1c e1 0d c0 84 bf 83 3f
       -1.0668736 -1.132607 -2.2168646 1.0292821
000150 4b 31 af bf 6d d9 2c c0 c5 0b 72 c0 84 5a 11 c0
       -1.3686918 -2.7007706 -3.7819684 -2.2711496
000160 50 43 2c c0 88 69 3a bf d6 d2 40 c0 5a 24 37 c0
       -2.6916084 -0.7281728 -3.0128684 -2.8615937
000170 66 86 c2 be 46 93 0d be 67 14 12 c0 75 34 83 c0
       -0.37993163 -0.13825712 -2.2824953 -4.1001534
000180 39 32 2c c0 23 27 20 c0 b6 31 a0 bf 2d 8a c9 be
       -2.6905653 -2.5023887 -1.251517 -0.39363232
000190 ef cf 46 c0 05 26 c8 bf 6a a9 25 c0 14 e6 b4 3e
       -3.1064413 -1.5636603 -2.5884652 0.35331786
0001a0 7d 24 8f bf 46 b3 3c c0 ee b7 1a c0 fd 1b 6b c0
       -1.118301 -2.948442 -2.4174762 -3.6735833
0001b0 c6 ff e0 be 7c 6a 70 c0 88 bb e5 bf f3 d6 86 be
       -0.4394514 -3.7564993 -1.7947855 -0.26335868
0001c0 10 56 61 c0 0d 7c f5 bf f1 68 25 c0 4e 6f d6 3e
       -3.5208778 -1.9178482 -2.58453 0.41881794
0001d0 48 cc 8e bf 33 81 61 c0 53 78 40 bf 8d 8f 85 3f
       -1.1156092 -3.5235107 -0.751836 1.0434433
0001e0 39 d8 03 c0 f9 cf 2d c0 4e b5 70 c0 b2 04 f9 bf
       -2.0600722 -2.7158186 -3.761066 -1.9454558
0001f0 92 3f b8 be ac c9 53 c0 98 a8 1b c0 dd 58 52 c0
       -0.35986 -3.309184 -2.4321651 -3.2866738

a2c_network.actor_mlp.2.weight f4 [128, 128]
000000 2b a9 60 be 8c 17 fe bd 98 0c 05 bf 01 b3 6c 3c
       -0.21939532 -0.12406835 -0.5197234 0.014446975
000010 0c d9 64 3e 5c c0 9e bf fe 52 b5 3e 07 5c 49 be
       0.22348422 -1.2402453 0.3541488 -0.19664012
000020 c9 e5 de bd f4 38 12 3e f8 ed 2b be f4 0a d2 be
       -0.10883672 0.14279538 -0.16789997 -0.41023982
000030 6f 77 da bd d9 50 d3 be 8d 66 be be 90 59 1c 3d
       -0.106673114 -0.4127262 -0.37187615 0.03817135
000040 34 0f af be c6 3f 8f bd be 6a a6 3e c1 7a 40 3e
       -0.34191287 -0.06994586 0.32503313 0.18796827
000050 d5 bb e3 be ee 6d c3 3c a6 ff d5 3d e6 40 85 bf
       -0.44479242 0.02385613 0.10449152 -1.041043
000060 c4 df 6e 3d 9f 51 1d bf a3 c9 09 3e eb f1 3f be
       0.05831887 -0.6145267 0.13455825 -0.18744628
000070 7b 5b bc be 05 d2 2d bf 53 7b 08 3e 9d 3a a0 be
       -0.36788544 -0.6789859 0.13328294 -0.31294718
000080 1f 85 02 be 45 f2 6b bc d0 9b 48 bf 29 9e 8c be
       -0.12746094 -0.014401023 -0.7836275 -0.27464417
000090 e5 3f d4 3d 20 ef b4 be 18 10 d6 bd e4 f9 a8 3d
       0.103637494 -0.35338688 -0.104522884 0.08250788
0000a0 7d 9e 8a be 9b 67 65 3e d6 88 8b 3c 16 82 79 be
       -0.27074042 0.22402804 0.017033022 -0.2436603
0000b0 6a b1 66 3e bc 7e 85 be 58 ab c1 3e 19 07 31 bf
       0.22528616 -0.26073253 0.37826037 -0.69151455
0000c0 83 24 58 3e 7c 57 99 be fe 87 bc be 00 6a 7e 3e
       0.21107678 -0.29949558 -0.36822504 0.24845123
0000d0 f4 0a 38 bc 38 93 26 bf db 91 0e bf 76 8a 86 3e
       -0.01123308 -0.6506839 -0.5569131 0.26277512
0000e0 00 48 7d 3e 10 d8 6c 3e 52 05 4e be 4c d2 c0 3c
       0.24734497 0.23129296 -0.20119217 0.023537777
0000f0 24 95 00 3e af 51 7f bf 86 2a 0a 3e a4 e1 45 3e
       0.12556893 -0.99734014 0.13492784 0.19324356
000100 60 49 0f bf 4b f4 cc be 33 5f f4 be 86 e0 0b bf
       -0.55971336 -0.4003013 -0.4772888 -0.5463947
000110 55 bf 04 be 37 48 d2 be 6c a6 97 be 44 34 0d 3f
       -0.12963612 -0.4107072 -0.29619157 0.55157876
000120 bc 0f 82 3e bd b4 8f 3e 8f 98 7e 3d c0 be 68 3d
       0.2540263 0.2806758 0.06215721 0.05682254
000130 ba f6 e1 bd 01 dc f0 bd a1 8a 10 bf ff d3 ea be
       -0.110333875 -0.117607124 -0.5646153 -0.45864865
000140 db e1 65 be 75 f0 0c bf 05 46 19 3c 9c 5d 37 bf
       -0.22449438 -0.5505441 0.009355073 -0.7162721
000150 2d 6b d3 be a2 a6 50 bd 8f be 4e 3c 33 ef 4e be
       -0.41292706 -0.050940163 0.012618675 -0.20208435
000160 d6 dd 66 be 8a c1 19 bf 57 3c 20 be 14 71 2b bd
       -0.22545561 -0.6006094 -0.15648018 -0.041855887
000170 62 9b 17 bf e4 2c cf be 3d 0c a7 be 66 ab 44 3e
       -0.5922147 -0.40463936 -0.32626525 0.19206008
000180 c0 06 29 bd ec 35 92 3e 6e b5 30 be 55 ad d2 bd
       -0.041266203 0.28556764 -0.1725671 -0.10286967
000190 bc 97 47 3d e7 97 9c 3b 11 59 45 3e ea 8e ff be
       0.04872869 0.0047788504 0.19272257 -0.49913722
0001a0 21 8e d8 be 96 96 0c be 0d 98 31 3d 64 8a b0 bd
       -0.42295936 -0.13729319 0.043357898 -0.08620146
0001b0 64 3e d4 be e5 d5 76 3e 43 94 34 bf 15 8c 15 bf
       -0.4145385 0.24105032 -0.7053873 -0.58416873
0001c0 ed ee 48 3e 10 5f c1 bb b2 77 58 bc 7e 01 af be
       0.19622393 -0.005901225 -0.013212131 -0.34180826
0001d0 48 a7 33 be 76 b9 15 bc 9a c7 28 bf e0 1d 88 be
       -0.17544281 -0.009138456 -0.6592957 -0.26585293
0001e0 9a 20 8b be 87 66 d3 be ba ca b1 bd 71 ed 60 be
       -0.2717331 -0.4128916 -0.08681245 -0.21965577
0001f0 2f 60 80 be 70 ec 92 ba ae 0d f2 be 9e e5 96 3c
       -0.25073382 -0.001120938 -0.47276062 0.018420037
000200 03 30 77 3e 82 a6 cd 3f f9 9f fb bc db a7 a0 bf
       0.24139409 1.6066439 -0.03071593 -1.2551225
000210 6e 29 17 bf f8 81 1f bf 2f 31 d3 be da 1b d6 3e
       -0.5904759 -0.6230769 -0.41248462 0.41818124
000220 0f 5d e7 be 94 fe 22 3d 83 18 0e 3e 36 0d ab bf
       -0.45188186 0.039793566 0.13876538 -1.3363407
000230 58 c4 08 bf 63 ac b2 bd 6d e0 38 3f 20 3b 0f bf
       -0.53424597 -0.087242864 0.72217447 -0.5594959
000240 11 89 41 3e e3 0a 4e be 51 4f a2 be 86 6a a8 3e
       0.18899943 -0.2012134 -0.3170114 0.3289377
000250 85 a6 0b be 63 e6 e1 be fd 1e 00 be 15 ad 8f be
       -0.13637741 -0.44121084 -0.12511821 -0.2806174
000260 fd d5 5d bd 53 2b ef be f5 94 ff bd 17 3c 54 bf
       -0.054159153 -0.4671274 -0.12479583 -0.8290419
000270 e8 b9 1c bd 64 2f d0 3e d2 86 55 3f 83 e1 26 bd
       -0.03826323 0.40661156 0.83408844 -0.04074241
000280 95 1d 5e 3e cc 5a df 3e 6d 46 ea bd 43 a9 eb bd
       0.21690972 0.4362396 -0.11439214 -0.115068935
000290 28 25 2a bf 51 89 2b bf 20 4b 34 3f f7 50 50 be
       -0.66462946 -0.67006403 0.7042713 -0.20343386
0002a0 c0 ae fe bd 61 6b 10 bd 30 da 35 be af 29 c4 3e
       -0.12435675 -0.035258655 -0.17759013 0.38313052
0002b0 b1 a4 dd be 11 b9 f8 3c f8 57 2a bf 47 03 99 bf
       -0.43289712 0.030361684 -0.6654048 -1.1954125
0002c0 db ef 88 be 2c 71 9b 3c 54 46 e3 bc 4e 68 cb 3d
       -0.26745495 0.018974863 -0.027743496 0.09932004
0002d0 29 2a 53 be 1f 64 aa be e6 d5 83 be 59 b7 92 bf
       -0.20621552 -0.3327951 -0.2574913 -1.1462203
0002e0 4d 1d 78 3e 0a a2 ab bf 49 a0 95 be 0d 0a d9 3e
       0.24229927 -1.3408825 -0.2922385 0.4239048
0002f0 19 8e 55 bd 97 03 b1 be 44 c0 f7 bc 33 fa 93 bf
       -0.052137468 -0.3457305 -0.030243047 -1.156073
000300 cf fa 77 bf d6 2e c8 be aa 5c ae 3e 4a 40 e5 3e
       -0.9686708 -0.39098233 0.34055072 0.4477561
000310 05 29 9c be d3 22 47 3d e5 07 a4 3e a1 3a 64 3e
       -0.30500045 0.048617195 0.32037273 0.2228799
000320 55 cb b1 3c 46 0d 26 3e eb 53 8d bf f5 3b cd be
       0.021703402 0.16216001 -1.1041235 -0.40084806
000330 5c 1a e5 bd 5e 99 b5 bf 5d bd 55 3e e3 c9 93 be
       -0.11186668 -1.4187429 0.20873018 -0.28864965
000340 44 86 4c bf 7a dc 9c be d1 01 e3 3b b2 55 2d bf
       -0.79892373 -0.3063696 0.0069277068 -0.67708886
000350 8d 30 59 bf 02 e1 cf be 8a c3 89 bf 59 a3 02 3f
       -0.8483971 -0.40601355 -1.0762799 0.510305
000360 bd 0f 76 3f ca 9c 85 be 80 66 05 3c 24 3f 81 bf
       0.96117765 -0.26096183 0.008142114 -1.0097394
000370 7d ec 51 be 1a 74 28 3e 68 1f 38 3e dd 01 c3 be
       -0.2050037 0.16450539 0.1798073 -0.3808736
000380 43 50 7a 3e 8b 23 1a bf 75 84 35 bf f5 ea ff be
       0.2444468 -0.60210484 -0.7090524 -0.49983945
000390 1a 9e 02 bf 9f e7 8f be 28 27 26 3e a6 b8 87 3e
       -0.51022494 -0.281064 0.16225874 0.26508063
0003a0 16 81 a9 be 63 10 cd be 19 28 e0 be a6 86 3b bf
       -0.33106297 -0.40051565 -0.43780592 -0.7325233
0003b0 ef c1 e5 bf 03 ff 89 bd 2e e8 9a bf d0 26 0a bf
       -1.7949809 -0.06738093 -1.2102106 -0.53965473
0003c0 a2 83 de 3c f3 3b 4d be 9b 69 2a 3f d6 ef 81 be
       0.027162377 -0.200424 0.6656739 -0.25378293
0003d0 c5 7e b0 be f7 d8 d1 bd 48 cc f5 3d e2 f4 cb bf
       -0.34471717 -0.10246461 0.12001854 -1.5934107
0003e0 46 c1 13 3f 0a bb ab 3e aa 70 d3 3e c8 99 25 be
       0.57716787 0.33541137 0.41296893 -0.16171944
0003f0 b6 27 f9 3e 8b f4 13 bf a2 74 70 be 80 5b 62 bf
       0.4866311 -0.5779502 -0.23481992 -0.8842087

a2c_network.actor_mlp.2.bias f4 [128]
000000 7c b0 14 c0 16 be 4c bf 2e 83 ca be ea 2a 53 bf
       -2.3232718 -0.7997755 -0.39553207 -0.82487357
000010 a1 85 f4 be 38 ed 6b bf a9 ae e9 be 67 c2 5d bf
       -0.477582 -0.9215884 -0.45641068 -0.8662476
000020 55 f9 94 bf bd 44 83 bf f9 79 82 bf 78 5a 8c bf
       -1.163859 -1.0255352 -1.0193473 -1.0965109
000030 51 8a 64 bf 0b e0 48 bf 89 60 bd bf c8 3a 26 bf
       -0.89273554 -0.7846686 -1.4795085 -0.64933443
000040 61 bb 31 bf 27 75 ed be 46 21 a0 be 42 6e 36 c0
       -0.6942654 -0.46378443 -0.31275386 -2.8504796
000050 ef 7f 12 bc 4a 11 fd be e1 32 f8 be 8a 1d 89 bf
       -0.008941635 -0.49427253 -0.48476318 -1.071214
000060 e3 b4 6f bf c8 40 8f 3e f1 a3 15 bf e4 43 dc be
       -0.93635386 0.27979112 -0.5845328 -0.43020546
000070 1e 53 b6 be 66 e1 1d bf 11 fb 5b be b2 6a a4 bf
       -0.35610288 -0.61672056 -0.21482493 -1.2845061
000080 4b da a7 bf 4a 70 e6 be 36 8f 90 bf 62 73 0e bf
       -1.3113493 -0.45007545 -1.1293705 -0.5564481
000090 a0 7e 37 bf da 48 1e bf 5f 36 11 bf 01 34 00 bf
       -0.7167759 -0.6182991 -0.5672359 -0.5007935
0000a0 3c 16 1f bf 27 3c 2d bf c5 87 b4 bf 60 2f 43 bf
       -0.621433 -0.6766991 -1.4103934 -0.76244164
0000b0 89 5a f1 be 6f bd 83 bf 32 68 61 bf 58 96 ad bf
       -0.47139385 -1.0292186 -0.88049614 -1.3561506
0000c0 1b 42 7b bf 6a 57 87 bf df 89 07 c0 a1 85 08 bf
       -0.98147744 -1.0573552 -2.11779 -0.533289
0000d0 97 ba b3 bf 1b 82 c3 be c2 8a 8a be 06 71 16 bf
       -1.4041318 -0.381852 -0.2705899 -0.5876621
0000e0 48 7b 54 be 77 f5 b4 bf e4 51 aa bf c8 0f 37 bf
       -0.20750153 -1.413741 -1.3306241 -0.71508455
0000f0 21 b0 8d bf 60 14 f4 be e6 a3 8a bf 90 6c 53 bf
       -1.1069375 -0.47671795 -1.0831268 -0.8258753
000100 37 33 15 bf 7a 53 a2 bf ae 4b 8f be b9 03 4e bf
       -0.5828127 -1.2681725 -0.27987427 -0.8047443
000110 f9 1a 8c bf 69 cc 4b bf f1 b7 30 bf df fa 79 bf
       -1.0945731 -0.7960878 -0.6903067 -0.97648424
000120 be ef 21 bf 7a 4b 6d bf e2 4b e0 be 18 f8 88 be
       -0.6325644 -0.92693293 -0.43807894 -0.2675178
000130 7d 40 71 bf 95 a6 72 bf ec 7d 40 bd ac bf 0d bf
       -0.94239026 -0.94785434 -0.04699509 -0.55370593
000140 8c 61 20 bf 6f c8 1a bf 70 e5 b1 be ac 53 86 bf
       -0.62648845 -0.6046209 -0.3474536 -1.0494285
000150 e2 27 29 bf 38 f5 5d 3e 1c 3c 44 bf fc a2 cb bf
       -0.6607648 0.21675575 -0.7665422 -1.5909114
000160 73 b2 d4 bf 06 21 19 bf 08 aa 12 bf bc cd 59 bf
       -1.6616958 -0.59816015 -0.572907 -0.8507955
000170 ab 51 4c bf 6c c6 88 bf fb 00 5d bf 51 0a 55 bf
       -0.79812115 -1.0685554 -0.8632962 -0.83218867
000180 cc 70 95 bf 28 8b 33 bf 7d 26 59 bf 76 40 41 bf
       -1.1675048 -0.7013421 -0.84824353 -0.75488985
000190 d8 59 9a bf 22 c6 cc bf 2a d8 2e bf 39 7c fb be
       -1.2058668 -1.5997965 -0.6829859 -0.49118212
0001a0 03 33 c3 bf eb b3 80 bf ad 53 32 bf d6 9d 9d bd
       -1.5249943 -1.0054907 -0.6965893 -0.076961204
0001b0 5a f5 97 bf 17 77 8e bf 7f 7a 02 c0 b0 cd f8 be
       -1.187175 -1.1130093 -2.0387266 -0.48594427
0001c0 08 3a 01 bf 04 96 6e bf 3e d5 2b bf e4 23 57 bf
       -0.50479174 -0.93197656 -0.67122257 -0.8403914
0001d0 98 bd 27 bf 15 25 14 bf 80 a4 7f bf 4d 3b 38 bf
       -0.6552367 -0.5786908 -0.9986038 -0.71965486
0001e0 15 23 65 bf 08 e0 cf be 62 82 38 bf ab 7c 89 bf
       -0.89506656 -0.4060061 -0.7207395 -1.0741171
0001f0 6f b0 ee be 65 d6 e5 bf 7c dc 37 bf 53 0f 90 bf
       -0.46618983 -1.7956053 -0.7182081 -1.1254677
