python/rlgpu/saved_nn/1234/last_Aliengoep=8500rew=[1111.32].pth (torch, 523930 bytes, 18 tensors)

running_mean f8 [361]
-0.07542756499481777 -0.007166551446691587 0.25102688786302463 0.025995817621789413 -0.15746465605181484 0.3247892099569646 0.3772813682960923 0.4022930263168003
0.5408280611996459 0.1594617100898705 0.12411030670894935 -0.3318661443153522 0.22480762245671385 -0.02427078548167911 -0.31050536597737505 -0.07874509924677539
0.14903691542411257 -0.3232337539988755 -0.1762570198840727 -0.15183963747816256 -0.3134135469784242 0.4118074306394343 -0.03718637452120148 0.22357689358436203
0.4624103690398248 0.03778528170480344 0.17630746683531565 0.4218064867373019 0.015253151767193192 0.15512005629740508 0.44896070922651965 0.08104609645540081
0.12464178851226926 -0.5658444527223481 0.7037080218985184 -0.36837490790867605 0.42043441834727285 0.7601619246017889 -0.352321236856916 -0.22072005058451882
-0.5287188703819093 -0.6131323846475959 0.05605131650325555 -0.46774547543278666 -0.3284917419186617 0.6422258326284542 0.5001037052585113 0.9932913023091794
0.48629564590869306 0.6043266115190512 0.11619258009971704 0.643903498873 0.18848893872435157 0.026754229961612617 -0.4906142551731704 0.6827526427350655
0.4505350560803009 -0.20606441933358183 -0.6899159395835546 0.3173309760172314 0.641665647797017 0.4990382210069564 0.9921949110748867 0.48574732570171747
0.6037191465909199 0.11591631581069421 0.6433985691222999 0.18845381398958816 0.026604762342380548 -0.4901831551441097 0.6821004622906631 0.4500650839602421
-0.2059360917169064 -0.6894312736578811 0.3170284928650229 0.20945128829270218 0.21623783805521923 0.2163305365626668 0.21355952750325455 0.21044390403275445
0.20730705878252983 0.20449925086728088 0.2056535145950437 0.20816322025241826 0.21115762372327598 0.21446906932049362 0.2171252907872998 0.2140105634182902
0.21042091493323725 0.20374986855199595 0.18794983086175665 0.1856706766382841 0.18515804943287453 0.19923186234835394 0.20553648486854217 0.2108093721105397
0.22503572752770237 0.21953888075210848 0.21274458403015528 0.20230844546548896 0.18257795161039053 0.18012298000949675 0.17841326852801725 0.19565534302398982
0.20552060675040743 0.21535940167918344 0.2340622197145757 0.2264092474321273 0.21187282909813326 0.19443571677089144 0.1804082528672095 0.1773568800885536
0.17507232090537564 0.18621454537807874 0.20324131208787594 0.2213323100706379 0.24424845122918645 0.2339760735194337 0.21444960620386305 0.19380126782889812
0.17983360514961527 0.1759689596441041 0.17391153554592445 0.1845284743574271 0.2049331221312327 0.22835647355144598 0.25538326312276366 0.24220315781572244
0.21683994705966594 0.19372846839697425 0.18014848640074163 0.17533776437065796 0.1739842353960196 0.18379507241555001 0.20712815570771048 0.23636137499799406
0.2797423466314889 0.26154657436033263 0.21899897391376819 0.19043238618269628 0.1818187515616179 0.1712040178809276 0.17599784413034075 0.18130436264012992
0.21118349767182062 0.25611925564203275 0.1881941969027478 0.19341603990152265 0.19241556179342126 0.19022544118062837 0.18852052794317434 0.18677690336999425
0.18583747624317165 0.18797800342836615 0.19021522263395396 0.19182333513739758 0.1934213066661056 0.19489863752076325 0.1892134156683475 0.18374130727639468
0.17978261392297123 0.17086639730266986 0.17270505977795114 0.17418296324741642 0.1858284642452737 0.18941935734543341 0.19196779158180913 0.20402259403418213
0.1937880463213348 0.18436449023578722 0.17753182955573005 0.16630559336177084 0.169911546516833 0.17200781261463738 0.1861420175750401 0.19225216764381545
0.19819006959453017 0.2167558001866322 0.20178639662049955 0.18400537822726967 0.1710199467389245 0.16442982232491762 0.16837193570675144 0.17162147598477118
0.1808616581177135 0.19250643637068637 0.20697813252957456 0.23358138141229073 0.2129820238168351 0.18751351558122054 0.17133996259185658 0.1640687077528561
0.16795620561431104 0.17220423723737638 0.18151467836813623 0.1956793285080575 0.2182041921412666 0.25233570052720083 0.2274274689874774 0.1917200923316251
0.17255300215830172 0.1647879827698253 0.16827996115907268 0.1733772467872034 0.1822242011080408 0.1984705017171118 0.2320574762122323 0.2876689692603668
0.2620985471264489 0.19973642823066962 0.17354589385032873 0.16796179645110096 0.16714964214229217 0.17642191022687276 0.17981009566999262 0.2004005778822788
0.2633407777749052 0.1834296249925267 0.18299927677505548 0.18431712333267883 0.18480103530099273 0.1845713411869882 0.18464975072202863 0.18432248088302708
0.18514987473122707 0.18536595505145187 0.18541979771521191 0.18453760629915086 0.15885089970453375 0.15871965799028703 0.17806061801536247 0.17757318881991263
0.17405781527538663 0.17693906520795843 0.17104447596198252 0.1716052521745965 0.17127438677480591 0.1550898517050245 0.15836562876084193 0.15820677826629173
0.17708883412670767 0.17647050602435785 0.17104862452239203 0.17584071841978244 0.16769918285132096 0.16934562840873493 0.1681520428437919 0.15316299414510026
0.15886634464416258 0.15958419905454493 0.163472310039176 0.1712675523055105 0.1695855779646852 0.17533412586297015 0.1669799659997188 0.16548923059076048
00000000: d3a1 de8c 384f b3bf b813 6b81 ac5a 7dbf
00000010: 5474 7214 d310 d03f 8bce 12ca a59e 9a3f
00000020: 055c 0246 cd27 c4bf 3ef7 b6ae 58c9 d43f
00000030: c132 8ec0 6025 d83f 2c21 dc3f 2bbf d93f
00000040: f291 73a6 764e e13f d76d e6c6 3d69 c43f
00000050: e455 696c b1c5 bf3f befa 1e7f 4b3d d5bf
00000060: bdea 2b05 7fc6 cc3f d273 91d7 70da 98bf
00000070: d7bd 06e6 51df d3bf 6634 fc89 a328 b4bf
00000080: 0c57 d242 a413 c33f d9dc 98a0 dcaf d4bf
00000090: 7fd7 0b0c 978f c6bf 2144 9a32 7b6f c3bf
000000a0: 0353 99b1 f70e d4bf 7727 b68d 0d5b da3f
000000b0: d6c9 d9ac 170a a3bf 8f05 0beb 2a9e cc3f
000000c0: a2de 16a9 2198 dd3f 4072 62aa 9758 a33f
000000d0: 9d94 0c3a 3e91 c63f 6cc0 71a2 e0fe da3f
000000e0: 7116 0260 0b3d 8f3f df21 6058 f9da c33f
000000f0: 8e47 d4b2 c5bb dc3f 8691 bedd 6fbf b43f
00000100: 8009 6035 86e8 bf3f 9a18 62d3 651b e2bf
00000110: 6995 7faf c684 e63f 29a0 8859 7493 d7bf
00000120: 3584 3ac3 65e8 da3f ff87 ba19 3f53 e83f
00000130: 7d26 7f5f 6e8c d6bf 207e 6afb 8d40 ccbf
00000140: 0930 22d6 43eb e0bf e1c1 85ce c79e e3bf
00000150: eef6 8e16 c2b2 ac3f 967d f5b7 8aef ddbf
00000160: 88fd 223a 0206 d5bf 7a23 7930 1d8d e43f
00000170: 0833 567c d900 e03f ae36 5ad7 0ac9 ef3f
00000180: b35c d7c5 771f df3f 5375 12c3 a456 e33f
00000190: e3ee 9003 ccbe bd3f 7310 ae82 db9a e43f
000001a0: 904a bdd1 6720 c83f c9f1 dbfa 7565 9b3f
000001b0: ffe3 3a55 3966 dfbf edbf f911 1cd9 e53f
000001c0: 3340 e4fc 90d5 dc3f 6617 f4a2 5160 cabf
000001d0: ec03 b097 ca13 e6bf fd1c 0095 264f d43f
000001e0: ab27 8865 8688 e43f 1073 ab01 3ef0 df3f
000001f0: 6460 ca8a 0fc0 ef3f 9788 80f3 7b16 df3f
00000200: 0977 d2d0 aa51 e33f 33d0 7a11 b1ac bd3f
00000210: 188d 9598 b896 e43f d024 f22b 411f c83f
00000220: 69a8 b660 473e 9b3f 0a38 192b 295f dfbf
00000230: 03ff 4359 c4d3 e53f 2591 2bc8 ddcd dc3f
00000240: e0bd 7e25 1d5c cabf 4068 a62c d20f e6bf
00000250: 2c59 30e0 314a d43f 9f3e a9c0 4ccf ca3f
00000260: b86d 4d75 aead cb3f 2dd6 d411 b8b0 cb3f
00000270: a316 3029 eb55 cb3f 8b4b bb6a d3ef ca3f
00000280: 97b7 d9a6 0989 ca3f 3e07 440d 082d ca3f
00000290: 3d20 bfb7 da52 ca3f 4b6a 9ba7 17a5 ca3f
000002a0: 49a5 1888 3607 cb3f 0117 5ef3 b873 cb3f
000002b0: d070 88f3 c2ca cb3f cda6 70b9 b264 cb3f
000002c0: f12d 0492 12ef ca3f 2460 ffc6 7914 ca3f
000002d0: 5884 6b74 bd0e c83f 616a fe85 0ec4 c73f
000002e0: 6de2 734b 42b3 c73f c6bd 8dfe 6d80 c93f
000002f0: 8195 5200 054f ca3f 17d9 732f cdfb ca3f
00000300: c7de 1481 f8cd cc3f 9cef 839c d919 cc3f
00000310: 14c3 67eb 363b cb3f c34b 7d3e 3ee5 c93f
00000320: fa92 91dd b65e c73f 870d 3312 450e c73f
00000330: d609 c0f8 3ed6 c63f 79b0 c9f9 3b0b c93f
00000340: 69d3 52ce 7f4e ca3f 7c92 8c99 e590 cb3f
00000350: 529e 7335 c0f5 cd3f 97d1 9d6c fafa cc3f
00000360: ee98 f11b a61e cb3f 3047 5a02 45e3 c83f
00000370: f71f ff1c 9e17 c73f 1eb8 d957 a1b3 c63f
00000380: 8d98 5c12 c568 c63f 0e1c 38d3 e0d5 c73f
00000390: 0689 4eb2 cf03 ca3f 3f98 a6fc 9d54 cc3f
000003a0: 8762 1083 8843 cf3f abfe e78f edf2 cd3f
000003b0: da90 a4ae 1573 cb3f 5acd 9fdd 7ace c83f
000003c0: a270 6b9e c904 c73f 492b 649f 2686 c63f
000003d0: c18f c8b2 bb42 c63f d7e0 4509 a19e c73f
000003e0: 5fdd b5a0 3f3b ca3f 65de ddf0 c83a cd3f
000003f0: cfb6 c30a 3358 d03f e839 e758 8300 cf3f
00000400: ad37 8b50 69c1 cb3f b1da 082e 18cc c83f
00000410: 57ee c108 1b0f c73f b8e4 dcc5 7771 c63f
00000420: f4d1 858c 1d45 c63f 236a 98d0 9886 c73f
00000430: 7836 6ce7 2c83 ca3f 81b5 d3eb 1641 ce3f
00000440: a6aa 8571 4ce7 d13f 9f8a d0d7 2dbd d03f
00000450: bb99 688b 2808 cc3f 8b80 60a3 1660 c83f
00000460: 79db e03b d645 c73f 6a06 df64 03ea c53f
00000470: aa68 5aec 1887 c63f 73ab 143a fb34 c73f
00000480: 4b49 fa93 0f08 cb3f eeef b604 4264 d03f
00000490: c644 7f58 bf16 c83f 330e f356 dbc1 c83f
000004a0: 8575 92b8 12a1 c83f d175 5ea8 4e59 c83f
000004b0: c9fe 11cf 7021 c83f caa6 cf39 4ee8 c73f
000004c0: eaf4 6abd 85c9 c73f 7dcd 8bc8 a90f c83f
000004d0: 3804 35f0 f858 c83f ac2b 83c3 aa8d c83f
000004e0: 5d81 3d85 07c2 c83f b6e3 1745 70f2 c83f
000004f0: e547 212c 2538 c83f 5794 d6cc d584 c73f
00000500: 9822 98df 1d03 c73f 593d 333a f3de c53f
00000510: a0cd cc0b 331b c63f cb81 5599 a04b c63f
00000520: b1b7 4c24 3ac9 c73f a694 83bc e43e c83f
00000530: e556 5d8d 6692 c83f 85cd 8290 691d ca3f
00000540: 9f26 a7f4 0bce c83f 169f 0d70 4199 c73f
00000550: a26f f8ec 5cb9 c63f 23ba 506e 8049 c53f
00000560: 8e54 c05b a9bf c53f f80d eb1c 5a04 c63f
00000570: 77b8 f26a 80d3 c73f 0bc2 4e12 b89b c83f
00000580: d675 a6cd 4a5e c93f f48b 8270 a7be cb3f
00000590: 27a1 21fb 22d4 c93f 171a e3fc 7c8d c73f
000005a0: 348a 1a4b fbe3 c53f bfb1 af52 090c c53f
000005b0: f75c b62a 368d c53f f0aa 5249 b1f7 c53f
000005c0: 04a3 5b8d 7926 c73f 2aa5 3d08 0da4 c83f
000005d0: 89d0 196b 427e ca3f b265 0fa5 fee5 cd3f
000005e0: 05f0 76b5 fe42 cb3f a45a 7d60 7100 c83f
000005f0: c039 eac7 77ee c53f 4c39 0c13 3400 c53f
00000600: 2d09 23c5 967f c53f 6665 95d7 c90a c63f
00000610: aee4 aa7b df3b c73f 2501 392e 050c c93f
00000620: 4365 8c6e 1dee cb3f 3b2a 58a3 4426 d03f
00000630: d2b2 c1e2 571c cd3f 7f74 46b3 488a c83f
00000640: e05a 8c7e 3716 c63f 4796 62ca c517 c53f
00000650: 0a0c e0a0 328a c53f de28 69c2 3931 c63f
00000660: d73d 2664 1f53 c73f 2140 0c3d 7b67 c93f
00000670: d9d9 8f33 0fb4 cd3f 0a07 c31b 2b69 d23f
00000680: 7f2e 0ffc 38c6 d03f ac08 8999 f690 c93f
00000690: a19b 3879 c036 c63f cb10 5eab c57f c53f
000006a0: 1606 45d3 2865 c53f 3a73 5c3f fe94 c63f
000006b0: 0056 3268 0404 c73f 374c 0de4 b9a6 c93f
000006c0: 5fc5 0f47 93da d03f e9ef 3a38 9f7a c73f
000006d0: d162 7832 856c c73f 7140 6718 b497 c73f
000006e0: 063e 7171 8fa7 c73f 06a7 16a1 08a0 c73f
000006f0: b967 4860 9aa2 c73f 31b4 a709 e197 c73f
00000700: 8220 6ab8 fdb2 c73f f66f 5e55 12ba c73f
00000710: e9df 9bff d5bb c73f d9ee f7a3 ed9e c73f
00000720: 32e8 95ed 3955 c43f aa79 26fe ec50 c43f
00000730: 956f 8ab9 b0ca c63f ea60 50df b7ba c63f
00000740: 8f49 1cc8 8647 c63f acfb 3975 f0a5 c63f
00000750: b286 350f c9e4 c53f 66b3 f430 29f7 c53f
00000760: 318d ebb0 51ec c53f 6fdd 81f8 fbd9 c33f
00000770: 304d 2b2e 5345 c43f 3162 54a5 1e40 c43f
00000780: 22ce 87cf d8aa c63f e7a5 0ae6 9596 c63f
00000790: 05bb 2cdc ebe4 c53f a484 75db f281 c63f
000007a0: cec7 f4b4 2a77 c53f 0938 de17 1ead c53f
000007b0: c784 6292 0186 c53f 38c3 6751 d89a c33f
000007c0: 5b43 577d bb55 c43f 5de5 f249 416d c43f
000007d0: 1abd b520 a9ec c43f 5052 025c 18ec c53f
000007e0: 74a4 9def fab4 c53f 6023 3a40 5971 c63f
000007f0: 7d2a 877a 995f c53f 581f 9d48 c02e c53f

running_var f8 [361]
0.02920558731709489 2.645821836632877 0.1354691526375202 6.456003195321398 0.11851713454814673 0.21930172874776951 0.2349407291237675 0.24045393874798363
0.24833368051648436 0.024125016312534164 0.0038238373380427653 0.006089797002165216 0.018901147553592682 0.005700143205734227 0.004903321643806839 0.03450627616701196
0.0036682484400253736 0.0032419298820221725 0.025666393124676515 0.0034165275397697557 0.002496669797840013 7.3857531113380235 1.8285412908167626 3.4229374200282274
5.662502960986685 1.5414033631360293 3.189589346518531 5.3424374130955785 1.2833535855062348 1.4248799745363758 3.3249177409988864 0.8265387691874232
0.8742585700011245 11.578926499023156 12.103601599456972 10.690650791123764 10.887469042545698 11.806567799222973 8.421100746138537 10.241953177509638
10.274941933443765 8.829488842142004 8.329784543617635 7.98450330937874 7.362178900237879 0.3424362107747446 0.4289595020018219 0.005044553500143792
0.5358532264620918 0.4251988944515387 0.707302147562551 0.3913804485809784 0.6821755118865688 0.7277458452103958 0.531218612031872 0.34446455016890937
0.5659273744479193 0.6689422830364042 0.2873774564987395 0.6367074534821364 0.3423497330636256 0.4294568500423927 0.006127816058329494 0.5355058195375558
0.4250307937527857 0.7065374251298874 0.3911421765813805 0.6813573058388683 0.7269313016439013 0.5307981224622387 0.344438155454922 0.5654772230143547
0.6681841910278066 0.2872055264028623 0.636065774499563 0.09787160492368786 0.1024013682162898 0.10240553082522721 0.10065500620598809 0.09854140454059376
0.09644450344640815 0.09474625135795027 0.09529637674600971 0.09688205662234842 0.09893793050152905 0.10116580680934673 0.10545374103200053 0.10388590062102947
0.1003916318677517 0.09587476878261343 0.08617920701661934 0.08396826617306914 0.0844463490295174 0.09327851301317246 0.09763610976287906 0.10204113226998496
0.11123311449680244 0.10837508162765112 0.10264439840671985 0.09569522968295575 0.08336950905254129 0.08076406891866246 0.08074532818540449 0.09175709653320964
0.09852136523221183 0.10597468465660284 0.11754357845780335 0.11346674401811115 0.1038442410921026 0.09195244847835456 0.0825017262161372 0.07936310549193902
0.07906069559555269 0.08673321663359115 0.0986210186741688 0.11056596292380498 0.12437296635909616 0.11882688061033464 0.10626409005652082 0.09225107650490103
0.0826389389673091 0.07891848774735019 0.07870829017223215 0.0861691139570922 0.10044066415548415 0.11564908232393595 0.13157561632590975 0.12441258138433176
0.1085315730189896 0.09289249133518401 0.08334843156433731 0.07906112517088117 0.07911373677987268 0.08616920948240775 0.10247693124640979 0.12115023288903981
0.14650893756944183 0.13656294850976228 0.11183966593446071 0.0928431088736877 0.08541415529371346 0.07841118294631728 0.08108068808293697 0.08591909545657772
0.10633648923197363 0.13359372866096567 0.08570794088382634 0.0894965532561107 0.08869462014184659 0.08710181337367999 0.08576536809231085 0.08456602618215028
0.08413814243112809 0.08545350182195566 0.0870155834905792 0.0882678615873483 0.0894167482685925 0.09271450693779514 0.08946884587116771 0.08492288723564208
0.0818744382713598 0.075838537643437 0.07630458591546196 0.07822045599591128 0.08584492165239246 0.08855241440965021 0.09125723121637123 0.09962914862184453
0.09375863059697304 0.08627481553066423 0.08117363167495581 0.07345792119594244 0.07482057657864082 0.07746111975041804 0.08680870982011592 0.09121746265662768
0.09643419021632259 0.10860529013770563 0.09999213581211197 0.08748779542775362 0.07777462144448476 0.07273999576797349 0.07426232259086545 0.07783331068534195
0.08442707075516628 0.09289950691182265 0.10301744287548119 0.11965281300109983 0.10798204282374713 0.09060185591010053 0.0785806694928428 0.07300129286276917
0.07454083472842321 0.07885133370774691 0.08555516612980953 0.0957690928611944 0.11089374719298135 0.1313145819714208 0.11755729119433733 0.09408251250942148
0.07997374978102278 0.07395278050707252 0.07540243729175054 0.08024821988634938 0.08674994786694723 0.09838780313531302 0.12001961894613178 0.1515753485952336
0.13822875973691962 0.10092520295074867 0.08241079614517965 0.07696285402021424 0.0766133827071699 0.08343013348790967 0.08724988622155158 0.10178499035935734
0.13897592696902075 0.0982608863863555 0.09856743787233208 0.09917585961682843 0.09929143201834431 0.09903573253293474 0.09901506733402074 0.09890421944529167
0.09939952396287627 0.09960636923802392 0.09972348503916802 0.09933787697883378 0.08584601826072824 0.08579401390455355 0.09630704157981344 0.0957387653213355
0.09345309966600389 0.09486809081319496 0.09247586750701349 0.09326458312720917 0.09321439834499613 0.08399778862699762 0.08633787964705768 0.08632679968807337
0.0965840551726366 0.09575967156815168 0.09216482939575858 0.09459784902215035 0.09127034917956928 0.09288969640893929 0.09234561252094299 0.08362240312220533
0.08740707450031056 0.08798980681738347 0.08979849821648501 0.0933903856480765 0.09183173621202355 0.09476926686588108 0.0916073120093202 0.09143886250329669
00000000: 42b1 8cc9 11e8 9d3f 010c 9ba3 a42a 0540
00000010: 27f5 189e 0d57 c13f 8d1b 6b80 f2d2 1940
00000020: 4961 e690 2357 be3f 83c6 763c 1412 cc3f
00000030: 80e0 0aae 8912 ce3f 19f9 8ed5 31c7 ce3f
00000040: 7624 28e6 65c9 cf3f 00ab 4f70 3ab4 983f
00000050: 93dd fc09 2b53 6f3f 3bd1 6a6f 9df1 783f
00000060: b1f0 658a d25a 933f 2117 6b8a 0859 773f
00000070: 2b76 a161 8115 743f 50c2 497f ceaa a13f
00000080: 5a21 ace2 df0c 6e3f aaf8 36da d18e 6a3f
00000090: 749b 4e7c 4a48 9a3f 3800 9341 fafc 6b3f
000000a0: e926 2e64 e573 643f b51b 16dd 028b 1d40
000000b0: 1219 3783 b441 fd3f f234 9a03 2d62 0b40
000000c0: 8fc3 1b2d 67a6 1640 8bd1 a992 96a9 f83f
000000d0: a0bc 576b 4784 0940 7db0 c8e9 a75e 1540
000000e0: 0542 efc4 9d88 f43f a8be b5f1 4ecc f63f
000000f0: e4d7 fb78 6e99 0a40 8727 d16e 0173 ea3f
00000100: bee1 cc1b edf9 eb3f 392f d80d 6928 2740
00000110: 44f6 d244 0b35 2840 8baa 01fb 9c61 2540
00000120: 75e4 a357 62c6 2540 b756 5f74 f69c 2740
00000130: f1f8 5984 9ad7 2040 6522 7149 e17b 2440
00000140: 45e1 6830 c58c 2440 2bcb f2c2 b2a8 2140
00000150: c820 0b85 d9a8 2040 8257 b2a2 21f0 1f40
00000160: b04a 8f06 df72 1d40 a298 8f91 79ea d53f
00000170: 5b00 1a8e 1274 db3f 1d8a e504 99a9 743f
00000180: 658b 63aa b525 e13f e2bd 7d6c 7536 db3f
00000190: c17e 051d 38a2 e63f 40be bc94 600c d93f
000001a0: 79ea 35bd 61d4 e53f 1a50 9fa7 b149 e73f
000001b0: 4682 b62c beff e03f 17d6 660a b50b d63f
000001c0: 5947 a5b9 131c e23f 9eb1 91a5 f967 e53f
000001d0: 9143 516a 6464 d23f 2e68 3a4f e85f e43f
000001e0: d45d d3da 0ee9 d53f 8b6a 7e95 387c db3f
000001f0: a717 1019 7b19 793f 4968 b719 dd22 e13f
00000200: 3f83 bd5b b433 db3f 3da7 ca5f f49b e63f
00000210: d835 2032 7908 d93f d9fe 2ed6 adcd e53f
00000220: fff9 df6e 0543 e73f d21c 1858 4cfc e03f
00000230: df19 4b55 460b d63f 7d58 6fb0 6318 e23f
00000240: 8c65 05d0 c361 e53f 575e c849 9361 d23f
00000250: bc93 729c a65a e43f 91b1 5a0e 1d0e b93f
00000260: 7bfb 8ddf f936 ba3f 32e9 d2b5 3f37 ba3f
00000270: 6f59 d5c7 86c4 b93f f6c2 cd6d 023a b93f
00000280: 8468 2e44 96b0 b83f 0341 0053 4a41 b83f
00000290: fc28 8de5 5765 b83f fa1f c330 43cd b83f
000002a0: 6486 d607 ff53 b93f 9837 b897 00e6 b93f
000002b0: e629 f930 04ff ba3f cbcd ae31 4498 ba3f
000002c0: 2900 aa17 44b3 b93f a5d1 6eb4 3f8b b83f
000002d0: bb49 bb2b d70f b63f cd7a 1dbd f17e b53f
000002e0: 572f 59a3 469e b53f 57a3 cfc2 19e1 b73f
000002f0: 7019 571a aefe b83f fc46 f21d 5e1f ba3f
00000300: 33f9 fefc c579 bc3f 8bc6 4a27 78be bb3f
00000310: c442 463e e746 ba3f d91a df89 7b7f b83f
00000320: e23e dd42 b457 b53f 5592 b23a f4ac b43f
00000330: 0171 dccf b9ab b43f 993a c9a0 647d b73f
00000340: dc2e a139 b238 b93f 66d4 cd2c 2821 bb3f
00000350: 5dc1 5401 5617 be3f cdcb bd12 280c bd3f
00000360: 5357 5e43 8995 ba3f a56c 0017 328a b73f
00000370: 233c f647 d51e b53f dfcc 98f6 2351 b43f
00000380: 755e fb5d 523d b43f 5a0c ebe8 2534 b63f
00000390: d55c e721 3a3f b93f 43f9 ce0a 0d4e bc3f
000003a0: cbd1 041f e8d6 bf3f d869 1b3e 706b be3f
000003b0: 402e 8897 1f34 bb3f f6fd 9b3c c49d b73f
000003c0: a7a0 3d54 d327 b53f 96b5 ec83 0034 b43f
000003d0: 99bc 36fc 3926 b43f 64fa 5ed6 2d0f b63f
000003e0: b97f bcb7 7ab6 b93f 9cca 64a2 2d9b bd3f
000003f0: d410 8944 78d7 c03f 60b3 41c0 80d9 bf3f
00000400: f532 b3a4 b9c8 bb3f bc1d 5464 cdc7 b73f
00000410: 8de1 bda3 5256 b53f 0970 fe92 593d b43f
00000420: a247 2240 cc40 b43f 5c2c a670 2f0f b63f
00000430: b13a 4c9c ed3b ba3f 0845 29a0 b303 bf3f
00000440: cc5a b70b cec0 c23f eded d80a e57a c13f
00000450: e085 953b 86a1 bc3f 257e 45e4 90c4 b73f
00000460: 5a1a 9abb b3dd b53f a525 655a c112 b43f
00000470: a644 a737 b4c1 b43f d880 1639 cbfe b53f
00000480: b36e 9f3f de38 bb3f 8157 c66b 9919 c13f
00000490: 4d81 1aa3 f4f0 b53f bef7 5601 3fe9 b63f
000004a0: c022 d7cc b0b4 b63f 7bbc dcef 4d4c b63f
000004b0: 09fc 151b b8f4 b53f 7a15 ce7c 1ea6 b53f
000004c0: a37f 16ca 138a b53f f86a a7db 47e0 b53f
000004d0: ec9a 553d a746 b63f 4536 cefa b898 b63f
000004e0: aa3c 8719 04e4 b63f d79f 294f 23bc b73f
000004f0: 340c 0727 6ee7 b63f 05e6 5b9f 81bd b53f
00000500: 0bfd c022 b9f5 b43f a37c f486 276a b33f
00000510: e8ae 0a85 b288 b33f 0572 617c 4106 b43f
00000520: 4253 06cb eef9 b53f a70c dffb 5eab b63f
00000530: 0b0b 9947 a25c b73f 2d24 0fbf 4b81 b93f
00000540: fcb9 21cc 9000 b83f db31 2c37 1b16 b63f
00000550: 8e6b 578d cbc7 b43f 1a31 2b69 23ce b23f
00000560: c71e 79f9 7027 b33f 4122 0af0 7dd4 b33f
00000570: 3973 af79 1839 b63f 692f ef12 075a b73f
00000580: 5f02 323d e9af b83f bb64 5069 8ecd bb3f
00000590: f892 2ba9 1599 b93f 964d 29a4 9965 b63f
000005a0: 6f16 909f 09e9 b33f 8e43 ef9e 169f b23f
000005b0: 134f da06 db02 b33f e1d5 ee43 e2ec b33f
000005c0: 565f ca33 039d b53f b534 0018 43c8 b73f
000005d0: 6757 11e4 595f ba3f 0dd1 b616 91a1 be3f
000005e0: 48b7 7b0e b6a4 bb3f c23d 17e8 ae31 b73f
000005f0: afcd 91dd dc1d b43f bb4b 6975 36b0 b23f
00000600: c807 60af 1b15 b33f 3a50 85db 992f b43f
00000610: 7108 8880 f1e6 b53f 5871 cec1 5284 b83f
00000620: cd55 8659 8863 bc3f 990f 878d eace c03f
00000630: e805 1611 3c18 be3f 6a7d 5aa2 ca15 b83f
00000640: 3815 d9df 2879 b43f 7ee4 b9c5 91ee b23f
00000650: 2fee 34fa 924d b33f cb5d f9b7 258b b43f
00000660: 98ab 049d 3e35 b63f d79c ca6c f12f b93f
00000670: 4084 4012 9bb9 be3f 7954 8c2e d266 c33f
00000680: 28e6 37e1 7ab1 c13f 3600 04ee 3bd6 b93f
00000690: 10e7 47ba df18 b53f 6c0d 066d d6b3 b33f
000006a0: 39c9 2945 ef9c b33f 4cdc d45e ad5b b53f
000006b0: 9eba e62f 0256 b63f 742e d1c4 940e ba3f
000006c0: 79b1 a192 f6c9 c13f d45f 811d a027 b93f
000006d0: b4b7 1c32 b73b b93f 1262 9bd1 9663 b93f
000006e0: 26b3 4acd 296b b93f 9046 5de0 675a b93f
000006f0: 86c7 022c 0d59 b93f 1535 f473 c951 b93f
00000700: e494 a848 3f72 b93f c9c1 5992 cd7f b93f
00000710: 45e9 e272 7a87 b93f 40cf e004 356e b93f
00000720: 08f1 eb30 01fa b53f e8a1 e9b3 98f6 b53f
00000730: 2bb6 f509 94a7 b83f dfb9 03f2 5582 b83f
00000740: 0f7b c6d6 8aec b73f 7304 7a73 4649 b83f
00000750: 55a2 9c9a 7fac b73f 3e0c 680e 30e0 b73f
00000760: 9977 6818 e6dc b73f c3da 160b e180 b53f
00000770: fb76 7d41 3d1a b63f ebb9 6d5d 8319 b63f
00000780: 9a12 488e bbb9 b83f 9031 a9b1 b483 b83f
00000790: bba0 1840 1d98 b73f ec73 d28b 9037 b83f
000007a0: b41c d25c 7e5d b73f 1836 3680 9ec7 b73f
000007b0: b1df b449 f6a3 b73f d56f 9f1e 4768 b53f
000007c0: 7df9 6a5e 4f60 b63f 227a a9fe 7f86 b63f
000007d0: 01d9 11cd 08fd b63f 848b 1eac 6ee8 b73f
000007e0: 6ffa c3df 4882 b73f d2d7 da75 cc42 b83f
000007f0: 338d 27a9 9373 b73f 50fc 088c 8968 b73f

count f8 []
27200000001.0
00000000: 0000 0440 fc54 1942

running_mean f8 [1]
89.92292086024301
00000000: 8ee2 a722 117b 5640

running_var f8 [1]
436.0259436900035
00000000: a441 ee43 6a40 7b40

count f8 []
6800000001.0
00000000: 0000 1040 fc54 f941

a2c_network.sigma f4 [15]
-0.9550247 -1.1544225 -1.2251666 -0.69495344 -0.62642294 -0.8835263 -0.6396661 -0.51562643
-0.76523507 -0.8212426 -0.565383 -0.7423675 -0.8393761 -0.8480017 -0.59692824
00000000: 807c 74bf 1ec4 93bf 42d2 9cbf 78e8 31bf
00000010: 415d 20bf c82e 62bf 28c1 23bf 1800 04bf
00000020: 72e6 43bf f43c 52bf f1bc 10bf cc0b 3ebf
00000030: 5ae1 56bf a416 59bf 4ad0 18bf

a2c_network.actor_mlp.0.weight f4 [128, 361]
0.84341604 -0.885055 0.24951412 -0.3258083 -0.6026156 -0.19356354 0.010853556 -0.26601323
-0.8322855 -0.62397987 -1.0814118 -0.43440282 -0.1860226 -0.16171257 -0.9536552 2.4503841
0.6041618 -0.8055363 2.5883808 0.09451645 -1.7294625 0.36288077 -0.83110744 1.4088738
-0.6676201 0.98778373 1.4586641 0.98510003 -0.00868631 0.6630196 -0.36022708 -0.73503566
-0.13256502 0.5190514 -0.9648055 0.8247261 -1.7718691 -0.2835994 -0.18256277 -0.38407528
0.24362683 -0.6321686 0.920882 -0.5946821 0.7699203 -0.84510595 0.082711935 -0.630297
0.5158097 0.21472858 -0.45023915 -1.6434956 -0.48517072 -0.6624359 0.2507796 -0.68896616
-0.8905465 -0.43014026 1.1536084 -0.7321279 -0.6028017 -0.19268762 -1.5957446 -0.780669
0.069798954 -0.36354554 -0.8735453 -1.3296032 -0.23742235 -0.283704 -1.6547159 -0.7838222
0.06591388 0.8769083 -0.2778226 -0.10114639 -0.05594534 0.6791818 0.38428724 0.066299774
0.88828856 0.14242037 0.46224895 -0.2891627 -0.0005159665 0.11031458 -0.0790187 -0.8129824
-0.83580863 -0.42864633 -0.34123802 -0.4440848 0.21778062 -0.20035778 -0.112969875 -0.37999085
0.1929902 -0.19186857 0.23488879 0.5621553 -0.62030214 -0.58568734 -0.55779135 0.81377214
0.01922302 -0.16592807 0.38398597 0.22376135 0.102776095 0.005143868 0.46152714 -0.8180102
0.75335795 -0.09984352 0.022469971 -0.2382934 -0.48088536 0.14210519 -0.31416437 -0.8678382
-0.22885044 -0.37441123 0.69889545 -0.38907957 -0.1447279 -0.2870892 -0.89361936 0.20437548
0.8812048 -0.026658392 0.11024295 0.42530203 0.50477105 0.3131528 0.8186362 -0.09030969
-0.004787741 -0.7207345 -0.05181463 -0.08536409 0.46784428 0.2031257 0.23775558 0.2791141
-0.73034513 -2.3861737 -0.2654862 -0.12282953 -0.44156134 -0.021496993 0.20051077 0.30483884
0.29411334 0.25061792 0.116716914 0.11905347 -0.32385206 0.3258058 0.26418534 -0.3943927
-0.4829322 0.6623811 -0.72669023 0.17119291 -0.16912809 0.24024309 -0.11412028 0.214122
-0.32015428 -0.27212054 0.3073925 1.0348781 0.39295536 -0.6409897 0.23460853 0.88314784
-1.0700538 0.36132053 -0.08458914 -0.14486182 -0.010136939 0.36913782 -0.182391 -0.54560965
0.013806715 0.1965541 0.2937099 -0.17699775 0.61614805 -0.31659275 0.18505925 -0.3940763
0.1989204 0.11296377 0.72525483 -0.62773955 0.1256189 0.065497465 0.8322419 0.5144604
-0.03797913 -0.41761506 -0.22274867 -0.30670148 0.5178635 0.55721796 0.6184551 1.3336797
1.4891717 0.8584716 0.4766364 -0.977513 -0.21508828 -0.16391823 -0.15429787 0.12300658
1.2564083 0.19678131 -0.058773078 -0.689685 -0.335717 -0.54456097 -0.6418963 0.016707476
0.2403202 -0.40277666 0.1466606 -0.08427663 0.049311854 -0.12638965 0.19079785 1.0299252
0.27345604 0.009265264 -0.35142142 -0.25445744 0.14217731 -0.10771073 0.5228067 -0.19130033
-0.50085324 1.1956002 -0.42138335 0.35529467 -0.055219952 0.6614073 0.022761011 0.003978833
-0.035988446 -0.097925894 -0.43667138 -0.0029958012 0.0682006 -0.5968754 1.0163575 -0.12263317
00000000: 1dea 573f f792 62bf a180 7f3e 58d0 a6be
00000010: 0445 1abf 8535 46be 1dd3 313c e332 88be
00000020: aa10 55bf 25bd 1fbf b46b 8abf 0c6a debe
00000030: b57c 3ebe fb97 25be bf22 74bf 18d3 1c40
00000040: 59aa 1a3f a137 4ebf 08a8 2540 d791 c13d
00000050: 075f ddbf 82cb b93e 75c3 54bf fa55 b43f
00000060: 27e9 2abf 65df 7c3f 81b5 ba3f 842f 7c3f
00000070: 0651 0ebc a7bb 293f af6f b8be 4c2b 3cbf
00000080: 20bf 07be 8de0 043f 7efd 76bf 4021 533f
00000090: 9bcc e2bf f133 91be bcf1 3abe 84a5 c4be
000000a0: 5079 793e cdd5 21bf ecbe 6b3f 163d 18bf
000000b0: 7f19 453f dd58 58bf e064 a93d 255b 21bf
000000c0: 1b0c 043f cfe1 5b3e bf85 e6be 105e d2bf
000000d0: 4c68 f8be 6695 29bf 2f66 803e 1660 30bf
000000e0: dbfa 63bf 583b dcbe 71a9 933f bc6c 3bbf
000000f0: 3651 1abf e74f 45be 5c41 ccbf ecd9 47bf
00000100: c1f2 8e3d a422 babe aaa0 5fbf 7030 aabf
00000110: d81e 73be a741 91be bbcd d3bf 92a8 48bf
00000120: dbfd 863d 107d 603f c43e 8ebe d725 cfbd
00000130: f126 65bd dcde 2d3f 4cc1 c43e 2dc8 873d
00000140: e166 633f a5d6 113e e5ab ec3e 220d 94be
00000150: ed41 07ba 9cec e13d 8ed4 a1bd 9d1f 50bf
00000160: 8ef7 55bf 8877 dbbe c0b6 aebe 155f e3be
00000170: e201 5f3e 972a 4dbe c05c e7bd 298e c2be
00000180: 399f 453e 3279 44be b086 703e 69e9 0f3f
00000190: 1fcc 1ebf 9bef 15bf 6acb 0ebf 5f53 503f
000001a0: 9879 9d3c 0ce9 29be cf99 c43e b221 653e
000001b0: 467c d23d e48d a83b 494d ec3e 1e69 51bf
000001c0: 11dc 403f c27a ccbd f212 b83c 2f03 74be
000001d0: 9b36 f6be 0684 113e 27da a0be a52a 5ebf
000001e0: c557 6abe d4b2 bfbe d0ea 323f 7035 c7be
000001f0: 8d33 14be 5bfd 92be 3dc4 64bf ce47 513e
00000200: a396 613f b362 dabc 0ec7 e13d 30c1 d93e
00000210: ad38 013f 9055 a03e 2492 513f 49f4 b8bd
00000220: 7ce2 9cbb 0e82 38bf 943b 54bd 5ed3 aebd
00000230: 4989 ef3e 2f00 503e 3376 733e 0be8 8e3e
00000240: e6f7 3abf 12b7 18c0 cfed 87be 0c8e fbbd
00000250: 5414 e2be 761a b0bc b252 4d3e d613 9c3e
00000260: 0696 963e fe50 803e 4709 ef3d 4ed2 f33d
00000270: f0cf a5be 05d0 a63e 4d43 873e d7ed c9be
00000280: e442 f7be cf91 293f 5f08 3abf 324d 2f3e
00000290: ea2f 2dbe 4902 763e e5b7 e9bd cc42 5b3e
000002a0: 43eb a3be 6253 8bbe 8d62 9d3e e376 843f
000002b0: 7231 c93e e717 24bf 383d 703e fa15 623f
000002c0: 86f7 88bf 01ff b83e 123d adbd a856 14be
000002d0: 6715 26bc a2ff bc3e b5c4 3abe 13ad 0bbf
000002e0: 8f35 623c 7a45 493e 2561 963e e63e 35be
000002f0: e1bb 1d3f 7218 a2be 2c80 3d3e 5ec4 c9be
00000300: cab1 4b3e 8d59 e73d 4daa 393f 8ab3 20bf
00000310: 3ea2 003e 8923 863d ce0d 553f adb3 033f
00000320: 0190 1bbd a4d1 d5be 3a18 64be fa07 9dbe
00000330: b492 043f d6a5 0e3f 1353 1e3f 04b6 aa3f
00000340: 2e9d be3f cbc4 5b3f b009 f43e 4b3e 7abf
00000350: 1a40 5cbe 2eda 27be 4300 1ebe e0ea fb3d
00000360: fdd1 a03f 0a81 493e 0abc 70bd 328f 30bf
00000370: 19e3 abbe 5968 0bbf 5153 24bf 1ede 883c
00000380: 8016 763e be38 cebe 322e 163e 3a99 acbd
00000390: 3afb 493d 4a6c 01be 8360 433e 97d4 833f
000003a0: 6e02 8c3e 55cd 173c 82ed b3be 3f48 82be
000003b0: ee96 113e 7197 dcbd a9d6 053f 3ce4 43be
000003c0: eb37 00bf 6d09 993f 8fbf d7be 2fe9 b53e
000003d0: 512e 62bd fd51 293f 4d75 ba3c df60 823b
000003e0: 9f68 13bd 5f8d c8bd 6493 dfbe 3455 44bb
000003f0: c2ac 8b3d d4cc 18bf 0118 823f 1927 fbbd

a2c_network.actor_mlp.0.bias f4 [128]
-2.4203005 -4.0173926 -0.24182124 -2.9085238 -3.436598 0.3823688 -4.699318 -1.0687755
0.7527675 -3.5090466 -2.0349846 -1.9790149 -1.985262 -2.416851 -2.5608816 -2.56027
-0.13937593 -2.7505138 -4.2440495 -3.151257 -1.4579391 -2.6975763 -2.216248 -0.769584
-2.348742 0.28298187 -1.4613272 -1.7106268 -1.8746365 0.13252567 -2.7730846 -2.8841841
-2.2816472 -3.5828884 -1.7407057 -2.728943 -3.1463943 0.12239431 -1.7898909 -2.2872164
-1.380935 -2.88898 -1.5861471 -0.8473994 -1.8417047 -1.4881792 -3.2665446 -1.1582977
-3.551389 -0.9472508 -1.6743214 -3.4114704 -2.5353947 0.4855888 -1.6460193 -3.5683618
-2.0494936 -2.7571945 -2.2486424 -1.3193938 -3.4027526 -0.9450579 -2.8919191 -4.698834
-1.7998935 -2.9715106 -2.7781544 -1.4267875 -3.3133044 -2.5328438 -1.8470726 -4.7968454
-2.4884355 -3.140987 -3.0723023 -3.2192729 -4.0146074 -3.2654147 -1.8521168 -0.8026623
-1.0437236 -1.0961087 -2.0272667 0.8518975 -1.4174411 -2.3746057 -3.4915133 -2.2109067
-2.5045211 -0.75483555 -2.833245 -2.5628889 -0.42393896 -0.18821958 -2.2529147 -3.9675586
-2.7152264 -2.3269775 -1.237375 -0.5031007 -2.7166927 -1.6450216 -2.5564985 0.24052444
-1.0780343 -2.533896 -2.304404 -3.1805565 -0.5595161 -3.5221314 -1.6157402 -0.38815808
-3.2915375 -1.7525111 -2.355907 0.43569782 -1.0887161 -3.3416123 -0.72460485 0.9422362
-1.942559 -2.4300318 -3.3133302 -1.8867683 -0.36186117 -2.9233 -2.1899238 -3.0053296
00000000: 34e6 1ac0 7b8e 80c0 fd9f 77be 4125 3ac0
00000010: 39f1 5bc0 d8c5 c33e d060 96c0 a3cd 88bf
00000020: 5fb5 403f 3894 60c0 303d 02c0 5c50 fdbf
00000030: 111d febf b0ad 1ac0 7ce5 23c0 77db 23c0
00000040: 90b8 0ebe 6b08 30c0 41cf 87c0 32ae 49c0
00000050: c09d babf 17a5 2cc0 02d7 0dc0 7503 45bf
00000060: ca51 16c0 00e3 903e c50c bbbf d2f5 dabf
00000070: 17f4 efbf cfb4 073e 387a 31c0 7996 38c0
00000080: 8206 12c0 0b4e 65c0 72cf debf 01a7 2ec0
00000090: 865e 49c0 dea9 fa3d 251b e5bf c161 12c0
000000a0: 7ac2 b0bf 0ce5 38c0 de06 cbbf 2bef 58bf
000000b0: fbbc ebbf a87c bebf 110f 51c0 1943 94bf
000000c0: f549 63c0 077f 72bf 2a50 d6bf 8855 5ac0
000000d0: e843 22c0 189f f83e c3b0 d2bf 0a60 64c0
000000e0: e72a 03c0 e075 30c0 c2e9 0fc0 e5e1 a8bf
000000f0: b3c6 59c0 51ef 71bf 3415 39c0 d95c 96c0
00000100: e962 e6bf 3b2d 3ec0 48cd 31c0 f9a0 b6bf
00000110: 2e0d 54c0 1d1a 22c0 e06c ecbf c27f 99c0
00000120: 8742 1fc0 ee05 49c0 9aa0 44c0 9108 4ec0
00000130: aa77 80c0 8efc 50c0 2a12 edbf 477b 4dbf
00000140: bc98 85bf 4a4d 8cbf bdbe 01c0 f415 5a3f
00000150: b66e b5bf 8af9 17c0 f474 5fc0 7f7f 0dc0
00000160: 134a 20c0 e73c 41bf e353 35c0 5f06 24c0
00000170: 870e d9be a2bc 40be c12f 10c0 7bec 7dc0
00000180: 45c6 2dc0 33ed 14c0 4e62 9ebf 35cb 00bf
00000190: 4bde 2dc0 1190 d2bf ac9d 23c0 0a4c 763e
000001a0: 07fd 89bf 5a2b 22c0 5b7b 13c0 3d8e 4bc0
000001b0: 723c 0fbf 9a6a 61c0 93d0 cebf a8bc c6be
000001c0: 8da8 52c0 4952 e0bf 2ec7 16c0 c913 df3e
000001d0: 0d5b 8bbf fadc 55c0 b47f 39bf 6436 713f
000001e0: c6a5 f8bf a485 1bc0 9a0d 54c0 a081 f1bf
000001f0: de45 b9be 5917 3bc0 b627 0cc0 5257 40c0

a2c_network.actor_mlp.2.weight f4 [128, 128]
-0.23740345 -0.09201159 -0.41755107 -0.024933718 0.16057631 -1.1390057 0.29023528 -0.1870237
-0.0071643754 0.08948709 -0.17229785 -0.31278497 -0.053420328 -0.46127966 -0.31689432 -0.012215847
-0.34901655 -0.11295018 0.2964534 0.13920946 -0.3999297 -0.08201081 0.047881175 -0.87686414
-0.008438911 -0.548638 0.02439391 -0.06884621 -0.36758605 -0.49836624 0.12911864 -0.40852058
-0.13723506 -0.027389664 -0.8355123 -0.2120091 0.039751172 -0.41415748 -0.11553755 -0.027896285
-0.22077695 0.30330524 0.044924203 -0.26320502 0.23209798 -0.10679006 0.30661875 -0.5776345
0.2006335 -0.36474234 -0.4420437 0.24289392 -0.029364767 -0.7351675 -0.35952282 0.1061161
0.16441718 0.24321969 -0.21576968 -0.090997756 0.07862083 -0.88032216 0.23781857 0.17942812
-0.613167 -0.40788272 -0.49328944 -0.55866313 -0.057239305 -0.45253327 -0.24983719 0.5977584
0.24727589 0.12882274 0.009943193 0.24075554 -0.22152242 -0.08639301 -0.5791951 -0.59456927
-0.2243592 -0.55464756 -0.11640357 -0.7729729 -0.38350552 -0.048709534 0.09674954 -0.023384325
-0.31370905 -0.509556 -0.2290265 0.10186661 -0.44487765 -0.40138263 -0.27753538 0.12280137
0.011541914 0.390419 -0.095325276 -0.20183595 0.09535612 -0.018769566 0.2631686 -0.7782232
-0.50022936 -0.18138906 -0.085905775 -0.16339949 -0.37891698 0.2501963 -0.692471 -0.6970487
0.22622553 0.049750138 -0.0031459166 -0.35346517 -0.26149952 -0.07394949 -0.64025885 -0.5191627
-0.25885108 -0.4475284 -0.20679748 -0.2635267 -0.32736722 0.019997936 -0.4699836 0.05808606
0.004633435 1.283085 0.00791707 -0.95764416 -0.596844 -0.520567 -0.18912469 0.26451328
-0.29338667 0.16770214 0.23316665 -0.5381316 -0.6150722 -0.5284315 0.84679925 -0.7308262
-0.064100906 0.072724864 -0.620113 0.028440112 -0.2684145 -0.23920943 -0.09305137 -0.26652503
0.12877022 -0.7243879 -0.43790296 -1.0797404 -0.06269779 0.29386464 0.6485937 -0.18788387
0.7004326 0.2956016 0.16977367 0.086146824 -0.6591361 -0.5598512 0.76009935 -0.24226053
-0.33396405 -0.3070914 -0.20506191 -0.0016433164 -0.6039241 0.4326559 -0.6297314 -1.2296195
-0.024031 0.15016721 0.13343112 0.20257846 -0.28708076 -0.28423727 -0.18886484 -0.6981001
0.4828673 -1.1129482 -0.14622237 0.5053787 0.28338748 -0.64930004 0.16684292 -0.45043966
-0.46914205 -0.42975235 0.40003952 0.44456983 -0.21852499 0.25597098 0.16608156 0.04047323
0.013197385 -0.010777569 -0.7189697 -0.22281608 -0.22601594 -1.5786115 0.32776493 -0.42754096
-0.7605922 -0.41026032 -0.018732127 -0.8500139 -0.7677277 -0.5000299 -0.8788596 0.6408758
1.0076798 -0.2625448 -0.095110916 -0.8364275 -0.15310691 0.11636513 0.042514704 -0.9807714
-0.1323088 0.1763615 -0.56161606 -0.54698443 -0.09561191 -0.39516848 0.30787176 0.35540095
-0.2687498 0.18064086 -0.36695102 -0.47729737 -1.4642562 -0.32955956 -0.8518045 -0.16437513
0.38705835 -0.044350464 0.5412905 -0.43501142 -0.55386746 0.2452972 0.07851703 -1.7428429
0.5453951 0.07126823 0.14192231 -0.044124644 0.36769044 -0.66790164 -0.33486164 -0.39609355
00000000: e419 73be 9370 bcbd 41c9 d5be cc41 ccbc
00000010: 1e6e 243e f0ca 91bf b899 943e 2483 3fbe
00000020: 23c3 eabb 0245 b73d d96e 30be 5a25 a0be
00000030: 46cf 5abd d92c ecbe f93f a2be fa24 48bc
00000040: 4cb2 b2be 6d52 e7bd bdc8 973e ed8c 0e3e
00000050: 96c3 ccbe 49f5 a7bd 0d1f 443d 2b7a 60bf
00000060: 5c43 0abc 8a73 0cbf bdd5 c73c 3eff 8cbd
00000070: 3d34 bcbe dc29 ffbe ad37 043e 9c29 d1be
00000080: 5987 0cbe 4a60 e0bc 22e4 55bf ea18 59be
00000090: 20d2 223d 730c d4be f39e ecbd c086 e4bc
000000a0: 5a13 62be d34a 9b3e 7102 383d cfc2 86be
000000b0: 18ab 6d3e bfb4 dabd 22fd 9c3e dbdf 13bf
000000c0: de72 4d3e 82bf babe 8d53 e2be 2fb9 783e
000000d0: 618e f0bc f033 3cbf 6013 b8be 6653 d93d
000000e0: fa5c 283e 950e 793e baf2 5cbe 085d babd
000000f0: f503 a13d cb5c 61bf b686 733e 01bc 373e
00000100: 83f8 1cbf 01d6 d0be 6f90 fcbe 8c04 0fbf
00000110: c373 6abd 71b2 e7be 52d5 7fbe b206 193f
00000120: e435 7d3e 1cea 033e c6e8 223c 9f88 763e
00000130: c6d6 62be d2ee b0bd 2146 14bf b135 18bf
00000140: 6bbe 65be 62fd 0dbf ff64 eebd 8de1 45bf
00000150: d65a c4be a683 47bd 9f24 c63d 7c90 bfbc
00000160: 799e a0be 4372 02bf ec85 6abe 719f d03d
00000170: 01c7 e3be 0682 cdbe 1e19 8ebe 497f fb3d
00000180: 4c1a 3d3c 00e5 c73e e639 c3bd 15ae 4ebe
00000190: 124a c33d a2c2 99bc 09be 863e a339 47bf
000001a0: 080f 00bf 0ebe 39be 5eef afbd 3252 27be
000001b0: 6801 c2be bb19 803e c845 31bf c971 32bf
000001c0: aaa7 673e cdc6 4b3d b92b 4ebb 63f9 b4be
000001d0: 44e3 85be d572 97bd 01e8 23bf d9e7 04bf
000001e0: 2188 84be 7122 e5be b8c2 53be f9ec 86be
000001f0: ad9c a7be b6d2 a33c b1a1 f0be a6eb 6d3d
00000200: 12d4 973b 213c a43f 99b6 013c 2b28 75bf
00000210: c5ca 18bf e143 05bf e7a9 41be 496e 873e
00000220: c736 96be 1cba 2b3e 3dc3 6e3e fec2 09bf
00000230: 5f75 1dbf 4947 07bf d6c7 583f 6d17 3bbf
00000240: 5647 83bd c6f0 943d babf 1ebf 3dfb e83c
00000250: a06d 89be 51f3 74be b791 bebd f875 88be
00000260: 57dc 033e 7c71 39bf d134 e0be ef34 8abf
00000270: b367 80bd 6d75 963e 3d0a 263f a164 40be
00000280: 8d4f 333f 1859 973e 26d9 2d3e bf6d b03d
00000290: 25bd 28bf 6952 0fbf df95 423f 2513 78be
000002a0: 56fd aabe 153b 9dbe c0fb 51be 8c64 d7ba
000002b0: c59a 1abf 1385 dd3e 1436 21bf 2c64 9dbf
000002c0: a9dc c4bc 6fc5 193e 2ba2 083e ba70 4f3e
000002d0: 40fc 92be 8c87 91be c965 41be b0b6 32bf
000002e0: 623a f73e 1675 8ebf 51bb 15be 8060 013f
000002f0: 2a18 913e 8738 26bf dfd8 2a3e 07a0 e6be
00000300: 6333 f0be 8008 dcbe fbd1 cc3e a89e e33e
00000310: 04c5 5fbe a10e 833e 4911 2a3e 42c7 253d
00000320: d839 583c 6794 30bc 660e 38bf e629 64be
00000330: b970 67be f10f cabf ced0 a73e a6e6 dabe
00000340: 2cb6 42bf a40d d2be 1e74 99bc 839a 59bf
00000350: cd89 44bf f601 00bf f1fc 60bf 7010 243f
00000360: a7fb 803f 466c 86be 83c9 c2bd 1d20 56bf
00000370: 0fc8 1cbe d750 ee3d e623 2e3d d613 7bbf
00000380: f57b 07be 1c98 343e 12c6 0fbf 2c07 0cbf
00000390: 2dd0 c3bd 8653 cabe 5ea1 9d3e 1df7 b53e
000003a0: 9399 89be ebf9 383e 01e1 bbbe 5260 f4be
000003b0: bf6c bbbf 08bc a8be dc0f 5abf f451 28be
000003c0: 832c c63e d5a8 35bd 0492 0a3f d1b9 debe
000003d0: 42ca 0dbf 302f 7b3e 89cd a03d 7a15 dfbf
000003e0: 039f 0b3f 14f5 913d 1554 113e 0bbc 34bd
000003f0: ec41 bc3e 9afb 2abf fc72 abbe c6cc cabe

a2c_network.actor_mlp.2.bias f4 [128]
-2.1906397 -0.7181364 -0.34904876 -0.78412646 -0.43071216 -0.8742545 -0.41882965 -0.74374205
-1.0186663 -0.96874434 -0.88405013 -1.0165235 -0.851643 -0.7439605 -1.2687902 -0.6132817
-0.57422525 -0.45356184 -0.34905636 -2.8234305 -0.037739936 -0.5200617 -0.38036758 -1.0203918
-0.88912475 0.25938648 -0.54255617 -0.3931597 -0.35279313 -0.57518226 -0.20308797 -1.2641361
-1.1402102 -0.39676383 -1.0951114 -0.53630924 -0.571648 -0.51812863 -0.48941478 -0.52465206
-0.52823967 -0.64277554 -1.3689182 -0.64089465 -0.47065267 -0.92444134 -0.74529016 -1.4254091
-0.89889514 -0.97586834 -1.8807833 -0.47525597 -1.3334311 -0.4147087 -0.24009837 -0.55159193
-0.16574699 -1.389122 -1.3111898 -0.5916444 -1.0557158 -0.46822008 -1.0311432 -0.7649423
-0.53652775 -1.1361196 -0.21112706 -0.7088112 -1.0555894 -0.7381119 -0.6234933 -0.8577608
-0.6041904 -0.9279098 -0.397723 -0.23063676 -0.93920517 -0.8788852 -0.07908573 -0.4647026
-0.5483053 -0.537157 -0.28863618 -1.0292025 -0.6359939 0.23770611 -0.62705755 -1.4647257
-1.28052 -0.5538152 -0.4296594 -0.80360264 -0.7284432 -0.95717967 -0.8719515 -0.6455757
-1.1170911 -0.7001484 -0.53235626 -0.7812072 -0.973948 -1.3496966 -0.64535636 -0.45327994
-1.5161785 -0.9594824 -0.68745965 -0.061391465 -1.1336702 -0.9034842 -2.0388305 -0.4067541
-0.56218284 -0.82502156 -0.67321414 -0.77563745 -0.5817802 -0.5480714 -0.89602566 -0.5186273
-0.8205256 -0.43330917 -0.6609265 -0.9760646 -0.4336689 -1.6735563 -0.7821838 -1.0974237
00000000: 7133 0cc0 cad7 37bf 85b6 b2be 83bc 48bf
00000010: 4e86 dcbe 25cf 5fbf d770 d6be e165 3ebf
00000020: a863 82bf a1ff 77bf 1c51 62bf 711d 82bf
00000030: 4705 5abf 3274 3ebf b867 a2bf 0800 1dbf
00000040: 6d00 13bf 4239 e8be 84b7 b2be 16b3 34c0
00000050: 3195 1abd c322 05bf 8abf c2be 339c 82bf
00000060: ae9d 63bf 4ece 843e f6e4 0abf 3a4c c9be
00000070: 4da1 b4be 253f 13bf 4bf6 4fbe 36cf a1bf
00000080: 68f2 91bf a124 cbbe 9c2c 8cbf 904b 09bf
00000090: 8657 12bf 14a4 04bf 9394 fabe 994f 06bf
000000a0: b73a 07bf f08c 24bf b638 afbf ac11 24bf
000000b0: 63f9 f0be 30a8 6cbf 56cb 3ebf ce73 b6bf
000000c0: fe1d 66bf 82d2 79bf 82bd f0bf c054 f3be
000000d0: dfad aabf b354 d4be 59dc 75be 2135 0dbf
000000e0: 94b9 29be c0ce b1bf 11d5 a7bf 0276 17bf
000000f0: b221 87bf 8bba efbe 80fc 83bf 42d3 43bf
00000100: e259 09bf 5e6c 91bf b131 58be a774 35bf
00000110: 8e1d 87bf e7f4 3cbf 429d 1fbf 3696 5bbf
00000120: 39ac 1abf 7f8b 6dbf 59a2 cbbe 0b2c 6cbe
00000130: c06f 70bf 9ffe 60bf b3f7 a1bd 80ed edbe
00000140: bc5d 0cbf 1f83 09bf 1fc8 93be e8bc 83bf
00000150: 7fd0 22bf 3b69 733e d886 20bf 227c bbbf
00000160: 14e8 a3bf d5c6 0dbf 51fc dbbe e7b8 4dbf
00000170: 417b 3abf ba09 75bf 3738 5fbf 7344 25bf
00000180: d7fc 8ebf ed3c 33bf 8048 08bf 32fd 47bf
00000190: a854 79bf dcc2 acbf 1336 25bf 4f14 e8be
000001a0: 2312 c2bf a3a0 75bf 5bfd 2fbf 9e75 7bbd
000001b0: 1b1c 91bf be4a 67bf 337c 02c0 1342 d0be
000001c0: 37eb 0fbf 9d34 53bf c357 2cbf 2d90 46bf
000001d0: 8cef 14bf 684e 0cbf f061 65bf c2c4 04bf
000001e0: f70d 52bf b3da ddbe 7b32 29bf 5fdf 79bf
000001f0: da09 debe 1837 d6bf 333d 48bf 6178 8cbf

a2c_network.critic_mlp.0.weight f4 [128, 361]
1.2897352 0.19604501 -1.2833533 -1.0267395 -1.7734677 0.51247287 0.51563686 -0.21013004
-0.03674893 -3.5590184 -0.75578576 -0.5388093 -0.5534543 0.6370647 1.2065078 -0.6014493
0.30922273 0.505919 -0.42874187 0.42436215 -0.1650878 -0.8569739 -1.0122027 -0.16322604
-0.12444262 -0.6528689 -0.098759 -0.19822346 0.19062239 -0.6924595 0.346889 0.070586935
0.14918213 0.38282222 -0.23408338 -0.12509792 0.30613637 0.11243676 0.13023122 0.1299903
0.34581828 -0.072359756 -0.055440195 0.13748784 -0.09634186 -0.45594746 -0.052722704 1.6852509
-0.074813455 0.15207198 0.5283247 -0.25043887 -0.56104106 0.1258686 -0.6795259 -0.110418834
0.18767364 0.14258814 -0.1906673 -0.06658048 -0.040905893 -0.054758117 1.7650288 0.055545654
0.20467624 0.42737812 -0.09748901 -0.6899968 0.18619165 -0.39492536 0.21181864 0.073878154
0.2655473 -0.09867194 0.40363103 -0.09202985 0.059032917 0.017111642 0.094752535 0.049654454
0.010298769 0.14462125 0.047568988 0.07593219 0.11105106 0.101762325 -0.44226676 0.15412453
0.089836285 0.020887243 -0.07622652 -0.018698279 -0.042498093 -0.027977707 0.05779441 0.082561016
0.22462134 0.08828925 0.11903708 -0.12847058 -0.024730638 0.090423375 -0.00442544 -0.061541643
-0.058637004 0.03362286 -0.24439207 0.08373942 -0.05214029 0.048879337 0.010590995 -0.1152586
0.0001761433 0.03220418 -0.048114907 0.10464992 -0.28431198 0.23709176 -0.1834944 -0.14786553
0.06344336 0.07300036 0.047162276 0.06600825 0.056262996 0.23972476 -0.34492603 0.36213467
0.13088135 -0.06971335 0.16069065 -0.11942873 0.13624495 0.18378769 -0.003617759 0.34097323
1.4382598 1.2548904 0.3954801 -0.23181842 -0.17038648 0.17841162 -0.048923373 -0.062987834
0.24408655 0.76852995 -0.03860524 -0.33031684 -0.086271085 0.13296899 -0.22203995 -0.16681622
0.10170863 -0.043439347 -0.2103907 -0.10675768 0.018720217 -0.1373567 0.11719994 0.21405958
0.013279914 0.12412238 0.15776944 0.12101354 -0.046423525 -0.119330324 0.16092026 0.022762358
-0.086936794 0.11456715 -0.1260529 -0.2176953 0.11924932 0.15474588 -0.10570206 0.0075719757
0.031018602 0.02852753 0.17506646 0.1282012 -0.14337467 -0.008020893 -0.2707699 -0.016432557
-0.22851513 0.05190099 0.061340906 0.031457264 0.2367776 -0.1820272 0.3006612 0.14517011
-0.06081194 -0.05672602 -0.116916254 0.14531207 0.110055864 0.43842974 0.17639326 0.2673421
-0.08810282 0.1337314 -0.1674205 -0.01356426 -0.14660755 0.08085543 0.10074655 0.107633136
0.25547072 0.69139665 0.2059592 0.4013771 0.22037286 -0.061607473 -0.18247604 -0.016520688
0.34782082 -0.14563677 0.093895726 0.06953616 0.05472752 -0.03680002 -0.06789099 -0.06278441
-0.08696125 -0.056869213 0.003918409 0.02906585 -0.04507504 0.0045591947 0.02906206 0.02999566
-0.0024788964 -0.090164214 -0.036903724 0.007655326 0.0013349736 -0.12511848 -0.030618142 0.048229426
0.065864004 0.018190144 -0.01999961 -0.013505711 0.06457814 0.030932069 -0.03280662 -0.07123429
0.05380125 -0.053763013 1.2080649e-05 0.034830112 0.0030496658 -0.004445578 0.0059556095 0.09448636
00000000: 0b16 a53f 06c0 483e ec44 a4bf 336c 83bf
00000010: fd00 e3bf 6c31 033f c700 043f 542c 57be
00000020: 0c86 16bd f5c6 63c0 2d7b 41bf 68ef 09bf
00000030: 2eaf 0dbf ac16 233f d96e 9a3f 95f8 19bf
00000040: 7152 9e3e e883 013f 0e84 dbbe ff45 d93e
00000050: c70c 29be a462 5bbf dc8f 81bf ba24 27be
00000060: c6db febd 6b22 27bf 2942 cabd 17fb 4abe
00000070: 8432 433e 0745 31bf 6f9b b13e e28f 903d
00000080: 33c3 183e 4601 c43e 8eb3 6fbe ab19 00be
00000090: e8bd 9c3e 3e45 e63d 555b 053e 2d1c 053e
000000a0: 180f b13e 5a31 94bd 4215 63bd 9dc9 0c3e
000000b0: e24e c5bd f271 e9be c3f3 57bd 4db6 d73f
000000c0: cc37 99bd c2b8 1b3e 4a40 073f 8639 80be
000000d0: 63a0 0fbf b3e3 003e 69f5 2dbf 4523 e2bd
000000e0: 852d 403e a002 123e 4a3e 43be 595b 88bd
000000f0: f08c 27bd 0c4a 60bd 77ec e13f d783 633d
00000100: a696 513e 4ed1 da3e 51a8 c7bd a1a3 30bf
00000110: 06a9 3e3e a833 cabe fce6 583e 6e4d 973d
00000120: d1f5 873e 8414 cabd baa8 ce3e 257a bcbd
00000130: 80cc 713d b72d 8c3c 9e0d c23d 7862 4b3d
00000140: 2bbc 283c 9817 143e b3d7 423d 5682 9b3d
00000150: bd6e e33d c468 d03d ca70 e2be d2d2 1d3e
00000160: 16fc b73d b91b ab3c a61c 9cbd 222d 99bc
00000170: 7b12 2ebd 8131 e5bc d5b9 6c3d c015 a93d
00000180: 2303 663e ffd0 b43d b6c9 f33d cb8d 03be
00000190: e897 cabc e42f b93d 4803 91bb 1713 7cbd
000001a0: 5b2d 70bd 20b8 093d ea41 7abe 937f ab3d
000001b0: 0f91 55bd b335 483d da85 2d3c b30c ecbd
000001c0: 1bb3 3839 88e8 033d 2314 45bd b252 d63d
000001d0: 5791 91be 2fc8 723e f5e5 3bbe 106a 17be
000001e0: 98ee 813d 3681 953d 3b2d 413d 552f 873d
000001f0: 0774 663d 687a 753e 259a b0be b769 b93e
00000200: c305 063e dfc5 8ebd 178c 243e 0d97 f4bd
00000210: cc83 0b3e d732 3c3e ed17 6dbb 0b94 ae3e
00000220: e618 b83f 40a0 a03f 5e7c ca3e cf61 6dbe
00000230: cb79 2ebe 89b1 363e e063 48bd c4ff 80bd
00000240: d3f1 793e 61be 443f 8720 1ebd 4a1f a9be
00000250: e5ae b0bd 0629 083e 715e 63be dfd1 2abe
00000260: 9d4c d03d 75ed 31bd a970 57be c5a3 dabd
00000270: 245b 993c 3ca7 0cbe 8606 f03d 6f32 5b3e
00000280: ff93 593c e033 fe3d 508e 213e f2d5 f73d
00000290: 9826 3ebd 7563 f4bd 48c8 243e 2078 ba3c
000002a0: eb0b b2bd 2fa2 ea3d 0314 01be 84eb 5ebe
000002b0: fd38 f43d b475 1e3e 527a d8bd 561e f83b
000002c0: b91a fe3c 91b2 e93c 9f44 333e 2d47 033e
000002d0: cfd0 12be 106a 03bc 5aa2 8abe 929d 86bc
000002e0: dfff 69be 2296 543d 9a40 7b3d 55d9 003d
000002f0: d475 723e 5765 3abe 44f0 993e 79a7 143e
00000300: f115 79bd 8b59 68bd ca71 efbd b0cc 143e
00000310: f864 e13d dd79 e03e 6fa0 343e 10e1 883e
00000320: 406f b4bd e2f0 083e 4870 2bbe a13c 5ebc
00000330: 4a20 16be 8897 a53d 3554 ce3d c36e dc3d
00000340: 0fcd 823e 5fff 303f f8e6 523e 4d81 cd3e
00000350: 6ca9 613e 1e58 7cbd 00db 3abe 6556 87bc
00000360: 9215 b23e ce21 15be 674c c03d f968 8e3d
00000370: f729 603d 9ebb 16bd 6e0a 8bbd 1d95 80bd
00000380: bd18 b2bd b1ef 68bd ff65 803b 811b ee3c
00000390: 9ba0 38bd 4c65 953b 8f13 ee3c 75b9 f53c
000003a0: fb74 22bb 04a8 b8bd 5c28 17bd 87d9 fa3b
000003b0: 48fa ae3a 0f1f 00be e6d2 fabc 388c 453d
000003c0: b5e3 863d 7f03 953c 39d6 a3bc 0f47 5dbc
000003d0: 8b41 843d 4065 fd3c 3c60 06bd 49e3 91bd
000003e0: b35e 5c3d 9b36 5cbd fead 4a37 05aa 0e3d
000003f0: e7dc 473b 36ac 91bb 4627 c33b 1182 c13d
