python/rlgpu/saved_nn/241001162243532647/last_Aliengoep=3750rew=[986.31].pth (torch, 523930 bytes, 18 tensors)

running_mean f8 [361]
00000000: a4a5 bfd4 244b c0bf 66f3 3996 6524 a23f
00000010: 85f0 e674 ccfb b83f 5859 29f5 7c9d 79bf
00000020: 7f9e cf18 b567 c7bf f858 3f1f 2577 d33f
00000030: 476f 8bfb cb07 d63f 561a fcd4 c694 dd3f
00000040: 3eb0 dbe6 0226 e13f 9be4 6d61 d672 c03f
00000050: daf2 1d96 7f44 c03f 5e22 e147 9a26 d6bf
00000060: a7e1 ba1b 732b c73f 81d5 2fb1 eff1 adbf
00000070: bcfd 6394 853a d5bf 4f09 4e1d 0917 a93f
00000080: 4c75 3f34 d74c c43f 5c05 a4ae 9e17 d4bf
00000090: 49aa adc2 d3e3 b2bf eafa 9001 3908 c5bf
000000a0: 1b90 a00c 54d6 d3bf 1d03 b15d 0662 de3f
000000b0: 1173 eb23 4cc4 92bf 966d 60b6 49ca c63f
000000c0: 3519 c0a2 40dc dd3f af49 c050 c461 be3f
000000d0: 0629 b8c4 fd18 c83f 4cd0 98c5 f25e dd3f
000000e0: 03e9 4fbf f76a a83f 61cc 5f6b 97d3 c23f
000000f0: 99fc cc83 096c dd3f 7512 8719 f667 be3f
00000100: c49c 6a4a 1339 c13f be9c b02f c805 dcbf
00000110: ce9d c063 538a e03f 7416 9b62 5996 d1bf
00000120: ed2d 1ca7 491e d73f eda8 07cd 8297 e33f
00000130: 7f5f d52f 417e d8bf d921 50d3 12d2 d0bf
00000140: b6ad 6894 d845 d4bf f5ed 70d4 e5bf d8bf
00000150: 57ec 9110 2d98 b63f 49bf e608 c8bc ddbf
00000160: 76e7 a1cc 1725 d3bf cf34 138e d5af dc3f
00000170: ee7c c0ce 51c5 da3f d00c e7dc 1690 ef3f
00000180: f048 a12c 0c26 df3f f80c 85aa 13cb e13f
00000190: 2963 9fd6 e9a0 b53f 143a 7164 9b31 e03f
000001a0: 3314 14cd e03b 95bf d2f5 5890 8cb3 8b3f
000001b0: dee4 b8b2 30e7 ccbf c06c ab67 57b9 e53f
000001c0: 150e 64d8 90eb d63f 1751 e485 88bf d7bf
000001d0: f1fc 694e cb41 e5bf 6ae0 1e67 f268 d83f
000001e0: 5f99 75d0 7ca7 dc3f d4c4 abd4 75b2 da3f
000001f0: 2e1a 2a60 b885 ef3f c245 3a7b b61d df3f
00000200: 212e 875c 99c6 e13f db08 9a36 218f b53f
00000210: 4279 59f5 ea2e e03f 03e2 055c 8d1a 95bf
00000220: ec7e 76c7 3060 8b3f 2556 da39 36e0 ccbf
00000230: b134 93ef f5b3 e53f 22e2 9841 5ce6 d63f
00000240: 92b0 40c6 f8b9 d7bf 239a d939 643e e5bf
00000250: 20ca 16ed db62 d83f 30c1 b8cf 5a28 cc3f
00000260: 9dfa b23c 936b cd3f 1e01 8587 fb50 cd3f
00000270: 4441 8d7e 2ac5 cc3f 1df5 7685 3c20 cc3f
00000280: 9606 2a9c 718a cb3f 96c9 223e 0b2a cb3f
00000290: 1e96 12c0 6e6a cb3f 6afc 332e 88f0 cb3f
000002a0: ca35 7a42 0493 cc3f fa0a a178 352d cd3f
000002b0: f4c9 4b68 0256 cd3f ebfc 5dfc 47d8 cc3f
000002c0: a065 f89e 947d cc3f 38d2 5f69 4428 cb3f
000002d0: 6d9d bb4b b7be c83f 367d 2364 5670 c83f
000002e0: feec 49c1 153e c83f a972 1f27 a931 ca3f
000002f0: 590c c454 ae80 cb3f 7400 5fda e54c cc3f
00000300: 238c 79d2 546d ce3f ef84 544d 9abd cd3f
00000310: 8a95 726f 7be6 cc3f b0c6 564a b2dd ca3f
00000320: dba1 b906 a0cc c73f a988 c133 1977 c73f
00000330: 9cfa 29a0 7818 c73f 368f 5f7b fa98 c93f
00000340: c76d 1496 d59b cb3f 0161 5d58 6805 cd3f
00000350: c975 56bc 7990 cf3f 8b08 0416 6db1 ce3f
00000360: 18ed 9b25 b897 cc3f 2de4 c356 75a7 c93f
00000370: ec11 efc4 6945 c73f a8d7 bf1d 04da c63f
00000380: 7db1 914e f878 c63f 7706 f407 164d c83f
00000390: 6da6 6e9a 714d cb3f 54b9 e277 71ea cd3f
000003a0: 64aa 13af 5d63 d03f 43a4 76d8 b0ad cf3f
000003b0: 1b16 9272 3601 cd3f 4769 b1be 8d67 c93f
000003c0: 78d4 ff66 4afb c63f 2520 074b 726f c63f
000003d0: 3412 d652 4829 c63f f746 1948 63fb c73f
000003e0: 2397 c991 daa8 cb3f c070 f984 32ea ce3f
000003f0: af35 7eed a304 d13f 9668 38f8 f058 d03f
00000400: f72e e99d 886a cd3f c004 8da7 c33b c93f
00000410: cde0 8ac9 bfd2 c63f cc65 8e61 a224 c63f
00000420: 93a9 feaf 3b0c c63f db3f 8761 f7cd c73f
00000430: 6f9d f04c 351b cc3f 5aba 43ae 0700 d03f
00000440: a073 4117 202a d23f 8bcd d3b1 fc6f d13f
00000450: 25a3 0ead 17ad cd3f 4367 fbb5 7e49 c83f
00000460: 6f22 d36e 94bc c63f c9bd d654 bd0d c53f
00000470: 2e72 2409 af25 c63f f728 5f26 3547 c73f
00000480: 026e bf2e 1bf7 cc3f d406 6bb9 c935 d13f
00000490: 215f 5ec9 571a c93f 70c4 4d51 d8b6 c93f
000004a0: a383 8e43 57a2 c93f 8b9a b97a c867 c93f
000004b0: 4523 e41d 7834 c93f 55df a79b 91f9 c83f
000004c0: 0827 ed72 aad0 c83f 0f5b 5990 8b00 c93f
000004d0: 805a 9b44 7e3c c93f 66a9 392d e56e c93f
000004e0: 2f01 1e8b 9da6 c93f e711 264d a93d c93f
000004f0: ef89 8775 f486 c83f 4ae8 4f6d b050 c83f
00000500: caee 0502 d8db c73f 2cf2 2cc9 86d0 c63f
00000510: af49 044c 121d c73f 5785 deb2 9af7 c63f
00000520: e082 cad7 b152 c83f e1b1 6f9f 1cc4 c83f
00000530: b4b9 0f44 d6ba c83f 7d1b 9c1c 892e ca3f
00000540: bd47 b184 1802 c93f 1cf7 ad12 a35a c83f
00000550: ee03 f77b 9d93 c73f 94fb c491 1c39 c63f
00000560: f243 559c 0eb2 c63f bb9d 17c8 6d84 c63f
00000570: f7d9 7350 4137 c83f 0375 ebd6 a3f8 c83f
00000580: 7328 d99d 085d c93f 95e0 3304 ce7a cb3f
00000590: 64d7 943e 46e2 c93f f2d2 09d3 310d c83f
000005a0: e74f c2b7 34d1 c63f f2d9 16f5 f5fb c53f
000005b0: d6c9 b781 7c77 c63f 4ec2 2ed5 3f53 c63f
000005c0: a7ec 9d5a 0c65 c73f acbe d596 a999 c83f
000005d0: 9727 bf31 284c ca3f 1a11 1944 a325 cd3f
000005e0: 9ed9 409a 4518 cb3f e386 deb6 497a c83f
000005f0: af1c 0740 63da c63f 2083 ffdd 57f6 c53f
00000600: a296 ad4a 2e5b c63f 1f67 05ba 444a c63f
00000610: bdbc 8906 d156 c73f 475d b6ad 29eb c83f
00000620: 4bc8 2f0e 2c7a cb3f fa98 7c8a c90e cf3f
00000630: f480 079a 30a0 cc3f ba63 e3cf f400 c93f
00000640: 0f54 fe3f 7cfb c63f 9918 83b2 c80e c63f
00000650: 1d92 b4a9 6d4d c63f ba6b b484 6656 c63f
00000660: ea45 343c 0953 c73f 96df d08c 733d c93f
00000670: 5cbd 1269 c4e5 cc3f d01a fc40 1f5e d13f
00000680: 7924 80f1 fe31 d03f 5646 18ce c904 ca3f
00000690: 8c08 9d12 09d5 c63f 9cfd 1f29 1f64 c63f
000006a0: 1e13 d7c0 39a6 c53f 6065 41b2 0b85 c63f
000006b0: 2c7c 1ea7 90c8 c63f b668 b4d4 f16b c93f
000006c0: cf33 76ac ee1e d03f f6cf e4a4 ed68 c53f
000006d0: b258 5983 0898 c53f 4eb4 d1fd 99c5 c53f
000006e0: d689 fd82 51c1 c53f 7246 b6a0 2dbc c53f
000006f0: e15f 010f 87b7 c53f e6e2 56c1 a899 c53f
00000700: b684 39f6 f6a2 c53f a2fe ad6f 7b99 c53f
00000710: 41fa 9e09 5e98 c53f 9101 ebea afa7 c53f
00000720: c2e9 e265 2178 c33f d30a 8a2e 9d6f c33f
00000730: aff6 aebd f82d c53f 3978 bd67 5e16 c53f
00000740: 235d bd40 103d c43f a99c c902 455a c43f
00000750: 2d16 3027 6861 c33f 2b74 4826 da94 c33f
00000760: d09b 57b9 0195 c33f f752 cee8 84a1 c23f
00000770: 0f0f bfb7 55b3 c33f 7765 e6b7 08a7 c33f
00000780: e164 2562 7168 c53f f9bc 9a81 7a3c c53f
00000790: 04a2 b3a0 03f6 c33f 9722 e5e7 9120 c43f
000007a0: bbdd 4e5f fad4 c23f dadf 9d2b b956 c33f
000007b0: c1c6 bb1a 9f55 c33f cec8 9041 7b87 c23f
000007c0: 7f00 86e2 b30a c43f ac94 222a 111c c43f
000007d0: ab00 81ce 1d47 c43f 236d 7d69 91bb c43f
000007e0: 9d64 09c5 3aea c33f a959 0321 ab03 c43f
000007f0: 2b25 7ee1 b6b9 c23f b21e e460 16c5 c23f
-0.12729320896259566 0.03543393572633739 0.09759214262061462 -0.00625370799624244 -0.18285239898181158 0.30414703418263356 0.34422587933453425 0.46220560836119284
0.5358900555561446 0.12850456006325292 0.1270904047959423 -0.34610611934161806 0.18101347784046348 -0.05848645246434626 -0.33169688693302724 0.0490038727066514
0.15859499026457013 -0.3139416413760807 -0.07378886702432753 -0.164313436283883 -0.3099565623581399 0.47473296308094054 -0.018326940243116378 0.17804833798514313
0.46656814473716973 0.11867930385077473 0.1882626734298542 0.45892018601012263 0.04769109926560768 0.1470822595871111 0.4597190653912065 0.1187738239596657
0.1345543015824885 -0.43785290391174303 0.5168854664124696 -0.27480158452485814 0.3612236148771604 0.6122449879160549 -0.3827059714435492 -0.2628218711475064
-0.31676306241089536 -0.3867125105495853 0.08825952200452157 -0.46464730138085436 -0.2991389749873784 0.4482320678187763 0.4182934302388749 0.9863390268805237
0.4866972385253936 0.5560396509612522 0.08448659410295235 0.5060555421603703 -0.020736229435915198 0.0135260564376222 -0.22580536581680283 0.6788746857449937
0.35812779552381474 -0.37106526446702176 -0.6642815143131015 0.38140544958469624 0.44772262914047717 0.4171423508515322 0.985073268719878 0.48618852647731725
0.5554930503071241 0.08421523650216349 0.5057272712690877 -0.020609101049076994 0.013367062651752325 -0.2255924017414809 0.6782178572845138 0.357810081538931
-0.3707258163510768 -0.6638661508448574 0.38103387978768133 0.21998152868901277 0.22984543289017703 0.22903389088788456 0.22476702861104958 0.21973377720670664
0.2151624691505744 0.21222057851771287 0.2141855657438762 0.2182779527283601 0.22323659177747707 0.22794216528026096 0.22918729870396215 0.2253503782521656
0.22258241426679337 0.2121663584254223 0.19332019040960394 0.1909282673795844 0.18939468324592917 0.20464052591605267 0.21486453188853963 0.22109673655177497
0.23771152760591105 0.2323487165058746 0.22578375760819497 0.20989063863594515 0.18593216255545894 0.1833220961298754 0.18043430157191132 0.1999810316475476
0.21569318607440222 0.22672752680478683 0.24659654327562766 0.23978961539257101 0.22338010631924798 0.20042292343694737 0.18180582157050595 0.17852832272154484
0.1755667098654036 0.18985247982350348 0.21330089607845384 0.23371713975707087 0.2560648164496 0.2474881226492319 0.22659950823087702 0.1984727078550554
0.17954378155960504 0.17527607596844166 0.1731348423455913 0.18735924740263218 0.2160905086376995 0.24152213566674696 0.26590822403599196 0.25542854538219595
0.22981364927760925 0.19713636094278364 0.1783065542310908 0.1729929901455719 0.17224832623953698 0.1859730936253062 0.21958032852965512 0.2500018312265745
0.2838211276155622 0.27246014944031377 0.23184486341531244 0.18974288831560146 0.17762999926914655 0.16448179857751047 0.1730250162735429 0.18186058400744518
0.22629108221632072 0.2689079580996865 0.1961164220090206 0.2008924862853152 0.200266750322979 0.19847970955307334 0.19691373309640361 0.1951162347829675
0.1938679753459882 0.19532913730901 0.19715860700553733 0.1986967535807011 0.2003971986087065 0.197194254560727 0.19161849726431465 0.18996243798739193
0.1863965997580322 0.17823872397447482 0.18057469093089426 0.17943128331993805 0.19002364193604304 0.19348485741592383 0.19320181201278575 0.20454515358889216
0.19537645796896 0.19026602184379093 0.18419235756849112 0.17361790769242857 0.1773088706345614 0.175916407300276 0.1891862528643313 0.1950878905690062
0.19815166194377162 0.21468520360190682 0.20221784644825924 0.18790266804321437 0.1782594582806489 0.1717517325138967 0.17552143415339455 0.17441556844052503
0.18277124809887832 0.19218940606105173 0.2054491274741934 0.22771111321538556 0.21167821914577883 0.19123193196451557 0.17853966356617465 0.1715802988028594
0.17465761801138507 0.17414149363576656 0.18233692950477645 0.19467659933136813 0.21466589634616393 0.242638771648849 0.22363860627138588 0.19534168387215606
0.17954972386056098 0.17232617107783169 0.17423792635339988 0.17451173286175764 0.1822215599027424 0.19718784690644203 0.2257619393398994 0.2713697561852486
0.2530515058902619 0.2032711273500804 0.1783763256917762 0.17493047245077953 0.16913530269644012 0.17593523219947382 0.17799575958358227 0.19860670934651176
0.25188795892682675 0.1672646575112819 0.16870218671346532 0.17009282010568189 0.16996210952772967 0.16980524394289237 0.16966331703838392 0.16875180664444328
0.16903578779878153 0.16874640420063708 0.16871238202834785 0.16917990656476126 0.15210359072609775 0.15184368870185114 0.16546544324767384 0.1647451406997236
0.15811350976103097 0.15900480877028159 0.15141012109249755 0.15298010701454365 0.1529848246566119 0.14555417411306568 0.15391036483753637 0.1535349748562955
0.1672498444775448 0.16590815857259836 0.15594525667917492 0.15724395583153658 0.14712457326616665 0.15108408574792415 0.1510504608664203 0.1447595663208347
0.15657661972727863 0.15710653836609845 0.15842030127715154 0.16197412157894417 0.15558561917240335 0.1563619528958047 0.14629255304706965 0.14663963061342639

running_var f8 [361]
00000000: c273 d646 843a a43f ef77 7d5e b2e2 0840
00000010: 6d2f f60e 3485 bf3f c2db 4b18 02e4 1540
00000020: 0544 86b2 7a9a c83f 2b21 f1fc 1617 cb3f
00000030: 3204 ea5c e2e4 cc3f 4b37 f5ab 36d1 cf3f
00000040: 2b35 95ca cfd5 cf3f 1c92 4075 cc63 963f
00000050: b6aa c7c8 2a98 6e3f 9f64 a784 f36a 743f
00000060: 3f51 1a27 d8e5 963f 78e5 2b6e 8838 793f
00000070: 35f2 9616 e36b 743f 38bb 53cf 41c7 923f
00000080: 745d bee3 ee39 693f 7076 cfd8 d1c2 6a3f
00000090: 773b 7c41 ae67 953f f303 cae9 7f34 6d3f
000000a0: 5a06 8e15 2d4f 683f f541 c8fb 989e 1940
000000b0: 94d6 dcf1 73f5 f93f b9ff 8848 6f63 0440
000000c0: eb4b aaab b40e 1940 2aad a518 6a47 fe3f
000000d0: 8766 0790 a4f7 0640 e757 d5dc 0075 1240
000000e0: 0959 c4f7 4953 ea3f 48a0 ec4c 7d23 f13f
000000f0: 4095 537c ab97 0c40 c44c e492 26b3 e93f
00000100: bfd0 dfe8 8e5c eb3f 82a0 f1cc 3065 2740
00000110: 9671 7699 accb 2640 62da ec62 4d63 2340
00000120: 136b cd40 7887 2740 20a2 9964 b95c 2740
00000130: df03 33fd e2f5 2140 7034 2852 acff 2340
00000140: a3d3 3e29 d550 2540 be69 1ea0 bb5c 1e40
00000150: ed9d 6dce 85d3 2140 4649 b892 0580 2240
00000160: f521 ce54 9c3a 1d40 4b73 f79e cc0b d83f
00000170: 6871 8957 1cc8 dd3f 5b49 6ba1 6d90 843f
00000180: 02ac 9451 68c9 e03f d6ad 33b7 42e0 dd3f
00000190: 0265 be6b ac83 e63f 399d 21b7 b143 e03f
000001a0: 7044 811d 1f6a e63f a562 053f 60e6 e63f
000001b0: 728f eae0 2178 e53f 2262 4274 df80 d53f
000001c0: 6592 f9a5 3306 e33f 3ce7 cde1 03a9 e23f
000001d0: c5bb 7d74 8a5b d43f 7620 ce77 a6ae e23f
000001e0: ef00 390b 4806 d83f cd33 993e e7cd dd3f
000001f0: 6550 3c87 1118 873f 8992 4bfd 54c5 e03f
00000200: 0701 4eb3 5dd9 dd3f 41f8 d70c 397c e63f
00000210: b8a0 fea1 4e3e e03f d3ba 0387 5a62 e63f
00000220: e77c f646 9cde e63f 8d52 ef27 1971 e53f
00000230: 9f6a 5c74 587e d53f 0bf5 01a3 3c00 e33f
00000240: f9a1 c038 65a3 e23f 5391 7c56 a754 d43f
00000250: 95ce b2a9 12a9 e23f 8dee 7248 68cd bb3f
00000260: 9d63 3c00 9f62 bd3f 6faf 99c0 d43e bd3f
00000270: bf6b 8a3d 7394 bc3f ee04 6ab8 5fc3 bb3f
00000280: e52a dd83 7f05 bb3f 48d7 7529 8092 ba3f
00000290: 2318 96ad a8da ba3f fb49 55a3 6482 bb3f
000002a0: 4411 bf63 ce51 bc3f c6a5 0b41 c811 bd3f
000002b0: 6250 98df c142 be3f 907b 88b0 2dbd bd3f
000002c0: 2e4b ef02 7dc3 bc3f 3639 bbe5 2910 bb3f
000002d0: b7c3 a81f ca32 b83f 2396 580b 6c99 b73f
000002e0: 4492 d414 f0b8 b73f 83f4 1ab9 bd39 ba3f
000002f0: 19fc 94fd 98f0 bb3f 0a50 5a3b af46 bd3f
00000300: 5166 a33d ead8 bf3f f6bb b9f2 6f20 bf3f
00000310: 239e a0bd 8c80 bd3f 3434 9a7c b0ee ba3f
00000320: fbc0 49d7 ad3a b73f 8fdf fd37 df80 b63f
00000330: 4e41 aab4 ad89 b63f 2517 2e1c 8ac8 b93f
00000340: 8612 ce03 316a bc3f c926 ec5b fb86 be3f
00000350: 44df 840f 80b7 c03f 8dc5 ca86 bc40 c03f
00000360: 1c8b 92a4 bacd bd3f 20cd 3ddf 26dd b93f
00000370: e042 2646 ccbf b63f fd06 8f1d 56df b53f
00000380: 6a4f 83c9 72ee b53f 3966 f298 2285 b83f
00000390: 981f 2d2f b79d bc3f 6436 b718 93de bf3f
000003a0: b871 fa24 5487 c13f 4483 6ac0 22f0 c03f
000003b0: 1d0e a6b5 7191 be3f 4693 d713 bfcf b93f
000003c0: 1f78 3f6c a991 b63f e6d4 e8b6 4c85 b53f
000003d0: 372d ccdf f0af b53f 24ed 71bb ac50 b83f
000003e0: dfb8 ce15 4b4f bd3f c319 cf25 a9a1 c03f
000003f0: dd7f 7ca7 e758 c23f 98ae fbb0 289e c13f
00000400: f55c ff56 c451 bf3f 88a5 766e f9dc b93f
00000410: 465b c8c8 348e b63f 8dea 0b3b 065e b53f
00000420: cfba 2d4c 03ab b53f 249b e2b9 be42 b83f
00000430: 1a62 354d ea0e be3f 35f2 ab13 4058 c13f
00000440: d33a 9412 71d5 c33f 05c1 5fe9 9cfa c23f
00000450: 25c1 94bf e129 c03f 6f2a ff7d ea7b b93f
00000460: d7d5 7cb4 f5d1 b63f 97ee 95b6 78c2 b43f
00000470: 8c95 9bd4 8001 b63f 11e2 0e45 1307 b83f
00000480: cc12 84c4 b170 bf3f 290e 46cf f9cc c23f
00000490: 7f18 948a 450f b73f 75d1 e44f 36e6 b73f
000004a0: 081f 8b3b 2bc6 b73f 01c1 87bd af77 b73f
000004b0: e25c 00a3 492e b73f 2dd3 0cf2 74e0 b63f
000004c0: 633d ac1f bfb4 b63f a34a 37d2 b3ec b63f
000004d0: e631 300e 7f3c b73f faf4 b6c3 0c84 b73f
000004e0: 2cb6 6a80 d9cd b73f b5e7 fd0b 8a2f b83f
000004f0: cc5e 7b77 0f72 b73f 67fc 0d3f 54ce b63f
00000500: 9336 10b0 3927 b63f 632f effd 05c0 b43f
00000510: 1a98 e34c e4da b43f 6391 0d61 bbf5 b43f
00000520: c70d e90b cdab b63f 8bf7 1cf3 9d4a b73f
00000530: 6372 9282 d5a9 b73f d7f8 e744 e0b5 b93f
00000540: 29d8 661b 8177 b83f de69 42ca 8b2c b73f
00000550: 8105 ef4f b115 b63f ce23 e7a2 3843 b43f
00000560: 3b3c 96ec 1f7b b43f 1bd9 4fce 0ca4 b43f
00000570: 9c4e a084 c2c9 b63f 1760 c53a 02d1 b73f
00000580: cedb 3c77 2bd4 b83f f687 c62d d2a2 bb3f
00000590: 8b3d fb36 fde6 b93f 3d5d ed56 7354 b73f
000005a0: 775e 65f2 196f b53f 7559 d878 632e b43f
000005b0: 8291 c979 b160 b43f 2325 7c11 b69e b43f
000005c0: 64a5 49d1 ef19 b63f 7e15 c70e 9ceb b73f
000005d0: 861d 377f ba4d ba3f 1fd1 7082 03f2 bd3f
000005e0: e534 ba91 78af bb3f 2713 3f5b df23 b83f
000005f0: ded8 4277 16b5 b53f 5ea6 c292 345c b43f
00000600: 51ea 82d5 8b76 b43f 86c2 600e 70cc b43f
00000610: 0027 328c 8a47 b63f 99f9 2b55 db96 b83f
00000620: 7aba dc88 7b08 bc3f c3ad 0c06 e13a c03f
00000630: 79ee c573 54c5 bd3f cfec a459 6b09 b93f
00000640: 4a19 b25c eb17 b63f 7f30 c5f6 b1ac b43f
00000650: a83c b900 9ca8 b43f f233 4851 6314 b53f
00000660: b833 d009 7b84 b63f fbec 7a6a 7a41 b93f
00000670: cf67 40cf bffe bd3f be17 390a 4185 c23f
00000680: 7eed 6e5a 1c32 c13f dfc8 a722 b4c2 ba3f
00000690: bb4c 7868 5f8b b63f 89f5 8b81 1475 b53f
000006a0: a3dc a9e0 a79f b43f 9020 79a8 26b9 b53f
000006b0: 21bf 799f d186 b63f 5ff7 a7d9 5c25 ba3f
000006c0: 8c87 757a c420 c13f e4de 52f9 0c28 b83f
000006d0: b142 38b3 c88e b83f 0b2f 5a74 73bd b83f
000006e0: 6e33 a292 03af b83f cf42 a338 47a2 b83f
000006f0: 3527 01fa 6797 b83f 85d1 573b ed76 b83f
00000700: e7e6 d58c b37b b83f 425b 8b12 be70 b83f
00000710: d220 7390 0474 b83f f479 bc51 6193 b83f
00000720: 2836 8000 7170 b63f 966e ac36 296b b63f
00000730: 277b 33e7 3a43 b83f ac15 92c4 1d16 b83f
00000740: bc4b 08bd 51f9 b63f b8a0 b9f9 8401 b73f
00000750: ac7e 6447 8914 b63f 0b1f 80b0 8171 b63f
00000760: b2b4 f21a 047b b63f 9673 8b58 dd76 b53f
00000770: 5921 5e37 de07 b73f 9946 01f1 0602 b73f
00000780: 5475 c035 41d4 b83f f822 d6d4 0283 b83f
00000790: 3b95 6e63 49cc b63f f2de d401 a6d8 b63f
000007a0: 2d63 669b 5c9c b53f 8a45 96ad e968 b63f
000007b0: 1842 b4bb 9275 b63f 0132 51a9 e69f b53f
000007c0: e215 c5fe 75c0 b73f fa0c 16fb 8ce2 b73f
000007d0: 1b10 899a e4df b73f cca0 4000 6321 b83f
000007e0: 0a78 c4b7 95ed b63f c70e 6d9f 29db b63f
000007f0: a601 c237 fbb0 b53f d487 420f c0ea b53f
0.039508947035961764 3.1106917745628304 0.12312627187037402 5.472664241437942 0.19221433369651222 0.21164214468650164 0.22573499237845024 0.24857219120388616
0.24871251479854925 0.021865076691158433 0.0037346683150095384 0.004984809153449592 0.02236116160072865 0.006157429629405235 0.004985701621475648 0.018338230399361083
0.0030793824971159737 0.0032667254040308832 0.020903322932152215 0.0035650728517002627 0.00296744161136146 6.404880460832364 1.6224250266799674 2.5485520998772384
6.264361078518941 1.8924351656704155 2.87091934702477 4.614261103173681 0.8226671065520189 1.0711644177299764 3.5740575516707906 0.8031189793568037
0.8550486133886109 11.69763794374035 11.397801204403361 9.693949786579825 11.764589333606216 11.68110193610579 8.980247414090568 9.99936157933027
10.657876290244365 7.590559484344736 8.913130236512155 9.250042519565465 7.307236981469477 0.3757201721580727 0.46533878849529353 0.010041100014323836
0.5245858758329407 0.46681278124625913 0.7035734276170447 0.5082634522231394 0.7004542900341573 0.7156220656280153 0.6709145920653852 0.33599077561805946
0.5945070497223922 0.5831317339172766 0.3180872094735004 0.5838196124978043 0.3753833875271217 0.465692340022369 0.011276375712931672 0.5240883776828734
0.46639196882462425 0.7026639223911461 0.50760585441187 0.6995060574534712 0.7146741281502756 0.670055940625916 0.3358365188920888 0.593778913854892
0.5824457272001943 0.31766684957462593 0.5831387819693697 0.10860301750920538 0.11478608852156787 0.11423997594982692 0.11164016964396149 0.10844991924570355
0.10555264443716401 0.10379792225088835 0.10489897001215857 0.10745839107156734 0.11062326369489478 0.1135525854876028 0.11820613583432896 0.11616788444415094
0.11235791513108204 0.10571538790393195 0.09452498696261001 0.09218478466990425 0.09266567715219148 0.10244355935260967 0.10913997832265955 0.11435980986635755
0.12440361027565784 0.12158870387951012 0.11524276380134117 0.10520461122560293 0.09073912149483825 0.08790392987236671 0.08803830776947061 0.10071623981465601
0.11099535315413264 0.11924715990258074 0.1305999828125498 0.1269755991138876 0.11642042653924672 0.10103075933675543 0.08886410439141512 0.08543909284255942
0.08566968364476471 0.09578148111395358 0.11178154851688615 0.1244899688092232 0.13694240384655898 0.13232836146655746 0.11940680203229488 0.10082620844293641
0.08816012280246398 0.08406524148525171 0.08471589530761468 0.09498099876684712 0.11449116976175187 0.12993349405424057 0.14333816221278442 0.1376391281295255
0.12234141468012523 0.10102805086957833 0.08810739423675526 0.08346594754758936 0.08464069948034168 0.09476844824039837 0.11741508851026375 0.13550568542986388
0.1549512234418758 0.14827309985367534 0.1262781320051626 0.0995470578774673 0.08914123207508538 0.08109240014703754 0.08596043768519318 0.09385796009053872
0.12281333015205148 0.1468803655699145 0.09007677682174807 0.09335650873692265 0.09286756709763833 0.09167002083973232 0.0905500433876685 0.08936243924547389
0.08869547389280323 0.08954929239488733 0.0907668504370985 0.09185867098036118 0.09298476586510479 0.09447539131897893 0.09158417384184786 0.08908583201808683
0.08653603123112878 0.0810550446469143 0.08146502377675838 0.08187457198579788 0.08855897465496475 0.09098231492404645 0.09243521154207594 0.10043145830420329
0.09557349127757732 0.09052346885656656 0.08626850320344738 0.07915071465607967 0.08000373388334563 0.08062820469772129 0.08901611078209232 0.09303296980704122
0.09698745404317252 0.10795320146146978 0.10118086426085975 0.09113236305471602 0.08372652213926722 0.07883283329315367 0.07960042212795851 0.08054674078825434
0.08633326396524904 0.09343886719496727 0.10274854284135956 0.11697408613764936 0.10814622457310781 0.0942973706979272 0.08479442989014127 0.07953194220558532
0.07993387186699265 0.08124447203659643 0.0870291321063199 0.09605189160718054 0.10950443354952624 0.12679684443842917 0.11629226519101533 0.0977999776704792
0.08630248082235883 0.08076011919655633 0.08069777505555698 0.08234234556603306 0.0879589938123918 0.0986553678475736 0.1171684151635468 0.14469159125490977
0.1343417588776496 0.10453344198302571 0.08806415844474007 0.08381775057565312 0.08056115374516763 0.08485643017877664 0.08799467223593328 0.10213260949964596
0.13381248454521388 0.094361124868438 0.09592871070368393 0.09664079275733799 0.09642050104066666 0.09622616894490509 0.09606027463555906 0.09556467722706515
0.09563753307693511 0.09547031357520289 0.09552029158215028 0.09599884267343112 0.08765321981646734 0.08757264694980402 0.09477584976728491 0.09408746766174286
0.08974181046532598 0.08986693474583063 0.08625085823995943 0.08766947325795742 0.08781457574760301 0.08384498035179741 0.08996380664587401 0.08987468131933908
0.09698875009822433 0.0957490701313296 0.08905466725862692 0.0892432932349683 0.0844171409029399 0.08753834236110528 0.08773152430172393 0.08447114595146134
0.09278047056167041 0.0933006394389401 0.0932600858005234 0.09425944095767419 0.08956275688657925 0.08928165571438305 0.08473177062297185 0.08561325428539074

count f8 []
00000000: 0000 08c0 0b5a 0642
12000000001.0

running_mean f8 [1]
00000000: 596b ca4d e17c 5540
85.95125145690453

running_var f8 [1]
00000000: 7d23 b90e a629 8040
517.2060827697711

count f8 []
00000000: 0000 20c0 0b5a e641
3000000001.0

a2c_network.sigma f4 [15]
00000000: 99fe 81bf e0f5 f0be dc0b a5bf f0e3 3fbe
00000010: 0218 96be 6a61 7abe f290 c5be 9dc9 53bd
00000020: 85ab c7be f959 19bf 2120 63be 8aed 06bd
00000030: 31e4 c8be 322c 18bf 393e a4bd
-1.0155822 -0.47062588 -1.2894244 -0.18739295 -0.29315192 -0.24451223 -0.38587147 -0.051705945
-0.38998047 -0.5990291 -0.22180225 -0.03294138 -0.39236596 -0.59442437 -0.080196805

a2c_network.actor_mlp.0.weight f4 [128, 361]
00000000: 90c3 2d3f 3eba 2bbf c222 5b3e db5c 8c3e
00000010: 8655 593e 6e52 f8be 3678 ebbd 163e a5be
00000020: 7791 dc3d c911 c0be aa35 d6be b533 d0be
00000030: 6574 fabd 9800 d13d c380 4dbf 674d 8f3f
00000040: 72b8 8fbe 3afa 3dbf 8a56 933f 6303 963f
00000050: 3a8a a3bf d897 83be 8828 b2be de91 1ebd
00000060: 0f42 eabe b57c 863e 3b50 bb3f ef92 263f
00000070: e19d 843e 5101 233f 81eb 11bf 6c4e 6abe
00000080: 020a 18bf 2b43 453d b7d4 82bf 9500 313f
00000090: f8eb 75be 163e c6be c6a2 ccbe 0449 4cbf
000000a0: 2772 67be b525 c7be b74a 5d3f 99a4 6fbe
000000b0: 6e52 ef3c 0650 11bf 7afe bebe b897 88bf
000000c0: 63a6 c93d c689 e6be 4e26 07bf e03b 4cbf
000000d0: 54c7 4fbd 8ffd a6be 1f3f 4fbd d5ca babe
000000e0: a882 1abf 9dd3 96be faa2 edbd dc2b 803d
000000f0: 65f9 0abf afe2 a03e 328f a6bf c5fc 89bf
00000100: c2a6 a83e 1f48 1abe e336 26bf 460a 80bf
00000110: c89e d5be ec8e 45bf bc10 2dbe 658e d53e
00000120: a952 af3d c8b7 8e3e 3fe1 d6be 2233 d83d
00000130: 6280 14be 38b3 043d 7a67 473c 574e 24be
00000140: 05fa 8b3e 121d 2cbd b68b 863e b955 bdbd
00000150: 5fd2 2c3e 9e7b 0d3e c285 953d e6a4 76be
00000160: 279e 78be c97e bb3c 079d a9be ec17 d2be
00000170: 1d1c 35be 2453 e9bb 9fbc 2abe cad1 4fbc
00000180: 962a e53e 08c5 6c3e a301 d7bd fc16 c03e
00000190: 2507 b5be ea50 863e a5a4 c9be dc16 fc3e
000001a0: b8dc 07bb 31d2 803e eafa 8ebd f182 0dbd
000001b0: 1c13 8c3c 1881 c23d 8e35 c63e 622f 48bf
000001c0: a11d 1c3f 765a 6bbe 8c1a f53e f8cf 20be
000001d0: d814 aebe e110 a8be 1edd d6be 669d 6bbe
000001e0: cc79 85be 1cc7 8ebe 0e5d c53e 4887 05bf
000001f0: 1c89 153d fa62 8ebe c860 d3be 4c08 45be
00000200: b9c4 293e ded7 fe3d 1767 9abd 8e99 d53d
00000210: aa75 b33d 60da 63be d63f aabe 5a7e 9fbe
00000220: b91a b13e 9a71 21bf 6c52 fabe 6075 bfbe
00000230: 9f8b 433e ac0c 203e 2391 03bf ef68 0ebe
00000240: a30d f7be 13d3 e6bf 5bd2 673e bb60 8fbd
00000250: 9e56 bebe d25e 6a3e fa52 2a3e 5eef 91bc
00000260: fa78 433e 979a f73d 380a 713e f4d2 143e
00000270: c1d3 f2be 2ac8 debe 838d 15be 053d d73d
00000280: b864 83be 2719 f63d 0773 1cbf 06ae b3bd
00000290: 0e54 d7be 5e1c 133e 3fef 94be 0d15 03bd
000002a0: 8150 5c3d a336 d2bc da86 283e 7855 813f
000002b0: 2ab3 a53e 7de6 1ebf 79a4 f13c bdd1 f13e
000002c0: ec6e 57bf e96f a23e 5f12 bf3d 9bb2 9dbe
000002d0: c3a9 debe 0cb1 12bd 2bc2 cc3e 5f2e 6cbe
000002e0: 7d8f 493d cbbb 643d 36d7 ef3d f79c b53d
000002f0: a6cb 0d3f 94ed d4be 9eeb 613e 98b3 07be
00000300: a8cd 423f 1d45 003f 6b3c 753d 3458 0fbf
00000310: ff35 ce3e a0fc 9bbd 6191 073f f4da 883d
00000320: 3c1a d0bd 7a19 e43d ce98 5b3f deb7 143f
00000330: 84bf 2a3e 2acc df3e 35f1 073f 2bf2 923f
00000340: 8183 0a3f 8b79 343e bbb7 683f 7968 04bf
00000350: 7e49 cabe a579 f6bd da3b 90be 2623 ee3e
00000360: f0ce 793f da19 0dbe 73f5 f13c acff b7bd
00000370: 57e1 263e ea5d afbb cb45 27bf d50b 39bc
00000380: 3e7d b3be 7ccc b0be cfa7 fe3d 0a45 323d
00000390: 4f4c 8d3e 48b7 a1bc 7d98 183f 4b8c b63e
000003a0: c744 7a3e f1a4 3abe 3a19 10bf 1001 2bbd
000003b0: a732 083d 859f a2be 0945 b83e 57c6 023d
000003c0: a530 61bd 5fcc 963e 277e 52be e062 8cbe
000003d0: c2c0 193e 8037 003f b9be 8cbd 64df fcbe
000003e0: 1c70 d53e 6fbb e1be a004 91be 8027 17bf
000003f0: 81cb 07bf b88e bbbe a304 063f 36fa 4abe
0.6787653 -0.6708106 0.21399978 0.27414593 0.21224031 -0.4850039 -0.11497538 -0.3227393
0.10769933 -0.3751357 -0.41837817 -0.4066445 -0.12229232 0.102051914 -0.802746 1.1195496
-0.28070408 -0.7420994 1.1510785 1.1719784 -1.2776558 -0.25701785 -0.34796548 -0.03871333
-0.45753524 0.2626702 1.4633859 0.6506795 0.25901702 0.63673884 -0.56999975 -0.22881478
-0.5939027 0.04815976 -1.0221165 0.69141513 -0.24015796 -0.38719243 -0.39967936 -0.79798913
-0.2260214 -0.38895956 0.8644213 -0.23402633 0.02921411 -0.5676273 -0.37303525 -1.0671301
0.09846189 -0.45026988 -0.52792823 -0.7977886 -0.050727203 -0.32615325 -0.050597306 -0.36482874
-0.60355616 -0.29458323 -0.11603351 0.062583655 -0.54286796 0.31422946 -1.301245 -1.0780264
0.32939726 -0.15066575 -0.649275 -1.0003135 -0.41722703 -0.77171206 -0.16900915 0.417102
0.08560688 0.2787459 -0.41968724 0.10556628 -0.14502099 0.03239748 0.012170667 -0.1604551
0.27339187 -0.04201991 0.26278466 -0.09244866 0.16877125 0.13816687 0.07300903 -0.24086341
-0.2427908 0.022887604 -0.33127615 -0.41033876 -0.17686506 -0.007120507 -0.16673516 -0.012684295
0.44759053 0.23122036 -0.10498359 0.37517536 -0.35357013 0.26233608 -0.39383426 0.4923619
-0.0020730924 0.25160363 -0.06981452 -0.034548704 0.017098956 0.09497279 0.38712734 -0.781973
0.6098271 -0.22983727 0.47871816 -0.15704334 -0.34000278 -0.32825378 -0.41965574 -0.23009261
-0.26069486 -0.27886283 0.38547558 -0.5215955 0.03650771 -0.27809888 -0.41284776 -0.19241446
0.1657895 0.12443517 -0.07539194 0.10429679 0.08762677 -0.22251272 -0.33251828 -0.31151086
0.345907 -0.6306397 -0.48891008 -0.37394238 0.1909623 0.15629834 -0.51393336 -0.13907216
-0.48252591 -1.8033165 0.22638838 -0.07000872 -0.3717546 0.22887734 0.16633216 -0.017814334
0.19089118 0.120900325 0.23539054 0.14533597 -0.4742718 -0.43512088 -0.14604764 0.105096854
-0.2566278 0.12016516 -0.6111302 -0.08773427 -0.42056316 0.1436629 -0.2908878 -0.032002497
0.053787712 -0.025660818 0.16457692 1.0104208 0.32363254 -0.6207045 0.029497372 0.4723033
-0.8415363 0.31726006 0.09329676 -0.30800328 -0.43488893 -0.035813376 0.39991888 -0.23064564
0.049209107 0.055843156 0.1171097 0.08867829 0.5538887 -0.41587508 0.22062537 -0.13252103
0.76095057 0.5010546 0.059872072 -0.5599396 0.4027557 -0.07616544 0.52956206 0.06682387
-0.10161254 0.11137672 0.85780036 0.5809306 0.1667462 0.43710452 0.5310243 1.1480154
0.5410691 0.1762449 0.9090535 -0.5172191 -0.39509195 -0.120349206 -0.28170663 0.4651119
0.97581387 -0.13779393 0.029535985 -0.089843124 0.16296898 -0.0053517716 -0.6534087 -0.011294325
-0.3505649 -0.3453101 0.12434351 0.043522872 0.2759728 -0.019740716 0.5960768 0.3565391
0.24440299 -0.18226983 -0.5628849 -0.04174906 0.03325143 -0.3176233 0.3599017 0.031927433
-0.05497803 0.29452798 -0.20555936 -0.27419186 0.15014938 0.50084686 -0.06872315 -0.49389184
0.41687095 -0.44088313 -0.2832384 -0.5904465 -0.530449 -0.36632323 0.52350825 -0.1982201

a2c_network.actor_mlp.0.bias f4 [128]
00000000: bde9 c3bf 3044 dcbf bd1c e9be a6ff afbf
00000010: e6b1 d2bf 3cfc 063e 69e2 32c0 270a 68bf
00000020: 248d 223e d50b f1bf 9a23 abbf ea79 99bf
00000030: b7ce bdbf fd4c b6bf 1c33 dcbf 5cb6 88bf
00000040: 7281 d1bd 1106 8cbf 187c 0fc0 8e09 d9bf
00000050: 2ee6 6dbf 254c 79bf fdeb 82bf cf42 25bf
00000060: ed9e adbf 7333 cdbc e412 2cbf 332b 99bf
00000070: 0777 aabf c628 e33e 3430 0ac0 bf84 d6bf
00000080: 96b2 c0bf 2de5 c4bf 8423 79bf 9fa9 d1bf
00000090: 2989 ecbf ff2f 88bd 8659 96bf badf 62bf
000000a0: 9a11 99bf 341c d7bf cf12 a6bf 0bf4 3cbf
000000b0: 28df 9ebf c177 55bf 2986 f5bf 6c6a 7fbf
000000c0: eea7 06c0 e28c 86bf 31c5 aabf 1b9a 01c0
000000d0: 081f 9dbf 3418 453e b6db 4cbf c9c4 e2bf
000000e0: ea90 b4bf 97b9 b3bf 32dc afbf 7819 90bf
000000f0: 6798 f7bf 5223 47bf 5c4c f4bf c3c0 2ec0
00000100: 8bd1 68bf beed d8bf bf0c c8bf 8279 85bf
00000110: f8ad 00c0 ee26 b7bf 2f8d b1bf df59 37c0
00000120: 7dce 93bf 7b1c eabf 126c afbf 7065 bcbf
00000130: bb6e 03c0 0e30 d3bf 0756 a6bf 4f69 06bf
00000140: c9e4 97bf e505 fbbe 89db 91bf 74f4 cf3e
00000150: 602f 71bf 8979 c6bf afee e8bf 2e14 8bbf
00000160: 8f08 b1bf 0725 0dbf 0cbb f5bf e3ff d9bf
00000170: 3657 efbe e9fd b3be 671c 95bf b17c eebf
00000180: ab25 ddbf 9606 b0bf cb3f a4bf 2925 e4be
00000190: acf7 d0bf b4e2 a4bf b439 e9bf 5acb 29be
000001a0: 9a94 67bf d03b abbf 89e5 c1bf 4bc8 debf
000001b0: 965b 12bf 5edf 13c0 9cfb 8dbf 327b 32bf
000001c0: e016 00c0 e099 89bf a4df c8bf 775f 703d
000001d0: f878 5dbf bcc1 f9bf 118f 43bf 05ff c83e
000001e0: f196 7cbf bae8 afbf b65e c7bf 71d2 6dbf
000001f0: 01c6 24be eb33 dabf ab73 87bf 5d72 d9bf
-1.5305706 -1.7208309 -0.45529738 -1.3749893 -1.646054 0.13182157 -2.795069 -0.9064049
0.15874153 -1.8831736 -1.337024 -1.199033 -1.4828709 -1.4242245 -1.7203097 -1.0680652
-0.10229768 -1.0939351 -2.241949 -1.6956041 -0.9292935 -0.9738181 -1.0228268 -0.64555067
-1.3564125 -0.025048947 -0.67216325 -1.1966308 -1.3317574 0.44367045 -2.159192 -1.6759261
-1.50545 -1.5382439 -0.9731982 -1.6379889 -1.8479358 -0.066497795 -1.174607 -0.8862263
-1.1958497 -1.6805482 -1.297449 -0.7380988 -1.2411852 -0.83385855 -1.9181567 -0.9977176
-2.1039996 -1.0511744 -1.3341428 -2.0250309 -1.2275095 0.19247514 -0.8002275 -1.7716304
-1.4106724 -1.4041013 -1.3739073 -1.1257772 -1.9343385 -0.7778827 -1.9085803 -2.7305152
-0.9094474 -1.6947553 -1.562889 -1.0427706 -2.0106182 -1.4308755 -1.3871211 -2.8648603
-1.154739 -1.8289942 -1.3704855 -1.4718456 -2.0536335 -1.649904 -1.2995003 -0.5250444
-1.1866695 -0.49027935 -1.1395122 0.4061619 -0.94212914 -1.550584 -1.819784 -1.0865533
-1.3830737 -0.55134624 -1.9197707 -1.7031215 -0.46746224 -0.35154656 -1.1649293 -1.8631803
-1.727712 -1.375201 -1.2831968 -0.445596 -1.6325583 -1.2881684 -1.8220735 -0.16581479
-0.90461123 -1.3377628 -1.5148174 -1.7404875 -0.57171 -2.3105083 -1.109241 -0.6971923
-2.0013962 -1.0750084 -1.569325 0.058684792 -0.8651271 -1.9512248 -0.76390177 0.39257064
-0.9866782 -1.3742898 -1.5575778 -0.92899233 -0.16091157 -1.7047094 -1.0582174 -1.6988026

a2c_network.actor_mlp.2.weight f4 [128, 128]
00000000: bd86 50be dafd 30be 37e5 89be fbec 033e
00000010: 007f 83be e41b 0cbf 7866 043f 4dd8 853d
00000020: 7f6c 8cbe 24ef 5a3e 9335 8abe ad0c aabe
00000030: 2821 883d cecf eebe c39b b8bd 278b f8bd
00000040: 8f12 f0be 0d02 41be c54b 7a3e 6b44 68bd
00000050: bddc 41be 3116 ebbe 82fe 5ebe 07f3 39bf
00000060: 4052 acbe 3c23 d6be 135d 72be b498 55be
00000070: 66ec 0abe 7c84 2ebf 60df 233d 2765 e7be
00000080: 72d9 89be fb2b 14be 8965 3fbf 4f7c 88be
00000090: f595 4e3e fa25 76bf 609b a9bd b78a 77be
000000a0: a9d6 33be 3a31 b2be 7e51 b6be b919 e7bb
000000b0: 78ed a6bd 9be7 f7bd b8f0 2c3e 20db eabe
000000c0: 0d34 a33e c7c9 09bf 1fa7 b2bd 2687 113e
000000d0: daa6 85be 18b7 f4be a90b 23bf 0fe9 233e
000000e0: 856a ff3d f2bf 9c3d 61a6 e0bd c76c 42be
000000f0: 2fd8 273e 5f3e 18bf 27d2 8bbd 9529 eb3d
00000100: 88b9 fabe 22ad c1bd cd2f a63d b96b 6bbf
00000110: 1082 4d3d fc89 debe c632 c4be e4eb 3d3f
00000120: e5cf 17bd df33 6f3e 7f8e f9bd 301e b2be
00000130: 2994 9fbe 7f92 a5be 811f f2be 3a8b 34bf
00000140: 4442 143c 6679 03bf 6dbc aa3d cee1 28bf
00000150: 13a4 f4be e78a d5be 3a7e 2e3e 49df c5be
00000160: 3fd1 92bd 06d7 26bf c539 5f3c 3c16 70be
00000170: 593f b0be ba74 3abe b8e2 84be 4f2f 1dbe
00000180: 2b95 31be e218 783c 2ebf 54be 102b fbbd
00000190: 304c babe 25f4 b9bd 5087 263e 3c5a babe
000001a0: 73c2 e2be c770 dbbe b8d4 2fbe 35a8 333e
000001b0: f6c5 e7be ea37 98bd 6aba 16bf 10e0 31bf
000001c0: 3fd6 053e 62cd 21be ba23 89be c6db 04bf
000001d0: 2e73 0dbf 2e44 ae3c 5cd8 03bf 7980 3ebf
000001e0: 5d8e b6bd 149c 65be 0313 f6bd cfaf 38be
000001f0: 8101 fbbd 2cac 3bbe cdbe 55be 752f 913d
00000200: 7b3c 0fbf 9348 e73c 6520 693c 9556 11bf
00000210: 98ea 3cbf ef0c 40be 820e 2f3f d2a1 bc3d
00000220: 8a51 05bf c094 1bbe ef1d f1be 4398 bbbd
00000230: f7f4 aebf 9fc2 8abe 381d 923e 168a 56bf
00000240: e73a 8e3d 7d7b 1dbf 04cb 13bf 96c6 df3c
00000250: 5976 cebe 5a3a 2e3e fe60 8cbe 26d0 43be
00000260: 2e2c 1fbd db16 b7bc 3cfd 5cbe c9bd 28bf
00000270: 9b60 9abe 6e5e 04bb b5dd 3a3e 37c3 dc3d
00000280: f1eb 523e 3895 95be 42ff 25be 4f23 f7be
00000290: b9fa ccbd a3e7 a23d b589 ab3e 878a 223d
000002a0: 09fb 56be a543 ce3d d2c9 bc3e 96c5 b7be
000002b0: b5b1 40bf d607 c03e 1d4b 5c3e 44fe 81be
000002c0: dc75 03bf 9e2b 69bd c7d7 ff3d 6bd4 64bd
000002d0: 7241 cebe 2c1a 15bf a470 47bf 6783 8b3e
000002e0: 91f7 793e 56cf 8bbf f7ea 1fbf db13 babc
000002f0: 681e b4bd 5f3d cabe dc4c 453e 5b57 d1be
00000300: 843a 73bf 286e 18bf 70b8 adbe 8f99 78bb
00000310: f0f6 9d3e 484f 8b3d fa8e 953c c2bd 9a3e
00000320: 2052 69be ce07 4b3e 4cca d9be 3c9c 3c3e
00000330: 6063 e3be e5b8 24bf 5761 6e3e 54e4 b63d
00000340: bb49 22bf 144a 9abe 901a 34be aae1 bfbe
00000350: a1c0 0b3d 8743 96be ef35 06bf 240a 1a3e
00000360: 57ad 663e ad3d dfbe 49f0 99bd 03ba d93e
00000370: 19ab 7f3c ecd7 2f3e 2776 173d b6ec f0be
00000380: 2a6b 9d3d fde8 0a3f dd3e 34be fa12 41bc
00000390: 1492 d03d 1659 173e 5992 1f3f 17f9 1f3e
000003a0: 449e 683e 0e9f 453e abe5 04bf 7581 193e
000003b0: aa2e 00bf 7fba 113e 0de3 02bf 75f4 90be
000003c0: 2fdd 2f3d 06ae 91bd 80a1 163c da82 4b3c
000003d0: 88ac 52bf e013 103e 2c3c 8b3e 9ad7 d3be
000003e0: 5ac9 bc3e dbb6 963e dd18 b6bd 1647 ee3b
000003f0: 4c15 8f3d a097 6d3c badb 163d c7ce 05bf
-0.20363899 -0.17284337 -0.2693269 0.1288337 -0.2568283 -0.5473006 0.51718855 0.06535397
-0.27426526 0.21380287 -0.26994 -0.33212796 0.06646949 -0.46642917 -0.09014084 -0.12135916
-0.4688916 -0.18848439 0.24442966 -0.056705873 -0.18931861 -0.45915368 -0.21776775 -0.72636455
-0.33656502 -0.41823757 -0.23668317 -0.20859033 -0.13566741 -0.68170905 0.04000795 -0.4519436
-0.2692371 -0.14469902 -0.74764305 -0.2665734 0.20174392 -0.961517 -0.082815886 -0.2417401
-0.17562355 -0.34803182 -0.3560905 -0.007052627 -0.08150762 -0.12104722 0.16888702 -0.45870304
0.3187565 -0.5382351 -0.08723282 0.14211711 -0.2610386 -0.4779594 -0.63689667 0.16006874
0.12471489 0.07653798 -0.10969234 -0.18986808 0.16391061 -0.5947017 -0.06827193 0.114825405
-0.48969674 -0.094568506 0.08114586 -0.91961247 0.050172865 -0.4346465 -0.38319987 0.74188066
-0.037063498 0.23359631 -0.12185382 -0.34788656 -0.31167725 -0.3233833 -0.4728966 -0.7052494
0.009049002 -0.51357114 0.083367206 -0.6596955 -0.4778143 -0.41707537 0.17040339 -0.38646916
-0.07168817 -0.6517185 0.013624613 -0.23445982 -0.3442333 -0.1820859 -0.25954223 -0.15350078
-0.1734206 0.015142651 -0.20776054 -0.12264073 -0.3638625 -0.0907977 0.16262555 -0.36396968
-0.44288978 -0.4285948 -0.1717099 0.17544635 -0.4526822 -0.0743254 -0.58878195 -0.6948252
0.1307001 -0.15801004 -0.2678507 -0.5189785 -0.55253875 0.021272745 -0.51502013 -0.74414784
-0.089138724 -0.2242282 -0.12015345 -0.18035816 -0.12256146 -0.18327397 -0.20873566 0.0708913
-0.5595166 0.028232848 0.014228915 -0.5677274 -0.7379546 -0.18754934 0.6838151 0.09210552
-0.52077544 -0.15193462 -0.4709315 -0.09159901 -1.3668507 -0.2710161 0.28537917 -0.8380445
0.069448285 -0.61516553 -0.5773165 0.027316373 -0.40324667 0.17014447 -0.2741775 -0.19122371
-0.038860492 -0.022349766 -0.21580976 -0.6591459 -0.3015183 -0.0020197886 0.18248637 0.10779422
0.20597817 -0.29215407 -0.16210654 -0.48269126 -0.10008759 0.079543374 0.335035 0.03968289
-0.209942 0.10071496 0.36872727 -0.35892934 -0.7527116 0.37505978 0.21513028 -0.25389302
-0.51351714 -0.056926362 0.12492328 -0.05586664 -0.40284306 -0.5824306 -0.7790625 0.2724869
0.24410845 -1.0922649 -0.624679 -0.022714546 -0.08794862 -0.39499947 0.19267601 -0.4088696
-0.9501116 -0.59543085 -0.33929777 -0.0037933325 0.3085246 0.06802231 0.018256653 0.302229
-0.22785234 0.19827196 -0.42537153 0.18418974 -0.44411755 -0.64344627 0.2327932 0.08930269
-0.63393754 -0.30134642 -0.17588258 -0.37476856 0.034119252 -0.29348394 -0.52426046 0.15042931
0.22527061 -0.43601742 -0.07516534 0.42524728 0.015604758 0.17172211 0.036977913 -0.47055596
0.076864555 0.5426176 -0.17602105 -0.0117843095 0.10184112 0.14780077 0.62332684 0.15622364
0.22716624 0.19298956 -0.51912946 0.1499079 -0.50071204 0.14231299 -0.511277 -0.28311506
0.042935546 -0.071132705 0.009193778 0.012421334 -0.8229451 0.14070082 0.27194345 -0.41375428
0.3687237 0.29436383 -0.08891461 0.0072716577 0.06986484 0.014501482 0.03683064 -0.5226864

a2c_network.actor_mlp.2.bias f4 [128]
00000000: 191a bdbf 1b10 08bf 4de9 eebd 67fa 04bf
00000010: 5234 6cbe e739 0abf aa7a a2be c596 febe
00000020: 03ed 22bf c649 07bf f3bd afbe dcce 3cbf
00000030: edc0 fcbe 8431 0ebf cd0d e7be 26ea 9abe
00000040: d28f 6cbe 49b4 bcbe e4fc 4fbe 650d efbf
00000050: 703c 8dbe a3d8 1dbf 50f8 05be 2517 34bf
00000060: 9cfa 00bf 0cef 2b3e 2f71 68be 9148 e7be
00000070: 4663 3f3e e7d4 94be bf29 88be 1a58 5abf
00000080: 1706 96be 0c26 23be 71e8 58bf 487b b4bd
00000090: 7536 9fbe 0c67 83be 1af5 76be ed83 5fbe
000000a0: 1b8c 46be c9de 00bf 197f 47bf 0273 78be
000000b0: a506 e6be 90cb d2be bcb4 dabe b739 6bbf
000000c0: 3d03 ebbe d723 27bf 84dd 3cbf 6ec4 7abe
000000d0: e50d 8abf 60e7 08bf 6faa 02be 17c5 62be
000000e0: d980 b03d a2de 41bf bf47 06bf 32cb c8be
000000f0: fc22 32bf 7597 fcbd 09f0 17bf 80a3 c1be
00000100: aa5d aebe ae85 3bbf 3f0f 2ebc bc77 88be
00000110: 7858 12bf 2484 a7be 1a7d 9fbe f2f7 0cbf
00000120: 6c50 d4be 731e 2cbf 3644 e2bd 30d3 9c3c
00000130: 1879 2bbf ca3e 03bf ec0f 89be 141d 4ebd
00000140: a906 a2be 15bf dfbd 24ea 30bd f3cf 14bf
00000150: 8403 c2be 2e60 843e 59d3 aebe f4a7 03bf
00000160: 78cd 27bf 807e 72be 8352 09be d938 05bf
00000170: e3e5 4fbe 29a4 1cbf 22d8 31bf 0f0e 74be
00000180: 297e 16bf 52ea f7be fae2 83be f88b e2be
00000190: a404 39bf dda7 17bf 4b30 babe 6745 9fbd
000001a0: 583e 1dbf 2bd0 08bf 4eda dfbe 35e2 ad3d
000001b0: 4eeb b6be 1981 cdbe be7f c5bf c772 b2bd
000001c0: 6aa8 0bbf c626 9ebe 5a3d babe 190a 20bf
000001d0: 18c4 8fbe 5234 d7be fa5e debe d59e d2be
000001e0: c3b0 9ebe 83fd 77be 3f95 cdbe f523 01bf
000001f0: d696 4fbe 3525 a4bf 9f65 a1be 53db 12bf
-1.4773589 -0.53149575 -0.11665592 -0.51944584 -0.23066834 -0.539946 -0.3173421 -0.49724403
-0.636429 -0.52846944 -0.34324607 -0.7375314 -0.4936594 -0.55544305 -0.45127717 -0.30256766
-0.23101738 -0.36856297 -0.20311314 -1.8675963 -0.27585173 -0.61658686 -0.13083005 -0.70347816
-0.503824 0.16790408 -0.22699426 -0.4517255 0.18690214 -0.29068682 -0.2659435 -0.8529068
-0.2930152 -0.15932482 -0.8472968 -0.088125765 -0.31096235 -0.25664556 -0.24116936 -0.2182767
-0.19389383 -0.50339943 -0.7792831 -0.24262622 -0.44926944 -0.4117093 -0.42716014 -0.9188494
-0.45900908 -0.6528906 -0.73775506 -0.24488994 -1.078549 -0.5347805 -0.12760328 -0.22145496
0.08618326 -0.75730336 -0.52453226 -0.39217526 -0.6958463 -0.12333576 -0.5935064 -0.37820053
-0.34055835 -0.73250854 -0.010623752 -0.2665385 -0.5716624 -0.32718003 -0.31150132 -0.55065835
-0.41467607 -0.6723396 -0.110481665 0.01914367 -0.6698165 -0.51267684 -0.2676996 -0.0503207
-0.31645706 -0.10925118 -0.043192044 -0.58129805 -0.37893307 0.2585463 -0.3414562 -0.5142815
-0.65547895 -0.23681068 -0.13410382 -0.5203987 -0.20302539 -0.6118799 -0.6947042 -0.23833488
-0.58786255 -0.4842096 -0.25759107 -0.44247413 -0.72272706 -0.59240514 -0.3636497 -0.07776909
-0.61423254 -0.5344264 -0.4372124 0.08490411 -0.35726398 -0.40137556 -1.5429609 -0.08713298
-0.54553854 -0.30888957 -0.36374933 -0.6251541 -0.28079295 -0.42032105 -0.43431836 -0.41136804
-0.30994233 -0.24217801 -0.40152928 -0.5044549 -0.20272383 -1.2823855 -0.31522843 -0.5736591

a2c_network.critic_mlp.0.weight f4 [128, 361]
00000000: 9d98 0440 80bf 83bd 41d6 84be 047d b6be
00000010: 50b1 113f b413 fd3d 8626 b03e 77b1 0c3e
00000020: d185 003f 99b9 35c0 8b48 54bf 5bf7 38bf
00000030: 74f7 1a3e a630 9c3e a3d7 c6bc 6b5f 813e
00000040: 0867 59be 85f1 b6bd 808e 723e b073 c8be
00000050: 5fc4 693f b314 2a3e eb81 4e3e 41a0 e03c
00000060: 68d8 97be 07e7 3ebe ad96 413e b7fe ae3d
00000070: 0d3c 123e 439a edbc 28fa 593d 5a70 8c3e
00000080: 1685 b0bc 448b 43be 85b5 0e3e ea69 923c
00000090: f856 bebc a0db d63d 634c 163e 9293 843d
000000a0: 9cfa 023b fa47 b0bd 5d51 12be 369b 483e
000000b0: e40e 43bd cbe3 02bd a01b b6bc e18d 193e
000000c0: f851 aa3d 53ca 16be e46c fd3d 34b1 4e3e
000000d0: edb7 bd3a e092 ad3d b0fa 87bd f8b9 15be
000000e0: 79be 263e c799 5d3d 065a 25be cfb4 ae3c
000000f0: d7bd 823d 2dc0 1b3d d83d d63e 70c9 83bd
00000100: 1799 993d 2732 273e f5cc d63d 3cce 0cbd
00000110: 7ccf ec3d d827 80bd e64e 50bd 7c9d 44bc
00000120: 99fe 26bd baa0 113c 4fab bf3d 5952 61bc
00000130: 3725 91bd 49b9 983c 7e0c 393d 42b0 09bb
00000140: e156 59bd b5c4 3ebd b899 223d 438b 5c3d
00000150: f192 033d eadc 293d 0a7b c2be d5c9 ddbd
00000160: f326 02bb 1dca abbd dddb bbbd cf67 393e
00000170: a0bc 64bd 6fc7 37bd 0018 d33c f395 dbbd
00000180: 958f 863d b38a a33d 47c2 a1bc 0315 0bbe
00000190: 0bbc 5dbd 168f 753e f028 ec3d eb9a 09bd
000001a0: 409f 4fbc 4c61 e9bc 1628 19be 1052 163e
000001b0: b42a 02bd 532a c43d 88ab 11bc 9f21 003d
000001c0: fd86 77bd 143e 223e e6dd c4bd 66ec e53d
000001d0: 64fe 4f3c c7c0 4d3e 13c1 b53e 4161 6cbe
000001e0: 7414 f73c 5209 863d 5046 153d 7f30 95be
000001f0: 1079 533e bc4b 403e bec2 673e 92b9 833e
00000200: 94b5 d03d bfa3 4ebd e7fb 813c 3a76 2fbe
00000210: 8980 ef3c 9dd9 3cbd a27f aebb 903e 6c3e
00000220: 75fe f13f ad47 2140 e126 6a3e 88fc 28be
00000230: 5228 adbd 3294 9e3d a018 233d 5c3b ffbd
00000240: 2b2f fb3e 3092 2a40 4caa bd3d 293c 3fbd
00000250: 546b 8e3c 0ece e73c 6835 85bd b04b a9bc
00000260: 2a98 fa3a a05a f33c eaa1 96bd 7b4f c0bd
00000270: fb3e ca3c bfa1 4abe a43c bb3d dc4e 093e
00000280: df2d 16bd dc18 213e d6a9 643e 0621 7b3e
00000290: fc37 b2bc 46f5 59bd 889c e33d 16ad b0bd
000002a0: b08d d5bd 8d32 e93d 2e0b 7ebc e841 143d
000002b0: c8a3 a4bd abf3 293b 6aba a6bc 1ba0 a5bd
000002c0: 1aac 4a3d 5d90 8fbd 9e3c fb3c 9855 88bd
000002d0: 2c54 043e 5b73 f4bc 4853 f8bd 341a cabb
000002e0: 534d 613c 21cd d5bd 0c80 2d3d c7f0 b13d
000002f0: d208 863d 1277 86be a476 893d 5a92 6a3b
00000300: 8a25 08be 6571 a0bb 1e8b 133d 97c3 9dbd
00000310: 4924 603d fb4b 183f 4de3 303d b0bd bdbb
00000320: 2e50 863d caec c33c c123 7bbe 404a a2bd
00000330: 75dc f53d 9cb5 52bd 6dbe d0bd 9717 943f
00000340: d1d2 a83f 3128 413f bf4f c5bd 5712 32bc
00000350: d039 5c3e af9e 02be 359c febd d877 8a3d
00000360: b38c 983f f8b2 813c e37a 92bd 9a97 fd3c
00000370: fb06 753d 2602 8e3d 6f00 f9bb d47a a43c
00000380: 46de 113d f637 623d b35c dc3c a2ed f6bb
00000390: cd1b 36bd 4906 a8bd 6dc6 63bc a11e 27bd
000003a0: b42b 02bd 2781 ad3c 2c23 963c 46d9 bf3b
000003b0: 84a1 eb3c c57e c43b 09ae eebc 1027 5fbc
000003c0: cf1c 5fbc 942f 5e3c 1abe 47bb 503e 133d
000003d0: 57f3 5e3c 732f 873d d26f 213d 60d1 14bc
000003e0: 8169 0b3d 79e8 33bd ac77 e6bc ff58 8b3b
000003f0: 74a2 0c3c c21c ddbc 79b6 e4bb 0328 433a
2.0718148 -0.0643301 -0.25944713 -0.35642254 0.5691118 0.12357274 0.3440439 0.13739572
0.5020419 -2.839453 -0.8292319 -0.72252434 0.15133458 0.30505866 -0.024272745 0.2526811
-0.2123071 -0.08932785 0.23687172 -0.39150763 0.91315264 0.16609459 0.20166747 0.027420165
-0.29657292 -0.18642817 0.18905134 0.08544677 0.1428072 -0.029004222 0.053217083 0.27429467
-0.021547835 -0.19096094 0.13936432 0.01787277 -0.02323483 0.10491109 0.14677577 0.06473459
0.00199858 -0.086074784 -0.1428885 0.19590458 -0.047621623 -0.03195552 -0.02222997 0.14995529
0.083164155 -0.14725618 0.12374285 0.20184785 0.001447437 0.0847528 -0.06639612 -0.14621723
0.16283597 0.05410173 -0.16147622 0.02132645 0.06383865 0.03802507 0.41844058 -0.064349055
0.07499903 0.16327725 0.10488311 -0.034376368 0.11563012 -0.062575996 -0.050856493 -0.012000438
-0.040770147 0.008888418 0.093588464 -0.013752543 -0.07087176 0.018643038 0.04517793 -0.00210096
-0.05306137 -0.046574313 0.03969738 0.053843748 0.032122556 0.041470446 -0.37984496 -0.10829512
-0.0019859641 -0.083881594 -0.09172795 0.18106006 -0.05584395 -0.04486793 0.02576828 -0.1072196
0.06570355 0.07985439 -0.019745959 -0.13582234 -0.05413441 0.23980364 0.11531246 -0.033595007
-0.0126722455 -0.028488778 -0.14956698 0.14679742 -0.031779006 0.09578385 -0.008890994 0.031282064
-0.06043147 0.15843993 -0.09612636 0.1122673 0.012694929 0.2009307 0.35498866 -0.23083974
0.03016112 0.065447465 0.03644401 -0.29138562 0.2065165 0.1877889 0.22632882 0.25727516
0.10190883 -0.05044913 0.015867187 -0.17134944 0.029236095 -0.04610597 -0.0053252736 0.2307074
1.8905779 2.5199997 0.22866394 -0.16502583 -0.08454956 0.0774311 0.039818406 -0.12462494
0.49059424 2.6651726 0.09260997 -0.046688233 0.017385162 0.028296497 -0.06504327 -0.020665973
0.0019118835 0.0297063 -0.073551014 -0.0939016 0.024688235 -0.19788264 0.09142426 0.13408989
-0.03666484 0.1573214 0.22330412 0.24524316 -0.021755211 -0.053212427 0.1111384 -0.086267635
-0.10427415 0.11386595 -0.015505595 0.036195666 -0.08039051 0.002593259 -0.020352561 -0.08087178
0.049480535 -0.07009957 0.030668553 -0.06656951 0.12922734 -0.029840162 -0.1212526 -0.0061676744
0.013751346 -0.10439516 0.042358443 0.08688503 0.06544651 -0.26262718 0.06712082 0.0035792799
-0.1329557 -0.00489633 0.036021344 -0.077033214 0.054722104 0.59490937 0.04318552 -0.005790435
0.06558262 0.02391662 -0.24525358 -0.07924318 0.120049395 -0.051442727 -0.10192571 1.1569699
1.3189336 0.7545195 -0.09634351 -0.01086863 0.21506429 -0.12755845 -0.12432138 0.0676114
1.1917938 0.01583241 -0.07152345 0.030956078 0.05982111 0.069340035 -0.0075989286 0.0200781
0.035612367 0.05522915 0.026899671 -0.0075356523 -0.044460107 -0.08204324 -0.013902289 -0.040800694
-0.03177996 0.021179749 0.018327318 0.0058547584 0.02876354 0.0059965574 -0.02913572 -0.013620153
-0.013617708 0.013561148 -0.00304783 0.035948098 0.013607821 0.06600847 0.03941328 -0.009083122
0.034036163 -0.043922875 -0.028133236 0.0042525525 0.008583654 -0.026991252 -0.0069797602 0.0007444622
