python/rlgpu/saved_nn/241001162243532647/last_Aliengoep=2250rew=[907.81].pth (torch, 523930 bytes, 18 tensors)

running_mean f8 [361]
0	0xbfc40d0f2035352d	-0.15664853165291373
1	0x3fa703268e1d8230	0.044945912216239114
2	0x3f8cc0d31d7b17ea	0.014039658868011135
3	0xbfa0536e7c4179ad	-0.03188653246683102
4	0xbfcc64df32b33708	-0.2218283650931243
5	0x3fd3701690d623c1	0.30371631759822654
6	0x3fd4ae580b5d7a08	0.32314110860707546
7	0x3fe02982d6b7c812	0.5050672715863149
8	0x3fe1193f08770d41	0.5343318143208436
9	0x3fb8f9729827428b	0.09755626883203143
10	0x3fc10733d28533ae	0.13303230075180522
11	0xbfd70fccfb824901	-0.36033939896982764
12	0x3fc38109d2598372	0.15237543841342532
13	0xbfb684e41ae0970a	-0.08796525627311894
14	0xbfd6117301a41a0b	-0.34481501732116787
15	0x3fb78efd69c228ec	0.09202560264580811
16	0x3fc37fcf4c00a81a	0.15233794413626428
17	0xbfd3c208dcbd5f58	-0.30871793324103214
18	0xbf81480aaeb7fccf	-0.00843818994235193
19	0xbfc4633eed853f10	-0.15927874181442592
20	0xbfd3d10bd7b0d2a1	-0.30963417113825115
21	0x3fe028dfb2177bf7	0.5049894789079862
22	0xbf867606851faf99	-0.01096730321656718
23	0x3fc364c01c28505a	0.1515121591079403
24	0x3fdd3ba6b62a02b5	0.456765821356423
25	0x3fc0b065acd9999c	0.1303832143777982
26	0x3fc86243fb6802da	0.19049882674882818
27	0x3fe01d24e3c59a77	0.503557629458398
28	0x3fa48fbd08de2f04	0.04015913708926003
29	0x3fc11b4f381c064b	0.13364591827125802
30	0x3fded929a84ee0bd	0.48200456081714177
31	0x3fbedb4fa37da2f4	0.12053392163728543
32	0x3fc0fdc4f1206ae7	0.13274442456971444
33	0xbfd6c21eb3f610ea	-0.35559814047179705
34	0x3fd8772fa1c6aea3	0.3822745399327038
35	0xbfc91b2bb9a99249	-0.19614168706461246
36	0x3fd53e083e9d159f	0.33191114534960237
37	0x3fde8ba04d303522	0.47727210557862254
38	0xbfd886dd338ff9ab	-0.3832314494647117
39	0xbfccdd69c934a43e	-0.22550699543470104
40	0xbfc8840924bfebfc	-0.19152941030901605
41	0xbfd36623cb987ee1	-0.30310912020102704
42	0x3fbb9c190c614edc	0.10785061409233826
43	0xbfd945885488ee9c	-0.39486892943726004
44	0xbfd119973fcf91ff	-0.2671869395401529
45	0x3fd4adbc829cf000	0.3231040263669911
46	0x3fd909944dc476eb	0.39120967478252905
47	0x3fef4f134aa3986f	0.9784027536195604
48	0x3fd749a740138b92	0.36387044198470975
49	0x3fe1e5c87946d1a2	0.5592996948894788
50	0x3fa5d07ea4f1e366	0.04260631335723168
51	0x3fd9ee31543a257c	0.4051631281405077
52	0xbfc7d7f14333226b	-0.186277540027976
53	0xbf70e99809ca392f	-0.0041290225023103274
54	0xbfc4abb08d51300a	-0.16148955250025693
55	0x3fe4e7b1796d9cfd	0.6532828685421063
56	0x3fd0db76bd583a2b	0.26339500895201934
57	0xbfd50c782da33b0c	-0.3288860746078377
58	0xbfe2c6d503d1c1b3	-0.5867714953038131
59	0x3fd67f2c627c4872	0.35151204698298166
60	0x3fd4a5f38ad6e1e1	0.3226288658002244
61	0x3fd8f4922158a9e6	0.3899274182937503
62	0x3fef4393e9a94fb0	0.9769992412279773
63	0x3fd7438e7dc0d3ff	0.3634983280238088
64	0x3fe1e1dcb3167c0c	0.5588210580643831
65	0x3fa5b1f5751dee63	0.04237334303522002
66	0x3fd9eab590449f26	0.4049505146854123
67	0xbfc7cdf09cbc0d14	-0.18597228673034094
68	0xbf719b9482d8fbd6	-0.004298763391090218
69	0xbfc4a641fde8b94a	-0.1613237848081986
70	0x3fe4e29165ef75c4	0.6526572218824005
71	0x3fd0d7d1e1b58144	0.26317259828467265
72	0xbfd506cea222c9c5	-0.3285404761656106
73	0xbfe2c461af86c56c	-0.5864723613978362
74	0x3fd67937f25d0dfc	0.3511485926466944
75	0x3fccdaa2d78aa9c1	0.2254222443055607
76	0x3fce97f3fe525499	0.23901224058196105
77	0x3fce667fa2cd534a	0.23750300835913613
78	0x3fcda0c8859eae86	0.23146921657950176
79	0x3fccb36c22c36a7f	0.2242255372755899
80	0x3fcbe9d68cf66725	0.21807367213187337
81	0x3fcb77e8553a0687	0.21459678803880797
82	0x3fcbcb8eb89c5c8f	0.2171495820445881
83	0x3fcc835985774bfa	0.22275847451109582
84	0x3fcd6fe61ce34a39	0.2299773827604257
85	0x3fce478199b33a6f	0.2365571976174183
86	0x3fce8ca4a1a652fa	0.2386670865349954
87	0x3fcdefe30ac47fd8	0.2338832666946462
88	0x3fcd6aff81e888e7	0.2298278221433698
89	0x3fcb88cf10887e50	0.21511257464679767
90	0x3fc89b8dc48cf814	0.1922471246452352
91	0x3fc83b998003bfa1	0.18931883574213962
92	0x3fc7f9eee418d63b	0.18731485497998954
93	0x3fca4918a02e3702	0.20535571881594455
94	0x3fcc2a53be831c16	0.22004172136641448
95	0x3fcd3df910af861c	0.2284537631485798
96	0x3fcfdb8b9ab4ca67	0.24888749174131705
97	0x3fcf1c0a3a35ce05	0.24304321138662047
98	0x3fcdfd0af81b9f4d	0.23428475489276437
99	0x3fcb28ac9b2875ba	0.21217877937389834
100	0x3fc761310ac86924	0.1826535513544708
101	0x3fc6f4f7546d2f78	0.1793507730711743
102	0x3fc682195c93aecc	0.17584530849796065
103	0x3fc991e1145223fd	0.19976438038091252
104	0x3fcc6b178dd4325a	0.2220181887172597
105	0x3fce3330128f8cda	0.2359371271732929
106	0x3fd088f9bf7a58a7	0.2583603258039013
107	0x3fd01e77093a6c74	0.25185943509286024
108	0x3fcdaee8dcf1b4cf	0.23190031803407016
109	0x3fc9bc5be9c824b3	0.2010607615959877
110	0x3fc6a1b82d78fc45	0.17681028576223148
111	0x3fc61751c5aa75a4	0.1725866522946663
112	0x3fc5ac6c63c67858	0.16932444450225392
113	0x3fc823c6de1f90f9	0.1885918221079306
114	0x3fcc29647f859d66	0.22001320101410754
115	0x3fcf4b4ebfa483af	0.24448570592451577
116	0x3fd11901a06c2127	0.2671512667298139
117	0x3fd0a643e98690e1	0.2601480274700077
118	0x3fce3bb70091ce21	0.2361973526745809
119	0x3fc9622eef07d737	0.19830881759087912
120	0x3fc62a7ecadb56df	0.17317185311428937
121	0x3fc577f9f4f4c94a	0.1677238889765909
122	0x3fc539d760938966	0.16582767692222972
123	0x3fc7c540ac8f49eb	0.18570717263953837
124	0x3fccb67777dad8eb	0.22431844093598072
125	0x3fd036dd3d8d3277	0.25334864626783066
126	0x3fd19bf02bef1fbe	0.2751427105945331
127	0x3fd1226c2fd8a6f9	0.2677259890793802
128	0x3fcec4443e0d0cab	0.24036458043892614
129	0x3fc91cbfd0707379	0.19618985822389925
130	0x3fc5e0e067632268	0.1709251885242964
131	0x3fc502828a6ecd4f	0.1641390968266969
132	0x3fc509a06d0cb59b	0.1643562824696517
133	0x3fc794c8c78a2b09	0.18422803633833265
134	0x3fcd610c113d6fb5	0.22952414361759357
135	0x3fd0c5661febfba9	0.2620482742058195
136	0x3fd2477e5d4984c8	0.2856136237151756
137	0x3fd2002aa4c5b415	0.28126016703646545
138	0x3fcf0b088db924dc	0.24252421302870786
139	0x3fc7c557b814689a	0.1857099198176158
140	0x3fc5a5240322a5d6	0.16910219338505666
141	0x3fc381e25bb58efb	0.15240125158299364
142	0x3fc517581bf4543c	0.16477490773164216
143	0x3fc6ee3e82d73df0	0.1791456354971923
144	0x3fce9f2153de4293	0.2392312678826057
145	0x3fd1d48975d33b1d	0.2785972262035317
146	0x3fc9a23f3262f113	0.20026388130452996
147	0x3fca4975a1d48ead	0.20536680604810922
148	0x3fca349e5f3df6f2	0.20473079348078432
149	0x3fc9f68cee63a7d8	0.20283662452794604
150	0x3fc9c0cb4401eeab	0.20119610615426117
151	0x3fc988b8ae4324db	0.1994849062814755
152	0x3fc95fb9287965de	0.19823374248771491
153	0x3fc986281636680b	0.19940663418384505
154	0x3fc9b96f09e546de	0.20097148879226884
155	0x3fc9eebdeea191ad	0.20259832527075386
156	0x3fca30388dad7a03	0.20459658544400847
157	0x3fc991c138edc9f8	0.19976058273057595
158	0x3fc8ca85244066c8	0.19368042249771222
159	0x3fc8bc54e32815df	0.19324742404584946
160	0x3fc844036c4288ec	0.18957560335281387
161	0x3fc7475e54bd17f4	0.1818654931796001
162	0x3fc79f99da000426	0.18455813545736638
163	0x3fc74d09bfb7d87b	0.18203851567495008
164	0x3fc89397fd9c3be3	0.19200420268359072
165	0x3fc909e29691b7dc	0.19561416961681644
166	0x3fc8eb9e16eccfc3	0.19469047660243008
167	0x3fca910bc408baad	0.2075514514158007
168	0x3fc95463c49ebe3a	0.1978878698405298
169	0x3fc8c80a55798614	0.19360474752015533
170	0x3fc7fd75c3509449	0.18742248570302625
171	0x3fc6ab9203a1778c	0.17711091210634
172	0x3fc730d5bca91ece	0.18117782318062442
173	0x3fc6c51180baaa6a	0.17788904939273503
174	0x3fc86bce763ab478	0.19078999302783806
175	0x3fc9341057c3746a	0.1969013622791949
176	0x3fc998454c249d8b	0.19995943277283987
177	0x3fcbe200e7ccc75d	0.21783458059649777
178	0x3fca484b630a0940	0.20533125244043937
179	0x3fc85c6a146ffd32	0.190320262889125
180	0x3fc74470c7aec381	0.18177613973741916
181	0x3fc6704c99814adb	0.17530210013736433
182	0x3fc6f762e72bdf19	0.1794246319548101
183	0x3fc689a01fb104fa	0.17607499644694952
184	0x3fc78fc497917621	0.18407494927207416
185	0x3fc8b2b1600ac0be	0.19295327367354348
186	0x3fca98ff3bdb32dc	0.20779409811657146
187	0x3fcd70b4b03e89a9	0.23000200849226118
188	0x3fcb854a624f9cba	0.21500520515767169
189	0x3fc8cf43acabcbc4	0.19382520610051135
190	0x3fc74c47e403656b	0.1820154059740092
191	0x3fc66cdea9a2117a	0.1751974418913383
192	0x3fc6d4f972eb5371	0.1783744631890403
193	0x3fc67c6d17c16f43	0.17567218456212616
194	0x3fc77a5673e9cda2	0.18342095050648505
195	0x3fc9117df592d669	0.19584631434343017
196	0x3fcbcff354c1abb6	0.217283645997069
197	0x3fcf179008298712	0.2429065742353989
198	0x3fccfcfebc8888ff	0.2264707966397239
199	0x3fc9562467e42497	0.197941351631276
200	0x3fc761ae923fe06e	0.18266851559724578
201	0x3fc685c069229451	0.1759567750315534
202	0x3fc6b49c46becd0c	0.17738679365502497
203	0x3fc6849cbb2edead	0.17592200412558637
204	0x3fc76fb8830817cc	0.18309694669750198
205	0x3fc97557266222b6	0.19889344572245243
206	0x3fcd306933305a19	0.22803988456208016
207	0x3fd10e819d297aec	0.26651039455275227
208	0x3fd029ac2887fe92	0.25254348714950325
209	0x3fca514f26ced9d5	0.20560635943338804
210	0x3fc6fe4572fd6f34	0.17963474383111022
211	0x3fc6c40ab054b960	0.17785771951589435
212	0x3fc5b5a6277cb89f	0.16960598877034713
213	0x3fc6a137fc7a1fc6	0.17679500415783717
214	0x3fc6dfc522a61fcb	0.17870392028657842
215	0x3fc9c85280d088e8	0.2014258507707105
216	0x3fd012f65da89652	0.25115737100927504
217	0x3fc40ef5614deb20	0.15670649768056766
218	0x3fc477535f5adfc3	0.15989153057102898
219	0x3fc495c5b1c21cfb	0.16082068614580422
220	0x3fc475e8ca17bf8c	0.1598483073025786
221	0x3fc460854bd3fc94	0.15919557764570824
222	0x3fc4526ad3b16e46	0.15876517616821867
223	0x3fc433c97ff96902	0.15783041714423268
224	0x3fc43ce2d767c0af	0.15810809629284026
225	0x3fc440016e21e2db	0.1582032954936697
226	0x3fc45192e1edf685	0.15873943359104117
227	0x3fc47a472d2a2b8d	0.15998162942227304
228	0x3fc2d005781b01f6	0.14697330822492888
229	0x3fc2b3a90ef99f68	0.14610779982762812
230	0x3fc41de83ca00808	0.1571626945515734
231	0x3fc3e69f667231ad	0.15547554495095764
232	0x3fc2e99062d42d61	0.14775280786157466
233	0x3fc2df3dba7b000a	0.147437778525273
234	0x3fc1ed27526213e8	0.14004985354054544
235	0x3fc23d462eed27b6	0.14249493876769542
236	0x3fc2676f5c549858	0.14378158577273115
237	0x3fc1f6fb1ccd019e	0.1403497591618476
238	0x3fc357a6dd6c6219	0.1511124211472328
239	0x3fc324823e056b85	0.14955165890100033
240	0x3fc48ce5537e529d	0.16054979874447364
241	0x3fc43267a89b6eee	0.15778823597690156
242	0x3fc2b694d01b10ec	0.14619693910038423
243	0x3fc29dbd84e27674	0.1454388522005733
244	0x3fc15a08b366bea4	0.13556011924582834
245	0x3fc214ba2ed01f5e	0.14125754628934833
246	0x3fc2585c06287bf7	0.1433215169972468
247	0x3fc22d5d558690b3	0.14200941730553537
248	0x3fc3fcfbf83b12de	0.15615796681063093
249	0x3fc3d784a2b67ef6	0.15501459069218243
250	0x3fc39e4b12db09bc	0.15326822682079733
251	0x3fc3d93362e400f5	0.15506594017643463
252	0x3fc2c5ac5bd31fab	0.14665750964763666
253	0x3fc27bff34ef48de	0.1444090851278536
254	0x3fc13de4be23ae55	0.1347013405241905
255	0x3fc1929e7220c0b4	0.13728695461896268

running_var f8 [361]
0	0x3fa8b88d841fd306	0.04828302610250117
1	0x400b304f5e35bf63	3.3985888824608295
2	0x3fb9178e136c336d	0.09801567053018596
3	0x4011b42409a88353	4.42591872302076
4	0x3fcffc46ac8c7cb6	0.2498863546870546
5	0x3fcb118e25d57e82	0.21147324416505248
6	0x3fcbff10c814e52e	0.21872148294077348
7	0x3fcfff2db9a1c67b	0.24997493328151052
8	0x3fcfd965b1d22592	0.2488219373956722
9	0x3f93dbb405ba36f8	0.019392788743565398
10	0x3f6d7a537e5d356e	0.0035983687147679777
11	0x3f7014555ce54b9d	0.003925641487813628
12	0x3f9817d5968d7696	0.023528420747757815
13	0x3f73a0714cf2002e	0.004791681843130431
14	0x3f74e877bcaaa906	0.005104510996412742
15	0x3f8b04a193f205a7	0.013192426993785157
16	0x3f6984a1b989013d	0.003115001553197909
17	0x3f6c74261353cd6e	0.003473352781492237
18	0x3f882c4d79827665	0.011803250570945065
19	0x3f6da453d903825d	0.0036183965349752393
20	0x3f6c08b519c80049	0.0034221207736209497
21	0x40171ac5c015ca18	5.776144982652589
22	0x3ff6b29bdff65a91	1.4186056850936988
23	0x3ffd23d5e5555c04	1.8212489088380162
24	0x4019b78b9533e0b7	6.429243403712625
25	0x40002f8a50b257a5	2.0232130340982217
26	0x4005b2d8f7d4b342	2.7123278962884863
27	0x400ec699dff6d0f4	3.846973180503591
28	0x3fe6fd37dc1e04ca	0.7184104251065488
29	0x3feb916bdecd02c3	0.8615016318873007
30	0x400a698ca8a6a759	3.301537816606395
31	0x3fe76db47ddb7d1c	0.7321417291786108
32	0x3fe8cd461431e8c5	0.7750578302796148
33	0x40273e92a106a814	11.622212440550392
34	0x4026327a6f20dd6c	11.098590348016579
35	0x40223c3c2328b135	9.117646311490356
36	0x402828197f093ae0	12.078319520832736
37	0x40270cfca2d59ded	11.525364960266382
38	0x40226259d9e34ce5	9.192091759678485
39	0x40231c729cfc7c1f	9.55556192953196
40	0x4023ab3e56712a4b	9.834459973634827
41	0x4019e2405c2d322c	6.470948639162582
42	0x4021658f06f4c18b	8.698356835725255
43	0x40228250b80107b6	9.254522085309741
44	0x4019e0bc15ba437b	6.469467486852291
45	0x3fd743a477c790a3	0.36350356766912223
46	0x3fdb3b3cf5e7c7a1	0.4254906083507369
47	0x3f90228a87aa46cc	0.01575676396402663
48	0x3fe2911638b4012f	0.5802107913478148
49	0x3fdc22f59d649085	0.4396337544478757
50	0x3fe4c619ebf57591	0.6491822823115162
51	0x3fe1f715f017fc5b	0.5614118279771775
52	0x3fe3f1f22f8b3a72	0.6232844284621264
53	0x3fe5ad00bfc411e2	0.6773685212543195
54	0x3fe501da9a0743cd	0.6564763077132
55	0x3fd596a0d402eb72	0.3373186178611639
56	0x3fe342e4c6a8c1f8	0.6019157295286837
57	0x3fe2207e4eae442e	0.5664664780362096
58	0x3fd6f3d426bd4ea3	0.35863212378647286
59	0x3fe1de61b1e96a14	0.5583961939658502
60	0x3fd73b6917319d2a	0.3630011297704693
61	0x3fdb4162036df50f	0.42586565337099186
62	0x3f9184468c945188	0.017106153803142315
63	0x3fe28aa6529da068	0.5794250119770483
64	0x3fdc1959b0616349	0.43904726242685804
65	0x3fe4bdf9ffac797a	0.6481904977443229
66	0x3fe1efa9f05f1fb4	0.5605058378941892
67	0x3fe3ea714a26dc32	0.6223684738423627
68	0x3fe5a47f11d7f630	0.6763301228053873
69	0x3fe4f9c994d1c40c	0.655491629279028
70	0x3fd5917c0cd2ad79	0.33700467350237023
71	0x3fe33b8811a967e2	0.6010170311885725
72	0x3fe21a1cbcb2e4c4	0.5656875310443401
73	0x3fd6e876ae4164cf	0.35793845193036317
74	0x3fe1d8008bded44b	0.5576174480289721
75	0x3fbdf7ffc386e6c9	0.11706541560752294
76	0x3fc00a60a98b3b11	0.12531669882306365
77	0x3fbfd65085c0817a	0.12436393037251561
78	0x3fbeeb1b32f3b24a	0.12077493661826924
79	0x3fbdc69fc412a7fc	0.11631201302466815
80	0x3fbccba869732f1d	0.11248257231198662
81	0x3fbc43edacdfe5b1	0.11041150541850332
82	0x3fbca556fb229305	0.11189788466669988
83	0x3fbd8a45fd38ccd6	0.11539113456892677
84	0x3fbeaf87ac08f698	0.11986587476800492
85	0x3fbfb1fed3deba7b	0.1238097445736716
86	0x3fc0a3c9bc435926	0.12999841396840245
87	0x3fc04f9301910ce2	0.12742841316694525
88	0x3fbf50d579779570	0.12232717719560582
89	0x3fbcf7fa26b88115	0.11315883107500142
90	0x3fb9857e9ce20d6f	0.09969321565772814
91	0x3fb8c80d48b85402	0.0968025496043339
92	0x3fb8efadead05e8d	0.09740721686136507
93	0x3fbbf060f9eb0d2c	0.10913663960950676
94	0x3fbe5c3edb5204fe	0.11859505514623334
95	0x3fc00d5909435a28	0.1254073424558595
96	0x3fc191687371516a	0.1372500003514106
97	0x3fc12d6f68626331	0.13419907185450478
98	0x3fc023130769856e	0.12607038366244744
99	0x3fbcc65a1e157229	0.11240161165682906
100	0x3fb83d75afce5c45	0.09468780080929758
101	0x3fb750c66d64410b	0.09107628031438623
102	0x3fb765c81f4d0d96	0.09139681591209689
103	0x3fbb6bd0f446e02c	0.10711389507093888
104	0x3fbf184911a4faa8	0.12146431618473719
105	0x3fc0db633e1ccf0a	0.13169518025244314
106	0x3fc2667d04ac4f13	0.14375269630601703
107	0x3fc1f6af68e84810	0.14034073469571284
108	0x3fc05d5093edeaa5	0.12784774039376604
109	0x3fbb8ea0369b78c8	0.1076450475042946
110	0x3fb78205a4385783	0.09182772883681704
111	0x3fb65ffff7b9794a	0.08740234182321163
112	0x3fb68aa634a8b025	0.08805311952227209
113	0x3fba11d60f55d0bd	0.10183465837855273
114	0x3fbf842b877c9ca2	0.12311050470144605
115	0x3fc1a6a39fd593e9	0.13789792351158717
116	0x3fc3277eb72b6bf0	0.14964279121235746
117	0x3fc2ade152528423	0.1459314014400955
118	0x3fc0d80968c4e864	0.131592918545553
119	0x3fbb6c7eca93351c	0.10712425656966612
120	0x3fb720a73d8b4fa0	0.0903419995550494
121	0x3fb5c759e050fa8c	0.08507310606453639
122	0x3fb621fdc2c6f64a	0.08645616536429049
123	0x3fb9d711f2cf3be7	0.10093795946089267
124	0x3fc03e7753dc24c7	0.12690631479953238
125	0x3fc269841d2b2ab3	0.14384509491204298
126	0x3fc3d5b418fdeb28	0.15495921345049024
127	0x3fc35197d1d6338f	0.1509275221436863
128	0x3fc14e5ab3f9cab7	0.13520368373754874
129	0x3fbb6580e6a41943	0.10701757079013867
130	0x3fb6f8da60a1e876	0.08973469599905734
131	0x3fb571dbf693d413	0.08376860399205581
132	0x3fb6060abafd6bf9	0.08602969231780823
133	0x3fb9cdc3a2f10a69	0.10079596260133318
134	0x3fc0c1cd34d50e30	0.1309143550844154
135	0x3fc31db26a170965	0.149343778421165
136	0x3fc4dc100527d1d3	0.16296577693687073
137	0x3fc46aa870bc90f3	0.15950494293895864
138	0x3fc1e7f1d2bcab92	0.13989088811771616
139	0x3fbab2f19bf14563	0.10429296548070037
140	0x3fb71933b3c0e16f	0.09022830141555514
141	0x3fb471a200f4af5f	0.07985889933905586
142	0x3fb6568f4cfef5b7	0.08725829725059141
143	0x3fb983c38e57d74e	0.09966680741476105
144	0x3fc1a9b7ae693b52	0.13799186721959217
145	0x3fc458a8cecee23c	0.15895567033818903
146	0x3fb78b23579a62c3	0.09196682823893369
147	0x3fb86f2f86ea265a	0.0954465584165062
148	0x3fb84f44ea4b0a88	0.09495955200240236
149	0x3fb7fd7a216a3fc9	0.09371150317951939
150	0x3fb7b1cb599969d8	0.09255667626840791
151	0x3fb76792f1a54f85	0.09142416381410896
152	0x3fb73b1ffb785946	0.09074592484862362
153	0x3fb766b6435857b6	0.09141101020972439
154	0x3fb7aa49f8f0e26c	0.09244215324077637
155	0x3fb7f4f2128f5f24	0.09358132317663298
156	0x3fb84b658dbefed1	0.09490046225163985
157	0x3fb8a815a34a70e9	0.09631476627913894
158	0x3fb7dad183caa175	0.09318265407148892
159	0x3fb74d8ffd30a7f1	0.09102725917242062
160	0x3fb6a31a2cc5fee3	0.08842624276257598
161	0x3fb555340b4efb17	0.08333134914481054
162	0x3fb574e00a662792	0.08381462339289517
163	0x3fb5665e9e197e31	0.08359328613141127
164	0x3fb6f8a12dfcfcfc	0.08973128674277925
165	0x3fb79d8f3c1b0e06	0.09224791734146018
166	0x3fb7fe13c1dbb1db	0.09372066004625117
167	0x3fba50bb5b71c46a	0.10279437048463227
168	0x3fb905eeda128b80	0.09774678062471587
169	0x3fb7bceff8a3024f	0.09272670574410678
170	0x3fb6a32d1bbeb020	0.08842737128605949
171	0x3fb4e7a77c49a5f1	0.08165976318709746
172	0x3fb5204b381f0b0d	0.0825240146651078
173	0x3fb50e6170dd4e78	0.08225068097572741
174	0x3fb7138aef3bdd59	0.09014194813413691
175	0x3fb823f923548e7e	0.09429890739971289
176	0x3fb9489b4b920ec6	0.09876413912757717
177	0x3fbc4c38d8659e54	0.11053805621269791
178	0x3fba9994cb6ec29a	0.1039059635793457
179	0x3fb7def4cb5d291d	0.09324579205454993
180	0x3fb61d98ad6c955b	0.08638910516727576
181	0x3fb4e52fd37df1ef	0.08162211335542911
182	0x3fb5175c40407e3d	0.08238770073557418
183	0x3fb50a483bcb226d	0.08218814334680653
184	0x3fb66d82f65e98a1	0.08760851397400639
185	0x3fb835a1ce76dc6f	0.09456836023933744
186	0x3fbae2b38ff5ede3	0.10502168907799318
187	0x3fbe7be7c34077f6	0.11907814518823998
188	0x3fbc6f1b8364e9b7	0.11107036550394055
189	0x3fb8c1e2473c92e9	0.09670843352484905
190	0x3fb66d6dc42182d6	0.08760725057937732
191	0x3fb5230276fc64d0	0.08256545453004382
192	0x3fb5376c4c17ef2b	0.08287693841697023
193	0x3fb53ee04b61dfee	0.0829906639136195
194	0x3fb69eb3ab30c841	0.08835909776169705
195	0x3fb8fd553031dae1	0.09761555124883216
196	0x3fbcac733dd1d05b	0.11200638064639305
197	0x3fc059dad9ce57d0	0.12774215350208218
198	0x3fbe6fd46e060160	0.11889388738746254
199	0x3fb9b136f7b379d2	0.1003603319872817
200	0x3fb6cb46b83ada0a	0.08903924939918553
201	0x3fb57f50e3fa69c2	0.08397393766282504
202	0x3fb56534e8a30c70	0.08357554130184197
203	0x3fb58cb843cf1f63	0.08417846351141871
204	0x3fb6de951c713297	0.08933383888615719
205	0x3fb9c805de118791	0.1007083575400698
206	0x3fbe947c6ab5d14f	0.11945321660261253
207	0x3fc2538b4316048a	0.14317456031497883
208	0x3fc1450fca433fcb	0.13492009521587386
209	0x3fbb6fd3ce1ea092	0.107175100156953
210	0x3fb714fd17d2143c	0.09016401130254875
211	0x3fb63b7a5576c225	0.08684506021996492
212	0x3fb523fcc9c57ccd	0.08258037496624411
213	0x3fb62c3747fa07b0	0.08661218173258933
214	0x3fb6f4c485037a3a	0.0896723580112643
215	0x3fbaec1d21cce49a	0.1051653106232088
216	0x3fc131b719f4691e	0.1343296887142253
217	0x3fb70271e509ad47	0.08988105623000307
218	0x3fb7be6a5adc309a	0.09274925916924062
219	0x3fb7d7a3a0ab889f	0.09313414261444784
220	0x3fb7a28364574f4b	0.09232350539906269
221	0x3fb77e3642e135ae	0.09176959164434237
222	0x3fb763d8f5e550b9	0.09136730197252775
223	0x3fb74172f610f2ff	0.09084242351032044
224	0x3fb746629d61ffb5	0.09091774313310348
225	0x3fb74e715610f765	0.09104069091060081
226	0x3fb76cc1fd565fd6	0.09150326189990152
227	0x3fb7b0c38c4cd53c	0.09254095244690047
228	0x3fb640efb21f0f5a	0.08692834948220476
229	0x3fb619fe46f49cb5	0.08633412582695395
230	0x3fb77c3479eb855b	0.09173896767199123
231	0x3fb7206c3a286ad2	0.09033848209257236
232	0x3fb5d11b9c334824	0.08522198260769237
233	0x3fb5a79a64567aab	0.08458867025044962
234	0x3fb4c5d3a4971e22	0.08114359634702642
235	0x3fb5524f8ea4b0f1	0.08328721268179941
236	0x3fb59b02969235cf	0.08439651657155099
237	0x3fb53f4596638626	0.08299670144654012
238	0x3fb74f8583f05ebe	0.09105715247312227
239	0x3fb70c2a6c982791	0.09002938414792384
240	0x3fb85715cd0a6251	0.09507881408570397
241	0x3fb7c15bd330dc2b	0.09279416948344081
242	0x3fb5be7f5fa4e186	0.08493801198063097
243	0x3fb574573abb290f	0.08380646880974417
244	0x3fb4465d42193995	0.07919867385610353
245	0x3fb569658b96a61c	0.08363947542115863
246	0x3fb5ddce1f2dd6a2	0.08541572819907597
247	0x3fb5e3c3f08b1293	0.08550667402875893
248	0x3fb87dce90574b70	0.09566966079664296
249	0x3fb84c5bf40657e7	0.09491514880787087
250	0x3fb7ab72fa93d13b	0.09245985620129187
251	0x3fb7956b24aee254	0.0921236958082628
252	0x3fb607601bfc4d61	0.08605004008523089
253	0x3fb572400a52a470	0.08377456905385983
254	0x3fb45c8d138d7f65	0.07953721740113691
255	0x3fb4ffd7e5af9549	0.08202885968747355

count f8 []
0	0x41fad27480100000	7200000001.0

running_mean f8 [1]
0	0x40553d8c4c1d29aa	84.96168806884694

running_var f8 [1]
0	0x40832ff312803235	613.9936876311609

count f8 []
0	0x41dad27480400000	1800000001.0

a2c_network.sigma f4 [15]
0	0xbf6a6232	-0.91556084
1	0xbea73c94	-0.32663405
2	0xbfb9c724	-1.4513898
3	0x3cc0e66f	0.02354738
4	0x3dc58cc2	0.09645988
5	0x3cee9731	0.029124828
6	0x3d894a40	0.06703615
7	0x3e540294	0.20704108
8	0xbde411f0	-0.11136234
9	0x3d03c641	0.03217149
10	0xb6292624	-2.5205163e-06
11	0x3d2c9ff8	0.042144746
12	0xbe117f74	-0.14208776
13	0xbec58f33	-0.38585815
14	0x3db47172	0.088107005

a2c_network.actor_mlp.0.weight f4 [128, 361]
0	0x3efeeea9	0.49791458
1	0xbef7e7b3	-0.4841896
2	0x3f218bda	0.6310402
3	0xbefaaf61	-0.48961928
4	0x3f60944b	0.8772628
5	0xbf0502de	-0.519575
6	0xbdd0aad3	-0.10188832
7	0xbd3cb38a	-0.04606966
8	0xbf1378d0	-0.5760622
9	0xbea8c641	-0.32963756
10	0xbf39eecd	-0.72630006
11	0xbf477b2e	-0.7792233
12	0x3d8323ce	0.064033136
13	0x3ec7cf45	0.39025322
14	0xbf2ef354	-0.6834004
15	0x3f315689	0.6927267
16	0xbee4ff6f	-0.4472613
17	0xbf0dbcc5	-0.55366164
18	0xbcbe09b3	-0.023197984
19	0x3f4c0ba3	0.79705256
20	0xbf8964bf	-1.073387
21	0xbf1040f5	-0.56349117
22	0xbe5ae4f9	-0.21376409
23	0x3e3d33f8	0.18476856
24	0x3da70533	0.081552885
25	0x3f26f532	0.6521789
26	0x3f47d729	0.78062683
27	0x3f1ee0de	0.6206187
28	0x3db02329	0.08600456
29	0x3f105a92	0.563882
30	0x3cd3c722	0.02585179
31	0x3de7b51e	0.11313842
32	0x3d124a07	0.03571513
33	0x3f1e09ac	0.6173351
34	0xbe8c0997	-0.27351066
35	0x3f03fe06	0.51559484
36	0x3ebbadf1	0.36656144
37	0x3bf10c18	0.007356178
38	0x3e02c133	0.12769012
39	0xbf418580	-0.7559433
40	0xbc68ceeb	-0.014209489
41	0xbe78e7ed	-0.24307223
42	0x3fb00f99	1.375476
43	0x3f19df81	0.60106665
44	0x3f16ee40	0.5895729
45	0xbc9a8a3a	-0.01886474
46	0xbefbdbde	-0.49191183
47	0xbf15f450	-0.58575916
48	0x3e42a591	0.19008471
49	0x3e4c2925	0.1993757
50	0xbe15000b	-0.14550798
51	0xbeb6d5d2	-0.35710007
52	0x3eeb3514	0.45938933
53	0xbecf8c98	-0.40536952
54	0x3e3fb137	0.18719946
55	0xbe8411b0	-0.25794744
56	0xbefeef34	-0.49791873
57	0xbe6d2b13	-0.23160963
58	0xbcc351c9	-0.02384271
59	0x3f2613de	0.64874065
60	0xbe96aa64	-0.29426873
61	0x3c5dfb03	0.013548615
62	0xbf013a78	-0.5047984
63	0xbf60c487	-0.87799877
64	0x3f15bf93	0.58495444
65	0xbf1daa1d	-0.615877
66	0xbef839de	-0.4848165
67	0xbe05af50	-0.13055158
68	0xbe79caef	-0.2439382
69	0xbf357a4b	-0.7088973
70	0xbacc7269	-0.0015598062
71	0x3e335710	0.1751368
72	0x3e08bdb9	0.13353623
73	0x3d3af749	0.045645986
74	0x3c49f1b2	0.012325691
75	0x3e041256	0.1289762
76	0x3da06807	0.07832342
77	0x3eb1b631	0.34709314
78	0xbd39bb01	-0.045344356
79	0xbe8f37c6	-0.2797224
80	0x3e82c42b	0.2554029
81	0x3cb69f22	0.022292677
82	0x3daa785b	0.08323737
83	0x3db542fe	0.08850668
84	0x3eaefa19	0.34175184
85	0x3eb97768	0.36223912
86	0x3e48ea37	0.19620596
87	0xbec691ff	-0.3878326
88	0xbea17c27	-0.31540033
89	0xbc424c12	-0.011858957
90	0x3dee7ad7	0.116445236
91	0xbdaf9a38	-0.08574337
92	0x3ddf09f3	0.108905695
93	0x3e08563a	0.13314143
94	0xbe7489b8	-0.2388066
95	0x3d7f4908	0.062325507
96	0x3ea88d71	0.3292041
97	0x3e251406	0.1612092
98	0xbd8df914	-0.069322735
99	0x3e2833f3	0.16426067
100	0x3d57dcd3	0.05270083
101	0xbe4829a1	-0.1954713
102	0xbe49ed7d	-0.19719501
103	0xbdeee4e7	-0.116647534
104	0xbe2baf9c	-0.16766208
105	0x3e7a0aa7	0.24418126
106	0x3dabe046	0.08392386
107	0x3e5a9037	0.21344076
108	0x3c8674eb	0.016413173
109	0x3e010c00	0.12602234
110	0x3eddbdaa	0.43308765
111	0xbf3dcaa3	-0.74137324
112	0x3e02a976	0.12759957
113	0xbefc0bcc	-0.4922775
114	0x3ea14807	0.31500265
115	0x3c1ed112	0.009693401
116	0xbd0c4ae1	-0.034251098
117	0xbe5a30bd	-0.21307655
118	0xbe591fe6	-0.21203575
119	0xbe0b065b	-0.13576643
120	0xbee2a135	-0.44263616
121	0xbec9ee7e	-0.39439768
122	0xbe7e1724	-0.24813515
123	0xbed9dbb3	-0.4255043
124	0x3e6ab547	0.22920714
125	0xbee3917e	-0.4444694
126	0xbe8ce5ab	-0.27518973
127	0x3d827746	0.06370406
128	0x3f0274dd	0.5095957
129	0x3e828e16	0.25499028
130	0xbe845612	-0.25846916
131	0xbea83f76	-0.32860917
132	0xbd1b3b51	-0.037898365
133	0xbec03d0e	-0.3754658
134	0x3e0a3e8e	0.13500425
135	0xbd9dfae9	-0.07713873
136	0x3f174a5d	0.59097844
137	0xbf194130	-0.59865093
138	0xbec679de	-0.38764852
139	0x3bc7ad35	0.006093646
140	0xbe3bb56f	-0.1833093
141	0x3f0310ad	0.5119732
142	0x3d109631	0.035299484
143	0xbeb40f07	-0.35167715
144	0xbe906fcd	-0.28210297
145	0xbf6ed11f	-0.93287843
146	0xbde498ca	-0.11161955
147	0x3d815661	0.063153036
148	0xbebf21c6	-0.37330455
149	0x3e506009	0.20349135
150	0xbd359a89	-0.04433683
151	0xbdf560a0	-0.119813204
152	0x3ea60b42	0.32430464
153	0x3bf98cc4	0.0076156575
154	0xbe0991dd	-0.13434549
155	0xbbb41dfa	-0.0054967375
156	0xbe5fae19	-0.21843757
157	0xbe18f1ed	-0.14936037
158	0xbdb04e41	-0.08608676
159	0xbdaf74ef	-0.08567225
160	0xbe2e44cd	-0.17018433
161	0x3d356762	0.044288047
162	0xbea03d7a	-0.31296903
163	0xbed99740	-0.42498207
164	0xbf1d75a3	-0.61507624
165	0xbe14473f	-0.14480303
166	0xbeaf1370	-0.34194517
167	0x3e3b726c	0.18305367
168	0xbb89ac60	-0.004201457
169	0xbd71d8a3	-0.05904449
170	0x3e9cca21	0.30622962
171	0x3ebb9e4b	0.36644205
172	0xbd56f179	-0.05247638
173	0xbeed3717	-0.46331093
174	0xbf01d8e4	-0.50721574
175	0xbe866245	-0.2624685
176	0xbf078b6b	-0.5294711
177	0x3dadc36c	0.084845394
178	0x3d960183	0.07324507
179	0xbea4cd81	-0.32188037
180	0x3e8628d6	0.2620303
181	0x3d784224	0.06060995
182	0x3ea2d8cf	0.31806037
183	0xbe750b64	-0.23930126
184	0x3c9c5dac	0.019087635
185	0x3dd39e8f	0.10332977
186	0xbe991279	-0.29896906
187	0xbe6a737d	-0.22895618
188	0x3ee40d4b	0.44541392
189	0xbeeab9a6	-0.45844764
190	0x3eefd74f	0.46843955
191	0xbe5e6126	-0.21716747
192	0x3e941faa	0.28930408
193	0x3da9ceb1	0.082913764
194	0xbddddbbc	-0.10832927
195	0xbde613c7	-0.11234241
196	0x3e239840	0.15976048
197	0xbe7b170f	-0.24520515
198	0x3eaf3eed	0.34227696
199	0xbc41b105	-0.01182199
200	0x3eb875da	0.36027414
201	0xbe6407c5	-0.22268589
202	0x3eeceaf4	0.46273005
203	0x3e68c238	0.22730339
204	0xbd7a95f9	-0.06117818
205	0xbd2211a8	-0.03956762
206	0x3de92001	0.113830574
207	0x3f4f444b	0.8096358
208	0x3eea73ee	0.45791572
209	0xbef2cb42	-0.47420698
210	0x3f0bd479	0.5462108
211	0xbf04bd88	-0.518517
212	0xbf187cc9	-0.5956541
213	0xbde1ab9a	-0.110190585
214	0xbe832a8f	-0.25618407
215	0xbe1671d0	-0.14691854
216	0x3f06c6d2	0.52647126
217	0xbdf0d565	-0.11759452
218	0x3e234673	0.15944843
219	0xbe009bca	-0.12559429
220	0xbc715c47	-0.014731473
221	0x3d807de9	0.062740155
222	0xbf15a49b	-0.58454293
223	0xbcc15b34	-0.02360306
224	0xbebad550	-0.3649087
225	0x3cd5cf17	0.026099725
226	0x3e11be69	0.14232792
227	0x3baa45f1	0.005196326
228	0x3eae08e2	0.33991152
229	0x3e2324ca	0.15932003
230	0x3efa429e	0.4887895
231	0x3eb3ca62	0.35115343
232	0xbe66c111	-0.22534586
233	0x3dd8e580	0.10590649
234	0xbeed0a2c	-0.46296823
235	0xbe4f87c8	-0.2026664
236	0x3d806502	0.06269266
237	0x3c988271	0.018616887
238	0x3e1e9f38	0.15490425
239	0x3ee78602	0.45219427
240	0x3dfa242a	0.12213929
241	0x3e282e14	0.16423827
242	0xbe2b5ef0	-0.16735435
243	0x3e63c7a8	0.22244132
244	0x3945fe4b	0.00018882116
245	0x3f3879d5	0.720609
246	0x3e4fe7a7	0.20303212
247	0xbe31d4b5	-0.17366298
248	0x3e54392e	0.20724937
249	0x3d4d087e	0.050056927
250	0xbe8192c8	-0.25307298
251	0xbe94d45a	-0.2906826
252	0xbe102d83	-0.14079861
253	0xbf0931a9	-0.535914
254	0x3e9ee6ca	0.31035453
255	0x3d9f2ef0	0.077726245

a2c_network.actor_mlp.0.bias f4 [128]
0	0xbf75491a	-0.9581467
1	0xbf72a333	-0.9478027
2	0xbed1784f	-0.409121
3	0xbf749c0f	-0.95550627
4	0xbf9582e9	-1.1680576
5	0xbde2824f	-0.11060011
6	0xbff182fa	-1.8868096
7	0xbf398d98	-0.7248168
8	0xbd339cf9	-0.043850873
9	0xbfb25cd7	-1.3934582
10	0xbf7ab048	-0.97925234
11	0xbf73f460	-0.9529476
12	0xbf81d323	-1.0142559
13	0xbf88d418	-1.0689726
14	0xbfb0822c	-1.3789725
15	0xbf0d0011	-0.55078226
16	0xbe97e968	-0.29670262
17	0xbf62dbe2	-0.88616765
18	0xbfdadea8	-1.7099199
19	0xbf8d68ba	-1.1047585
20	0xbf2fdbf2	-0.68694985
21	0xbed582fa	-0.4170149
22	0xbf22055c	-0.6328943
23	0xbee7fec7	-0.45311567
24	0xbf5f42a0	-0.87211037
25	0xbdf44240	-0.11926699
26	0xbef1477c	-0.4712485
27	0xbf601afd	-0.8754118
28	0xbf833aa0	-1.0252266
29	0x3e4e7880	0.20163155
30	0xbfbcadc3	-1.4740528
31	0xbf82cd41	-1.0218889
32	0xbf929a5a	-1.1453354
33	0xbf81b9e5	-1.0134856
34	0xbf2d3f5e	-0.67674816
35	0xbf8f3fd0	-1.1191349
36	0xbfb2582c	-1.3933158
37	0xbe040ae3	-0.12894778
38	0xbf454ccb	-0.770703
39	0xbf11d65e	-0.56967723
40	0xbf6deb80	-0.9293747
41	0xbf80a823	-1.0051311
42	0xbf8d688a	-1.1047528
43	0xbf0928b7	-0.5357775
44	0xbf5047c6	-0.8135952
45	0xbf267297	-0.650186
46	0xbfb490a4	-1.4106641
47	0xbf226d0c	-0.6344764
48	0xbfb6ca70	-1.4280529
49	0xbf544756	-0.8292135
50	0xbf8898b3	-1.06716
51	0xbfbe624e	-1.487375
52	0xbf364e22	-0.7121297
53	0x3dd6e6d5	0.104932465
54	0xbefbc91e	-0.49176878
55	0xbf8e8a5c	-1.1135974
56	0xbf454cc6	-0.7707027
57	0xbf948bc7	-1.1605157
58	0xbf6844c8	-0.9072995
59	0xbf68f9dc	-0.91006255
60	0xbfb47f37	-1.4101323
61	0xbee31c23	-0.44357404
62	0xbfc22a0d	-1.5169083
63	0xc000909e	-2.0088267
64	0xbf411b7f	-0.7543258
65	0xbf8bd8b6	-1.092551
66	0xbf71a90b	-0.94398564
67	0xbf57b3a4	-0.84258485
68	0xbfa0fcc4	-1.2577138
69	0xbf8288fb	-1.0198053
70	0xbf8dcceb	-1.1078161
71	0xbff06455	-1.8780619
72	0xbf61908b	-0.8811118
73	0xbfa72406	-1.3057868
74	0xbf837c73	-1.0272354
75	0xbf89e629	-1.0773364
76	0xbfc28341	-1.5196306
77	0xbf8a7347	-1.081643
78	0xbf70878f	-0.93956846
79	0xbee1e231	-0.44117883
80	0xbf7a67b4	-0.9781449
81	0xbe99718a	-0.29969436
82	0xbf4fe20a	-0.81204283
83	0x3e5c3b6b	0.21507041
84	0xbf0f0cc3	-0.5587885
85	0xbf895af8	-1.0730886
86	0xbfa34feb	-1.2758764
87	0xbf2fb5ed	-0.6863697
88	0xbf8b639d	-1.0889775
89	0xbef639ea	-0.4809106
90	0xbfaa251a	-1.3292572
91	0xbf977508	-1.183259
92	0xbebfe7fc	-0.37481678
93	0xbe9412e5	-0.28920665
94	0xbf82bb10	-1.0213337
95	0xbf750e07	-0.9572453
96	0xbfab5b88	-1.3387308
97	0xbf629e05	-0.8852237
98	0xbf722af4	-0.9459679
99	0xbefd0b21	-0.49422553
100	0xbf9c637a	-1.2217858
101	0xbf61aa2e	-0.881503
102	0xbfb1cb3e	-1.389015
103	0xbe877549	-0.2645667
104	0xbf341f18	-0.70359945
105	0xbf57c134	-0.8427918
106	0xbfa6eb8c	-1.3040633
107	0xbf6d1870	-0.92615414
108	0xbef97702	-0.48723608
109	0xbfdf3ae3	-1.7439846
110	0xbf486110	-0.78273106
111	0xbf3e807e	-0.74414814
112	0xbfaf3bdc	-1.3690143
113	0xbf27343a	-0.65314066
114	0xbf9ebc6e	-1.2401254
115	0xbb1fa888	-0.0024361927
116	0xbf1a3b2a	-0.6024653
117	0xbfbc1eb5	-1.4696871
118	0xbf0e4465	-0.5557311
119	0x3e06f9fe	0.13181302
120	0xbf46a85b	-0.7760064
121	0xbf649f93	-0.8930599
122	0xbf7d58ef	-0.98963827
123	0xbf0bc412	-0.54596055
124	0xbd5062ec	-0.05087559
125	0xbf8db291	-1.1070119
126	0xbf41f564	-0.7576506
127	0xbf9bdcbe	-1.217674

a2c_network.actor_mlp.2.weight f4 [128, 128]
0	0xbdf06a90	-0.11739075
1	0xbdce0987	-0.10060411
2	0xbd33d943	-0.04390837
3	0xbe2f9b03	-0.17148976
4	0xbe4b11cc	-0.19831008
5	0xbefb02b1	-0.4902549
6	0x3e8d7e82	0.2763558
7	0x3d606388	0.05478242
8	0xbee1fd22	-0.44138438
9	0x3d86df41	0.06585551
10	0xbe8bdb3b	-0.27315697
11	0xbe2abc57	-0.16673408
12	0x3d8ac2e9	0.067754574
13	0xbe91ac0e	-0.2845158
14	0xbe704b21	-0.2346616
15	0xbebd70d7	-0.37000152
16	0xbe637c92	-0.22215489
17	0xbe2e4dd6	-0.1702188
18	0x3e1c6a4f	0.15274929
19	0xbdd2c7ac	-0.10291991
20	0x3bcd2b61	0.0062612747
21	0xbf027cd8	-0.50971746
22	0xbe9ed2b2	-0.31020123
23	0xbe8468f6	-0.2586133
24	0xbe372782	-0.17886165
25	0xbf0c5c4d	-0.5482834
26	0xbe9cf7e4	-0.30657876
27	0xbe6f40c2	-0.23364547
28	0xbe88f8ee	-0.26752418
29	0xbea3a2ac	-0.31960046
30	0x3db6be0b	0.089229666
31	0xbe4eb9f1	-0.20188119
32	0xbe25aae0	-0.16178465
33	0xbdc0ce7e	-0.09414385
34	0xbf0e28c2	-0.5553094
35	0xbdc02ec5	-0.093839206
36	0x3c9d2a41	0.019185187
37	0xbf7223c8	-0.9458585
38	0xbe5b1918	-0.21396291
39	0x3da05d2c	0.07830271
40	0xbdb84ead	-0.08999381
41	0xbe6b9f16	-0.23009905
42	0xbd3d2eb3	-0.046187114
43	0xbe2b9a9f	-0.16758202
44	0xbeadc0bb	-0.33936104
45	0xbdb08210	-0.086185575
46	0x3dc5228a	0.096257284
47	0xbef56968	-0.4793198
48	0xbc7fb3b2	-0.015606808
49	0xbeb6c4af	-0.35696933
50	0x3d82bc8d	0.063836195
51	0xbd73633f	-0.05942082
52	0xbe4e7baa	-0.20164362
53	0xbed4d3f5	-0.4156796
54	0xbe80e44e	-0.25174183
55	0x3d67d06b	0.056595247
56	0xbe3203d3	-0.17384271
57	0xbd31da7e	-0.04342126
58	0xbe9ea9c4	-0.30988896
59	0xbe01fde2	-0.12694505
60	0xbd4689bb	-0.048471194
61	0xbeb7f1f6	-0.3592679
62	0x3dbe88bb	0.09303423
63	0xbd8c5fb9	-0.06854195
64	0xbec69d24	-0.38791764
65	0x3e9a1f1b	0.30101857
66	0xbe4a5dd1	-0.1976235
67	0xbf1ad20a	-0.60476744
68	0x3c98b2de	0.018639978
69	0xbe404bb2	-0.18778875
70	0xbdbe9ddf	-0.09307455
71	0x3ec1b3ae	0.37832397
72	0x3e818c9d	0.25302592
73	0x3e9831e5	0.29725567
74	0xbe18a3c7	-0.14906226
75	0x3e09d36d	0.13459559
76	0xbdc837bb	-0.09776255
77	0xbe1056cd	-0.14095612
78	0xbe6467b4	-0.22305185
79	0xbf11a2d3	-0.56889075
80	0x3dd0f6e6	0.10203342
81	0xbefc962e	-0.49333328
82	0x3d8f28cd	0.06990204
83	0xbf087cd7	-0.5331549
84	0xbed7b27a	-0.42128354
85	0xbee59db5	-0.44846883
86	0x3df3a155	0.11896006
87	0xbe2b0694	-0.16701728
88	0xbea350f0	-0.31897688
89	0xbec1ae55	-0.37828317
90	0xbb9a8c2d	-0.0047164173
91	0x3cd36d7d	0.025809044
92	0xbe9a44e7	-0.30130693
93	0xbef7bf8e	-0.48388332
94	0xbea70cee	-0.32627052
95	0xbe6e2dd7	-0.23259674
96	0xbe3c9d5d	-0.18419404
97	0xbc0c8889	-0.008577474
98	0xbe0ac56d	-0.13551874
99	0xbe8e09e4	-0.2774192
100	0xbe072298	-0.1319679
101	0xbc8ccd0e	-0.017187621
102	0x3d4fd1c7	0.05073717
103	0xbecd9032	-0.40149075
104	0xbed5f580	-0.41788864
105	0xbe8c1738	-0.27361465
106	0xbdfd5e6a	-0.12371524
107	0x3e6c26d9	0.23061694
108	0xbeac9f6b	-0.33715376
109	0xbc660ecb	-0.014041613
110	0xbe6ad864	-0.22934109
111	0xbeb6eaec	-0.35726106
112	0x3d63cafb	0.0556135
113	0xbd780433	-0.06055088
114	0xbcab43bd	-0.020906324
115	0xbee3c3a6	-0.44485205
116	0xbe8f31a6	-0.27967566
117	0xbe2ea03b	-0.1705331
118	0xbeb13be3	-0.34616002
119	0xbea44f77	-0.32091877
120	0xbdbc2fc5	-0.09188799
121	0xbeea9f6b	-0.4582475
122	0xbe2a8180	-0.16650963
123	0x3c29dedd	0.010368076
124	0xbe67dbc9	-0.22642435
125	0xbe816cd6	-0.25278348
126	0xbeb8b146	-0.3607275
127	0x3db67ad8	0.08910149
128	0xbe0d7087	-0.13812457
129	0xbd923b8b	-0.07140263
130	0xbe21ca87	-0.15799914
131	0xbed60cbc	-0.4180659
132	0xbea0e927	-0.3142788
133	0xbdabf7f2	-0.08396901
134	0x3e5bcbca	0.21464458
135	0x3e4b4271	0.19849564
136	0xbe949fef	-0.2902827
137	0xbd2ca48a	-0.042149104
138	0xbdb6c3d7	-0.08924072
139	0xbe4a7354	-0.19770557
140	0xbe4954c5	-0.19661243
141	0x3e211998	0.1573242
142	0x3eb8cfce	0.36096042
143	0xbf3d85f9	-0.7403255
144	0xbdc38932	-0.09547652
145	0xbc00fc26	-0.007872617
146	0xbdd05106	-0.10171704
147	0x3c1340ef	0.008987649
148	0xbe1d7402	-0.15376285
149	0x3e4dc16e	0.20093319
150	0x3e11f478	0.14253414
151	0x3db0c3bb	0.086310826
152	0xbe566f80	-0.20940971
153	0x3df0291f	0.11726593
154	0x3d9656a9	0.07340748
155	0xbea61b5d	-0.32442752
156	0xbe474144	-0.1945849
157	0xbea57bbb	-0.3232096
158	0x3e1b575f	0.15170048
159	0xbe1e2417	-0.15443455
160	0x3ec62aaa	0.38704425
161	0xbed1934c	-0.4093269
162	0xbe5b1167	-0.21393357
163	0xbe226e5a	-0.15862408
164	0x3ee2d184	0.44300473
165	0x3d0a8323	0.033816468
166	0x3ce2023a	0.027588952
167	0x3e9cfe52	0.3066278
168	0x3c09ce35	0.00841098
169	0xbe04d6b0	-0.12972522
170	0x3e945a0a	0.28974944
171	0xbeb44a7b	-0.35213074
172	0xbe8387c9	-0.25689533
173	0x3ec0aa52	0.37629944
174	0x3dfb01f1	0.1225623
175	0xbd66cffc	-0.056350693
176	0xbf08852e	-0.53328216
177	0xbf08ba7d	-0.5340956
178	0x3d2e4483	0.042545807
179	0x3cf55f88	0.02995278
180	0xbe754344	-0.23951441
181	0xbebec965	-0.37263027
182	0xbf14adff	-0.58077997
183	0xbe6c8e5b	-0.2310118
184	0xbe31b7bc	-0.17355245
185	0xbf1ba1f6	-0.6079401
186	0xbd0709c4	-0.032968298
187	0xbded3c37	-0.11583751
188	0xbea4a978	-0.32160544
189	0xbdd26f7c	-0.1027517
190	0xbedd60ce	-0.4323792
191	0xbe92aaf7	-0.2864606
192	0xbef707aa	-0.48248035
193	0xbe91e5ad	-0.2849554
194	0xbe31a598	-0.17348325
195	0xbdc9cd55	-0.09853617
196	0x3f4d6fa8	0.802485
197	0xbe1d51e0	-0.15363264
198	0x3dae9184	0.08523849
199	0x3f424e7c	0.7590101
200	0xbeba82fc	-0.36428058
201	0x3e614460	0.21998739
202	0xbec404d2	-0.38284928
203	0x3cd8aefd	0.026450628
204	0xbf260891	-0.6485682
205	0xbf0d1f2a	-0.5512568
206	0x3dbd0354	0.092291504
207	0x3e629aed	0.22129412
208	0xbefcdde5	-0.49388042
209	0xbdc836d6	-0.09776084
210	0x3e6ac856	0.22927985
211	0xbede6bc5	-0.43441597
212	0xbe257df9	-0.16161336
213	0xbe27c012	-0.16381863
214	0xbf032e26	-0.5124229
215	0x3e0d3ee4	0.13793522
216	0x3d6bed4a	0.057599343
217	0xbf0ea59d	-0.55721456
218	0xbedc523c	-0.4303149
219	0x3ed1bc5f	0.40964028
220	0xbd9295d6	-0.07157485
221	0x3e3e42d3	0.18580179
222	0x3e3c0750	0.18362164
223	0xbc391321	-0.011296065
224	0xbea2d85d	-0.31805697
225	0xbe1eb323	-0.15498023
226	0xbe027158	-0.1273855
227	0x3cc9ec44	0.024648793
228	0xbd0696dd	-0.03285872
229	0xbe6280ea	-0.2211949
230	0xbc5a1ab3	-0.01331203
231	0xbd8f63ca	-0.07001455
232	0x3e8c7591	0.27433446
233	0x3d23fea0	0.04003775
234	0xbf2ab558	-0.6668296
235	0x3ea531fd	0.322647
236	0xbe746091	-0.23864962
237	0x3d2e1003	0.04249574
238	0xbea7b55f	-0.32755563
239	0xbe8b4234	-0.27198946
240	0x3c776243	0.015099111
241	0xbe2d82aa	-0.16944376
242	0xbd9c29a2	-0.07625128
243	0x3b049dd3	0.0020235672
244	0xbeb293cd	-0.34878388
245	0xbd18c860	-0.037300467
246	0x3e9b3272	0.30311924
247	0xbdb4e3d4	-0.08832517
248	0x3eac9f25	0.33715168
249	0x3e4862a5	0.1956888
250	0x3dc1daa2	0.09465529
251	0x3e3bcb96	0.1833938
252	0x3d95135f	0.07279085
253	0xbdc0af59	-0.09408445
254	0xbd20d1e3	-0.039262664
255	0x3e00e09f	0.12585686

a2c_network.actor_mlp.2.bias f4 [128]
0	0xbf90a400	-1.1300049
1	0xbeb020ac	-0.34399927
2	0x3d84e751	0.064894326
3	0xbecde2ff	-0.40212247
4	0xbdaf8a89	-0.08571345
5	0xbe3dd4fe	-0.18538281
6	0xbea14bcb	-0.31503138
7	0xbee3ea3d	-0.44514647
8	0xbefc8ff5	-0.4932858
9	0xbe637d28	-0.22215712
10	0xbdab67e1	-0.08369423
11	0xbf0f26ff	-0.5591888
12	0xbece6355	-0.4031016
13	0xbef2c96c	-0.47419298
14	0xbe9a78d1	-0.301703
15	0xbe58c72e	-0.21169731
16	0xbd1502cb	-0.036379617
17	0xbe999b95	-0.30001512
18	0xbdca91b2	-0.098910704
19	0xbfa0bf4d	-1.255838
20	0xbea71282	-0.32631308
21	0xbef612a9	-0.48061112
22	0xbd5749a3	-0.05256046
23	0xbef6506c	-0.48108232
24	0xbeb07259	-0.3446224
25	0x3e4a2cc1	0.19743635
26	0xbe31c03c	-0.17358488
27	0xbec0ac2b	-0.37631354
28	0x3e76ca55	0.24100621
29	0xbde44045	-0.11145071
30	0xbe92452d	-0.28568402
31	0xbf26a58b	-0.6509635
32	0xbdea0da6	-0.114283845
33	0x3cac19a8	0.021008328
34	0xbf04a6bf	-0.51816934
35	0xbd5513fd	-0.052021015
36	0xbe1231f2	-0.14276865
37	0xbe4d77b2	-0.20065191
38	0x3baf3def	0.005347959
39	0xbe17a2c3	-0.14808182
40	0xbc15e366	-0.009148454
41	0xbed9922a	-0.42494327
42	0xbef37d6f	-0.47556636
43	0xbe22b786	-0.15890321
44	0xbedc490b	-0.43024477
45	0xbea48b5a	-0.32137567
46	0xbe52d108	-0.20587552
47	0xbf384108	-0.7197423
48	0xbe3cf1ae	-0.18451568
49	0xbf066fbe	-0.52514255
50	0xbe7b6235	-0.24549182
51	0xbdb412cd	-0.087926485
52	0xbf4bc849	-0.79602486
53	0xbeb8cc3e	-0.36093324
54	0xbca37421	-0.019952836
55	0xbdc18b9f	-0.09450459
56	0x3e0af861	0.13571312
57	0xbed6274c	-0.41826856
58	0xbe9cf4fb	-0.30655655
59	0xbe8bc723	-0.27300367
60	0xbf1516c1	-0.58237845
61	0xbdc0f5fb	-0.09421917
62	0xbe9b0b9e	-0.302823
63	0xbe56dbb2	-0.20982245
64	0xbe76cccf	-0.24101566
65	0xbf19c2ec	-0.6006305
66	0x3d8b6c3d	0.06807754
67	0xb9883eb4	-0.0002598666
68	0xbeaede79	-0.34154108
69	0xbe7a1acf	-0.24424289
70	0xbe3dd189	-0.18536963
71	0xbed46af6	-0.41487855
72	0xbe6eca1a	-0.23319283
73	0xbf12876d	-0.57237893
74	0xbc16b241	-0.0091977725
75	0x3d1c9c59	0.038235042
76	0xbeed0904	-0.4629594
77	0xbebd0230	-0.3691573
78	0xbe923180	-0.2855339
79	0x3ded402b	0.11584505
80	0xbd50dc5e	-0.05099141
81	0xbd34ce7d	-0.044142235
82	0x3d72e9d3	0.059305023
83	0xbef81eb7	-0.48460934
84	0xbe862dd2	-0.26206833
85	0x3e4a93af	0.197829
86	0xbe89524f	-0.2682061
87	0xbe124428	-0.14283812
88	0xbf022a45	-0.5084575
89	0xbe0df125	-0.1386152
90	0xbc00b3dd	-0.007855383
91	0xbeaeae96	-0.34117573
92	0x3d527119	0.05137739
93	0xbeebd51b	-0.46061024
94	0xbf14368d	-0.5789574
95	0xbdc04728	-0.09388572
96	0xbece7bd2	-0.40328842
97	0xbea78823	-0.32721052
98	0x3ce697b0	0.028148502
99	0xbe373159	-0.17889918
100	0xbed5effe	-0.41784662
101	0xbf04ad6f	-0.5182714
102	0xbe6b39ce	-0.2297127
103	0xbd0c752a	-0.034291424
104	0xbed5aa2c	-0.41731393
105	0xbed919b1	-0.42402413
106	0xbe852850	-0.26007318
107	0x3e074404	0.1320954
108	0xbe0a9b52	-0.13535812
109	0xbea1b90b	-0.3158649
110	0xbf845cdd	-1.034084
111	0xbc13b81a	-0.009016061
112	0xbee69873	-0.45038185
113	0xbe0bf368	-0.13667071
114	0xbe6016ff	-0.21883772
115	0xbee70405	-0.45120254
116	0xbe372e25	-0.17888696
117	0xbe8c15bd	-0.27360335
118	0xbe85e5f2	-0.26151997
119	0xbea16f6d	-0.31530324
120	0xbe0da343	-0.1383181
121	0xbe05450d	-0.13014622
122	0xbe43df79	-0.19128217
123	0xbea1a5ba	-0.31571752
124	0xbd607d39	-0.05480692
125	0xbf4d9a8d	-0.8031395
126	0xbe00c56c	-0.1257531
127	0xbee2e72b	-0.44316992

a2c_network.critic_mlp.0.weight f4 [128, 361]
0	0x401ead8f	2.4793432
1	0xbda3742c	-0.079811424
2	0xbe12df9e	-0.14343116
3	0xbe38648b	-0.18007104
4	0x3f398d83	0.72481555
5	0xbe20cf2f	-0.15704034
6	0x3d2253c1	0.039630655
7	0x3e88decd	0.26732484
8	0x3eb8ea39	0.36116198
9	0xc012ba49	-2.29262
10	0xbe8bfef9	-0.27342966
11	0xbeded24d	-0.43519822
12	0xbe9c7ace	-0.30562443
13	0x3e46dffc	0.19421381
14	0xbecb007a	-0.396488
15	0x3ec9eb4c	0.3943733
16	0x3e321b20	0.1739316
17	0x3f16c3bf	0.58892435
18	0x3e67162f	0.22567056
19	0xbe115602	-0.14192966
20	0x3f0d8010	0.5527353
21	0x3dcf62a3	0.10126235
22	0xbaff09cf	-0.0019457879
23	0x3e123fc1	0.14282133
24	0x3d816da8	0.063197434
25	0x3d6cbe44	0.05779864
26	0x3e42922f	0.19001077
27	0xbe388657	-0.18019997
28	0xb9f7581c	-0.00047177158
29	0xbdbaf714	-0.09129158
30	0xbd4fa32e	-0.05069273
31	0x3e36d440	0.17854404
32	0xbbc388fd	-0.005967258
33	0x3d351b70	0.04421562
34	0x3d73d959	0.05953345
35	0x3cbfdd59	0.023420976
36	0x3cdfcc4f	0.027319102
37	0x3e85acce	0.26108402
38	0xbd4af01c	-0.049545392
39	0x3d921ba7	0.071341805
40	0x3d03a109	0.032135997
41	0xbdc3e0e4	-0.09564379
42	0xbd9b523b	-0.075840436
43	0xbd0c3c01	-0.03423691
44	0xbd9b18a6	-0.07573061
45	0xbddf3d88	-0.10900408
46	0x3d02364f	0.031790074
47	0xbf31059f	-0.691492
48	0x3d2b29fc	0.041788086
49	0xbdadf8a2	-0.084946886
50	0xba4c7187	-0.00077988993
51	0x3db973c7	0.09055286
52	0xbd1088c1	-0.03528667
53	0xbcab760e	-0.020930316
54	0x3ce791fd	0.028267855
55	0xbd948907	-0.072526984
56	0x3e0dc236	0.13843617
57	0x3dff09b0	0.124530196
58	0xbd414b02	-0.047190674
59	0x3db21469	0.08695299
60	0x3d4c0088	0.049805194
61	0x3d040c83	0.032238495
62	0xbec06404	-0.37576306
63	0xbc7efc8e	-0.015563143
64	0xbd955efe	-0.07293509
65	0x3d4dc320	0.050234914
66	0x3d36b9b7	0.044610705
67	0xbcb513a9	-0.022104101
68	0xbca2b09d	-0.019859606
69	0xbde0c09c	-0.10974237
70	0xbd16db35	-0.036830146
71	0x3dbabb8c	0.09117803
72	0x3ad7bbd1	0.0016459172
73	0x3dd58003	0.10424807
74	0xbc9bef9c	-0.019035153
75	0x3e0b8203	0.13623814
76	0x3d8eee4c	0.06979045
77	0x3d58382d	0.05278795
78	0x3d7156ce	0.058920674
79	0x3d9f424a	0.077763155
80	0x3d898ad8	0.067159355
81	0x3e0625bf	0.13100336
82	0x3d641748	0.055686265
83	0x3d74cdc4	0.059766546
84	0xbc6b6b4a	-0.014368841
85	0x3d39412f	0.04522818
86	0xbe3a43ff	-0.18190001
87	0xbd9c51f2	-0.07632817
88	0x3bc82b6e	0.006108693
89	0x3c93479d	0.017978484
90	0x3d4abc4c	0.04949598
91	0x3d4782f9	0.04870889
92	0x3db74fbd	0.08950756
93	0x3c3dcb84	0.011584166
94	0x3c82c742	0.015964154
95	0xbd6e373d	-0.058158148
96	0xbcaf2023	-0.021377629
97	0xbd6a14ae	-0.057148628
98	0xbdbf76fa	-0.09348865
99	0xbd5ffd1d	-0.054684747
100	0x3c393b52	0.011305647
101	0x3da28dc9	0.079371996
102	0x3d8c12f5	0.06839553
103	0xbaa381e0	-0.0012474619
104	0xbd1d89ac	-0.038461372
105	0xbde209a6	-0.110369965
106	0xbdedb424	-0.11606625
107	0x3da1727b	0.078831635
108	0xbd45c991	-0.04828793
109	0x3d155473	0.03645749
110	0xbc9a0d82	-0.01880527
111	0x3c9a13b2	0.01880822
112	0x3d3be2ea	0.0458707
113	0x3dd6860e	0.10474788
114	0xbd3b96a8	-0.045797974
115	0x3da03327	0.078222565
116	0x3d1a9413	0.03773887
117	0x3e1c3359	0.15253963
118	0x3dffb5a4	0.12485817
119	0xbcb0b4aa	-0.021570522
120	0x3c3e0024	0.011596713
121	0x3c524b0b	0.012835274
122	0x3d2eadb6	0.042646132
123	0xbe772198	-0.24133909
124	0x3c6c0a69	0.014406779
125	0x3e576d67	0.21037827
126	0x3ed1e06c	0.40991533
127	0x3e3dd48c	0.18538111
128	0xbc532980	-0.012888312
129	0x3d87524d	0.066074945
130	0x3cce854f	0.02521005
131	0x3c5c0df7	0.013431064
132	0x3d69f1fd	0.057115544
133	0xbda9618e	-0.0827056
134	0x3c5a2dda	0.013316596
135	0x3e6bb54e	0.23018381
136	0x3fbdfa7b	1.4842066
137	0x40019d4f	2.0252264
138	0x3e444095	0.19165261
139	0x3dba561c	0.09098455
140	0xbdc3c0ba	-0.09558244
141	0xbd49abab	-0.04923598
142	0x3e02f4d9	0.12788714
143	0xbe0830c6	-0.13299856
144	0x3f28bff7	0.65917915
145	0x400b5c87	2.1775224
146	0xbc2aaf67	-0.010417796
147	0x3c84f72e	0.016231146
148	0x3cce5b9f	0.025190173
149	0x3d165dfe	0.03671073
150	0xb8f5ec2b	-0.000117265
151	0xbb5dc2b9	-0.0033837988
152	0x3d0c74dd	0.034291137
153	0x3c118bd1	0.0088834325
154	0xbd921f0a	-0.071348265
155	0xbd564118	-0.052308172
156	0x3d20f890	0.039299548
157	0xbe2f8772	-0.17141512
158	0x3d07c9ce	0.03315144
159	0x3cfb6e10	0.03069213
160	0xbd70d400	-0.05879593
161	0x3defb137	0.11703723
162	0x3e0bc59c	0.136496
163	0x3df05ca4	0.1173642
164	0xbd7eb504	-0.06218435
165	0xbc425f61	-0.01186356
166	0x3c238a18	0.009981655
167	0xbe1ef17d	-0.15521808
168	0xbe2056b2	-0.15658072
169	0x3c8cc195	0.01718215
170	0xbcff2e97	-0.031150145
171	0x3d1da262	0.03848494
172	0xbbf6a6c1	-0.007527203
173	0x3d627277	0.055284943
174	0xbcab0406	-0.020875942
175	0xbcfa8048	-0.030578747
176	0xbddec7a3	-0.108779214
177	0xbdc27a9e	-0.094960436
178	0x3cfba3f3	0.030717826
179	0xbd45490c	-0.048165366
180	0x3d9a0402	0.07520296
181	0x3b33e357	0.0027448738
182	0xbd7bd391	-0.061481062
183	0x3d3aa172	0.045564122
184	0x3e12baef	0.14329122
185	0xbde0119d	-0.109408595
186	0x3bf3e7d7	0.007443409
187	0x3b88963e	0.004168301
188	0x3c8c7925	0.01714761
189	0xbd8f7ac6	-0.07005839
190	0xbbb49e43	-0.0055120303
191	0x3ccf0923	0.025272911
192	0xbdbd9aa6	-0.092580125
193	0x3aa3a380	0.001248464
194	0xbcb01a89	-0.021497028
195	0xbdc74553	-0.097300194
196	0x3d334162	0.043763526
197	0x3ec36fd0	0.38171244
198	0x3d07b3c9	0.03313044
199	0xbd4105e3	-0.047124755
200	0x3b4c4276	0.0031167543
201	0x3cf157a0	0.029460728
202	0xbdc05e33	-0.09392967
203	0xbd1f1ab1	-0.038843814
204	0x3d45b903	0.048272144
205	0xbdb89024	-0.09011868
206	0x3c3878fb	0.011259313
207	0x3f7f5c60	0.9975033
208	0x3fa8e192	1.3193839
209	0x3e80738b	0.25088152
210	0x3cd2c779	0.025729882
211	0x3cc53ff7	0.024078352
212	0x3e3dbfaf	0.18530153
213	0xbda99c42	-0.08281757
214	0xbd1ca904	-0.038247123
215	0x3eb95513	0.3619772
216	0x3f9d6840	1.229744
217	0xbbfc0337	-0.007690813
218	0xba3f60a3	-0.0007300472
219	0x3bbac658	0.005699914
220	0x3cd62253	0.026139414
221	0x3c18f916	0.00933673
222	0x3c19fab0	0.009398147
223	0x3cbba8fa	0.022907723
224	0xbcc43d67	-0.02395506
225	0xbcf8f141	-0.030388476
226	0xbb445cb7	-0.002996249
227	0x3c2a42c4	0.010391895
228	0x3bd807cd	0.006592727
229	0xbd8ec3a2	-0.06970908
230	0x3c981be9	0.018567996
231	0xbb904e2b	-0.0044038496
232	0xbc3ca255	-0.011513312
233	0x3c85b8c2	0.016323451
234	0xbbd38695	-0.0064552524
235	0xbb4e11d3	-0.003144373
236	0x3b777826	0.0037760823
237	0xbba3581a	-0.0049848678
238	0x3d4b6973	0.04966111
239	0xbc9aa09d	-0.018875415
240	0x3c471749	0.012151548
241	0xbca5c116	-0.020233672
242	0x3ba87db6	0.005141939
243	0xbd104325	-0.035220284
244	0xbc3feddd	-0.011714426
245	0xbc143fe9	-0.0090484405
246	0xbc547068	-0.012966253
247	0x3c0e5dc0	0.008689344
248	0xbc993464	-0.01870174
249	0x3bc1904e	0.005907095
250	0xbc352dfc	-0.011058327
251	0xbc9d19a3	-0.019177264
252	0xbd30dc41	-0.0431788
253	0xbc04dba4	-0.008109007
254	0x3cf19303	0.029489046
255	0x3c344aa5	0.011004125
