python/rlgpu/saved_nn/241001162243532647/last_Aliengoep=7000rew=[1132.88].pth (torch, 523930 bytes, 18 tensors)

running_mean f8 [361]
000000 a8 cf a5 32 ee 40 b5 bf 8a de d9 8e 0f fe 69 3f
       -0.0830220101977931 0.003172903429739031
000010 45 7f 6d 6f ef 4d ce 3f de 22 f7 7f 6e 94 96 3f
       0.23675339642340468 0.022050596771609025
000020 e0 d2 96 97 aa 95 c4 bf ea cd 7f 56 ee 17 d4 3f
       -0.16081745530904978 0.3139606327742671
000030 8a 38 1c de 29 b8 d7 3f 27 0d f6 92 7a f1 d9 3f
       0.3706154507680216 0.405363696591126
000040 bb ad e4 d3 7e 5e e1 3f a9 18 70 cf 7a 3c c3 3f
       0.5427850855389161 0.1502831948166137
000050 1c e2 5c 6a 36 11 c0 3f 8a ab 96 4d b0 61 d5 bf
       0.12552528565881083 -0.33408744408614466
000060 7c 95 fa 1d ae ad cb 3f 8e 05 17 a2 6a 76 a0 bf
       0.21623779739199367 -0.03215344647061179
000070 62 f0 f3 33 75 2e d4 bf 2a 4c 93 e8 6f 89 a4 bf
       -0.3153355605461511 -0.0401110621839041
000080 a0 f9 b4 77 10 bb c3 3f 3d cf 7e a3 b7 b3 d4 bf
       0.1541462502008928 -0.3234690758356356
000090 1f be e2 1e 6c bd c3 bf bf 83 dd 64 5a a3 c3 bf
       -0.1542182112511776 -0.15342264103949607
0000a0 9d 68 19 3c 36 12 d4 bf b7 e5 41 69 3e c6 da 3f
       -0.3136115633875621 0.4183498409180077
0000b0 b4 c4 bd 63 8a 1b 97 bf e3 a0 23 8c 2a ce cb 3f
       -0.02256599649212339 0.21722919314129915
0000c0 59 2e d4 0c 5c e1 dd 3f f7 de 0c 3a a1 0e ae 3f
       0.4668798566133084 0.05870536645528362
0000d0 02 39 e2 d4 0d 8d c6 3f b1 6f 96 d9 59 e3 da 3f
       0.17617962736807874 0.4201264023665728
0000e0 4e 84 bd 24 92 e5 97 3f 73 3d c4 30 11 3a c4 3f
       0.023336680881929354 0.1580220687978727
0000f0 b4 b8 ca 37 da f4 dc 3f c1 72 43 79 25 e8 b8 3f
       0.45244460533548225 0.0972922726682084
000100 b4 6b 64 56 aa 6d c0 3f 3d 35 d1 e0 2b 73 e1 bf
       0.12834672182438356 -0.5453090086900044
000110 b9 23 f5 9e 73 36 e5 3f a6 c6 a8 3b 2e 16 d7 bf
       0.6628969292297519 -0.360728796254174
000120 b2 cf 38 bb c8 aa d9 3f b3 8a db 39 2d 3d e7 3f
       0.4010488346423201 0.7262178545027694
000130 d6 76 ed e3 a6 6e d7 bf 48 db 6c 31 37 f0 cf bf
       -0.36612865694574503 -0.2495182982763373
000140 98 e5 7f 12 d9 c0 df bf 54 b7 c3 5e 62 63 e2 bf
       -0.4961455040607574 -0.5746318674916702
000150 a3 db 4d a4 a7 1b b1 3f d2 5d 6c 2e 08 ea dd bf
       0.06682822953540195 -0.4674091771462062
000160 59 46 e5 ed 0c 5e d4 bf de 15 63 d7 e7 2c e3 3f
       -0.31824038726799625 0.5992316443231933
000170 15 dc 2b e2 59 6a df 3f a5 e1 8d d9 30 bf ef 3f
       0.49086615645450254 0.9920887230974144
000180 70 d7 8f 1c 7b 5c e0 3f 4c 7e 2c 7a ef 62 e3 3f
       0.5112891729211082 0.6058270822722505
000190 23 86 2e 8f 1e 2f b9 3f 3a fb 50 69 6a 0f e4 3f
       0.09837523456237611 0.6268817955932271
0001a0 b7 20 b1 08 be 10 c0 3f d8 7b 82 c5 8d d8 91 3f
       0.12551093506249852 0.017427649669681106
0001b0 40 b6 85 0d b5 a9 da bf 7a 67 3b 0c 96 de e5 3f
       -0.41660810776270196 0.6834211577326947
0001c0 5b 10 4c 4e fd d6 db 3f 45 93 07 e9 53 22 d0 bf
       0.43499691625789233 -0.252095201080284
0001d0 70 ed 11 e1 01 b4 e5 bf 8e ab 6d e5 b3 f7 d2 3f
       -0.6782235523127564 0.2963685741912564
0001e0 a6 a6 52 68 5d 28 e3 3f 80 d5 9d 6d 64 58 df 3f
       0.5986773526721734 0.4897700376962675
0001f0 6f fe 36 2f de b5 ef 3f 3e e8 94 fe e2 57 e0 3f
       0.9909506723560763 0.5107283565805643
000200 9d 5e 65 df e1 5d e3 3f eb c4 42 3d 2a 1d b9 3f
       0.6052102435305248 0.09810127254128857
000210 44 59 94 7e 7d 0b e4 3f 9f b5 08 74 0d 11 c0 3f
       0.626402613854943 0.1255204025814409
000220 ec 6e 66 f8 7a b0 91 3f 14 92 76 aa 8c a3 da bf
       0.01727478161920619 -0.4162322678260193
000230 44 27 84 73 1e d9 e5 3f 46 23 00 f3 b6 cf db 3f
       0.6827537780929807 0.4345528958370334
000240 5e 8c 79 a0 60 1f d0 bf cf 5c 3b f6 29 b0 e5 bf
       -0.25191512748114586 -0.6777543839661123
000250 2d 50 ab f0 e1 f2 d2 3f f3 22 9d 4f a1 55 cb 3f
       0.2960743761334495 0.21355072390931404
000260 7d f8 84 6d a7 3e cc 3f 7e 41 5a 83 dc 3d cc 3f
       0.2206620487940575 0.2206378594751292
000270 4b a7 c3 83 88 dd cb 3f 43 c5 e9 35 85 6f cb 3f
       0.21769815858652417 0.21434083111265964
000280 17 5b 7f 81 76 02 cb 3f eb 99 ee 35 05 a7 ca 3f
       0.21101266215438194 0.2082220567073841
000290 62 bd 32 9b fd cf ca 3f cc 90 cc cd 28 29 cb 3f
       0.209472370891926 0.2121935849073736
0002a0 19 10 e5 99 29 93 cb 3f ae bd 11 cf 90 04 cc 3f
       0.2154285432280865 0.21888933287435236
0002b0 26 03 50 c8 38 41 cc 3f 61 15 e2 17 b2 d9 cb 3f
       0.22074041157613883 0.21758104482811816
0002c0 6a a0 51 6d 20 78 cb 3f 57 c5 a5 a4 c0 8d ca 3f
       0.2146034749778239 0.2074509433692053
0002d0 48 f4 1c 5b dc 78 c8 3f af 90 9c ff f5 34 c8 3f
       0.19118837784654574 0.1891162393668586
0002e0 29 f6 c4 ed 12 19 c8 3f 4f c5 e9 58 d6 e7 c9 3f
       0.188265195940333 0.20238761273825864
0002f0 11 68 30 77 54 c6 ca 3f 1d a7 ea d8 91 68 cb 3f
       0.20917754955081638 0.21412871448165385
000300 62 5a e0 8e 1a 3f cd 3f c3 d8 a6 0d ca 92 cc 3f
       0.22848827339540195 0.22322965303982842
000310 d4 4e ba 7b 89 c7 cb 3f 3f d4 ef 51 ee 59 ca 3f
       0.21702688733477393 0.20586947441884892
000320 ac 51 08 cc 90 c0 c7 3f 87 bd c2 91 76 78 c7 3f
       0.18556413614773015 0.18336374394628427
000330 57 df 70 7d 9c 33 c7 3f 01 18 4f 37 86 6c c9 3f
       0.18126255154651957 0.19862439823754133
000340 18 3a 04 98 24 c8 ca 3f 32 45 34 d9 65 fc cb 3f
       0.20923287794762824 0.21864007096932309
000350 f8 c1 06 27 f1 5d ce 3f fe f9 14 7b e6 73 cd 3f
       0.2372418823774891 0.2300994969354661
000360 cc 33 22 47 c2 9b cb 3f 26 71 b8 e3 bc 4e c9 3f
       0.21569088433571293 0.19771538848079578
000370 21 f7 c5 b8 6c 6f c7 3f 31 ec ae 19 a0 12 c7 3f
       0.18308791181692022 0.1802559018522927
000380 10 d9 90 2a e0 c0 c6 3f e5 31 ab 29 ea 32 c8 3f
       0.17776109770211024 0.18905379328351937
000390 a3 fe 89 19 6b 75 ca 3f 30 a1 43 ce e6 c0 cc 3f
       0.20670832392714997 0.22463688918583946
0003a0 13 35 f3 18 52 9d cf 3f 72 f3 b3 fb 5f 69 ce 3f
       0.2469885465456306 0.23759078779394432
0003b0 5e 4e a9 45 da f3 cb 3f 4f 57 76 51 1e 32 c9 3f
       0.21837929154809194 0.1968419931187619
0003c0 e6 7b 73 6e 4a 51 c7 3f 97 73 b7 ae 76 d7 c6 3f
       0.1821682967483575 0.17845042735180236
0003d0 18 1b 88 18 8b 92 c6 3f 3e 72 d2 e3 ce f6 c7 3f
       0.17634714792094353 0.1872194874203092
0003e0 ef d7 e0 7e 44 b1 ca 3f 94 b6 a3 eb 81 a6 cd 3f
       0.20853477664212458 0.23164390569529714
0003f0 89 9e 05 7c 10 79 d0 3f 67 f5 1d 8b 19 70 cf 3f
       0.2573891841079577 0.2456085137636521
000400 ea d3 66 22 77 48 cc 3f 9d 16 22 ad ec 27 c9 3f
       0.22096146754998297 0.196530899560618
000410 55 97 5f 06 a8 4e c7 3f ef 15 7c e7 8b b4 c6 3f
       0.18208790122224153 0.17738484194721546
000420 79 ae ef 2a dd 8b c6 3f af c0 21 8f 22 db c7 3f
       0.17614330860611796 0.18637496937617956
000430 f2 92 c5 d1 07 01 cb 3f c9 35 90 37 29 a9 ce 3f
       0.21096894972574592 0.23953738415768402
000440 8c 74 83 b8 3b d7 d1 3f 88 2b d1 40 0a e1 d0 3f
       0.2787617971315022 0.263735354707642
000450 6d 57 da 51 3c 8f cc 3f eb 18 55 27 80 9f c8 3f
       0.2231212043449732 0.19236757202651886
000460 ed ce e3 9a 14 6f c7 3f c6 ea 50 c1 e6 04 c6 3f
       0.18307740748388515 0.17202457846891245
000470 82 87 1b 01 48 bd c6 3f f0 0e 44 46 9b 76 c7 3f
       0.1776514058502095 0.1833070843787179
000480 04 df 56 37 86 95 cb 3f 47 b0 70 84 4c 88 d0 3f
       0.21550061895481332 0.25831902440655025
000490 49 f6 58 2c 5b 4f c8 3f b0 e1 2f 34 34 ef c8 3f
       0.1899217573681418 0.1947999243564147
0004a0 72 f5 9f 77 80 d3 c8 3f 0c 7b 03 64 3f 93 c8 3f
       0.193954523478094 0.1919936407420767
0004b0 d4 36 a1 d7 ec 60 c8 3f b2 ec 86 c1 fb 28 c8 3f
       0.19045792130275763 0.1887507147747321
0004c0 20 cb 61 9e 81 06 c8 3f eb 5f 70 a8 da 46 c8 3f
       0.1876985572194707 0.1896622965293767
0004d0 00 92 a5 ae 7e 8a c8 3f 0c bd 0f 66 75 ba c8 3f
       0.19172652747796803 0.19319026454420685
0004e0 bc 6c 65 bb 63 ec c8 3f 53 cf 26 ad 9b f2 c8 3f
       0.1947140374203168 0.1949038119761278
0004f0 ad c8 5c b1 c7 36 c8 3f ed 43 4e 57 c1 a3 c7 3f
       0.18917175445819137 0.1846849132821541
000500 76 76 71 93 30 2e c7 3f 79 3e d9 11 75 12 c6 3f
       0.1810970992982452 0.17243827220453392
000510 3e 42 31 db 67 55 c6 3f 4e 3e 9f 7f 15 72 c6 3f
       0.1744813747668718 0.17535656672997607
000520 04 47 e9 a1 48 e6 c7 3f a1 66 53 2d a9 52 c8 3f
       0.18671520143339404 0.19002260888264735
000530 4f 9e a7 a9 37 8b c8 3f 95 87 60 7b bb 09 ca 3f
       0.19174857887195393 0.20342200779219569
000540 a1 fa 93 2e 45 bd c8 3f 39 a5 52 62 93 ae c7 3f
       0.1932760693961955 0.18501512814445123
000550 50 4c f4 ee 01 e2 c6 3f da cb 22 5d b4 77 c5 3f
       0.17877220313730158 0.16771559283878795
000560 00 e2 4e ac 93 f1 c5 3f 9f 03 9f 2a 52 1d c6 3f
       0.17143484033091738 0.17276980477438728
000570 fd 2a 4c 78 75 e5 c7 3f 70 ed 96 40 2b a0 c8 3f
       0.18669002889540556 0.19238796857630858
000580 5e 2c cb db e4 44 c9 3f c0 81 59 a4 06 92 cb 3f
       0.1974149773799096 0.2153938581932504
000590 be be d4 d0 d7 b2 c9 3f f3 46 17 87 ea 8d c7 3f
       0.20077035614803224 0.18401843639599455
0005a0 96 0b 2c 59 d1 0c c6 3f 81 3e cc cc 6f 34 c5 3f
       0.17226616720298854 0.1656627416600607
0005b0 9c 9b 53 48 67 b7 c5 3f 3e 5b d1 8a 64 03 c6 3f
       0.1696595290333932 0.17197853830540483
0005c0 23 d2 86 7c 63 2c c7 3f 37 ba 0d fb f9 89 c8 3f
       0.18104213314440284 0.19171070822217626
0005d0 fb bd 65 b9 6a 52 ca 3f e9 af cc 97 99 94 cd 3f
       0.20564016392334836 0.2310974112709794
0005e0 ea d6 38 ec 1f 0d cb 3f 99 54 bb c4 93 f9 c7 3f
       0.21133803400305534 0.1873039923290534
0005f0 57 8c 3b 0e c3 12 c6 3f 0c 91 df be 1f 24 c5 3f
       0.17244756884528797 0.16516491718278592
000600 a4 50 fd fc 0e a2 c5 3f a5 4b 61 2f 48 0b c6 3f
       0.16900813439372542 0.17221929849128262
000610 c4 ab 80 8b ac 34 c7 3f 05 8c b3 4e 2e e5 c8 3f
       0.18129498302127278 0.19449404566611875
000620 96 3d e1 18 20 ac cb 3f 76 6c d9 74 06 d2 cf 3f
       0.21619034972034673 0.248596961074188
000630 42 59 d0 63 0e cb cc 3f f5 ea 2d 0d 60 7e c8 3f
       0.22494678376888017 0.1913566650726676
000640 83 78 02 03 ba 36 c6 3f 8f 3e cc 8c 10 36 c5 3f
       0.17354512354808457 0.16571242213148138
000650 22 2b 3a e1 03 a4 c5 3f fb 30 39 1e 0e 28 c6 3f
       0.16906784531996616 0.17309738612892275
000660 b7 e1 40 59 b0 3f c7 3f d6 80 83 3e ad 36 c9 3f
       0.18163112981870963 0.19698110153604514
000670 76 8d ac 19 9d 54 cd 3f 32 f3 c4 80 b9 0e d2 3f
       0.22914470437636297 0.2821487195504232
000680 1f 19 45 b7 d2 83 d0 3f 96 a8 e1 08 c8 7d c9 3f
       0.25804584405377 0.19915104325929595
000690 f6 1c 92 46 3f 44 c6 3f 8e b4 19 1a ec 92 c5 3f
       0.17395773835981004 0.1685462119525351
0006a0 30 dd 5b 14 98 60 c5 3f 28 c0 a2 3f 80 78 c6 3f
       0.16701031679233713 0.17555239779676524
0006b0 16 8e 35 6a eb d0 c6 3f 3e 16 f9 ae 2e 60 c9 3f
       0.1782507198905569 0.19824775260546973
0006c0 bd 2c e7 ff f0 8e d0 3f 07 38 da 45 18 17 c7 3f
       0.2587244509747498 0.18039229784739083
0006d0 be 1a 55 c6 2a 10 c7 3f 74 a8 8c 50 9c 3e c7 3f
       0.18018088039590013 0.18159822400167835
0006e0 8b 36 43 2d 7e 4c c7 3f 64 0b 85 9a c2 47 c7 3f
       0.18202187738500117 0.18187744660289262
0006f0 3f 41 1a bd 6f 49 c7 3f 7c c0 22 b4 e7 38 c7 3f
       0.18192860349200576 0.18142410560313127
000700 a2 82 b1 72 1b 4f c7 3f 1d 03 cd 34 a1 4e c7 3f
       0.18210166073096895 0.18208708837666956
000710 bd a5 8c a8 e9 4c c7 3f 95 f2 1e e5 32 3a c7 3f
       0.18203469018889776 0.18146358668845566
000720 8b ef 06 7d e1 48 c4 3f 43 ea c8 a8 23 43 c4 3f
       0.15847414593542583 0.15829892865606796
000730 70 be 5f 42 99 81 c6 3f 59 41 be 2b 09 73 c6 3f
       0.17583003750722837 0.17538561473748862
000740 95 7f 2b 6b 3f db c5 3f b3 97 d6 ec 00 2b c6 3f
       0.1707534096994975 0.17318736614578042
000750 26 bc cf 26 25 51 c5 3f 4a 37 a8 67 0b 6f c5 3f
       0.16653885264483498 0.16745131074315572
000760 a7 22 cf de d5 61 c5 3f f5 79 74 7b 89 aa c3 3f
       0.16704820041038212 0.15364187744212612
000770 5e b6 d8 fa d7 45 c4 3f 3d 32 67 8a fc 40 c4 3f
       0.15838145969739775 0.15823323018993732
000780 8a a6 aa 56 de 75 c6 3f 8c 62 92 f5 1b 5f c6 3f
       0.1754720614601875 0.17477750292598093
000790 e5 1e c3 7f ac 7c c5 3f 48 8e 10 b9 6e fd c5 3f
       0.16786724317920867 0.17179664646492854
0007a0 ca 0c 41 70 28 d9 c4 3f 48 e7 aa c4 da 24 c5 3f
       0.1628771350970964 0.16518721201810593
0007b0 f3 80 49 f1 a7 00 c5 3f ae 73 ae cf 4a 6c c3 3f
       0.1640825203094277 0.15174231663413934
0007c0 68 46 1c 32 89 61 c4 3f ae 38 f6 3f 32 7b c4 3f
       0.1592265600852898 0.16000965235838777
0007d0 0b df 76 a0 0c e8 c4 3f a0 f2 55 da fd b7 c5 3f
       0.16333158335850614 0.16967747841763003
0007e0 b0 26 8c 23 7c 51 c5 3f a2 f9 76 85 26 e5 c5 3f
       0.16654922233310776 0.17105561749299364
0007f0 cf f9 73 32 58 bf c4 3f 42 7c 02 9c 72 9c c4 3f
       0.1620893713333786 0.1610244046941905

running_var f8 [361]
000000 4b c4 5f 13 9a 40 a0 3f 60 7f 8c 56 ba 5b 06 40
       0.031742873063088504 2.7947890054346516
000010 23 eb 93 f5 2e 72 c2 3f d4 8e 65 02 36 fd 18 40
       0.14410960188964692 6.247276341866115
000020 e5 6a 21 f6 95 3a c1 3f 5e 65 52 62 e5 91 cb 3f
       0.13460039632885593 0.21538989354011567
000030 63 99 03 99 78 db cd 3f 83 74 11 51 8c da ce 3f
       0.2332602259768449 0.24104455908210207
000040 64 94 7f 3e 09 c4 cf 3f 11 77 5e 34 e1 d0 98 3f
       0.2481700472991718 0.02423431284079586
000050 75 b8 1e f6 6e 67 6e 3f 29 f8 c2 9e ed 7a 78 3f
       0.0037114302840200405 0.00597660847068763
000060 90 74 04 de 7e 36 94 3f 66 d6 72 67 bb 4e 78 3f
       0.01973913412176792 0.005934459731340524
000070 9c 77 b2 26 fe b4 73 3f 8e 82 d8 3d 9e f5 9e 3f
       0.0048112800388064 0.03023383381344274
000080 72 8a 28 6f de 38 6c 3f 03 1f 21 b4 b3 68 6a 3f
       0.0034450859468660383 0.0032237539135485673
000090 d2 75 09 30 19 3f 9a 3f 79 60 e9 89 eb d1 6c 3f
       0.025631326252882954 0.0035180664411136845
0000a0 fa 67 27 b3 a8 f7 64 3f 00 39 a5 d0 99 43 1d 40
       0.002559499255977646 7.316016445240393
0000b0 e0 e3 ce e1 cc f3 fb 3f 91 ba ec be 1a ac 0a 40
       1.7470215626365118 3.3340353885644807
0000c0 cf 7d f4 ab 19 0e 17 40 53 91 cf 99 51 21 fa 3f
       5.76376980476148 1.6331344612345517
0000d0 e6 83 5f 5c 13 0c 08 40 88 52 4f aa 73 f8 15 40
       3.0058963028572974 5.4926287280001205
0000e0 d6 36 d2 8a 04 dc f2 3f 5c f1 18 41 a8 49 f5 3f
       1.178715269346346 1.3304827254169913
0000f0 97 6d 40 e7 9f 4f 0b 40 67 38 c0 81 86 a7 ea 3f
       3.413879210141839 0.8329498800465104
000100 93 a3 1f 3d a5 b4 eb 3f be 7c 54 9d 63 4b 27 40
       0.8658014482326614 11.647244373858822
000110 fc 96 b2 21 1b f5 27 40 0e d1 23 84 be 2b 25 40
       11.97872262291957 10.585437898037096
000120 3d 1e a5 23 e3 42 26 40 96 93 cf cd e9 7d 27 40
       11.130639184862156 11.745924407566957
000130 b7 80 14 3d 72 08 21 40 e7 bc 8c 58 64 db 24 40
       8.516496571305067 10.428499953441543
000140 62 a0 cb f3 dd 6d 25 40 5c b0 f9 2f 55 a2 21 40
       10.71458398686099 8.817056178311923
000150 99 41 e9 c1 14 07 21 40 85 66 27 a5 b6 b5 20 40
       8.513830241893446 8.3549090967747
000160 d8 f3 31 4d d8 a1 1d 40 b0 04 2e e9 72 c7 d6 3f
       7.408051687406406 0.3559233929773411
000170 f5 ca 34 13 63 6e dc 3f 2b 24 fd aa 27 3b 78 3f
       0.44423748851401906 0.0059157895592046135
000180 b1 33 ca f8 89 8d e0 3f 3e 6c a5 88 a6 41 db 3f
       0.5172777041603834 0.4258819899020557
000190 c6 c8 4f 25 c4 d7 e6 3f 3d cf 59 94 f0 fd d9 3f
       0.7138386467688853 0.40612425315270057
0001a0 f3 fd 32 4e 77 46 e6 3f 7f 3b ef 5d 2d 48 e7 3f
       0.6961018111541634 0.7275606951387629
0001b0 11 0f 18 4f 09 9b e2 3f a2 49 2c 2f 78 e0 d5 3f
       0.5814253372959418 0.34182552916277065
0001c0 c3 89 e6 c4 a7 42 e2 3f 9c c9 21 59 c3 e4 e4 3f
       0.5706366391862548 0.6529251805171046
0001d0 4d 4a 16 8e 9a 08 d3 3f 06 ce 47 c0 09 77 e4 3f
       0.29740013004007865 0.639531016872241
0001e0 3f 8d 2d 0a 23 c5 d6 3f 66 99 96 a1 5c 76 dc 3f
       0.3557822799104606 0.4447242334375886
0001f0 b6 02 f0 ff b0 d3 7c 3f ec 20 3e 5c c0 8a e0 3f
       0.007037822156235654 0.5169374276747738
000200 65 83 53 c9 7e 3e db 3f 16 cb 2b 4a 25 d1 e6 3f
       0.42568940792812376 0.7130304764417328
000210 8d fd 4e 56 cd f8 d9 3f 56 d2 43 d2 67 3f e6 3f
       0.40581067493982276 0.6952399355637435
000220 e7 0e 79 bc 38 41 e7 3f 06 bc 3c bd 7e 96 e2 3f
       0.7267116242514619 0.5808709808387682
000230 a5 95 d5 0a d3 df d5 3f a2 ed 91 42 7b 3e e2 3f
       0.34178615625418224 0.5701271343418066
000240 6d db 49 16 96 de e4 3f aa 15 7d f1 ce 04 d3 3f
       0.6521711764643051 0.2971684797560906
000250 fd bb b1 b6 6b 71 e4 3f e9 fb d3 06 4c ad b9 3f
       0.6388453071830323 0.10030055205059764
000260 60 25 11 1e 0f df ba 3f bf 79 b0 97 6f da ba 3f
       0.10496611103112263 0.10489556744912586
000270 70 5d f6 bd 2e 62 ba 3f 8c 19 13 48 37 d0 b9 3f
       0.10306064737084397 0.10083337316164015
000280 ae 6d 72 d7 33 41 b9 3f 64 b0 44 7d 89 d3 b8 3f
       0.09865116128860649 0.09697779949482449
000290 db 4a 7c fb 0d fc b8 3f 4b 06 66 62 d3 6b b9 3f
       0.09759604825766692 0.099301539919929
0002a0 de dd 53 e2 23 fa b9 3f 4a 8b 52 68 7f 8f ba 3f
       0.1014730861241939 0.10375210091528433
0002b0 2a fb 47 a8 a9 9a bb 3f e5 c5 64 84 56 32 bb 3f
       0.10782871588160661 0.10623684627787318
0002c0 a0 ae f7 20 be 5a ba 3f f1 1f 04 34 b8 23 b9 3f
       0.1029471235739785 0.0982012869827711
0002d0 bf 44 51 3a f5 9e b6 3f e5 3f 30 29 4f 15 b6 3f
       0.08836300538793561 0.08626265292718889
0002e0 b4 34 b1 df 3f 2f b6 3f ba 18 a1 0e 61 72 b8 3f
       0.08665847026095969 0.09549528700981372
0002f0 64 bd 95 97 58 a0 b9 3f 35 08 39 03 42 b8 ba 3f
       0.10010293675235499 0.10437405184441746
000300 ee 32 03 83 f0 0f bd 3f 66 f6 67 e3 da 5d bc 3f
       0.11352446745440734 0.11080711414248298
000310 69 51 01 01 bc f3 ba 3f 6e 33 e5 a4 bb 15 b9 3f
       0.10528159164943464 0.09798786903156806
000320 0a 73 a1 0d 1f e3 b5 3f 39 7c 90 d0 50 40 b5 3f
       0.08549684603481125 0.08301262943176448
000330 9d 48 40 3a 78 3b b5 3f 7f ce ae 7c a4 0e b8 3f
       0.08293868467470351 0.09397342723860368
000340 2d 5e e6 91 9e e3 b9 3f 5f 07 67 67 82 bc bb 3f
       0.1011294466210237 0.10834517502283124
000350 38 44 b8 f4 04 a3 be 3f c1 a4 0e 9c fa aa bd 3f
       0.11967497801403304 0.11589018163671751
000360 90 7c 5e c0 08 3d bb 3f 17 88 ef a5 17 1f b8 3f
       0.10640005775938932 0.09422443200267626
000370 f4 d6 ed 25 3e a2 b5 3f 9c 74 65 79 cf da b4 3f
       0.0845068781471488 0.08146378244187463
000380 1e ff 55 3a c7 cb b4 3f ea 25 c5 23 2b ca b6 3f
       0.08123440908638854 0.08902234671872802
000390 01 34 05 6c 38 ec b9 3f 58 96 5d 71 46 eb bc 3f
       0.10126068722929916 0.11296501414980165
0003a0 48 56 e5 3e d0 28 c0 3f 0c 7d a0 d0 41 06 bf 3f
       0.12624552794538801 0.12118922561102269
0003b0 fb 75 26 ec 56 e2 bb 3f 3b d4 ae 1f 37 2e b8 3f
       0.10892241731058754 0.09445518992909367
0003c0 d1 10 58 f2 ce a0 b5 3f 64 7d 09 1c cf b0 b4 3f
       0.08448499123193477 0.08082289156435746
0003d0 b9 b7 05 bc 1f ae b4 3f 97 e5 c7 ee 08 a4 b6 3f
       0.08078192081822423 0.0884404738389065
0003e0 df dd 59 6d 19 6c ba 3f 57 07 ba 2c f7 36 be 3f
       0.10321196479514282 0.11802620737037493
0003f0 ac 94 9d 45 5a 07 c1 3f c1 4d 2e 90 7d 35 c0 3f
       0.1330368843002011 0.1266323999412702
000400 73 1e c1 2c a5 80 bc 3f 79 e7 91 b8 09 54 b8 3f
       0.11133797018657692 0.0950323176965905
000410 fa 2c b8 bc 42 c2 b5 3f 7c d3 9e 03 15 ad b4 3f
       0.084995432924348 0.08076602304829622
000420 b2 dd d2 67 80 bf b4 3f af 83 db 5c 28 a3 b6 3f
       0.08104708227880655 0.0884270884230449
000430 88 b2 6c 69 da fc ba 3f d2 47 a7 c9 2d 99 bf 3f
       0.10542073320238832 0.12343107388667754
000440 30 3c 21 49 53 c0 c2 3f 95 62 22 d1 6b ac c1 3f
       0.146494303424761 0.1380743762172371
000450 8b bd 3a fd 63 62 bd 3f 28 39 93 37 25 3f b8 3f
       0.11478257114753469 0.09471352202237837
000460 5c fb f0 0f 81 33 b6 3f e9 52 ef e3 dd 61 b4 3f
       0.08672339095299492 0.07961832823577776
000470 76 ac a0 6f 51 2d b5 3f 01 87 02 2f c3 82 b6 3f
       0.08272274947437261 0.08793277642919507
000480 e7 53 47 51 11 0c bc 3f 7d 23 da 92 89 4f c1 3f
       0.10955913767186552 0.13523978872788325
000490 31 e8 19 9d 58 5b b6 3f 92 8a 7e b1 ee 3d b7 3f
       0.08733133159140107 0.0907887633643816
0004a0 d8 56 cf 88 f5 11 b7 3f bd 44 f7 cb 6a b7 b6 3f
       0.09011778440557394 0.08873622398029375
0004b0 25 08 9a 90 4d 6b b6 3f 73 e9 4c b2 3a 20 b6 3f
       0.08757481365503901 0.08642927983320252
0004c0 0a ff e3 d4 a0 fe b5 3f 02 e0 a0 33 6c 4c b6 3f
       0.0859165687324969 0.08710361729106356
0004d0 f2 7b 1c f0 9d a8 b6 3f 9f ac 70 a7 8d f0 b6 3f
       0.08851039039699041 0.0896080526151075
0004e0 72 35 a5 c9 ac 35 b7 3f f5 b3 00 4d 1e e3 b7 3f
       0.09066276476842974 0.09330930118512966
0004f0 bd b7 57 e4 12 14 b7 3f 03 f1 d3 df 06 14 b6 3f
       0.09015005183002152 0.08624308552311181
000500 42 bb dc da 98 64 b5 3f a5 ee 3c d5 10 e6 b3 3f
       0.08356623977009028 0.07772927480703602
000510 25 01 77 e4 8a 05 b4 3f 2b c8 89 ff d8 69 b4 3f
       0.07820957257991219 0.07974010695196003
000520 ff 34 4a 5e 2d 4b b6 3f 87 c1 52 a8 23 e9 b6 3f
       0.08708461334227378 0.08949492320494389
000530 c7 c0 2e cb 5f 7c b7 3f 06 41 f7 1a f4 8e b9 3f
       0.09174154959214596 0.09983754785867313
000540 03 25 f6 a3 e8 1a b8 3f c0 65 c9 6a 06 64 b6 3f
       0.094160594968475 0.0874637613973368
000550 db 75 52 f6 27 3b b5 3f c4 4c fb 80 e6 4c b3 3f
       0.08293390048716935 0.07539215706792662
000560 6f d6 39 95 f6 9e b3 3f 7e fa fb 37 e7 2b b4 3f
       0.07664433615885867 0.07879490963748911
000570 db 9b 5e 2f 43 7f b6 3f 9f 0e f0 b3 da 84 b7 3f
       0.08787937075122391 0.09187094586382692
000580 c0 4d 7b 51 72 b8 b8 3f 1d 6d 04 36 83 bd bb 3f
       0.0965644310884306 0.10836048191815846
000590 33 44 c0 d1 2a 9f b9 3f 66 43 c0 69 d1 a0 b6 3f
       0.10008494969248787 0.08839138824283807
0005a0 a8 c3 d6 06 04 65 b4 3f 79 be 54 d6 5b 1d b3 3f
       0.07966637770620244 0.07466672880831905
0005b0 e3 07 7b 2d d6 74 b3 3f 3f 36 95 65 70 36 b4 3f
       0.07600153551450677 0.07895567398119228
0005c0 e8 ac 79 22 a2 d9 b5 3f 41 0f 1b 4b 0a d5 b7 3f
       0.08535207120592114 0.09309448560366908
0005d0 8a 28 b8 39 13 51 ba 3f f7 a1 89 3b 36 6a be 3f
       0.10279960784115097 0.11880816415362704
0005e0 00 7f c4 3b 58 92 bb 3f bc ba 41 8d 1b 65 b7 3f
       0.10770179232758537 0.09138652990962276
0005f0 c5 6e 0d b4 51 99 b4 3f 30 b4 9a 8e 2e 2e b3 3f
       0.08046446462452213 0.0749234293131884
000600 48 03 f0 f8 9c 81 b3 3f fc 35 f0 5d 6b 6d b4 3f
       0.07619649007393747 0.07979460757652385
000610 d2 73 ad ee f0 16 b6 3f 96 47 f9 5c cc 82 b8 3f
       0.08628755404556834 0.0957458235727969
000620 0c ed fa db c9 3b bc 3f df 85 ea bc cc a0 c0 3f
       0.11028730030641415 0.1299072191659851
000630 62 a4 9c 24 9e e7 bd 3f a7 ce 0f 6d 4f 43 b8 3f
       0.11681545633168036 0.09477707302704151
000640 5b ee b3 83 1b f4 b4 3f 3c 73 a4 2e a2 69 b3 3f
       0.08184978452111961 0.07583058966379225
000650 8d 6e fc 89 c4 b3 b3 3f 77 aa 62 73 4c bf b4 3f
       0.07696178787994708 0.08104398552920054
000660 b1 38 79 2f 21 5a b6 3f 01 f9 e2 9e 19 24 b9 3f
       0.0873127690221931 0.09820709351604152
000670 cd 64 e4 2e 1b 73 be 3f 61 f3 92 2b 3c 26 c3 3f
       0.11894388098552895 0.14960434081686017
000680 cd 5a c4 ee 6f 82 c1 3f 79 5d 4b 52 50 f9 b9 3f
       0.13679312857194362 0.1014604760088015
000690 9f 76 50 9a dc 84 b5 3f 80 1f d5 0e 20 27 b4 3f
       0.08405855910720071 0.0787220035755336
0006a0 65 da e9 57 b2 eb b3 3f 9a d6 77 3d 9f 7c b5 3f
       0.07781519552541168 0.08393283129393084
0006b0 65 74 b7 93 d5 5f b6 3f 62 cf b0 28 f7 ee b9 3f
       0.08739981514323032 0.1013025736181681
0006c0 d4 75 2a a0 27 90 c1 3f 01 c5 57 f4 11 03 b9 3f
       0.13721175499533322 0.09770309653665167
0006d0 5e 5a 8e a4 f8 1f b9 3f 43 b7 b9 3b 68 4d b9 3f
       0.09814409272653665 0.09883738954678471
0006e0 80 f4 45 75 d4 53 b9 3f 05 eb f6 ae 1d 47 b9 3f
       0.09893539298168896 0.09874139329523864
0006f0 f6 9d 88 7e 35 45 b9 3f 68 3e 8f 8d 9f 36 b9 3f
       0.09871229495239917 0.0984897347072945
000700 ea 31 55 fc 48 4f b9 3f 75 bd bc c8 cb 51 b9 3f
       0.09886604462116791 0.09890435839473873
000710 42 17 45 76 aa 54 b9 3f 74 2f 60 31 e0 47 b9 3f
       0.09894814860771553 0.0987529869600488
000720 aa 65 08 88 35 39 b6 3f f9 02 7c 85 54 36 b6 3f
       0.08681044169534027 0.08676651247879964
000730 3a 66 79 62 64 a4 b8 3f 9d d3 a9 cb 1f 82 b8 3f
       0.09625842479854266 0.0957355377411901
000740 7a 33 67 ec ee be b7 3f ed 81 59 ed 54 09 b8 3f
       0.09275716086922428 0.0938923911539928
000750 33 3e 0e f3 00 4c b7 3f b2 d5 c7 ac 59 8c b7 3f
       0.09100347455955031 0.09198532551075436
000760 2e 65 68 07 b9 84 b7 3f 11 1c b1 c5 e2 91 b5 3f
       0.09186893874029486 0.08425729109249881
000770 f4 0e 97 95 a3 6d b6 3f ab 6d 14 c2 cd 6f b6 3f
       0.08761045839406362 0.08764348972584084
000780 b8 59 0d 9d 64 d1 b8 3f e5 54 da 48 1c 9a b8 3f
       0.09694508394509327 0.0961015394080565
000790 f8 4d e2 8f 4c 6f b7 3f 04 c1 03 03 7b ec b7 3f
       0.09154203903954528 0.09345215629196352
0007a0 7b ba 89 8c 57 ee b6 3f 46 92 ba f6 0d 72 b7 3f
       0.08957431012252386 0.0915840842595311
0007b0 4e d1 a8 be 2a 50 b7 3f c8 ce c9 d4 b7 7c b5 3f
       0.09106700091144157 0.08393429703738342
0007c0 12 a6 87 87 d3 c6 b6 3f 2b 82 c1 ea 0e f2 b6 3f
       0.08897134836993129 0.0896310160765174
0007d0 9e 96 6a 41 69 50 b7 3f 3d 81 12 2b 22 03 b8 3f
       0.09107072684363479 0.09379781295365759
0007e0 f1 55 72 a5 4b 60 b7 3f 8b d0 75 82 44 ef b7 3f
       0.09131310261940208 0.09349468407691768
0007f0 3c bc 0f 7b f0 00 b7 3f 49 e1 ad e2 6c 02 b7 3f
       0.08985808376722643 0.08988075765762917

count f8 []
000000 00 00 04 80 93 dc 14 42
       22400000001.0

running_mean f8 [1]
000000 56 c9 7c dc fb 33 56 40
       88.81224739252261

running_var f8 [1]
000000 2d fa 8a 21 c1 53 7c 40
       453.23465112960804

count f8 []
000000 00 00 10 80 93 dc f4 41
       5600000001.0

a2c_network.sigma f4 [15]
000000 f1 8d 6f bf 20 b0 52 bf 3c ff 6c bf dc c5 e4 be
       -0.9357596 -0.82299995 -0.92576957 -0.44682205
000010 a1 02 ff be d3 2c 34 bf 2f f5 05 bf ec 04 fe be
       -0.49806693 -0.70380896 -0.52327245 -0.4961313
000020 72 1f 19 bf b6 ca 3d bf b4 f1 07 bf f5 e4 ef be
       -0.59813607 -0.7413744 -0.53103185 -0.46854368
000030 ea 4f 2b bf 9e 5b 45 bf bb d2 e6 be
       -0.66918814 -0.7709292 -0.4508265

a2c_network.actor_mlp.0.weight f4 [128, 361]
000000 9a 94 4d 3f e3 e2 2d bf de b1 52 3e 83 a3 d2 be
       0.80304873 -0.67924327 0.20575663 -0.41140375
000010 9a 94 10 bf 8d 2e 1c bd 0e e5 6c bd 82 a1 4c be
       -0.5647675 -0.03813033 -0.05783563 -0.19983485
000020 ff b7 53 bf 10 6a 78 be c2 1f 3d bf de ae 23 be
       -0.8270263 -0.2425921 -0.73876584 -0.15984675
000030 5d 7b a8 be 2f 95 f1 be fe 39 88 bf 5c 7f 00 40
       -0.3290662 -0.4718413 -1.0642698 2.0077734
000040 89 05 8c 3e 11 c3 49 bf 2a 9d 0f 40 b5 4a 96 3e
       0.27347973 -0.7881327 2.2439675 0.29353872
000050 4d 5c c5 bf 68 7e 82 3c 10 b8 48 bf ca a4 a7 3f
       -1.5418793 0.015929416 -0.7840586 1.3097165
000060 47 01 41 bf 8e dd 8d 3f 38 d5 c0 3f 06 df 81 3f
       -0.75392574 1.1083238 1.5065069 1.0146186
000070 10 02 17 3e 87 0f 1a 3f de 72 81 be 71 70 f1 be
       0.1474688 0.6017994 -0.2528295 -0.47156098
000080 a0 41 c7 be 3d 22 03 be 92 1e 97 bf a8 2c 1b 3f
       -0.38917255 -0.1280603 -1.1806204 0.60615015
000090 61 ae a7 bf 91 02 e2 be da 3f ee bc 11 fb d2 be
       -1.3100091 -0.44142583 -0.029083181 -0.41207173
0000a0 d1 ee 68 3d b6 47 61 bf 7b aa ab 3f b9 6c be be
       0.056868378 -0.8800005 1.3411402 -0.37192324
0000b0 2e 65 f6 3e c6 f3 48 bf 6e a6 94 3d 2e 90 34 bf
       0.4812407 -0.7849697 0.072583064 -0.705325
0000c0 5a 18 bd 3d f2 fa 2a 3e 67 d4 ae be 60 19 e2 bf
       0.0923316 0.1669729 -0.34146425 -1.7663994
0000d0 a4 9c 27 bf 1e 54 22 bf 00 d9 7a 3e 4c 09 2c bf
       -0.6547339 -0.634096 0.24496841 -0.67201686
0000e0 b4 45 29 bf f0 9e 08 bf 45 73 1a 3f e4 0c 44 bf
       -0.66121984 -0.5336752 0.6033214 -0.7658217
0000f0 d6 e8 06 bf da 41 20 be 75 a2 cc bf c5 2b 73 bf
       -0.5269903 -0.1565012 -1.5987078 -0.9498866
000100 93 61 a5 3e e1 e2 c5 be 9e b5 3a bf 78 6d ce bf
       0.32301006 -0.38649657 -0.72933376 -1.6127157
000110 bd 6b c1 be 5c 5f 0a bf ff 3f 01 c0 dd 61 28 bf
       -0.3777751 -0.54051757 -2.019531 -0.6577433
000120 11 7e eb 3c 21 6b 03 3f 56 ea 1d 3e 68 55 05 be
       0.028746637 0.5133534 0.15421423 -0.13020861
000130 d3 d1 cd bb ee f2 32 3f 2a 54 b7 bb 67 1c 93 be
       -0.0062811165 0.6990193 -0.00559475 -0.28732607
000140 36 de 0f 3f 9c c9 37 be c4 00 16 be 4b 05 b7 be
       0.5619844 -0.17948002 -0.1464873 -0.35746226
000150 14 7c 8e bb 08 77 74 3e 19 ed 8e 3d d4 56 32 bf
       -0.0043482874 0.23873532 0.069788165 -0.6966374
000160 c2 0c 36 bf 62 89 8a be b9 6b 19 bf 7b cc 21 bf
       -0.71113217 -0.2705794 -0.59929997 -0.6320264
000170 e5 fd bc 3d 9d 1d b2 be 88 a8 48 be 3c 47 09 be
       0.09228114 -0.34788218 -0.1959554 -0.1340608
000180 ad 1a c1 3e 34 42 e6 bc fd 2b 88 3e 7a 84 4b 3f
       0.37715665 -0.02810774 0.2659606 0.7949902
000190 7d af 7a bf 86 8e 3d be cd 96 38 bf 63 54 18 3f
       -0.97924024 -0.185114 -0.72105104 0.59503764
0001a0 cb 20 1f be 52 f8 55 3e de 0a 01 3f 6d f3 d9 3d
       -0.15539853 0.20895508 0.50407207 0.10642133
0001b0 b4 19 0b 3c bb d3 d8 be 77 7e 57 3e 83 aa f0 be
       0.008490015 -0.42349038 0.21044336 -0.4700509
0001c0 e5 b8 47 3f 7a 85 95 be 9a f3 e0 3d 1f b8 d9 bd
       0.780165 -0.29203397 0.10983963 -0.106308214
0001d0 5c 68 bc be 05 ef 45 3e b4 c9 fa be 5a 32 a8 bf
       -0.3679837 0.1932946 -0.48982012 -1.3140366
0001e0 0b 8b c2 be d0 7a 89 bd af 01 74 3f e9 36 22 bf
       -0.37996706 -0.06712878 0.9531507 -0.63365036
0001f0 1e e1 7d be 1f ce b3 be ac 44 2e bf a5 73 ea 3e
       -0.24792907 -0.35118195 -0.68073535 0.45791355
000200 15 2a 45 3f 25 39 9d 3d cd a4 8f be 68 56 3f 3f
       0.7701734 0.07676915 -0.2805542 0.7474122
000210 6e 96 d0 3e 1f fe ff bb 6c e1 ca 3e 12 af ab be
       0.4073977 -0.007812276 0.39625108 -0.33532006
000220 16 b4 bc 3a 70 5e af be cb 93 f8 be e7 d6 9b be
       0.0014396932 -0.34251738 -0.48550257 -0.30437395
000230 97 e4 8e 3d 46 27 14 3f e6 c9 a3 3e 6b a2 f1 3b
       0.06977194 0.57872427 0.31989974 0.007374098
000240 68 12 3d bf c2 48 17 c0 cc bb 87 bb 49 fb 8b be
       -0.7385621 -2.3638158 -0.00414226 -0.27340153
000250 32 6e ff be 50 43 e5 3d 34 7b 00 3f e2 a1 7f 3e
       -0.4988876 0.111944795 0.50187993 0.24964097
000260 9b 04 c6 3e 0f 78 c5 3e 28 32 08 3e 67 73 cf 3d
       0.3867539 0.3856816 0.13300383 0.10129433
000270 fb a7 8a be 76 8f 52 3d 48 26 27 3e 1c dd 16 be
       -0.27081284 0.051406346 0.16323197 -0.14732784
000280 70 59 8c bd 9f e0 16 3f 31 d0 2b bf 36 a6 10 3e
       -0.06852996 0.58936495 -0.6711455 0.14125904
000290 71 30 49 bd 8e 77 43 3e 15 bf 3b bd 54 39 41 3e
       -0.049118463 0.19088575 -0.045836527 0.18869525
0002a0 80 ee 3e be 98 15 df be 6a ca ba 3e 08 81 9b 3f
       -0.18645668 -0.43571162 0.36482555 1.2148752
0002b0 49 45 c0 3e 57 08 db be 1a 0e 60 3e 53 f9 39 3f
       0.3755286 -0.427798 0.2188038 0.72646064
0002c0 b5 0c 82 bf de cf 8f 3e d1 78 22 be 24 2f 77 be
       -1.0160128 0.28088278 -0.158664 -0.24139076
0002d0 28 7e e5 3d d0 f1 9d 3e 2e ef 71 3e 76 ef ec be
       0.11205703 0.3084855 0.23626396 -0.46276444
0002e0 a4 0e 45 be cb e3 6d be a6 c9 9e 3e 0f 59 76 bd
       -0.19243866 -0.23231427 0.3101322 -0.060143527
0002f0 89 3e dc 3e d5 e9 96 be ed 5c f1 3e 82 38 06 bf
       0.4301646 -0.29475275 0.4714121 -0.52429974
000300 4b bd 12 3f 86 6d 84 3e 16 15 fc 3e c2 60 4d bf
       0.5732009 0.2586481 0.49234837 -0.80225766
000310 ef ff c3 3c 73 60 39 3e f0 ed 3c 3f 01 dc f0 3e
       0.02392575 0.18103199 0.73800564 0.4704285
000320 8d 6e 8b 3e 0d 46 aa bd bc bb 72 3e 3f e8 1a bf
       0.2723278 -0.083141424 0.23704427 -0.6051063
000330 a3 50 db 3e bf fc b7 3e cd 50 cc 3e 8d f0 a4 3f
       0.42834958 0.35935017 0.39905396 1.288591
000340 bb 16 a5 3f 5d 17 06 3f 50 71 3f 3f 4a 31 24 bf
       1.2897562 0.523794 0.74782276 -0.6413771
000350 26 1c 60 be 30 2b d9 be 2f c9 5e be 77 8a 08 be
       -0.21885738 -0.42415762 -0.21756433 -0.1333407
000360 da 2b 86 3f 08 b5 1a bd 43 f7 af be 71 6f 57 bf
       1.0482132 -0.0377703 -0.34368333 -0.8415442
000370 f5 1c db bc 4b 8b 2d bf e7 f7 0f bf 79 c0 8b 3d
       -0.026747206 -0.6779067 -0.56237644 0.068238206
000380 a3 8b 86 3d 4b cc 3d bf 8c 0a 39 3e 5a 27 ad be
       0.06569602 -0.7413985 0.1807043 -0.33819085
000390 74 fe 1d 3d 76 3c 4c 3d a5 ec 25 3f 99 48 96 3f
       0.038572744 0.049862348 0.64814216 1.1740905
0003a0 3f 14 45 3e 8c 1d 23 bd c5 d3 4c bf 33 07 63 be
       0.19246005 -0.0398231 -0.80010635 -0.22170715
0003b0 15 f3 87 3d 16 23 8d be ae 3e 9f 3e 63 05 01 be
       0.06638161 -0.2756583 0.31102508 -0.12599711
0003c0 55 e2 6b bf e3 42 9a 3f 86 56 bc 39 f0 a0 9f 3e
       -0.9214223 1.2051662 0.0003592262 0.31177473
0003d0 64 49 df bd 75 1e 42 3f 4b e5 84 be 67 11 0d be
       -0.1090267 0.75827724 -0.25956187 -0.1377617
0003e0 8a 35 cf bd 80 c9 97 be c0 17 50 bf a5 06 af bd
       -0.10117634 -0.2964592 -0.8128624 -0.08546189
0003f0 87 2d a1 bd 49 d7 f6 be ce e1 53 3f 72 b1 d9 3d
       -0.07870012 -0.48211125 0.82766426 0.10629548

a2c_network.actor_mlp.0.bias f4 [128]
000000 e8 62 0c c0 21 78 56 c0 21 64 5a be 5a f1 2c c0
       -2.1935368 -3.351082 -0.21327259 -2.702231
000010 87 5b 42 c0 94 a9 a6 3e 09 9e 85 c0 f1 37 72 bf
       -3.0368364 0.32551253 -4.1755414 -0.9461661
000020 b9 c9 19 3f 84 bc 42 c0 80 92 fd bf 9c f6 ec bf
       0.6007343 -3.042756 -1.9810333 -1.8512759
000030 21 56 e4 bf 97 d5 10 c0 f7 8c 12 c0 ac d6 0d c0
       -1.7838784 -2.2630365 -2.2898538 -2.2162275
000040 92 c0 15 be df 6d 0b c0 e8 8a 69 c0 6e 0a 32 c0
       -0.14624241 -2.178581 -3.6491032 -2.7818866
000050 c2 52 9b bf 84 1b 16 c0 e9 2e 03 c0 61 60 3d bf
       -1.2134631 -2.3454294 -2.0497382 -0.7397519
000060 2f 57 03 c0 99 b8 4b 3e 4f 0b 9b bf 4e 24 cd bf
       -2.0521963 0.19894637 -1.2112826 -1.6026704
000070 62 19 d8 bf d7 95 17 3e 98 6a 28 c0 64 dd 29 c0
       -1.6882746 0.14803253 -2.631506 -2.6541376
000080 3b 9d 01 c0 eb a1 40 c0 04 12 cf bf 02 a0 22 c0
       -2.0252216 -3.0098827 -1.6177373 -2.541016
000090 28 d1 26 c0 4d 8e 6b 3d f7 f1 de bf 0e 72 08 c0
       -2.606516 0.057508755 -1.7417592 -2.1319613
0000a0 38 17 b9 bf 8e 72 24 c0 41 1b be bf 03 bc 41 bf
       -1.4460211 -2.5694919 -1.4852067 -0.7567751
0000b0 be 45 d4 bf fc 3f a3 bf cc cb 40 c0 ea eb 9e bf
       -1.6583784 -1.2753901 -3.0124388 -1.2415745
0000c0 09 8b 4e c0 3b 20 80 bf b3 f6 c5 bf d1 9c 42 c0
       -3.227236 -1.0009836 -1.5465912 -3.0408213
0000d0 9d 27 13 c0 cb f9 e3 3e 8b f4 b4 bf 2b 89 49 c0
       -2.2992928 0.44526514 -1.4137129 -3.148997
0000e0 89 a0 f8 bf eb ea 1e c0 8a 19 05 c0 74 1b a0 bf
       -1.9423991 -2.4830883 -2.0796838 -1.2508378
0000f0 75 de 46 c0 fd 7b 4a bf 80 85 27 c0 91 56 8a c0
       -3.1073277 -0.7909544 -2.6175232 -4.323067
000100 23 65 da bf de 0f 1d c0 81 f2 23 c0 ed 1f bd bf
       -1.7062114 -2.4540935 -2.5616763 -1.4775368
000110 61 9c 3a c0 55 4d 0a c0 77 4e df bf 2a 7a 88 c0
       -2.9157946 -2.16097 -1.744582 -4.2649126
000120 78 bb 0c c0 d7 fa 3c c0 4c ae 25 c0 26 17 39 c0
       -2.1989422 -2.95281 -2.5887632 -2.8920379
000130 26 9e 57 c0 2e 05 36 c0 b5 a1 dc bf 01 2c 3b bf
       -3.3690276 -2.8440661 -1.7236849 -0.7311402
000140 80 ce 90 bf b4 b2 7e bf 41 cb ea bf c5 a3 43 3f
       -1.1313019 -0.9949143 -1.8343278 0.7642177
000150 01 6d a6 bf 02 0b 09 c0 65 25 4f c0 e0 3a ef bf
       -1.3002015 -2.1412969 -3.2366574 -1.8689842
000160 d2 14 06 c0 c1 47 26 bf d0 57 27 c0 43 5a 0d c0
       -2.0950208 -0.6495324 -2.6147346 -2.2086341
000170 eb 83 e6 be 16 c3 6d be 85 24 03 c0 6f 06 69 c0
       -0.4502252 -0.2321895 -2.049104 -3.6410177
000180 34 1e 21 c0 84 9c 01 c0 dd 55 94 bf f1 0d 17 bf
       -2.5174685 -2.025178 -1.1588703 -0.5900565
000190 ad 8b 16 c0 c0 e9 d9 bf 21 1a 0c c0 49 6e 0d 3e
       -2.3522751 -1.702446 -2.1890948 0.13811602
0001a0 54 a0 8d bf d3 42 18 c0 77 fa 09 c0 ad fb 2f c0
       -1.1064553 -2.3790786 -2.1559122 -2.749736
0001b0 b8 ea 14 bf 4c 51 5e c0 a8 04 c1 bf 84 17 cd be
       -0.5817065 -3.473712 -1.5079546 -0.40057003
0001c0 a0 15 3e c0 2a db dc bf b7 f2 1a c0 a6 83 94 3e
       -2.97007 -1.7254384 -2.4210641 0.2900669
0001d0 3a c1 8d bf d1 26 41 c0 b0 d7 44 bf 18 a2 52 3f
       -1.1074593 -3.0179942 -0.76891613 0.82278585
0001e0 8a 65 e5 bf 88 5c 00 c0 cc 48 3d c0 bd 34 d6 bf
       -1.7921612 -2.0056477 -2.9575682 -1.6734844
0001f0 88 56 ac be c0 ad 24 c0 83 26 f0 bf 83 a6 38 c0
       -0.33659768 -2.5731049 -1.8761753 -2.885163

a2c_network.actor_mlp.2.weight f4 [128, 128]
000000 29 0b 61 be 50 2b 70 bd f4 2d 6c be 9d ac 5b 3c
       -0.21976914 -0.058635056 -0.23064405 0.013407853
000010 e5 7e 22 3e 1e c5 8d bf b6 c0 a4 3e f0 e6 93 be
       0.15868719 -1.107578 0.32178277 -0.2888713
000020 86 87 e2 be d8 90 78 bd fa ba 7e be af e8 75 be
       -0.4424402 -0.06068501 -0.24876013 -0.24014543
000030 cb 79 c9 bd 0a 84 86 be e3 ec 1c be d7 6e 02 be
       -0.09837683 -0.26272613 -0.1532474 -0.12737595
000040 16 6d c2 be 66 1b 4f be 36 80 87 3e aa da 9d 3d
       -0.3797385 -0.20225295 0.26465005 0.077077225
000050 61 15 f8 be 9e 39 90 be 73 10 c6 bc 18 9d 46 bf
       -0.4845381 -0.28168958 -0.024177765 -0.77583456
000060 5a f3 e4 bc d0 b3 1f be 1b 3c 31 be b5 ef 6d bb
       -0.02794807 -0.15595937 -0.17308085 -0.0036306207
000070 2f 61 e7 be 5a a0 d4 be 48 cb 75 3d 89 62 da be
       -0.45191333 -0.4152859 0.060008317 -0.426533
000080 07 37 6e be 2d df a4 bd a0 8f 4f bf 85 59 72 be
       -0.23263179 -0.0805038 -0.8107853 -0.23666961
000090 9e 6f 79 3d e8 44 04 bf d3 c7 66 3d 4a ac 07 bd
       0.060897462 -0.5166764 0.05634291 -0.033123292
0000a0 d3 f0 59 be 04 1c 86 bd 01 7c bc bd bf e3 47 be
       -0.21283273 -0.06548312 -0.09203339 -0.19520472
0000b0 73 01 51 3e f9 32 4a be a3 ef 44 3e f3 07 24 bf
       0.20410709 -0.19746007 0.19232039 -0.6407463
0000c0 28 95 09 3e c0 32 8a be ba b8 d8 be 4f 68 10 3e
       0.13435805 -0.26991844 -0.42328435 0.1410229
0000d0 2b bd 45 bd e9 06 3f bf 33 6f 1b bf 4e c8 71 3d
       -0.048276108 -0.7461992 -0.6071655 0.059028916
0000e0 dd fd 9e 3d f5 62 92 3d c7 4a 9d be 4e a2 f5 bc
       0.07763264 0.07147781 -0.30721113 -0.02998462
0000f0 b8 79 96 bd 33 77 89 bf f3 df 9c bd 3d d1 7c 3e
       -0.07347435 -1.0739502 -0.076599024 0.24689193
000100 dd 48 0f bf d3 aa 6e be 60 51 ec be aa c4 f0 be
       -0.55970556 -0.23307352 -0.46155834 -0.47025043
000110 54 f7 99 bd 54 5f af be 2e 54 e9 be 64 8e d8 3e
       -0.07517877 -0.34252417 -0.45572037 0.42296135
000120 d5 7d 15 3e e8 55 5c 3e 95 00 1e be d6 22 c5 3d
       0.14598782 0.21517146 -0.1542991 0.09625785
000130 e1 65 a9 be ab 38 00 bd 7e 92 4a bf 7d e2 42 bf
       -0.3308554 -0.031304043 -0.7912978 -0.76126844
000140 ff 85 cd 3c 12 8f 33 bf cf 1e 47 bd f4 01 3e bf
       0.025088308 -0.7014018 -0.048613366 -0.7422173
000150 3a 97 12 bf da 15 97 bb 27 8c 34 3e 42 cc 2c be
       -0.57262003 -0.004610759 0.17631589 -0.16874793
000160 96 0e c3 be 3a ff 31 bf 6a 11 49 be a4 99 1f 3c
       -0.38097066 -0.6953007 -0.19635549 0.009741221
000170 38 ce 9c be 02 33 78 be 51 24 a7 be 94 08 88 bc
       -0.30626082 -0.24238208 -0.32644895 -0.016605653
000180 5b dc 8b be 6f 41 ec 3d e1 08 f1 be d0 13 22 be
       -0.27316555 0.11535918 -0.47077087 -0.1582787
000190 55 71 61 3e d7 dc 51 be ee 7b c4 3c fc 85 6a bf
       0.22015889 -0.204944 0.023984876 -0.91610694
0001a0 a5 4a 46 bf 7e d8 6a be 02 51 b1 be 29 c3 01 be
       -0.7745765 -0.22934148 -0.34632117 -0.12672104
0001b0 ce c3 b6 be bc a0 8c 3c a8 ab 33 bf db 67 42 bf
       -0.35696262 0.017166488 -0.701838 -0.7593972
0001c0 8b f0 ef 3d 1a 20 6b bd 12 28 05 be a2 ac 07 bf
       0.11715802 -0.05740366 -0.13003567 -0.5299779
0001d0 08 25 38 be 6b 46 55 bd 09 25 30 bf 43 63 38 bf
       -0.17982876 -0.05206911 -0.6880651 -0.7202646
0001e0 d0 87 bc be ad d6 6c be a4 15 b5 be 5b 3a 8a be
       -0.36822367 -0.23128767 -0.35368073 -0.26997647
0001f0 93 a8 03 bd ba 72 bb 3d ab 15 d9 be 07 71 81 3d
       -0.032143187 0.09152742 -0.42399344 0.063203864
000200 5d f5 91 3e e1 2f 97 3f a5 93 ac bc 7b 2e 69 bf
       0.2850751 1.1811486 -0.021066496 -0.9108655
000210 17 61 f9 be 3b 25 bf be 80 ff 06 3f f8 52 10 be
       -0.48706886 -0.37333092 0.5273361 -0.1409415
000220 56 c9 4f bf b6 e8 9d 3e 67 82 41 bd 63 31 d0 be
       -0.8116659 0.30841607 -0.047243502 -0.4066268
000230 1c 59 0e bf cb c3 9d 3d b7 bd 26 3f 5b b0 e3 be
       -0.5560472 0.0770336 0.6513323 -0.44470486
000240 4c bf 06 bf 55 71 06 3d 0e 88 a5 be bd 7f 93 bd
       -0.52635646 0.032822926 -0.32330364 -0.072020985
000250 9a 56 b7 be 76 ca f3 be 2f a8 65 bd a8 30 af be
       -0.3580826 -0.47615403 -0.056068595 -0.3421681
000260 88 2a 06 bc 9e 67 dc be fc 67 02 bf 65 e9 21 bf
       -0.008188851 -0.43047804 -0.5093992 -0.63246757
000270 cb 99 5a 3d 04 ca 52 3e 52 92 1c 3f 53 9d 0e be
       0.053369325 0.20584875 0.6116077 -0.13927202
000280 4d 24 ae 3e f0 2b 4b 3e 7b 2c d6 3c db e8 d3 3d
       0.3401207 0.1984098 0.026144257 0.10347148
000290 14 c3 28 bf c3 d3 f1 be 9b 46 11 3f aa 56 b5 3e
       -0.65922666 -0.47231874 0.5674836 0.35417682
0002a0 0e 95 e7 be c2 87 29 bf 53 f2 0d bb eb 9f 06 bf
       -0.45230907 -0.66222775 -0.002165933 -0.52587765
0002b0 bd fc 43 bf 40 fa d8 3e 45 e8 9a be 80 e0 cb bf
       -0.76557523 0.42378426 -0.30255333 -1.5927887
0002c0 53 20 8f 3d ae e3 81 be 1d 9c 98 3e 0f ed fc 3d
       0.06988587 -0.25369018 0.29806605 0.12349903
0002d0 48 30 9b bd 23 39 71 be ab 8a a9 be 9e 2c 25 bf
       -0.07577568 -0.23556952 -0.33113608 -0.64521205
0002e0 ac d3 08 3f 22 01 4d bf c5 bc a8 3d 11 a2 fa 3e
       0.53447986 -0.80079854 0.0823913 0.48951772
0002f0 3c 96 60 bd fb f1 a7 be 34 82 a7 3e d1 db 3f be
       -0.054830775 -0.32801804 0.32716525 -0.18736197
000300 45 de 19 bf 30 13 11 bf 86 82 1d 3e f6 2a 41 3d
       -0.6010478 -0.566699 0.15381822 0.04716011
000310 74 b8 e4 be 42 60 dd 3a 7b da 8f 3e 88 4f 52 bd
       -0.44671977 0.0016889649 0.28096375 -0.05134538
000320 2a 28 dc 3d 3c d9 e0 3d fd 90 b0 be bb 32 eb be
       0.10749848 0.10978934 -0.34485617 -0.45937142
000330 51 df df bd ac 8c b8 bf 10 9c eb 3e 6c 97 2b be
       -0.10931266 -1.441793 0.46017504 -0.16756982
000340 3c 81 67 bf 1e 80 02 be 01 41 f9 be 9a 0c 26 bf
       -0.9043157 -0.12744185 -0.48682407 -0.6486298
000350 66 14 16 bf d7 15 d4 be 18 64 12 bf 51 ea ae 3e
       -0.58624876 -0.41422912 -0.5718398 0.34163144
000360 f9 8d 68 3f 68 c6 35 bf 19 8f d4 3d 0e 7d ac be
       0.90841633 -0.7100587 0.10378856 -0.3368916
000370 53 c4 2a be d4 49 15 3e 96 9e 04 bf ae 8e 49 bf
       -0.16676454 0.14578944 -0.5180448 -0.78733337
000380 be a3 1b 3e 66 4f ad 3e b3 de e9 bd 59 95 d1 be
       0.15199181 0.3384964 -0.1141943 -0.40934256
000390 08 3d c6 3e f4 9f 9f be 9f e4 1f 3e c5 72 da 3e
       0.38718438 -0.31176722 0.15614556 0.42665687
0003a0 52 9d 2b 3d ef 55 76 3e 11 cc 86 be ce b6 85 be
       0.04189808 0.24056219 -0.26327565 -0.2611603
0003b0 be d3 bb bf e5 09 93 be 82 52 5c bf 56 e2 5e be
       -1.4673994 -0.28718486 -0.86063397 -0.21766028
0003c0 d4 4a 68 3e 82 c3 4b 3e ba 9c 97 3e 33 0a a5 be
       0.22684795 0.19898799 0.2961176 -0.32234344
0003d0 0f c5 73 bf bc 1c 4b 3e d2 ce 27 3e 9d da bc bf
       -0.9522256 0.1983518 0.1638749 -1.4754215
0003e0 24 94 00 3f dc 13 20 3e 3e fd d6 3e 3e 6f 05 bf
       0.50226045 0.15632576 0.41990083 -0.5212287
0003f0 75 70 90 3e 9b 18 36 bf 23 26 c8 be 16 03 9c be
       0.28210798 -0.71131295 -0.39091596 -0.30471104

a2c_network.actor_mlp.2.bias f4 [128]
000000 f3 80 00 c0 27 ed 2c bf 16 da 83 be c2 23 39 bf
       -2.0078704 -0.67549366 -0.25752324 -0.7232019
000010 5d 8a cb be c8 ce 5d bf 0f 8b cd be a3 ba 24 bf
       -0.39754 -0.8664365 -0.40145156 -0.64347285
000020 dc 94 56 bf 80 09 67 bf f9 a8 49 bf 01 10 77 bf
       -0.8382089 -0.9024887 -0.78773457 -0.96508795
000030 ad c8 4a bf a7 0c 2f bf ad a6 89 bf 9f c6 05 bf
       -0.79212457 -0.6837868 -1.075399 -0.52256197
000040 98 8b 02 bf 76 af dc be 8c f0 c3 be fa af 23 c0
       -0.50994253 -0.43102616 -0.3826946 -2.5576158
000050 cd ed eb bd 57 9b 08 bf 93 3e a1 be 16 62 76 bf
       -0.11519966 -0.5336203 -0.31493053 -0.9624342
000060 9f 39 5d bf 7c 97 7b 3e 1d 4a de be 2a bf cb be
       -0.8641605 0.24569505 -0.4341592 -0.39794284
000070 3a 3f a1 be 19 01 f4 be 3a 71 30 be 7b 78 94 bf
       -0.3149355 -0.47657087 -0.17230693 -1.1599268
000080 c3 9a 85 bf f7 80 ac be 29 9c 72 bf 8f bc 01 bf
       -1.0437855 -0.33692142 -0.9476953 -0.5067834
000090 d3 61 16 bf c7 1b f8 be 89 7e e9 be 3d ba c1 be
       -0.5874302 -0.48458692 -0.4560435 -0.378374
0000a0 9a ba d2 be 44 86 1b bf 9e f4 a4 bf 4b 62 0c bf
       -0.4115799 -0.6075175 -1.2887151 -0.54837483
0000b0 d9 4a ed be 01 65 43 bf 77 61 22 bf e4 60 a5 bf
       -0.46346167 -0.76325995 -0.6342997 -1.2920194
0000c0 18 41 4b bf 40 94 6a bf 91 43 c3 bf 90 28 e9 be
       -0.793962 -0.9163246 -1.5254995 -0.4553876
0000d0 34 da ac bf f3 c7 e7 be 1d a3 40 be 51 59 00 bf
       -1.350409 -0.45269737 -0.18812223 -0.50136286
0000e0 c7 b0 d2 bd 00 97 a3 bf 13 e0 89 bf 1a e7 1d bf
       -0.10287624 -1.2780457 -1.0771507 -0.6168076
0000f0 9d e5 74 bf f3 b7 5d be 92 fa 66 bf 97 ef 3c bf
       -0.9566286 -0.21652202 -0.9022609 -0.73803085
000100 44 52 03 bf 23 ba 77 bf 98 f0 fe bd 70 9a 1c bf
       -0.512974 -0.967684 -0.12448233 -0.6117315
000110 6d e1 62 bf 35 ef 2e bf c8 76 05 bf 5b 5a 25 bf
       -0.8862522 -0.6833375 -0.5213437 -0.64590997
000120 32 3a 05 bf c8 3a 64 bf 4f b4 ad be 5c 88 48 be
       -0.52041924 -0.89152193 -0.33926627 -0.19583267
000130 03 80 67 bf 24 2a 41 bf d2 da d0 bd fd 75 d5 be
       -0.90429705 -0.75454926 -0.10197987 -0.4169158
000140 3e 07 fb be bb f3 e4 be 5a 74 85 be 8f 6b 67 bf
       -0.49028963 -0.44717202 -0.26065332 -0.90398496
000150 1c 88 1d bf 62 0d 81 3e 12 d3 06 bf da 3b a9 bf
       -0.6153581 0.25205523 -0.5266582 -1.322139
000160 2f 2a 91 bf e0 6e 03 bf 9d c3 98 be 7e 89 2c bf
       -1.1340998 -0.51341057 -0.2983674 -0.67397296
000170 f0 db 35 bf 66 7a 7c bf 90 77 53 bf 16 bb 05 bf
       -0.71038723 -0.98624265 -0.8260431 -0.52238595
000180 aa 0a 6b bf d3 0f 29 bf e8 c6 c6 be 5a 2f 39 bf
       -0.9181315 -0.6603977 -0.38823628 -0.7233788
000190 72 1a 85 bf cb d0 8e bf 4d d0 16 bf 27 9b c5 be
       -1.0398695 -1.1157469 -0.5891159 -0.38594934
0001a0 b9 6f 99 bf df b6 5f bf 88 cc 15 bf 2e 60 40 bd
       -1.198722 -0.87388414 -0.58515215 -0.046966724
0001b0 4b fd 6e bf 9c 6a 41 bf cb b8 f4 bf 21 73 ab be
       -0.93355244 -0.755533 -1.9118894 -0.33486274
0001c0 d7 7a 09 bf c0 5b 35 bf d0 d8 2b bf d4 ec 31 bf
       -0.53703064 -0.70843124 -0.67127705 -0.69501996
0001d0 76 ba f3 be 6f 3e 0d bf 13 65 24 bf 3e e3 07 bf
       -0.47603196 -0.5517339 -0.64216727 -0.5308112
0001e0 36 3d 35 bf a1 af eb be 70 63 19 bf 1a 2c 51 bf
       -0.70796525 -0.46032432 -0.59917355 -0.8170792
0001f0 42 d2 d0 be 6a 07 e2 bf a7 0b 2a bf b0 59 7e bf
       -0.40785414 -1.7658513 -0.6642403 -0.993556
