python/rlgpu/saved_nn/241001162243532647/last_Aliengoep=1750rew=[816.56].pth (torch, 523930 bytes, 18 tensors)

running_mean f8 [361]
000000 7b e9 90 ae 96 3f c4 bf e3 5c 37 36 e6 2e a7 3f
       -0.15819057010396506 0.04527968799419015
000010 2e 20 72 47 41 01 91 3f 8f 2d fd da 79 8e a2 bf
       0.01660634993143633 -0.03624325559811858
000020 91 fb 52 95 0d 0a cf bf 8b b9 4b 2e 66 85 d3 3f
       -0.2424942950364906 0.3050170375926419
000030 97 21 06 97 a6 9d d4 3f f0 96 01 18 f5 3c e0 3f
       0.32212223766739484 0.5074410885688092
000040 53 1f 5f f2 54 1e e1 3f 8a 40 31 39 2a 60 b6 3f
       0.5349526151485214 0.08740486046122178
000050 7e 37 df 2b e1 cd c0 3f 19 74 c6 14 8a 88 d7 bf
       0.1312829460352382 -0.36770870236233716
000060 f6 e0 ae 3d 39 fc c2 3f ab 1b 7b f9 90 7f b8 bf
       0.14832225334044552 -0.09569650736658157
000070 88 b5 21 56 81 6c d6 bf 7b 5e 2e ba e2 c0 b9 3f
       -0.35037263308807853 0.10059945149839138
000080 c1 03 8c 66 ab db c2 3f 4e 7c 32 cd 28 01 d4 bf
       0.14732878215002468 -0.3125707630042073
000090 5e 4e 5d 31 be b5 7b bf 6c f1 20 34 b4 9b c3 bf
       -0.006765120449773924 -0.15318920655580415
0000a0 ab 87 85 99 a1 10 d4 bf 93 8d 45 c1 e8 56 e0 3f
       -0.3135150908693684 0.5106090330922818
0000b0 b6 90 59 11 46 13 56 3f 6e 3c f2 e9 6e b5 c2 3f
       0.0013473686462015916 0.14616190360218034
0000c0 a0 bc c5 c9 19 24 dd 3f 6a 3b 52 72 32 24 c1 3f
       0.4553284140046774 0.13391714651194359
0000d0 c6 53 15 5b f1 b0 c7 3f 19 91 66 4c b5 6b e0 3f
       0.1850873656027529 0.5131479732704377
0000e0 67 ae e5 39 a8 2c a7 3f 67 be 7d a2 7c dd c0 3f
       0.04526258188965642 0.1317592423833844
0000f0 10 90 18 77 00 7d df 3f f1 a1 8d 6f df 5d c0 3f
       0.4920045054479951 0.12786477038322588
000100 ed 63 69 a4 6c b3 c0 3f 01 34 69 f6 12 49 d6 bf
       0.1304755976478015 -0.348210087428754
000110 e4 66 66 df 7b 99 d6 3f 7a 2b 18 41 0a 46 c6 bf
       0.35311791244894963 -0.17401245287359385
000120 1a 0b 0f 55 8c 70 d4 3f 5d 6b fa a9 3a 3a dc 3f
       0.3193693953182205 0.4410540256446234
000130 de ff a4 75 9b 48 d7 bf 27 e4 aa e4 33 f4 cc bf
       -0.3638065956947666 -0.22620247521788991
000140 5b f3 28 fd da 1a c4 bf c9 a9 8e 3d 5e d6 d2 bf
       -0.15706956254316648 -0.2943339921136184
000150 1f cd bf 7d c1 02 bc 3f c6 ab 63 c7 d6 c6 d7 bf
       0.10941705055283933 -0.37151116820922103
000160 7b 2e 55 ee fe 9a cf bf 3a 72 f3 50 ca fd d2 3f
       -0.24691759717312664 0.2967401304756866
000170 ff f2 9d 81 ff 8e d6 3f a2 1e 6e db 15 22 ef 3f
       0.3524779096403989 0.9729108129258359
000180 dc 64 54 ea 22 05 d4 3f 2a ee c7 ae 6a 76 e1 3f
       0.31281350024944543 0.5457051671687101
000190 6e a9 ab 54 55 ca 99 3f 07 35 d3 b5 67 e1 d7 3f
       0.025185902874832626 0.37313263660765056
0001a0 66 12 e6 01 b6 f1 ce bf ab 09 15 c3 54 64 a0 bf
       -0.24175143330298282 -0.03201546555876019
0001b0 c2 3d 5c 52 f3 dc c4 bf cb 91 ab a5 13 de e3 3f
       -0.16299287339687224 0.6208589778657879
0001c0 40 74 4e 3b 44 3e cd 3f 3b 9c ab 74 6b f5 d4 bf
       0.22846272369216258 -0.32747923272694707
0001d0 d9 1a dc 34 1f 6e e1 bf 80 cd 54 d1 0a 3c d6 3f
       -0.5446926147859258 0.34741468851571966
0001e0 37 2b 78 94 dd f5 d2 3f 5f 1c 4c a7 ee 78 d6 3f
       0.29625644206014407 0.3511311181795857
0001f0 f5 8f 85 87 f1 15 ef 3f ad 4a 99 07 d8 ff d3 3f
       0.971428646746516 0.3124904703337659
000200 c3 b2 6d 94 ea 72 e1 3f b3 16 06 ff 24 8f 99 3f
       0.5452778719896617 0.02496011549512529
000210 cd 42 18 30 ee de d7 3f cf 9e 3f 79 0a e5 ce bf
       0.37298159310107054 -0.241364773944261
000220 f6 39 db 7a 9a 79 a0 bf bc e3 84 e3 3f d7 c4 bf
       -0.03217776059829085 -0.16281889542895367
000230 1c 64 96 f2 39 d9 e3 3f 4a e4 c4 90 d9 37 cd 3f
       0.6202668893848826 0.2282669026260769
000240 06 b4 e5 5a 74 ef d4 bf 61 72 03 89 34 6c e1 bf
       -0.32711514355361293 -0.5444586444896907
000250 f9 a1 9f 46 0e 36 d6 3f b8 07 dd 13 8d cf cc 3f
       0.34704930207092805 0.22508395643131762
000260 57 97 d9 b8 0d a0 ce 3f 65 fd 70 6a 6e 71 ce 3f
       0.23925944829823706 0.23783664891559933
000270 94 d4 ca 87 e4 a6 cd 3f e4 23 c5 19 f9 ad cc 3f
       0.23165566091998768 0.22405923612885126
000280 b8 1b d4 c6 ee da cb 3f 46 dc cc c4 18 63 cb 3f
       0.21761879642892068 0.2139616928995755
000290 ca 3f a4 c2 e7 b1 cb 3f 59 f4 71 70 f0 6b cc 3f
       0.21636673931106848 0.22204404345021336
0002a0 76 1e 61 95 6e 64 cd 3f a6 c5 6e f2 52 48 ce 3f
       0.2296274403945408 0.2365821536782679
0002b0 96 77 36 c2 31 74 ce 3f dc 9c ff 08 cf e0 cd 3f
       0.23792097075505286 0.23342311801318416
0002c0 44 91 69 be 92 70 cd 3f 4e 55 02 80 c6 79 cb 3f
       0.22999796197394506 0.21465379000134494
0002d0 93 3f 75 fd 38 82 c8 3f 0e 0f 42 9d 0e 1d c8 3f
       0.19147407890204401 0.1883867519246611
0002e0 a8 80 a3 b9 97 b5 c7 3f bd d6 ce eb b6 f3 c9 3f
       0.18522926868809475 0.20275007738171338
0002f0 29 29 cc 87 e0 ea cb 3f be d2 29 0f ce 02 cd 3f
       0.21810537939774946 0.22664809933089275
000300 30 c2 9c 1f 93 bd cf 3f ce 0e 14 4e 65 11 cf 3f
       0.247972860751831 0.24271837532443502
000310 5c fd 45 b6 1f 0d ce 3f ab 82 fe c9 5f 1e cb 3f
       0.23477550888126586 0.21186444628712783
000320 cc c7 a1 be d0 48 c7 3f 02 a3 6e 5e 65 d4 c6 3f
       0.1819096499271481 0.1783568106741527
000330 b2 7c 84 73 14 30 c6 3f 88 86 35 b5 30 32 c9 3f
       0.17334228172783167 0.19684418533420378
000340 0c b2 2d 6e 92 28 cc 3f a4 78 75 90 d8 f0 cd 3f
       0.21998815898713564 0.2339125352254473
000350 10 37 da c9 9f 75 d0 3f 1f d2 bd 2f db 18 d0 3f
       0.2571792098250265 0.25151710188154824
000360 4e c8 38 30 27 b9 cd 3f c2 b9 3c 87 2b ba c9 3f
       0.23221292357044593 0.20099395850543372
000370 cb 45 2b d3 03 8b c6 3f cf 92 55 66 91 f0 c5 3f
       0.17611739932048773 0.1714040517500934
000380 b6 94 48 90 04 55 c5 3f c4 4e 42 bd 31 ca c7 3f
       0.16665703816503247 0.18585798016703425
000390 63 76 e9 2b 11 dc cb 3f 20 4c c1 8e e3 04 cf 3f
       0.21765341419352344 0.24233669729673668
0003a0 f2 c5 f6 38 3d fd d0 3f 85 6c b1 ba f8 9e d0 3f
       0.26545649111639513 0.25970285636658047
0003b0 c8 c7 fb 8c 19 4c ce 3f 10 b1 24 b0 ab 66 c9 3f
       0.23669738182030486 0.19844575978039147
0003c0 57 19 ea 92 0b 12 c6 3f 2f 7e 61 21 b1 46 c5 3f
       0.17242569612080658 0.16621984605716153
0003d0 4f 67 26 a2 52 e1 c4 3f cb 45 4e 95 90 72 c7 3f
       0.16312630574685236 0.1831837395698542
0003e0 a3 77 94 fe bd 6f cc 3f 7c 6e e9 88 06 13 d0 3f
       0.22216010027562758 0.2511612259893139
0003f0 4c c1 f1 08 bd 6d d1 3f f1 79 42 20 ba 15 d1 3f
       0.2723229014727806 0.26695111418112477
000400 04 49 c7 92 6a d7 ce 3f 4a ea 62 04 97 24 c9 3f
       0.24094898383061303 0.196429135457793
000410 2e 8c 24 5e 8c c6 c5 3f 2a d0 4c 19 b9 c5 c4 3f
       0.17012171360792777 0.16228402839044637
000420 ae 70 f7 f4 a0 b2 c4 3f b2 30 52 5e 73 4c c7 3f
       0.16170131646402325 0.18202058892746248
000430 14 21 35 6a 9e 25 cd 3f 08 26 c4 a6 e6 9e d0 3f
       0.22771053491511195 0.25969854627382505
000440 39 a0 ce 59 20 d6 d1 3f 10 97 95 26 28 d1 d1 3f
       0.2786942364714409 0.27839092033387747
000450 d5 7d 4f cd 76 03 cf 3f 06 40 8b e2 46 ab c7 3f
       0.24229321503570014 0.18491445600238893
000460 05 4b bc 8c de 85 c5 3f a3 fa 98 f1 f0 1e c3 3f
       0.16814786788798855 0.1493817500758797
000470 e9 c3 3e 39 5b c7 c4 3f b6 a9 a8 04 fd b3 c6 3f
       0.16233387274908687 0.17736780860407259
000480 9a 71 2a dd ab 7d ce 3f f1 50 0e 63 e2 92 d1 3f
       0.23821018504248742 0.2745901076643938
000490 5f b9 34 48 2a dc c9 3f c1 0a 52 36 29 8b ca 3f
       0.2020314076011784 0.20737185623518964
0004a0 eb 83 ef f8 ec 73 ca 3f 35 3c 55 88 12 32 ca 3f
       0.20666277079638404 0.20465308815843888
0004b0 39 13 ec 6f d6 fa c9 3f 98 33 9b ae 5b c2 c9 3f
       0.20296745743703484 0.20124383950897307
0004c0 40 9f d2 07 03 99 c9 3f d8 bf 13 6b 85 bf c9 3f
       0.19998205072374198 0.20115726211906693
0004d0 15 84 9c ff e3 f3 c9 3f 01 8a e7 fc fa 2b ca 3f
       0.20275545102143214 0.20446717594957423
0004e0 b9 db fd 25 78 71 ca 3f 8c 8b 88 6e 85 ab c9 3f
       0.20658780913410427 0.20054691216600096
0004f0 03 d8 e8 49 1e da c8 3f 61 00 9b a7 23 e0 c8 3f
       0.1941564427267509 0.1943401878725153
000500 05 d2 b4 d2 3d 66 c8 3f 1a d4 d2 16 95 6b c7 3f
       0.1906201628531933 0.18297065367156123
000510 f2 dc 96 4a 47 c9 c7 3f e1 d6 a0 27 d5 5d c7 3f
       0.1858300317960367 0.18255104479765463
000520 66 d4 36 5c f5 a3 c8 3f 36 a9 d7 87 4d 21 c9 3f
       0.19250361445088798 0.19632882244997923
000530 38 34 bf 93 d1 f9 c8 3f e3 f1 18 5f 9c 9a ca 3f
       0.19512386049464836 0.20784334796361667
000540 6a 74 5b 7f a2 55 c9 3f 67 4a 28 3f e4 e7 c8 3f
       0.19792586535087092 0.19457676967484192
000550 e3 a2 d4 8e 57 1d c8 3f a1 87 e2 ea ce c8 c6 3f
       0.18839544748450185 0.178003182115444
000560 bf f9 fa 9b bb 55 c7 3f 6b 73 28 ae ea c9 c6 3f
       0.18230385891179243 0.17803700927552354
000570 f4 82 60 d2 5e 76 c8 3f 8a 02 04 80 18 4a c9 3f
       0.19111237785639157 0.197573721416138
000580 82 75 0f f8 dc 9e c9 3f 45 32 ab ba d8 ca cb 3f
       0.2001606188995702 0.21712788691219678
000590 1a e8 d3 d5 10 36 ca 3f 20 31 38 e0 e9 63 c8 3f
       0.20477495613869295 0.19054912040918115
0005a0 a4 c1 48 3e 52 64 c7 3f 59 13 a9 c9 f0 8b c6 3f
       0.1827490619775861 0.17614564749433262
0005b0 df da db fc 6b 18 c7 3f 52 35 9c 6d d3 89 c6 3f
       0.1804327950155402 0.17608111240444174
0005c0 98 1d 70 49 54 92 c7 3f 31 7e c3 09 45 b9 c8 3f
       0.18415311418378333 0.19315398194065517
0005d0 cb 1c 56 ac a5 93 ca 3f f6 6e 16 85 61 1d cd 3f
       0.20763083376752997 0.22745913504046883
0005e0 7b 57 a8 fb a0 51 cb 3f d7 ed de 2f 02 cf c8 3f
       0.21342861450164805 0.1938173993820402
0005f0 48 38 94 38 01 6b c7 3f 5e 93 e8 3e f9 87 c6 3f
       0.18295302641530697 0.1760245854540256
000600 d5 9a b3 1a bb ee c6 3f 3f 35 dd 63 c5 79 c6 3f
       0.17916048816478872 0.17559115768600894
000610 d4 bc 56 be 42 79 c7 3f 0b 93 89 c8 4c 17 c9 3f
       0.18338808339965473 0.19602355758538467
000620 b5 fc 0c d1 f4 b2 cb 3f fe c4 bc b1 34 70 ce 3f
       0.2163988133197329 0.23779925039847422
000630 d8 1c 47 66 57 96 cc 3f 2e 15 7b ab 65 4b c9 3f
       0.22333805555374542 0.19761343834958595
000640 cc b1 b6 46 43 7b c7 3f 5a 83 56 a7 01 9f c6 3f
       0.1834491820603844 0.17672749205396593
000650 0d fc dc f3 6a c4 c6 3f ab f1 2d 98 2f 7e c6 3f
       0.1778691950548538 0.17572588854444623
000660 c2 f1 e9 b9 bf 6a c7 3f a6 0a ce 87 10 77 c9 3f
       0.18294521882843467 0.19894606238456908
000670 09 ac c4 0c a5 e8 cc 3f b5 20 06 4c a5 6c d0 3f
       0.22584975360345563 0.2566312067433601
000680 53 7c b6 ca 24 62 cf 3f 3a 9b 2c 69 2c 25 ca 3f
       0.2451826085861933 0.2042594445749389
000690 ff 12 17 7f 56 f0 c6 3f d4 07 24 6b bb d4 c6 3f
       0.1792095299298566 0.17836706859094298
0006a0 33 26 45 81 3d 9c c5 3f ff 37 3c 55 d0 92 c6 3f
       0.16883057415025035 0.17635540162922322
0006b0 0c 2e 2a 4c e8 d2 c6 3f 54 2a 43 5d 02 b9 c9 3f
       0.17831138342840835 0.20095853380037687
0006c0 bf 0e 5a 1e bd 59 cf 3f b6 b4 6d 5c 89 3a c4 3f
       0.24492610914250254 0.15803639424431076
0006d0 b1 54 f8 7b 1a ae c4 3f ef 04 d6 aa 02 c9 c4 3f
       0.1615632157633278 0.16238435117342173
0006e0 aa 71 57 fd e1 a4 c4 3f 00 3c b9 c3 18 8d c4 3f
       0.16128182287401432 0.1605559306794646
0006f0 8b 16 f4 88 81 7d c4 3f 0c ae a1 0e 30 5d c4 3f
       0.16008013903790572 0.15909386362487543
000700 9b 35 f6 93 0e 65 c4 3f df 86 10 a6 a2 69 c4 3f
       0.15933401322074023 0.15947373493786807
000710 b4 5a 73 40 53 7e c4 3f b8 fe be 37 87 ab c4 3f
       0.16010513922693337 0.16148462507225303
000720 f7 3b a8 cd 11 11 c3 3f 74 32 a2 7c 4c ed c2 3f
       0.14895842115262756 0.14786678395866526
000730 a9 ba b4 13 4c 52 c4 3f e9 3e 3d 46 cf 16 c4 3f
       0.1587615104885647 0.15694609574938248
000740 12 f2 88 8e 55 0b c3 3f 85 09 35 9b 69 f7 c2 3f
       0.14878339252199219 0.14817543104625144
000750 37 c3 5c a4 ee e7 c1 3f af 8a dd b9 7e 39 c2 3f
       0.13989050889497331 0.14237960887392861
000760 b0 6a a1 58 1c 6b c2 3f d2 62 78 0f 14 21 c2 3f
       0.14389375999129106 0.14163447146781621
000770 a7 6f cb 6f 01 b5 c3 3f 98 92 05 2e d9 6f c3 3f
       0.15396135290836563 0.1518508410182633
000780 7c 71 5b e3 6f c5 c4 3f d1 6b da 28 25 63 c4 3f
       0.16227530099321175 0.15927567000184564
000790 43 d9 40 9b 04 d3 c2 3f 51 d5 eb f3 2f aa c2 3f
       0.1470647581169918 0.14581870470252992
0007a0 f9 97 77 3e 5f 41 c1 3f 64 11 38 ab 29 11 c2 3f
       0.1348074965491717 0.14114876613906369
0007b0 ba 92 45 36 41 63 c2 3f 17 76 05 cf 24 70 c2 3f
       0.14365401411045814 0.14404735668624433
0007c0 42 d4 98 b0 cd 75 c4 3f 57 64 3b d0 c3 37 c4 3f
       0.15984507677936405 0.1579518095739185
0007d0 35 b6 7e 41 85 cc c3 3f 7a 9a 5c 55 67 05 c4 3f
       0.15467897127148125 0.1564149061971028
0007e0 20 d1 40 ab f4 dd c2 3f ac 26 00 cd 92 7e c2 3f
       0.14739855157825676 0.1444877148608631
0007f0 ee ad 39 3a 44 1c c1 3f ee 61 10 d6 aa 8c c1 3f
       0.13367512553246236 0.13710532619803878

running_var f8 [361]
000000 74 b0 a4 f8 1e 58 aa 3f 0d 59 4e 84 27 7b 0b 40
       0.05145355973431345 3.435133966103541
000010 a2 14 ba de 88 96 b9 3f 30 ed 89 63 5c ca 10 40
       0.09995322644870666 4.197618060391775
000020 85 bf b2 f8 cb bd d1 3f a5 5c 7a 5b 3b 22 cb 3f
       0.277209275121088 0.21198217360208563
000030 cf 12 41 de 38 f3 cb 3f b6 b4 3a a5 34 fe cf 3f
       0.21836005069976358 0.24994524066770446
000040 fe 0b b2 e1 fc d7 cf 3f 22 b2 52 59 7f 2a 93 3f
       0.24877892513549676 0.018716802431912545
000050 2d 84 4f 10 e3 56 6e 3f 5f 67 84 c2 19 86 6d 3f
       0.0037035403097296555 0.003603983223126869
000060 9a dd 5c ea 0c 3d 98 3f 06 e4 b8 c6 b4 f4 71 3f
       0.023670388988845305 0.004383760602245884
000070 4b 8e c3 17 f6 95 74 3f b7 04 c9 72 0d 5e 8a 3f
       0.005025826740368065 0.012874703469721955
000080 3f 0b 34 ea d6 e6 6a 3f 05 7e 68 35 c5 63 6d 3f
       0.0032839009815019134 0.00358761327085211
000090 33 bf 04 d3 82 fc 86 3f f8 cd 2b 14 bc 3a 6e 3f
       0.011223814072394233 0.0036901162542279896
0000a0 da d0 6a 0a 2b f9 6c 3f 44 b8 f1 c4 c0 84 16 40
       0.0035367813719294596 5.629641606572537
0000b0 b9 cf fd cf 2c 63 f5 3f a0 e8 5b c7 33 0d fb 3f
       1.3367126583734559 1.6907232081853536
0000c0 ce 62 2c 9b 66 64 19 40 f0 b5 9b 94 6e 50 fe 3f
       6.3480476613846815 1.8946367077836577
0000d0 17 3e 24 81 be 41 05 40 75 b1 a3 55 4c 25 0e 40
       2.657101639669928 3.7682120028095434
0000e0 f1 b3 b1 11 b2 32 e7 3f d2 bc c2 9e 8e 1b eb 3f
       0.7249384255970864 0.8471139050288008
0000f0 2a a1 16 44 83 48 09 40 ff c4 46 b8 ac fd e6 3f
       3.1604066199689855 0.7184661482953344
000100 e6 6d a3 c7 cf 5d e7 3f df b8 57 66 c0 f4 26 40
       0.7302016162097373 11.478030393799086
000110 ed 01 42 12 2c 0a 26 40 91 43 af 60 26 0f 22 40
       11.019867487485465 9.029589673418544
000120 0a b3 df 44 27 df 27 40 82 be 56 5f ad b5 26 40
       11.935846473986675 11.354838351572884
000130 43 49 51 e8 8e 56 22 40 24 dc e4 a5 f2 fd 22 40
       9.169059047625188 9.495991882502558
000140 11 b0 05 6e af 56 23 40 c7 1d 0e 0b be 5b 19 40
       9.669307172960574 6.33959214471492
000150 8a b9 28 dc 29 f4 20 40 33 e9 70 49 bc 20 22 40
       8.476881866427693 9.063936514885972
000160 c9 f1 6a 05 98 06 19 40 e1 7f 0f e2 b9 2d d6 3f
       6.256439289715169 0.3465409000036726
000170 c7 02 be 01 59 b5 da 3f 5a 6b 7f 41 4e 34 94 3f
       0.41731858415736806 0.019730780360855384
000180 da 71 5f 0a 44 af e2 3f ed 95 fa 8e 55 c4 db 3f
       0.5838947489351611 0.4338582893636545
000190 e0 a3 db 80 05 94 e3 3f b3 e2 40 bb ac 02 e2 3f
       0.6118190304524624 0.5628265054029583
0001a0 9c d7 5b b8 50 69 e2 3f 36 a7 2d f3 6e c2 e4 3f
       0.5753558731801038 0.6487345456673441
0001b0 ab 5d 7e b2 e7 2b e4 3f c4 f5 e1 bc d1 90 d6 3f
       0.6303595052913143 0.352589067893714
0001c0 7d 35 f4 2c 59 d4 e2 3f 46 ee a1 0b 95 3a e1 3f
       0.5884214284903205 0.5384011485288702
0001d0 8f af 06 46 80 3d d8 3f 58 f2 01 81 d4 43 e1 3f
       0.37875372732627793 0.5395300407104271
0001e0 7b 32 43 9a 91 24 d6 3f 62 b0 00 89 62 ba da 3f
       0.34598197998710817 0.4176260316769512
0001f0 0e 74 d0 87 ef a5 95 3f 06 ad da 9b f7 a7 e2 3f
       0.02114080683178448 0.5830038112666507
000200 33 fe c7 39 bf b8 db 3f 6b e2 54 e6 94 8b e3 3f
       0.4331510605115653 0.610788774362914
000210 42 3e eb b3 5a fa e1 3f 7c f7 56 cf 06 62 e2 3f
       0.5618108285943395 0.5744661378482614
000220 46 6f 56 14 82 b9 e4 3f 29 0f c9 84 81 23 e4 3f
       0.6476450345248643 0.6293342202629663
000230 39 5c 12 7e 8b 89 d6 3f 4c bb 54 95 70 cc e2 3f
       0.3521450740021837 0.5874560276623497
000240 ac ae 0d c4 f9 33 e1 3f a2 70 d6 c3 c0 2f d8 3f
       0.5375946835678937 0.3779146110989676
000250 f0 81 5f 68 10 3d e1 3f 70 f0 07 55 2b 59 be 3f
       0.5387041128670358 0.11854811502411322
000260 68 d2 f0 41 54 46 c0 3f b9 f1 6e 82 a8 28 c0 3f
       0.12714627475510842 0.12624079102341826
000270 9f db 21 20 ab 60 bf 3f d1 af 04 bb 9d 2e be 3f
       0.12256879362563076 0.1178988057696977
000280 3f 56 e2 58 ce 27 bd 3f 72 64 2b 92 3e 98 bc 3f
       0.11388864202521008 0.11169806545821517
000290 22 d7 c4 14 59 f4 bc 3f 78 d4 01 ca ef dc bd 3f
       0.11310345418027315 0.11665247613730567
0002a0 c5 cd 32 f9 d7 10 bf 3f 01 c8 e5 ed c9 10 c0 3f
       0.12135076364466275 0.12551235309689449
0002b0 d2 d3 9e 11 62 dd c0 3f 04 3b 6b 3b 18 8e c0 3f
       0.13175607548114826 0.12933638478576637
0002c0 65 32 fe c5 c1 d6 bf 3f 75 a8 a2 8d e7 64 bd 3f
       0.12437068065464414 0.11482093055625049
0002d0 16 37 58 5f 7c ea b9 3f 3b 0f b0 33 71 1f b9 3f
       0.10123421981571953 0.09813601982028512
0002e0 92 df c3 5d d1 25 b9 3f 8d 1b a3 da 3d 19 bc 3f
       0.09823330439746616 0.10976015651531963
0002f0 bb 6f b2 aa f2 a4 be 3f 52 e9 ad a6 36 39 c0 3f
       0.11970440547378207 0.12674601687087744
000300 28 e7 4b 97 a5 cd c1 3f e2 01 fd 9e e5 73 c1 3f
       0.13908834350132193 0.13634939444638322
000310 7c 5a 70 98 3c 6f c0 3f 83 a1 94 04 29 3f bd 3f
       0.12839467471413346 0.11424499856787489
000320 c5 fd 12 43 b1 ac b8 3f 24 85 ea 09 d7 a9 b7 3f
       0.09638507735780084 0.09243530265895977
000330 ae 01 b1 94 5f 93 b7 3f 9e bb 3d 06 9e 8e bb 3f
       0.09209248905336295 0.1076449170338791
000340 cd 29 c8 40 5a 67 bf 3f 52 0b b1 c7 3e 0b c1 3f
       0.12267078477467593 0.13315567732396488
000350 ec ed d8 1f 9b a2 c2 3f f6 ff d6 6e b2 40 c2 3f
       0.14558733992622253 0.1425993958673641
000360 aa ea b4 53 1c ae c0 3f c6 ad c5 c4 8c 1e bc 3f
       0.13031343543282975 0.10984115413673753
000370 85 1b e4 f8 bb f9 b7 3f 07 83 27 d7 1c b5 b6 3f
       0.09365439249459769 0.08870105984489039
000380 b7 4d 22 2e 62 b5 b6 3f 93 ba 84 18 ad 42 ba 3f
       0.08870519281690901 0.10257989739032274
000390 86 8e 9d 87 22 d7 bf 3f 62 6d d9 a0 59 d9 c1 3f
       0.12437644778179377 0.1394454989811989
0003a0 cc d7 70 47 56 5e c3 3f 1a 67 2a 4a 0e f9 c2 3f
       0.1513164376098629 0.1482255804192441
0003b0 85 63 27 8b c5 2f c1 3f d1 55 ea d9 63 0b bc 3f
       0.13427037520048316 0.10954879827689658
0003c0 47 61 02 63 a3 9b b7 3f 9d 3f 4c bd 0b 14 b6 3f
       0.0922186009141842 0.08624337550668178
0003d0 50 7d d6 d6 72 4d b6 3f 09 25 58 e4 e0 14 ba 3f
       0.0871192717081517 0.10188108038723355
0003e0 f0 66 84 fa 00 70 c0 3f 12 64 73 e8 f5 9e c2 3f
       0.12841808540615984 0.14547609186300342
0003f0 81 b2 d7 8b e5 fc c3 3f 9f 98 86 ef 57 99 c3 3f
       0.15615529373407713 0.1531171721991926
000400 6f c5 59 e9 41 ab c1 3f 32 ff bf 33 53 0f bc 3f
       0.13803886312556865 0.10960884107043681
000410 f0 42 6b da 87 76 b7 3f 29 2c 74 0f a1 b6 b5 3f
       0.09165238459105374 0.08481794955530177
000420 1c 80 52 c5 ea 34 b6 3f 98 5d 09 5e 99 1d ba 3f
       0.08674495046079794 0.1020141462880616
000430 ae 22 d7 dd 14 fd c0 3f 3b 34 5f cc 82 52 c3 3f
       0.13272343475388965 0.15095553378196933
000440 4c 09 8c a4 d6 c9 c4 3f 34 94 62 c5 f4 93 c4 3f
       0.16240962061426456 0.160765262965613
000450 de 9b 93 d4 70 44 c2 3f 7b 5e 14 0a 31 51 bb 3f
       0.14271364574162154 0.10670763488848849
000460 28 57 6d 0c 67 9a b7 3f 81 df ed e8 a8 9a b4 3f
       0.09219974568744915 0.08048492132900088
000470 b2 9c ed e2 db 93 b6 3f 52 20 7a c8 53 f5 b9 3f
       0.08819364824522571 0.10139964718303077
000480 a3 de 55 11 16 f8 c1 3f 52 f3 3c 06 6f 74 c4 3f
       0.14038349005180803 0.15980327419847612
000490 ee e3 4b 51 8b fe b7 3f 38 7f 68 86 77 eb b8 3f
       0.09372778639580279 0.09734293967676144
0004a0 b5 d7 1a 13 00 c9 b8 3f 4d 70 6d b7 15 73 b8 3f
       0.09681702104975794 0.09550605514726947
0004b0 f2 f5 3b c7 dc 25 b8 3f 80 80 68 db 03 db b7 3f
       0.09432773460499513 0.09318565470357676
0004c0 38 50 82 e6 b4 ad b7 3f 8a 23 41 36 1c d9 b7 3f
       0.09249430301343942 0.09315658878871438
0004d0 0f f3 1f 4d a9 1d b8 3f 77 0d e4 ae 8e 6b b8 3f
       0.09420259602479696 0.09539119500919023
0004e0 12 63 39 6e f4 c6 b8 3f 11 b3 71 c7 3e 13 b9 3f
       0.09678580943126416 0.09794990891687073
0004f0 19 26 d9 f7 e5 3c b8 3f 9b ef 28 ad fe b8 b7 3f
       0.09467923451406825 0.09266654708420534
000500 f0 2e 2a 62 d1 0c b7 3f 86 ad 28 9b f1 c2 b5 3f
       0.09003933569527667 0.0850058559232619
000510 0a f7 e4 c2 b5 e3 b5 3f 09 a8 ed b1 a4 c4 b5 3f
       0.08550582893527917 0.08503178924516432
000520 f1 3d 69 87 16 57 b7 3f e9 66 1f 43 35 05 b8 3f
       0.09117260747847646 0.09382946861969867
000530 d0 15 55 3d e8 63 b8 3f 64 75 5d 59 01 b1 ba 3f
       0.0952744626748292 0.10426338607563462
000540 1f 0b 29 13 4e 61 b9 3f 76 d1 1c f6 5d 2a b8 3f
       0.099141006162466 0.09439646967513746
000550 e6 8d fd 6d 1c 11 b7 3f e2 eb 11 81 c8 56 b5 3f
       0.09010484395326265 0.08335545683978254
000560 f8 1e 47 09 24 90 b5 3f f3 78 76 d5 37 68 b5 3f
       0.08423066355237185 0.08362149201863982
000570 dc 76 1c da 2b 72 b7 3f 8e 48 8b 0e c1 91 b8 3f
       0.09158586573581878 0.09597403149681069
000580 f2 8f d8 07 f0 af b9 3f 50 02 9f 1d 7c 8b bc 3f
       0.10034084502746035 0.11150336955234619
000590 d2 88 fe 6e c5 e4 ba 3f b1 b4 e4 68 43 40 b8 3f
       0.10505327186413929 0.09473058043359363
0005a0 a6 4e 17 b8 d3 95 b6 3f 00 f7 a0 79 48 5a b5 3f
       0.08822367901239633 0.08340886086895338
0005b0 c9 59 56 1c c5 89 b5 3f 03 0c 64 4c 2a 65 b5 3f
       0.0841334528143768 0.08357490887651413
0005c0 09 2b 67 f3 36 cc b6 3f d6 55 ca 65 c9 9f b8 3f
       0.08905356829124512 0.09618815169445524
0005d0 df 4b b1 0e 97 41 bb 3f 3a 24 7f 90 9d 79 be 3f
       0.1064695750113027 0.11904320504903945
0005e0 66 02 fa b5 9c 97 bc 3f 9e 7b 4f b4 59 21 b9 3f
       0.11168841784275116 0.09816513683425263
0005f0 8e c5 81 69 24 eb b6 3f c0 44 f7 36 7c 9e b5 3f
       0.08952548576214367 0.08444954244557135
000600 a8 d1 a2 56 9e a9 b5 3f 17 ca e5 57 0c 9c b5 3f
       0.08461942305695536 0.08441235681474556
000610 48 77 dd af 21 ff b6 3f 15 09 55 91 e8 6b b9 3f
       0.08983049911099983 0.09930280254505804
000620 86 2d 7e d2 4d f2 bc 3f 8a 4b a9 46 61 2c c0 3f
       0.11307226551996594 0.12635436964282248
000630 d3 20 f3 5b fd 60 be 3f b2 41 39 24 90 0a ba 3f
       0.11866744513384057 0.10172367939345042
000640 43 fb 9d bb 29 49 b7 3f 3f 5a 6a 47 fb fe b5 3f
       0.09096012907501198 0.08592195981541638
000650 83 7b 14 1d 2e d5 b5 3f 1d c0 3d 4d 59 ea b5 3f
       0.08528412065468953 0.08560712943813127
000660 bb 25 b4 f8 9c 3f b7 3f a8 6d 9a 3f 22 36 ba 3f
       0.09081440994136518 0.10238851597607967
000670 dd 1e e1 5b 58 aa be 3f f2 74 6c 5d 52 de c1 3f
       0.11978676074169976 0.13959722100927469
000680 94 d8 e7 62 98 f6 c0 3f af f6 d8 fd a2 b1 bb 3f
       0.1325254900872933 0.10817927071999621
000690 69 0f 58 92 01 7d b7 3f 18 15 25 e1 93 bc b6 3f
       0.09175119231082153 0.08881496664715305
0006a0 7e f5 4e 2a 61 7d b5 3f 2b c6 d0 50 4f 88 b6 3f
       0.0839443901340555 0.08801742289576768
0006b0 5b 99 2a dd d0 5a b7 3f ce 09 9d f2 8f 50 bb 3f
       0.09122949027605413 0.10669803307704415
0006c0 e5 7e 05 b3 dc f6 c0 3f 9d c1 86 6e fd 48 b7 3f
       0.1325336336258182 0.09095748852155912
0006d0 36 f6 c3 c0 fd 12 b8 3f 75 bd 37 70 e3 27 b8 3f
       0.09403978305996294 0.0943586491555289
0006e0 ae 69 f0 92 b8 ed b7 3f e7 03 a2 aa eb c5 b7 3f
       0.09347108447437932 0.09286377826539614
0006f0 a1 06 21 ab ac a8 b7 3f 4a a6 58 50 82 83 b7 3f
       0.09241751840547831 0.0918504186780861
000700 fd 95 26 0f 9a 86 b7 3f 72 f6 7d 04 f3 90 b7 3f
       0.09189761037722373 0.09205550059956538
000710 22 85 fc 27 02 b4 b7 3f f8 8d 00 b4 18 fe b7 3f
       0.0925904605506003 0.09372095484336984
000720 13 d2 f4 77 41 b9 b6 3f 36 cb be e7 ff 85 b6 3f
       0.08876427820798254 0.08798217208713485
000730 52 28 c7 ae ad cf b7 3f 30 70 71 a3 0c 6e b7 3f
       0.09301267163314833 0.09152297010717869
000740 a8 15 77 9d 0e 0f b6 3f a0 c7 90 f7 c9 d7 b5 3f
       0.08616725296368222 0.08532392782288278
000750 f3 a6 81 b2 4c dc b4 3f 1d 15 9d ee b2 70 b5 3f
       0.08148650510852544 0.08375089955832889
000760 f4 da 73 c3 2b c5 b5 3f 80 62 44 af 18 9e b5 3f
       0.08503983995238312 0.08444360999090783
000770 39 a4 b5 87 8b f4 b7 3f ff 5c 24 8f f2 95 b7 3f
       0.09357521117421265 0.09213176722220238
000780 ad d4 a0 53 7e af b8 3f ce f5 86 b6 af 0f b8 3f
       0.09642781774239735 0.0939893551466959
000790 76 31 68 b3 d4 f6 b5 3f 18 8c 9a 71 55 95 b5 3f
       0.08579759006551577 0.08430990241554104
0007a0 5b 1c 0a c3 79 46 b4 3f 33 5a 75 e5 b3 8b b5 3f
       0.07920037280756402 0.08416294433605102
0007b0 2c 1a fd b1 4d 16 b6 3f 36 eb a0 42 84 6b b6 3f
       0.08627782435824177 0.08757807375597512
0007c0 96 d0 86 0a 6e 4b b9 3f 64 7d 3a 9d e5 f5 b8 3f
       0.09880721814153257 0.09750208939157329
0007d0 2d 3c 3b 87 9b 04 b8 3f da 19 d5 97 79 e1 b7 3f
       0.09382030536220105 0.09328422505232173
0007e0 50 c6 91 c4 7d 3b b6 3f f8 3d 87 45 b9 86 b5 3f
       0.08684526490267186 0.0840869707819748
0007f0 f2 e8 9d 29 d0 51 b4 3f e4 65 d8 5f c8 21 b5 3f
       0.07937336936985043 0.08254673328374157

count f8 []
000000 00 00 10 80 93 dc f4 41
       5600000001.0

running_mean f8 [1]
000000 4c 4b d6 a8 63 36 55 40
       84.849832734367

running_var f8 [1]
000000 2d 98 8c 4c ee 8b 85 40
       689.4913569435063

count f8 []
000000 00 00 40 80 93 dc d4 41
       1400000001.0

a2c_network.sigma f4 [15]
000000 02 2d 57 bf 37 9a b5 be 4d f6 c4 bf 0d 19 42 3e
       -0.8405305 -0.3546922 -1.5387665 0.18954869
000010 f3 0c 9d 3d d4 4c 88 3d 46 10 3b 3e b2 19 58 3e
       0.076684855 0.06655279 0.18267927 0.21103552
000020 50 9a 1f bc a1 3e 2a 3e b4 ab ca 3d f7 cb cf 3d
       -0.009741381 0.16625454 0.09896031 0.10146325
000030 36 42 9a 3b ec 66 98 be 73 67 94 3d
       0.0047076 -0.29766023 0.07246294

a2c_network.actor_mlp.0.weight f4 [128, 361]
000000 63 25 0f 3f f7 c3 e9 be 36 7b 80 3e a8 0c a7 be
       0.5591642 -0.45657322 0.25094002 -0.32626843
000010 26 19 77 3f 09 2e 09 bf fa 6c 83 be fa 2d 2d be
       0.9652275 -0.5358587 -0.2566908 -0.1691207
000020 2a 94 df be 9d e4 f4 3c 10 58 09 bf d2 78 0d bf
       -0.43667728 0.029894168 -0.5365 -0.5526248
000030 07 2b 6a bc b0 54 00 3f d6 d0 15 bf a5 80 e6 3e
       -0.014292485 0.5012922 -0.58521783 0.45020023
000040 59 72 34 be be eb 12 bf 59 06 f2 be a8 db dc 3e
       -0.17621745 -0.57390964 -0.47270468 0.43136334
000050 b6 8f 97 bf cf 0a 16 3e df e6 23 bd e7 1f 24 3f
       -1.1840732 0.1465256 -0.040015098 0.6411118
000060 0b 31 30 3c 8d f6 00 3f 41 75 5b 3f af f4 a9 3e
       0.01075388 0.50376207 0.8572579 0.3319449
000070 f9 80 43 3e 9d a1 fd 3d a5 d8 83 3e ef d2 e6 3e
       0.19092168 0.12384341 0.25751224 0.45082805
000080 1d 71 ec bd 72 e4 c4 bd af 2f 60 be cf 45 78 3e
       -0.11545012 -0.09613885 -0.2189319 0.2424538
000090 d7 59 0e 3f 70 a7 56 be 09 c1 a2 bd 68 3f 04 bd
       0.55605835 -0.2096231 -0.07946975 -0.03228703
0000a0 34 f3 80 3e 9b 45 10 bf f7 f0 62 3f be 42 06 3f
       0.2518555 -0.5635621 0.88648933 0.5244559
0000b0 8d 53 a9 3e 88 35 46 3e 79 13 07 bf 06 d0 91 be
       0.33071557 0.19356358 -0.5276409 -0.28479022
0000c0 de 60 22 3f 26 38 6e 3e c5 75 a5 be f1 dc e7 bd
       0.6342906 0.23263606 -0.32316414 -0.11321438
0000d0 ef ca e1 3e bc 14 80 be 06 e9 e5 3e be 18 77 be
       0.4410014 -0.2501582 0.44904345 -0.24130532
0000e0 b2 ce f6 be b4 37 a0 be 9a 94 35 3e 2f dc 49 3c
       -0.4820457 -0.31292498 0.17732468 0.012320562
0000f0 b2 56 06 3d 40 2f 0a 3e 8d a4 5f be 8a e7 45 bf
       0.032797523 0.13494587 -0.21840115 -0.77306426
000100 44 b9 04 3d 78 2f 0f bf fb b1 b7 be 3b b3 3c 3d
       0.032403246 -0.55931807 -0.35877976 0.046069365
000110 9d 1f 90 be f5 8a 87 be 6a c7 f4 3a eb 98 77 bd
       -0.2814912 -0.26473203 0.0018675153 -0.06044857
000120 e0 85 b7 3d 13 d5 db 3d 39 f5 4f bd 09 61 1f be
       0.089610815 0.10734 -0.050770972 -0.1556436
000130 54 db c2 3d 8d 74 83 3e 96 13 24 3d 3e b1 a0 be
       0.0951449 0.2567486 0.04005774 -0.31385225
000140 1d 9c 69 bd 50 e6 f7 3d a7 d7 dd bd 64 32 1f be
       -0.057033647 0.121044755 -0.10832148 -0.15546566
000150 70 5a 56 3e 2e 9f 7d 3e 79 eb dd 3d 3c 02 10 3d
       0.20932937 0.24767753 0.108359285 0.03515838
000160 04 54 a8 bd 82 c7 12 be 62 4a 90 3e ff e8 b4 3d
       -0.0821915 -0.14333919 0.2818175 0.08833503
000170 d4 66 1a 3d 61 83 5a bd 50 7a 0b be a0 d6 83 3b
       0.03769572 -0.05334795 -0.13620877 0.004023388
000180 ab 30 7f 3d be 62 1d 3e 58 56 e8 3d 8c a1 08 3e
       0.062302273 0.15369698 0.11344594 0.13342875
000190 21 70 d9 bd 67 f1 12 3d 58 7e 19 be 7f cd 2f be
       -0.1061709 0.03587475 -0.14989603 -0.17168234
0001a0 f9 b0 25 be de b1 82 3e e9 a8 81 bd 4e 2a 78 3e
       -0.16180791 0.25526327 -0.06331045 0.24234888
0001b0 6e 6a 10 3e 2f 17 86 3d 54 b4 6d 3e 37 33 49 be
       0.141031 0.06547391 0.23213321 -0.19648443
0001c0 3d ee d2 be fe 36 8e bd 2d df 90 3e 55 4f 00 be
       -0.41197386 -0.06944083 0.2829527 -0.12530263
0001d0 c5 2d 6e bd 9a c8 d1 bd 0e 76 93 bd 9a dc 92 be
       -0.058149118 -0.1024334 -0.072002515 -0.2868393
0001e0 cc a6 e9 be 27 db 12 be bf 34 65 be ee 62 97 be
       -0.45635068 -0.14341412 -0.22383402 -0.29567665
0001f0 7c 0a 18 3d 89 be f1 be 66 46 b0 be 22 b0 7f 3e
       0.037119374 -0.4721568 -0.3442871 0.24969533
000200 00 75 00 3f bd f2 09 3e 29 23 47 be 05 58 8d 3d
       0.5017853 0.13471504 -0.19447006 0.06901554
000210 49 ac 0b bf 59 78 c0 be e2 48 95 bd f4 c4 81 be
       -0.5455976 -0.37591818 -0.07289292 -0.25345576
000220 16 a8 0b 3f d8 7c b8 be 5a d4 b7 be c9 43 b6 bd
       0.54553354 -0.36032748 -0.359042 -0.08899648
000230 83 8e 03 bb 32 74 f9 3e e1 b4 be be 84 bc ba be
       -0.0020073957 0.48721462 -0.37247375 -0.3647195
000240 ba 16 63 be 1d 56 80 bf ef e9 09 be 96 d9 a2 bc
       -0.22176638 -1.002628 -0.13468145 -0.019879144
000250 43 0e da bd b5 a4 4e 3e ed a5 42 3d c4 b0 fa 3d
       -0.106472515 0.20180018 0.04752152 0.122407466
000260 96 5c 04 bd 4c ed 5c bd 6a f8 fc bb cd 01 a0 3e
       -0.03231486 -0.05393724 -0.007720043 0.31251374
000270 97 51 a0 bd 2e 18 7c 3d 3a e1 33 3e f7 c5 2b 3e
       -0.07828062 0.061546497 0.17566386 0.16774736
000280 c2 d6 c3 bd 7a bb c0 3d c4 d8 6d be 2b 59 a6 be
       -0.09562446 0.09410758 -0.23227221 -0.32489905
000290 24 f4 f6 be 6c d3 88 3e e9 24 4a be 66 b2 16 3d
       -0.4823314 0.26723802 -0.19740643 0.036791228
0002a0 30 60 81 3d 3f eb 8b bd 9d e1 0a 3d fc 94 8c 3d
       0.063171744 -0.06831979 0.033906568 0.06864354
0002b0 f1 79 35 be 1f f3 98 be ac 6e 10 bf 77 1b b9 bd
       -0.17722298 -0.29872987 -0.5641887 -0.09038442
0002c0 2e 53 77 be 4f 44 d8 3c f5 0b 35 be 0b 43 d7 bd
       -0.24152824 0.02639976 -0.17680342 -0.10510834
0002d0 a1 56 a4 3e 34 ff b9 3d 41 86 96 bc d1 d7 66 3d
       0.32097343 0.09081879 -0.018374564 0.056358162
0002e0 b5 c8 d3 3d 63 bb 76 3d 49 dd a8 be 99 18 b0 bd
       0.10341016 0.0602373 -0.32981327 -0.08598442
0002f0 23 8e e5 3d f1 47 da be d4 8b 33 3e 54 ef e4 be
       0.11208751 -0.42633012 0.17533809 -0.44713843
000300 db 6a e2 bd c1 ab 7a 3e d6 fb 6f be ed 98 d9 bd
       -0.11055537 0.24479581 -0.23435912 -0.106248714
000310 e9 9e 20 3d cb 21 ac bd 87 9f 35 3d 46 e4 1f be
       0.03921405 -0.08404883 0.04434159 -0.15614423
000320 49 c7 e8 3e 3b 8e 89 bc c1 0b a0 3e ee 85 1f 3e
       0.45464543 -0.016791454 0.31258968 0.15578434
000330 70 05 a5 3e 08 83 9e 3d fd 86 93 b9 83 61 07 3f
       0.3223071 0.07739836 -0.000281386 0.52883166
000340 0f fc 3b 3e ac 48 aa be 75 37 15 3f 80 21 04 bf
       0.18357871 -0.3325857 0.58287746 -0.51613617
000350 80 c4 90 be c4 72 09 bf 6f f3 e2 be 14 dc c2 bc
       -0.28274918 -0.53690743 -0.4432635 -0.023786582
000360 9b 61 b6 3e ef 89 d6 bd 11 ff 32 3e 73 36 0e be
       0.35621342 -0.104755275 0.17480113 -0.13887958
000370 ba 5c 0c be 5a 13 aa be 05 c8 e5 be 8a 4a 7d 3d
       -0.13707247 -0.3321789 -0.44879165 0.061838664
000380 b4 a5 4e bd a9 3f dc bd 90 2c 21 3e 1c 6e e2 3d
       -0.050450996 -0.1075433 0.15739655 0.11056158
000390 1a a6 09 3d f4 b6 08 be bb 29 33 3d fe 43 1c 3d
       0.033605672 -0.13351041 0.04374097 0.03815078
0003a0 d4 c9 b2 bd 9f e2 08 bc 95 32 dd be b2 8f 9c be
       -0.08729902 -0.008354812 -0.43202654 -0.3057838
0003b0 2b fc 4a bd 15 dd dd 3d 47 ba a5 bd 7a 56 35 3e
       -0.049556892 0.10833184 -0.0809217 0.1770877
0003c0 92 5a 14 3d 0c 2c ce 3d d1 92 3b bc 77 5b e9 3d
       0.036219187 0.10066995 -0.011448578 0.11394399
0003d0 1d cf 02 be 25 35 b4 3e e1 d9 9a bc 14 ad 81 3e
       -0.1277432 0.35196796 -0.01890272 0.2532736
0003e0 c3 4b 56 3c f1 5f 6d bd a0 1e 93 be 50 3b f5 be
       0.013079586 -0.057952825 -0.28734303 -0.47896814
0003f0 fd 0e 03 be ec 06 83 be f9 4e 1f 3e c6 46 7a bd
       -0.12798686 -0.25591218 0.1555747 -0.06110265

a2c_network.actor_mlp.0.bias f4 [128]
000000 c2 35 2d bf 4d 69 39 bf fa 85 b9 be 54 cf 2e bf
       -0.6766015 -0.724263 -0.36235029 -0.6828511
000010 fb 4e 5f bf 7e a6 08 be 42 db b5 bf c1 d0 2a bf
       -0.8722989 -0.13344762 -1.4207537 -0.66724783
000020 e9 27 16 bd 30 c1 8b bf 27 2b 4e bf c9 08 4a bf
       -0.036659155 -1.0918331 -0.80534595 -0.78919655
000030 c6 fe 29 bf 6e d0 53 bf bc 6a 83 bf 7a 0f cd be
       -0.6640438 -0.82739913 -1.0266948 -0.4005087
000040 1a 54 b2 be 65 89 4c bf be c8 a3 bf 90 ee 3d bf
       -0.3482979 -0.7989715 -1.2795637 -0.7419214
000050 cf 01 ed be 78 10 81 be b9 da 02 bf 6c 15 de be
       -0.46290442 -0.25207877 -0.51114994 -0.4337572
000060 62 76 44 bf c8 95 39 be ac 42 93 be 68 2a 28 bf
       -0.7674314 -0.18123543 -0.28761804 -0.65689707
000070 e7 b9 35 bf be f5 0a 3e c0 3c 91 bf d3 0b 4c bf
       -0.7098679 0.13570306 -1.1346664 -0.7970554
000080 9d f7 60 bf 3a b6 5a bf 00 d8 13 bf c9 eb 5b bf
       -0.8787783 -0.85434306 -0.57751465 -0.85906655
000090 f2 3b 8c bf 07 37 1c be 42 a8 2d bf e2 9b f3 be
       -1.0955794 -0.15255366 -0.67834866 -0.47579867
0000a0 36 e2 3d bf 46 41 0b bf b7 ef 6a bf 24 82 f4 be
       -0.74173295 -0.54396474 -0.91772026 -0.4775554
0000b0 c1 fb 23 bf 89 75 d5 be 99 4f 92 bf 26 0d a8 be
       -0.6405602 -0.41691235 -1.1430541 -0.3282253
0000c0 c2 50 8e bf 30 00 20 bf 79 da 4e bf bf 13 97 bf
       -1.1118395 -0.62500286 -0.8080211 -1.1802901
0000d0 f0 5a 1a bf 06 1b a5 3d f0 07 b8 be 1f 8d 76 bf
       -0.6029501 0.08061795 -0.35943556 -0.96309084
0000e0 0f 4d 14 bf b7 c5 81 bf 93 ea 3f bf 25 b8 41 bf
       -0.5793008 -1.0138463 -0.74967307 -0.7567161
0000f0 ec de 7e bf f7 03 83 be e9 26 a1 bf 69 8c c7 bf
       -0.995589 -0.25588962 -1.259 -1.5589725
000100 11 c6 1b bf 20 79 84 bf e4 7a 68 bf b4 e1 36 bf
       -0.608491 -1.0349464 -0.90812516 -0.71438146
000110 37 ba 7c bf 75 33 50 bf e9 32 69 bf bc 97 b2 bf
       -0.9872164 -0.8132852 -0.9109331 -1.3952556
000120 32 f3 38 bf c3 46 6f bf 87 24 53 bf 42 c9 63 bf
       -0.72246087 -0.9346735 -0.8247761 -0.8897897
000130 63 97 97 bf e2 67 47 bf 08 7e 51 bf 8b e4 e7 be
       -1.1843075 -0.7789289 -0.81832933 -0.45291552
000140 52 ae 59 bf 86 bf 8d be 4c 61 20 bf f0 f7 10 3e
       -0.85031617 -0.27685183 -0.62648463 0.1415708
000150 96 0f de be 12 1e 50 bf 82 34 8c bf d8 ae 16 bf
       -0.43371266 -0.81295884 -1.0953524 -0.5886054
000160 04 07 5c bf 04 29 df be 91 63 95 bf f1 cb 71 bf
       -0.85948205 -0.4358598 -1.167101 -0.94451815
000170 60 8d 4e be 7f 44 17 be a7 0b 63 bf d4 ec 1f bf
       -0.20171118 -0.14772223 -0.88689655 -0.62470746
000180 66 8f 71 bf 84 53 31 bf 20 57 4a bf c2 7b de be
       -0.94359434 -0.6926806 -0.7903919 -0.43453795
000190 72 9c 7a bf 90 c9 3d bf 0e d5 7b bf 6d df 57 be
       -0.97894967 -0.74135685 -0.9837197 -0.21081324
0001a0 38 ca 17 bf 52 4e 2e bf 97 67 8d bf d8 81 20 bf
       -0.59292936 -0.6808826 -1.1047238 -0.62698126
0001b0 36 62 d4 be 0b d5 b8 bf 54 a9 22 bf 33 ba 12 bf
       -0.4148118 -1.4440016 -0.63539624 -0.5731537
0001c0 6d a0 81 bf ba 6a bc be 3b 14 72 bf 6c 23 ac 3c
       -1.0127083 -0.36800176 -0.9456212 0.021012984
0001d0 9b d6 fd be 9d 8a 93 bf 28 1f cb be 05 4b 10 3d
       -0.49577793 -1.1526676 -0.39672208 0.035227794
0001e0 8e 42 36 bf 60 a6 37 bf f4 01 2f bf 40 9b b5 be
       -0.71195304 -0.71738243 -0.68362355 -0.3547001
0001f0 5b 5b 1a be 91 75 33 bf c1 eb 20 bf 89 23 7c bf
       -0.15073912 -0.7010127 -0.6285973 -0.9849172

a2c_network.actor_mlp.2.weight f4 [128, 128]
000000 bd de 14 be 5b 3c 5d be 33 91 a4 bc 31 d6 80 be
       -0.14538093 -0.21605055 -0.020088768 -0.25163415
000010 72 b1 85 be f7 33 d3 be ce e2 40 3e 07 aa b5 3d
       -0.26111943 -0.41250584 0.18836519 0.08870321
000020 65 b1 00 bf 44 cb 14 3e 24 47 99 be 97 e1 83 be
       -0.5027068 0.14530665 -0.29937088 -0.2575805
000030 21 d4 05 3e 07 6a a0 be 8d a7 93 be 50 84 dc be
       0.13069202 -0.31330892 -0.2883877 -0.43069696
000040 08 ed 5a be e1 8d 13 be b4 33 b6 bc 6d c1 e5 bd
       -0.21379483 -0.14409591 -0.02224145 -0.11218534
000050 2b 0e 1f 3e d5 92 05 bf 3e e1 a3 be 6a 70 67 be
       0.15532748 -0.5217717 -0.32007784 -0.22601476
000060 e7 70 46 be 91 3e ec be ce 19 b7 be 82 a9 b1 be
       -0.19379006 -0.46141484 -0.35761875 -0.34699637
000070 fa b2 59 be 20 d3 6a be 55 16 ad 3d 6d f0 73 be
       -0.2125968 -0.229321 0.08451525 -0.23822184
000080 a8 f5 4d be 33 33 70 bd a9 7d 01 bf 62 fd 0c be
       -0.20113242 -0.058642577 -0.5058237 -0.13768533
000090 95 16 c1 3d e1 97 73 bf b8 99 1c be 12 35 61 bd
       0.09428135 -0.95153624 -0.15293014 -0.054982252
0000a0 2b d1 81 bd c6 a2 b2 be 07 ef 60 bd 24 e3 35 be
       -0.06338724 -0.3488981 -0.054915454 -0.17762429
0000b0 fb e2 bc be 00 d8 3a bd 81 30 aa 3d 16 97 da be
       -0.36891922 -0.04561615 0.08310033 -0.42693394
0000c0 bb b1 c7 bd e5 71 e7 be 65 4f b3 3c 38 e5 3c bd
       -0.09750696 -0.45204082 0.021888444 -0.046117038
0000d0 bf 13 73 be 67 85 ef be f8 47 59 be 8f 93 7c 3d
       -0.23738001 -0.46781465 -0.2121886 0.06166416
0000e0 12 24 6a be 14 97 13 be 5c 70 b3 be 89 70 2d be
       -0.22865322 -0.144131 -0.3504666 -0.1693746
0000f0 6c 6d 36 be b1 35 0c be ae 68 cd 3d 09 f6 1a be
       -0.17815179 -0.13692357 0.10029732 -0.15132917
000100 33 af 9f be a0 12 8c 3e 1b 9e 5c be c6 31 2b bf
       -0.31188354 0.2735796 -0.21544687 -0.66872823
000110 e8 07 e9 3c a9 39 6d be 08 07 b9 bd 69 05 9f 3e
       0.028446153 -0.23166527 -0.09034544 0.31058815
000120 a3 14 a2 3e 28 4d 8b 3e 86 8e 47 be b9 eb 74 39
       0.3165637 0.27207303 -0.19487962 0.00023357467
000130 0b 5a 84 bd af cf 30 be 58 74 65 be 4a d8 04 bf
       -0.06462487 -0.17266725 -0.22407663 -0.5189253
000140 14 9e 0f 3e 84 5c 06 bf 75 01 17 3d 75 b3 1e bf
       0.14025146 -0.5248492 0.036866624 -0.6199258
000150 e5 6b fa be cc 19 0a bf a1 05 bc 3d ce 73 2a be
       -0.48910442 -0.5394561 0.09180761 -0.16645738
000160 02 61 85 be 89 b3 d1 be b8 bd 61 3d 80 09 52 bd
       -0.26050574 -0.40957287 0.05511257 -0.05127859
000170 ef c2 95 be 0c f8 e0 be 58 6b a5 be 4f 92 93 be
       -0.29250285 -0.43939245 -0.3230846 -0.28822562
000180 ca 3c 5e be 81 63 3f bd b4 cc c1 3c 69 0c ab be
       -0.21702877 -0.046725754 0.02365718 -0.33407906
000190 01 1b 26 be dd 4a 2c bd 73 45 a3 3c db c9 a2 be
       -0.16221239 -0.042063583 0.019930577 -0.31794629
0001a0 b4 ad 0c bf aa ad f5 bd 26 ba a7 3d 2c 96 4f 3e
       -0.5495255 -0.119960144 0.08189802 0.2027213
0001b0 3c 9f b2 be db 30 45 bd 43 01 27 be cc ee 8b be
       -0.3488711 -0.048142295 -0.16309075 -0.27330625
0001c0 46 a9 6a 3d e8 80 06 be 47 d0 a3 bd 1a 7b c0 be
       0.057290338 -0.13135111 -0.0799871 -0.3759392
0001d0 81 2a c3 be ec 0e 4f be 3a 45 28 be c3 fe 84 be
       -0.38118365 -0.20220536 -0.16432658 -0.25975618
0001e0 b3 a6 62 bd 00 9a 08 bf cf 23 f5 bd b5 83 bb bb
       -0.055334758 -0.53359985 -0.119697206 -0.005722488
0001f0 bc 1d 8e be f5 8d 38 be f1 a9 25 be db b6 5c 3e
       -0.2775706 -0.18022902 -0.16178109 0.21554129
000200 86 7d 40 be d5 a2 27 bd 47 bd a6 be 39 33 27 be
       -0.18797883 -0.040926773 -0.32566282 -0.16328134
000210 d8 0b bd bc 69 f2 12 be 72 cd 19 bd 41 42 ee 3d
       -0.023076937 -0.14350285 -0.037549444 0.11633731
000220 91 86 6a be ae fb 6e be dc 2f b3 3a f6 fc 0e be
       -0.22902896 -0.23338196 0.0013670879 -0.13963684
000230 d4 b9 08 bf d6 8f 35 3e 79 b3 c6 3e 00 be c2 be
       -0.5340855 0.1773065 0.38808802 -0.38035583
000240 7f 2d 77 3d ee ca 3a bb 33 93 bc be 59 90 84 be
       0.060346123 -0.0028502303 -0.36831054 -0.2589138
000250 5e 5c 62 be 11 0f f7 3d 5f ef c5 bd 3c 49 2d bd
       -0.22105548 0.120634206 -0.09664797 -0.04230617
000260 13 6e 33 be b6 d5 78 3d 48 5c 2e 3c 61 fa 1a be
       -0.17522459 0.060750686 0.010642119 -0.15134574
000270 ee fe 0c be 41 1a 81 be d3 da 60 3e 5c ce 55 be
       -0.13769123 -0.25215343 0.21958475 -0.20879501
000280 f5 e9 6e 3d 31 be b5 be 74 97 3c be d7 83 70 3d
       0.058328588 -0.35496667 -0.1841715 0.058719482
000290 a5 05 d2 3e b7 f8 91 3e 09 7d 05 3d aa 8e 7f 3e
       0.4101993 0.28510067 0.032589946 0.24956766
0002a0 6c 60 99 bc f3 17 81 3d 62 d7 a0 3e 30 cb 4b bf
       -0.018722735 0.06303396 0.31414324 -0.79606915
0002b0 9a 57 4f be c6 f3 7e 3d 07 a9 53 3d 25 6d 36 3d
       -0.20248261 0.0622442 0.05167487 0.044537682
0002c0 55 dd c0 be 2a 0c ff be f8 df d1 3d ec b7 4c bd
       -0.37668863 -0.49813968 0.10247797 -0.04998009
0002d0 3f 6f 51 be a9 63 53 be a9 43 1e bf 16 6e a1 3d
       -0.20452593 -0.20643486 -0.6182199 0.07882325
0002e0 b9 9c 95 bd 34 b7 c7 be ad 7c 23 be 44 44 c2 be
       -0.07305283 -0.3900696 -0.15965529 -0.37942708
0002f0 e3 b2 9f bb 78 2f 95 bc fb 06 10 bd 59 1d 34 bf
       -0.00487362 -0.018211111 -0.035162907 -0.7035728
000300 a1 96 c5 be ab cc 53 be 33 56 05 be b1 ab 2a be
       -0.38591483 -0.20683543 -0.13021164 -0.16667058
000310 be 34 01 3f de be 10 3d 82 db 50 bc 10 b3 ae 3e
       0.50471103 0.035338275 -0.012747647 0.3412099
000320 f5 9e 29 be 57 e0 fa 3c 22 81 15 be b2 20 05 3e
       -0.16564544 0.030624552 -0.14600042 0.13000754
000330 34 6f ff be ac 95 3a bf ac 0d 74 bd 5a 8a 3b 3e
       -0.4988953 -0.7288463 -0.05958335 0.18314496
000340 54 d5 ab be 22 64 18 3d bb e1 6e 3e 82 66 97 be
       -0.33561194 0.03720487 0.23328297 -0.29570395
000350 35 32 49 be 30 a2 3e 3e 20 a0 f4 be 02 86 49 bd
       -0.19648059 0.18616557 -0.47778416 -0.049200065
000360 65 44 16 be ca 1e 8a be 0a 3a 5c bf 84 b3 d6 3e
       -0.14674528 -0.26976615 -0.8602606 0.41933835
000370 ec 27 d9 bc ec f4 9e bd 4c 7a b3 3d 35 1d f2 bc
       -0.026508294 -0.07761559 0.08763561 -0.029554943
000380 7c 75 87 be 83 e0 e4 bd c9 15 d6 bc eb c0 ba 3d
       -0.2645682 -0.11175635 -0.026133435 0.091188274
000390 6b 76 b5 3e d8 50 5f 3e d9 ab 86 3d a7 3b 34 be
       0.35441908 0.21808183 0.06575746 -0.1760088
0003a0 52 3f af 3e 81 aa 92 3d 9c 1f ad be 2b 65 14 3d
       0.34227997 0.07161427 -0.3381318 0.036229294
0003b0 85 b9 88 be c1 c5 74 bc 3f f0 2b 3d 0c d0 26 be
       -0.2670404 -0.014939726 0.041977163 -0.16290301
0003c0 93 73 76 3e 4b 31 55 bd fa 94 b2 3e 2e a0 52 be
       0.24067526 -0.052048963 0.34879285 -0.20568916
0003d0 63 5c a1 be 47 e9 87 3e dc a8 9a 3e a5 49 e7 bc
       -0.31515798 0.26545164 0.30206954 -0.028233359
0003e0 db 3d 9c 3e 7d c6 25 be f2 63 65 3e 99 ee 99 3e
       0.30515942 -0.16188999 0.22401407 0.30064848
0003f0 74 b5 03 3e 45 9f 02 3d 30 b7 d3 3d 44 89 2b 3e
       0.12862188 0.031890173 0.103376746 0.16751581

a2c_network.actor_mlp.2.bias f4 [128]
000000 04 e7 84 bf 4e 6a 94 be 25 dc 24 3e 9d 2f b5 be
       -1.0383 -0.28987354 0.16099603 -0.3538789
000010 a8 a7 c3 bd 89 76 af bd 83 dd aa be e9 57 d0 be
       -0.09553462 -0.08567531 -0.33372125 -0.4069207
000020 5d 35 e8 be a6 d8 c3 bd 7b 64 a7 bb a2 fd f7 be
       -0.45353213 -0.09562807 -0.0051084138 -0.48435694
000030 88 8e b6 be e6 ba 90 be 2c f1 6d be 5b 81 50 be
       -0.35655618 -0.28267592 -0.23236531 -0.20361845
000040 d5 71 d8 3c a2 3b 78 be a0 16 15 ba 1d 8f 92 bf
       0.026421467 -0.24241498 -0.00056872703 -1.1449925
000050 86 dc 9e be c1 dc c2 be 5d 0b 15 bd f8 17 ab be
       -0.3102762 -0.38059047 -0.03638779 -0.33416724
000060 d0 0f 9c be c5 e9 5d 3e 66 e0 0e be 32 b1 9f be
       -0.30480814 0.21671207 -0.13952789 -0.31189877
000070 c2 cf 8f 3e b3 7f 3c bd 8d ef 6e be dc 73 1b bf
       0.28088194 -0.04602022 -0.23333569 -0.6072366
000080 40 cf e5 bd c0 ef c2 3d 4a 1a d1 be 3e e4 1a 3d
       -0.112211704 0.09518385 -0.4084037 0.037815325
000090 e2 6f 67 bd 73 36 15 be 9b 52 97 3d 99 07 f0 bd
       -0.056503184 -0.14571552 0.073888026 -0.11720199
0000a0 1f 4e 5e bc 3a 0a d0 be 60 a2 c3 be 79 7c 31 bd
       -0.01356843 -0.40632802 -0.3820982 -0.043331597
0000b0 9c b6 b2 be f1 db 5a be 7e 26 f7 bd 63 2c 1a bf
       -0.34904945 -0.21372963 -0.12067889 -0.6022398
0000c0 c2 a9 4c bd 6c 91 e1 be 42 2a 33 be 0c 6c 51 bd
       -0.04996658 -0.4405626 -0.17496589 -0.051128432
0000d0 71 4a 39 bf 6c 47 a6 be ac 10 bf 3b c1 b8 a1 bc
       -0.72379214 -0.32476366 0.005830845 -0.019741418
0000e0 b2 5a 3f 3e e5 d0 a3 be 27 52 86 be fe 6f 48 be
       0.18686941 -0.3199531 -0.26234552 -0.19573972
0000f0 79 a1 01 bf ab f2 57 bd 54 ac 38 be 88 d3 16 be
       -0.5063701 -0.05272166 -0.18034488 -0.1472913
000100 c1 a5 5d be 22 1c 0b bf 0a 93 0a 3e 8c cc 29 3d
       -0.21645261 -0.543398 0.13532653 0.041454837
000110 d0 ff 78 be 90 81 57 be c7 12 f5 bd f4 ba c7 be
       -0.24316335 -0.21045518 -0.11966472 -0.3900982
000120 1a cc 34 be 0f 52 07 bf 2f 16 c1 3b f0 9b 57 3d
       -0.17655984 -0.52859586 0.005892537 0.052638948
000130 95 bf c5 be 10 f5 9b be 6c 59 90 be f0 bb 45 3e
       -0.38622728 -0.30460405 -0.28193223 0.19309974
000140 42 c6 d4 3c 15 c8 16 bd f2 c3 bf 3d d9 8c f9 be
       0.025973443 -0.036811907 0.093635455 -0.4874027
000150 b6 5d 17 be a0 a2 56 3e 15 70 64 be fa 5e b4 bd
       -0.14781842 0.20960474 -0.22308381 -0.08807178
000160 36 71 bd be ce 9b 97 bd 67 4b 47 3d 56 c9 8d be
       -0.37000436 -0.07402764 0.048655894 -0.2769267
000170 84 21 f3 3d fa 7c 99 be ff d7 08 bf c5 98 3a bd
       0.11871627 -0.29978162 -0.53454584 -0.04555585
000180 af 59 a6 be 67 00 2e be 00 0a 90 3d ca f6 3c bd
       -0.32490298 -0.16992341 0.07033157 -0.046133794
000190 e4 38 a8 be 3b 95 ec be 72 6a 27 be b4 44 4e 3c
       -0.32855904 -0.46207604 -0.163492 0.012589622
0001a0 10 9c a9 be 61 c4 e6 be 28 ab cd bd 7b 69 0d 3e
       -0.3312688 -0.450717 -0.10042411 0.13809769
0001b0 e6 ed a8 bd ee 52 8c be d8 04 53 bf 40 9d 8c 3d
       -0.082485005 -0.2740702 -0.82429266 0.068659306
0001c0 76 d7 c5 be f8 61 10 bb 00 6b 2d be 78 a3 cf be
       -0.38640946 -0.002203105 -0.16935349 -0.40554404
0001d0 03 39 0b be e5 2c 5b be a7 f2 4e be 3b d6 87 be
       -0.13595967 -0.21403845 -0.20209752 -0.26530632
0001e0 c4 73 ab bd 72 36 9d bd f3 ab f4 bd 65 f6 98 be
       -0.0837169 -0.076764 -0.11946859 -0.29875484
0001f0 b4 ef ea 3b e6 30 3f bf 93 ee 43 bd 14 8c 94 be
       0.007169688 -0.7468399 -0.047834944 -0.2901312
