python/rlgpu/saved_nn/241001162243532647/last_Aliengoep=4500rew=[1009.98].pth (torch, 523930 bytes, 18 tensors)

running_mean f8 [361]
00000000: 57de a692 65ce bdbf 2a62 a04f bcda 9d3f
00000010: cd17 fc90 9125 c43f 01e4 c32c 7948 713f
00000020: 1ff4 700d 2c9a c6bf 581f 6d0b 2b6c d33f
00000030: 9e55 e911 2c96 d63f 7f24 b71e 585c dc3f
00000040: e570 8c24 886a e13f 9498 3647 0c39 c13f
00000050: 3615 e887 b119 c03f 0bad a8e6 79ee d5bf
00000060: c3f0 e459 cb89 c83f 064a 7797 dbcc a8bf
00000070: ebe3 ae84 a4ef d4bf b9b9 d9b4 fe4b a03f
00000080: 3422 1659 a564 c43f c2c7 56e8 f052 d4bf
00000090: 32b9 324b 8cd0 b9bf 8809 024c 41a2 c4bf
000000a0: 1aed c817 ecda d3bf 8a3b 63d5 c75b dd3f
000000b0: 0c2f f9b4 ac64 93bf fe27 136c fa46 c83f
000000c0: 7873 aad9 9930 de3f 2947 9997 4075 ba3f
000000d0: 9da7 0365 989a c73f 7fcc b8a4 ee9e dc3f
000000e0: fc51 ff76 d73d a53f 8391 2ba3 757b c33f
000000f0: 3f1b c286 d28e dd3f 29a2 22b9 d99a bd3f
00000100: d8fc 1808 77ee c03f bd81 8fec 7407 debf
00000110: 9bed 77d1 cef4 e13f 13ba 0049 faaf d3bf
00000120: 0874 9ba6 538a d73f 9eb5 be00 14b7 e43f
00000130: 9ccf 730b ab76 d8bf ee49 8e2b 1416 d2bf
00000140: eab8 a7fd e6c6 d6bf c350 3a38 3642 dbbf
00000150: c883 f2d5 8ecd b43f c269 42e9 a5dd ddbf
00000160: ef89 0234 03f5 d2bf 7dee 0eae d685 df3f
00000170: a18a 49aa 2954 db3f 85e3 54ff bca0 ef3f
00000180: 104e 2757 3607 e03f 5a52 2fd6 6c03 e23f
00000190: 90ca b73f 3aa4 b53f 9651 6e7e 119b e13f
000001a0: 9f68 7584 c103 a23f c86b 1be5 bcc6 853f
000001b0: 7198 7269 1217 d1bf 44d8 1b44 34a8 e53f
000001c0: f9ce e5ee e2d5 d83f 846b 3884 f880 d7bf
000001d0: ee64 082c 2473 e5bf 3982 4f2b 7cc6 d73f
000001e0: 250e 376d 2c7d df3f 34da e38d bc41 db3f
000001f0: 9d9f bf50 a596 ef3f 5b97 9a43 d902 e03f
00000200: d61b 3b21 b8fe e13f 3085 0208 4c92 b53f
00000210: 9459 bbee f897 e13f 3f67 2bcc 100d a23f
00000220: 37f7 10b5 2979 853f 2cdf 409e dc12 d1bf
00000230: 8e3e 2526 bfa2 e53f fc66 128e f1cf d83f
00000240: f955 e6ea ce7b d7bf d582 a742 8b6f e5bf
00000250: 7496 9198 98c0 d73f fedd f250 bd02 cc3f
00000260: b626 c185 b723 cd3f 121a d1f7 ee10 cd3f
00000270: a42d 2dbc 2a95 cc3f 09b4 7014 9504 cc3f
00000280: 1f3d 0f2d d07d cb3f 37ca 9821 6521 cb3f
00000290: 2086 f890 355a cb3f b243 4db0 e7d0 cb3f
000002a0: 0d42 833a 485e cc3f 8886 492b 3ce8 cc3f
000002b0: e2a4 8931 3f15 cd3f f4d8 2d45 d2a0 cc3f
000002c0: 7eb4 b14e 2448 cc3f 1471 c24e eb19 cb3f
000002d0: 6493 3062 1bd2 c83f aeca 06ca 9987 c83f
000002e0: 2b94 e318 2656 c83f 1579 bde1 c435 ca3f
000002f0: b2b8 05a7 c35a cb3f e81d f506 9918 cc3f
00000300: 27ee b0eb 991d ce3f 7e1b 565b 6873 cd3f
00000310: e4f3 d323 fda8 cc3f 1c0e 2a54 0bd8 ca3f
00000320: 0dd4 774a 9cf6 c73f ee36 f6a3 6da6 c73f
00000330: 9583 d8ea 7749 c73f 7a74 2c4f 4daa c93f
00000340: ff09 f308 796e cb3f 8f2a 4b70 acbf cc3f
00000350: fcc3 11ed 7d39 cf3f 4859 3c73 a85c ce3f
00000360: ae1f 4507 2967 cc3f 6bce e176 76b3 c93f
00000370: 626f 6129 a183 c73f 2dc0 dbd4 fa1d c73f
00000380: f8f8 e9ee 70bc c63f df51 de8b 406b c83f
00000390: 95b9 66f5 2e23 cb3f 4138 1a16 9095 cd3f
000003a0: f5a0 7207 5737 d03f ea08 0256 3653 cf3f
000003b0: 6ac3 eee5 cfcc cc3f ea88 d84b b080 c93f
000003c0: b99e 2d25 4a49 c73f cabe cdd2 fbc4 c63f
000003d0: bec4 75c1 017a c63f aab1 7d40 5723 c83f
000003e0: 846c 2e78 4975 cb3f e75c 4d7c 2e89 ce3f
000003f0: 56e1 afe9 5eda d03f 70c8 9947 882b d03f
00000400: c4f2 9736 7a30 cd3f 2737 0209 bb60 c93f
00000410: 5ab6 a671 602d c73f b04d 0db8 cd88 c63f
00000420: 8b56 752b 8765 c63f 97ac 2527 01fc c73f
00000430: bf3a f23f bedb cb3f 04b1 762d e496 cf3f
00000440: 0773 5218 c90f d23f 2255 a74a 4948 d13f
00000450: dfaa ed49 2a6c cd3f d615 d10d 2a8b c83f
00000460: 645e 8e88 aa28 c73f aa17 150f 7599 c53f
00000470: 1b75 ab95 bf85 c63f 8f6f 1ac5 8484 c73f
00000480: 8137 9c94 6f9c cc3f 9eb0 f0f4 a3ff d03f
00000490: 5fd4 32e0 b7e4 c83f 0610 362d fa7e c93f
000004a0: f016 5cf2 f069 c93f b425 0b66 fe2f c93f
000004b0: 5054 4911 62fd c83f 21ed cc1f 74c1 c83f
000004c0: 8fc0 64c9 9b99 c83f 3ebc ad34 b6ce c83f
000004d0: bbc6 534b 9f0e c93f dd6e 6d9e a63f c93f
000004e0: f9f8 73d5 5373 c93f 8d28 787b c725 c93f
000004f0: 8ab4 86d0 7171 c83f 66be 387b 3923 c83f
00000500: 5b16 9735 f4ae c73f ed2f 2f87 439c c63f
00000510: 8668 2402 67e3 c63f ed54 8887 5ccd c63f
00000520: 9a55 d7ee 7130 c83f 9cc3 73d7 d49e c83f
00000530: 4954 d3e3 d0a5 c83f c25e 0313 2016 ca3f
00000540: e089 4c83 2be8 c83f 9e17 a218 c82b c83f
00000550: 195a 0223 e264 c73f dbf6 7c16 7701 c63f
00000560: 8317 2e28 3777 c63f 4d6f c061 b361 c63f
00000570: 5cf0 cedf 6b1c c83f 5a1f ee3d 44d8 c83f
00000580: f9f2 7eed bc44 c93f f9aa 2e43 9a66 cb3f
00000590: b194 a901 04c4 c93f 21c9 24fb 2dea c73f
000005a0: e14d 6828 e29a c63f c886 2941 63c0 c53f
000005b0: 5d43 eb65 ab39 c63f 6282 4167 7836 c63f
000005c0: d628 0c84 dc51 c73f b5ad 6545 de8b c83f
000005d0: 6ada e972 0e30 ca3f 4206 eb1d d720 cd3f
000005e0: 8350 f4f7 6bf9 ca3f 1aa4 c98a 3b53 c83f
000005f0: e58c 0f36 4fa1 c63f 5e35 2056 0fb6 c53f
00000600: 2b71 8449 6e1c c63f cf5d c9ae 9d31 c63f
00000610: 5362 6f18 d848 c73f d76a de66 14db c83f
00000620: 0a36 b793 605e cb3f b21d 16f6 b122 cf3f
00000630: 0319 29b6 4e87 cc3f eabc 242e a5d5 c83f
00000640: 2095 6c59 c3c2 c63f 6077 0189 9ac9 c53f
00000650: 5dbb ac14 8811 c63f a641 a48d 7941 c63f
00000660: 49b9 10a8 db46 c73f 2bf1 8174 6c26 c93f
00000670: 1213 5b9a dbd1 cc3f 2933 9be5 5a86 d13f
00000680: 8d77 8381 d738 d03f f857 1122 bbc6 c93f
00000690: 0ddd c724 54a7 c63f 5726 e584 ed1e c63f
000006a0: 4953 2c75 9b86 c53f 8e84 3bf9 4a78 c63f
000006b0: 4beb 9bb1 73be c63f 0fd8 bc61 c144 c93f
000006c0: c4b2 9a93 b827 d03f f7ce 5347 e3e4 c53f
000006d0: b469 789a 6701 c63f 715e 82d6 6031 c63f
000006e0: a98b 80ce 4334 c63f 6d7b 6f55 a831 c63f
000006f0: 0ae5 26c8 942e c63f 1ab1 fb71 bd12 c63f
00000700: 27a6 2ea6 c91f c63f 33bc 6a56 cc15 c63f
00000710: 6343 0f30 5511 c63f dc8d 6c96 b117 c63f
00000720: 031b d9cc 9dc6 c33f 1f81 8199 fdc0 c33f
00000730: dbc3 bfa5 2b93 c53f 2a43 f522 ea80 c53f
00000740: b758 94e5 fba9 c43f f39f 519e d5d3 c43f
00000750: 610e 325e badb c33f 843d 4137 1d11 c43f
00000760: 0ecd 4557 2c08 c43f 4fd5 5a68 c6f1 c23f
00000770: ff79 28d4 85ee c33f 4e92 27b8 a1e8 c33f
00000780: 86ca af13 93ba c53f e3e2 9097 4b96 c53f
00000790: 7746 ec4f 985a c43f b57c d2a4 a39a c43f
000007a0: 916a 1e7d 4954 c33f 85ed 2b75 10ce c33f
000007b0: 520b 304f 93bc c33f 9e04 7d16 94c6 c23f
000007c0: fb1f 7258 8532 c43f 510c 966a 434c c43f
000007d0: 1ace 9cfc f288 c43f d23c fc14 df01 c53f
000007e0: 885b f314 a343 c43f 4330 ea70 097d c43f
000007f0: 80dd 267c 343b c33f e033 a202 7839 c33f
-0.11643061476103732 0.02915472255708288 0.15739650325138968 0.004219506587326728 -0.17657995849904837 0.3034770595154348 0.35291578053633 0.44313624381590694
0.5442543710555837 0.13455346562586057 0.12578410278380553 -0.342680430653403 0.19170514954919868 -0.04843794082593793 -0.3271266265615497 0.03182979543349824
0.15932146882939124 -0.3175623196540266 -0.10083844028369951 -0.16120163165403434 -0.31023695299855236 0.4587268432487056 -0.018938730760324637 0.18966608311740168
0.47171636825969854 0.10335162831441082 0.18440537388169967 0.4472004517185226 0.04148743941883379 0.15220518557829274 0.4618421855924914 0.11564408082870926
0.13227737326994915 -0.46920512296312805 0.5611337748700181 -0.3076158249777176 0.36781779546964843 0.6473484053182579 -0.38224292868039256 -0.28259758237359633
-0.355890033445475 -0.4259162472819861 0.0812615654308636 -0.46665332583657115 -0.2962043769749973 0.49254385946162654 0.42701188687912334 0.9883713709779022
0.500880403730152 0.5629181083009585 0.0845371633111347 0.5501792401651524 0.03518490545202834 0.01063296865634368 -0.26703319833394007 0.6767827348946942
0.3880545933709381 -0.36724675094745174 -0.6703053340926581 0.3714895651774302 0.49201498666318094 0.42588723999452616 0.9871393754119598 0.5003477402103543
0.5623436593094719 0.08426356502106525 0.5498013174754299 0.035255932734527644 0.010485006178096874 -0.26677623228487124 0.6761165375737208 0.3876918685360662
-0.36693165721348425 -0.6698662092058735 0.3711301317146998 0.21883360340665087 0.22765249281865402 0.22707926845960508 0.22330221355728697 0.21888984201487485
0.21477701378032862 0.21195663586111532 0.21369046763088395 0.21731277569281598 0.22162726265970925 0.22583725083955053 0.2272109023936429 0.22365787866483056
0.22095159380424784 0.21172849031143726 0.1939119557802328 0.19163820614411037 0.19012905326158722 0.20476590177981593 0.21370740561855467 0.2195006641361339
0.2352783585391631 0.23008446178229386 0.22390712975894111 0.209718147369231 0.18721345554482163 0.18476648813196256 0.18192957846715943 0.20050970426465026
0.2143088620851614 0.22459941371046852 0.2439420135083593 0.23720269800896632 0.22189820151311096 0.2007892685393132 0.18370451469933885 0.18060241120792977
0.17762576738090963 0.19077307538522256 0.21201121313556529 0.23112679557056207 0.2533776829464068 0.24472693633658277 0.22500036933117978 0.19923976615343203
0.1819241220030017 0.17788646500729605 0.1755983538273877 0.18857851647352436 0.21451681488256125 0.23856144971316626 0.26332829304694394 0.25265700332886976
0.22804191270542706 0.19826448383212744 0.18107228803039527 0.17604991423523364 0.1749733888815864 0.1873780671261087 0.2176435291516636 0.24679233760742403
0.2822134721298401 0.2700370053328972 0.2298634396532497 0.1917469565834568 0.1809285322931259 0.16874564396328867 0.17595667656034028 0.1837316477220807
0.22352404362066738 0.26560305519047656 0.1944799275130746 0.1991875382192349 0.19854556879015872 0.19677715284914898 0.19523263782562816 0.19340373566397154
0.19218776067419127 0.1938083417148579 0.1957587354477733 0.1972549699374814 0.19883201525221475 0.1964654305341508 0.19096205408041939 0.188574967543434
0.18502667061527486 0.17664379216000672 0.1788147697887476 0.17814213388252345 0.18897842561879657 0.1923471500408852 0.19256030201236943 0.20380021026971035
0.19458526526530218 0.18883610918800015 0.1827662154143617 0.17191971395543856 0.17551316701809236 0.17485658906013626 0.18836735180036868 0.19409993194517022
0.19741021725157973 0.21406868248353542 0.20129442292378522 0.18683409464717562 0.17660166714686823 0.16993370706318545 0.17363493420136936 0.17353730241576942
0.18218571136123413 0.1917684401372363 0.20459156619081692 0.22756470642893772 0.21073674780985038 0.19004005696049903 0.17679777278599498 0.16961852746355083
0.17274263944353527 0.17338915857793188 0.18191052621002032 0.1941857816971921 0.21381766522101514 0.24324631229340593 0.22287925619657054 0.19401993516064603
0.17781869760907743 0.17021495523197938 0.17241002091892713 0.17387313285918288 0.18184991556467825 0.19648509682509405 0.2251543525400384 0.27382538244710247
0.2534693493633931 0.20137728846992764 0.17698146625455316 0.17281884182948445 0.1681703874716283 0.17554604692034953 0.1776871316177114 0.19741074821803337
0.2524243775795123 0.17104760153562612 0.17191786806581677 0.17338190530857703 0.17346999724494808 0.17339042827276377 0.17329654477161 0.17244690003952529
0.1728450833737025 0.17254022807671418 0.17240395399724226 0.1725980743877774 0.1544987917170247 0.1543271064320004 0.1685537871667567 0.16799666125236828
0.16143749914107783 0.16271467428600736 0.1551430664004441 0.15677228162756418 0.1564994264732395 0.14800338836145463 0.15571663722307957 0.15553685657427468
0.16975630246414058 0.1686491479938673 0.1590147390602856 0.16096921489677177 0.151009737103625 0.15472608300465765 0.1541923653276976 0.14668513391555832
0.15779177492754556 0.15857737259293228 0.16042935690494248 0.16411961102173805 0.15831411860446232 0.16006582272928158 0.15024429380512672 0.15019130829423855

running_var f8 [361]
00000000: c5f1 d327 c6d6 a23f c86a 8dc2 9f0f 0840
00000010: aa12 bd50 1f10 c23f ca8d 4090 c420 1740
00000020: f44c eda9 3c4b c63f beb0 d3c4 790e cb3f
00000030: 7e83 99a1 1f3b cd3f 3fa0 5999 1096 cf3f
00000040: f06a 9874 d8bf cf3f 1e24 bca4 0a51 973f
00000050: f319 88bf f9aa 6e3f db62 8eb3 17fa 753f
00000060: 66ce 3c92 d523 963f cc1b 1e48 68f3 793f
00000070: e692 3fbb 46e1 733f 3a07 31ec a0bc 943f
00000080: 358a 4ae1 2a3d 693f 3032 a1b3 5b80 6a3f
00000090: 9e6d e16e 7943 983f 0106 71fe 541d 6d3f
000000a0: f9e8 f988 70e2 663f c923 06f7 e6f3 1a40
000000b0: 6755 6e85 1baf fa3f 3856 4e83 77bf 0640
000000c0: 7350 938c 3f98 1840 cd1f 7864 f1ca fc3f
000000d0: 76ab 11a4 b1fc 0640 1dd5 08a3 c1d1 1340
000000e0: 30f7 a7bc 2a12 ec3f f1cd 9167 de54 f23f
000000f0: 6758 76ac 4745 0c40 57b9 d520 e59b e93f
00000100: ff92 8d0b 2fe5 ea3f c446 8941 4b61 2740
00000110: 6f38 d8d2 7a2a 2740 2cd0 82c4 f2fb 2340
00000120: 762c a16b d51e 2740 4922 3ccc 5d5f 2740
00000130: bd0a c44d c7ae 2140 aebd e7ff 6552 2440
00000140: b371 4d1e 41cc 2540 afc1 1cb5 8a12 2040
00000150: affe d2a0 b96f 2140 a7fa 809e 3801 2240
00000160: 2267 dc0f 9c6d 1d40 62e9 f274 a50d d83f
00000170: a1d1 f60e a15e de3f 76db 8c17 9494 813f
00000180: 17b8 c39e eaa2 e03f 2b50 3d4e 59c4 dd3f
00000190: a65a d080 1bd2 e63f 4dea 7f25 d75c de3f
000001a0: ba30 3fcc d5ae e63f 9713 98fd e029 e73f
000001b0: 4bd4 6968 6e36 e53f 40e8 431d edf9 d53f
000001c0: 91cd 4e1d 1ad7 e23f 0109 c7ad 680a e33f
000001d0: 23ee be20 92f2 d33f a445 d5cf 1331 e33f
000001e0: 8597 3004 0b09 d83f 6b57 88ee 6b64 de3f
000001f0: ef05 39ec 410d 843f 29c8 eaa7 4c9f e03f
00000200: a3ef 085c 72be dd3f bae3 6b10 d4ca e63f
00000210: 44e3 bdb1 c053 de3f 035e 26ba 26a7 e63f
00000220: 2a93 3fcb 4f22 e73f 750b 1cc7 e22f e53f
00000230: f319 ce43 f3f7 d53f c431 3760 a9d1 e23f
00000240: ff38 94bc bf04 e33f 436b 04e0 c2ec d33f
00000250: efad 26e2 892b e33f 050c ded0 3116 bb3f
00000260: 909a 7c54 dc83 bc3f 3d47 1f01 ac69 bc3f
00000270: 968d 115b 35d2 bb3f bed3 f931 5119 bb3f
00000280: 489a 059e 8a6d ba3f 0eda 86c0 55ff b93f
00000290: a11b 9871 533d ba3f d986 c8bc 85d1 ba3f
000002a0: e7fb 232b c287 bb3f 3d44 dc6a 9d35 bc3f
000002b0: d7a6 ec72 5853 bd3f 5f67 056e 7fd9 bc3f
000002c0: 9610 eab6 ddf1 bb3f b685 37da cd6d ba3f
000002d0: d712 bdeb c5b7 b73f 5575 4753 ae26 b73f
000002e0: 3849 557e 0d42 b73f 4c59 2c86 26a4 b93f
000002f0: b1fb 44c3 2126 bb3f 577f 47ef 1662 bc3f
00000300: f492 8c6e b1d5 be3f 0616 8e0d 5124 be3f
00000310: 59ca 610f 74a2 bc3f f3cf 4c9e fc53 ba3f
00000320: 34cb 853a f3d8 b63f 8a9b 6dd4 eb2a b63f
00000330: 9bbc 14f0 612d b63f 510f df6d cd3c b93f
00000340: 5e5c 5672 e98e bb3f f5ef 6588 6087 bd3f
00000350: 7edf 8f51 ac31 c03f 47d3 65bc e378 bf3f
00000360: 7ef8 0bed 09ef bc3f c4db a33c 5f50 b93f
00000370: 0e2a 1c17 e874 b63f 28ef f32a 70a1 b53f
00000380: 295a 3cc9 9fa6 b53f 3d24 b565 2f03 b83f
00000390: 61f4 31b2 b6b7 bb3f 6aea bb32 4dcb be3f
000003a0: f114 f9b3 7801 c13f 3132 b7ae 1069 c03f
000003b0: af5a 9b9c 78aa bd3f b663 9293 ba4e b93f
000003c0: 1152 2ba4 ab57 b63f 425b 3ace cd5a b53f
000003d0: fe07 0929 d676 b53f 9ecb b7b8 89d7 b73f
000003e0: a513 fab8 4b59 bc3f 7810 89c4 7111 c03f
000003f0: afe3 fe21 cfd5 c13f 4044 9164 a717 c13f
00000400: 14ad 7c5f cd60 be3f f8bf c260 cb65 b93f
00000410: 563d bdfa ea60 b63f 00b2 188c 0a42 b53f
00000420: 9a9f 280b 4c7b b53f b6ee 815d b2ce b73f
00000430: d958 a2f4 2c08 bd3f e4d8 746f dac4 c03f
00000440: 03d6 e335 f262 c33f 4255 745e 287c c23f
00000450: 9292 d716 1854 bf3f b968 3d1e 391e b93f
00000460: cf17 eba4 92b3 b63f eb83 5d1d 52c9 b43f
00000470: e70b e4ad 5cd7 b53f d6f8 7b95 de9f b73f
00000480: d3b9 6b56 c049 be3f 14f7 ce2e cd3c c23f
00000490: 69e6 205b 84f8 b63f 5776 b469 f8cc b73f
000004a0: a146 796d f8ab b73f cb87 7108 d95d b73f
000004b0: 7e64 761e f714 b73f cace 1e5b b3c5 b63f
000004c0: dd8c 83a7 a79b b63f 11ce 2248 66da b63f
000004d0: 8eaf f473 a22f b73f 2f39 462e b375 b73f
000004e0: 40dc 5224 61ba b73f e4f9 c754 7a27 b83f
000004f0: c703 f943 366b b73f c4ad a9a0 36b4 b63f
00000500: e74f 56e8 330d b63f 10ed af93 6d9c b43f
00000510: fcf5 ee6f 9db5 b43f 6946 a3e4 9be4 b43f
00000520: 7ccc ec62 3da9 b63f 0e7e 16df 7144 b73f
00000530: f249 95cb 75ab b73f a102 7015 95a7 b93f
00000540: e8b7 17e4 5f65 b83f 12e0 1a3f c40b b73f
00000550: 2963 3f55 1bf4 b53f 015f dc52 bb15 b43f
00000560: 3c6c 6fd7 d850 b43f 96a6 df50 d396 b43f
00000570: 3617 e063 f9cc b63f 198f c7ba 3ecd b73f
00000580: 2240 9c12 cccc b83f 15ab b2a2 2d96 bb3f
00000590: 2c21 2d72 0acc b93f faa6 e89f eb36 b73f
000005a0: f9a4 bdc4 b63d b53f 129d 8023 a5f7 b33f
000005b0: dec3 cea3 ae2e b43f 2620 6566 c194 b43f
000005c0: 98fb bb16 8b1f b63f 34f1 523a 88f2 b73f
000005d0: d05a fc94 a63e ba3f 8ca1 e0fd 71f5 bd3f
000005e0: 7220 4244 b992 bb3f bb13 e94d adfd b73f
000005f0: 645f 1823 f07c b53f f848 a87a 311c b43f
00000600: 587c 6c15 873e b43f 1ff3 87a5 d5c3 b43f
00000610: e73c 99ff c14f b63f d3d2 6dbc 2d97 b83f
00000620: d0df c987 56f8 bb3f 06f5 d3c8 484a c03f
00000630: 1d01 d791 59b0 bd3f 5ed5 85b3 e0db b83f
00000640: ee85 9546 6ddd b53f 860c 60cb 8d63 b43f
00000650: f218 3a5d 936e b43f 1973 7a97 f40c b53f
00000660: 1022 7468 568b b63f 0532 4df7 2836 b93f
00000670: 6459 a2ad 70f7 bd3f 68a4 eddf 40af c23f
00000680: 837d 4ae4 123e c13f a202 bf78 6885 ba3f
00000690: a2e3 d330 5158 b63f 28d9 8c1c f526 b53f
000006a0: 0cd1 a2c3 1d77 b43f 9127 8b33 98b6 b53f
000006b0: 441d 64ca e086 b63f cd16 885e c9ff b93f
000006c0: 79e4 0021 1d32 c13f bf0a 3970 777f b83f
000006d0: abaf 746e 2ccb b83f 6e35 fa83 14fd b83f
000006e0: e8c6 b499 0cf8 b83f 9429 fdfe e3ee b83f
000006f0: b6c3 02ae 0fe7 b83f 98d2 3b2b d0c9 b83f
00000700: ce73 4a5a cfd3 b83f d5fe cbaa e0c7 b83f
00000710: 7f52 2553 6ac6 b83f 3d35 0d5f 40d9 b83f
00000720: c9c1 10f1 aa88 b63f 64fc d8b6 8088 b63f
00000730: 689d 3b8d 557b b83f 9995 4ab7 f455 b83f
00000740: b3a5 304b e43e b73f 0574 9e8b 2a58 b73f
00000750: 1b68 8762 306d b63f 93ed f42c 53ca b63f
00000760: 94d6 9729 7cc6 b63f 10d2 a3cf ea94 b53f
00000770: bff7 d821 b000 b73f c0bf 01e3 f304 b73f
00000780: 6d44 212c 5ef0 b83f 7e6a 7b34 65aa b83f
00000790: 16da bb67 8c05 b73f 52dd 2bab 0f2f b73f
000007a0: e4eb 0aa3 57fa b53f 13d2 d435 adb9 b63f
000007b0: 6526 59ee 14ae b63f c610 81a5 e0a1 b53f
000007c0: 7f01 bd87 549a b73f a5b5 32b0 6bc9 b73f
000007d0: 01d9 8b89 55e3 b73f 375f d050 fb2d b83f
000007e0: 3183 230f a015 b73f 18ce 4593 fc2e b73f
000007f0: d7e1 7d5d ca0f b63f 0802 9ade ed36 b63f
0.036794845926098975 3.0076289367110327 0.14111701433480067 5.781999830188804 0.17417105004515288 0.21137926207246055 0.22836680784805802 0.24676711547658844
0.24804216092237352 0.022770086578962283 0.0037436368841128275 0.005365459998664969 0.021621071863775397 0.00633564696352713 0.0048535120913342 0.02025081101988422
0.003080924749455672 0.00323503408893646 0.023694894211400468 0.0035540256535859798 0.0027935216856437265 6.738185748815291 1.667750855650718 2.8434896715432636
6.14867992066512 1.7995466160373212 2.8733856981174837 4.954840228475658 0.877217644185043 1.145719914024877 3.5338281129470945 0.8002801553064199
0.8404765344281201 11.690027282721879 11.582968319791886 9.992086544960408 11.560222018646737 11.686262495365684 8.841364317112829 10.16093444541806
10.898934313729887 8.03621450401337 8.718213105922898 9.002385094875832 7.3570406416199905 0.37583290501392785 0.4745257040151732 0.008584172218986313
0.519887266241997 0.4651091827447568 0.7131478801628262 0.474416529293795 0.7088421811290779 0.7238621666916626 0.6628944434475071 0.3433792863648968
0.5887575695436899 0.5950206178752354 0.3116803474219713 0.59974089233781 0.3755519429126866 0.474879248563744 0.009790911694952135 0.5194457320815263
0.4647489451197037 0.7122593231898613 0.47386185987084084 0.7079042087306678 0.7229384393400313 0.662095440755691 0.3432586824568766 0.5880934600077627
0.5943297084029665 0.3113257587116786 0.5990647713674074 0.1058074126176934 0.11138703406013861 0.11098742511174194 0.10867627595285109 0.10585505933870729
0.10323397024112879 0.10155235243187397 0.10249825976653294 0.10475955828635665 0.10754025986896885 0.11019309862992173 0.1145530014588546 0.1126937526327345
0.10915933337861569 0.10323797776756902 0.09264790540062094 0.09043397458250031 0.09085163435273536 0.10016098762239273 0.10605059640236793 0.11087172834186042
0.12044819783165989 0.11774164753850166 0.11185384154831847 0.10284403671977298 0.08924789599204247 0.08659242569193118 0.08662998305657015 0.09858402187734085
0.10764941255034574 0.11534694032701494 0.1265159033061955 0.1229383788066346 0.11302244221949029 0.09888262968512068 0.08772135318955795 0.08449460076002124
0.08457373297674366 0.09379860146613424 0.10827199793307464 0.1202896355497757 0.13285740649931868 0.1282063344100535 0.11588243316087231 0.09885755637004831
0.08727524526631948 0.08341680798399145 0.08384455205762717 0.09313259849277108 0.11073754564320255 0.12553236099677512 0.1393374362940256 0.13353435907859712
0.11866458493448234 0.09920950996706768 0.08741634961665076 0.08303895874332312 0.08391261360577432 0.09299769194506777 0.11340599987520096 0.13100748483856883
0.15145709639880076 0.1444139920428516 0.12237692411106085 0.09811741817739773 0.0886775639183661 0.08119691101957442 0.08531741376286527 0.09228316449659543
0.11831285581477084 0.14248051438874454 0.08972956871812134 0.09297134953200135 0.09246781037043174 0.09127575355662924 0.09016365522110623 0.08895417189233537
0.08831260528272673 0.08927001248485335 0.09057059603645554 0.09163970832580469 0.09268767487343244 0.0943523842797514 0.0914796749066361 0.0886873380892928
0.08613895818990579 0.08051190238613892 0.08089622481107733 0.08161329586007472 0.0885198942676641 0.09088813492279987 0.0924600240735243 0.1002133538568253
0.09529685324352466 0.09002329388283695 0.0857560237049141 0.07845659993142463 0.07935862788819831 0.08042641376928325 0.08906515777934207 0.09297554073378612
0.09687495664934478 0.10776028844945203 0.10076966559893624 0.09068176893256555 0.08297292998544838 0.07799751393087132 0.0788373136445126 0.08039482831839048
0.08641881279980479 0.09354449676442728 0.10251847398135827 0.1170264477556257 0.10770757595503413 0.09371455337630057 0.08393765312973539 0.07855519527973687
0.07907909653703038 0.08111319819722639 0.08715450754356234 0.09605680322949732 0.10925808730269115 0.12726697736790288 0.11597213564437366 0.09710506804352323
0.0854099557232286 0.07964407172407748 0.07981225038574616 0.08222893427086965 0.08806362199914752 0.0984826663745438 0.11705688704600942 0.14597330984114198
0.13470684191723245 0.10359814594176922 0.0872851127823098 0.08262569376970375 0.07994256998319232 0.08481742151630402 0.08799557629764815 0.10155924375439014
0.13434185134409285 0.09569498529257724 0.0968501825015539 0.09761169645408582 0.09753493073074149 0.09739518142047238 0.09727571485815542 0.09682942443380183
0.09698196367612796 0.09679989023060938 0.096777577685609 0.09706499405475184 0.08802288422953732 0.08802036727955592 0.09563193033283357 0.09506158327947957
0.09080340228742649 0.09118905934015238 0.08760359197131644 0.08902473304345042 0.08896614089447957 0.0843035466130646 0.08985424829822274 0.08991932193907726
0.09741772248641363 0.09635002642918697 0.08992841274798766 0.09056184700954376 0.08585117083104837 0.08877070011369197 0.08859377688454513 0.0845013050139328
0.09219864190982284 0.09291718532286682 0.0933125935369823 0.09445162508961578 0.09017372483823462 0.09056070895695034 0.08617844374192117 0.08677565273865906

count f8 []
00000000: 0000 0880 74d2 0a42
14400000001.0

running_mean f8 [1]
00000000: d791 f963 a7af 5540
86.74459170696296

running_var f8 [1]
00000000: cacf 0d4e ed2e 7f40
498.9329357661742

count f8 []
00000000: 0000 2080 74d2 ea41
3600000001.0

a2c_network.sigma f4 [15]
00000000: 9f0f 86bf 9930 c2be fbba 72bf bcda 55be
00000010: ceaa 38be be2b 9fbe 3a52 b0be c89c 0abe
00000020: 264b d1be 891c debe a2de 4bbe 82f3 15bd
00000030: bac9 ddbe d6e9 23bf e836 6dbe
-1.0473517 -0.37927702 -0.9481656 -0.20884222 -0.18033907 -0.3108806 -0.34437734 -0.1353637
-0.40877646 -0.43381146 -0.19909146 -0.03660918 -0.43317968 -0.6402868 -0.23165476

a2c_network.actor_mlp.0.weight f4 [128, 361]
00000000: 293e 483f d80d 32bf cddd 373c 141f c3bb
00000010: 13e8 05be 3b82 04bf 23f9 09bd 2c3b 22be
00000020: 738b 92be 8315 a9be bec3 0bbf 394c cbbe
00000030: cbe5 19be f6a6 e1bd ef19 67bf 11f1 713f
00000040: 728e c4be 0ce3 a3bf 27a2 b73f 7631 463f
00000050: 70af ccbf 136e abbe bc65 403e 1df6 5ebd
00000060: bfb0 42bf 4f59 e03e 2e88 cc3f a16a 2f3f
00000070: db98 e63e 14f2 fe3e 9518 eebe 6207 9fbd
00000080: 17ff 67be 0314 7fbe 1f13 95bf bf04 103f
00000090: d1fd b4be d0a8 afbe 2e3e 49be 9533 01bf
000000a0: e3f5 95be 846c c6be e488 4f3f 4a31 f6be
000000b0: a76f c7bb 7bd0 24bf b397 5cbe 86fe 69bf
000000c0: 9d0a 043f 7944 10be dc98 f1be b7b0 71bf
000000d0: 5d68 20be d79c d2be 1296 683e 6f67 25bf
000000e0: 73d9 3cbf e0cf febe d23b 3b3e bb74 22bf
000000f0: 20f7 0abf 3179 813e 10ae b9bf 3272 7dbf
00000100: 5f97 163f f76e 96be c54f 49bf a231 67bf
00000110: 8acc 01bf dfc0 26bf f63a 4cbf fdf5 e03d
00000120: 9ffd c13c 00ae bd3e 47cc 51be 7aa8 bd3d
00000130: d1e5 84be 01d4 cc3e 2d51 713e 5a2e 4c3b
00000140: c457 893e 6295 793d c021 88bd 9c4b 03be
00000150: f4d4 133e 5ff4 823e 39b5 34bd 93d7 11bf
00000160: 5853 a6be fd51 8a3d 5dd9 05bf 0874 07bf
00000170: 8a0b 8abd 6b45 46bd f068 efbd 3d03 1abe
00000180: 891a 583e 2f7f 013e 2ea7 89be 4159 da3e
00000190: 319e 00bf e60c babb f756 0fbf 4297 e63e
000001a0: 4e90 14be ff76 b13c 4e43 f03d f4f1 853d
000001b0: be6b b7bd ceab 543e b943 be3e a421 14bf
000001c0: f22f 103f 5021 d1be b9ee 3b3e 49f1 38be
000001d0: e750 d4be b553 3abe 7728 e9be 654a 0cbf
000001e0: ee8e f9bd 8782 2ebe 5f1d 303f 9df5 edbe
000001f0: 077e 1cbd f1af 53be 1d2a fdbe a5b0 20bd
00000200: 1363 1c3f b7b2 583e a72e 9bbe 1840 5a3e
00000210: ccc2 923d 0056 dd3d 5ce7 033d 1d83 45be
00000220: 8776 ba3e 5903 fcbe f9db 1bbf 39e0 9abe
00000230: 54b2 d9be 4e3e c93d 1a4c febd 6c8b aa3c
00000240: c0de 37bf f176 00c0 17cb 9f3d 6090 1dbd
00000250: 4fdc 7ebe 0f26 6f3e 3053 e63e e29d 173e
00000260: 3557 5e3e 7da3 583d 35d4 a23e 109a b83d
00000270: e057 e7be 224c d1be 7bf1 d43c 9154 5d3d
00000280: 6db8 213d c4e5 663e 980a 13bf 1f10 ddbd
00000290: c00c 82be 22d6 12bb 7426 85be d1fb 1ebc
000002a0: c46f e53d 2dc2 bf3d a1f6 01be 5621 af3f
000002b0: 869b 6d3e b1d6 bbbe c1c0 5d3d 9bc6 443f
000002c0: 91b8 43bf 25ef 6c3e c6ff 30bd 445c 97be
000002d0: c6d5 53be f889 61be 4e2f 0e3f 636c 08bf
000002e0: 5c04 b23d cc53 afbd f870 7cb8 ec3b 00be
000002f0: 88dc 0d3f 79e8 1cbf 7390 383e d3ce 82be
00000300: c3c5 573f 03b7 e13e b464 6d3e 95de 49bf
00000310: e88d b63e b7c6 b13b 1be4 173f 331f 913e
00000320: 71a2 5fbb 965b 6d3e 7e01 703f d03a 903e
00000330: a8f1 2e3e cb53 353e 24b2 d03e 123d b63f
00000340: 5ba7 453f db45 c03e 0c98 983f 594b 64bf
00000350: 86ce debe adae 29bf 21f7 56be 7d64 08bd
00000360: ea9d 893f 74a4 c1be dfc7 9f3e 9d12 20be
00000370: c802 0f3e 7f8d 6cbd af96 eabe 8dd6 10be
00000380: f353 3fbe d053 3bbf 6aca 21be 59ab ccbd
00000390: 9fdf c23e 0352 083e 7c22 ab3e 678e de3e
000003a0: f019 5a3e 8776 12bf 1950 18bf 753d 683d
000003b0: 9325 693e c39a 85be fccd dc3e 3409 c2bd
000003c0: c9cd 66be b4b9 033e 845c 84be bed4 08bf
000003d0: ac1a 213d 3765 f53e c759 aa3d 9176 19bf
000003e0: 692e d13e 3b63 b8be c2c8 eebd a7ec cbbe
000003f0: 09c6 4bbf ad7f 23bf 1d70 553f 588f 1e3e
0.7821985 -0.69552374 0.011222315 -0.0059546325 -0.1307681 -0.51761216 -0.03368486 -0.15842885
-0.28622016 -0.33024225 -0.54595554 -0.3970659 -0.15029065 -0.110181734 -0.90273947 0.94508463
-0.38389927 -1.2803664 1.434636 0.7741922 -1.5991039 -0.33482417 0.18788809 -0.05443393
-0.76050943 0.43818137 1.5979059 0.6852208 0.45038494 0.49794066 -0.4650313 -0.0776508
-0.22655903 -0.24909978 -1.164646 0.5625724 -0.35349897 -0.3430848 -0.19652626 -0.5046933
-0.2928916 -0.38754666 0.81068254 -0.4808448 -0.006086308 -0.64380616 -0.21542244 -0.91403997
0.51578695 -0.1408862 -0.47186935 -0.9441027 -0.15664811 -0.41135284 0.22713497 -0.6461095
-0.737693 -0.4976797 0.18284538 -0.63459367 -0.5428333 0.25287774 -1.4506245 -0.99002373
0.58824724 -0.29381534 -0.78637344 -0.9031011 -0.50702727 -0.6513805 -0.7977747 0.109844185
0.023680506 0.37046814 -0.20488082 0.0926065 -0.25956586 0.40005496 0.23566122 0.0031155557
0.26824772 0.06093348 -0.06647062 -0.12821811 0.14436704 0.25577065 -0.04411814 -0.56969565
-0.3248546 0.06753919 -0.52284795 -0.52911425 -0.06740482 -0.048406046 -0.11689937 -0.15040298
0.21103872 0.12646173 -0.2688536 0.4264622 -0.5024138 -0.005677807 -0.5599207 0.45037276
-0.14508173 0.021663187 0.11731587 0.065402895 -0.08956097 0.20768663 0.37161043 -0.5786383
0.5632316 -0.40845728 0.18352784 -0.18060793 -0.41467974 -0.18195994 -0.45538685 -0.5480102
-0.12185465 -0.1704198 0.68794817 -0.4647645 -0.038206127 -0.20672585 -0.49446192 -0.03923096
0.61088675 0.21161924 -0.3030903 0.21313512 0.07166061 0.10807419 0.032203063 -0.19288297
0.36418554 -0.49221304 -0.60882527 -0.30249193 -0.42518866 0.09826337 -0.12416859 0.020818435
-0.71824265 -2.0072596 0.07802408 -0.038467765 -0.24888729 0.23354362 0.44985342 0.14806321
0.21712954 0.05289029 0.31802526 0.0901376 -0.4518423 -0.40878397 0.025994053 0.054035727
0.039482523 0.22548586 -0.5743804 -0.107940905 -0.25400352 -0.0022405465 -0.260059 -0.009703592
0.11202958 0.09363208 -0.12691738 1.3682048 0.23203859 -0.36687234 0.054138903 0.7686555
-0.764535 0.23138101 -0.043212675 -0.2956258 -0.20687017 -0.22025287 0.5554093 -0.53290385
0.08692238 -0.08560905 -6.0186692e-05 -0.12522858 0.5541463 -0.61292225 0.18023853 -0.2554842
0.84286135 0.4408494 0.23182946 -0.7885526 0.3565514 0.0054253 0.59332436 0.28344116
-0.0034123922 0.23179469 0.93752277 0.2816987 0.17084372 0.17707746 0.4076091 1.4237387
0.7720849 0.37553295 1.1921401 -0.8917747 -0.4351694 -0.6628216 -0.2099271 -0.033298958
1.0751317 -0.3782078 0.31207177 -0.156321 0.13965905 -0.05775213 -0.45818087 -0.14144345
-0.18684368 -0.7317476 -0.15799871 -0.099936195 0.38061234 0.13312535 0.33424747 0.4346802
0.21298957 -0.5721211 -0.5949722 0.056699235 0.2276824 -0.26094636 0.43125904 -0.094744116
-0.22539438 0.12863809 -0.25851834 -0.5344962 0.039332077 0.47928783 0.08317905 -0.5994654
0.4085572 -0.36013207 -0.11659385 -0.3982899 -0.7959905 -0.6386669 0.83374196 0.15484369

a2c_network.actor_mlp.0.bias f4 [128]
00000000: 4f46 d4bf 1cc5 02c0 f93d cdbe b306 c8bf
00000010: 640e 02c0 e923 703e 940a 48c0 8de1 57bf
00000020: 35d7 673e 0d14 fdbf bf91 c2bf 2b6b a2bf
00000030: 3a68 ccbf 3cdb c7bf 1091 eabf f8c1 b4bf
00000040: 1cd5 85bd b8a8 9bbf 53e1 20c0 6e2c 01c0
00000050: 5c49 77bf 5062 92bf b8cb a3bf 9077 2abf
00000060: 124f bebf f21b c03c c2fa 39bf b9ac a6bf
00000070: 7fe0 b7bf 4673 df3e 8f29 13c0 1a25 f3bf
00000080: 7290 cbbf 254d e3bf 9345 88bf f4c5 f7bf
00000090: bf28 03c0 9d82 d8bc 1d81 a4bf 3c05 89bf
000000a0: 2118 a7bf da9d ebbf bf92 b9bf 5dbf 37bf
000000b0: 275d adbf 97b6 6cbf 0ea6 09c0 25fe 94bf
000000c0: bac8 17c0 6a5a 88bf e539 b3bf 3321 16c0
000000d0: aa27 c4bf 1090 7c3e 26fa 75bf 6285 08c0
000000e0: bd74 c6bf e68a c6bf 70ef c1bf 8dc2 8fbf
000000f0: 8dcb 13c0 c2b7 57bf 93cd 01c0 1a6c 47c0
00000100: cbe1 a4bf 96c0 fabf 6a5b edbf 9d5a 8fbf
00000110: 3cf2 0bc0 09b0 cabf b37f bbbf 7e72 57c0
00000120: 686f bbbf d5db 05c0 4690 d9bf 0e5c d6bf
00000130: e3f6 0ec0 b61d efbf fe0c b7bf 7f20 10bf
00000140: 6af4 a0bf 0300 42bf e3e5 b0bf a556 e23e
00000150: 7da3 83bf 485d d8bf e971 09c0 4bc8 9ebf
00000160: ba38 bebf cfb1 05bf 8ee4 01c0 ce17 efbf
00000170: 2784 0abf fd83 a5be 8aca a6bf 225e 12c0
00000180: 28a7 efbf c5c4 c1bf 2fa8 a4bf cf57 efbe
00000190: b504 e8bf 49f2 aabf ec3f f8bf 9be6 ebbd
000001a0: 8064 72bf 4c4e c5bf bf5d d7bf 7c7c 01c0
000001b0: e64d 17bf cc11 20c0 6393 98bf dfdc 1fbf
000001c0: 2930 12c0 b1d2 8cbf 7bf7 debf d1aa 0a3e
000001d0: 92e5 5bbf caa7 08c0 011f 4cbf f4e4 dc3e
000001e0: 0cb6 91bf 637c bebf 7ca8 f8bf 33d5 8fbf
000001f0: 3df1 2fbe 0256 f6bf 5189 9abf c690 f8bf
-1.6583956 -2.0432806 -0.40086344 -1.5627044 -2.0321283 0.23451199 -3.1256456 -0.8432854
0.22640689 -1.9771744 -1.5200728 -1.2688955 -1.5969307 -1.561378 -1.832552 -1.4121695
-0.06534788 -1.2160864 -2.5137527 -2.0183368 -0.9659631 -1.1436253 -1.2796545 -0.6658869
-1.486788 0.023450825 -0.7264825 -1.3021461 -1.4365386 0.43642634 -2.2994115 -1.8995697
-1.5903456 -1.7757918 -1.0646232 -1.9357285 -2.049362 -0.026429469 -1.2851902 -1.0704722
-1.3054239 -1.8407547 -1.4497908 -0.7177637 -1.3544053 -0.9246611 -2.1507602 -1.1640059
-2.3716264 -1.0652592 -1.4002043 -2.3457763 -1.5324605 0.2466433 -0.9608482 -2.133141
-1.5504376 -1.5511138 -1.5151196 -1.1231247 -2.3092988 -0.8426477 -2.0281723 -3.115973
-1.2881407 -1.9590023 -1.8543522 -1.1199528 -2.1866598 -1.5834972 -1.4648346 -3.366363
-1.4643373 -2.0915425 -1.6997154 -1.6746843 -2.2338188 -1.8680942 -1.430084 -0.56299585
-1.2574589 -0.7578127 -1.3820156 0.4420673 -1.0284268 -1.6903467 -2.1475775 -1.2404875
-1.4861062 -0.5222444 -2.0295749 -1.867914 -0.541079 -0.32327262 -1.303056 -2.2869954
-1.8722887 -1.5138174 -1.2863826 -0.4674668 -1.8126436 -1.335519 -1.9394507 -0.11518594
-0.946846 -1.5414519 -1.6825484 -2.023223 -0.5910324 -2.5010862 -1.1919979 -0.624464
-2.2841895 -1.1001798 -1.7419275 0.13541724 -0.8589717 -2.135241 -0.7973481 0.43143427
-1.1383681 -1.488171 -1.9426417 -1.1236938 -0.17181869 -1.9244998 -1.2073156 -1.9419181

a2c_network.actor_mlp.2.weight f4 [128, 128]
00000000: 7556 8cbe e6c1 4cbe 3659 1dbe 3895 123e
00000010: f5f5 63be a4e9 38bf b143 dc3e 3c73 a5bd
00000020: 2456 8bbd 0b3b 7f3d ff52 2abe ea90 4dbe
00000030: a0cd fd3c 41a9 f5be afa3 2e3d 990e fabc
00000040: 03d5 e4be 6d9f f7bd c151 a33e 4e4b bbbd
00000050: 04f2 81be ed2c b9be 20be ccbd b6e0 46bf
00000060: 88ed 5cbe 3212 cfbe 44e0 1dbe 3f8d fbbd
00000070: 3f0c 6abe 3482 05bf bfcc 80bd fffb cabe
00000080: e5dd 26be 472e 43be be69 16bf 179f fbbd
00000090: ef7e 293e fbff 19bf 0255 2dbd 6b7d 4fbe
000000a0: 08e5 0bbd fa73 b9be e886 c0be aa9f 0abe
000000b0: e175 8e3d 7a90 0c3d 5d84 633e fc2d bebe
000000c0: 5e6b 7b3d 8327 2ebf 46c6 67be 9689 1b3e
000000d0: 14c3 28be 3f3f 17bf 6369 0ebf b688 203e
000000e0: b672 873e 1fc2 2c3e 65e5 533c 8844 77bd
000000f0: dea4 5a3e 1878 24bf 087a 913c dc18 853d
00000100: cdab 07bf bff4 a23d 4c77 a8bd 4e3a 44bf
00000110: a2c2 0c3c 83aa 90be 9517 99be 208e 1c3f
00000120: 37a2 82be e501 3d3e 703e 1dbe f02c 81be
00000130: 3f09 86be cee3 6abe 5c91 28bf 205c 4dbf
00000140: 82fc 77bd 7564 04bf c47f adbd f33b 44bf
00000150: 7866 15bf 69e0 a6be bafa 703e 321b 90be
00000160: 96cd bebd 4258 2dbf cfce 5ebe 6c7e 3dbe
00000170: 7bbf dabe 03ae f2bd 10bf 81be e6ef f5bc
00000180: 5b6f 14be 715b 393e b365 7cbe f782 03be
00000190: e690 a7be 3d1d 07be 5f64 f3bc 7148 f1be
000001a0: 29a1 d1be 83b8 9abe 7145 f8be 9d77 5c3d
000001b0: 4b4a 11bf 66be a4bd 2a75 f3be a881 10bf
000001c0: 96a0 823e 9ecc 76be 8a21 6cbe 694a 26bf
000001d0: 35ce e8be bd4e 21be a6cb c4be 8a26 61bf
000001e0: 45eb 87be 91ee 51be df1f 43be 637c bebd
000001f0: 08fe 1fbd d56b f5bd 3533 49be ceb1 593e
00000200: c5c2 6fbd ce46 dc3e 589b 633d 495c f3be
00000210: a6b4 dcbe ef4a 5bbe a2af 3c3f f986 9f3e
00000220: 30e6 d6be f20d 383c 73d7 05bf 4178 5abd
00000230: 7d93 b8bf eb31 1fbf 5bf3 a33e c5c2 27bf
00000240: 1358 15bd 6db3 17bf 9afc 4ebf 3eaf 3c3e
00000250: 3f7d debe 1aea e03e d290 15be 931b 80be
00000260: e00e b7bc b690 bebd 8774 15bf 20df 78be
00000270: ffa3 743c 498a 0bbe cc09 743e c980 423e
00000280: 2539 773e b8a8 d3be ac7c dabc 1b27 b33e
00000290: 3aa8 3dbf d8f3 373e 5ada 663e 83a4 b7be
000002a0: 6763 6bbe bba9 333d d1a6 b73e 7ab8 7dbe
000002b0: cc5a 74bf 5c77 e43e 0d9c 8f3d 2791 8dbf
000002c0: 2b14 bbbe 5b61 21be ceb6 abbd 29e7 a73e
000002d0: 5504 59bc 063e cebe 779e 84bf ed22 95be
000002e0: 1839 c63e bd6d 49bf cb54 98be 75f1 ae3e
000002f0: 7e7a 02be 7489 06bf e682 9dbd 4fc8 08bf
00000300: e7c1 63bf 7b04 85bf bb46 5a3e eb56 263e
00000310: e67c b43e 8483 69bd a5c5 30bd 7c24 dfbe
00000320: 735b c4be 0753 8dbb 3ba5 09bf 10b0 d23e
00000330: 604d a33d af2e 7cbf 38a6 813e f648 f53d
00000340: 527a f8be 0bbb 55be 7e61 0dbf 8e1d ccbe
00000350: 1627 4fbe 9443 acbd de31 1fbf 2efb e5be
00000360: d4fc d63e 6236 54be d76a dbbc c7bc 0a3f
00000370: 015b 92bd c129 043e 8ae3 f1bd 5f16 1d3d
00000380: 28ce 213e e9b4 de3e 792b 03be 4b0d 9cbb
00000390: 66f4 8b3e 570d c83e 9879 5f3f f7fd 4a3d
000003a0: 51a1 8b3e 722f bfbc 2436 64bf 5768 123e
000003b0: d96a 3dbf 5064 083e 1b58 f2be 97f3 abbe
000003c0: d6ed 2c3e 824a 1d3e 3a23 c33d 221e 2bbe
000003d0: b3d5 4fbf ffd5 153e 8212 653e d04d cfbe
000003e0: 63c1 a43e 67fe 603d 61fa d33d 10a0 10be
000003f0: e9e8 303e ba20 07bf 3a7a 79bd e87b f6be
-0.2740971 -0.19995841 -0.15366063 0.14314735 -0.22261794 -0.7223151 0.43020394 -0.0807862
-0.068035394 0.062312167 -0.16633223 -0.20074812 0.030981839 -0.47980693 0.04263657 -0.030524539
-0.44693765 -0.12090955 0.3189831 -0.091452226 -0.25379956 -0.36167088 -0.09997201 -0.7768663
-0.21574986 -0.4044357 -0.15417582 -0.122828 -0.22856234 -0.521518 -0.06289052 -0.39645383
-0.16295584 -0.19060622 -0.587551 -0.12286203 0.16552328 -0.6015622 -0.042317398 -0.20262687
-0.034153968 -0.36221296 -0.37602925 -0.1353747 0.06956077 0.03431747 0.22218461 -0.37144458
0.06138169 -0.6802904 -0.22634229 0.15189204 -0.16480666 -0.5908088 -0.5562956 0.15677151
0.26454705 0.16870926 0.01293311 -0.06036809 0.21351954 -0.6424575 0.017758384 0.06498882
-0.5299652 0.07956838 -0.08225879 -0.76651466 0.008591326 -0.2825509 -0.29900804 0.61154366
-0.25514385 0.18457754 -0.1535585 -0.25229597 -0.2617893 -0.22938463 -0.658468 -0.80218697
-0.060543545 -0.51715785 -0.08471635 -0.76653975 -0.5835948 -0.32593086 0.23533145 -0.28145748
-0.09316556 -0.67712796 -0.21758579 -0.18505257 -0.42724213 -0.11849596 -0.25341082 -0.030021619
-0.14495604 0.18101288 -0.2464817 -0.12842928 -0.32727736 -0.13194747 -0.029710947 -0.4712558
-0.40943268 -0.30218896 -0.4849048 0.05382501 -0.5675399 -0.08044128 -0.47550327 -0.5644784
0.25513142 -0.24101493 -0.23059669 -0.6495729 -0.45469823 -0.15752693 -0.3843662 -0.8794943
-0.26546684 -0.20501162 -0.19055127 -0.09301069 -0.039060622 -0.11983458 -0.1964844 0.21259233
-0.058535356 0.4302277 0.05556807 -0.47531345 -0.43106574 -0.21415304 0.73705494 0.31157663
-0.41972494 0.011233794 -0.52281874 -0.05333734 -1.442001 -0.62185544 0.32021603 -0.6553157
-0.036460947 -0.59258157 -0.8085419 0.18426225 -0.4345493 0.43928605 -0.14606026 -0.25021037
-0.02234596 -0.09304945 -0.5838093 -0.24303865 0.014931678 -0.1362697 0.23831862 0.1899444
0.24142893 -0.4133966 -0.026670776 0.34990773 -0.7408482 0.17964113 0.22544232 -0.358677
-0.22987138 0.04386304 0.35869458 -0.24777403 -0.95451045 0.44622314 0.07012186 -1.1059922
-0.36538824 -0.15759794 -0.083844766 0.3279355 -0.013245662 -0.40281695 -1.036086 -0.2912821
0.38715434 -0.7868307 -0.29752192 0.34168592 -0.1274204 -0.52553487 -0.076909825 -0.53430647
-0.88967746 -1.0391992 0.21316044 0.16244094 0.3525154 -0.05701019 -0.04315724 -0.43582523
-0.3835102 -0.004312876 -0.53767747 0.4114995 0.079737425 -0.98508734 0.25322127 0.11976807
-0.48530823 -0.20872132 -0.55226886 -0.39866298 -0.20229754 -0.08411327 -0.62185466 -0.44918197
0.41989768 -0.2072387 -0.026784344 0.541943 -0.07146264 0.12906553 -0.11810978 0.038351413
0.15801299 0.43497398 -0.12809552 -0.004762327 0.273349 0.39072677 0.8729491 0.049558606
0.27271512 -0.023338053 -0.8914511 0.14297615 -0.7399116 0.13319516 -0.47332844 -0.33584282
0.16887602 0.15360454 0.09528203 -0.16710714 -0.81185454 0.14632414 0.22370341 -0.40489054
0.32178792 0.054930117 0.1035049 -0.14123559 0.17276348 -0.5278431 -0.06090758 -0.48141408

a2c_network.actor_mlp.2.bias f4 [128]
00000000: f969 cdbf 3c67 0dbf c701 bcbd 6cf0 06bf
00000010: a8e1 86be f237 2fbf 3643 acbe 56c3 0fbf
00000020: f7a0 2bbf 737f 2dbf fdec 00bf 8388 45bf
00000030: fb8b 16bf ceee 11bf 854d 06bf c64f a1be
00000040: 9c84 b9be 0aa2 c7be f238 b1be 0c11 f7bf
00000050: 5130 79be 82b3 26bf 0ba2 29be 00ab 3cbf
00000060: 4530 0abf 37e7 3b3e f7b6 a1be 2d2e ddbe
00000070: c182 d93d fb8c 97be bf22 7abe 2f7e 6abf
00000080: 2ac5 f6be 0ade 7dbe 159c 6cbf 1b2b 65be
00000090: 4c85 c8be ba89 9ebe 4f06 c1be 1c89 4dbe
000000a0: bf32 81be 2685 06bf bdaa 66bf fe3d a0be
000000b0: 739e dfbe 24f0 02bf 660c f6be a503 7dbf
000000c0: 67d2 0fbf da30 30bf 4cd4 85bf 1e56 96be
000000d0: badf 92bf 3059 0ebf a62a 25be e3e1 8fbe
000000e0: cb3f b53d f297 6fbf f388 1dbf 12b0 e0be
000000f0: ff03 47bf 5111 41be d02f 2fbf d62c e6be
00000100: 57f4 dabe 57cb 3dbf ec23 14bd 8b9e 94be
00000110: 1cc0 2dbf 9e44 e4be 9c81 b8be 53cc 28bf
00000120: dd27 edbe dcb6 3bbf 8d4c 17be 8fc9 4fbc
00000130: 4eff 35bf ddc2 1fbf 6151 5dbe c8e7 4fbe
00000140: b9f8 aabe 6a14 5bbe 46d7 b1bd 21d9 2abf
00000150: 717a e1be 502d 823e bd0e c2be 5b9b 28bf
00000160: b8e5 49bf a33b 9abe 45ff 18be 2b37 0dbf
00000170: 987d aabe 80bc 34bf 40af 39bf 910f babe
00000180: 5633 25bf 9271 04bf b5c2 9abe f237 05bf
00000190: fead 4dbf 2315 28bf 2474 d7be 8c94 0ebe
000001a0: e15c 36bf 1eba 14bf ff38 e0be 5706 083d
000001b0: 72a5 07bf e58d f0be 1978 e1bf 9538 dbbd
000001c0: 108d 09bf 746b d3be 5160 edbe b680 29bf
000001d0: 4244 a0be 3bd9 efbe 555f d2be 9dc0 d9be
000001e0: ea46 babe bae3 a1be 02bb d1be b2c8 17bf
000001f0: ee3d 78be d79d b7bf 0d8d aabe ae1e 22bf
-1.6047965 -0.5523565 -0.091800265 -0.52710605 -0.26344037 -0.6844474 -0.33645028 -0.56157434
-0.6704249 -0.677726 -0.50361615 -0.77161425 -0.58807343 -0.5700501 -0.52462035 -0.31506175
-0.36233985 -0.38990813 -0.34613758 -1.9302077 -0.24334837 -0.6511766 -0.1656572 -0.73698425
-0.53979903 0.1834992 -0.31584904 -0.43199292 0.106206425 -0.29599747 -0.24427317 -0.9159879
-0.481973 -0.24791732 -0.9242566 -0.22379725 -0.39164197 -0.30964452 -0.37700126 -0.20071834
-0.2523403 -0.5254692 -0.90104276 -0.31297296 -0.43675575 -0.51147676 -0.48056334 -0.98833686
-0.56180423 -0.6882454 -1.0455413 -0.29362577 -1.1474526 -0.5560484 -0.1612955 -0.28102025
0.08850058 -0.93591225 -0.6153709 -0.4388433 -0.7774047 -0.18854262 -0.6843233 -0.44956082
-0.42764542 -0.74138397 -0.03616707 -0.2902721 -0.6787126 -0.445836 -0.36036384 -0.65936774
-0.46319476 -0.73325896 -0.14775296 -0.012682333 -0.7109269 -0.6240671 -0.21613075 -0.20303261
-0.33392885 -0.21394506 -0.08683638 -0.6673756 -0.44038728 0.25425196 -0.3790187 -0.65862054
-0.7886615 -0.30123624 -0.14941128 -0.55162305 -0.33298945 -0.7060013 -0.72533035 -0.3634
-0.6453146 -0.51735795 -0.30226675 -0.5203849 -0.80343616 -0.6565725 -0.42080796 -0.13923854
-0.7123547 -0.5809649 -0.43793485 0.03320917 -0.52986825 -0.46983257 -1.7614776 -0.107041515
-0.5373087 -0.41292918 -0.46362546 -0.6621202 -0.31302077 -0.4684542 -0.41088358 -0.42529765
-0.36382228 -0.31619054 -0.40962988 -0.5929061 -0.24242374 -1.4345044 -0.33310738 -0.63328063

a2c_network.critic_mlp.0.weight f4 [128, 361]
00000000: 6c12 e73f 37cb 1cbc 46b9 2abe 4cdb afbe
00000010: bf4f a03e 700b 7f3d 6897 713e faf3 953d
00000020: 0218 b13e 08e2 41c0 b938 81bf 02f4 78bf
00000030: 9399 1d3e 6e86 203d c0ec 553e 4a99 b03c
00000040: 4c55 e4bd 2393 00bd ce14 193e ef1a cabe
00000050: d25b 6d3f 3b6c 8f3e 365d 3f3e 745d ca3d
00000060: 53ad 9ebe fd25 54bd b8e5 953e 9ae6 0a3e
00000070: 0ef9 543e 6e4d c8bd 8471 573e 160e 9c3e
00000080: f1ef 9bbc 2d78 4cbe 4255 f33d 9255 733d
00000090: 9792 32be 1a01 5c3e fca9 6a3d 2a2e 3a3c
000000a0: 5905 6c3c badc 24bd 6adc 3abe 5c25 413e
000000b0: d7e3 8bbd a464 60be dbff 20be f2b8 c03e
000000c0: ee9d 9abb ab59 6abd 536a 9a3c 8249 2d3e
000000d0: 2406 fabd 4b32 103e f1d2 5abe 84ff a2be
000000e0: 61a4 863e ca91 e53d 6870 34be bde8 06be
000000f0: cb4b 52bc 66a4 cf3d a088 8e3f 315a 88be
00000100: 42e9 6d3d ff13 293e 74cc ba3d 0a9c 21be
00000110: cb2b 0a3e bec3 11be 249b 5fbd f8ff dd3c
00000120: bc9d 42bd 6d14 7d3d 600e 593d 068b 53bc
00000130: be88 76bd 022b 743d 40a7 633d 470d d33c
00000140: 9093 4f3d 899e ae3c 0e3c 013d 0943 fc3c
00000150: 45f6 1d3d 64a9 713d 1ff6 e3be 070e 46bd
00000160: 0e82 013c fd13 81bd efce d2bc 0e3e 693e
00000170: cc64 8fbd a401 86bd fc0a fd3c a659 25bd
00000180: 9a46 293e 7f74 863e d2d9 d3bc 3079 dfbd
00000190: b0b2 94bd 8de4 153e 35f1 223c ba91 2a3d
000001a0: 3e0e 20bc 2ccb 8f3d dc71 15be a674 3e3e
000001b0: 4600 5bbd c889 1b3e 38f1 9abb c133 6cbc
000001c0: 73fd dbbd 3654 303e cff7 adbd feda ec3d
000001d0: 7473 81bc 66c0 6e3e adad a43e da38 51be
000001e0: 7f70 923c f8ab 713d 2f66 f93c e759 6cbe
000001f0: b9fc 593e f816 433e 5583 533d bd69 8a3e
00000200: f4dd b73d f09a 2cbd 4f1f b03d 6444 8fbe
00000210: 38a9 743d e946 393d 7294 80bd dc5d 793e
00000220: 81ff f43f 2c43 1840 2bb8 483e 54b2 4cbe
00000230: 246c 40be b3e9 503e 5970 05bd b73e d5bd
00000240: ca1b 2b3f dc94 2840 d0e3 243e 421b ecbd
00000250: 9d28 1abd 7ebf c13d c3d7 fdbd f6dc dcba
00000260: e219 2f3d f5cf 3e3c 41f0 d0bd b10c 91bd
00000270: b775 a13c 75bb 7fbe e246 a23d 93b0 e53d
00000280: 2e76 65bd 0bdd 663e 5ec8 8c3e 91ee 893e
00000290: ca09 29bd c19e 18bd 63a2 e73d 02ee c2bd
000002a0: 612c 29be 651b d73d a4b3 cfbd a5e1 973d
000002b0: 09c9 f1bd c47c e43b 2a81 afbd 04d6 a3bd
000002c0: 88ef 853d 6d4a 8abd a2ce c43c 7bf0 913d
000002d0: b260 6a3d 1bbb 2f3d 2254 34be 27e9 04bc
000002e0: 065b 09bd 5199 2cbd 9786 6d3d 43a4 123e
000002f0: c908 dc3d f5d3 90be 6c2a d13d f58e 353d
00000300: 1f2a 53be 99c4 9a3d 4a92 593c 3307 d0bd
00000310: f763 de3d e876 3e3f d945 953d e09e 83bd
00000320: 12fe 973d fb4e 833d d48d a0be 478a 4d3c
00000330: 2587 3e3e ab2a 93bd 6807 7bbd 842a 8b3f
00000340: 079d 8b3f 50f3 533f 0c44 f3bd 395c e33d
00000350: c0f3 273e 1617 78bd bb5b febc 69c8 ac3c
00000360: 7938 583f 9242 0dbd 3687 74bd d095 183d
00000370: d45b c53c 2e78 1b3c ea16 713d ec43 9d3b
00000380: 514e 4f3d 39fc f23c 6441 0b3d 3f76 2fbc
00000390: 393b 0fbd 1c1e d3bc 4136 5abc 94df 37bc
000003a0: f90a c93b 4dec ee3b 5bd1 bfbd 7b93 1ebd
000003b0: 10e6 71bd 9df3 43bc 85ac edbc 0cee 983b
000003c0: d1e8 143d b775 8b3c ecc9 1c3d df1b 703c
000003d0: f9c4 6c3c 0e23 05bc 3e73 28bd 0fff 55bd
000003e0: cf51 93bb 9744 5e3d 21d1 e03d b81e c1bc
000003f0: 82ec 6d3d 05fa 5aba 6947 72bc b437 303d
1.8052497 -0.009569935 -0.16672239 -0.34346998 0.3131084 0.062266767 0.23592913 0.073219255
0.3458863 -3.0294209 -1.0095435 -0.97247326 0.15390615 0.039190702 0.20891094 0.021557469
-0.111490816 -0.03139032 0.14949343 -0.39473674 0.9271823 0.2801226 0.18687901 0.09881106
-0.3099161 -0.05179404 0.29276824 0.1356453 0.20798132 -0.097803935 0.21039397 0.30479497
-0.019035311 -0.19967718 0.11881496 0.059407778 -0.17438732 0.21484795 0.057291016 0.011363545
0.014405572 -0.040249564 -0.18248144 0.18861908 -0.068305664 -0.21913391 -0.15722601 0.37641102
-0.0047185337 -0.05721442 0.018849527 0.16922572 -0.122082025 0.14081685 -0.2136953 -0.31835568
0.26297286 0.11209448 -0.17621005 -0.1317472 -0.012835453 0.101387784 1.1135445 -0.2663131
0.05808378 0.16511534 0.091210276 -0.1578218 0.13493268 -0.14234826 -0.054591313 0.027099594
-0.04751371 0.061787058 0.052992225 -0.012911564 -0.060189 0.059611328 0.055579424 0.025763167
0.050677836 0.02131583 0.031551413 0.030793684 0.03856494 0.058999434 -0.44523713 -0.04835322
0.007904543 -0.063026406 -0.02573344 0.22777578 -0.07001647 -0.06543282 0.030889027 -0.0403687
0.16530839 0.26260754 -0.0258607 -0.109117866 -0.072606444 0.14637966 0.009945204 0.041642882
-0.009769021 0.07021174 -0.14594215 0.18599185 -0.053467058 0.15189278 -0.0047284625 -0.014416636
-0.10741701 0.17219624 -0.08494531 0.11565207 -0.015802123 0.23315582 0.32163754 -0.20431843
0.017875908 0.059001893 0.030444233 -0.2308117 0.21287812 0.1905173 0.05163892 0.27033797
0.08977881 -0.042139947 0.08599722 -0.27981865 0.059731692 0.04523364 -0.06278314 0.24352211
1.9140474 2.3790998 0.19601505 -0.19989902 -0.18791252 0.20401649 -0.032577846 -0.104123525
0.6683928 2.6340857 0.16102529 -0.115286365 -0.037636388 0.09460352 -0.12394669 -0.001685052
0.042749293 0.0116462605 -0.10202075 -0.07082499 0.019709451 -0.24973853 0.07923676 0.112153195
-0.056020908 0.22545259 0.27496618 0.26939824 -0.0412691 -0.037260775 0.1131027 -0.09518053
-0.16520835 0.10503272 -0.101416856 0.07416085 -0.118059225 0.006972881 -0.08569558 -0.079998046
0.065398276 -0.06752477 0.024024311 0.07125946 0.057221122 0.042903047 -0.17610219 -0.0081122285
-0.033534072 -0.0421384 0.057989683 0.14320473 0.10743863 -0.2828671 0.102131695 0.044325788
-0.20621537 0.07557029 0.013279507 -0.10157623 0.108589105 0.74400187 0.07288713 -0.064267874
0.07421507 0.06411549 -0.31358206 0.012545175 0.18606241 -0.07185873 -0.06128636 1.087235
1.0907296 0.8279314 -0.11878213 0.111015745 0.16401577 -0.06056889 -0.0310496 0.021091657
0.8446117 -0.034487315 -0.05969926 0.037252247 0.024091639 0.009489102 0.058859743 0.0047993567
0.050611798 0.029661285 0.03399791 -0.010709344 -0.03496859 -0.025771193 -0.013318599 -0.011222739
0.0061353412 0.007291353 -0.09366103 -0.038714867 -0.059057295 -0.011959937 -0.029012928 0.0046670493
0.036354844 0.017023904 0.038278505 0.0146550825 0.014451259 -0.0081260335 -0.04112553 -0.052245196
-0.0044958363 0.05426463 0.10977388 -0.023574218 0.05808688 -0.0008353296 -0.014787533 0.043021873
