python/rlgpu/saved_nn/241001162243532647/last_Aliengoep=2500rew=[862.5].pth (torch, 523930 bytes, 18 tensors)

running_mean f8 [361]
0	0xbfc36b01ffbf2d54	-0.15170311916004187
1	0x3fa61e199b6320af	0.04319839498345012
2	0x3f8d29d8b0889fd1	0.014239972007160791
3	0xbf9dc6bde3904845	-0.029078452124004412
4	0xbfcad0187b623e99	-0.2094755747279933
5	0x3fd375ff416b1b53	0.3040769709445403
6	0x3fd4f00cb4b95df6	0.327151466835374
7	0x3fdffd8310090a29	0.4998481422991597
8	0x3fe0f958c7caa67c	0.5304378416232818
9	0x3fba951e5b924aa3	0.10383786903029572
10	0x3fc100c966af30ed	0.1328365088833218
11	0xbfd6d8aa31382313	-0.35697417074747867
12	0x3fc41cba7621f356	0.157126720125144
13	0xbfb546e01015585b	-0.08311272041950828
14	0xbfd5ee278e1c5dff	-0.34266079786308973
15	0x3fb5954d6ef16ade	0.0843094249588989
16	0x3fc3b0ec50d4a935	0.153836764782065
17	0xbfd3bf5c69afc3fb	-0.308554747781329
18	0xbf92765f50166e24	-0.018029679549370084
19	0xbfc4aacfbb73788b	-0.16146275189288803
20	0xbfd3cc7541b64adc	-0.3093541280478982
21	0x3fdff61676c2d59d	0.49939500425110755
22	0xbf8e6bf2aed8f5c2	-0.014854331932947388
23	0x3fc3ee614ee20c5b	0.15571228362759623
24	0x3fdd35459af64f29	0.4563764584829522
25	0x3fc09f489e88e4c6	0.12986095181421414
26	0x3fc86a819dd63852	0.19075031477808807
27	0x3fdfa262734f1d72	0.4942861677231668
28	0x3fa4e49a8d8ac1c6	0.04080660798843243
29	0x3fc15a898df7809f	0.13557547981236426
30	0x3fde4ef260910212	0.4735685294181461
31	0x3fbe911209325ae6	0.11940109943894192
32	0x3fc13715f15f34ac	0.13449358258950406
33	0xbfd753e4be15e221	-0.3644954544356854
34	0x3fd9cfda67619ac8	0.40331134887530284
35	0xbfcad7f3d36e8454	-0.20971534560979654
36	0x3fd56c05366173dd	0.334718039613845
37	0x3fe003d8f4adc4b8	0.50046966351342
38	0xbfd89d5351565160	-0.38460238402446656
39	0xbfcd2bdca21049d2	-0.22790105736983307
40	0xbfcbabd5f701def5	-0.21618151245979048
41	0xbfd418b1a7323dc5	-0.3140071995521477
42	0x3fbb867d63cb8a22	0.10752090155032382
43	0xbfdad2bdacd89d29	-0.41911260489946983
44	0xbfd200565dff58d7	-0.28127059153974926
45	0x3fd614d8df020bc1	0.34502240923046307
46	0x3fd9b6f4e50437b3	0.4017917858590138
47	0x3fef5f43d4a8e91a	0.9803790238868573
48	0x3fd91eaf40109b64	0.39249783760390344
49	0x3fe2076a0ebc63c8	0.5634050643740176
50	0x3fad761464de9aff	0.05754150134389668
51	0x3fdad888491d4ff0	0.4194660867699431
52	0xbfc465db12030509	-0.15935839061243254
53	0xbf6e23e7ac80b82c	-0.0036792302016897174
54	0xbfc6424c8e046d67	-0.17389828619421197
55	0x3fe523d8c0cac4d7	0.6606258168668785
56	0x3fd23de33d223825	0.28502732248387225
57	0xbfd5fe3e016adfbb	-0.343642712959532
58	0xbfe3440088f74bd6	-0.6020510363690572
59	0x3fd71acf35626bcd	0.36101131642652434
60	0x3fd60d07dab31fcd	0.3445453296412751
61	0x3fd9a2724379d377	0.4005399378723306
62	0x3fef540aa70b3d04	0.9790089857650917
63	0x3fd91825c8f4db61	0.39209885239272607
64	0x3fe2035731f5a689	0.5629077888272188
65	0x3fad565fde200d17	0.057299610009090944
66	0x3fdad4d101da2522	0.41923928433296187
67	0xbfc45ceb11935644	-0.15908563955479071
68	0xbf6f80c5261c397f	-0.003845582062132979
69	0xbfc63c8a924ce9b1	-0.17372257369590963
70	0x3fe51ea9aec31ce4	0.6599930203746252
71	0x3fd239ebd73e76fa	0.28478523273393785
72	0xbfd5f885e5b8cfeb	-0.3432936423662329
73	0xbfe3416b9e4af3aa	-0.6017358867317075
74	0x3fd714d815cff0fd	0.36064722185234627
75	0x3fcca476a4de30c7	0.22376902628128034
76	0x3fce4431b87ca765	0.23645612247610895
77	0x3fce17258916c203	0.23508137887758104
78	0x3fcd5ede57dfd91e	0.22945765772573962
79	0x3fcc827c5478ae65	0.2227321064432203
80	0x3fcbc588b5e4cd60	0.21696576005488577
81	0x3fcb58a11c3e52e5	0.21364225272250006
82	0x3fcba9378cf260d0	0.21610159284751385
83	0x3fcc56508804728a	0.22138411179993894
84	0x3fcd31c47b3dbdad	0.22808128373752137
85	0x3fcdf9ebb975d867	0.23418947749786698
86	0x3fce2b75cafbae5a	0.23570129786763766
87	0x3fcd93c0adc310a5	0.23107155308219265
88	0x3fcd202221a0e688	0.22754313127534354
89	0x3fcb5f4038952551	0.2138443256647329
90	0x3fc891d3dba5cdf3	0.19195030426963874
91	0x3fc83a79195829c2	0.1892844556571856
92	0x3fc7fc52e3bd0e22	0.1873878108982448
93	0x3fca35a8c3dfe7f6	0.20476255001250337
94	0x3fcbf5591e05784a	0.2184249302471833
95	0x3fccf0b8a16604a1	0.2260962284163144
96	0x3fcf6a5dd2f475a0	0.24543354797871775
97	0x3fceac8cbab698f1	0.23964079968317933
98	0x3fcda602b3ba03df	0.23162874007905906
99	0x3fcb029b1cbe4c75	0.21101702598079766
100	0x3fc766358a30e09b	0.18280667541126125
101	0x3fc70464aca63a68	0.17982157163756374
102	0x3fc695d15931b97d	0.17644707541644414
103	0x3fc9832259b9c74d	0.19931439763200345
104	0x3fcc2b0867d362f0	0.22006325788131376
105	0x3fcdd64c57cf36d0	0.23310236251420813
106	0x3fd04ce99faf28c4	0.25469437212144563
107	0x3fcfbfeb4b8b030c	0.24804440678237716
108	0x3fcd4fafeb2a0466	0.2289943598043777
109	0x3fc99fe669298a01	0.200192262028466
110	0x3fc6b14f41d23aea	0.17728605951238957
111	0x3fc63409897a04d9	0.17346305096365347
112	0x3fc5cab1853d9e64	0.1702482128705355
113	0x3fc81aabaa2d38dd	0.1883139210644406
114	0x3fcbe0979d199572	0.21779151125808088
115	0x3fcee138196840c6	0.24124814262950717
116	0x3fd0de9c3977f796	0.2635870515076645
117	0x3fd06461195e0260	0.256126665852241
118	0x3fcdd110b6bbf928	0.23294266626903348
119	0x3fc948f5a0eebd02	0.19753904684100837
120	0x3fc643037af2d1d8	0.17392009261460717
121	0x3fc59ede52f329f2	0.1689107804325683
122	0x3fc55e9233b15a3b	0.16694858097135232
123	0x3fc7bc8070d21444	0.18544011601275845
124	0x3fcc5fe61ca01344	0.22167660138816292
125	0x3fcffac34bbf5134	0.2498401756153129
126	0x3fd168aa97c0961c	0.27201332873878115
127	0x3fd0e0d5b9452c2b	0.26372283070367314
128	0x3fce4f955278887c	0.23680368925949213
129	0x3fc906f270b72c02	0.19552450660407322
130	0x3fc5feea369f6783	0.1718418852531692
131	0x3fc530e9b01bf1b4	0.16555520152168202
132	0x3fc531955ed78a50	0.16557566767649456
133	0x3fc78a7499fc5f75	0.18391282576407844
134	0x3fccfb8e8a5bc153	0.22642690425665055
135	0x3fd08ac3a59189c2	0.2584694973831142
136	0x3fd23358e1b16a66	0.2843839839967245
137	0x3fd1cc6632564a97	0.27810053745012325
138	0x3fce9408abda48ad	0.23889263526195262
139	0x3fc7c45460b49242	0.18567900392476316
140	0x3fc5c8de4b5bef01	0.17019251517910308
141	0x3fc3bf7edc12e3ba	0.1542814802722015
142	0x3fc5401f2c5f1645	0.16601934115003494
143	0x3fc6e541eb14e2a2	0.17887138346283843
144	0x3fce209acbb33479	0.2353700155858041
145	0x3fd1a44e1827ae59	0.2756533847702705
146	0x3fc98ec79d5c5d96	0.1996697920192047
147	0x3fca30a3bd17367e	0.20460936291640403
148	0x3fca1c3fe974a51a	0.20398711108399753
149	0x3fc9e034f672b8f2	0.20215475114441223
150	0x3fc9ac511c427fb6	0.2005711925494304
151	0x3fc974de1693b740	0.1988790140380221
152	0x3fc94c3065bb8862	0.19763760535630853
153	0x3fc9745c8e1dc082	0.19886357249516
154	0x3fc9a86c0f99c056	0.2004523349928628
155	0x3fc9dbe062f42a53	0.20202259856917468
156	0x3fca19f57cb83bce	0.20391720380618356
157	0x3fc979ef8f897709	0.19903368481293907
158	0x3fc8b6429fa0d04b	0.19306214136452335
159	0x3fc8a71c316851ef	0.19259979641414257
160	0x3fc8320368b79e2b	0.18902628529689144
161	0x3fc7340ab663c5ed	0.1812756910872361
162	0x3fc78c80e8b16953	0.18397532808269065
163	0x3fc74352072ba020	0.18174195623510148
164	0x3fc88e3ab92d63b6	0.1918404964624451
165	0x3fc9010d73b5f486	0.19534462118091173
166	0x3fc8de1ef58de373	0.19427859296754554
167	0x3fca716b888f171c	0.2065863053123217
168	0x3fc93883bdbed9b6	0.19703718914906937
169	0x3fc8ae9c8eae58a2	0.19282872168395665
170	0x3fc7e7fd6e9b19b7	0.18676727200199902
171	0x3fc696c4349959e5	0.176476026232833
172	0x3fc71cfd5ad4dee2	0.18057219443448164
173	0x3fc6bd6124a3198a	0.1776544026271945
174	0x3fc8664038a09232	0.19062044873239042
175	0x3fc929a68c8e23b3	0.1965835748963208
176	0x3fc984aac79345f9	0.19936117882620843
177	0x3fcbbef482d5a922	0.21676498783501424
178	0x3fca24e9bb2efeb3	0.20425149574110932
179	0x3fc8435b467d6b26	0.18955555860414924
180	0x3fc729de163c7904	0.18096519551995283
181	0x3fc6588b00a1ac87	0.17457711726033073
182	0x3fc6e20b1bde6a6b	0.1787732969358616
183	0x3fc68197598068d2	0.17582980985827718
184	0x3fc788ce30213d86	0.18386247015085305
185	0x3fc8a8967b749acb	0.1926448920068736
186	0x3fca7e72a616a3d8	0.20698388204371443
187	0x3fcd5396441c7e04	0.22911337209460225
188	0x3fcb600183e91c87	0.21386736813494542
189	0x3fc8b3b55978ad6b	0.1929842650291492
190	0x3fc7304575b61c3b	0.18116062400460628
191	0x3fc652e7f2798b83	0.17440509166325677
192	0x3fc6bf971fbc14e9	0.17772187280221566
193	0x3fc673479e1f5d63	0.17539305897546872
194	0x3fc772552a582c8d	0.1831766564140235
195	0x3fc902bcbba8d819	0.19539603388847196
196	0x3fcbb20dd6784c92	0.21637127849735244
197	0x3fcf08cf7f65b696	0.24245637627193578
198	0x3fccdcdde083f5e2	0.2254903169886538
199	0x3fc93a005cf06897	0.19708256280938904
200	0x3fc746a5b5fe274d	0.18184348474852144
201	0x3fc66a38e61c1b62	0.1751166461546872
202	0x3fc6a173a81b2c19	0.17680211742694565
203	0x3fc67a8884ba2d9e	0.175614418800575
204	0x3fc7671f0bbd5e71	0.18283451150158528
205	0x3fc96239ac5cde23	0.1983100978484212
206	0x3fcd158548dc50c8	0.2272192579044996
207	0x3fd11ac1952a0455	0.2672580677681869
208	0x3fd0271945338a29	0.2523863960069855
209	0x3fca3b8eefca9866	0.2049425764900576
210	0x3fc6f1144c304de0	0.17923215599203868
211	0x3fc6aba0369bc3e4	0.17711260477474788
212	0x3fc5adf8bc137dab	0.16937169249920933
213	0x3fc697f3ee5a453a	0.17651223314582315
214	0x3fc6d3db184f7ebe	0.17834032713925824
215	0x3fc9ac86541989ab	0.20057753664430086
216	0x3fd01134f76dbf96	0.2510502258583015
217	0x3fc43d0a507b7b9a	0.15811280183603743
218	0x3fc49c370fd42ac1	0.16101730606927414
219	0x3fc4be0cc376b504	0.16204986137510258
220	0x3fc4a34d0960a502	0.16123354871641743
221	0x3fc49082444884a2	0.1606600602545188
222	0x3fc4837fbc213936	0.16026302991890312
223	0x3fc464c89234212a	0.1593256677517812
224	0x3fc46d14fb17d950	0.15957891712577998
225	0x3fc46d55fe6bd105	0.15958666727932083
226	0x3fc47baf2d3136e6	0.16002454477932487
227	0x3fc4a0c22cfffc02	0.16115596005690241
228	0x3fc2dd846dae9a11	0.14738517146652488
229	0x3fc2c6adecd9a851	0.14668821396782275
230	0x3fc440b2d63e08fd	0.15822444401789673
231	0x3fc40e3a672527dd	0.1566842082632424
232	0x3fc31899092d0b18	0.1491881651691862
233	0x3fc3151bf03a917e	0.149081699656687
234	0x3fc2237443aae533	0.1417069750221259
235	0x3fc26d71563d607b	0.14396492682385884
236	0x3fc2904aaf34b3dd	0.1450284343240175
237	0x3fc204ebd05f2efb	0.14077518152623
238	0x3fc354d2442bb032	0.1510260422577417
239	0x3fc32cabecc90f26	0.1498007684878015
240	0x3fc4a78c2e445fa6	0.16136314639220223
241	0x3fc454e6af21bb3a	0.15884097625117893
242	0x3fc2e298b6781d1a	0.14754017743710152
243	0x3fc2d610e86a36b4	0.14715777729400303
244	0x3fc1929d2ade6646	0.13728680222702588
245	0x3fc2427d4fb64c96	0.1426540984362858
246	0x3fc2798e1c98486c	0.14433456798775823
247	0x3fc229a9b0434110	0.14189644915178024
248	0x3fc3e84f43709a04	0.15552702706300192
249	0x3fc3d2c6793d096e	0.15486985130162217
250	0x3fc3b1da27de7d11	0.15386511751874157
251	0x3fc3f75fb98022b1	0.15598675305979762
252	0x3fc2eed57baa780e	0.1479136327588439
253	0x3fc2b7311dbbc9e9	0.146215571897826
254	0x3fc177d1b0f2ef80	0.13646908893667486
255	0x3fc1bedb6c1dcb63	0.1386369970237765

running_var f8 [361]
0	0x3fa7d73bae759819	0.04656397347098124
1	0x400aea6e5bd23be8	3.3644683049710586
2	0x3fb927425c518f54	0.09825529817459017
3	0x40126dde352ec1dd	4.607292967776144
4	0x3fce7d2b4432fc70	0.23819485502278637
5	0x3fcb1630b9e934b1	0.21161469533618552
6	0x3fcc2d056f6b6249	0.22012393894580587
7	0x3fd000027719e933	0.250000587758808
8	0x3fcfe1a965342d29	0.24907414857475743
9	0x3f944de636ecd0a3	0.019828412153586893
10	0x3f6d840df85f4b29	0.0036030075889156477
11	0x3f70adb6835702d9	0.004071915570819506
12	0x3f97f3ca893e24e9	0.023390926958687528
13	0x3f749d0eb199f94d	0.005032594106181354
14	0x3f74c8f664a438b1	0.005074465249221103
15	0x3f8cbdabdb718bda	0.014033644327531226
16	0x3f694e650dfbcfef	0.0030891393397442994
17	0x3f6bd7625f18f40e	0.0033986016576634864
18	0x3f8b117899b7b50d	0.013216917220200597
19	0x3f6dcc8f597ae8ec	0.0036375808520833133
20	0x3f6b5bf132c1ba1c	0.003339739885681382
21	0x40177eb733e29f5b	5.873745737749995
22	0x3ff78319ff104005	1.469507213918406
23	0x3ffe6db3454d46dc	1.9017822939971927
24	0x4019a18d62f4b23c	6.407765909371445
25	0x40003ca24f9b41bf	2.029606458592951
26	0x4005ed960988baa2	2.741008829579486
27	0x400f8f3bec9fc6a6	3.9449385153064496
28	0x3fe76ca55e08f450	0.732012447034899
29	0x3fec39f28778a8c1	0.8820736547397915
30	0x400b6ac0202f7ceb	3.4271242632381607
31	0x3fe84e079a7f5f3f	0.7595251100092141
32	0x3fea031997eade03	0.8128784148347566
33	0x40275c55bbc8ddaf	11.680341594953317
34	0x40264d2719dfe3c8	11.150688942508978
35	0x4022647909690a32	9.196235937187428
36	0x40282aa319ce62b7	12.0832756103931
37	0x4027221698094789	11.566578627712959
38	0x4022585acfd33213	9.17256783917495
39	0x40233d68049a7725	9.61993421922268
40	0x4023f19caf535614	9.971898535654908
41	0x401a7f6abe7368d4	6.624430633348499
42	0x4021b70600b1613e	8.85746767201692
43	0x4022bf9ea5cb4ad1	9.374257260385464
44	0x401ae0ed6043514d	6.719655517681827
45	0x3fd78da9142df685	0.36802126856478196
46	0x3fdbb21634715b3d	0.4327445518624023
47	0x3f8d5e62e8d08988	0.014340183954179478
48	0x3fe24280d76d7437	0.5706180770463395
49	0x3fdc538ea0335ad6	0.44259992260542214
50	0x3fe531956e8d9418	0.6623026999701578
51	0x3fe1dd26d5bb5144	0.5582460569808423
52	0x3fe48b761f579347	0.6420240986013618
53	0x3fe5f8dd4be9669f	0.6866289599085639
54	0x3fe5341908ef0a06	0.662609593819355
55	0x3fd57753912688b2	0.3354081075177745
56	0x3fe345f873444c4c	0.6022913218788601
57	0x3fe23122e2ee3a24	0.568498080467013
58	0x3fd6845a8937ad52	0.3518282260908637
59	0x3fe1fea5e9e91da9	0.5623349731985644
60	0x3fd785f022be1b38	0.3675499285968047
61	0x3fdbb85b838e7a1c	0.4331272873622838
62	0x3f9009c78c0e8593	0.015662305758842598
63	0x3fe23c8add5d3afb	0.5698904346007504
64	0x3fdc4ab55366eb06	0.4420598329995048
65	0x3fe529a250c62de3	0.6613322808856846
66	0x3fe1d610b32e76fd	0.5573810100210889
67	0x3fe483e60929fefc	0.6411009005532544
68	0x3fe5f0851c83a584	0.6856103474539599
69	0x3fe52c3e8755be88	0.6616509097347754
70	0x3fd572d7a6136ef6	0.33513442247725267
71	0x3fe33ee83145bb32	0.6014290773726769
72	0x3fe22aff19ac4723	0.5677485944199571
73	0x3fd679c98baef348	0.35118330613095283
74	0x3fe1f878c29b38c6	0.5615810204415304
75	0x3fbd88858a6a3e17	0.11536440495751098
76	0x3fbf8588ab3c369c	0.12313131504580571
77	0x3fbf4bdb29fd473c	0.12225122237330494
78	0x3fbe6f0509cbcd32	0.1188815258899936
79	0x3fbd5d8eb7eccd54	0.11470882406574862
80	0x3fbc71488847bc88	0.11110356642869779
81	0x3fbbef8eb7d4dd6b	0.1091241072471029
82	0x3fbc4d07c550ac67	0.1105503899313348
83	0x3fbd2515ef248355	0.11384713257258501
84	0x3fbe36fa060a9ec3	0.11802637717721169
85	0x3fbf2912c3ec91bd	0.12172047885230249
86	0x3fc04efbdefbe5a5	0.1274103964604311
87	0x3fbffa335d9da510	0.12491150889913549
88	0x3fbec3fd1369cb77	0.1201780483623177
89	0x3fbc91071878ef15	0.11158794734450013
90	0x3fb940d148da821e	0.09864528683329651
91	0x3fb8908eaecbef66	0.09595577018256804
92	0x3fb8b71bca244414	0.09654401478862012
93	0x3fbb9b48dd5729cf	0.10783820537395815
94	0x3fbdde768fd696d9	0.11667576800990832
95	0x3fbf7f5c9571a5e6	0.12303713463338503
96	0x3fc133f90c7dd30b	0.13439858541428182
97	0x3fc0cfe5c9446d6e	0.1313445313215697
98	0x3fbfaa48406d03cd	0.12369205067535845
99	0x3fbc61a50736f2d0	0.1108649389852403
100	0x3fb8089eecffcc45	0.09388154302705327
101	0x3fb72d8de40ab81a	0.09053885285786159
102	0x3fb740766485d24a	0.09082736925285775
103	0x3fbb196b1223ef3b	0.10585660164718728
104	0x3fbe8a1052a9eb70	0.11929418581159523
105	0x3fc083162f062758	0.1290004472360191
106	0x3fc2064ab3c4b1fc	0.14081701066733376
107	0x3fc1928886c9955a	0.13728434163491948
108	0x3fc007b9067aa463	0.12523567978249436
109	0x3fbb2eea5ec330d3	0.10618462384735787
110	0x3fb75964dfd40f03	0.09120779480513978
111	0x3fb64db818a7c721	0.08712339975297968
112	0x3fb6725ee39bac20	0.08768265778387319
113	0x3fb9c25120251292	0.10062129053864968
114	0x3fbee4fd7fa2eea1	0.12068161359905584
115	0x3fc1473285e7f033	0.13498527086619702
116	0x3fc2ca793be03b1e	0.14680400298717527
117	0x3fc2476ebf54edfe	0.1428049501645176
118	0x3fc07b7df464d5ae	0.12876867707534018
119	0x3fbb0eaa49f4649e	0.10569252305539797
120	0x3fb702dbbe021686	0.08988736523505211
121	0x3fb5c1dc62e94bec	0.08498933234049816
122	0x3fb61261d445062a	0.0862179892765417
123	0x3fb98681c3745a0f	0.09970866224134788
124	0x3fbfcc18f74120e1	0.12420803104862756
125	0x3fc2069a80a88db3	0.14082652361058265
126	0x3fc3818577ba9501	0.1523901781667192
127	0x3fc2ed0299104960	0.14785797571000625
128	0x3fc0ebb5d74b7a0a	0.1321933079952518
129	0x3fbb0a07d0356aa2	0.10562180360049436
130	0x3fb6e1b231061616	0.08938134858006949
131	0x3fb574fabf236bdb	0.08381621519531228
132	0x3fb5fb1444d0b5ec	0.08586241416988799
133	0x3fb979c5ab39cd19	0.09951434545819317
134	0x3fc060b66fbd23f8	0.1279514356231457
135	0x3fc2bb9cb1af9752	0.14635046649999112
136	0x3fc4a6cf1009d5f9	0.16134060176015888
137	0x3fc417036be88705	0.1569523121734663
138	0x3fc17f06fa378880	0.13668906419394844
139	0x3fba67ddbfb9793a	0.103147372539273
140	0x3fb7082131e8c3a7	0.089967798886177
141	0x3fb483a8d6e5bd05	0.08013396498221333
142	0x3fb64bbf7a7d12d5	0.08709332218593187
143	0x3fb92c39918ebb40	0.09833106807375902
144	0x3fc13b56a4e7577f	0.13462336589753574
145	0x3fc4061a6829a270	0.15643625341478495
146	0x3fb77a4e5a25c28c	0.09170999241701788
147	0x3fb8579fe32021b4	0.09508704466873646
148	0x3fb83822566a75b0	0.09460653886568227
149	0x3fb7e8ad06458091	0.0933941021262419
150	0x3fb79f42fba81eed	0.09227388996088921
151	0x3fb75602c1c4a1b1	0.09115617018381418
152	0x3fb72a348a826504	0.09048775083137534
153	0x3fb757ff6fe3238d	0.09118648988363827
154	0x3fb79cc299950352	0.09223572015345141
155	0x3fb7e5209dbb20d0	0.09333995676854845
156	0x3fb837172410bff9	0.09459061270240444
157	0x3fb888827c0475b3	0.09583297279137674
158	0x3fb7beac9b43f946	0.09275320807134788
159	0x3fb734a69066d22d	0.09064713502341055
160	0x3fb68e50f3361a3c	0.08810907304550936
161	0x3fb53d122f0a6177	0.08296311996889992
162	0x3fb55e2369df0e76	0.08346768698452842
163	0x3fb557240751d22b	0.08336091211987966
164	0x3fb6f0210efc809a	0.08960157981755615
165	0x3fb790798d931d4f	0.09204826074993842
166	0x3fb7e83d12df250f	0.09338742933973186
167	0x3fba24f7443f82af	0.10212655464375574
168	0x3fb8dcd5ecc1ebc4	0.09711968450748915
169	0x3fb79c8197b1b7ca	0.09223184541198673
170	0x3fb687c130cb6fdf	0.08800895158077492
171	0x3fb4c9ec0d4a372c	0.08120608639202648
172	0x3fb505860c923571	0.08211553389465621
173	0x3fb4fdf1889ab9cd	0.08199987015789319
174	0x3fb708bd9da45668	0.08997712229423771
175	0x3fb812aa122ce3c8	0.09403479522451541
176	0x3fb927b4241a618c	0.09826208001539366
177	0x3fbc1b7d7302634d	0.10979446466298022
178	0x3fba655c494ac89b	0.10310913838728412
179	0x3fb7b9d645a2d3c5	0.09267939758394934
180	0x3fb5f7fcf1aca786	0.08581524753813427
181	0x3fb4c0c214c8a347	0.08106625564017832
182	0x3fb4f77e6e146557	0.08190145671359993
183	0x3fb4f6deb41fb46f	0.08189193627886636
184	0x3fb65d7b057dcb8f	0.08736390003268311
185	0x3fb8203db6b673d6	0.09424195967444801
186	0x3fbab7c095cc8582	0.10436633736801151
187	0x3fbe530934f8d9b2	0.11845452826751204
188	0x3fbc3847a9a0c7af	0.1102337636118864
189	0x3fb8975afdcfa58e	0.0960595006614737
190	0x3fb6441bee7c01a6	0.08697676250813532
191	0x3fb4f938a0d3a16d	0.08192781378204979
192	0x3fb513efdc930c30	0.08233546385876944
193	0x3fb5280761611191	0.08264204146786926
194	0x3fb68b999d7105c3	0.08806762784754256
195	0x3fb8e09593e0e111	0.09717688427270256
196	0x3fbc7d8dcb9c54d7	0.11129080029452908
197	0x3fc04e4c493620bc	0.12738946509148785
198	0x3fbe4025e6d8087f	0.11816632161938577
199	0x3fb983fa356b5003	0.09967006496600565
200	0x3fb6a192a6492ddd	0.0884029060336426
201	0x3fb5515972a418e4	0.08327254341938645
202	0x3fb540be80422023	0.08301916724497053
203	0x3fb5730b6087d2d2	0.08378668886855259
204	0x3fb6c959cfdcf5aa	0.08900986981185235
205	0x3fb9a49f16843e24	0.10016817378731752
206	0x3fbe6a78477cec83	0.11881210084259135
207	0x3fc25cc8016c766e	0.1434564597083638
208	0x3fc13e1d806df6f4	0.1347081067178163
209	0x3fbb452996f93e00	0.10652408538702929
210	0x3fb6f4d405e879a9	0.0896732820915306
211	0x3fb60e11df3b193d	0.08615218830081957
212	0x3fb5041618f2ee09	0.0820936022673139
213	0x3fb6111b5e3d1b8a	0.08619853068112895
214	0x3fb6d7fcd6adb3f7	0.08923321000266059
215	0x3fbabb61eb5d639f	0.1044217300053689
216	0x3fc12b8879b2f077	0.1341410249932584
217	0x3fb730db0afe4f3e	0.09058922785180543
218	0x3fb7df616d0618e6	0.0932522669955663
219	0x3fb7fd54350b5734	0.093709242773312
220	0x3fb7cf6c489f4131	0.09300877354622085
221	0x3fb7aefbf8c22b06	0.09251379798130807
222	0x3fb79690027e54ec	0.09214115200878198
223	0x3fb7742a9e8f4cf1	0.09161630984390336
224	0x3fb777cfc834c0a2	0.09167193067401283
225	0x3fb77b7f2bfdad30	0.0917281610870091
226	0x3fb79509d45a7366	0.09211789545447643
227	0x3fb7d3ccfe9390e6	0.09307557311291567
228	0x3fb63f707b58510f	0.08690550814964502
229	0x3fb621fc84b1127a	0.08645609130423706
230	0x3fb79d2943570f32	0.09224183935208144
231	0x3fb74899d5b08a8e	0.09095155207664105
232	0x3fb6030b273d6676	0.08598394115451832
233	0x3fb5e1d84ae9da8a	0.08547736958449029
234	0x3fb4fe2bf61aa898	0.08200335272218451
235	0x3fb57fda194c94f6	0.08398211591391544
236	0x3fb5bd5ce42f0701	0.08492069788828972
237	0x3fb53e217507c9cc	0.08297928912342128
238	0x3fb734acc05f1178	0.090647503820099
239	0x3fb702dc63550fcd	0.08988740372757249
240	0x3fb86d1d86078988	0.09541496774867231
241	0x3fb7e2f4194710e2	0.09330678574685039
242	0x3fb5ecba91fbf035	0.08564344467225811
243	0x3fb5b224e5b7ee03	0.08474951370583743
244	0x3fb48132fee08f9b	0.08009642336452176
245	0x3fb592fff294c6ae	0.08427428886786956
246	0x3fb5f449f4c3a151	0.08575880265892023
247	0x3fb5c77ee64d16e8	0.08507531282983971
248	0x3fb8488eef3d269e	0.09485715237419831
249	0x3fb82f7be19f35a8	0.09447454698893998
250	0x3fb7b56d83cf195a	0.0926121184157628
251	0x3fb7b10483bfd33a	0.09254482475791984
252	0x3fb631805377db5e	0.08669282949254639
253	0x3fb5b3f89056d55f	0.08477738880067907
254	0x3fb498e5fce84c21	0.080458044285749
255	0x3fb5275e288fbe62	0.08263195505400625

count f8 []
0	0x41fdcd6500100000	8000000001.0

running_mean f8 [1]
0	0x40553d8424752d94	84.9611903328244

running_var f8 [1]
0	0x40824a9e6439c71f	585.3273396028416

count f8 []
0	0x41ddcd6500400000	2000000001.0

a2c_network.sigma f4 [15]
0	0xbf77a622	-0.96737874
1	0xbeb0afb5	-0.34509054
2	0xbfb2ed61	-1.3978692
3	0xbb8325b4	-0.0040022973
4	0x3c00fc61	0.007872672
5	0xbbbaf876	-0.0057058884
6	0x3b383971	0.002811041
7	0x3e21acab	0.15788524
8	0xbe3a745d	-0.18208452
9	0xbddc7601	-0.10764695
10	0xbd4c2f00	-0.04984951
11	0x3d89bbc7	0.06725269
12	0xbe861b0b	-0.26192507
13	0xbeef1fa6	-0.46703833
14	0x3dc105ac	0.0942491

a2c_network.actor_mlp.0.weight f4 [128, 361]
0	0x3f1cf357	0.6130881
1	0xbeca3e2a	-0.39500552
2	0x3f0c87bf	0.5489463
3	0x3d3685cd	0.044561196
4	0x3f4fa289	0.81107384
5	0xbf1c3dd3	-0.61031836
6	0xbe1abe4d	-0.15111656
7	0x3dda264c	0.10651836
8	0xbf2086c0	-0.6270561
9	0xbeb2f21b	-0.34950337
10	0xbf272c33	-0.6530182
11	0xbf228957	-0.63490814
12	0xbe2044ad	-0.15651198
13	0x3e84f0f1	0.25965074
14	0xbf73ee68	-0.95285654
15	0x3f38a750	0.721303
16	0xbedff028	-0.43737912
17	0xbf51ccc1	-0.81953055
18	0x3ece7984	0.40327084
19	0x3f8a39ce	1.079889
20	0xbfa535e7	-1.2907075
21	0xbf238905	-0.6388095
22	0xbe4c2f85	-0.19940002
23	0xbe03ed52	-0.128835
24	0xbd8970c6	-0.06710963
25	0x3f002519	0.50056607
26	0x3f48bdcc	0.7841461
27	0x3f0f9cf1	0.5609885
28	0x3d02c513	0.031926226
29	0x3f382f37	0.71947044
30	0xbdee0756	-0.11622493
31	0x3da2e80d	0.079544164
32	0xbc907c0b	-0.017637273
33	0x3ec2a2b8	0.3801477
34	0xbebbc970	-0.36677122
35	0x3f1ffaa2	0.6249181
36	0x3eb965c3	0.3621045
37	0xbd3b572c	-0.04573743
38	0xbd9c3713	-0.07627692
39	0xbf97d3db	-1.1861528
40	0xbea5fc09	-0.3241885
41	0xbee47f50	-0.44628382
42	0x3f982ade	1.1888082
43	0x3f147c20	0.580019
44	0x3e94747c	0.2899512
45	0xbe05f416	-0.13081393
46	0xbeb288af	-0.34869906
47	0xbf3c5808	-0.73571825
48	0x3d4b2a6e	0.04960101
49	0x3e81bf89	0.25341442
50	0xbea8126f	-0.32826564
51	0xbe9345d0	-0.287642
52	0x3e5797c0	0.21053982
53	0xbe9d3951	-0.3070779
54	0x3e30cf81	0.17266656
55	0xbf06d4e1	-0.5266858
56	0xbf05193b	-0.51991624
57	0xbe68ec42	-0.22746375
58	0xbdc8ec63	-0.09810712
59	0x3f0174a5	0.5056861
60	0xbeb5fc87	-0.35544226
61	0x3d582401	0.05276871
62	0xbf052ac3	-0.52018374
63	0xbf56a230	-0.8384123
64	0x3f4a8cf9	0.7912136
65	0xbf11e0c6	-0.569836
66	0xbef8eba1	-0.4861727
67	0xbed805c7	-0.42191908
68	0xbeb932b0	-0.36171484
69	0xbf41839b	-0.7559144
70	0xbb41ef6c	-0.002959217
71	0x3eb36903	0.35041055
72	0x3dada44c	0.08478603
73	0xbe0389c5	-0.12845524
74	0xbe57139a	-0.21003571
75	0x3d7c7a7e	0.061640255
76	0x3d2d5887	0.042320754
77	0x3e81180e	0.25213665
78	0xbd940d25	-0.072290696
79	0xbea9af52	-0.3314157
80	0x3dae53dd	0.085120894
81	0xbdd5cd38	-0.10439533
82	0x3dde9e6f	0.108700626
83	0x3db09b1f	0.08623337
84	0x3e97f952	0.29682404
85	0x3eb095c3	0.3448926
86	0x3e088193	0.13330679
87	0xbe9cff04	-0.3066331
88	0xbe2cdca3	-0.16881041
89	0xbbf64326	-0.007515329
90	0x3e979c1d	0.29611292
91	0xbe40fe60	-0.18847036
92	0x3d05cae9	0.032664213
93	0x3e0fc7dc	0.14041084
94	0xbe1f35f1	-0.15547921
95	0xbdc234f8	-0.09482759
96	0x3ece73f4	0.4032284
97	0x3d5ab247	0.053392675
98	0xbe4fa4db	-0.20277731
99	0x3d8cadda	0.06869097
100	0x3e1a5a6b	0.15073554
101	0x3c97f01c	0.01854711
102	0xbbb906cf	-0.0056465636
103	0xbdb4746d	-0.08811269
104	0xbe5cdfa2	-0.21569684
105	0x3dd00cae	0.101586685
106	0x3e01e1cc	0.12683791
107	0x3e8017a5	0.2501804
108	0xbe020a8f	-0.1269934
109	0x3c99f40e	0.018793132
110	0x3eec4cf5	0.46152464
111	0xbf4e08ad	-0.8048199
112	0x3e988816	0.29791325
113	0xbf15c27d	-0.5849989
114	0x3e8b9734	0.27263796
115	0xbd8ece1f	-0.06972908
116	0xbe63ad3a	-0.2223405
117	0xbd22f627	-0.03978553
118	0xbe6812ab	-0.22663371
119	0xbe825377	-0.25454304
120	0xbdfb8a98	-0.12282294
121	0xbeb72508	-0.3577044
122	0xbe3b3ee0	-0.18285704
123	0xbf202d0a	-0.62568724
124	0x3df1db55	0.118094124
125	0xbef23b78	-0.47310996
126	0xbe83a5e4	-0.25712502
127	0xbc283671	-0.010266886
128	0x3eec9e5b	0.46214566
129	0xbc52d1a3	-0.012867364
130	0xbe2de18b	-0.16980569
131	0xbe1363c9	-0.14393534
132	0xbeacd8f9	-0.33759287
133	0xbef3e33f	-0.47634313
134	0x3e03a01b	0.12854044
135	0xbddbf8c0	-0.10740805
136	0x3f13e966	0.5777801
137	0xbf2475c9	-0.64242226
138	0xbec13401	-0.37734988
139	0xbeb111d5	-0.34583917
140	0x3e81301e	0.25232023
141	0x3f067277	0.5251841
142	0xbe525cc6	-0.20543203
143	0xbea8a0d0	-0.3293519
144	0xbeaa31ee	-0.33241218
145	0xbf786b9c	-0.970392
146	0xbde4d906	-0.111742064
147	0xbd8f3ed8	-0.06994408
148	0xbec647ae	-0.38726562
149	0x3e54578d	0.20736523
150	0x3def526c	0.116856426
151	0xbe1a44a6	-0.1506525
152	0x3dfa3a23	0.1221812
153	0xbd383845	-0.044975538
154	0x3c24667e	0.010034202
155	0x3ccfd060	0.025367916
156	0xbe757ef0	-0.23974204
157	0xbcc2435d	-0.023713762
158	0xbe8a540c	-0.27017248
159	0xbe163b76	-0.1467112
160	0xbe25ecc8	-0.16203606
161	0xbe7e824e	-0.24854395
162	0xbf1e2bd6	-0.6178564
163	0xbee4a4c8	-0.44656968
164	0xbeebf84b	-0.4608787
165	0xbd6c01fb	-0.057619076
166	0xbdfce4d4	-0.12348333
167	0x3e8e9f89	0.2785609
168	0x3dd44a0c	0.10365686
169	0x3cddfb1b	0.027097275
170	0x3f1baebe	0.6081351
171	0x3f07f123	0.5310232
172	0x3daa3730	0.083113074
173	0xbf17632e	-0.5913571
174	0xbe80d800	-0.25164795
175	0xbc4b0f1b	-0.012393738
176	0xbf28e158	-0.6596885
177	0x3d29f946	0.04149749
178	0x3e89ef2b	0.26940283
179	0xbecd67d5	-0.4011828
180	0xbd4fabb1	-0.050700847
181	0x3df94497	0.121712856
182	0x3ea4905a	0.32141382
183	0xbe2c7eec	-0.16845292
184	0xbdbe1058	-0.09280461
185	0x3db70a30	0.0893749
186	0xbe5f53ae	-0.21809265
187	0xbdff5f52	-0.12469353
188	0x3ef845fe	0.484909
189	0xbf055ce1	-0.52094847
190	0x3ea90d65	0.33018032
191	0xbd6ec33b	-0.058291655
192	0x3e909105	0.2823564
193	0x3e349806	0.17636117
194	0xbdcb8a41	-0.09938479
195	0xbd980f59	-0.07424802
196	0x3e33d470	0.17561507
197	0xbe8340c9	-0.25635365
198	0x3e6fb177	0.23407541
199	0x3e680d6e	0.22661373
200	0x3ea9e070	0.33179045
201	0x3ca407cd	0.020023251
202	0x3ef847ba	0.48492223
203	0x3ea72e47	0.32652494
204	0xbd9e70ba	-0.07736345
205	0x3e1478c5	0.14499195
206	0x3dde462a	0.108532265
207	0x3f41781d	0.75573903
208	0x3ed4db11	0.41573384
209	0xbe7e37e4	-0.24826008
210	0x3f3ff334	0.74980474
211	0xbed5c3d9	-0.41750982
212	0xbece05d4	-0.40238822
213	0x3e59a410	0.21253991
214	0xbe241adc	-0.16025871
215	0xbe7627b4	-0.24038583
216	0x3f28a9a4	0.6588385
217	0x3d4edff2	0.05050654
218	0x3ea79ba5	0.32735935
219	0x3ced8b13	0.02899698
220	0xbc053d23	-0.008132252
221	0x39b871a1	0.00035179875
222	0xbf157c3a	-0.5839268
223	0x3c9480f1	0.01812789
224	0xbebc9504	-0.3683244
225	0x3d8fa3c8	0.07013661
226	0x3e90a33d	0.2824954
227	0x3e12db1e	0.14341399
228	0x3ef95ddc	0.48704422
229	0x3e24204a	0.16027942
230	0x3ed92ee3	0.42418584
231	0x3e924771	0.2857013
232	0xbdad3d08	-0.084589064
233	0x3d8dea77	0.06929486
234	0xbee81147	-0.45325682
235	0xbca13076	-0.019676428
236	0xb943c5ac	-0.00018670288
237	0xbd4d886c	-0.05017893
238	0x3e8335eb	0.25627074
239	0x3f0c384f	0.5477342
240	0x3e69fae4	0.22849613
241	0x3ecc5915	0.39911714
242	0xbe8984de	-0.26859182
243	0x3cd3dc8e	0.025862005
244	0xbd0bd330	-0.03413695
245	0x3f132f4c	0.57494044
246	0xbde6eced	-0.11275659
247	0xbdb5e6d8	-0.088819206
248	0x3eb03061	0.3441191
249	0xbd9a402b	-0.0753177
250	0xbe79aa6d	-0.24381419
251	0xbe5db3a8	-0.21650565
252	0xbf1a15a1	-0.60189253
253	0xbf05e8dd	-0.52308446
254	0x3ea42353	0.320582
255	0xbd95d695	-0.07316319

a2c_network.actor_mlp.0.bias f4 [128]
0	0xbf85d045	-1.0454184
1	0xbf8ec519	-1.11539
2	0xbee6ca75	-0.45076337
3	0xbf83fa80	-1.0310822
4	0xbf9c2ab1	-1.2200528
5	0xbdc0f9f4	-0.09422675
6	0xc0030814	-2.047368
7	0xbf430aad	-0.76188165
8	0xbbd80394	-0.0065922234
9	0xbfbdf8bb	-1.4841532
10	0xbf8b17b8	-1.0866613
11	0xbf84ba66	-1.0369384
12	0xbf96e8b3	-1.1789764
13	0xbf98d69e	-1.1940496
14	0xbfba9f15	-1.4579798
15	0xbf1a4194	-0.60256314
16	0xbe77e5cb	-0.24208753
17	0xbf73eef7	-0.95286506
18	0xbfdda314	-1.7315392
19	0xbf991a9d	-1.1961247
20	0xbf4cd928	-0.80018854
21	0xbf003639	-0.5008274
22	0xbf346977	-0.70473427
23	0xbef23c6e	-0.4731173
24	0xbf785b74	-0.97014546
25	0xbdd48b96	-0.103781864
26	0xbf0b30c0	-0.5437126
27	0xbf5e0ec1	-0.8674126
28	0xbf8f58bf	-1.1198958
29	0x3e87222d	0.26393262
30	0xbfd8dd04	-1.6942449
31	0xbf99016f	-1.1953562
32	0xbf9e6727	-1.237523
33	0xbf8b5208	-1.0884409
34	0xbf389bf2	-0.72112954
35	0xbf920847	-1.1408776
36	0xbfbe7883	-1.4880527
37	0xbd951e60	-0.07281184
38	0xbf54c8df	-0.83119005
39	0xbf290515	-0.6602338
40	0xbf75e1f3	-0.96047896
41	0xbf9e997f	-1.2390593
42	0xbf8f0bea	-1.1175511
43	0xbf14c789	-0.58116966
44	0xbf5e919b	-0.86940926
45	0xbf3995d5	-0.7249425
46	0xbfbe18f9	-1.4851371
47	0xbf3a768b	-0.7283713
48	0xbfcc42a7	-1.5957841
49	0xbf7390c1	-0.9514275
50	0xbf94725c	-1.15974
51	0xbfcf8c11	-1.621462
52	0xbf49ae28	-0.78781366
53	0x3d9dde1f	0.07708382
54	0xbedf958a	-0.43668777
55	0xbfa8894f	-1.3166903
56	0xbf7784db	-0.96687096
57	0xbfa1ccfa	-1.2640679
58	0xbf6769f5	-0.9039605
59	0xbf8142a6	-1.0098464
60	0xbfc35ab2	-1.5262053
61	0xbf0c5069	-0.54810196
62	0xbfccb0ec	-1.5991492
63	0xc0064571	-2.0979884
64	0xbf4e743d	-0.80646116
65	0xbfa92085	-1.3213049
66	0xbf92e7be	-1.1476972
67	0xbf587598	-0.84554434
68	0xbfb56b70	-1.4173412
69	0xbf927138	-1.1440802
70	0xbf9c9bbe	-1.2235029
71	0xc003daff	-2.0602415
72	0xbf6a9b77	-0.9164347
73	0xbfb2b7e0	-1.3962364
74	0xbf943acc	-1.1580443
75	0xbf92f846	-1.1482017
76	0xbfd6c43f	-1.677864
77	0xbfa1cef5	-1.2641283
78	0xbf84a39d	-1.0362431
79	0xbeec9b3e	-0.4621219
80	0xbf844c41	-1.0335771
81	0xbea1cfbb	-0.31603798
82	0xbf73dbd7	-0.95257324
83	0x3e865b39	0.26241472
84	0xbf28fdf6	-0.66012514
85	0xbf9145bd	-1.1349407
86	0xbfae507f	-1.3618315
87	0xbf577133	-0.84157103
88	0xbfa12ef0	-1.2592449
89	0xbef782bb	-0.48341927
90	0xbfc34272	-1.5254653
91	0xbf9c76a0	-1.2223701
92	0xbede5ccf	-0.43430182
93	0xbeadce83	-0.33946618
94	0xbf8a7402	-1.0816653
95	0xbf92db0a	-1.1473095
96	0xbfc0da39	-1.5066596
97	0xbf8101eb	-1.007871
98	0xbf893d08	-1.072175
99	0xbf0678bf	-0.52527994
100	0xbfa4e5cc	-1.2882628
101	0xbf70656e	-0.9390477
102	0xbfb9f041	-1.4526445
103	0xbe741ffd	-0.23840328
104	0xbf4420e3	-0.7661268
105	0xbf7abec8	-0.9794736
106	0xbfa83ca4	-1.3143506
107	0xbf8df328	-1.108983
108	0xbf146485	-0.5796588
109	0xbfee445c	-1.8614612
110	0xbf60b933	-0.8778259
111	0xbf48ba21	-0.7840901
112	0xbfc00cb3	-1.5003875
113	0xbf3e90dd	-0.74439794
114	0xbfa8ced8	-1.3188124
115	0x3aa0fdd5	0.0012282679
116	0xbf26e52a	-0.65193427
117	0xbfccff02	-1.6015322
118	0xbf19040c	-0.597718
119	0x3e3d3347	0.18476592
120	0xbf4a7f40	-0.7910042
121	0xbf7675d6	-0.96273553
122	0xbf8c85ca	-1.0978329
123	0xbf132a22	-0.57486165
124	0xbda9f2f7	-0.08298295
125	0xbfa09264	-1.2544675
126	0xbf49f969	-0.78896195
127	0xbfa6cf4f	-1.3032016

a2c_network.actor_mlp.2.weight f4 [128, 128]
0	0xbe6c9a6c	-0.23105782
1	0xbdac1892	-0.08403124
2	0xbc993f08	-0.018706813
3	0xbe8c267a	-0.27373105
4	0xbe30e32f	-0.17274164
5	0xbeeb3774	-0.45940745
6	0x3e94729f	0.289937
7	0x3d9c57ac	0.076339096
8	0xbece9e09	-0.40354946
9	0x3e17aaa0	0.14811182
10	0xbe817c95	-0.2529036
11	0xbe250a43	-0.16117196
12	0x3dcf0879	0.10109038
13	0xbe9f9cdb	-0.3117436
14	0xbe453236	-0.19257435
15	0xbebb6997	-0.36603996
16	0xbe5aeb7d	-0.21378894
17	0xbe19bef0	-0.15014243
18	0x3dff8d0e	0.12478076
19	0xbdd6ee1a	-0.10494633
20	0x3b38379c	0.0028109318
21	0xbf00528a	-0.50125945
22	0xbeb0f18d	-0.3455929
23	0xbe7a5036	-0.2444466
24	0xbe4ba77d	-0.1988811
25	0xbf00855c	-0.5020349
26	0xbe8b87de	-0.27252096
27	0xbe785a37	-0.24253164
28	0xbe70399f	-0.2345948
29	0xbeb8f20d	-0.3612217
30	0x3a1416b7	0.0005649137
31	0xbe36e47c	-0.17860597
32	0xbc9c2361	-0.019059839
33	0xbe00e9a4	-0.12589127
34	0xbf0e3a74	-0.5555794
35	0xbe82a9b9	-0.25520113
36	0x3c643836	0.013929417
37	0xbf6860a2	-0.9077245
38	0xbe4f7620	-0.20259905
39	0x3dd29a54	0.10283342
40	0xbd908338	-0.07056278
41	0xbe4d392a	-0.20041338
42	0xbbdb4218	-0.0066912286
43	0xbe3ec33c	-0.18629164
44	0xbe9625d9	-0.2932575
45	0xbe15b69f	-0.14620446
46	0x3d904c42	0.07045795
47	0xbf02191f	-0.5081958
48	0x3e0a3199	0.13495483
49	0xbea22f06	-0.316765
50	0x3d9579ca	0.0729862
51	0xbcc6136f	-0.024179189
52	0xbe20c8c4	-0.15701586
53	0xbed85b49	-0.42257145
54	0xbe814846	-0.25250453
55	0x3d50fb44	0.051020876
56	0xbe6039ff	-0.21897124
57	0xba9c22ab	-0.0011912187
58	0xbe91559d	-0.2838563
59	0xbdfc26dc	-0.12312099
60	0xbd938c56	-0.07204501
61	0xbeb540ae	-0.3540091
62	0x3d76ebef	0.060283598
63	0xbd2383c8	-0.0399206
64	0xbec23f9c	-0.37939155
65	0x3e9a5266	0.3014099
66	0xbe2e8665	-0.17043455
67	0xbf3ffa89	-0.7499166
68	0x3d409d8e	0.047025256
69	0xbe3eea3a	-0.18644038
70	0xbdda5e16	-0.10662477
71	0x3ecb3a6e	0.39693016
72	0x3e89123c	0.26771724
73	0x3eae41fa	0.3403471
74	0xbdba97ba	-0.09110971
75	0x3e001f7c	0.1251201
76	0xbd7d1837	-0.06179067
77	0xbe16a297	-0.1471046
78	0xbe398d6d	-0.18120356
79	0xbf1eefac	-0.6208446
80	0x3d7cc2e7	0.06170931
81	0xbf060828	-0.52356195
82	0x3d98a5ae	0.07453476
83	0xbf075cc9	-0.52875954
84	0xbecf203d	-0.40454283
85	0xbedc16c8	-0.4298613
86	0x3e20d462	0.15706018
87	0xbe265271	-0.16242386
88	0xbeae3f0a	-0.3403247
89	0xbe9fd851	-0.31219724
90	0x3d2cc56d	0.042180467
91	0x3d4e04b0	0.05029744
92	0xbe97e511	-0.2966695
93	0xbef84cf4	-0.4849621
94	0xbe45741d	-0.19282575
95	0xbe67dfb9	-0.22643937
96	0xbe224925	-0.15848215
97	0x3b90effe	0.0044231405
98	0xbe06c0e6	-0.13159522
99	0xbe6b2919	-0.22964896
100	0xbe1a171c	-0.15047878
101	0x3b832398	0.004002046
102	0x3d1ce104	0.03830053
103	0xbec0dbbb	-0.3766764
104	0xbee171c3	-0.44032106
105	0xbe846003	-0.258545
106	0xbe09fd7c	-0.13475603
107	0x3e779051	0.24176146
108	0xbea12eaf	-0.3148093
109	0x3ca055ec	0.01957222
110	0xbe5a0721	-0.21291782
111	0xbea858b3	-0.32880172
112	0x3c89472e	0.016757574
113	0xbcc6cfcd	-0.024269009
114	0x3d8d80cd	0.069093324
115	0xbeec8863	-0.46197805
116	0xbe83f071	-0.2576938
117	0xbe19e8bc	-0.15030187
118	0xbea5539d	-0.32290354
119	0xbe9bb7ea	-0.30413753
120	0xbd5cf169	-0.053941164
121	0xbedf0004	-0.435547
122	0xbe031eb9	-0.12804689
123	0x3c8da43a	0.017290223
124	0xbeb26937	-0.34845898
125	0xbe76d1d6	-0.24103484
126	0xbeb621ef	-0.35572764
127	0x3de535a1	0.111918695
128	0xbd2872f8	-0.041125268
129	0xbdeb570a	-0.11491211
130	0xbdd5e915	-0.104448475
131	0xbee77f6f	-0.45214412
132	0xbede9b6f	-0.4347796
133	0xbdb86deb	-0.0900534
134	0x3ee24362	0.44192034
135	0x3e4e6217	0.20154606
136	0xbeb8ad25	-0.360696
137	0xbe1bdda0	-0.15221262
138	0xbec79374	-0.38979685
139	0x3cb6769a	0.02227335
140	0xbedb1f6b	-0.42797408
141	0x3e198c97	0.14995037
142	0x3f1cc361	0.61235625
143	0xbf40b85d	-0.75281316
144	0xbd17fc1e	-0.037105672
145	0xbea3a94b	-0.31965098
146	0xbd893acb	-0.06700667
147	0xbe636363	-0.22205882
148	0xbe7a0710	-0.24416757
149	0x3d9871eb	0.07443603
150	0x3d3d4956	0.046212517
151	0x3d4aaa66	0.04947891
152	0xbe334aff	-0.17509077
153	0x3e13571f	0.14388703
154	0xbcc4b56c	-0.02401229
155	0xbebef2f7	-0.37294742
156	0xbe4c67b7	-0.19961439
157	0xbe937b31	-0.28804925
158	0x3dc1461d	0.09437201
159	0xbe9a125a	-0.30092126
160	0x3f16e281	0.5893937
161	0xbeac5e6f	-0.33665797
162	0xbe1aec87	-0.1512929
163	0xbef654cf	-0.4811158
164	0x3dc3089d	0.09523127
165	0x3b18b290	0.002329979
166	0xbd444378	-0.047915906
167	0x3e121b2a	0.14268175
168	0xbdc9b83e	-0.098495945
169	0xbe6e5bbc	-0.23277181
170	0x3ebb9e33	0.36644134
171	0xbf4b7dde	-0.79488933
172	0xbe6e7c01	-0.23289491
173	0x3eda29a3	0.4260989
174	0xbd9504d5	-0.07276312
175	0xbe757431	-0.23970105
176	0xbf4fc52e	-0.8116025
177	0xbe96e64f	-0.29472587
178	0xbd101ce3	-0.0351838
179	0xbb85e467	-0.0040860656
180	0xbd6d20e9	-0.057892714
181	0xbeb2cf9b	-0.34924015
182	0xbf1584e3	-0.58405894
183	0xbd2c5b69	-0.042079363
184	0xbe179981	-0.14804651
185	0xbeec86b6	-0.46196526
186	0x3e51754f	0.20454906
187	0xbb92206a	-0.0044594305
188	0xbe844f19	-0.25841597
189	0xbe3505bd	-0.1767797
190	0xbeb50c96	-0.35361165
191	0xbe104cbf	-0.14091776
192	0xbf3f9871	-0.7484198
193	0xbd667269	-0.056261454
194	0xbeb3ea46	-0.35139674
195	0xbdfc5749	-0.12321336
196	0x3effb8a0	0.49945545
197	0xbe352dad	-0.17693205
198	0x3c69bd12	0.014266269
199	0x3f23aaf5	0.63932735
200	0xbf01f761	-0.50768095
201	0x3d2afe8a	0.041746654
202	0xbf1b0c7e	-0.60565937
203	0x3df7a714	0.120924145
204	0xbf283ad2	-0.6571475
205	0xbee31907	-0.44355032
206	0x3d93a017	0.07208269
207	0x3e542f99	0.20721282
208	0xbed36b99	-0.41293028
209	0xbdfa9fec	-0.12237534
210	0x3e86d5b5	0.2633492
211	0xbef483cb	-0.477568
212	0xbd96affc	-0.07357785
213	0xbdc84012	-0.097778454
214	0xbe0648b8	-0.13113678
215	0xbdbe46d2	-0.09290852
216	0x3e361289	0.17780508
217	0xbf1c3af5	-0.6102746
218	0xbe6c013d	-0.23047347
219	0x3edee51c	0.43534172
220	0xbdd65dcf	-0.10467111
221	0x3e77c346	0.24195585
222	0xbc80cefb	-0.015723696
223	0x3e2c83fb	0.16847222
224	0xbcf68efb	-0.030097475
225	0x3e321443	0.17390542
226	0x3d0b3698	0.03398761
227	0xbcc6cee8	-0.024268582
228	0x3e4bc29f	0.19898461
229	0xbea14eae	-0.3150534
230	0x3e645032	0.22296217
231	0xbd9c4fe1	-0.07632423
232	0x3e8dc5d4	0.27689993
233	0xbb887ba3	-0.0041651293
234	0xbed70387	-0.4199488
235	0x3eff3e12	0.49852043
236	0xbe8124f5	-0.25223508
237	0xbc84d3b7	-0.016214235
238	0xbe3c82cc	-0.1840927
239	0xbecac36c	-0.3960222
240	0x3de7599e	0.1129639
241	0xbd355ea2	-0.044279702
242	0xbdfd4bd4	-0.12367979
243	0xbd22f663	-0.039785754
244	0xbf224e72	-0.6340095
245	0xbe816045	-0.2526876
246	0x3e84f56b	0.2596849
247	0xbe3e3f8f	-0.18578933
248	0x3edbab1f	0.42903993
249	0x3eaabaa1	0.33345512
250	0x3cd96e60	0.026541889
251	0x3e510fd6	0.20416197
252	0x3c1beae0	0.009516448
253	0x3b4c5ab0	0.0031181984
254	0xbe0ada01	-0.13559724
255	0xbdd31cca	-0.103082255

a2c_network.actor_mlp.2.bias f4 [128]
0	0xbf945b04	-1.1590276
1	0xbeb54c34	-0.354097
2	0x3d96c167	0.07361107
3	0xbee0b68f	-0.4388928
4	0xbda831a2	-0.08212592
5	0xbe99f9c6	-0.30073375
6	0xbe9edb99	-0.31026915
7	0xbed5bc2e	-0.41745132
8	0xbf09c649	-0.53818184
9	0xbe925894	-0.28583205
10	0xbde9a7c5	-0.114089526
11	0xbf176d5f	-0.5915126
12	0xbec24eb1	-0.37950662
13	0xbefb73ed	-0.49111882
14	0xbe9c22b7	-0.30495235
15	0xbe80ac5f	-0.2513151
16	0xbe229e93	-0.15880804
17	0xbead6cd1	-0.33872083
18	0xbda1e0b3	-0.07904186
19	0xbfbbaccf	-1.4662112
20	0xbea111a1	-0.31458762
21	0xbf0cc952	-0.5499469
22	0xbda69c63	-0.08135297
23	0xbf09a9e0	-0.53774834
24	0xbeb9bfd9	-0.3627918
25	0x3e36d0bc	0.17853063
26	0xbe18ce00	-0.14922333
27	0xbec60872	-0.38678318
28	0x3e845f84	0.25854123
29	0xbe16432b	-0.1467406
30	0xbe8c7971	-0.27436402
31	0xbf2a6ec7	-0.6657528
32	0xbe1eb601	-0.15499116
33	0xbd43bc20	-0.04778683
34	0xbf1b1d8d	-0.60591966
35	0xbd954ea0	-0.07290387
36	0xbe2a4189	-0.16626562
37	0xbe58871a	-0.21145287
38	0xbd85fbd7	-0.06542175
39	0xbe3bd51c	-0.18343014
40	0xbd190580	-0.03735876
41	0xbeeac1bb	-0.4585093
42	0xbf04505c	-0.5168512
43	0xbe241c13	-0.16026334
44	0xbee2cad2	-0.44295365
45	0xbebc3c34	-0.3676468
46	0xbe71e49f	-0.23622368
47	0xbf3a2dbc	-0.72726035
48	0xbe6cedf7	-0.23137651
49	0xbf0c7fc0	-0.5488243
50	0xbe96a7f0	-0.29425
51	0xbe3f2380	-0.18665886
52	0xbf5c8a0f	-0.8614816
53	0xbedfc003	-0.4370118
54	0xbd2dc6af	-0.042425808
55	0xbdd666d0	-0.10468829
56	0x3deca123	0.11554172
57	0xbefa39e2	-0.48872286
58	0xbeb42877	-0.35187122
59	0xbe9b2dab	-0.3030828
60	0xbf1cb86f	-0.61218923
61	0xbdea8c27	-0.11452513
62	0xbeae6ec1	-0.34068874
63	0xbe6bdc92	-0.2303336
64	0xbe86c91e	-0.26325315
65	0xbf1bb575	-0.60823756
66	0x3d42a608	0.04752162
67	0xbda40fd7	-0.08010834
68	0xbeb8aadc	-0.36067855
69	0xbe805f8f	-0.25072905
70	0xbe5c0912	-0.21487835
71	0xbedfb2d5	-0.43691126
72	0xbe7cda37	-0.24692617
73	0xbf1449bb	-0.57925004
74	0xbc894724	-0.016757555
75	0x3d3b346e	0.045704298
76	0xbefa9a4b	-0.4894584
77	0xbecee524	-0.40409195
78	0xbe8ebfe3	-0.27880773
79	0x3d3f204e	0.046661668
80	0xbd904481	-0.07044316
81	0xbc90e8f2	-0.017689202
82	0x3ca09822	0.019603793
83	0xbf09981c	-0.53747725
84	0xbe9c70fe	-0.30554956
85	0x3e40bf1b	0.18822901
86	0xbe8a5a7b	-0.27022156
87	0xbe88dd0e	-0.2673115
88	0xbf0dfb79	-0.5546184
89	0xbe212248	-0.15735734
90	0xbd46106f	-0.048355516
91	0xbeb4f138	-0.35340285
92	0x3c3906f8	0.011293165
93	0xbee03275	-0.43788496
94	0xbf1f533e	-0.6223639
95	0xbdd72d1b	-0.1050665
96	0xbedaa7f9	-0.42706278
97	0xbec44f0d	-0.3834156
98	0x3b40e461	0.0029433
99	0xbe58ac1a	-0.21159402
100	0xbf06efcf	-0.5270967
101	0xbf0beaa3	-0.546549
102	0xbe73e785	-0.23818786
103	0xbd35d705	-0.04439451
104	0xbef5c836	-0.4800431
105	0xbeed622e	-0.46363968
106	0xbe89f7b9	-0.2694681
107	0x3dca9137	0.09890979
108	0xbe3bd049	-0.18341173
109	0xbeb1410b	-0.34619936
110	0xbf8904ad	-1.0704552
111	0xbd5504a2	-0.05200637
112	0xbefe47f8	-0.49664283
113	0xbe196253	-0.14978914
114	0xbe604d55	-0.219045
115	0xbef82415	-0.48465028
116	0xbe413c4f	-0.18870662
117	0xbe9926bc	-0.29912364
118	0xbeaa7389	-0.3329127
119	0xbeb6254e	-0.35575336
120	0xbe35db90	-0.17759538
121	0xbe1bfbae	-0.15232727
122	0xbe5d85b0	-0.21633029
123	0xbeb30e90	-0.34972048
124	0xbd6c531b	-0.057696443
125	0xbf568de9	-0.8381029
126	0xbe3aab92	-0.18229511
127	0xbeea1365	-0.45717922

a2c_network.critic_mlp.0.weight f4 [128, 361]
0	0x40126ae5	2.2877743
1	0x3be84f12	0.007089504
2	0xbe0de7bb	-0.1385793
3	0xbe76d2f8	-0.24103916
4	0x3f4886da	0.7833077
5	0xbdb59888	-0.08866984
6	0x3d0bef4a	0.03416375
7	0x3eb69bbe	0.35665697
8	0x3ebf9c4f	0.37423941
9	0xc0208c03	-2.5085456
10	0xbea7efc0	-0.32800102
11	0xbef19590	-0.4718442
12	0xbdb419e5	-0.087940015
13	0x3e9c0a9b	0.3047684
14	0xbe9dccd7	-0.30820343
15	0x3e936300	0.28786469
16	0xbc870b4d	-0.01648488
17	0x3ec2063e	0.37895387
18	0x3e29e93e	0.16592881
19	0xbe23fe6b	-0.16015022
20	0x3f29bf9b	0.6630799
21	0x3d89b807	0.067245536
22	0x3d92eef7	0.07174485
23	0x3e5ac2ba	0.21363345
24	0x3c27b525	0.010236059
25	0x3d4fbfa5	0.050719876
26	0x3e412c84	0.18864638
27	0xbd94d8eb	-0.07267936
28	0x3d159c9a	0.0365263
29	0xbde3bdac	-0.111201614
30	0x3d39b883	0.04534198
31	0x3e49366c	0.19649667
32	0x3d05333c	0.032519564
33	0xbd853cc3	-0.0650573
34	0xbd0bf5a0	-0.034169793
35	0x3c0be375	0.008538117
36	0xbd4011a6	-0.04689183
37	0x3e59fef1	0.21288659
38	0x3c5e5641	0.013570369
39	0x3b86e361	0.004116461
40	0x3d0f33d8	0.03496155
41	0xbe023b21	-0.12717868
42	0x3bb60f9c	0.00555606
43	0xbd075a8d	-0.03304534
44	0xbdbae3b7	-0.091254644
45	0xbc66bb9c	-0.0140828155
46	0xbd8e0f9c	-0.06936571
47	0xbf0a0363	-0.5391142
48	0xbd5b432f	-0.05353087
49	0xbdf6e93f	-0.12056207
50	0x3cca6c43	0.024709826
51	0x3df7aac6	0.12093119
52	0x3b99fd70	0.0046994016
53	0xbc9cdd3a	-0.019148458
54	0xbd6abd61	-0.057309512
55	0xbd8cf3c6	-0.068824336
56	0x3e07167f	0.13192175
57	0x3d6baabe	0.05753588
58	0xbde7ad84	-0.11312392
59	0x3db0a8e1	0.08625961
60	0x3df75f10	0.120786786
61	0x3bc7069a	0.006073785
62	0xbe89b471	-0.26895478
63	0xbc080653	-0.008302289
64	0xbe121dda	-0.142692
65	0x3e27a67f	0.16372107
66	0x3d93ef35	0.072233595
67	0xbda110ab	-0.07864507
68	0xbc9c781a	-0.019100238
69	0xbdf1d641	-0.11808444
70	0xbd1b62e3	-0.037936103
71	0x3e16f002	0.14739993
72	0xbb49ab51	-0.0030772279
73	0x3dfaca21	0.12245584
74	0xbbb67467	-0.0055680755
75	0x3dbfb42e	0.093605384
76	0x3d469927	0.0484859
77	0x3d5b63ae	0.05356186
78	0x3d3d6cd9	0.046246383
79	0x3dab1bcf	0.083549134
80	0x3dbc04dc	0.09180614
81	0x3e042cec	0.12907761
82	0x3d5638ba	0.052300192
83	0x3d870441	0.06592608
84	0xbc9f1816	-0.019420665
85	0x3cd9166b	0.026499948
86	0xbe3ddb92	-0.1854079
87	0xbdb86e3b	-0.090054
88	0xbc2360ea	-0.009971837
89	0xbcb25e56	-0.021773499
90	0x3d512b56	0.05106672
91	0x3d859112	0.065218106
92	0x3dd9b766	0.106306836
93	0xbba42cd6	-0.0050102277
94	0x3c52b321	0.0128600905
95	0xbd46f886	-0.048576854
96	0xbc628981	-0.013826729
97	0x3c9ad324	0.018899508
98	0xbd997a7a	-0.07494064
99	0xbd5a856b	-0.053349894
100	0xbc0a3e8f	-0.008437767
101	0x3db15074	0.08657923
102	0x3d85b18c	0.06528005
103	0x3d3a3992	0.04546506
104	0xbcbadd8c	-0.02281072
105	0xbdc6d8f0	-0.09709346
106	0xbe29edbf	-0.16594599
107	0x3da48e40	0.080349445
108	0xbd14230b	-0.036166232
109	0x3cce65b2	0.025194976
110	0xbcf690a5	-0.030098269
111	0x3c1812e1	0.009281845
112	0xbcfda013	-0.030960118
113	0x3dcfdae7	0.10149174
114	0xbd28d156	-0.041215263
115	0x3d5faaf7	0.054606404
116	0xbc59457e	-0.013261197
117	0x3e0d8b50	0.13822675
118	0x3e628c13	0.22123747
119	0xbde06963	-0.10957601
120	0xbca108c5	-0.019657502
121	0x3bc402fa	0.0059818
122	0xbd295f06	-0.041350387
123	0xbe8973bd	-0.26846114
124	0x3d8daa87	0.06917291
125	0x3e2dee63	0.16985469
126	0x3ead6086	0.33862704
127	0x3e2407df	0.16018628
128	0x3dae9658	0.085247695
129	0x3c2919ca	0.01032109
130	0x3c83a443	0.016069537
131	0x3c0f22ce	0.008736325
132	0xbcb36b4d	-0.021901751
133	0xbd921271	-0.07132424
134	0xbb0dd3f0	-0.0021641217
135	0x3e45bf86	0.19311342
136	0x3fcbe8ef	1.5930461
137	0x400dc13e	2.2149196
138	0x3e888641	0.26664928
139	0xbd2257ef	-0.03963464
140	0xbc72aaa6	-0.014811194
141	0xbdfd5c7a	-0.12371154
142	0x3c652827	0.013986624
143	0xbe02ff57	-0.12792717
144	0x3f1d2441	0.61383444
145	0x40174660	2.3636703
146	0x3cdcbdc2	0.026945952
147	0xbc0c8371	-0.00857626
148	0xbc48fb96	-0.012267014
149	0x3bb1735a	0.0054153623
150	0xbcc58c69	-0.024114804
151	0x3aa9e2d4	0.0012961277
152	0x3d4564e8	0.048191935
153	0x3caeb49c	0.021326356
154	0xbd9771ca	-0.073947504
155	0xbda2a350	-0.07941306
156	0xbcae9af2	-0.021314118
157	0xbe410b7c	-0.18852037
158	0x3d338a23	0.04383291
159	0x3d445f9c	0.047942743
160	0xbcccaaeb	-0.024983844
161	0x3de29a77	0.11064618
162	0x3e5d0f82	0.21587947
163	0x3dd59025	0.10427884
164	0x3b7bf526	0.003844568
165	0xbdae526d	-0.08511815
166	0xbc7afed0	-0.015319541
167	0xbe1dda08	-0.15415204
168	0xbe207898	-0.15671003
169	0x3d860f53	0.065458916
170	0xbcff41aa	-0.03115924
171	0x3d5020b8	0.050812453
172	0x3bcd6995	0.00626869
173	0x3d9fd389	0.07804019
174	0xbc83d07b	-0.016090622
175	0xbdb9abd5	-0.090659775
176	0xbdfad770	-0.12248123
177	0xbdb3dc55	-0.087822594
178	0x3cfe9731	0.031077953
179	0xbd29ed4c	-0.04148607
180	0x3df8ffda	0.12158175
181	0xbd03ea83	-0.03220607
182	0xbd5e280b	-0.054237407
183	0x3c80f9d3	0.015744125
184	0x3e1fd537	0.15608679
185	0xbda75974	-0.08171359
186	0xbcca8ac0	-0.024724364
187	0x3ce39ce7	0.027784778
188	0x3a7a10c0	0.0009539239
189	0xbd6af9e1	-0.05736721
190	0x3d543ab7	0.051813807
191	0x3b5b2608	0.0033439416
192	0xbdda4f15	-0.10659615
193	0xbaffda2a	-0.0019519974
194	0x3dbf4790	0.09339821
195	0xbcb74876	-0.02237342
196	0xbcb2b740	-0.021815896
197	0x3edf03c8	0.43557572
198	0xbc054100	-0.008133173
199	0xbcad9e42	-0.021193627
200	0x3d9917f0	0.07475269
201	0x3d4dd8b7	0.050255504
202	0xbdcbda99	-0.099538036
203	0xbce0a216	-0.027421039
204	0x3de85c06	0.11345677
205	0xbd711b13	-0.05886371
206	0xbd8996ec	-0.06718239
207	0x3f84fc71	1.0389539
208	0x3fb11ceb	1.383695
209	0x3e9bd76c	0.3043779
210	0x3e25ff34	0.16210634
211	0x3dc0ef22	0.09420611
212	0x3da6acc6	0.08138423
213	0xbc46ba48	-0.012129374
214	0x3c1b1ffe	0.009468077
215	0x3e94b373	0.2904316
216	0x3fa92c64	1.3216672
217	0x3cf2aef1	0.029624434
218	0xbc877bea	-0.016538579
219	0x3bb21b66	0.005435395
220	0x3c5a0b46	0.013308352
221	0x3c7bc882	0.015367629
222	0x3c2d59d2	0.010580497
223	0x3cd7812d	0.026306713
224	0x3c1af9a0	0.009458929
225	0xbc42cf1c	-0.011890199
226	0xbcf28b8d	-0.029607559
227	0xbc01975a	-0.00790962
228	0x3c7bb37e	0.0153626185
229	0xbc04a1d0	-0.00809522
230	0x3cb03041	0.021507384
231	0xbc5feb68	-0.013666965
232	0x3a0e789c	0.00054348423
233	0xba7c331d	-0.00096206536
234	0xbcc3da1d	-0.023907715
235	0x3c35e376	0.011101594
236	0xbd35806a	-0.04431192
237	0x3d53b278	0.051683873
238	0x3cda4cfd	0.026648039
239	0xbc00bbcc	-0.007857274
240	0x3c99d266	0.018777084
241	0xbd37744b	-0.04478864
242	0xbd54a10f	-0.05191141
243	0xbd2d77ca	-0.042350568
244	0x3ccf43bd	0.025300855
245	0x3d3f1d1e	0.046658628
246	0xbd0a774f	-0.033805188
247	0xbc06b199	-0.0082210535
248	0xbc8d21b1	-0.01722798
249	0xbc601ec2	-0.013679208
250	0xb99b30d4	-0.00029600284
251	0xbc8e775b	-0.017390897
252	0xbcf603e7	-0.030031158
253	0xbccad076	-0.024757605
254	0xbb8d392f	-0.0043097953
255	0x3ad37b41	0.0016134755
