python/rlgpu/saved_nn/241001162243532647/last_Aliengoep=7250rew=[1091.69].pth (torch, 523930 bytes, 18 tensors)

running_mean f8 [361]
00000000: dd99 e040 69b4 b4bf 8d10 e32e 41c0 4d3f
00000010: 849d 67c9 329e ce3f b4b4 aa22 19f3 973f
00000020: 5141 b2d6 658e c4bf 65d6 b60e 3237 d43f
00000030: 2ab1 501b 0ccd d73f 6624 5219 ade1 d93f
00000040: 5def f540 6f5d e13f bc22 2cf7 7f76 c33f
00000050: cb08 d196 310a c03f dd4b 9bd9 6e5a d5bf
00000060: b278 e5ec 57e8 cb3f da67 1598 2874 9fbf
00000070: 544b 3f83 cb1f d4bf 0503 a923 0e33 a8bf
00000080: b2e8 305a c09e c33f 2f4a 2306 22b5 d4bf
00000090: 070a a36e f53f c4bf fc5b 10b5 5896 c3bf
000000a0: 6af2 705c 2816 d4bf 74dc 19db 25ad da3f
000000b0: 5fca 2e63 19fd 98bf 84bb 9e77 71f8 cb3f
000000c0: 7ef9 f59a cad4 dd3f bf84 86a5 09d5 ab3f
000000d0: 731d 348b eb86 c63f 0a3a 93c0 35e2 da3f
000000e0: 6bc2 8556 2d18 963f 66ba 8843 d02d c43f
000000f0: 4378 5eae ece8 dc3f 0b4d fd06 342f b83f
00000100: 883b 18a6 db5a c03f 2544 b6af 5c95 e1bf
00000110: de9f 32b2 3f77 e53f 06f1 4a42 4233 d7bf
00000120: ed85 d2df 2fed d93f f90f 8a32 6474 e73f
00000130: 7368 274d 3143 d7bf 1136 ceee 4749 cfbf
00000140: d3f0 e3ea a31c e0bf f81a 103f bfac e2bf
00000150: 1d15 374a b5be b03f f840 5e73 7ee2 ddbf
00000160: 56c4 2f86 e174 d4bf 3a95 df00 9d72 e33f
00000170: c9cc 1a74 4579 df3f 23f3 e917 19c1 ef3f
00000180: 14f1 8c73 534b e03f 6f90 d037 8463 e33f
00000190: b4f4 cc1f ba46 ba3f 0577 91fb 6132 e43f
000001a0: b945 e74f 7b85 c13f db43 997e 4405 943f
000001b0: 0e36 890f 687c dbbf d447 4661 b4dc e53f
000001c0: baf7 f1ad 5215 dc3f 8204 a1db dcc7 cebf
000001d0: fb44 e275 c7bc e5bf 4436 456b 3d19 d33f
000001e0: 78fc d08a 0f6e e33f a9b1 c10b 6b67 df3f
000001f0: 080b f556 d7b7 ef3f 1af9 f521 bc46 e03f
00000200: e8a6 e5ba 7a5e e33f f72c b277 b434 ba3f
00000210: b53d f05a 692e e43f c9a7 8363 8a85 c13f
00000220: a243 7d87 2bdd 933f 22ab 6d6a 1876 dbbf
00000230: 795d ebce 41d7 e53f a1da cfb6 f40d dc3f
00000240: 1e46 23b0 5dc2 cebf 7b09 8344 ebb8 e5bf
00000250: ee7f d9ee 6814 d33f 1ec5 11b5 cf3a cb3f
00000260: 3e8e ab61 8221 cc3f fe73 ff9d cd21 cc3f
00000270: 1246 b181 d0c2 cb3f d377 c6be 6456 cb3f
00000280: a93c 267c 6cea ca3f 95f6 7514 b88e ca3f
00000290: 30d6 ee14 beb6 ca3f fcc8 d4a4 4d0e cb3f
000002a0: 0b01 d42e a776 cb3f 70c5 3ebe 26e7 cb3f
000002b0: f578 ea6e de28 cc3f 2051 8e18 d2c1 cb3f
000002c0: fbcd e051 d55c cb3f 2bb8 867f 8e75 ca3f
000002d0: 535d 0c19 ce62 c83f aad7 31e7 1d1e c83f
000002e0: c645 b009 e403 c83f 7ee8 09e0 7dd2 c93f
000002f0: 5914 5751 a3ad ca3f 5226 7208 7351 cb3f
00000300: 98f6 0c0c de27 cd3f f750 f993 a67a cc3f
00000310: 1dcb aa7d c4ab cb3f 4299 ccea 9542 ca3f
00000320: 5102 8249 17ac c73f ba3d bd23 0063 c73f
00000330: a157 2f8d 2520 c73f 8c13 1cf0 f357 c93f
00000340: 5420 8b18 8dae ca3f 8aab 47c0 95e5 cb3f
00000350: 44df 5998 8748 ce3f a76e da1e 405c cd3f
00000360: 829d e84a f482 cb3f 857c 19fd c438 c93f
00000370: 2885 c4c4 d75c c73f a30b c268 39ff c63f
00000380: d2b5 b855 8aae c63f 2bd0 2715 b81e c83f
00000390: a376 6680 d45c ca3f f61a 4796 0daa cc3f
000003a0: 885b dc25 758a cf3f 8da7 aa90 a652 ce3f
000003b0: 53b9 a7f0 59da cb3f 5511 e255 551d c93f
000003c0: 018a 8c95 aa40 c73f ffc0 a0b0 92c6 c63f
000003d0: 11ad 8ce5 9081 c63f e199 12da 14e3 c73f
000003e0: ffe0 31a8 b897 ca3f 4155 6faa d18f cd3f
000003f0: 6390 f374 8471 d03f d832 e754 d75a cf3f
00000400: e2f4 5b40 f62d cc3f 122b ae2c a014 c93f
00000410: 402f 22d7 4340 c73f 50e2 bcc2 31a6 c63f
00000420: 2967 cacb 547c c63f 4692 297d fac7 c73f
00000430: 4d64 3e96 53e6 ca3f a1f3 6013 1493 ce3f
00000440: 7e65 559c b7d8 d13f 3f6b 44c3 b5d9 d03f
00000450: 7d9e d2c7 7975 cc3f 3525 fd47 f391 c83f
00000460: e485 bddf 6b64 c73f 601d 8ef2 66fd c53f
00000470: c4a0 55f8 89b0 c63f bf63 6bca 7666 c73f
00000480: 5887 67be 2c79 cb3f 091f e139 d87f d03f
00000490: 62dd 0166 1043 c83f 4b66 0d29 f2e4 c83f
000004a0: dffc a908 52c8 c83f 9ed8 5ce5 aa86 c83f
000004b0: bd7c 7f7b 6853 c83f ddcb 6198 4f1b c83f
000004c0: 7243 7309 96f9 c73f 1de1 13ff ef3a c83f
000004d0: 9221 da57 577f c83f 83b1 869c f8af c83f
000004e0: 42ae 0732 7fe2 c83f 2ae1 01c4 2df1 c83f
000004f0: ae89 2595 7835 c83f acbf e4d3 c19b c73f
00000500: 1887 12f5 fb23 c73f 62bb 2ba3 0907 c63f
00000510: ccf5 ce6b 3f49 c63f 9561 31aa 8a69 c63f
00000520: 1b30 d9de 19df c73f 34c0 e503 a34c c83f
00000530: bd2f afe7 688a c83f 68a0 31e5 dc0b ca3f
00000540: 67d3 09a4 b4be c83f ab91 254e 37a8 c73f
00000550: e107 e551 0bd8 c63f 67f9 2c23 d36c c53f
00000560: 0eb4 a0eb ede6 c53f 326a 14dd ac17 c63f
00000570: 1062 9cd3 b2e0 c73f f233 a0bb f29c c83f
00000580: 797f 4985 1547 c93f b3c4 6f61 ac98 cb3f
00000590: b5ad 51d8 22b7 c93f 34fc e969 a48b c73f
000005a0: 8bda fb08 cf02 c63f 1e92 8ce2 1f2a c53f
000005b0: 9311 1483 e9ad c53f 0756 2915 7800 c63f
000005c0: e8d0 df92 a82a c73f 9338 fd1e c78c c83f
000005d0: 2a0c 0871 8057 ca3f 2c1b 37e6 88a2 cd3f
000005e0: 55d7 bc7f 3615 cb3f 916b 7888 b3f8 c73f
000005f0: cc8c d74a 7409 c63f c152 8a72 2b1a c53f
00000600: 0399 dab0 d599 c53f ef75 62a4 990a c63f
00000610: 0718 b425 ff35 c73f 55f3 c3c8 c5ea c83f
00000620: b924 7f57 01b5 cb3f 41b6 effa e1e8 cf3f
00000630: b24e af82 8ed8 cc3f 66da adf2 2d7e c83f
00000640: 3420 3f78 c42d c63f d21a 4bc9 bf2c c53f
00000650: b4e4 49c9 7f9d c53f 34ed 56bf 5229 c63f
00000660: 84b1 fb6f b743 c73f 1dea 95db 5a3e c93f
00000670: cdb9 4977 2563 cd3f c9dd aa79 5520 d23f
00000680: 8100 c587 2890 d03f f93d c013 e17d c93f
00000690: bb9c e1c3 a43d c63f b3a5 b124 6f8b c53f
000006a0: 12d4 aa6d 3560 c53f 1eeb 454f b77d c63f
000006b0: f3ef 9b34 16da c63f 4098 bbcd a56b c93f
000006c0: 09d9 54e3 4f9c d03f 24ab 951c 0c24 c73f
000006d0: 3a9e b334 891b c73f ab85 c566 8f49 c73f
000006e0: f6a6 7467 0058 c73f 36b2 e7d2 d652 c73f
000006f0: 72ea c714 a954 c73f c24e 04be 0d45 c73f
00000700: ba17 6d1a 175c c73f d07c 4a54 f65c c73f
00000710: cca5 a6a3 d05b c73f edbf 15f7 1d47 c73f
00000720: bc6d 750c 134a c43f 4703 4969 a844 c43f
00000730: 71d2 a4bf 138b c63f d4ce 3c50 667c c63f
00000740: d678 7c54 3eeb c53f f63d bd7e f73c c63f
00000750: 221f e8a1 3469 c53f 267f dee9 e285 c53f
00000760: 9fa9 b757 0879 c53f ec06 6aa7 26b3 c33f
00000770: a52a cb0e 9645 c43f 9e98 22a9 d140 c43f
00000780: 4701 514a 687c c63f fa6a 2e9c 4066 c63f
00000790: 07d0 ce77 8c8c c53f 71b1 1b16 8511 c63f
000007a0: 587b 7294 27f4 c43f f7d6 be92 723d c53f
000007b0: 9d3e 91e0 9418 c53f fad7 fabd f075 c33f
000007c0: cef0 bd81 e95f c43f a096 e713 3579 c43f
000007d0: 0a35 59fa bde8 c43f ef92 6355 c1bf c53f
000007e0: fcba a00c f960 c53f fedf e73b 3cfb c53f
000007f0: 31a4 dccd cedb c43f 32a0 cda2 6eb8 c43f
-0.08087785562438606 0.000907928302489329 0.2392028315946214 0.023388283482451214 -0.16059563620775433 0.31586886822638 0.3718900934934647 0.40439918015233045
0.5426555889857628 0.15205382889714325 0.12531108726586235 -0.33364459276816466 0.2180280596466609 -0.0307165472816918 -0.31444061104882803 -0.04726452050500111
0.1532822075258245 -0.32355547522925837 -0.15820186521712307 -0.1530257114506809 -0.31385239627323946 0.4168181075724029 -0.024402996710430332 0.21851938572714513
0.4661127579965053 0.05435972352575779 0.17599243447351007 0.4200567608467344 0.02157660332290094 0.1576481179958648 0.451716585428475 0.09447026415482555
0.12777276620951405 -0.5494826728701169 0.6708067398476449 -0.3625035903348962 0.40510174615528066 0.7329579341026139 -0.3634761098343297 -0.24442385826516547
-0.503496130724239 -0.583587287111043 0.0654099756421442 -0.46694909349845615 -0.31963384727629796 0.6077408806856177 0.4917768129191243 0.992321535784502
0.5091950661513089 0.6058980074053703 0.10264170910245946 0.6311502374116748 0.1368860378411634 0.019551344134303022 -0.42946816937623644 0.6831914806264145
0.43880145060381504 -0.24047432636328742 -0.6792943289202918 0.2984155223428824 0.6071851454979784 0.4906871428309168 0.9911915491469196 0.5086346305177216
0.6052831316312366 0.10236671373620597 0.6306654716626584 0.13688783511253025 0.019398384232150463 -0.429082969602563 0.6825264970201906 0.4383518014214279
-0.24030657864072763 -0.6788231218454678 0.2981207211032587 0.21273228017120344 0.21977262276696935 0.2197815915559715 0.21688276608124163 0.21357402148436097
0.21027904569607372 0.20748044013082692 0.20870185873143177 0.21137400196455036 0.21455850397615736 0.21799167908970274 0.21999721923652485 0.21685243796367448
0.2137705468936558 0.20671254374377787 0.19051529143392062 0.1884190920715672 0.18761873696398207 0.20173619689359507 0.2084240100067827 0.2134231368293507
0.22777915562067075 0.22249300217902832 0.21617942939845927 0.2051570316772971 0.18493929948091872 0.18270875687674765 0.18066853898807003 0.19799660896401539
0.2084518785325168 0.21794387711210234 0.23658842982308148 0.2293777609491958 0.21493390710496035 0.19704496725441714 0.18252083881183379 0.1796638261331199
0.1772015493929034 0.1884374717043341 0.20595794934790942 0.22393960798054707 0.2464128908984231 0.23689729751395952 0.217601053721817 0.196207682547661
0.18166096021839453 0.1779349672738206 0.17582904060814333 0.18661747596816183 0.20775516712797779 0.23095150777832354 0.25692855282819077 0.24495975156459937
0.2201526464704449 0.19594194585473496 0.18164871220175804 0.17694684990580578 0.17566928816523245 0.1857903586525415 0.21015400730246583 0.23886347719408454
0.2788523699469677 0.26328796452587605 0.22233507401437072 0.19195405020790593 0.18275211739368935 0.17179571956169593 0.17726254106242412 0.18281445392383763
0.2146354608258274 0.25780301716120896 0.18954663258385113 0.19448687557705777 0.19361329482123943 0.1916097278532946 0.1900454142587246 0.1883334631016557
0.1873042627471722 0.18929862933124122 0.19138614453937614 0.1928702129638503 0.19441213553305842 0.19486019201918597 0.18913180620718378 0.18444083067288142
0.18078565088676934 0.17208977191281877 0.17411034359058275 0.1750958758373257 0.18649600392598206 0.1898387688665949 0.191723931433783 0.2034870261297812
0.19331987390219327 0.18482104602584334 0.1784681463123539 0.16738356797754791 0.17110990529309372 0.17259751124295658 0.18654475529253078 0.1922896782056394
0.19748181350859875 0.21559672124525306 0.2009013706441302 0.18394904300291304 0.1719607156625965 0.16534803926437375 0.16936987781822363 0.17188931496882295
0.18098933383556148 0.19179619801656553 0.2057953407203013 0.23152266732196247 0.21158486592474426 0.1872772613868077 0.1721635213317313 0.16486113636769598
0.1687571633858128 0.17219849135010132 0.1813353475665169 0.19466469099998088 0.21646134159371913 0.2492945170665042 0.22535878544896587 0.1913506922680483
0.17327171203055658 0.16542813614633772 0.16886899307772796 0.17313608496429256 0.18175404518059335 0.1972154209323244 0.229588206525888 0.2832235038908633
0.2587987256884006 0.1991540285530247 0.1737562138034486 0.16831769267745997 0.16699855666016156 0.17571154948003537 0.17853047913365536 0.1985976461939476
0.25954053116164794 0.1807875766347361 0.18052783082315377 0.18193237798827275 0.1823730950503017 0.18221555040453702 0.18227113260930455 0.18179485109486931
0.18249787130679157 0.1825244819237697 0.1824894713475217 0.18185782017417243 0.15851057155928838 0.1583452715003892 0.17611929757699188 0.17567137639854613
0.17124156117728856 0.1737355583995705 0.16727311997987565 0.1681483880938625 0.1677561214740537 0.15390475439567497 0.1583736011728735 0.15822811850120372
0.17567161205989576 0.1749954950908757 0.16835170602792024 0.17240966395855709 0.1637010073509042 0.16593773045831714 0.16481266942218023 0.15203675533638245
0.1591770061021464 0.15994895431429246 0.16335272525831385 0.1699144045770917 0.1670218764934005 0.1717295925625421 0.16295800258493068 0.1618784232080102

running_var f8 [361]
00000000: 4989 ac8d 1b08 a03f 3537 20be df22 0640
00000010: 3fcc a627 6838 c23f 117b 56ae 7423 1940
00000020: e881 49be cad3 c03f 601f a9e1 0aa9 cb3f
00000030: 4c4b c9db 39e6 cd3f 1312 b71e 89d4 ce3f
00000040: c984 f90e 66c4 cf3f 6cf9 7536 6bd2 983f
00000050: 7089 f7b0 e877 6e3f d712 5ace 2590 783f
00000060: e4aa 318e 0311 943f 92a7 5719 d921 783f
00000070: a407 dccc 20c7 733f 0813 3d42 4eec 9f3f
00000080: 6ed1 e5ad 5389 6c3f 10d7 e9ae 3f71 6a3f
00000090: 3466 89ff e843 9a3f 88ff 20c7 8eaa 6c3f
000000a0: 03f4 29ca 01df 643f 2e9f e884 b753 1d40
000000b0: 3cbf 49be d418 fc3f 4e6b 33a5 bece 0a40
000000c0: e62d 29d4 4ff8 1640 2474 4541 d0dd f93f
000000d0: fcfa c8ae 644f 0840 8217 bc2a f0e8 1540
000000e0: 690d 934f 1036 f33f 40f0 b28c c79b f53f
000000f0: 33f4 7193 6a30 0b40 af6a f86f 1ca8 ea3f
00000100: 86e2 3509 1cc2 eb3f 437e 2dbb d044 2740
00000110: 0031 388c 7702 2840 94ca abc5 f137 2540
00000120: ebd0 a190 482e 2640 09e2 9fb2 4184 2740
00000130: 2f0f 3b29 8b00 2140 e77a e436 2ecf 2440
00000140: d5c7 748b e747 2540 78f1 0abe 0daa 2140
00000150: 181c 8923 ccfd 2040 a579 a362 0b93 2040
00000160: 4d49 f151 a99f 1d40 52b0 cddb 0e9d d63f
00000170: 2845 3a66 804b dc3f 02be a094 cb89 773f
00000180: 3bec 934c 7399 e03f 98ba a605 1b2e db3f
00000190: d46d 04fd d2d0 e63f dea6 e75f 8dbc d93f
000001a0: d31a 4b0f aa30 e63f 0963 c2d6 5649 e73f
000001b0: b08d b19d be52 e23f 6898 e68f 13e3 d53f
000001c0: 324f 4a5e 1138 e23f 2328 f283 5a0c e53f
000001d0: 56c5 7ba4 e5ef d23f 6bfd 99ba 4276 e43f
000001e0: 30b1 c394 ee9a d63f cc78 614a 7953 dc3f
000001f0: 1db6 1c52 7c1a 7c3f 48fb 0e48 b096 e03f
00000200: 203f 1711 0b2b db3f 9760 a577 46ca e63f
00000210: 0c4e 36e1 adb7 d93f fab7 4643 ab29 e63f
00000220: 26ff 26a6 7042 e73f 457c d144 654e e23f
00000230: 4724 2b50 7ce2 d53f 752c 3f1a ff33 e23f
00000240: c1ef 4a73 2506 e53f 3089 e407 44ec d23f
00000250: 6bfa ad38 b470 e43f 518c 4173 9e8d b93f
00000260: 3dc6 6648 6fbd ba3f c3ed bef5 23ba ba3f
00000270: 5846 6d50 4543 ba3f bb4f 5f80 ceb2 b93f
00000280: b47f 271a b224 b93f 87d4 2cd1 88b6 b83f
00000290: 77a8 0453 ccdd b83f cb37 c982 c04b b93f
000002a0: f7a0 9fbe 78d8 b93f f2c1 0c85 426d ba3f
000002b0: bd15 9d0f 457b bb3f 2290 ffcd aa13 bb3f
000002c0: 4357 649c 0d3a ba3f 56d3 62b9 f105 b93f
000002d0: 5744 6695 ee81 b63f 7175 a897 48f7 b53f
000002e0: 4bc1 b2d9 aa11 b63f 2e51 f9dd cf54 b83f
000002f0: 0bc5 d143 557f b93f 8834 a7dc a198 ba3f
00000300: c992 42ac ebf1 bc3f 5018 b55d fa3e bc3f
00000310: 69f5 c336 5ed2 ba3f 2eab 9e1c 7cf8 b83f
00000320: a25c d0ec e5c6 b53f 61aa d060 0723 b53f
00000330: 64e0 3f86 451e b53f 636c 7715 a8f0 b73f
00000340: 7854 6993 69c0 b93f 7240 0a73 aa9c bb3f
00000350: 5bb1 b207 5e87 be3f fbda cb3d fb8c bd3f
00000360: bbb3 3748 e91c bb3f fc22 8f9f cd01 b83f
00000370: 7bdb efaf 8887 b53f cb72 932c 4dbf b43f
00000380: d471 390f f5ae b43f dad0 08ab d9aa b63f
00000390: f17f ff78 42c8 b93f c3f2 345d 73cb bc3f
000003a0: b9f1 2be5 981c c03f d0bc ee6f b8e9 be3f
000003b0: 1553 25dd 1dc1 bb3f b8cc de7d 8911 b83f
000003c0: 9c07 4f98 d287 b53f 6092 b379 a797 b43f
000003d0: 8bb4 90ea 4e92 b43f 9a08 d297 8484 b63f
000003e0: df9c 93a2 8a46 ba3f f4f6 b5de be17 be3f
000003f0: f632 28b2 5bfd c03f 48b3 e794 4428 c03f
00000400: c3a7 d4f3 fa5d bc3f 93f1 316b 4038 b83f
00000410: f89f b686 73ab b53f 053f c2d2 3a96 b43f
00000420: 1e51 c106 1ea5 b43f d053 3da3 c183 b63f
00000430: e76a b436 b6d5 ba3f ac24 b4f8 497b bf3f
00000440: b344 7e44 75bf c23f 280a e4ff 32a3 c13f
00000450: d4af ed70 253f bd3f 1122 232d 3127 b83f
00000460: e6cf 225a 3d20 b63f 99aa 9fb7 5850 b43f
00000470: 74e7 c4d4 4116 b53f 20cb 860a f065 b63f
00000480: b288 7936 45e3 bb3f ffc2 8ff9 2d44 c13f
00000490: f4e3 d0f4 3546 b63f c14f 8643 bd2c b73f
000004a0: 615b 4d04 36ff b63f fef5 d1dc 1ca2 b63f
000004b0: b10e 3946 0954 b63f 7802 b870 6e08 b63f
000004c0: d030 2f08 f2e7 b53f d338 b451 2c37 b63f
000004d0: 726a b3cf cf94 b63f 6de7 314f 4ede b63f
000004e0: 8918 33e9 c424 b73f dbef 3032 d4da b73f
000004f0: df48 2bff 910a b73f 0a86 ed95 fa01 b63f
00000500: 386f 5b13 294e b53f bf93 cc1c adcd b33f
00000510: ca14 50d1 9aed b33f 0def 0876 8856 b43f
00000520: 4b49 b4d8 a93a b63f 0636 f602 6cdb b63f
00000530: 05db fece 8674 b73f 795a 58d8 558b b93f
00000540: de3e d153 c314 b83f 696f 3bb3 6a53 b63f
00000550: 84c0 40d1 a723 b53f 046b 2c75 6733 b33f
00000560: be62 6695 eb87 b33f d495 0697 521b b43f
00000570: 77a8 9ec1 4671 b63f 4ade 432e 927a b73f
00000580: e414 8e66 7fb4 b83f 46d6 734b 70bf bb3f
00000590: a034 edde ad9c b93f 209b 3a48 da93 b63f
000005a0: cbb6 9eb9 e14b b43f a74a fa4a 3a03 b33f
000005b0: 521f 226a 625e b33f f321 532e c428 b43f
000005c0: 4022 1f09 79ce b53f ce6c 1642 c5d0 b73f
000005d0: 8c50 7d11 e050 ba3f 3d51 f876 2d74 be3f
000005e0: abe3 24d1 8a94 bb3f 51b9 5de0 ad59 b73f
000005f0: 507d 1108 2480 b43f 1a6f f7ed 6a13 b33f
00000600: 22fb bbef eb6b b33f dd42 d0d1 2862 b43f
00000610: 526e 4ec8 000f b63f 3eb2 dd9d c481 b83f
00000620: 7af3 5665 2c40 bc3f ef69 a8b5 03aa c03f
00000630: 47cb 1311 feef bd3f 42c4 64e5 b038 b83f
00000640: 4a29 182c 8cda b43f 2d55 fc3f d44e b33f
00000650: 12ca 6282 629f b33f f385 5982 16b6 b43f
00000660: 8759 980c e354 b63f afc4 efd8 5525 b93f
00000670: 0ee4 0f18 b77d be3f 3989 d5c3 ba33 c33f
00000680: 49a8 df7d e58b c13f 509e 029d 99ef b93f
00000690: d7f4 a03f 7a6c b53f cf2f a1d9 680d b43f
000006a0: 51ad 366f 3fdc b33f cc4b 5e84 9577 b53f
000006b0: 2f81 3da9 db5e b63f f508 7964 c5f3 b93f
000006c0: e367 c835 ef9a c13f 9ee7 09b9 cffc b83f
000006d0: c9bd fef8 c117 b93f 8139 f56c 6f44 b93f
000006e0: e8cf 0cf1 544b b93f 6a4b 21e3 f83d b93f
000006f0: 61b4 ae05 203c b93f ec87 6da7 aa2e b93f
00000700: 122b 1670 b148 b93f 9dcf 1c46 334d b93f
00000710: f059 13ae df50 b93f 4522 b003 a441 b93f
00000720: 4364 3261 3124 b63f f3cc 162a 6b21 b63f
00000730: 97fb 1ad0 5699 b83f 1be7 36a2 b276 b83f
00000740: 3463 f225 babb b73f 9059 2b69 b808 b83f
00000750: 6e84 3064 a352 b73f 83cf 4d31 9891 b73f
00000760: defb d2ff a68a b73f 72fa 2309 4386 b53f
00000770: 30d8 6295 d155 b63f 915f dde1 c457 b63f
00000780: ab2b 240f 32c2 b83f f328 a182 4b8b b83f
00000790: b531 b23e c66b b73f ab90 c165 49ee b73f
000007a0: 74a0 c307 bff8 b63f 5e1f 9487 8179 b73f
000007b0: 3f31 3a1b 1a57 b73f ad6c 4c10 d471 b53f
000007c0: c713 2e12 3aac b63f fbd2 e522 b1d6 b63f
000007d0: f8a5 913b 2b39 b73f 67dd 5c66 c6f4 b73f
000007e0: 2771 ee4f f35b b73f 4502 6fda 4bf3 b73f
000007f0: 806a dbdf 270d b73f 5d72 5789 ad0e b73f
0.03131185631197526 2.7670283177930295 0.14234640060530698 6.284624790218701 0.1314633778702181 0.2160962678774423 0.2335884402442282 0.24086107253801056
0.24818111163316406 0.024240184020066932 0.0037192864181047544 0.005996844940118171 0.019596152833780148 0.005891655009216639 0.00482857525435235 0.031174872200852938
0.0034834513054937044 0.0032278293431841146 0.02564968166038835 0.0034992970113591516 0.002547744269860265 7.331754757593258 1.756062262833395 3.3509495645825274
5.742492022527108 1.6166536855373659 3.038766255863605 5.4774786641409055 1.20069914897689 1.3505321022085042 3.398640777506921 0.8330213725015109
0.8674450092213 11.634404992392893 12.004818326815894 10.609266450138684 11.090397376778546 11.758313734070741 8.50106171461047 10.40464946307243
10.640438421254581 8.83213609584412 8.495698080527333 8.287196237998453 7.40591934237666 0.3533360620992926 0.44210824950376315 0.005746646153098835
0.5187317367230045 0.42468905975230475 0.7129912320846707 0.40213331571304234 0.693440465803031 0.7277025408285179 0.5726006584122185 0.34198464443978205
0.5693442193610052 0.6577580048626753 0.2958921533855422 0.6394361156998633 0.35320629623199107 0.4425948358892924 0.0068611961631126735 0.5183946044342997
0.42450215024017446 0.7121918045841252 0.4018358897530738 0.6925865472783237 0.7268603558695517 0.5720697731120558 0.3419485838790632 0.5688472283012646
0.6570002795992808 0.29567051668904565 0.6387578112624629 0.09981718362682669 0.10445304410566165 0.10440277814534853 0.10258897031351333 0.10038462289895637
0.09821618212254074 0.09653525454344179 0.09713437105952659 0.0988121337224747 0.10095934537787686 0.10322967289244625 0.10734969741050455 0.10576884774451448
0.10244832103884698 0.09774695182825374 0.0879201044792962 0.08580449774350087 0.08620708289050076 0.09504412812504334 0.09959919839618096 0.10389148366012269
0.11306641536300356 0.11033596790102362 0.10477246129081198 0.09754157732701849 0.08506619483556446 0.08256574739122292 0.08249315764976611 0.09351587795338072
0.10059223030960307 0.10785928066820974 0.11925304115238104 0.11543245562266329 0.10590990079044975 0.09377751489149583 0.08409933371863858 0.08104402864723707
0.08079463597955022 0.08854446817059927 0.1007119698911081 0.11247941041524272 0.1258727187158806 0.12075379116753315 0.1084154763132797 0.09401759455686232
0.08410373896097528 0.08043905945994245 0.08035748697939675 0.08795956331781199 0.10263887852817132 0.11754982888484361 0.13273187827180494 0.1262288786960204
0.11080902531526164 0.09460833184306798 0.08464738882923928 0.080417324499873 0.08064448990746029 0.087947943070801 0.10482348285260522 0.12297499009959506
0.14646783680340078 0.13779294485728255 0.11424478537600119 0.0943480239103638 0.08642943811975065 0.07935099108696377 0.0823708672004651 0.08749294526095897
0.10893662052106626 0.13489317594169134 0.0870088312812099 0.0905264177184213 0.08983171086343368 0.08841114417187865 0.08721979107309143 0.08606615306781318
0.08557045650303796 0.08677937502600068 0.08820818730183946 0.08932961877317576 0.09040480321263734 0.09318281388635745 0.09000503997529873 0.0859676948580487
0.08322388384425217 0.07735712006667848 0.07784431085754587 0.07944538957320564 0.0868326334059805 0.08928561279591216 0.09162180474855226 0.0997823384462694
0.09406681820223237 0.0872103393152749 0.08257531031336113 0.07500311480218264 0.07629272839984488 0.07854191004897554 0.08766596056980967 0.09171403531569769
0.0965041756990846 0.10838987199880376 0.10004698460143624 0.08819355262185669 0.07928286344278061 0.074268000893691 0.07565894213814531 0.07874704485869426
0.08518177483268463 0.09302933562723867 0.10279655863752363 0.11896022944012415 0.10773532491738418 0.0912121460694142 0.08008027264576367 0.07451504049043614
0.07586550333870126 0.07962279436493298 0.08616642847339875 0.0957301030554811 0.11035420869934667 0.13018843050015458 0.11694324414183398 0.09461503601484458
0.08145977093241644 0.0754215866293932 0.07665076907395754 0.08090344126096465 0.087232771468143 0.09822594209960543 0.11910576188519448 0.15001616060460224
0.13708180090117342 0.10131225665338062 0.08368648580013215 0.07832961381171731 0.07757946458030075 0.08385595780991578 0.08738491899339772 0.1013759012503533
0.1375407230960369 0.0976075960878959 0.09801876381856468 0.09870048914056008 0.09880572209368632 0.09860187096755416 0.09857368601542894 0.09836832606882212
0.09876545893181923 0.09883423291904454 0.09889028549091683 0.09865784730949041 0.08648975966424736 0.08644742753567751 0.09608976917932775 0.09556118450464306
0.0927082388537997 0.09388306205378272 0.09110470958741398 0.09206534579953822 0.09195941682536055 0.08407992337377282 0.087246989222735 0.08727674974704615
0.09671318883572037 0.09587547244260346 0.09148825674691959 0.09347971662788505 0.08973306598238812 0.09169778404259207 0.09117282070855469 0.08376813314355287
0.08856547302100558 0.08921343900676597 0.09071607784576219 0.09357872008410127 0.0912468023438505 0.09355615694858795 0.09004449095974998 0.09006771662775166

count f8 []
00000000: 0000 04a0 4f9b 1542
23200000001.0

running_mean f8 [1]
00000000: b368 7c40 153e 5640
88.9700471129352

running_var f8 [1]
00000000: 2ec9 d631 301d 7c40
449.8242662801812

count f8 []
00000000: 0000 10a0 4f9b f541
5800000001.0

a2c_network.sigma f4 [15]
00000000: 53bc 75bf aa2c 84bf f07d 86bf 5b09 fdbe
00000010: 2d4d 10bf ce97 39bf b870 0fbf b881 10bf
00000020: 19b4 2ebf cacb 40bf 4ec7 09bf 78fc 0ebf
00000030: 6baa 3bbf 03b3 51bf fb40 f6be
-0.95990485 -1.032613 -1.0507183 -0.494212 -0.5636776 -0.7249726 -0.5603137 -0.56447935
-0.6824356 -0.7531096 -0.5381974 -0.55853987 -0.7330691 -0.81913775 -0.4809645

a2c_network.actor_mlp.0.weight f4 [128, 361]
00000000: 176b 6a3f 3df1 cdbe 5af8 023e c1f9 40be
00000010: cb08 16bf 335e 713d 6612 cdbd 0854 e5bd
00000020: d766 74bf 2e40 cebe 0857 45bf 0e28 febe
00000030: 9edf 9bbe 1cf8 e0be 0339 8bbf f129 0840
00000040: e299 893e c1ed 4bbf 6db2 1a40 cd77 593e
00000050: 643c d6bf 862d 9c3d 7afc 49bf 5927 9f3f
00000060: a979 03bf 9b50 493f eebf d23f 1d0b 593f
00000070: 3514 123e f826 3f3f 2443 9cbe fd17 0fbf
00000080: c57b d0be cb55 293e d5f1 70bf bb5b 173f
00000090: 7808 c6bf ba90 75be 8493 07be 4808 cfbe
000000a0: a3ac 073e 5da8 63bf eedf ca3f 6386 08bf
000000b0: 1530 033f 3443 48bf 029c 7bbe 5dfe 70bf
000000c0: 0078 ba3e 2934 fbbc a8e5 aabe 0560 c6bf
000000d0: 7325 22bf 2acd 08bf 501b a93e 2bd5 1ebf
000000e0: 4bd9 2fbf 5cab fdbe 1fac 573f c3ad 2dbf
000000f0: 3894 22bf 2a77 3cbe 0195 d3bf 610c 60bf
00000100: a9d4 a03d 5a8a f1be 853a 15bf bd13 c6bf
00000110: b3a9 d5be 54ea 9fbe bdde 02c0 212e 3dbf
00000120: 9384 f93c 759b 3e3f 5717 083c 02ee 88be
00000130: 86dc 0cbe 4462 393f 5a9f 7c3c d204 afbe
00000140: 5b10 193f e434 86be a27b 3ebd 6804 b5be
00000150: 6f24 27bd a327 e93d 0c19 933c 742e 3dbf
00000160: bee5 70bf a234 06bf dcaf 23bf fa2a 32bf
00000170: 5b0a 0f3e 4001 dbbd 06df d1bd 72f1 35be
00000180: a5f4 ce3e c9e9 83be 8634 153e 41f0 4b3f
00000190: 8ce0 97bf 4284 c6be d7fb 25bf 9c71 583f
000001a0: eaf0 c8bd f126 c73d 6615 fb3e 8580 293e
000001b0: 56e2 ffbc 024d 92be 91d7 893e e8c7 3bbf
000001c0: de30 5c3f 5375 31bd 9ecc 8d3e 973c 91bd
000001d0: b8a1 59be 37e4 913d 3c97 fbbe fcd2 a9bf
000001e0: 7aa2 0abf 67c9 e6bd be23 573f 7f4e 0ebf
000001f0: 83e8 2fbe 104d 9dbe c4cf 33bf b33c 2e3f
00000200: 7413 2f3f aa31 a23c 4399 d5be 092d 2e3f
00000210: c662 c33e 1179 743d 0c17 2e3f 404e 0e3d
00000220: 86be 6b3d ec23 cebe 9738 92be 87f6 4bbd
00000230: c75b 0ebe e692 c03e 7074 853e 0cc4 883e
00000240: e99a 4abf 8280 13c0 9842 94bd f183 8bbe
00000250: 7190 e6be 0020 d33d 0343 0c3f a4c2 9a3e
00000260: a00b ab3e a8f1 de3e 29d3 553e fd4e 903d
00000270: 2877 68be b9c6 e83d 1fad 453e f8fa 21be
00000280: 7f46 13be 730f 1a3f 4eb6 31bf ce4b 193e
00000290: 2ed0 d5bd 8a7e 0b3e 2e1e b5bd 05ce 053e
000002a0: 12dc 38be d205 ecbe a6f4 943e 5390 8a3f
000002b0: f353 ab3e 0328 0cbf 7df6 e33d b4a9 383f
000002c0: ac50 80bf 7f2f b53e 411a 40bd 5950 aabe
000002d0: a4ab 863c ac7c a53e 8a52 d73b 96bd 15bf
000002e0: 5948 1bbe c3d2 1bbe 63c2 973e 8fc3 bbbd
000002f0: 5923 0e3f 87f6 a8be a3cf 993e 5899 0bbf
00000300: 6f26 fd3e 6876 753e bb94 093f f0ea 2bbf
00000310: e33b 9b3d 8261 633e b868 533f 64ba df3e
00000320: 552c 743e 0861 00bc ad27 e53d f27e 18bf
00000330: 57a3 ae3e 3f3d d23e 035b fe3e 82da ab3f
00000340: 34b8 b43f 7b72 1b3f d844 113f 8d35 00bf
00000350: a097 2bbe 6bd6 3ebf 6956 00bf f1a2 02bd
00000360: a2a0 903f a8a8 6b3d 7557 44be 523b 22bf
00000370: 29b1 e73c 14d5 1ebf ea92 07bf e94a 813c
00000380: 533c 143e 49e1 27bf efe1 603e 8fd9 9abd
00000390: 731b 033e 3804 3e3d 0994 a53e 1cb9 873f
000003a0: 5799 043e 0e48 e1bd a8ae 39bf 961d 9cbd
000003b0: 381e 4b3e 0c0c adbe 7ebe f63e 1227 c5bd
000003c0: 3bb4 69bf 82b6 953f 1a0a cbbd 620d ee3e
000003d0: c248 f8bd cff5 1d3f 4527 52be 8ef3 8abe
000003e0: 2510 f3bc f4c2 bdbe 114b 58bf 4a5d c0bd
000003f0: db74 6fbd b709 e6be 8e04 7b3f e8f7 bebc
0.91569656 -0.40223113 0.12790051 -0.18845274 -0.58607167 0.058927726 -0.10013275 -0.11197668
-0.9546942 -0.4028334 -0.77085924 -0.49639934 -0.30444044 -0.43939292 -1.0876774 2.12756
0.26875216 -0.7965966 2.4171402 0.21237107 -1.673718 0.076258704 -0.78900874 1.2433883
-0.51357514 0.7863862 1.6464822 0.8478258 0.14265521 0.74668837 -0.30519974 -0.5589598
-0.4071943 0.16536634 -0.94119006 0.59124345 -1.5471334 -0.2398099 -0.13239866 -0.40436006
0.1324945 -0.88928777 1.5849588 -0.5333006 0.5124524 -0.78227544 -0.24571231 -0.9413813
0.36419678 -0.03066452 -0.3337834 -1.5498053 -0.6333839 -0.53438056 0.3302865 -0.6204402
-0.6869094 -0.495448 0.8424701 -0.67843264 -0.63507414 -0.18404832 -1.6529847 -0.8751889
0.07853062 -0.47175866 -0.5829242 -1.5474774 -0.41731033 -0.31233466 -2.0448449 -0.7389851
0.030458724 0.7445596 0.008306346 -0.26744086 -0.13755998 0.72415566 0.015418852 -0.34183365
0.5979058 -0.26212227 -0.046504624 -0.35354924 -0.04080623 0.11384513 0.01795628 -0.73899007
-0.9410056 -0.5242406 -0.63940215 -0.6959683 0.13968794 -0.10693598 -0.102476165 -0.17767885
0.40421024 -0.257643 0.14570817 0.79663473 -1.1865401 -0.3877278 -0.648374 0.84548354
-0.09811576 0.09724224 0.49039763 0.16552933 -0.031235855 -0.28574377 0.26922277 -0.7335191
0.86012065 -0.04332478 0.27695173 -0.07091635 -0.21253097 0.07123607 -0.4913882 -1.3267512
-0.5415417 -0.11268883 0.84038913 -0.55588526 -0.1717854 -0.30722857 -0.702389 0.6806137
0.6838906 0.019799072 -0.41718492 0.6803747 0.38161296 0.05968577 0.68003917 0.034742594
0.057554744 -0.4026178 -0.285588 -0.049795654 -0.13902198 0.37612075 0.26065397 0.26712072
-0.79142624 -2.3047185 -0.07239264 -0.272491 -0.45032075 0.10308838 0.5478975 0.30226624
0.33407307 0.43543744 0.20881332 0.07046316 -0.22701705 0.11366028 0.19304322 -0.15818393
-0.14382361 0.60179824 -0.694188 0.14970323 -0.10440098 0.1362249 -0.08843647 0.13066871
-0.180527 -0.4609819 0.29092902 1.0825294 0.33462486 -0.54748553 0.11130998 0.72133946
-1.0024619 0.353878 -0.046900038 -0.33264425 0.016439267 0.3232168 0.0065711187 -0.5849241
-0.15164317 -0.15217118 0.29640493 -0.09168159 0.55522686 -0.33000585 0.30041227 -0.5453086
0.49443385 0.2397095 0.5374257 -0.6715536 0.07579782 0.22205165 0.82581663 0.43696892
0.23845036 -0.007835634 0.11189208 -0.59568703 0.34108993 0.41062352 0.4967881 1.3426058
1.4118714 0.6072156 0.5674567 -0.5008171 -0.16757059 -0.74545926 -0.5013185 -0.031893674
1.1299021 0.05753389 -0.19173987 -0.63371766 0.028282719 -0.6204388 -0.5295855 0.01578279
0.14476137 -0.6557813 0.21961187 -0.07561027 0.1280344 0.046390742 0.32339504 1.0603366
0.1294912 -0.110000715 -0.7253213 -0.076228306 0.19835746 -0.33798254 0.4819221 -0.09626593
-0.91290635 1.1696322 -0.09914036 0.46494585 -0.121232525 0.617032 -0.20522793 -0.27138942
-0.029670784 -0.370628 -0.8448954 -0.093927935 -0.05846105 -0.44929287 0.98053825 -0.02331157

a2c_network.actor_mlp.0.bias f4 [128]
00000000: 436f 15c0 4578 5ec0 a320 64be 618f 33c0
00000010: 1c97 4ac0 6b33 ac3e bece 89c0 6001 7ebf
00000020: 3853 253f 8d43 4dc0 f08e 01c0 63d3 ecbf
00000030: e233 efbf ec0a 13c0 c989 18c0 8efc 10c0
00000040: cf5f 24be 9b4c 17c0 b71d 73c0 703c 35c0
00000050: 09f7 96bf 57c3 1cc0 d507 06c0 696b 43bf
00000060: 7d41 06c0 e8e9 733e a9d0 9dbf 7806 dbbf
00000070: 88d9 ddbf 8180 dd3d b134 2dc0 f0c6 2ec0
00000080: 9ab3 04c0 f99d 4ec0 7931 d0bf 50e4 25c0
00000090: 448d 2fc0 c278 843d 6180 ddbf ba3d 0ac0
000000a0: 7765 b7bf e3a8 26c0 3912 c2bf e5de 4bbf
000000b0: 556f ddbf a614 abbf a8e8 43c0 c4b8 9bbf
000000c0: 5a83 54c0 397a 7ebf 1c91 c6bf 90c0 47c0
000000d0: 1ced 12c0 4c8d ef3e 6856 babf 8041 4fc0
000000e0: d1b3 fbbf 1057 23c0 83c6 02c0 2e97 a1bf
000000f0: ae72 4ec0 005d 4fbf ec19 2ac0 586e 8fc0
00000100: e7b3 debf 934f 21c0 cc7c 27c0 f98e c2bf
00000110: 63f3 3fc0 adc4 0fc0 efcf e0bf 1ced 8bc0
00000120: 010e 12c0 eb7c 3cc0 8415 2ec0 6143 3ec0
00000130: 03bc 5fc0 ca4f 3bc0 c19f e0bf 8dd5 3fbf
00000140: 4f5f 8bbf b277 80bf 2294 efbf dd5f 473f
00000150: e355 a6bf 1f17 0ec0 f816 54c0 67f9 f9bf
00000160: b0fb 0dc0 1548 22bf a1fa 28c0 6992 12c0
00000170: 6e47 edbe c961 6abe 2f41 02c0 0f9a 6dc0
00000180: 4a6c 25c0 e14f 06c0 3730 96bf 8ba4 0dbf
00000190: 800d 1cc0 17eb dabf 4dd3 0bc0 d496 343e
000001a0: 265e 8bbf 70ae 14c0 52a8 0ec0 e62a 31c0
000001b0: 7cfb 13bf 96ba 5ec0 8d9b c9bf d87d d3be
000001c0: 0228 44c0 248c e1bf dfd6 1bc0 c568 b03e
000001d0: a6e0 96bf 9d16 49c0 dbd7 47bf 8167 583f
000001e0: 0ac2 eabf a9c8 03c0 7883 40c0 bbe8 dabf
000001f0: 39c9 afbe 5d30 27c0 83f3 f0bf 6549 3bc0
-2.3349159 -3.4760907 -0.22278075 -2.8056262 -3.165473 0.3363298 -4.306487 -0.9922085
0.64580107 -3.207248 -2.0243492 -1.850201 -1.8687708 -2.2975416 -2.3834097 -2.2654147
-0.16052173 -2.3640506 -3.7986887 -2.8318138 -1.1794139 -2.4494226 -2.094228 -0.7633577
-2.097747 0.23819697 -1.2329303 -1.7111349 -1.733201 0.10815526 -2.706341 -2.7308922
-2.073462 -3.228392 -1.6265098 -2.59206 -2.7429972 0.06468345 -1.7304803 -2.1600175
-1.432784 -2.604058 -1.5161811 -0.79636985 -1.7299601 -1.3365676 -3.0610752 -1.2165761
-3.320517 -0.99405247 -1.5513034 -3.121128 -2.295722 0.46787488 -1.4557619 -3.2383728
-1.9664251 -2.5521889 -2.0433662 -1.2624261 -3.2257495 -0.8100128 -2.6578321 -4.4822197
-1.7398652 -2.5204818 -2.616992 -1.5199882 -2.9992301 -2.2463791 -1.7563456 -4.372694
-2.2821047 -2.9451244 -2.7200632 -2.9728625 -3.4958503 -2.926745 -1.7548753 -0.7493523
-1.0888461 -1.0036528 -1.8717082 0.7788065 -1.299496 -2.2201612 -3.313902 -1.9529237
-2.2184868 -0.6339124 -2.6402972 -2.2901862 -0.4634356 -0.22888865 -2.0352285 -3.712528
-2.5847344 -2.0986254 -1.1733464 -0.553292 -2.438324 -1.7102994 -2.1847718 0.17635661
-1.0888107 -2.3231468 -2.2290235 -2.7682433 -0.5780561 -3.4801383 -1.5750595 -0.4130695
-3.064942 -1.7620893 -2.4349897 0.34454933 -1.1787307 -3.1420052 -0.78063744 0.84532934
-1.8340466 -2.0591223 -3.0080242 -1.7102274 -0.34333208 -2.6123269 -1.8824314 -2.9263546

a2c_network.actor_mlp.2.weight f4 [128, 128]
00000000: 3596 72be 9d4f 99bd 83e6 3bbe b088 db3b
00000010: be9f 113e 7ed5 91bf 609c cd3e 2ff9 95be
00000020: b398 c0be 0d16 9ebd 4e21 85be 41d9 83be
00000030: 2186 e8bd cef2 7dbe b48b e2bd a07e 09be
00000040: f678 c4be 547e 5ebe a613 813e adc0 773d
00000050: 3095 02bf 6ec3 98be b8ab 25bd e233 48bf
00000060: dffc e83b 46f5 28be 35a2 2ebe a8e2 f8bc
00000070: f5d6 efbe dad5 d9be 0716 463d cfc2 e2be
00000080: cf20 7ebe e7f4 b9bd 4226 50bf cb0a 81be
00000090: 7183 4e3d e4cf 07bf 3e72 523d 92e7 53bd
000000a0: 8e2d 5bbe 5104 a7bd 2fac acbd 6ee0 55be
000000b0: 98b9 473e 109b 5bbe 9e5c 343e 9b73 2abf
000000c0: 7ad4 f13d a411 86be 3995 e0be 6a32 553e
000000d0: 81f9 68bd 4e44 2fbf af68 09bf f6e5 2d3d
000000e0: 95bd adbb ae8d f53c 27c1 79be 522d 2fbd
000000f0: 262c b4bd 5b0f 8ebf 3ea4 a5bc a00a 673e
00000100: 4a8a 13bf a85a 76be 78cb f4be 1724 f2be
00000110: 3f3b b0bd f16e b1be a6d7 eabe 4438 d03e
00000120: 65fe 0c3e b684 973e c8b2 3dbe 1556 493e
00000130: 41a7 b0be b0ca 36bd 336c 3cbf e344 4bbf
00000140: b562 9c3c f6b2 37bf fa5f 8fbd f040 3ebf
00000150: 7301 15bf 3c65 02bc 7150 283e d1d2 14be
00000160: 41b4 cfbe 79c4 34bf f30e 2cbe 4e90 873c
00000170: 7819 abbe a935 5bbe 88ab afbe 2c59 00bd
00000180: be4f 93be 02b3 d03d 8c02 ecbe a9f4 29be
00000190: c809 5f3e 50ce 61be 57cb dd3b 6b1a 6cbf
000001a0: 75dd 46bf 36eb 79be 2c87 b9be 5ead 0bbe
000001b0: 4cd7 babe 84dd 3a3b cca7 37bf ec49 46bf
000001c0: d94f df3d 85d2 2a3d 41ac 14be d320 02bf
000001d0: 1919 49be 6f56 8bbd 5223 25bf cd08 39bf
000001e0: 41dd c4be 401f 62be f3a8 c6be 6233 93be
000001f0: 72a8 1fbd 3be8 0c3e 364f e1be bc96 4e3d
00000200: 0814 c33e 2e73 a63f ffd8 71bc f1dd 6ebf
00000210: 9d26 fcbe 2fd1 b3be 51fc 0e3e 4b65 f93d
00000220: 2d8b 41bf 71f7 993e 4431 c83d 064f 80be
00000230: a486 1bbf 4346 f6bd b154 393f d7ee e3be
00000240: cdb9 b4be a02d 323e c8b5 1cbf fbd7 57be
00000250: 184d 86be 2e84 2abf ba63 98be 5ac1 a8be
00000260: e1b4 203d 2bc7 09bf d931 e7be df67 23bf
00000270: 5608 c13d d2ea de3e 06d5 113f dbc8 56be
00000280: 8bb4 3a3e 8452 793d 03c5 373c bee4 a23d
00000290: 8f5d 47bf 3350 00bf 5b1b 133f 4763 303e
000002a0: 0ccc f0be 66d8 16bf d567 a9bd 1df8 cfbe
000002b0: 89ba 28bf b9c5 b13e 50b3 edbe 84a3 d0bf
000002c0: 94a6 8b3e a9a4 31be b37e aa3e 1bcc 413e
000002d0: a41b 96bd 337d 80be 4edf 9dbe 8dc9 36bf
000002e0: 1278 ee3e b546 71bf fdb5 003e 58f3 003f
000002f0: 1d58 d7bd 724a c4be 537b 853e d7ca b1be
00000300: 79eb fdbe e17c 24bf 0dbe 393d f066 733d
00000310: cb5d 10bf fd49 bc3c 265c 843e 668d 543e
00000320: 3eeb 0e3e b236 0a3d 65e6 afbe 13b3 d9be
00000330: 9a8e 55be b879 c8bf 4b66 b43e a6dd aabd
00000340: 9d3f 6bbf fe70 71be 0660 0ebf d971 56bf
00000350: 0539 03bf cbbf f0be c866 22bf fd5a 6a3e
00000360: 3707 833f 14f4 24bf 56e9 36bd 5879 f2be
00000370: 1c42 0fbe e91e 0e3e c534 f8bd cf50 60bf
00000380: 3e88 71bd b473 eb3e e299 34be 767c c7be
00000390: ab94 523e c298 bcbe 4bce 663e ebb9 043f
000003a0: f0f3 86be c38d d33d 6223 c8be cccb 9cbe
000003b0: 6146 b9bf f866 8ebe af49 62bf 76d4 b3be
000003c0: 8673 bf3e ac37 843e fc16 433e 33c1 d9be
000003d0: 0003 6fbf 02ca 1cbe 437c 033e d58c d1bf
000003e0: 3721 0d3f 248b 8a3e db31 2d3d d337 79be
000003f0: 540d 213e f9ce 3abf 5d2e d6be e935 c7be
-0.23690112 -0.07485888 -0.18349652 0.006699644 0.14221093 -1.1393278 0.40158367 -0.29291674
-0.376165 -0.077190496 -0.26001972 -0.2575169 -0.11353708 -0.24799654 -0.110618025 -0.1342721
-0.38373536 -0.21727878 0.25210303 0.060486484 -0.5100889 -0.298366 -0.040446967 -0.78204167
0.0071102227 -0.16499814 -0.17054065 -0.030381516 -0.46843687 -0.42545968 0.04836085 -0.44289252
-0.24817203 -0.090799145 -0.81308377 -0.25203547 0.05041832 -0.5305159 0.05137848 -0.051734515
-0.21404096 -0.0815512 -0.08431279 -0.20886394 0.19504392 -0.2144587 0.17613456 -0.6658265
0.11808105 -0.26185334 -0.43863848 0.20820013 -0.05687857 -0.684636 -0.5367536 0.042455636
-0.005302141 0.029974785 -0.24390088 -0.04276783 -0.08797483 -1.1098436 -0.020219918 0.22562647
-0.5763289 -0.2405802 -0.47811484 -0.4729316 -0.0860505 -0.34654954 -0.45867652 0.40667927
0.13768919 0.29593438 -0.18525231 0.19661744 -0.34502605 -0.04462689 -0.736026 -0.7940199
0.019090036 -0.7175745 -0.07000728 -0.74317837 -0.58205336 -0.0079587065 0.16436936 -0.14533545
-0.4056721 -0.70612293 -0.16802578 0.016548302 -0.3341787 -0.21407188 -0.34310555 -0.03133504
-0.28771776 0.10190393 -0.46095693 -0.16597237 0.21781075 -0.22051358 0.0067686248 -0.9222781
-0.77681667 -0.24406132 -0.3623594 -0.13640353 -0.36492383 0.0028513381 -0.7174041 -0.77456546
0.109039016 0.041704673 -0.14518835 -0.50831336 -0.1963848 -0.06803595 -0.6450702 -0.72279054
-0.38450053 -0.22082233 -0.38800773 -0.2875014 -0.038979 0.13760464 -0.44005746 0.05043672
0.3810122 1.30039 -0.014761209 -0.93307406 -0.4924821 -0.35120532 0.13963439 0.12177523
-0.7560299 0.30071595 0.09775022 -0.2506029 -0.6075232 -0.1202512 0.72394854 -0.44518158
-0.35298005 0.17400217 -0.61214876 -0.21078484 -0.26230693 -0.6660794 -0.29763585 -0.32960016
0.039235 -0.5381953 -0.45155218 -0.6383037 0.09425418 0.4353853 0.5696567 -0.20975058
0.18232934 0.06086971 0.011216405 0.07953785 -0.77877134 -0.50122374 0.57463616 0.17225371
-0.47030675 -0.5892395 -0.082717575 -0.40618983 -0.6590963 0.34721163 -0.46425867 -1.6299901
0.27275527 -0.17347969 0.3329979 0.18925516 -0.07329491 -0.2509552 -0.3083443 -0.7140129
0.4657598 -0.94248515 0.12569423 0.50371313 -0.10514853 -0.38338047 0.2607065 -0.34725067
-0.49593714 -0.6425305 0.045347262 0.05942434 -0.56393117 0.0229845 0.25851554 0.20757064
0.13956925 0.033743568 -0.34355465 -0.42519435 -0.2085518 -1.5662146 0.35234293 -0.08343057
-0.9189394 -0.2357826 -0.5561527 -0.8376747 -0.5125888 -0.47021326 -0.6343808 0.22886272
1.0236577 -0.64434934 -0.04465612 -0.47358203 -0.13990062 0.13878979 -0.1211944 -0.87623304
-0.05896782 0.45986712 -0.17636827 -0.38962144 0.20564525 -0.36835295 0.22539632 0.5184619
-0.26357985 0.10329773 -0.39089495 -0.30624235 -1.4474603 -0.27812934 -0.8839368 -0.35123032
0.37392825 0.25823724 0.19051737 -0.42530212 -0.9336395 -0.15311435 0.12840371 -1.6371104
0.55128807 0.2705928 0.042283874 -0.24337701 0.1572774 -0.72972065 -0.41832247 -0.38908318

a2c_network.actor_mlp.2.bias f4 [128]
00000000: a7eb febf 9477 2abf f742 93be 3369 45bf
00000010: f35d cfbe be28 61bf a1d0 d1be 73db 28bf
00000020: 6a43 6cbf ccf3 6bbf 1d2c 52bf 004e 79bf
00000030: 9732 4dbf 7608 34bf 504b 92bf 5c44 05bf
00000040: 5140 09bf a4e4 debe e6c3 bcbe 29bb 23c0
00000050: 75e1 c6bd 1bdd 07bf 2fed b7be 3fa5 7abf
00000060: a432 5fbf df72 843e f3b7 f0be abef c3be
00000070: ae5b adbe f53f f2be c4b3 52be 2a32 9abf
00000080: f743 86bf 8983 c0be 0f3e 7bbf a355 fdbe
00000090: bb9e 11bf 7ad7 05bf 5435 fdbe fc79 dabe
000000a0: c4dc dcbe 808f 1cbf 0549 a6bf eea4 0fbf
000000b0: f6c2 eebe 42b2 4bbf 9ec4 29bf e3a3 acbf
000000c0: 7d11 4dbf 0322 6dbf 3f09 d0bf b8a1 d2be
000000d0: bc25 aabf 464c e0be 82c3 61be 9ea0 fdbe
000000e0: 3168 f7bd c444 a8bf 288b 91bf 1bf9 1bbf
000000f0: 4bfc 7cbf 05eb 87be 9780 6abf 48a2 39bf
00000100: bb95 04bf 5c4a 85bf d0bd 0cbe d8b3 24bf
00000110: d0bc 70bf 307b 2fbf b118 0bbf 7215 29bf
00000120: 8014 0abf 1df6 67bf 09b1 bdbe d87b 6bbe
00000130: 1444 62bf 7e8c 4cbf a309 c9bd 0daa e0be
00000140: 0819 fcbe 9b12 dfbe f8d9 7cbe a5e3 74bf
00000150: 3e2d 1dbf 1304 813e 8bca 0dbf 8982 acbf
00000160: 05bc 95bf e06c 02bf 3433 a9be 1cc1 37bf
00000170: f407 2ebf 55bd 7ebf 5d2e 56bf 2acf 0ebf
00000180: e96f 76bf 2939 29bf 6082 ccbe 7e06 40bf
00000190: 119d 82bf c084 93bf 5a51 1fbf a3f7 d2be
000001a0: c1f6 aebf 3ec1 66bf 188e 18bf 2dd2 48bd
000001b0: d135 75bf 5269 42bf 31f8 f4bf 149c b9be
000001c0: 10a6 0abf 2094 3fbf 6151 29bf acdd 32bf
000001d0: 7c35 ffbe d807 15bf c4c1 2ebf 8823 03bf
000001e0: e7e5 3bbf b782 e4be 2afb 20bf 3d02 51bf
000001f0: 75d5 c2be 8586 e5bf 3578 2abf 2dc2 81bf
-1.9915665 -0.6658871 -0.28762028 -0.77113646 -0.40501365 -0.8795279 -0.40979484 -0.6595985
-0.92290366 -0.9216888 -0.8209856 -0.97384644 -0.8015532 -0.7032541 -1.1429234 -0.52057433
-0.53613764 -0.43533814 -0.3686821 -2.5582983 -0.09710971 -0.53071755 -0.35923144 -0.97908396
-0.87186646 0.2586889 -0.47015342 -0.3826879 -0.3385901 -0.4731442 -0.20576388 -1.2046559
-1.0489491 -0.37600353 -0.9814157 -0.49479398 -0.5688283 -0.52281916 -0.4945475 -0.42671192
-0.4313718 -0.61156464 -1.2991034 -0.5611104 -0.46633118 -0.79568875 -0.6631564 -1.3487514
-0.8010481 -0.9263002 -1.6252822 -0.41139007 -1.3292766 -0.43808192 -0.22047237 -0.49536604
-0.1208042 -1.3145986 -1.1370592 -0.6092698 -0.9882247 -0.26546493 -0.9160246 -0.72513247
-0.5179097 -1.0413318 -0.13744283 -0.6433692 -0.94038105 -0.68547344 -0.5433455 -0.6604835
-0.5393753 -0.90609914 -0.3704913 -0.22996461 -0.8838513 -0.79901874 -0.09816291 -0.43879738
-0.49237847 -0.43568882 -0.24692523 -0.9565986 -0.6139716 0.2519842 -0.5538718 -1.3477336
-1.1698004 -0.5094738 -0.33046877 -0.71779037 -0.67980886 -0.9950765 -0.83664495 -0.5578486
-0.9626451 -0.66102844 -0.39943218 -0.75009906 -1.0204183 -1.1524887 -0.6223351 -0.41204557
-1.3669053 -0.90138614 -0.5959182 -0.049028564 -0.9578524 -0.75941956 -1.9138242 -0.3625189
-0.5415964 -0.74835396 -0.661398 -0.69869494 -0.49845493 -0.58215094 -0.6826441 -0.5122609
-0.7339768 -0.44630978 -0.62883246 -0.8164404 -0.3805348 -1.7931677 -0.6658967 -1.0137383

a2c_network.critic_mlp.0.weight f4 [128, 361]
00000000: 41a3 f03f 1387 bdbd cec3 52bf b0ac 6ebf
00000010: f7af 0ac0 37d6 0a3f 52ae d93e 855b ebbc
00000020: 2b01 2abe 81ca 5dc0 926f 65bf b2f0 14bf
00000030: d024 34bf b691 253f d60c 6c3f 5052 b4be
00000040: 229f 373e f416 2abd 32cd 2cbe 789c 043e
00000050: db20 ba3e 1f01 45bf a333 cfbe c404 43be
00000060: 2091 e4be c475 c7be 3676 ba3c 5346 29be
00000070: 6308 ba3e 9ca1 d1be a4ad db3e c11e d03e
00000080: caf4 d93d fe22 873e 973f 763e f155 15be
00000090: 2688 083e 4dea f83b b736 073e fe6a 45bd
000000a0: 63a9 523b 2238 3e3e 44a5 febc da1e 333e
000000b0: 5ff1 993d cb9d 11be de76 063c ad09 903f
000000c0: a85e 80bd ed63 103e 8965 033f 09c5 f83d
000000d0: db80 79be 0021 e23c 9344 08bf 9de5 babc
000000e0: b166 553e 14e4 323e 95f6 c6be dd22 ecbd
000000f0: 511f acbd 4f5c 843e c18b e23f 80c6 8a3d
00000100: ed09 963e 107c cf3e 553b 00be bcfd 9cbe
00000110: 8572 c73d b630 80be b0d9 823e dde6 eebb
00000120: 4535 843e c845 a9bd 384a 103d c968 32be
00000130: f8a9 343d d804 803d 52a5 bf3d a8a5 573d
00000140: e038 8a3d b76f 433e 4d1d 143e bb7c 9f3d
00000150: 3605 ac3c 3bf4 cc3d 651c 0ebf 01f2 b53d
00000160: fbb1 103d d88f 05bc 55f3 f4bd 3d96 f53d
00000170: 116a f9bd 0959 2dbd 98f2 d53c ba5d 203d
00000180: 260e 9c3e e412 873e 1348 a73d 1103 1cbe
00000190: 7092 a9bd a761 1a3e 38e6 7c3c 647b 9dbb
000001a0: 6e1f cc3b 8317 b53d 2874 21be 85ed 573e
000001b0: a437 0cbe 7d86 113e 4753 fabc d7c5 f5bb
000001c0: f206 93bd ac67 1e3e de6a d6bd 2b9d 133e
000001d0: 4545 42be 422b 943e 40e9 47bd b576 47bd
000001e0: 59dd 8f3d eb65 3c3e c44b 31bd 4e64 28be
000001f0: 0a81 d83d b81b 823e 10ed cebe fb89 a53e
00000200: 477e 9fba 197c 753d 2285 473e 2457 debd
00000210: 33b3 b43d 0bf9 ea3c 3cb9 98bd 9fd6 2e3e
00000220: 1be9 d63f 2836 c93f f6e7 373e 347e 7fbd
00000230: 7afc a1be 9941 163f 9401 29be 4b96 c4bc
00000240: dcdc e63e 7a38 b83f 3a21 1c3d a5bc 91be
00000250: 3327 11be 2554 0c3e 678c bbbe 6a2d c1bd
00000260: a80f 633e b1bf 9abd 9984 87be 9dd1 433d
00000270: 706e 0aba 8d08 aabe b117 e63d e119 723e
00000280: 6c76 c3bd 3a5b 403e 82fb aa3e 2bd6 4c3e
00000290: 3425 09be 69aa 85bd 32fe 2c3e 4925 c7bc
000002a0: 4a39 38be ba79 403e e0ad 18bd 5a3f 24be
000002b0: 3582 e1bc c9f0 923c b072 0ebe 922b 8dbd
000002c0: 6561 e73d 4fe2 2ebb 39ea fb3d ebbf d73d
000002d0: 995c 14be 876a ae3c 6874 91be dada 083d
000002e0: e75c 02be 6632 6a3c 946c 093e 36ca 283e
000002f0: 45e6 393e f1ae 35be c88d d33e 2813 613c
00000300: b0a9 37be 5262 0a3d bfa8 c3bd 3190 383a
00000310: d961 6c3e 06b3 553f 77b8 0fbb 5897 043e
00000320: c28e ec3d 4fdb d93d 48c1 d5be 293a e6bc
00000330: 8032 46bd 0c0c d6bc 94da 2d3e 15ef 073f
00000340: b189 883e 78e8 413f e95c 903e f229 993e
00000350: df15 9d3d 32de 96be 5288 3abd 3e25 5d3b
00000360: b59f eb3e a79d c7bd 0f30 dc3d 8605 0d3c
00000370: 41d4 c83c f914 ed3c baa1 563c 52bb 1cbd
00000380: 3076 5cbc 300c 663c 83cb 17bc 2a92 61bb
00000390: 48a4 fd3c d987 e23c c62b ccbd 5455 60bd
000003a0: f186 70bd 00ff 6bbd e505 2cbd 1c59 13bc
000003b0: c197 20bd 644a 0e3d 154c 9e3d 4deb 103e
000003c0: 9b63 613d 2c48 633c bf0b dd3c 724c 663c
000003d0: 4579 203d 14f9 88bc 482f 2bbd 3098 5ebd
000003e0: 7e1b 3e3d c75d 473b 4e10 ae3c ccbd ae3d
000003f0: 0da9 b63c a821 abb9 53b3 41bd 552e 22bd
1.8799821 -0.09254279 -0.82330024 -0.9323225 -2.16699 0.54233116 0.42515808 -0.028730163
-0.16602008 -3.4654849 -0.8962337 -0.5817977 -0.7036867 0.6467546 0.92207086 -0.3521905
0.17931798 -0.041525796 -0.16875151 0.12950313 0.36353192 -0.76954836 -0.40469083 -0.19044787
-0.44641972 -0.38957036 0.022761445 -0.16530733 0.36334524 -0.4094361 0.42905915 0.40648463
0.10642393 0.26393884 0.24047695 -0.14583565 0.13333187 0.00759629 0.13204466 -0.04819774
0.003214442 0.185761 -0.031084664 0.17492238 0.07516741 -0.1422035 0.008207051 1.1252953
-0.06268054 0.14100619 0.51326805 0.121469565 -0.2436556 0.027603626 -0.53229636 -0.022814566
0.20839955 0.17469817 -0.38860002 -0.11530087 -0.08404411 0.25851676 1.76989 0.06776142
0.29304448 0.4052434 -0.12522633 -0.30662334 0.0973864 -0.25037163 0.25556707 -0.0072907046
0.2582189 -0.08265263 0.03522703 -0.17422785 0.044107407 0.06250924 0.09357704 0.052648216
0.06749129 0.19085585 0.14464302 0.07787462 0.020998579 0.10007521 -0.55512077 0.08884049
0.035325985 -0.008151971 -0.119604744 0.11991546 -0.12178434 -0.04232124 0.026116654 0.039151885
0.30479544 0.263816 0.08168044 -0.15235545 -0.08279884 0.15076314 0.015435748 -0.004805969
0.0062293326 0.08842375 -0.15766966 0.210867 -0.136931 0.1421146 -0.030557288 -0.007500391
-0.07179059 0.15469235 -0.10469602 0.14415424 -0.18971737 0.28939253 -0.04880643 -0.048697192
0.070246406 0.18398254 -0.043285146 -0.16444513 0.10571487 0.25411773 -0.4041524 0.32331833
-0.0012168371 0.059932802 0.1948438 -0.108564645 0.08823242 0.028683206 -0.07457206 0.17074059
1.6789888 1.5719652 0.1795958 -0.062376216 -0.31637937 0.58693844 -0.16504508 -0.023997447
0.45090377 1.4392235 0.038117625 -0.28464237 -0.1417511 0.13703974 -0.36630556 -0.0943249
0.22173941 -0.075560935 -0.2646835 0.047807325 -0.00052807387 -0.3320965 0.112349875 0.23642685
-0.095440716 0.187848 0.3339501 0.20003574 -0.13393098 -0.06526644 0.16893843 -0.024309771
-0.17990604 0.18796435 -0.037275195 -0.16039792 -0.027527908 0.017937081 -0.13910937 -0.06893076
0.112978734 -0.0026685183 0.12300534 0.10534652 -0.14488448 0.02129103 -0.28409123 0.033411838
-0.12730752 0.0142942425 0.13420326 0.16483387 0.18154247 -0.17742516 0.41319108 0.013737477
-0.17935824 0.03378517 -0.0955367 0.0007040529 0.23084201 0.83476293 -0.0021930018 0.12948358
0.115506664 0.10637533 -0.41749024 -0.028103905 -0.048388004 -0.026128791 0.16977912 0.53099185
0.2666755 0.75745344 0.28195885 0.29914814 0.07670187 -0.29466397 -0.04554016 0.0033744122
0.46020284 -0.09746867 0.10751354 0.008607274 0.024515273 0.028940665 0.013100082 -0.03826458
-0.0134559125 0.014040992 -0.00926483 -0.0034419396 0.030962124 0.027652668 -0.099692866 -0.054768875
-0.05872244 -0.057616234 -0.04199781 -0.008993413 -0.039207224 0.034738913 0.07729355 0.1415226
0.05502663 0.013872188 0.02698314 0.014056312 0.03917815 -0.016720332 -0.041793138 -0.054344356
0.046412937 0.0030420886 0.021248009 0.08532295 0.022297407 -0.00032640737 -0.047290158 -0.039594967
