python/rlgpu/saved_nn/241001162243532647/last_Aliengoep=7750rew=[1215.79].pth (torch, 523930 bytes, 18 tensors)

running_mean f8 [361]
0	0xbfb3f7e9a5c9d90f	-0.07800159738130595
1	0xbf690ec8d4e37e2f	-0.0030588076107134414
2	0x3fcf86b56a0d7747	0.24629848173474952
3	0x3f9979969392480d	0.024877884633106407
4	0xbfc418737081b4d6	-0.15699618333329707
5	0x3fd47179aa01e094	0.3194259796359884
6	0x3fd7f26b414b7614	0.3741710794109576
7	0x3fd9c918b9120fca	0.40289896081253274
8	0x3fe15df93b26ade3	0.5427213816923849
9	0x3fc3e2bcc0c48860	0.15535697376714364
10	0x3fbfe56aa6e1d5d7	0.12459436964294156
11	0xbfd549c00877750d	-0.33262635065860097
12	0x3fcc577b11dc78cc	0.2214197003567676
13	0xbf9d31bb2a758d92	-0.028510021654609093
14	0xbfd400f5436aee19	-0.3125584753395017
15	0xbfaf0173d6fb998c	-0.060557956688899045
16	0x3fc36f7496eafe83	0.15183884972610792
17	0xbfd4b22d571ef796	-0.32337506778628133
18	0xbfc54c23e857331f	-0.16638611645466825
19	0xbfc37b44c0fe036e	-0.1521993582100793
20	0xbfd4132b33bf7ae5	-0.31366996816170306
21	0x3fda7ed194e185bc	0.413990397826719
22	0xbf9d719876a30a33	-0.028753645173092045
23	0x3fcc5acec4949f7a	0.22152123068485335
24	0x3fddb45995dd573f	0.4641326869508368
25	0x3fa7fbbd7f0801e2	0.04684250045466222
26	0x3fc6881035fe14b1	0.17602732311585137
27	0x3fdada9b7881ce2d	0.4195927311731989
28	0x3f929e563f5bb770	0.018182132355767988
29	0x3fc40893e96ce7e5	0.15651177308774247
30	0x3fdcd0e7286578ba	0.45025042481382693
31	0x3fb6c3d3e82365bb	0.08892559449613817
32	0x3fc02a9c688d7c77	0.12630038361655568
33	0xbfe1db96257c7a9a	-0.5580549938348043
34	0x3fe60890e7540ec8	0.6885456579334113
35	0xbfd759d254b13cbc	-0.36485727568374293
36	0x3fda6ef6cd9dbe45	0.41302270965295335
37	0x3fe7d67ac92e0baf	0.7449315957350019
38	0xbfd70658d3fa29c2	-0.3597623891916123
39	0xbfce0eeb96c22d58	-0.23483033047919366
40	0xbfe08fcd6dfa59f2	-0.5175540111547987
41	0xbfe3275fc06a59c9	-0.5985564001192013
42	0x3faffc0bcc99305d	0.06246983406580917
43	0xbfddc11779816ba0	-0.4649103819444296
44	0xbfd49214f9e76dfe	-0.3214161339253393
45	0x3fe3ece79e024b43	0.6226690374481695
46	0x3fdfdcc570c481b8	0.4978498078580986
47	0x3fefc48c73957c7f	0.9927427537439967
48	0x3fe023c43060a9a4	0.5043660111307884
49	0x3fe34c54ae3ecc0d	0.6030677226284539
50	0x3fbbd211d344b7b6	0.1086741581718503
51	0x3fe4879cd6bdff4b	0.6415542787726535
52	0x3fc3b78ff2bd9c98	0.15403937676021395
53	0x3f9665254d311687	0.021870215259943506
54	0xbfdd0179dbf7efb8	-0.4532150886659525
55	0x3fe5dd4b6343dc3c	0.6832634867449836
56	0x3fdc6bdb7a948a47	0.44408308954931325
57	0xbfcca70fb30c723c	-0.22384830706222825
58	0xbfe5dbff1e48520a	-0.6831050483183969
59	0x3fd35462f4928f7e	0.3020255459216442
60	0x3fe3e855e0d71b9e	0.6221112624560765
61	0x3fdfcb1176278db3	0.49676929987455337
62	0x3fefbb6ba57388bb	0.9916284781904986
63	0x3fe01f30e9a9bf60	0.5038075031024896
64	0x3fe3475828a2a92c	0.6024590295467411
65	0x3fbbc00625e19b43	0.10839880394779038
66	0x3fe4838b833acbcd	0.6410577357368027
67	0x3fc3b73be0ec9c5f	0.15402935488347944
68	0x3f963da4e4f49b09	0.02171952865060248
69	0xbfdcfae03fdc84f0	-0.45281225429978544
70	0x3fe5d7e5635861a0	0.6826044979416572
71	0x3fdc645afc7cc0bf	0.4436252084442564
72	0xbfcca22ab514dc01	-0.22369893876904715
73	0xbfe5d81a52fa54c4	-0.6826297398244141
74	0x3fd34f945ba63baf	0.30173214864856396
75	0x3fcb0c8bfe390524	0.21132039941043346
76	0x3fcbee7ea5b54416	0.21821578112806667
77	0x3fcbf0a91da3d2f8	0.2182818789221057
78	0x3fcb9454d01bfdf1	0.2154642120512871
79	0x3fcb2b51b7590a5b	0.21225949718980783
80	0x3fcac1cf919ac7b2	0.20903963670349196
81	0x3fca65d55f7b86fc	0.20623271143181643
82	0x3fca8c385f70ee40	0.20740418110095682
83	0x3fcae0ad2dc2a93e	0.2099815820159367
84	0x3fcb459362e15076	0.21306078270083945
85	0x3fcbb40b8d11fe8a	0.216432041055658
86	0x3fcbfecd038f9906	0.21871340440629455
87	0x3fcb99dfab1485c9	0.21563335279010534
88	0x3fcb2e98ac9fecc4	0.21235950879040477
89	0x3fca4e04c5e40ecf	0.2055059400810166
90	0x3fc8404e8ac3b656	0.18946248794184112
91	0x3fc7f8aeb7d8700d	0.1872766874010953
92	0x3fc7e1ad07a5b730	0.18657458184628117
93	0x3fc9ae8e85c69167	0.20063954860701047
94	0x3fca82cb88edff54	0.2071165484048786
95	0x3fcb2a832e667385	0.2122348763049581
96	0x3fccfe8282329ab5	0.22651702267940768
97	0x3fcc50b9bcf66811	0.22121354796109974
98	0x3fcb7c2f9d33db74	0.21472735572725876
99	0x3fca1d0e0719cce3	0.20401168200223826
100	0x3fc78d38ddb4709f	0.18399725747520265
101	0x3fc740a28cb5bf05	0.1816600024280818
102	0x3fc70179084ce0f0	0.17973244576729241
103	0x3fc935f5fb469e16	0.19695925492600058
104	0x3fca81e43a49c308	0.20708897443866925
105	0x3fcbbd90bf6b7051	0.2167225775400561
106	0x3fce20e9cbab3d5c	0.23537943310518983
107	0x3fcd31789ee4f1ea	0.22807224043380298
108	0x3fcb58d80dcf4394	0.21364880251215068
109	0x3fc91634a3233a92	0.19599016156867727
110	0x3fc742028801c930	0.1817019619080127
111	0x3fc6e11ce723dfc2	0.17874490057124431
112	0x3fc692919feb2d81	0.17634792622116538
113	0x3fc7fe455d12a2e0	0.18744723362512783
114	0x3fca32d7a53f2dd4	0.20467658585253778
115	0x3fcc804b6bb2ec04	0.22266524084793116
116	0x3fcf662b3ea1f7e1	0.24530544813381908
117	0x3fce27879c773e0c	0.23558135166102578
118	0x3fcbae7696869a3f	0.21626169538395065
119	0x3fc8fd3c45743d44	0.19522813216506496
120	0x3fc729f7abfff3ea	0.18096824549129958
121	0x3fc6ad933fe90be6	0.17717209454175914
122	0x3fc668ba305e6c1d	0.17507102357635143
123	0x3fc7c48888dc80e8	0.18568522150690758
124	0x3fca6ba383d49420	0.20640987336187866
125	0x3fcd64bf63e6084c	0.22963707330569816
126	0x3fd0628fd0fe058f	0.25601573380853265
127	0x3fcf30a4c75b83d6	0.2436719869065473
128	0x3fcbff599a05da45	0.2187301637711291
129	0x3fc8f71fc9003c02	0.1950416308831962
130	0x3fc72e535ed94d49	0.18110124713221357
131	0x3fc6925509e2dac0	0.17634070379945932
132	0x3fc66706c2e336d2	0.17501911655420216
133	0x3fc7ab50013902bc	0.18491554317190217
134	0x3fcab744961e1f84	0.20871789293255116
135	0x3fce67c2cdb1aacd	0.2375415329327865
136	0x3fd1d8c490005866	0.27885545790321087
137	0x3fd0c97abcb5cf16	0.26229732922296145
138	0x3fcc45742753908f	0.22086955948100637
139	0x3fc87e54c7cfe3d3	0.19135532146881803
140	0x3fc75a4d39b7615d	0.18244328802280566
141	0x3fc5f885b00a7734	0.1716467961859337
142	0x3fc6a1a1a7a1b416	0.17680760083331454
143	0x3fc7515d1f38f072	0.182170524831125
144	0x3fcb44a331b849dc	0.2130321495793187
145	0x3fd06e0766a38175	0.25671563170728656
146	0x3fc8291e04e28368	0.18875479925648198
147	0x3fc8ce682c3adc88	0.19379903945602828
148	0x3fc8b00a1c576c62	0.19287229904043374
149	0x3fc86bfe1ce2ff43	0.1907956734703423
150	0x3fc83733952b707c	0.1891846159331897
151	0x3fc7ff17ce08ed04	0.18747232017799587
152	0x3fc7deef312d5938	0.18649091626384418
153	0x3fc82236ffb93a7d	0.18854415403844263
154	0x3fc86849759955f7	0.19068258516442402
155	0x3fc89a414f1988bc	0.1922074924687588
156	0x3fc8cd59cbe75b41	0.1937668080924713
157	0x3fc8ea4e887a001e	0.19465047515768757
158	0x3fc82ec30f7be955	0.18892706161552533
159	0x3fc78a0cbbbf68a3	0.1839004437195558
160	0x3fc70eda2ca6fb81	0.180140754511708
161	0x3fc5efcc9f1d2aa7	0.1713805939601418
162	0x3fc63080e2c8d34b	0.17335520814381264
163	0x3fc657f082c6af24	0.1745587004237389
164	0x3fc7d0472e5fa20c	0.18604364170393273
165	0x3fc8407f1aa9491a	0.18946827699489505
166	0x3fc887083eab9da9	0.19162085590435865
167	0x3fca0c120706c928	0.20349335997668416
168	0x3fc8bd4f68aaa780	0.19327728853869175
169	0x3fc7998205f9aac5	0.1843721894432148
170	0x3fc6c3c29c3c45a6	0.17784912708934292
171	0x3fc55807f41c4775	0.1667489950128204
172	0x3fc5d1bf98547baf	0.1704635137366188
173	0x3fc60b9e0233ceaa	0.1722295294526835
174	0x3fc7d675d3e5f03e	0.18623230787841466
175	0x3fc89688bfa72e38	0.19209393842753442
176	0x3fc94a481cc2140f	0.19757939724164017
177	0x3fcba2224ec146b3	0.21588543744524244
178	0x3fc9bbb375b6b444	0.20104068038691214
179	0x3fc78417fe904ebb	0.18371868066662053
180	0x3fc5ee850c8cbff3	0.1713415442732181
181	0x3fc51796a48a40b7	0.1647823623102391
182	0x3fc59b958ce9d38a	0.1688105524114259
183	0x3fc5f9af6c800f03	0.17168228910315272
184	0x3fc724eeff816055	0.18081462360237546
185	0x3fc890f0f7a9d36c	0.1919232568067416
186	0x3fca61ae842a3491	0.20610600903856782
187	0x3fcdb9ea1090f33e	0.2322361546411233
188	0x3fcb214d6b77f752	0.2119538092373952
189	0x3fc7f38bcdcdbd28	0.18711993741042332
190	0x3fc5f6fb0aa573ff	0.17159975070799757
191	0x3fc5090b63a2c5ec	0.1643385159018601
192	0x3fc58a39a17f24ca	0.1682807959134947
193	0x3fc607ea614b437d	0.1721165633266785
194	0x3fc7354b85276294	0.18131393434193355
195	0x3fc8f31acb7857fd	0.19491896567404857
196	0x3fcbc7808b104374	0.21702582159243955
197	0x3fd00795d3d33514	0.2504629677394672
198	0x3fcceeed35dc3409	0.22604146127596916
199	0x3fc87abd38c84bac	0.19124570152834275
200	0x3fc61cdb68a7f054	0.17275564775616437
201	0x3fc51d95385c0145	0.1649652981941562
202	0x3fc590fe0fb13753	0.16848731771681943
203	0x3fc629d8a221d154	0.17315204540831053
204	0x3fc7479007b2813d	0.18187141776889773
205	0x3fc949d353e283c5	0.19756547542513495
206	0x3fcd80a1a0ecf395	0.2304880176324359
207	0x3fd23e1fb3a27729	0.28504173796123894
208	0x3fd0a4aaebdf41c4	0.26005051645645616
209	0x3fc97dca31acf803	0.19915130067414574
210	0x3fc63435ebb0d77b	0.17346834190692192
211	0x3fc580a5ecd6d11a	0.16798852981958917
212	0x3fc55efef66c3619	0.16696154625280782
213	0x3fc684a73823bd51	0.17592325440589687
214	0x3fc6e86d09e1bd2e	0.17896807653912944
215	0x3fc97d60e1d27e76	0.19913874651409785
216	0x3fd0b4c324d8b4a0	0.26103285406390775
217	0x3fc741ced067ca00	0.18169579673811143
218	0x3fc7364d33a482a2	0.18134465238201353
219	0x3fc7630016174cdb	0.18270875052130617
220	0x3fc7722b276cb66d	0.18317164826423796
221	0x3fc76c8dc19f95b0	0.18300029711023802
222	0x3fc76f3747676dab	0.18308154093288684
223	0x3fc761f63766e8a7	0.1826770563619153
224	0x3fc77a77b5a52017	0.1834249150217608
225	0x3fc77dba6c742b50	0.183524420696211
226	0x3fc77d36cdb3647a	0.18350873035413767
227	0x3fc7649bd8b3580d	0.18275783616144317
228	0x3fc44dc831e800cc	0.15862371861294944
229	0x3fc4484ae5761ce3	0.15845619396370755
230	0x3fc69ea71645f15f	0.17671669566687861
231	0x3fc6904a27105fb4	0.1762783709280008
232	0x3fc60d3143871d81	0.17227760121589245
233	0x3fc6654ef46a510a	0.17496668752995276
234	0x3fc59b7d8ae685f2	0.1688076904511458
235	0x3fc5b51ab68938f8	0.16958936608211395
236	0x3fc5a800bfb9a7cf	0.16918954240401127
237	0x3fc3c3b2898ec737	0.1544097110432234
238	0x3fc4452a3d67d873	0.15836074827501853
239	0x3fc43fce88ca15a3	0.15819722823304713
240	0x3fc689bbd7429650	0.1760783005785691
241	0x3fc6754187d1d444	0.1754533684903966
242	0x3fc5ade487abe904	0.16936928391061923
243	0x3fc63e1bf0edadbb	0.17377042068561174
244	0x3fc52c9cf61f1578	0.16542398469588782
245	0x3fc56f12ced6f610	0.1674521932563242
246	0x3fc547bdbe82f3ff	0.166251867316447
247	0x3fc387143007b7a4	0.15255977959844558
248	0x3fc45bccf06ea240	0.159051530264394
249	0x3fc47401146ee1b2	0.1597901677867078
250	0x3fc4ea0166dc5626	0.16339128038878065
251	0x3fc5cf39371a049f	0.17038645926007676
252	0x3fc58144bbab2630	0.1680074611997937
253	0x3fc62b3a9406fefb	0.17319423892876515
254	0x3fc516f9a21ba969	0.16476364531929313
255	0x3fc4ef80e5078a3b	0.1635590666110874

running_var f8 [361]
0	0x3f9f23e38e8626bd	0.030410342763878207
1	0x4005c0c3237e571d	2.7191221974307056
2	0x3fc1dce12a637df1	0.1395532090163978
3	0x40196e0eb7a7b27a	6.3574780174354775
4	0x3fc01a8d05862473	0.12581026811338666
5	0x3fcbd38d6cb9a3bc	0.21739356812329713
6	0x3fcdf934cfea062e	0.23416767265375554
7	0x3fcecb100538fa69	0.24057197813995693
8	0x3fcfc436f041eadc	0.24817549449274778
9	0x3f98d50507a09716	0.0242501054673517
10	0x3f6eccb9ae9e6285	0.003759730015144238
11	0x3f78d0c165be2f1b	0.00605845971939425
12	0x3f93c8618da9d1e0	0.01931908061165355
13	0x3f77a420b4c5f4b6	0.005771758802777407
14	0x3f73f414818bd473	0.004871444799154567
15	0x3fa0b983c96497fb	0.03266536553773843
16	0x3f6cf0feb4b335b1	0.003532884094602472
17	0x3f6a7e79def9580c	0.003234136609346022
18	0x3f9a69727bb1676b	0.02579287414514601
19	0x3f6c6b4ac55c2ae4	0.0034691295976519865
20	0x3f64a92468de0c0b	0.002522059547972249
21	0x401d7475362eba1a	7.36372837696265
22	0x3ffc7f7e81b84171	1.781126505582588
23	0x400b2952a7bf8ad9	3.395177183659467
24	0x4016cc957dbe06db	5.699789013598742
25	0x3ff95f284a4444eb	1.585731783012586
26	0x4008cbf97357b952	3.0995968829294407
27	0x4015bc6c2b5c06d1	5.4340063834112735
28	0x3ff3b44f8ba8ea6d	1.231521173044395
29	0x3ff62013fcc4ac6a	1.382831561447143
30	0x400ae020a8f74067	3.359437294049758
31	0x3fea91e58867688d	0.830309645093864
32	0x3febc3617b5fbcc9	0.8676001939437806
33	0x402738eda8a7b6fb	11.611188192818636
34	0x40281d076a5b5ab4	12.056697200442933
35	0x402550a6c626eda9	10.657522384883878
36	0x402605f51dbf79b9	11.011635713218185
37	0x40278fac224e3f37	11.780610153247478
38	0x4020edc21497ae1c	8.4643713412434
39	0x4024ad0a3e4c9597	10.33796877560489
40	0x4024fba33977b08f	10.491479678974683
41	0x4021ad81648dfc3a	8.83887781365603
42	0x4020d63337f14c54	8.418359516339628
43	0x40204a418e2716cb	8.145031397124873
44	0x401d8974fe0307db	7.384235352454165
45	0x3fd655ef18495448	0.3489949929401672
46	0x3fdbe4800e967572	0.43582154678900686
47	0x3f76470302970d8c	0.005438815840025934
48	0x3fe0b71a8611a148	0.5223515146763384
49	0x3fdb409d4c57b5c9	0.4258187528165221
50	0x3fe6c011d0ea717b	0.7109459953676799
51	0x3fd92ee7bb52d603	0.39348786633794947
52	0x3fe602edb67d4daa	0.6878574909446133
53	0x3fe7496fd8b62847	0.7277144653937818
54	0x3fe1c7d0c74cf294	0.5556415455426582
55	0x3fd5e885cae647ca	0.3423170548859359
56	0x3fe22a05bde5ab5d	0.567629691021789
57	0x3fe53e746ce7b934	0.6638738753370377
58	0x3fd2b078a446bc17	0.29202095072372586
59	0x3fe47f24a6e8b5da	0.6405204067174808
60	0x3fd65421d9aac05d	0.3488850236562991
61	0x3fdbeca4ffdb09e3	0.43631863580608704
62	0x3f7ac854685d867f	0.006538705556381807
63	0x3fe0b4602360b4e5	0.522018498513401
64	0x3fdb3d9facf8f4d7	0.4256362141785081
65	0x3fe6b9a642e17a1e	0.7101622873559028
66	0x3fd92a9582587e81	0.3932241223246607
67	0x3fe5fc0fcbd360f6	0.6870192509623212
68	0x3fe742a4621741be	0.7268850246273855
69	0x3fe1c3d4fa9f15fd	0.5551552672338286
70	0x3fd5e8045e6e1ee0	0.34228619786925485
71	0x3fe2261fd32d8127	0.5671538471761196
72	0x3fe5383c958bc815	0.6631148262806642
73	0x3fd2ad2b81230d65	0.2918194542982831
74	0x3fe479aecbd66d19	0.6398538571551483
75	0x3fb9507deab7eb11	0.09888445835524019
76	0x3fba7bf1c6180fd8	0.10345374189642997
77	0x3fba7b0294f52a0b	0.10343948494588788
78	0x3fba06f4adf17749	0.10166863676701356
79	0x3fb979e636ddc575	0.09951628531941543
80	0x3fb8ee1c982bd065	0.09738329615703518
81	0x3fb87f50549d845d	0.09569265428355452
82	0x3fb8a4454e63f3f1	0.09625657237843634
83	0x3fb90e99bf3ced29	0.09787903708359082
84	0x3fb997d0b59d214c	0.09997276719980625
85	0x3fba2b12afd2a2c8	0.1022197417502283
86	0x3fbb3d22d67683ff	0.10640161262428192
87	0x3fbad7edb1a9ec64	0.10485730731481763
88	0x3fb9faf669479923	0.1014856345205755
89	0x3fb8cda7004eedd9	0.09688800580527558
90	0x3fb64cea595d1cda	0.08711113626224024
91	0x3fb5bf13c1de3173	0.08494685633758596
92	0x3fb5da3f87d9ddb6	0.08536145273853077
93	0x3fb81ba3ecf206b3	0.09417175802993931
94	0x3fb93ec40e8d94a4	0.09861398082064682
95	0x3fba5b0f3d9c2194	0.10295195821902886
96	0x3fbcb454571c6dd4	0.11212660910353317
97	0x3fbc008fd68a47d0	0.10938357341572602
98	0x3fba90f88d48d556	0.10377458047226659
99	0x3fb8c1559f95f6a0	0.09670004984033165
100	0x3fb5942205ec6857	0.08429157871833702
101	0x3fb4ecc8e9932a0f	0.08173804953109019
102	0x3fb4e7dc6db0e899	0.08166291883472566
103	0x3fb7b727db19b2e7	0.09263848399286766
104	0x3fb97b4f29945c74	0.09953779950261482
105	0x3fbb5c632f110a92	0.10687847041212198
106	0x3fbe4be842ea645d	0.1183457530372762
107	0x3fbd4db2597c6ee9	0.11446680721968118
108	0x3fbadd20d0224502	0.10493664819138718
109	0x3fb7cac416d1d14f	0.09293771321410314
110	0x3fb5583129f18d95	0.08337695383084161
111	0x3fb48cd5504ff221	0.08027394495724895
112	0x3fb479d81a465823	0.07998419419740847
113	0x3fb66f90f15bae32	0.08763986485035316
114	0x3fb981d7b79614c4	0.09963749153219498
115	0x3fbc88e046403ade	0.11146356310949154
116	0x3fc000f535dc466d	0.12502923135666624
117	0x3fbeaa74fa6f9bfe	0.11978846658858797
118	0x3fbb7e3e1a9705fa	0.10739505910080274
119	0x3fb7db906789314a	0.09319403197986734
120	0x3fb55c43c7787cdc	0.08343909854783099
121	0x3fb46a0afb1420ec	0.07974308614587117
122	0x3fb45f9d0b3bd2ee	0.07958394550571388
123	0x3fb649b3326339f0	0.08706207256475529
124	0x3fb9fc630296b626	0.10150736630631538
125	0x3fbdd41627375c92	0.11651743371418125
126	0x3fc0e5788b58d507	0.13200289539387475
127	0x3fc0097eb85c0ad9	0.12528976442270937
128	0x3fbc1706574a3925	0.10972633010007778
129	0x3fb8037695260ac2	0.09380284444163592
130	0x3fb584a8de2a3964	0.08405547546337783
131	0x3fb46d5474f02519	0.07979324202473882
132	0x3fb475ee44b92bb5	0.07992448022666461
133	0x3fb649d6361dc0ff	0.0870641595954602
134	0x3fba875c1df97367	0.10362792712971967
135	0x3fbf385ff2a365c3	0.12195396112237859
136	0x3fc2b6e3cc2fcab3	0.1462063548093134
137	0x3fc18a97bf9d6a66	0.1370420156116154
138	0x3fbcf36de47e6242	0.11308943584880018
139	0x3fb7f831d66d1893	0.09363090024007396
140	0x3fb600fa79b936c7	0.08595242950215286
141	0x3fb433ae4ccdcadb	0.07891358733267444
142	0x3fb4ee46a1bbaa8d	0.08176080177842433
143	0x3fb6327112e3f5ba	0.0867071791762645
144	0x3fbb8e989d7e9ff8	0.10764459462245657
145	0x3fc128822965711d	0.13404871960927603
146	0x3fb61b30ab20631b	0.08635238817113271
147	0x3fb708ac10528f6e	0.0899760761117798
148	0x3fb6d837abf81ed8	0.08923671673266698
149	0x3fb6769470313595	0.08774688471858945
150	0x3fb62512dc1e28dd	0.08650319932909008
151	0x3fb5d8d46e419406	0.08533981029320623
152	0x3fb5baa2e17f2bbb	0.08487909322063462
153	0x3fb60c9fb35e4fd8	0.08613012436973067
154	0x3fb66d58a67c4648	0.08760599197946661
155	0x3fb6b9ebdda5c742	0.0887744346744315
156	0x3fb7022d2d37a011	0.08987696031510974
157	0x3fb7c65533802047	0.09287006862007373
158	0x3fb6f3b1b0a1ec93	0.08965597688977515
159	0x3fb5dd06abf0ebb8	0.08540384004383739
160	0x3fb521e84902da57	0.08254863531588207
161	0x3fb39de5fb6dec82	0.07662808788693279
162	0x3fb3be824c1f6742	0.0771256862493859
163	0x3fb4303510609a84	0.07886058473432384
164	0x3fb619e87fee992a	0.08633282779064602
165	0x3fb6c09cbd676360	0.08887652992360762
166	0x3fb76369f964dd01	0.09136068667145382
167	0x3fb98011ab6cba61	0.09961042819188883
168	0x3fb8044ffd212f25	0.09381580285952092
169	0x3fb6310f690c77c6	0.08668609919229117
170	0x3fb4f5f8f27fe9e1	0.08187824173356929
171	0x3fb3038e7301be9d	0.07427301700385631
172	0x3fb35b989933898f	0.07561639538065477
173	0x3fb3fa4a4c7bb42a	0.07803787581697522
174	0x3fb6553fd306c610	0.08723830129635979
175	0x3fb766ba2ab0ed1e	0.09141124288810373
176	0x3fb8abbef9adf176	0.09637063594522552
177	0x3fbbbf915a5a5c78	0.1083918424213709
178	0x3fb993c6ab4d2f12	0.09991113359609141
179	0x3fb677b312571247	0.08776396939999485
180	0x3fb41b34700e9688	0.07854011283651563
181	0x3fb2d3fa7a5a44e4	0.07354703414081915
182	0x3fb3342cc36db748	0.0750148751373817
183	0x3fb40d5d18ffbd1c	0.07832891331030506
184	0x3fb5b60f59679509	0.08480926449518135
185	0x3fb7c72769f5736c	0.09288259827503759
186	0x3fba50e13445b6e7	0.10279662634067287
187	0x3fbe83cbf1e79411	0.11919855743288134
188	0x3fbb94efb26d7138	0.10774133783474305
189	0x3fb7401433dd035d	0.09082151666826861
190	0x3fb450076c43f0b7	0.07934614556501428
191	0x3fb2e427aa03a18e	0.0737938680719081
192	0x3fb3439e19cd0d95	0.07525051240832277
193	0x3fb44b079d497b5d	0.07926986303344337
194	0x3fb5fb9b4e567712	0.08587046301405746
195	0x3fb87cc6144b49f0	0.09565389628850318
196	0x3fbc4a01bd3dea5f	0.11050425405657326
197	0x3fc0b8d8db3e2774	0.13064108567442256
198	0x3fbdfc3f268e4026	0.11713022891331146
199	0x3fb82115fdf979cc	0.09425485086965252
200	0x3fb4aaf3d5a39160	0.08073352781099663
201	0x3fb320a1634f60ca	0.0747166507202365
202	0x3fb3795d00c79e71	0.07607060689007895
203	0x3fb4a20e0dd8241b	0.08059776151652935
204	0x3fb645ca20478a4d	0.08700240409920319
205	0x3fb9238aacdc19c2	0.09819857330521756
206	0x3fbe93726e57a42e	0.11943736261277202
207	0x3fc349feccdeedf7	0.15069565776308
208	0x3fc19ad9da0b2e97	0.13753817698158308
209	0x3fb9dc69cafb4345	0.1010194893417636
210	0x3fb542d779775e5e	0.08305117335782472
211	0x3fb3e2ad38f5420d	0.07767756119324805
212	0x3fb3bf2a4cbbd997	0.07713569997199553
213	0x3fb569bcf020e8d4	0.08364468443406575
214	0x3fb658a1c834db8e	0.08728991639951131
215	0x3fb9f75b2842fe4c	0.1014306042952679
216	0x3fc1ae1b93a1b120	0.13812584599089295
217	0x3fb8fe96c6193ffa	0.09763471924202341
218	0x3fb915b9709e41b2	0.0979877376505616
219	0x3fb940443dd104f4	0.09863688000861598
220	0x3fb947af2faf4b74	0.09875006593874308
221	0x3fb9399ac729b2f6	0.09853522646308108
222	0x3fb9389c0b73b9f5	0.09852004317847458
223	0x3fb92e1bef135e97	0.09835981928642422
224	0x3fb94a90dd91b3ce	0.09879403504756043
225	0x3fb9529a52a14e73	0.09891666905724054
226	0x3fb95733c4f9717a	0.09898685034699453
227	0x3fb9431e9a83957d	0.09868041298212478
228	0x3fb60720f2608f6c	0.0860462753049071
229	0x3fb6036fb2ba1223	0.08598993409584259
230	0x3fb88de33c9c1ffb	0.09591503362400992
231	0x3fb86b52d6125e3e	0.09538762785302254
232	0x3fb7c1af78c8194e	0.09279915522356427
233	0x3fb816c31266aa91	0.09409732054943222
234	0x3fb76d5b3b39eb59	0.09151239582017236
235	0x3fb7a8f6e9f36f3d	0.09242194377605713
236	0x3fb7a20c6e9d0a7a	0.092316414838061
237	0x3fb579e749c9cb0a	0.08389134932967238
238	0x3fb63207a456b1f2	0.08670089494871272
239	0x3fb63250bb145dbc	0.0867052513825603
240	0x3fb8ae097f25cde0	0.09640559534255244
241	0x3fb878ba58dd5508	0.09559216184182528
242	0x3fb770e47e0e79c1	0.09156635358383537
243	0x3fb801489a7cd459	0.0937695862929372
244	0x3fb71ba49edbb59e	0.09026554945349693
245	0x3fb7941f6f5e8920	0.09210392445541915
246	0x3fb76f0ec49d4c26	0.09153835582883171
247	0x3fb565414e52ebd1	0.08357628023342946
248	0x3fb681f40ed361e4	0.08792043077426787
249	0x3fb6aa25502bdb18	0.08853371817881983
250	0x3fb715357d783a0a	0.09016737282966161
251	0x3fb7e245631e84b5	0.09329637212660453
252	0x3fb75f46219dd6ae	0.09129751511303638
253	0x3fb80a1211ad77b0	0.0939036648901197
254	0x3fb7338eedf2d13e	0.09063046750344925
255	0x3fb7313efdbbad76	0.09059518522888318

count f8 []
0	0x421718c7e0040000	24800000001.0

running_mean f8 [1]
0	0x405651234b2f077c	89.26777915566157

running_var f8 [1]
0	0x407bbcaf8414fee8	443.79285057259995

count f8 []
0	0x41f718c7e0100000	6200000001.0

a2c_network.sigma f4 [15]
0	0xbf7b3dde	-0.98141277
1	0xbf91a567	-1.1378602
2	0xbfb6cb94	-1.4280877
3	0xbf31d0a8	-0.6945901
4	0xbf2a2859	-0.66467816
5	0xbf4e6a7e	-0.80631244
6	0xbf095309	-0.53642327
7	0xbf22e4a8	-0.6363015
8	0xbf3df55c	-0.74202514
9	0xbf67fff0	-0.90624905
10	0xbf211c98	-0.62934256
11	0xbf2f3ac9	-0.68449074
12	0xbf463b43	-0.77434176
13	0xbf5dad3f	-0.8659248
14	0xbf18781e	-0.59558284

a2c_network.actor_mlp.0.weight f4 [128, 361]
0	0x3f666112	0.8999187
1	0xbee92a96	-0.45540303
2	0xbd05c61b	-0.03265963
3	0xbdc16276	-0.09442608
4	0xbf1d79e6	-0.6151413
5	0x3c1d043b	0.009583528
6	0xbe896dbc	-0.26841533
7	0xbe98e5ba	-0.29862767
8	0xbf752a23	-0.9576742
9	0xbf2be738	-0.67149687
10	0xbf5b822d	-0.8574551
11	0xbf00272f	-0.5005979
12	0xbd89a2e0	-0.06720519
13	0xbebb60c8	-0.36597276
14	0xbf84f132	-1.0386107
15	0x401984ad	2.398723
16	0x3ee2df4d	0.4431099
17	0xbf51f51f	-0.8201465
18	0x4024b167	2.5733278
19	0x3e617155	0.22015889
20	0xbfda5f5f	-1.7060355
21	0x3e8ec25d	0.27882662
22	0xbf146a68	-0.57974863
23	0x3f819976	1.0124958
24	0xbf081b71	-0.5316687
25	0x3f52327b	0.8210828
26	0x3fc789a6	1.5588882
27	0x3f858f4d	1.0434357
28	0x3e890707	0.26763174
29	0x3f406755	0.7515767
30	0xbef68adc	-0.48152816
31	0xbf3558b1	-0.7083846
32	0xbe983d8e	-0.29734462
33	0x3e34e6cb	0.17666166
34	0xbf7685e2	-0.9629804
35	0x3f0efc15	0.55853397
36	0xbfc06384	-1.503037
37	0xbe4cafc9	-0.19988932
38	0xbe27e2c0	-0.16395092
39	0xbf08aa9b	-0.53385323
40	0x3f06a8b5	0.52601177
41	0xbf3cd135	-0.73756725
42	0x3f87b544	1.0602193
43	0xbf2b94d2	-0.67023957
44	0x3ebf7bae	0.37399048
45	0xbf4885ff	-0.7832946
46	0xbe4fd9a8	-0.20297873
47	0xbf83449b	-1.0255312
48	0x3f0ae11b	0.54249734
49	0x3cab80e4	0.020935483
50	0xbec47714	-0.383721
51	0xbfbbd202	-1.4673464
52	0xbf1888a7	-0.59583515
53	0xbf206008	-0.6264653
54	0x3f02b284	0.51053643
55	0xbf23ef06	-0.64036596
56	0xbf80ad44	-1.0052876
57	0xbf0baa75	-0.5455697
58	0x3f5a3705	0.85240203
59	0xbf08cc34	-0.5343659
60	0xbf24d5f6	-0.6438898
61	0xbe52716d	-0.20551081
62	0xbfd1f17a	-1.6401818
63	0xbf7e2958	-0.99281836
64	0x3d351ffa	0.04421995
65	0xbe6f9b98	-0.23399198
66	0xbf2c7e1e	-0.6737994
67	0xbfc6cb1a	-1.5530732
68	0xbeeeedd3	-0.4666582
69	0xbe7ab575	-0.24483283
70	0xc0007a6d	-2.0074723
71	0xbf42e308	-0.7612767
72	0x3d306821	0.043068055
73	0x3f82fbad	1.0233055
74	0xbe46a695	-0.19399484
75	0xbe95e99c	-0.29279792
76	0xbe1a35e0	-0.15059614
77	0x3f1e2fe3	0.6179182
78	0x3e3a5fcb	0.18200605
79	0xbe20e3f8	-0.15711963
80	0x3f393f18	0.723619
81	0x3d848dfe	0.06472395
82	0x3eb7074b	0.35747752
83	0xbe8ffe02	-0.2812348
84	0x3c059690	0.008153573
85	0x3e52b3c8	0.20576394
86	0xbd032ae7	-0.032023337
87	0xbf5cfe59	-0.86325604
88	0xbf81a3bd	-1.0128094
89	0xbeee0223	-0.46486005
90	0xbefd0a93	-0.4942213
91	0xbf293d3d	-0.6610907
92	0x3e55c2d0	0.20875096
93	0x3a9c2a9f	0.0011914558
94	0xbd18830d	-0.037234355
95	0xbe4f9bcd	-0.20274277
96	0x3e50c549	0.20387758
97	0xbebd9463	-0.37027273
98	0x3e5e3154	0.21698505
99	0x3f57dd9d	0.8432253
100	0xbf4eaf7f	-0.80736536
101	0xbef33e19	-0.47508314
102	0xbf1cc748	-0.6124158
103	0x3f523536	0.82112443
104	0x3d3a2a5c	0.045450553
105	0xbc64acbf	-0.0139572015
106	0x3eab3c43	0.33444414
107	0x3e7fbaed	0.2497365
108	0xbd8a7bb1	-0.067618735
109	0x3d563069	0.05229226
110	0x3f3ff189	0.7497793
111	0xbf388d12	-0.72090256
112	0x3f5fd553	0.8743488
113	0xbe30df4e	-0.17272684
114	0x3e90a1f1	0.2824855
115	0xbdb1657a	-0.08661933
116	0xbe8bc914	-0.27301848
117	0xbc3ff963	-0.011717173
118	0xbed10d76	-0.40830582
119	0xbf85d1f9	-1.0454704
120	0xbe14044b	-0.14454763
121	0x3d949f14	0.07256904
122	0x3f2a83ba	0.6660725
123	0xbf0ba986	-0.5455555
124	0x3ae654a4	0.0017572832
125	0xbe9c9fcd	-0.30590668
126	0xbf4f9c02	-0.81097424
127	0x3eeb1908	0.45917535
128	0x3f82cbfd	1.0218502
129	0xbcf313ed	-0.029672587
130	0x3e149531	0.14510037
131	0x3f21a7cb	0.63146657
132	0x3ebcecad	0.3689932
133	0x3e910ec3	0.28331575
134	0x3f671d49	0.9027906
135	0x3df76d95	0.12081448
136	0x3d471c8e	0.048611216
137	0xbf11dd03	-0.5697786
138	0xbc21b90d	-0.00987078
139	0xbdf6bf51	-0.120482095
140	0x3e87b63d	0.26506224
141	0x3eaf9991	0.3429685
142	0x3d676592	0.05649335
143	0x3e8b2423	0.27176008
144	0xbf5dc172	-0.866233
145	0xc00dc4b0	-2.2151299
146	0xbe144d1d	-0.14482541
147	0xbe7a8eec	-0.24468583
148	0xbee730d9	-0.45154455
149	0x3df20231	0.11816824
150	0x3f044fa1	0.51684004
151	0x3ecee2a9	0.40407303
152	0x3eb9112d	0.36145917
153	0x3ee86728	0.45391202
154	0x3e2ef438	0.1708535
155	0x3dd04462	0.10169293
156	0xbe7f5ba7	-0.24937306
157	0x3e27d7ee	0.16390964
158	0x3e4c4970	0.19949889
159	0xbe50b36e	-0.20380947
160	0xbe86ee24	-0.26353562
161	0x3f2b51ff	0.6692199
162	0xbf258b0d	-0.646653
163	0x3e53f475	0.20698722
164	0xbcedad63	-0.029013341
165	0x3e84dfcb	0.2595199
166	0xbe0c0a48	-0.13675797
167	0x3da9b68f	0.082867734
168	0xbea21556	-0.31656903
169	0xbeca39a0	-0.3949709
170	0x3eb498cc	0.35272825
171	0x3f8fb8f7	1.1228322
172	0x3e8089f2	0.25105244
173	0xbf1c32d3	-0.6101505
174	0x3e3a7e12	0.18212155
175	0x3f41ec69	0.7575136
176	0xbf8e1b44	-1.1102071
177	0x3ea1eea6	0.31627387
178	0xbe4802c3	-0.19532304
179	0xbe17a8d4	-0.14810497
180	0x3d982a78	0.07429975
181	0x3e8eb802	0.27874762
182	0xbc09daa0	-0.008413941
183	0xbf35d928	-0.7103448
184	0xbc9bd917	-0.019024415
185	0xbe09006d	-0.13379069
186	0x3e41fe2e	0.18944618
187	0xbe1e92fc	-0.15485758
188	0x3f1509a2	0.58217824
189	0xbe946ea2	-0.28990656
190	0x3e736d06	0.23772058
191	0xbef0e22c	-0.47047555
192	0x3ed58cd9	0.4170902
193	0x3e6a9e46	0.22911939
194	0x3f24d5f6	0.6438898
195	0xbf336f02	-0.7009126
196	0xbbd13974	-0.006385023
197	0x3def555c	0.11686203
198	0x3f658e9e	0.8967074
199	0x3eed52ed	0.4635233
200	0x3e9bf7b7	0.3046243
201	0xbe132f1f	-0.14373444
202	0x3ca2a3ff	0.01985359
203	0xbf1b045d	-0.6055353
204	0x3ee10bad	0.4395422
205	0x3effa911	0.49933675
206	0x3ed107a6	0.40826148
207	0x3fac7371	1.347273
208	0x3fc0431a	1.5020478
209	0x3f2de349	0.67924935
210	0x3f51ecf9	0.82002217
211	0xbf1cc0f3	-0.6123192
212	0xbe07955e	-0.13240573
213	0xbf4cf065	-0.8005431
214	0xbe8946e9	-0.26811913
215	0xbd0ce716	-0.03440007
216	0x3f83dd86	1.0301979
217	0x3d2ba8ae	0.041908912
218	0xbdd3d06d	-0.103424884
219	0xbf2a5fab	-0.6655223
220	0xbe212462	-0.15736535
221	0xbf0ad6a4	-0.54233766
222	0xbf296cef	-0.66181844
223	0xbaf24640	-0.0018484071
224	0x3e2d4f9c	0.169249
225	0xbf0cdf4c	-0.55028224
226	0x3e568ae8	0.20951426
227	0x3c625669	0.013814547
228	0x3d8c7501	0.06858254
229	0xbde30988	-0.11085802
230	0x3e963cdc	0.29343307
231	0x3f890f8a	1.0707867
232	0x3de33f71	0.11096085
233	0xbe0507e7	-0.12991296
234	0xbf23cc64	-0.6398375
235	0xbe121dbf	-0.1426916
236	0x3ea391b6	0.31947106
237	0xbe8bfadf	-0.27339837
238	0x3f0fa4e8	0.56111
239	0xbe60178a	-0.2188398
240	0xbf29a294	-0.662637
241	0x3f9b28eb	1.2121862
242	0xbe05b2bb	-0.13056462
243	0x3ec6195c	0.38691223
244	0xbe1476df	-0.1449847
245	0x3f26f795	0.6522153
246	0x3dfa284d	0.12214718
247	0xbde7babd	-0.113149144
248	0x3cfcec2d	0.030874336
249	0xbe4ee2c9	-0.20203699
250	0xbf136264	-0.5757201
251	0xbe1f4dd3	-0.15557031
252	0xbcbdc01a	-0.02316289
253	0xbf140f3e	-0.5783576
254	0x3f71c6bb	0.94443864
255	0xbe80c222	-0.25148112

a2c_network.actor_mlp.0.bias f4 [128]
0	0xc01e393b	-2.472243
1	0xc071c017	-3.7773492
2	0xbe4cd351	-0.20002486
3	0xc03aa400	-2.9162598
4	0xc05dddc5	-3.4666607
5	0x3ec4e427	0.38455316
6	0xc08c4c5c	-4.384321
7	0xbf828819	-1.0197784
8	0x3f2e20fd	0.68019086
9	0xc054d224	-3.325326
10	0xc00110ef	-2.0166585
11	0xbff8c475	-1.9434954
12	0xbff258b1	-1.8933316
13	0xc01716ea	-2.3607736
14	0xc01e4597	-2.4729974
15	0xc01a2e7f	-2.409088
16	0xbe1f36ca	-0.15548244
17	0xc023e993	-2.5611312
18	0xc082a146	-4.0821867
19	0xc0400a4a	-3.000628
20	0xbfa93332	-1.3218749
21	0xc0237035	-2.5537236
22	0xc008a799	-2.1352293
23	0xbf430c1b	-0.76190346
24	0xc00d2feb	-2.2060497
25	0x3e6f4f3d	0.23370071
26	0xbfa9eb0c	-1.3274856
27	0xbfe0b1c7	-1.7554253
28	0xbfe643fa	-1.7989495
29	0x3e05591e	0.13022277
30	0xc02b001d	-2.671882
31	0xc033a6a9	-2.8070471
32	0xc006f34b	-2.1085994
33	0xc05d7c91	-3.460728
34	0xbfd0e408	-1.631959
35	0xc02baced	-2.6824296
36	0xc03ac438	-2.9182262
37	0x3da7f341	0.08200694
38	0xbfe0251a	-1.7511322
39	0xc00da345	-2.2130902
40	0xbfb366e4	-1.4015775
41	0xc0293e28	-2.6444187
42	0xbfc89abf	-1.5672225
43	0xbf526b55	-0.82195026
44	0xbfe3e77a	-1.7805016
45	0xbfb308d6	-1.3987072
46	0xc048509a	-3.1299195
47	0xbf9970c9	-1.1987544
48	0xc05ef108	-3.4834614
49	0xbf74711a	-0.9548508
50	0xbfd51829	-1.6647998
51	0xc04b0e40	-3.1727448
52	0xc01c05aa	-2.4378457
53	0x3ef1a2e4	0.47194588
54	0xbfc569bc	-1.5422893
55	0xc0542c05	-3.3151867
56	0xc002208e	-2.033237
57	0xc027af56	-2.6200767
58	0xc0037de7	-2.0545595
59	0xbf9fd1d2	-1.2485907
60	0xc04f51dc	-3.2393713
61	0xbf6686fe	-0.9004973
62	0xc030bfec	-2.761714
63	0xc0914419	-4.5395627
64	0xbfde3633	-1.736029
65	0xc02bfc79	-2.6872847
66	0xc02b21a5	-2.6739285
67	0xbfbc5c06	-1.4715583
68	0xc04765ec	-3.1155958
69	0xc015ab64	-2.3385859
70	0xbfe89787	-1.8171242
71	0xc090fdf2	-4.530999
72	0xc0163fe7	-2.3476503
73	0xc03f1fc3	-2.9863136
74	0xc037e9df	-2.8736494
75	0xc046c7a7	-3.1059358
76	0xc06dfdb5	-3.71861
77	0xc0411e18	-3.0174618
78	0xbfe32e59	-1.7748519
79	0xbf477160	-0.7790737
80	0xbf8e2ad5	-1.1106821
81	0xbf8260b5	-1.0185763
82	0xbff87dc2	-1.9413378
83	0x3f558128	0.834002
84	0xbfadbaef	-1.3572673
85	0xc01031e6	-2.2530456
86	0xc059eca2	-3.405068
87	0xc001b3ee	-2.026607
88	0xc01958b7	-2.3960397
89	0xbf215770	-0.63024044
90	0xc02eea54	-2.7330523
91	0xc018111b	-2.376044
92	0xbee8deac	-0.45482385
93	0xbe6ab825	-0.22921808
94	0xc00b982b	-2.1811626
95	0xc0784625	-3.8792813
96	0xc02ab010	-2.666996
97	0xc00dfa40	-2.218399
98	0xbf9afd52	-1.2108557
99	0xbf016f59	-0.5056053
100	0xc01f4ee1	-2.4891894
101	0xbfd55d3f	-1.6669081
102	0xc0149541	-2.3216097
103	0x3e64c60b	0.22341172
104	0xbf8ec7c1	-1.115471
105	0xc01a7b37	-2.4137704
106	0xc010295d	-2.2525246
107	0xc0394c68	-2.8952885
108	0xbf167bf0	-0.58782864
109	0xc062bb2c	-3.542674
110	0xbfcc03ae	-1.5938623
111	0xbed3febe	-0.4140529
112	0xc046baee	-3.1051593
113	0xbfde1dac	-1.7352805
114	0xc020ae54	-2.5106401
115	0x3ecc3912	0.3988729
116	0xbf8ee965	-1.1164976
117	0xc0494d19	-3.1453307
118	0xbf358fa6	-0.70922315
119	0x3f694ee5	0.9113601
120	0xbfed082e	-1.8518121
121	0xc008bd2d	-2.1365464
122	0xc045bf66	-3.089807
123	0xbfe3f727	-1.78098
124	0xbebdb923	-0.3705531
125	0xc02e68c6	-2.7251449
126	0xc00725c1	-2.1116793
127	0xc0395f1a	-2.8964295

a2c_network.actor_mlp.2.weight f4 [128, 128]
0	0xbe5fe22d	-0.21863623
1	0xbd82abf6	-0.06380455
2	0xbe89e226	-0.2693035
3	0xbdaeccef	-0.08535182
4	0x3e239ff6	0.15978989
5	0xbf80be09	-1.0057994
6	0x3ec749e9	0.38923576
7	0xbe0b3704	-0.13595206
8	0xbcf43fd8	-0.0298156
9	0xbd72b5e5	-0.0592555
10	0xbbb904ae	-0.00564631
11	0xbea0a8ca	-0.31378776
12	0xbcfb74d9	-0.030695366
13	0xbea3eded	-0.3201746
14	0xbe705d62	-0.23473123
15	0x3cd97880	0.026546717
16	0xbec83ee3	-0.3911048
17	0xbe4defd8	-0.20111024
18	0x3ea0875a	0.31353265
19	0x3d97e97a	0.07417579
20	0xbeced735	-0.40398565
21	0xbe9a2e1b	-0.301133
22	0xbcafda8f	-0.021466522
23	0xbf4b36d2	-0.79380524
24	0xbdb54df6	-0.088527605
25	0xbeaeb002	-0.34118658
26	0xbe1c7f3b	-0.1528291
27	0xbd5eb194	-0.05436857
28	0xbec47749	-0.38372257
29	0xbed73735	-0.42034307
30	0x3d8f82cb	0.07007369
31	0xbeba85cc	-0.36430204
32	0xbd60bad9	-0.05486569
33	0xbde9f6c2	-0.114240184
34	0xbf551c1d	-0.8324602
35	0xbe6eae9e	-0.23308799
36	0x3d8debdd	0.06929753
37	0xbec0ef24	-0.3768245
38	0xbd1590a1	-0.036514882
39	0xbd2198ff	-0.03945255
40	0xbe96c768	-0.2944901
41	0x3d416687	0.04721692
42	0xbdcc4878	-0.0997476
43	0xbe339857	-0.17538582
44	0x3e4eeb61	0.20206977
45	0xbcaf0090	-0.021362573
46	0x3e5b2eae	0.21404526
47	0xbf184d77	-0.594932
48	0x3e0add52	0.1356099
49	0xbe96ed78	-0.2947805
50	0xbedd519a	-0.4322632
51	0x3e3d3625	0.18477686
52	0xbe089026	-0.13336238
53	0xbf426a60	-0.75943565
54	0xbf0733ef	-0.5281362
55	0x3d795187	0.060868766
56	0x3c453da1	0.012038619
57	0x3e320da0	0.1738801
58	0xbe6a05e2	-0.22853807
59	0x3c40a24e	0.011757446
60	0x3d7e9a8b	0.062159102
61	0xbf817a3f	-1.0115432
62	0xbce81e2a	-0.028334696
63	0x3e71966d	0.23592539
64	0xbf2ea888	-0.6822591
65	0xbea1d427	-0.31607172
66	0xbeefb27c	-0.4681586
67	0xbee717d1	-0.45135358
68	0x3d4a252a	0.04935185
69	0xbedd91c3	-0.4327527
70	0xbea9b0e1	-0.3314276
71	0x3f104a04	0.5636294
72	0x3d9a2989	0.075274535
73	0x3e958f5f	0.29210946
74	0xbda0830c	-0.07837495
75	0x3e4179c5	0.18894108
76	0xbe3479ab	-0.17624538
77	0x3d7bbccd	0.06145935
78	0xbf37f03c	-0.71850944
79	0xbf3d459a	-0.7393433
80	0xbdbde9ec	-0.09273133
81	0xbf186cbc	-0.59540915
82	0xbd6aeabf	-0.057352778
83	0xbf3ffcae	-0.74994934
84	0xbeec4f22	-0.46154124
85	0x3baf6862	0.0053530196
86	0x3e83ffc3	0.25781068
87	0xbe1afa72	-0.151346
88	0xbec7b5e5	-0.39005962
89	0xbf10d829	-0.56579834
90	0xbcffe52d	-0.03123721
91	0x3cf76643	0.03020013
92	0xbef1b284	-0.4720651
93	0xbe99d339	-0.30043963
94	0xbe149f18	-0.14513814
95	0xbc5edb68	-0.013602115
96	0xbe10b93f	-0.14133166
97	0x3e86d552	0.26334625
98	0xbe8fa922	-0.28058726
99	0xbe1cdf40	-0.15319538
100	0x3e4ddd79	0.20104016
101	0xbd7a477f	-0.06110334
102	0x3e2af4b3	0.16694908
103	0xbf441933	-0.7660095
104	0xbef92676	-0.48662156
105	0xbda6b713	-0.081403874
106	0xbe5190b5	-0.20465358
107	0xbe7e73b3	-0.24848823
108	0xbec6d972	-0.38837773
109	0x3dedd8fd	0.11613653
110	0xbf34bfe4	-0.706053
111	0xbf044eda	-0.5168282
112	0x3e2fde6b	0.1717469
113	0xbca15d93	-0.01969794
114	0xbe0546e0	-0.13015318
115	0xbece8ed2	-0.40343338
116	0xbd949cde	-0.072564825
117	0xbd6a02fa	-0.057131745
118	0xbf2db51b	-0.6785447
119	0xbf139971	-0.5765601
120	0xbe974769	-0.2954667
121	0xbea93823	-0.3305064
122	0xbe7afb11	-0.24509837
123	0xbe89da7f	-0.26924512
124	0xbe0c44f2	-0.13698176
125	0x3ce77420	0.028253615
126	0xbed622a9	-0.4182332
127	0x3e0865e2	0.13320115
128	0x3deba102	0.11505319
129	0x3f9c5c2a	1.2215626
130	0x3ba45b10	0.0050157383
131	0xbf4055b8	-0.75130796
132	0xbf095a70	-0.5365362
133	0xbee35827	-0.44403192
134	0xbd82eef6	-0.063932344
135	0x3e941c29	0.28927734
136	0xbf217d3e	-0.6308173
137	0x3e9d83b2	0.30764538
138	0x3e1e7fb3	0.15478401
139	0xbe6c2db4	-0.2306431
140	0xbf22d8d5	-0.6361211
141	0xbeaf121e	-0.3419351
142	0x3f3bf4ca	0.73420393
143	0xbf030896	-0.51184976
144	0xbe3178c6	-0.17331228
145	0xbc2264a4	-0.00991169
146	0xbf4baa0d	-0.7955635
147	0xbe317ef3	-0.17333584
148	0xbe9f94d9	-0.3116825
149	0xbf2cea15	-0.6754468
150	0xbe737e86	-0.23778734
151	0xbe96bb4a	-0.29439765
152	0x3db3b084	0.08773902
153	0xbf0be81e	-0.5465106
154	0xbf07534a	-0.52861464
155	0xbf42a631	-0.7603484
156	0xbe50d5f3	-0.20394115
157	0x3ea49eb6	0.32152337
158	0x3f0a74c9	0.5408445
159	0xbe33604c	-0.17517203
160	0x3ef13f98	0.4711883
161	0x3e39d104	0.1814614
162	0x3e497263	0.19672541
163	0x3e5e9ce2	0.21739534
164	0xbf42a158	-0.7602744
165	0xbeda14b9	-0.42593935
166	0x3f1fabf8	0.6237178
167	0x3d56940a	0.052387275
168	0xbf04bf89	-0.5185476
169	0xbea2cdb3	-0.3179756
170	0xbe58f8a4	-0.21188599
171	0xbea84095	-0.32861772
172	0xbf1f6404	-0.62261987
173	0x3e4cc66b	0.19997565
174	0xbf0a2b46	-0.5397228
175	0xbfc150b6	-1.5102756
176	0x3e59cf78	0.2127055
177	0x3c8550f5	0.016273955
178	0x3e573377	0.21015726
179	0x3f0bce5b	0.5461175
180	0xbe41d38f	-0.1892836
181	0xbe7db825	-0.24777277
182	0xbe61b4ce	-0.22041628
183	0xbf576500	-0.8413849
184	0x3efeb8e8	0.49750447
185	0xbf6a40ea	-0.915053
186	0xbdd442e2	-0.103643194
187	0x3f0f0a43	0.55875033
188	0x3eca16d4	0.3947054
189	0xbef09782	-0.4699059
190	0x3edd0130	0.43164968
191	0xbea37db7	-0.3193185
192	0xbeaa9058	-0.3331325
193	0xbeba8113	-0.364266
194	0x3e10feb5	0.14159663
195	0x3ea2cf6f	0.31798884
196	0xbee7ef7a	-0.45299894
197	0x3e69e826	0.22842464
198	0x3de5a878	0.112137735
199	0x3ebdc685	0.3706552
200	0x3e5e3f57	0.2170385
201	0x3de70bf8	0.1128158
202	0xbe561848	-0.209077
203	0xbebd60ab	-0.36987814
204	0xbe30f092	-0.1727927
205	0xbfc0e870	-1.5070934
206	0x3e87f089	0.265507
207	0xbed0ac6f	-0.40756556
208	0xbf3d314d	-0.7390335
209	0xbe8e6691	-0.27812627
210	0xbdc285cc	-0.09498176
211	0xbf84d99f	-1.0378913
212	0xbf2767b0	-0.6539259
213	0xbf1e31a2	-0.61794484
214	0xbf3c10c7	-0.734631
215	0x3eb1b431	0.34707788
216	0x3f94e98e	1.1633775
217	0xbf1f3f2b	-0.6220576
218	0xbc65843d	-0.014008579
219	0xbef98e8d	-0.4874157
220	0xbe6705d8	-0.22560823
221	0x3e0f9163	0.14020304
222	0x3dce5d93	0.100764416
223	0xbf81e852	-1.0149024
224	0x3d89ec2c	0.06734499
225	0x3e97ec42	0.29672438
226	0xbec0ae6f	-0.37633082
227	0xbee5ead4	-0.44905722
228	0x3dd934e1	0.10605789
229	0xbe4a3a0d	-0.19748707
230	0x3e52afc4	0.20574862
231	0x3f0fe74f	0.56212324
232	0xbf1fe4cf	-0.6245851
233	0x3c9e2840	0.019306302
234	0xbeee1bb6	-0.46505517
235	0xbf01a6de	-0.50645244
236	0xbfcd82e2	-1.6055567
237	0xbe586d12	-0.21135357
238	0xbf563400	-0.83673096
239	0xbe92d092	-0.28674752
240	0x3e9b955a	0.30387384
241	0x3e51fc85	0.20506485
242	0x3ea30b4e	0.31844562
243	0xbee505bc	-0.44730937
244	0xbf49763a	-0.78696024
245	0x3e520820	0.20510912
246	0x3e115246	0.14191541
247	0xbfd41a6f	-1.6570567
248	0x3f13b9b7	0.57705253
249	0x3e6ace31	0.22930218
250	0xbd15758e	-0.036489062
251	0xbe23548a	-0.15950218
252	0x3e8165e6	0.25273055
253	0xbf6f18d9	-0.9339729
254	0xbeb64210	-0.35597277
255	0xbeefd07e	-0.46838754

a2c_network.actor_mlp.2.bias f4 [128]
0	0xc009bd2e	-2.1521716
1	0xbf298d72	-0.66231453
2	0xbe9dd0cc	-0.30823362
3	0xbf510cc8	-0.8166013
4	0xbede1562	-0.4337569
5	0xbf5e6850	-0.8687792
6	0xbed985d2	-0.4248491
7	0xbf379f74	-0.7172768
8	0xbf77ac2b	-0.9674708
9	0xbf6f9cbb	-0.93598527
10	0xbf4b8eb5	-0.7951463
11	0xbf7faa6b	-0.9986941
12	0xbf58607d	-0.8452223
13	0xbf37661e	-0.71640193
14	0xbfa083d4	-1.2540231
15	0xbf0bd384	-0.5461962
16	0xbf160bfa	-0.58612025
17	0xbee0f834	-0.43939364
18	0xbeba86f9	-0.364311
19	0xc029d9a6	-2.6539092
20	0xbdb2fe12	-0.08739866
21	0xbf085418	-0.53253317
22	0xbeb2eddd	-0.349471
23	0xbf7daaf9	-0.9908901
24	0xbf68c9ac	-0.90932727
25	0x3e853478	0.26016593
26	0xbf002431	-0.50055224
27	0xbec28874	-0.3799473
28	0xbeb66fda	-0.3563221
29	0xbefef4c3	-0.49796113
30	0xbe5d9d9f	-0.21642159
31	0xbf99f0e2	-1.2026637
32	0xbf901c64	-1.1258664
33	0xbec78cd0	-0.3897462
34	0xbf808ba4	-1.0042615
35	0xbf0493ef	-0.5178823
36	0xbf1c5b27	-0.6107659
37	0xbf07677a	-0.5289227
38	0xbeef6c56	-0.4676234
39	0xbedc1596	-0.4298522
40	0xbefc3163	-0.4925643
41	0xbf1e09e4	-0.6173384
42	0xbfaa0b10	-1.3284626
43	0xbf233666	-0.6375488
44	0xbef4d4a1	-0.47818473
45	0xbf584ed7	-0.844953
46	0xbf31cba0	-0.6945133
47	0xbfa8ed43	-1.3197407
48	0xbf5dce35	-0.8664277
49	0xbf6e1195	-0.9299558
50	0xbfdfe740	-1.7492447
51	0xbee58721	-0.44829658
52	0xbfacfa3a	-1.3513863
53	0xbedb92ff	-0.42885587
54	0xbe599949	-0.2124988
55	0xbf009bac	-0.50237536
56	0xbe0c72f8	-0.13715732
57	0xbfa305ff	-1.2736205
58	0xbf98dafe	-1.1941831
59	0xbf1f2836	-0.6217073
60	0xbf81dc4b	-1.0145353
61	0xbea77509	-0.32706478
62	0xbf7ffb86	-0.9999317
63	0xbf429ed1	-0.76023585
64	0xbf068ec2	-0.5256158
65	0xbf83fafd	-1.031097
66	0xbe2c0787	-0.16799746
67	0xbf308789	-0.6895681
68	0xbf79eb91	-0.9762507
69	0xbf313e2d	-0.692355
70	0xbf12c0c8	-0.5732541
71	0xbf341f49	-0.7036024
72	0xbf112405	-0.56695586
73	0xbf6c22ed	-0.9224079
74	0xbebba465	-0.3664886
75	0xbe7f7855	-0.24948247
76	0xbf673830	-0.9032011
77	0xbf527c75	-0.82221156
78	0xbdc51f63	-0.09625127
79	0xbee56fb3	-0.44811782
80	0xbf012d35	-0.50459605
81	0xbee8dea9	-0.45482376
82	0xbe545b26	-0.20737895
83	0xbf7bde36	-0.9838594
84	0xbf1a8226	-0.6035484
85	0x3e71f104	0.23627096
86	0xbf23d502	-0.639969
87	0xbfac6364	-1.3467832
88	0xbf95ccfc	-1.1703181
89	0xbf0cb77e	-0.54967487
90	0xbeb8935b	-0.36049923
91	0xbf42cfea	-0.760985
92	0xbf32353b	-0.69612473
93	0xbf7e2dc4	-0.9928858
94	0xbf5b9d69	-0.85787064
95	0xbf0fb29f	-0.5613193
96	0xbf8508a3	-1.0393261
97	0xbf2b256b	-0.6685397
98	0xbed3d5be	-0.4137401
99	0xbf43c1f7	-0.7646784
100	0xbf810bf7	-1.0081776
101	0xbf9d09be	-1.2268598
102	0xbf1e0d52	-0.61739075
103	0xbed4fd9e	-0.41599745
104	0xbfbdca20	-1.4827309
105	0xbf5d8e74	-0.8654549
106	0xbf255967	-0.6458954
107	0xbd705ca5	-0.058682103
108	0xbf8588aa	-1.0432332
109	0xbf51d049	-0.8195844
110	0xbffbba4f	-1.9666232
111	0xbec3607e	-0.38159555
112	0xbf0be099	-0.54639584
113	0xbf46d5c0	-0.77669907
114	0xbf2aec09	-0.6676641
115	0xbf3b7b65	-0.7323516
116	0xbf080362	-0.5313016
117	0xbf125f73	-0.57176894
118	0xbf3e9144	-0.7444041
119	0xbf0b220b	-0.5434882
120	0xbf3ec25b	-0.7451531
121	0xbee47529	-0.44620636
122	0xbf21a88c	-0.6314781
123	0xbf60f5c8	-0.8787503
124	0xbed0cbef	-0.4078059
125	0xbfe91c45	-1.8211752
126	0xbf39f3ec	-0.7263782
127	0xbf881256	-1.0630596

a2c_network.critic_mlp.0.weight f4 [128, 361]
0	0x3fef81f9	1.871154
1	0x3d8286b5	0.063733496
2	0xbf80bb4b	-1.0057157
3	0xbf6f1882	-0.9339677
4	0xbffe281d	-1.9855992
5	0x3f2356a4	0.6380408
6	0x3f07baef	0.53019613
7	0xbdf06cf3	-0.117395304
8	0xbce11051	-0.0274736
9	0xc05c44c3	-3.441697
10	0xbf404fd7	-0.75121826
11	0xbed35871	-0.41278413
12	0xbf34153c	-0.703449
13	0x3f5d14d0	0.8635988
14	0x3f6eda86	0.9330219
15	0xbf0203f3	-0.50787276
16	0x3e8de5af	0.27714297
17	0x3db76017	0.089538746
18	0xbee7c94f	-0.45270774
19	0x3de9f48d	0.114235975
20	0x3c2fbe97	0.0107265925
21	0xbf5eaa7b	-0.8697888
22	0xbf2c0cb2	-0.6720687
23	0xbd82e3d2	-0.063911095
24	0xbe9dbcd9	-0.30808142
25	0xbef1949d	-0.47183695
26	0x3dd695fe	0.104778275
27	0xbe02d0d0	-0.12774968
28	0x3e09a6db	0.13442557
29	0xbf0bc325	-0.5459464
30	0x3ecee23a	0.40406972
31	0x3ef55a87	0.4792063
32	0x3de69037	0.112579755
33	0x3e59bf56	0.21264395
34	0x3dcb7665	0.09934691
35	0xbdf9febd	-0.122067906
36	0x3e82ea94	0.25569594
37	0x3e03e4f6	0.1288031
38	0x3e0997c3	0.13436799
39	0x3d3b6ad3	0.045756172
40	0x3e9244c2	0.28568083
41	0x3d9f975f	0.077925436
42	0xbda76536	-0.08173601
43	0xbd24b8dc	-0.04021536
44	0x3d110cd9	0.035412643
45	0xbebabf7b	-0.36474213
46	0xbdaacf74	-0.0834035
47	0x3fa2faed	1.2732826
48	0xbe30e0c5	-0.17273243
49	0x3e5b92cf	0.21442722
50	0x3f066a09	0.52505547
51	0x3d015069	0.031570826
52	0xbed5daa9	-0.41768387
53	0xbaa942af	-0.001291355
54	0xbf39de7b	-0.72605103
55	0xbd9d34e5	-0.076761045
56	0x3e286a3b	0.16446774
57	0x3dd2adc6	0.10287051
58	0xbec0342a	-0.37539798
59	0xbe16856d	-0.14699335
60	0xbd4955ec	-0.049154207
61	0x3dfaf09b	0.12252923
62	0x3fd735ee	1.6813333
63	0xbd5c5ff2	-0.053802438
64	0x3e905600	0.28190613
65	0x3ef14835	0.47125402
66	0xbdf653a9	-0.12027676
67	0xbed6341e	-0.41836637
68	0x3d69195a	0.056908943
69	0xbee7e343	-0.45290574
70	0x3e03966b	0.12850349
71	0x3c1a0d00	0.0094025135
72	0x3e682de5	0.22673757
73	0x3db09632	0.086223975
74	0x3ceda6e4	0.029010244
75	0xbe0566cc	-0.13027495
76	0x3da9488f	0.082657926
77	0x3d052c92	0.03251321
78	0x3dac3106	0.08407788
79	0x3d4ed68e	0.050497584
80	0x3d18e758	0.03733
81	0x3e0f8827	0.14016782
82	0x3dddc52b	0.108286224
83	0x3dd1735f	0.102270834
84	0x3da166c5	0.0788093
85	0x3dddd3f6	0.10831444
86	0xbf0cc146	-0.5498241
87	0x3da68b04	0.08131984
88	0x3ce785e2	0.028262082
89	0x3c5eb73b	0.01359349
90	0xbdf2505e	-0.11831735
91	0x3cb2d32c	0.02182921
92	0xbe0b93a1	-0.13630535
93	0xbb8f8c96	-0.004380773
94	0x3da33d33	0.07970657
95	0x3d6335bf	0.05547118
96	0x3e9c1594	0.30485213
97	0x3e0e82de	0.1391711
98	0x3d8eacb3	0.069665335
99	0xbe2a81e7	-0.16651116
100	0xbda9ae0f	-0.08285152
101	0x3de9f264	0.114231855
102	0xbc2b78d4	-0.010465819
103	0xbcb05f9f	-0.02152997
104	0x3ca885ec	0.020571671
105	0x3c14fea0	0.00909391
106	0xbe32adea	-0.17449155
107	0x3e3cbfa3	0.18432479
108	0xbe1c057d	-0.15236469
109	0x3d3eb403	0.04655839
110	0x3d980508	0.07422835
111	0xbded4a66	-0.11586456
112	0x3d849a86	0.064747855
113	0x3dd51b3e	0.10405587
114	0xbde2a647	-0.11066871
115	0x3e295cfd	0.16539378
116	0xbe5fd1b4	-0.21857339
117	0x3e8ef702	0.27922827
118	0xbe130c2e	-0.14360115
119	0xbdd57db5	-0.10424367
120	0x3ddfb227	0.10922652
121	0x3dfaa95e	0.122393355
122	0x3d8feb7d	0.07027338
123	0x3cdf1094	0.027229585
124	0x3e11d824	0.14242607
125	0x3e713316	0.23554644
126	0xbee32c67	-0.44369814
127	0x3eb00d1d	0.34385005
128	0xbbeca07c	-0.0072212797
129	0xbd8f07f4	-0.06983939
130	0x3e338bd6	0.17533812
131	0xbe4b51ef	-0.19855474
132	0x3e04f1f9	0.1298293
133	0x3e1dc671	0.1540773
134	0x3c944d4d	0.018103266
135	0x3e648f3b	0.22320263
136	0x3fcc8b1f	1.5979956
137	0x3faf06b8	1.3673925
138	0x3e081333	0.13288574
139	0xbe327923	-0.17429022
140	0xbe85d5b9	-0.2613962
141	0x3e93c188	0.2885859
142	0x3d814f09	0.06313903
143	0x3e015528	0.12630141
144	0x3ee18ee4	0.4405433
145	0x3f92c637	1.146674
146	0x3c60daba	0.0137240235
147	0xbeadfb91	-0.33980992
148	0xbe1311b4	-0.14362222
149	0x3e236d1a	0.15959588
150	0xbe922359	-0.28542593
151	0x3b102036	0.0021991855
152	0x3e7154a2	0.23567441
153	0x3d167890	0.03673607
154	0xbe4238bb	-0.18966953
155	0xbafbb496	-0.0019203599
156	0xbc730783	-0.014833334
157	0xbe6da447	-0.23207198
158	0x3dabf24b	0.08395823
159	0x3e3f598b	0.18686502
160	0xbd072915	-0.032998163
161	0x3e8590af	0.26086947
162	0x3e78f834	0.24313432
163	0x3e76ba69	0.24094547
164	0xbe012495	-0.12611611
165	0xbde57c3e	-0.11205338
166	0x3e06ac20	0.13151598
167	0x3c3b2e1b	0.011424567
168	0xbe1bba01	-0.15207674
169	0x3e4bd245	0.1990443
170	0xbdab50ab	-0.083649956
171	0xbe29dca7	-0.16588078
172	0x3deb16bd	0.11478946
173	0x3dea6401	0.114448555
174	0xbd462b97	-0.048381414
175	0xbc1082b7	-0.008820227
176	0x3d66ab6b	0.05631582
177	0xbc9991b5	-0.018746236
178	0x3e282120	0.16418886
179	0x3d96cb19	0.073629566
180	0xbe4104d5	-0.188495
181	0xbc183abb	-0.009291346
182	0xbe25fdcf	-0.16210102
183	0x3d791635	0.060812194
184	0xbe1e9bd1	-0.15489127
185	0xbd3bf289	-0.045885596
186	0x3d941369	0.07230265
187	0x3ddb03c6	0.10694079
188	0x3e274314	0.16334182
189	0xbe98a42a	-0.29812747
190	0x3eaed11c	0.34143913
191	0x3db301a2	0.08740546
192	0xbd82081a	-0.063492015
193	0x3d9f05d1	0.07764781
194	0xbd37e9c7	-0.04490068
195	0xbd0f9408	-0.035053283
196	0x3dcff565	0.10154227
197	0x3f36cb7d	0.7140425
198	0x3d8ff361	0.07028843
199	0x3e56eaf0	0.20988059
200	0xbcbd9cec	-0.023146115
201	0x3d81e55b	0.06342574
202	0xbe18696a	-0.14883962
203	0xbd580547	-0.052739408
204	0xbdfd910f	-0.12381183
205	0xbd32fbd8	-0.04369721
206	0x3d4d643f	0.05014443
207	0x3e93c2f8	0.28859687
208	0x3e89c816	0.26910466
209	0x3f3eb130	0.74489117
210	0x3e81f748	0.25383973
211	0x3e8deff3	0.2772213
212	0x3e9e5d53	0.30930576
213	0xbdf53680	-0.11973286
214	0xbe30eaac	-0.1727702
215	0xbd0cd711	-0.03438479
216	0x3eaf10e8	0.34192586
217	0xbd47a5a2	-0.048741944
218	0x3da4c770	0.08045852
219	0x3cb72498	0.022356316
220	0x3d641809	0.055686984
221	0x3d516863	0.05112494
222	0x3cfc45e5	0.030795047
223	0xbcbe4e61	-0.023230733
224	0x3d0cccc4	0.034374967
225	0x3c63125f	0.0138593605
226	0x3c3be1ae	0.01146738
227	0x3d326cc5	0.043560762
228	0x3d61b227	0.05510154
229	0x3de6310d	0.112398244
230	0xbd73809e	-0.05944883
231	0xbc3720c6	-0.011177247
232	0xbc6a3e71	-0.014297114
233	0xbd4b9f6f	-0.049712595
234	0xbd8817ec	-0.06645188
235	0x38886ae9	6.504899e-05
236	0xbce9df11	-0.02854875
237	0xbccd928d	-0.025094295
238	0x3c8011d4	0.015633501
239	0x3ddeae4f	0.108730905
240	0x3d0dc1e2	0.03460873
241	0x3d184ceb	0.03718273
242	0xbcd6251c	-0.026140742
243	0x3d7f8f2f	0.06239241
244	0x3cf6085e	0.030033287
245	0x3d102538	0.035191745
246	0x3b96e464	0.004604863
247	0xbcddd0cd	-0.027077103
248	0x3a76d6ab	0.00094161433
249	0x3c577826	0.013151204
250	0x3bedff84	0.007263126
251	0x3c35617b	0.011070604
252	0xb61a836e	-2.302429e-06
253	0x3d431f0d	0.047637034
254	0x3cab73bc	0.02092921
255	0x3c021e19	0.007941746
