python/rlgpu/saved_nn/241001162243532647/last_Aliengoep=500rew=[777.13].pth (torch, 523930 bytes, 18 tensors)

running_mean f8 [361]
00000000: 8991 da7b e3f8 bbbf 8323 b449 f11a b33f
00000010: 2232 d646 fd0f a9bf b87f 798d 1cca abbf
00000020: c468 6118 f245 dabf d966 5a98 1d41 d53f
00000030: cf9f 8b66 c5b3 d33f ba0b 354d d74d dc3f
00000040: 4ec3 b72e a4b9 de3f aadb c2a4 8497 aa3f
00000050: 97da 4a7d 8f48 ba3f 1b7d 7bc7 46f3 d8bf
00000060: 2c2c 1ab3 587d ba3f 4f6f 46e8 0ba4 b9bf
00000070: 0ece 1ff5 8802 d8bf 949b 69c4 babe b83f
00000080: 42c5 53fa 03d4 bd3f e0c2 92bc fc9e d5bf
00000090: 1b00 07d2 ec16 94bf 2fea befd 1ee0 bfbf
000000a0: ac86 4db1 763c d6bf 3634 6404 e179 dd3f
000000b0: 7b9a 0615 fd93 b93f 2a75 c4f8 d65d c23f
000000c0: 2407 0ef7 243e d83f 5ec1 2dc2 8d34 cb3f
000000d0: cac5 338d c3ac c63f befb ae78 e0a6 de3f
000000e0: d6eb e9c1 7955 c23f e16e 09e7 739c c23f
000000f0: 2e55 802e a64b dc3f a6d0 ccec 0c83 ce3f
00000100: d59a 0b07 5acd c13f 7a5d 7782 efab d6bf
00000110: 7422 69ee ce9f d03f b2b3 c197 b64f bdbf
00000120: fcda ed5d c370 d13f 65a1 bc7b 6be7 cf3f
00000130: 339c 6628 1ac2 d3bf 320c c2d2 0ff2 cdbf
00000140: 4924 3de8 6472 a3bf 092d 2186 fea1 d0bf
00000150: a72e 7a02 680b c13f d5f3 787b ebd7 d6bf
00000160: 227d 38f4 08d6 cebf dde5 669e 39c3 cf3f
00000170: ab57 4e1f 5c16 cf3f d2d4 e73a af38 ed3f
00000180: cff3 07b3 e397 b43f d1ad 44d3 f04a d43f
00000190: c846 7505 b795 403f 05b1 4e00 10f5 be3f
000001a0: a208 a4af 7730 d1bf b2e9 f90c f1d9 bcbf
000001b0: c98c 7f37 aa61 d1bf 4f80 457a 709b d93f
000001c0: 5912 0175 9f5d c33f 2794 7c2c 9fc6 d3bf
000001d0: c3cd 17d4 8920 d4bf dff8 2d8b b5b4 c93f
000001e0: 3bf0 59d3 cead cf3f e2b1 e627 a3d4 ce3f
000001f0: 1781 fcd2 4d26 ed3f 32ba 5974 478d b43f
00000200: 22a8 6aea 0e4d d43f e93c f264 45b9 293f
00000210: b0f9 b41a 2c00 bf3f 2960 1a06 d726 d1bf
00000220: e95b 0fa0 8ae5 bcbf aadd 4adb b15c d1bf
00000230: 7704 a928 af95 d93f 3764 17da 0a59 c33f
00000240: 927d 60c2 c1bf d3bf 53a7 6ca9 2f24 d4bf
00000250: ec69 ac48 b4ad c93f 5a92 80e4 b165 cc3f
00000260: cb8e 06eb 66d6 cc3f 2b2e 8798 b2fc cc3f
00000270: 533d 5698 8fe8 cc3f 4c16 65c5 cdb7 cc3f
00000280: 2845 2252 9f6e cc3f b507 cb58 0b20 cc3f
00000290: 5b90 be96 0d31 cc3f 88eb 5bee 7551 cc3f
000002a0: 0fb6 e682 937e cc3f d6b4 d50a beb9 cc3f
000002b0: c4f2 65c1 6358 c93f 031a 1c6d b263 c93f
000002c0: 5d1d db1d 4579 cb3f c1fe 7bc0 e10c cb3f
000002d0: 2de3 bb64 6b9c c83f 6e4f d24d 76a6 c83f
000002e0: ad19 75ed a3c0 c63f a89c e59d 3190 c73f
000002f0: 31a4 bb71 95f0 c73f 390b b98b ae61 c73f
00000300: 06ff ddc7 d6df c83f f9c9 5689 9ce3 c83f
00000310: 36b3 df5b 9c4a cb3f 2f18 a66c 40a0 ca3f
00000320: eaf9 ba66 aa6c c73f f4f4 a723 b6a4 c73f
00000330: 26aa c3d1 6af3 c43f 3175 8880 5868 c63f
00000340: 5f8d 7a26 a102 c73f 84a1 deb6 6959 c63f
00000350: 6633 c8e6 ff99 c83f 0229 7636 7ba5 c83f
00000360: 5e0f 0c3d 0943 c93f 2172 e23d 23be c83f
00000370: ec86 8302 02b8 c63f 61ea 4f3f 39df c63f
00000380: 9563 af90 9b1c c43f 6b06 6281 0db4 c43f
00000390: dbdb eb15 6f3c c53f 824f d965 d20a c63f
000003a0: 53b9 9fd2 ec6b c83f d272 7220 df80 c83f
000003b0: 26e5 accf f9da c83f 68d4 6025 4933 c83f
000003c0: d7b8 53f2 7d37 c63f 7b53 0e2c fc20 c63f
000003d0: 1872 64d1 33cd c33f e719 1364 9d59 c43f
000003e0: 6def d1d6 a0f9 c43f fa83 934f 5d1a c63f
000003f0: a566 f6a8 db2c c83f 3399 144e b55e c83f
00000400: b88d 8fe2 8157 c83f cd4f 37d6 29a5 c73f
00000410: d85a 69b8 94c9 c53f 9d37 2f31 f651 c53f
00000420: 0bdf 76fc d0cd c33f 3905 86dc 8843 c43f
00000430: 1e94 f0d3 f500 c53f b742 76b1 f451 c63f
00000440: e49c f626 0b92 c63f f6bd 441b 92fb c73f
00000450: c80f f59c 5b9f c53f 7004 e49e b457 c43f
00000460: 5942 b932 2c03 c53f 961b ea8a e112 c23f
00000470: cbc1 4096 6d20 c43f 3eaf 50b7 9e88 c33f
00000480: d679 b872 e14d c53f 80fd a90b cae2 c63f
00000490: b3e5 48b1 6c10 ce3f d0de 082c cf43 ce3f
000004a0: 6c75 2596 c24b ce3f 7e62 c7cb 073f ce3f
000004b0: ccfd 3170 6a34 ce3f a95b 0b77 e319 ce3f
000004c0: 2037 4daf 48fb cd3f a21b 82e5 271d ce3f
000004d0: ec8f 77ee 4a3a ce3f 553c ee4c d244 ce3f
000004e0: 3de5 b8a6 994d ce3f 8fca 2344 e756 ca3f
000004f0: 68af 6f48 6188 c93f 43c6 0c16 e048 cb3f
00000500: a421 655f e52c cb3f eeba ba0a 6691 ca3f
00000510: 00a4 fd00 f594 cb3f e2f6 ea27 a125 ca3f
00000520: 026e 1572 af1c cb3f a860 a016 d53a cb3f
00000530: 09c8 c5ce b680 c93f d11c 5987 a78c c93f
00000540: 77da 7656 6063 c83f 61ee 1091 c07f ca3f
00000550: 868e ec82 1a51 ca3f c839 9b27 9555 c93f
00000560: bcb7 a93a 5bcd ca3f 76bb 31ab fff5 c83f
00000570: 93b1 d18b db67 ca3f d2b8 1602 73a1 ca3f
00000580: 3916 706d c09e c83f c9bb e3e8 a506 c93f
00000590: 8e2b be34 b1c2 c73f 211a 81ed 9062 c83f
000005a0: 0935 1fa8 d8fe c83f 1e2e 1aef 5194 c83f
000005b0: 2565 4b3d f614 ca3f 5b6a d325 0b3d c83f
000005c0: a828 0b42 add5 c83f 2a77 4bcf 9f87 c83f
000005d0: ebed e5f0 3b35 c83f c30a fbf9 2cbc c83f
000005e0: dc83 fe09 f870 c73f 19a7 6939 19f7 c73f
000005f0: 5a90 ff6f 9293 c83f 96dd 7d2f 9510 c83f
00000600: cc2a 931b d948 c93f 80c8 7c0c 78b4 c73f
00000610: 77d5 3b27 e03f c83f ce53 9cec 3629 c83f
00000620: 0849 0ba7 5306 c83f 205e 7085 f883 c83f
00000630: 7976 a475 496b c73f 197d edb1 49ae c73f
00000640: 0bb2 b00a e333 c83f 07f3 2c2f ddb0 c73f
00000650: 8e35 d7b3 d759 c83f d406 2c54 8f45 c73f
00000660: 2b6b ef9c 80b9 c73f be90 abe1 26d3 c73f
00000670: d040 5b64 2afd c73f 3bfd fda5 21a3 c73f
00000680: ba18 263e 78f4 c73f 3275 8768 c2c7 c63f
00000690: 4d06 5d0e 96cd c53f 6215 e9e8 6c08 c73f
000006a0: 0d30 9d98 e2c9 c43f 1a75 bf61 a684 c63f
000006b0: 3e50 0565 f2ab c53f c12d f756 175c c63f
000006c0: e64d 3493 ac00 c83f 7887 823e 6224 ca3f
000006d0: 5c30 7389 2a84 ca3f 3139 044f c8a7 ca3f
000006e0: 8647 504e 158d ca3f 834f ee6d 1e6d ca3f
000006f0: f907 a927 824b ca3f 256f ce0d 1c18 ca3f
00000700: b916 6ee0 a220 ca3f 9769 554c 2e2a ca3f
00000710: 7513 7e48 7746 ca3f 7650 48b2 6a77 ca3f
00000720: 5551 cfe1 99b6 c63f 728c bc4e bbd6 c63f
00000730: dc73 4a82 87ab c93f 0c8d 2e38 1362 c93f
00000740: 9f03 167e add7 c73f 53f2 8613 cebb c73f
00000750: a8ae 9374 2c47 c53f b75b 7254 337c c53f
00000760: 7a84 e8e2 c7b7 c53f f6fe 53bf 165a c53f
00000770: 1b82 1c49 aa2f c63f 4c62 4710 483c c63f
00000780: e0ac 5624 c3b1 c93f 69e9 2c05 123b c93f
00000790: df93 a5ed fc00 c73f 90cf 516a cbed c63f
000007a0: be67 5a5a 2eba c33f bc6e 7e63 41cd c43f
000007b0: 7c9b 81c9 2125 c53f 9139 66bf 25aa c43f
000007c0: 1967 444a f4d1 c53f d03b a43f 84fa c53f
000007d0: ff39 afd4 5439 c73f 25a4 a6d3 2d22 c83f
000007e0: f7f3 52e2 e180 c63f 1504 91e4 6e45 c63f
000007f0: e547 ba0c 1d1b c33f ef4e a87c a3b2 c33f
-0.10926648877882007 0.07462986039548807 -0.04895011415201035 -0.05427636363015104 -0.4105191457835071 0.33209934118495493 0.3078473569316857 0.4422510389305746
0.48008064806258666 0.05193724166149789 0.10266968544861253 -0.3898484180517287 0.10347513554204174 -0.10015940113811193 -0.37515472352899415 0.09666030211665905
0.1165163503790341 -0.33782881179199187 -0.019618702239086 -0.12451356596913209 -0.34744040789346786 0.460563902176378 0.09991437686276498 0.14348876139494254
0.37879299284405676 0.21254131299384488 0.17714733500137775 0.4789353540945135 0.14323350876278934 0.14539955884071445 0.44211725751059106 0.2383743435144698
0.1390793356324226 -0.35424411526533783 0.25975392610829506 -0.1144975777148847 0.2725075166012372 0.24924987356031206 -0.3087220568217532 -0.2339496401874342
-0.03798213324495998 -0.2598873433932601 0.13316059227905905 -0.35692870195253806 -0.24090682911717304 0.24814529642553299 0.24286986855139267 0.9131694937228991
0.08044264908671937 0.31707401878040026 0.0005061286600868903 0.12092685706619839 -0.26858322288911485 -0.11270052496721553 -0.27158599300146286 0.4001122659738074
0.15129464352698355 -0.3089979109229852 -0.3144859858723203 0.20082730575445049 0.24749169654740108 0.24086417625711848 0.9109257813288733 0.08028074827755274
0.31720326320885495 0.00019625637148521578 0.12109637882256297 -0.26799560161589625 -0.11287752540316344 -0.2712826386955053 0.3997609994003776 0.15115485810272997
-0.3085789106571265 -0.3147086290870124 0.20061353252897562 0.22185348183951953 0.22529303050861524 0.22646171996744732 0.22584719599079026 0.22435924662038287
0.22212592611735116 0.21972791514968795 0.22024698124471595 0.2212359823095904 0.22261279956494248 0.22441840676348218 0.19800993865273686 0.19835501029611188
0.21463836629684865 0.21133062266016192 0.19227354448937586 0.19258002090338827 0.17775391668892607 0.18408794603167178 0.1870295338951862 0.18266851255801855
0.19433102378024375 0.19444615083700947 0.21321444021250507 0.20801549248807435 0.1830037118542827 0.18471409550685502 0.16367850534818834 0.1750593783953405
0.1797677457699178 0.1746036665838454 0.19219969528821962 0.1925500884938814 0.19735827904525655 0.19330254098612534 0.17749047396414797 0.17868724433340602
0.15712303700163646 0.1617447740318768 0.16590679712655185 0.17220525715913132 0.19079361233111544 0.19143284878091166 0.194182611850729 0.18906511616811206
0.17356848080038986 0.17288162375612245 0.15469978069531076 0.15898482691245805 0.16386805047283862 0.1726795805507491 0.18886895895120862 0.19039026558420744
0.19017051279580044 0.1847278877236235 0.17021426205129475 0.16656377221664523 0.15471851661072153 0.1583109928870188 0.16409180496808146 0.17437609353193803
0.17633189585215014 0.1873648293635452 0.16892571605614948 0.15892656095823865 0.16415932156316407 0.1412012031834961 0.15723962627954644 0.15260681105552892
0.16643922902672043 0.17879605836422385 0.23487623840791869 0.23644437456254375 0.2366870148788779 0.2362985367788219 0.23597460249219038 0.23516505539620638
0.2342310768094018 0.23526476580101724 0.2361539520635455 0.23647526508691166 0.23674317017302285 0.20577708079470766 0.19947448765685327 0.2131614787736443
0.21230761678658638 0.2075622131719323 0.21548330829980955 0.2042733616744306 0.21181290693753857 0.21273292164619773 0.19924054237668568 0.19960493191522358
0.19053272458923562 0.20702368815715302 0.20560008423591486 0.1979242747679122 0.2093919788780435 0.19500728472800305 0.20629448248963608 0.2080520401190769
0.19234471648830878 0.19551538344918942 0.1856290347608049 0.1905079993905057 0.19527729233815475 0.1920263688556227 0.2037647055902109 0.18936290118184015
0.19402089810166 0.19163892385307096 0.18912457716565653 0.19324266630254358 0.1831350373077204 0.18722834876398833 0.19200354069392028 0.1880060655491717
0.1975356468813828 0.18519497499216087 0.1894493285723617 0.18875776818518236 0.1876930776257455 0.19152742877553042 0.18296163791903888 0.18500634372592442
0.1890834619711231 0.18508496097083357 0.1902417781952121 0.18181029901466295 0.18534858382084826 0.18613134402324322 0.18741350078790342 0.1846658764370462
0.1871481231175432 0.17797117332421802 0.17033649159752642 0.1799446236856666 0.1624110455690019 0.17592315457196933 0.1693099015489014 0.17468539949764586
0.18752057254515292 0.20423534443130698 0.2071583911077849 0.20824531419970918 0.20743051837831333 0.20645504348487628 0.20542933403527266 0.2038607661642057
0.20412097891328587 0.20441225745419153 0.20527545013115014 0.20676931100081547 0.17744754339094962 0.17842809052044434 0.20054715978486015 0.19830551379445926
0.18626946121733298 0.18541885331605332 0.166234547540957 0.1678527986848317 0.16967104510789338 0.16681179372971372 0.17332962579622876 0.17371464533677494
0.20073737406105518 0.19711518528658736 0.17971765140387583 0.17913191501031323 0.15411929523253137 0.16251389844989272 0.16519567813085334 0.1614424881522152
0.17046979547813448 0.17170765979287106 0.1814371145723754 0.18854306063192997 0.17580817748049046 0.17399393234703156 0.1492649376055503 0.15388911806859748

running_var f8 [361]
00000000: b945 72eb 43f0 b43f 5d66 8b38 be3b 1040
00000010: 52de 1f9f 663b c33f dbf7 0c09 5d26 1140
00000020: 961f 53fb 5954 da3f 2a72 3e8a 4464 cc3f
00000030: ccd6 75ee 2246 cb3f 9db7 258f bd92 cf3f
00000040: 0958 d1aa 04f3 cf3f de6d 1f50 b7f8 903f
00000050: 17e8 6f9e 552e 733f bcf6 3f79 2cdd 673f
00000060: 69ac a285 d1b2 993f 4fcb dbe7 36b4 703f
00000070: 5fd1 61a7 19ce 723f 93dc f958 085a 8e3f
00000080: f60c 134b 26d3 723f 802a 0977 9dff 703f
00000090: 7f76 e596 32cd 8a3f cbd5 b807 6478 733f
000000a0: 56b6 d382 3492 6e3f c2ce 3808 5847 1440
000000b0: a6ec fc7c e870 f53f 4ced b95f 4910 f63f
000000c0: 94a4 77b7 fa60 1840 6644 37b3 1110 f83f
000000d0: f83c abc1 7424 0340 6f85 1896 da28 1040
000000e0: ff4c e5e4 2bc5 ec3f be59 17a8 afa8 f03f
000000f0: d831 e62c 12df 0a40 d581 bd75 efa6 ec3f
00000100: 6f32 d196 413c e93f d185 a649 a6e9 2640
00000110: 1137 3490 5d5f 2640 5a18 4ac1 454e 2240
00000120: 36fc 19ab 8261 2740 d2ee b6d6 bfc6 2540
00000130: fc6d 415b ccd5 2240 e155 a6fa 1c07 2440
00000140: 2976 eff9 e3a5 2340 4c98 ff89 27b5 1c40
00000150: 3409 c958 7a85 2240 c917 b43a ddd0 2240
00000160: 11ed e132 44e7 1b40 7e44 a896 4b7a d63f
00000170: c65d ff2e 540a da3f 3da7 8252 b881 ae3f
00000180: 871e 5c97 d2f4 e03f d008 e916 2b3a e03f
00000190: 4cbf 008b 431e e03f 7f4a 849a 67b1 e13f
000001a0: c8cb a087 61c2 dc3f 4041 b140 1248 e13f
000001b0: 7e22 ccec 24f3 de3f b389 f808 f5d6 db3f
000001c0: 1c79 c47f 1967 e03f aee2 e79f af04 db3f
000001d0: 9930 00b8 73e2 dc3f 2ae2 04fa 900a e03f
000001e0: 7601 b931 9f66 d63f b17c 8f78 3c0a da3f
000001f0: 937b ab5d 0676 af3f 6158 28a1 b3e7 e03f
00000200: 6a69 a3ab 0c2b e03f b14d 9a6d 0711 e03f
00000210: e8b3 3165 0ea3 e13f 2524 c4c9 2aac dc3f
00000220: ea4a ec83 ec39 e13f e78d 3a9a 56da de3f
00000230: a55f a56c 91be db3f c3a3 c303 5f5a e03f
00000240: ee69 49e1 f6ee da3f 22b0 7df4 19c4 dc3f
00000250: d29d 2a20 7bfb df3f 12e4 64d3 c23d bf3f
00000260: 7024 a3dc 82d1 bf3f 2a21 8a1c f1f9 bf3f
00000270: 1a39 97ef 1de1 bf3f 3587 b92c 85a4 bf3f
00000280: f9ad 2408 d04c bf3f f975 55e2 b0f4 be3f
00000290: f285 01d5 9200 bf3f 2c46 adf3 f725 bf3f
000002a0: 64c6 3337 185f bf3f 8361 863f cba8 bf3f
000002b0: 13bd 51be 4a15 be3f b7e5 9e71 6a31 be3f
000002c0: cc97 c901 fa65 bf3f 4e16 70d1 34dd be3f
000002d0: 265e f2d1 e77c bc3f 71d0 b4db b628 bc3f
000002e0: 1c9e 7c1e bdd7 ba3f f018 8279 2105 bc3f
000002f0: 223e 398d 4a8b bc3f 0996 03bd 9c76 bc3f
00000300: 30f8 6179 4c4c be3f b288 9fa7 2a6a be3f
00000310: 83ba d61c 15bd bf3f a879 2f67 13e8 be3f
00000320: bd0b b43e d8bf bb3f 23db e42b aa6e bb3f
00000330: 1134 df4c eb7a b93f 3972 b1a9 3156 bb3f
00000340: 2d28 811d eb2e bc3f ea1b 2f7e fa26 bc3f
00000350: d69d aaa2 91a9 be3f f7cc 65a5 6fcc be3f
00000360: 1370 2ad0 0ed6 be3f 71da 4c85 6eba bd3f
00000370: b25c d9cf ef6e bb3f ca10 df06 02f9 ba3f
00000380: 58ac 2b47 f1fa b83f 23c4 4b93 d0fb b93f
00000390: 5e0c 1b79 9529 bb3f f4aa 7398 9a6c bc3f
000003a0: 6928 183c ff12 bf3f 7a65 6775 9f3a bf3f
000003b0: fc4a 3392 4b00 bf3f 9ff9 ef01 d0b3 bd3f
000003c0: a7b6 fa43 0552 bb3f 9d08 c0fe 7198 ba3f
000003d0: 2c34 805d 4dff b83f d0ce fcab ae03 ba3f
000003e0: 94b4 1bdd 2e69 bb3f d04f f444 df03 bd3f
000003f0: fbca 9692 cb60 bf3f 9d0c 11fb 3e9b bf3f
00000400: 778b bc3b 5207 bf3f 842a 2719 69a9 bd3f
00000410: 5c1b df5a b445 bb3f dfca cdbf bf38 ba3f
00000420: cb48 124e 1a4d b93f 5983 0457 0d56 ba3f
00000430: 4be7 bae8 5de7 bb3f dffd a1ea 03b3 bd3f
00000440: 0989 8c11 28ca be3f 24bc fedc 1406 c03f
00000450: 5684 5ec2 8c94 bd3f 7230 6843 f4b9 bb3f
00000460: 68f6 a6fc 063e bb3f 4107 bd63 2014 b83f
00000470: 16e4 559f 1238 ba3f c9f6 50eb 7a7f ba3f
00000480: 4bef 605d e302 bd3f 5fd2 c328 58fb be3f
00000490: 3755 6899 1d0b be3f 6e4e 0d82 9053 be3f
000004a0: ee0f 6a2e 9a56 be3f 18fa 4892 b446 be3f
000004b0: 6989 a8b7 1a36 be3f 58cf fc52 8f15 be3f
000004c0: 4027 b157 61f9 bd3f 2cd5 985f d61b be3f
000004d0: cb83 ede1 5f3e be3f d047 823b 754e be3f
000004e0: 4467 0ff2 9a5a be3f ad0b 8337 e150 bc3f
000004f0: cf60 2d65 87a2 bb3f 55a5 38d4 e59b bc3f
00000500: 7168 3500 ee71 bc3f 0eaa a8a6 bca5 bb3f
00000510: 0411 7dde 6234 bc3f c352 23b0 768e bb3f
00000520: 9969 71c9 0fc8 bc3f 035e 046e 15f3 bc3f
00000530: 99e2 276b f0d2 bb3f be4b cdb3 3939 bc3f
00000540: 9fca 70b9 ea31 bb3f 35f3 0b30 ef5d bc3f
00000550: 5637 268a 571a bc3f 6072 4c45 98f9 ba3f
00000560: bbd2 999b 16ce bb3f 8133 21a1 bef3 ba3f
00000570: b3e9 ed7b 40a0 bc3f 0909 87eb 01ee bc3f
00000580: 4511 162b acaf bb3f 613d bafd e452 bc3f
00000590: 3345 f3e4 9023 bb3f 6220 12f4 c031 bb3f
000005a0: f0b1 3d58 ee4b bb3f e657 6ef3 d6b0 ba3f
000005b0: 9e16 953c b089 bb3f e6d1 dd52 0cb0 ba3f
000005c0: bfae 1e6d 4399 bb3f 8982 235b 87d3 bb3f
000005d0: 58d9 7e13 f7dc bb3f 70f7 3c71 2395 bc3f
000005e0: 7fcd 7214 0c4e bb3f fabf 9bab 604b bb3f
000005f0: 2547 1407 7b57 bb3f 658c 8fac e89c ba3f
00000600: 5c94 4f86 8a49 bb3f 2361 6edb c396 ba3f
00000610: 41c5 2b8b fa77 bb3f 3798 5c03 54ed bb3f
00000620: 1097 0963 702f bc3f 1ac6 08a2 19dc bc3f
00000630: 6d31 6329 f3b3 bb3f a1ea 2464 327c bb3f
00000640: f86e 9dc5 f171 bb3f 6ff5 f07a efa7 ba3f
00000650: bdad 7ff5 6ef7 ba3f 6ad7 0b7e 0f92 ba3f
00000660: 4321 3eaa 3365 bb3f e3eb 96c0 0a06 bc3f
00000670: 9bc3 c878 3c96 bc3f b555 0338 2ed4 bc3f
00000680: 625c c2b5 5ae4 bc3f e5cf 5310 698c bb3f
00000690: 580a 4068 c670 ba3f 3168 f8e8 cecb ba3f
000006a0: 5495 3f76 edd8 b83f 706d f827 3387 ba3f
000006b0: 587d 90af 1066 ba3f 71e0 b6dd 7a66 bb3f
000006c0: be61 08f8 1046 bd3f f5ea 4ace 7b3a be3f
000006d0: afa3 08c1 abc8 be3f dc15 614c a6e9 be3f
000006e0: b557 7843 9bc5 be3f 16d6 7409 9698 be3f
000006f0: 6339 b142 5b68 be3f 98ca 04f7 902f be3f
00000700: 06a7 2cc9 3434 be3f ccdb 25a7 7044 be3f
00000710: 51ae 3da6 436d be3f b5bb 8e62 63af be3f
00000720: 58e3 993b 5bbd bb3f 6a34 f299 90da bb3f
00000730: bb5c 9af2 d621 be3f 5e14 3189 5dba bd3f
00000740: 193f a7c6 5905 bc3f 5ae9 17f3 12c6 bb3f
00000750: 021f 4c26 bfbf b93f 2d44 1516 fe5a ba3f
00000760: e5f3 0419 b1b7 ba3f 63d3 0918 e26d ba3f
00000770: fc0e d1d5 7d82 bb3f 4fec 1c0d 1b90 bb3f
00000780: 8f25 caa3 1874 be3f dac1 fa27 57cf bd3f
00000790: 5afe 3de2 9c43 bb3f cad8 89f7 7cfd ba3f
000007a0: 2ed2 b551 9a42 b83f c120 5296 1deb b93f
000007b0: 23ed b253 8873 ba3f bc5d 5048 bdfe b93f
000007c0: 6382 7125 c666 bb3f e9f7 f80b 979c bb3f
000007d0: 83f3 016e 30a3 bc3f bf7b 8443 ffef bc3f
000007e0: b50f 5b48 6de7 ba3f 7fd0 4382 6a65 ba3f
000007f0: c8b7 8390 42c1 b73f 306a d8b8 22df b83f
0.08179115770533131 4.058342822559635 0.15025027055502221 4.287464276711002 0.41139840644290737 0.22180992841903563 0.2130778946263291 0.24666566362014644
0.24960382786474636 0.016573776498132513 0.004682859848793817 0.002913081038058289 0.025096200734577332 0.004078115916615512 0.0045910837271672935 0.014820161071140958
0.004595899184269605 0.004150023553459392 0.013086695890417886 0.0047534854343686634 0.00373182540953713 5.069671753375305 1.3400654680579378 1.378976224833269
6.094706408193037 1.5039231300945857 2.392800820387148 4.0398963406054085 0.8990687819117794 1.0411831441939365 3.3589213855504845 0.895377855264139
0.7886054940841641 11.456346799447518 11.186260706304468 9.152875938696685 11.690450045511266 10.888182363348651 9.417574741112723 10.013892967991469
9.824004946213863 7.176908642030025 9.260699057140847 9.407937845691679 6.975846095122749 0.3512143107664726 0.40688042249300016 0.059583435127321206
0.5298855739828959 0.5071006247965446 0.5036943163777123 0.5529058473496916 0.44936407322819294 0.5400477660678362 0.4835903465723631 0.43499494434413605
0.5125854011019189 0.42216101280022655 0.451321534813141 0.5012898333726004 0.35001354079943015 0.406874768957958 0.061447333273228065 0.5282838962182376
0.5052550651846961 0.5020787373236343 0.5511543251465101 0.44800824836471725 0.5383207871076057 0.48207631169699855 0.4335063515659335 0.5110316346664309
0.4208352279726161 0.4494690787894361 0.49972417966133975 0.12203614865292448 0.12429063688900199 0.12490755984083948 0.12452876185782139 0.12360412923729032
0.12226581763086831 0.12092118764618211 0.12110250187244967 0.12167310427801031 0.12254477832518657 0.12366934109593868 0.11751238962618897 0.1179415252107877
0.12264978927268472 0.12056284058788799 0.11128090739872984 0.10999625076220966 0.10485441202455842 0.10945328918942088 0.11150041530458357 0.11118487944221313
0.11835172618336354 0.11880747406351835 0.1239789195449053 0.12072869557548549 0.10839606791345964 0.10715735980634782 0.09953184725527843 0.10678396599673413
0.11009091825795343 0.10996976452507537 0.11977491589879405 0.12030694759396342 0.12045376379177268 0.11612597231292356 0.10716151070060922 0.10536205928571288
0.09757907855571213 0.10149863811581432 0.10610326964074221 0.11103216382950248 0.12138362137935278 0.12198826423936807 0.12109825438828276 0.11602497145938749
0.10672028455402459 0.10388863057599669 0.09764560253843574 0.1016186876193459 0.10707371614599231 0.11334033425765644 0.12257072762330871 0.12346261624866135
0.12120546301279754 0.11586624969565135 0.10653235643904452 0.1024284213324722 0.09883274465599638 0.1028755509801277 0.10899912769209867 0.11601280668582302
0.12027216366235306 0.12518559256338435 0.11554794068662608 0.10830618520430038 0.10641521137491738 0.0940571063520368 0.10241810216929567 0.10350769276643769
0.1133253195739005 0.12102271075475234 0.11735711093236466 0.1184625928411209 0.11850894578134305 0.11826637813008067 0.11801306709143024 0.11751647735655746
0.11708649054449172 0.11761226495658111 0.11813925996604195 0.11838467314581114 0.11857002648994547 0.11060912709494515 0.10794874401233588 0.1117538111799566
0.11111342911809331 0.10799769467181639 0.11017435008858817 0.10764257240527812 0.11242769878427906 0.11308416305507056 0.1086874257670253 0.11024819030471542
0.10623042132719228 0.1108083240796532 0.10977694628510667 0.10537101451741071 0.10861340807771118 0.10528174814062476 0.1118202498018153 0.11300670623953492
0.10814930011662678 0.11063986963767071 0.10601144399267497 0.10622793158302238 0.10662736563035202 0.10426085894718504 0.10756970862447665 0.10424878142459412
0.10780736364420827 0.10869642233911682 0.10884041048016024 0.11165067209819113 0.10665965556363764 0.10661892118127972 0.10680359766800203 0.10395673954876512
0.10659089831422491 0.10386299235540668 0.10729947946289987 0.10909009058067985 0.1100988618651082 0.11273346143641341 0.10821456680713988 0.10736384339262851
0.10720740389427508 0.10412499190802803 0.10533803456899356 0.10379120662022748 0.10701296716991231 0.10946719362156858 0.11166742276033263 0.11261261813645869
0.11285941064339647 0.10761124275796836 0.10328331036729688 0.1046723669791454 0.0970600522701564 0.10362548566665963 0.1031198910354666 0.10703246987293526
0.11435037665831424 0.11807988916818231 0.1202494951509283 0.12075271000602278 0.12020273587435677 0.11951577883595407 0.11877985361318148 0.11791330366831188
0.11798410331234885 0.11823181229361451 0.11885474022499777 0.11986371189298846 0.10835809903245541 0.10880378492784507 0.11770385191845183 0.11612495994002489
0.10945664501127474 0.10849111971757477 0.10058207211488582 0.10295093573701371 0.1043654142458333 0.10323918425440363 0.10745989294178665 0.10766762800351269
0.11895898817797089 0.11644501424849044 0.10650043986788074 0.1054304222433046 0.0947662782180678 0.10124382896367747 0.10332538646155291 0.10154326453663648
0.10703695692201047 0.1078581241826836 0.11186506925328214 0.11303706549050128 0.10509379402634418 0.10310998611731924 0.09279266384302709 0.0971547795565264

count f8 []
00000000: 0000 4000 84d7 d741
1600000001.0

running_mean f8 [1]
00000000: 7eff 8d7e f2f2 5140
71.79605068079942

running_var f8 [1]
00000000: a548 92c7 06c0 8e40
984.0033103397769

count f8 []
00000000: 0000 0001 84d7 b741
400000001.0

a2c_network.sigma f4 [15]
00000000: ba77 85bf 2e2d 51bf 3acc c8bf c34a eebe
00000010: d1a4 f5be 6853 24bf 5d99 80be 22c8 01bf
00000020: 1224 0bbf c51a d0be 06f7 e5be 415d 0dbf
00000030: 199a 0fbf dd37 30bf 50d8 00bf
-1.0427163 -0.81709564 -1.5687325 -0.46541414 -0.47977307 -0.6418977 -0.25117007 -0.50696003
-0.54351914 -0.40645424 -0.44915026 -0.5522042 -0.5609451 -0.6883524 -0.50330067

a2c_network.actor_mlp.0.weight f4 [128, 361]
00000000: 6f73 10be a9d0 c6be c126 563e 801d 2bbb
00000010: a66b 323f 454c 25bf 1e87 62be d9a2 d4be
00000020: cc7d a1be dfed f83c fc3a 5dbc 5406 84be
00000030: f863 a2bd e722 013f 0ee7 81be b283 523e
00000040: 086c a63d 6be0 8dbc 8d21 f8bd 5292 323e
00000050: 83bd f7be 81c1 99bd d973 a7be 6f14 f13e
00000060: a372 fdbc 9492 8d3e a1b5 373f 88cc 2cbd
00000070: 4d74 8a3e bdc0 c23e 29ef f03d 5375 1f3e
00000080: 960d 42be d251 38be beeb ab3d 5fbb e73d
00000090: 0b8f da3e 2bcf bc3c ba50 1f3e 2889 3bbe
000000a0: 6e09 de3d 690d c2be 892e aa3e a663 f03c
000000b0: a30f 44bc eda3 713e 66aa 78bd df93 30bb
000000c0: 3ef7 f43e dada 643e 3443 c03d 3eee 793d
000000d0: 0946 843e 33b3 c5bd 6c37 b53e adff 84bd
000000e0: 18be 3abe 9b51 58be 9a22 0ebd 9e78 ad3c
000000f0: de84 be3d 4489 16be d84a d93d 036e bdbd
00000100: 7d8f 713d d035 a9be ee1b 8cbe 7f36 153e
00000110: bfe5 19bd 9185 0ebe d80d 0e3c a4dc 6d3e
00000120: 6de9 f0bd 4e55 b6be 04b5 223e cfc8 57bd
00000130: f895 83bd 81c0 893d b51f d4bd 8898 cebd
00000140: aba9 f5bd a83a 72bd 4f3c 93bd 0283 02be
00000150: acc2 2b3b c88c efbc 33d0 983d e86c f5bd
00000160: 9779 2f3c 0f4e d73d 91ca c1bd bc28 04bd
00000170: 908f 30bd 119d 0d3c a1d7 f73d 07c7 99bd
00000180: b698 ab3d fd96 423e b9dc 323d e989 96bd
00000190: fd08 7f3d d7d5 a53c 5065 51bd fd46 213d
000001a0: 4dc4 213e 22fc 443e 1eaa fabd 87b7 423d
000001b0: 583f 56bd c4f5 c23d 1e07 643e 9cdb 6abe
000001c0: aab9 f5bc 53aa bc3d 206b 2fbb 52f2 a93b
000001d0: 4316 b9bd 54e5 22be 2e20 323d 2d55 61be
000001e0: f79a 4abe 1f3c 08be 86b7 80bd 227a 07be
000001f0: ece4 133e 6c9c a13d 751c 28be c4b3 fe3d
00000200: 6106 c53e a2f4 573d 50b9 c2bd 2e1f 2bbe
00000210: 859b 76be 7bd9 05be 104d 0c3e 54d4 3fbd
00000220: 56fe 763e 8bbe 0dbe beda 9abd a885 01be
00000230: 29f2 543e bb4d 23be 1f05 f1bd d45d 2dbd
00000240: 7873 45be 9457 0abf d158 153d 5113 74bd
00000250: 794c 603d 43a0 e53d 1241 7c3d 8aa7 04bd
00000260: e619 e43d aa8f 883d 7f6a 6f3d dfaf fb3d
00000270: b47c a03d 682d 883d 366e c23d ca35 013e
00000280: 5c8d 8fbd 5ec8 1f3e 3d2c 473b 2af7 363d
00000290: 416a a33c 75e1 aa3d 666d 6d3d 777a d4bc
000002a0: 0603 96bc feea b23c 6719 c13d 8b77 61bd
000002b0: 37b3 f23c d480 06bd ea2a e1bd 06a6 f1bd
000002c0: 7959 db3c 64d7 1abe 8b56 91bd f208 083e
000002d0: ef6e 5d3e 5d14 dfbd 1e71 a3bd ceee a7bb
000002e0: d06a 523d d2ca 8c3d f47a 263d 0084 1ebe
000002f0: 11d9 a23d a1e5 27be 80b7 f8bd 97d2 92bd
00000300: 8906 e2bc 3d78 d1bd 49ae 9ebd b965 d13c
00000310: 539d 3d3d fb87 d03d 2852 d03d 5bc1 e53d
00000320: 4f54 ce3d 3dba b53d 500b 443d cc9d 74bd
00000330: 7bd2 0f3e fa8c 4e3e f857 a4bd f1fc a03c
00000340: 3587 e83d 7dbf 063e a1d8 30bd e379 abbd
00000350: 16e9 a83d 05db 35be f92c c33c 3116 92bd
00000360: 18c1 863e 4add 9e3d 4e20 273d c248 853a
00000370: 04b2 59bd b7b1 02be b9a4 cbbb ab47 8ebc
00000380: cd77 e9bc 5d45 6f3b 3019 f43d 0d3a c8bb
00000390: ea3a f23c a50d 5b3d 379b 21bd 0e16 16be
000003a0: 8d68 c63c 762f a0bd 7fe9 e93c 9177 b4bd
000003b0: 0da7 393e 18a5 363e e55a 503d 4835 9bbd
000003c0: 1454 33bc 96dd 8bbd 1a92 02bd 2230 0dbd
000003d0: 1edb 9bbe acc6 0cbe 1b0a 40be 45ec 0bbe
000003e0: ffd8 24bd 0e48 98bd 779d 28be a256 75bd
000003f0: f9a8 1d3d 93ee 2d3e f8aa 993d 0c36 8bbd
-0.14106534 -0.3883107 0.20913221 -0.0026110113 0.6969551 -0.64569503 -0.22121856 -0.41530493
-0.31541288 0.030386863 -0.0135028325 -0.25786078 -0.07929224 0.5044388 -0.25371593 0.2055805
0.08126074 -0.017318925 -0.12115774 0.1743863 -0.48386773 -0.07507611 -0.32705572 0.47085902
-0.030938452 0.27650893 0.7176152 -0.042187244 0.27041855 0.38037673 0.11764366 0.155721
-0.18950495 -0.17999962 0.08394574 0.11315035 0.42687258 0.023048004 0.15558138 -0.1831404
0.10841642 -0.37900856 0.33238629 0.029344391 -0.011966619 0.23597689 -0.06070938 -0.0026943607
0.4784488 0.2234911 0.09387818 0.06101822 0.25834683 -0.0965332 0.35393846 -0.06494079
-0.18236578 -0.2112488 -0.034700967 0.021175679 0.09302686 -0.147008 0.106099784 -0.09249499
0.05897473 -0.33048868 -0.2736506 0.1457157 -0.03757262 -0.13918139 0.008670293 0.23228699
-0.117632724 -0.35611957 0.15889364 -0.05268174 -0.06425089 0.0672617 -0.1035761 -0.10087687
-0.11995252 -0.05913797 -0.07189237 -0.12745288 0.0026208563 -0.029241934 0.07461586 -0.11983663
0.010710142 0.10512935 -0.094624646 -0.03226541 -0.043105662 0.008643405 0.12101675 -0.075086646
0.08378737 0.1900291 0.04366753 -0.07350523 0.06226443 0.020243568 -0.05112201 0.03937434
0.15797539 0.19236806 -0.122394785 0.047538307 -0.052306503 0.09519532 0.2226834 -0.22935337
-0.029995758 0.09212174 -0.0026766732 0.0051863575 -0.09037449 -0.15907794 0.04348772 -0.22005148
-0.19785677 -0.13304184 -0.06285004 -0.13230184 0.14442796 0.07891163 -0.16417105 0.12436631
0.3848143 0.052723534 -0.09508002 -0.16711113 -0.24082763 -0.13071243 0.13701272 -0.04683335
0.24120459 -0.13842218 -0.07561253 -0.12648642 0.20795502 -0.1594762 -0.11768555 -0.04232581
-0.19282329 -0.54039884 0.036461655 -0.059588734 0.05476043 0.11212208 0.061585493 -0.03238634
0.11137752 0.06668027 0.058451172 0.12289404 0.07836285 0.066492856 0.09493677 0.12618175
-0.07009384 0.15603778 0.0030391358 0.044669308 0.019948127 0.08343784 0.05796566 -0.025937302
-0.018311989 0.021840569 0.09428673 -0.055045646 0.029626472 -0.032837704 -0.10994513 -0.117992446
0.026776062 -0.15121228 -0.07096585 0.13284662 0.21624349 -0.10892556 -0.0798056 -0.0051249033
0.051371396 0.068746224 0.0406446 -0.15480042 0.079515584 -0.1639619 -0.12144375 -0.07169073
-0.027591007 -0.10228012 -0.07748086 0.0255612 0.046292614 0.10182186 0.1017192 0.1121852
0.10074674 0.08873413 0.04786235 -0.0597208 0.14045136 0.20170966 -0.08024591 0.019651862
0.11353914 0.13158984 -0.043175343 -0.083728574 0.082475826 -0.1775933 0.023825156 -0.07133139
0.26319194 0.07757051 0.040802293 0.0010168778 -0.053148285 -0.12763105 -0.006214705 -0.017368158
-0.028499508 0.003650985 0.11918867 -0.006110436 0.029569108 0.05347981 -0.039454665 -0.1465685
0.024219776 -0.078215525 0.028553722 -0.08811868 0.18130131 0.17836416 0.050867934 -0.07578522
-0.010945339 -0.068293735 -0.031877615 -0.03446973 -0.3044061 -0.13747662 -0.18753855 -0.13664348
-0.040246006 -0.07435618 -0.16466318 -0.059897073 0.038491223 0.1698554 0.07503313 -0.06797418

a2c_network.actor_mlp.0.bias f4 [128]
00000000: 468a 90be 8a5b 6cbe 3299 8abe aa88 88be
00000010: f40f 66be c542 0bbe 8dde dabe 7016 6dbe
00000020: 85e9 96bd 2eb0 d9be 1682 c6be ad93 a0be
00000030: 70d8 f7bc be56 89be 4e77 a9be ee68 c6bd
00000040: 5b6e a4be b58d fcbe d6f1 afbe 1f5c 51be
00000050: bb5a 65be 92d0 44ba 9a0f 8abe c5b4 8dbe
00000060: 16fb 81be aee3 b4be 109a 21be c0b9 90be
00000070: 2320 94be eeca ddbd 1b03 99be 00ed 9abe
00000080: 6d23 77be 6731 c9be 55fc 91be 7b2f a8be
00000090: e972 b3be e04f 8cbd 8b8b bfbe 65c7 16be
000000a0: 21f1 2dbe d40b 043c dfbc c8be 58b5 e4bd
000000b0: d087 5bbd 9e60 30be d4ff fabe 1862 65bd
000000c0: 0718 97be c648 d5bd 3ce6 8fbe ebd4 bcbe
000000d0: 12de 97be 5556 93bd 5bf2 9dbc 64f1 aebe
000000e0: 21b1 5fbe 5a00 e3be a9bb 9fbe c35f a9be
000000f0: c034 e7be 1ffe 0bbe 66d1 e3be 5447 16bf
00000100: b09b 43be 5a5d cdbe bdf8 a3be b2d8 31be
00000110: 6d26 72be 421e 99be ece4 d9be 8655 23bf
00000120: 5ebd 89be 7788 a5be ec51 95be 17fa d6be
00000130: 357f acbe 6c6f 54be ff47 eabe 333c 9ebe
00000140: c240 7ebe 160c 16be fffa 34be 9ac8 7c3d
00000150: 7f09 1ebe 790a a4be 2052 ffbe 0b7d 82be
00000160: 5a4c 88be 9a2b 0dbe 1d09 02bf 0013 b4be
00000170: 35e2 36be a7fc 0ebc ea95 9ebe c673 93bd
00000180: fdd5 afbe 8e84 97be 2044 abbe 5c2d 8dbe
00000190: 8a38 05bf 2c51 a3be 1203 bebe 9ad6 f2bc
000001a0: 02c8 47be ed09 0cbe ef18 b8be 2bb1 b4be
000001b0: 82aa 03be 1d0a f6be 79ae 7ebe d749 94be
000001c0: aa74 b6be 19ff a43d a206 61be 1884 983d
000001d0: 8432 83be 64fa aebe 80e5 03be 1cc8 77bc
000001e0: 49f2 89be 2578 69be 2846 d7be 90dc 0d3d
000001f0: e9b7 493d 1b01 8cbe 7d44 78be e1d6 c5be
-0.28230494 -0.23081794 -0.27070004 -0.26666766 -0.22467023 -0.1359969 -0.42747918 -0.2315309
-0.07368759 -0.42517227 -0.38771123 -0.31362668 -0.030254573 -0.26823992 -0.33098835 -0.096879825
-0.32115445 -0.49326864 -0.34364194 -0.20445298 -0.22397892 -0.0007507886 -0.26965028 -0.2767698
-0.25386876 -0.35329956 -0.15781426 -0.28266716 -0.28930768 -0.108297214 -0.29885182 -0.30258942
-0.24134608 -0.39295503 -0.28512827 -0.32848725 -0.35048607 -0.068511724 -0.3741115 -0.147245
-0.16986515 0.008059461 -0.39206597 -0.11167401 -0.053596318 -0.17224357 -0.49023306 -0.056001753
-0.2951052 -0.10414271 -0.28105342 -0.36881194 -0.29661614 -0.07194201 -0.019280603 -0.3416854
-0.21844913 -0.44336206 -0.3119786 -0.33080873 -0.45157433 -0.13671158 -0.44495696 -0.5870259
-0.19102359 -0.40110284 -0.3202571 -0.17367819 -0.23647471 -0.29905897 -0.42557466 -0.63802373
-0.26902288 -0.32330677 -0.29164064 -0.41987678 -0.336908 -0.20745629 -0.45758054 -0.30905303
-0.2482939 -0.14653048 -0.17673872 0.061714746 -0.1543331 -0.3203924 -0.49867344 -0.25486025
-0.26620752 -0.13786164 -0.50795156 -0.35170746 -0.17859729 -0.008727229 -0.3097375 -0.071998164
-0.34342948 -0.2959332 -0.33450413 -0.2757367 -0.52039397 -0.31897867 -0.37111717 -0.029643346
-0.1950989 -0.13675661 -0.35956523 -0.35291418 -0.12858012 -0.4805459 -0.24871244 -0.28962585
-0.35635883 0.080564685 -0.21975186 0.0744707 -0.25624478 -0.34175408 -0.12880516 -0.015123393
-0.2694266 -0.22799738 -0.42045712 0.034634173 0.049247656 -0.27344593 -0.24244876 -0.38640502

a2c_network.actor_mlp.2.weight f4 [128, 128]
00000000: 3f3a 00be 9f9e 19bd 311a 5dbd 15a0 47bd
00000010: 69f6 89bd 47af 55be ef7a b7bd 8a65 fabc
00000020: 2ef3 a4bd 6e81 203e f160 21bd 05de 0f3d
00000030: ba65 1dbe 42ad 8dbe 5727 b83d 0f9d c6bc
00000040: 33aa 25be 9833 ab3c 0d9f 283d 14c8 b43b
00000050: 9a4b 45be a33e 91be 3368 7f3d 6d94 11be
00000060: 0840 3abd e30e 6abd 5062 c1be dfe5 f6bd
00000070: f743 bbbd bbdc 10bd 3761 ccbc e956 f2bd
00000080: 1e6b 393d b1cb 103d 6864 acbe 2998 723d
00000090: 0260 433e e195 f6be 506a 3dbd f327 eabd
000000a0: 2126 06bd e36e c6bd c6eb 1dbe 0380 25be
000000b0: 2403 13be caff 81bd 96bf 9f3d 91e2 72be
000000c0: 3d93 09bd 2a95 2cbe 2d4b 05bd cccc cebc
000000d0: 4319 87bd 97cc 1ebe 6b19 533d a935 05be
000000e0: 2218 d4bd 5739 0cbe 92d7 733d 0346 e63c
000000f0: 4188 303d 9de7 853c 1dd3 ff3d f1b4 01bd
00000100: 6420 323c cb82 8fbd a55f 273b bef2 02be
00000110: 7fde 54be 44f4 d8bc e242 243d 59c1 68bd
00000120: d67e d0bc b1fd b6bb 5e6e 193c 0b5a 853c
00000130: 4e5e bb3d afe4 29be 20ed a1bd 2eb1 4fbe
00000140: 6dbb 463d 806c 28bd ad4e acbd 2e7d 53be
00000150: d1df 46be a3cc 03be 1208 c93d 64ca 023d
00000160: 28df cabd 5c12 07be 97c2 adbc fe74 ac3d
00000170: 894e b1bd 8cba afbd 03ac bdbd df25 4bbd
00000180: e70b dabd 9d6e 2f3e f973 103e 974c 6bbe
00000190: 88d7 1f3e 6a29 fdbc 4138 1b3e 5a37 02be
000001a0: 64c3 35be 16c6 97bd 8234 343e e672 b13d
000001b0: 7310 ffbd 8c79 3dbe b723 d1bd 3033 dfbc
000001c0: 15da f43d 52ce a1be 60f2 1fbe cb0a 87be
000001d0: 3e9f 45be f304 a3bd 5bc7 bbbd e42b 5dbe
000001e0: 6c1e 4abc 8860 c9bd 1ac6 403e 9c5a 0ebe
000001f0: be38 60be a828 53bd 0035 29be acd8 c3bc
00000200: d098 91be 9300 503e f19f 9bbc 913b 7b3e
00000210: a850 2c3e 5be1 3ebd e6ed 5b3d 36ec 4b3d
00000220: 71fc 2dbd 9451 ea3d f070 24ba 31ad c33d
00000230: 0aa0 6bbe c1eb da3d 583c 7c3e 4612 86be
00000240: cee6 6cbb 4359 8d3d a995 d9bd fb63 a7bd
00000250: caa0 0abe 627e 30bd 24e1 17be 264f d1bd
00000260: 23b0 c03b be7e babd 1af0 39be f464 dfbd
00000270: 09d3 76be 3c6d 82be b5ab b7bb d808 afbe
00000280: 561c 17be 7e59 52be ef02 9d3d 53a9 f33d
00000290: 79ea 323e 258f 063e 3f47 9d3d bf14 633d
000002a0: ee21 09be 95d1 c0be d1c9 80bd a466 44be
000002b0: 7413 bcbd 66a5 293e 4cdc cc3b 6679 8fbd
000002c0: 9cb5 a53c 8f59 47be aa2e bbbd c15a 6f3d
000002d0: ae06 2b3e 7f7a 5f3c ebfa 9cbd 18fd c03d
000002e0: f63a 56bd 04e6 c4bd d0d6 60be 09b5 73bc
000002f0: 8f8c d4be 16bd 723d 98e6 82be 5dfa aebd
00000300: 5fc1 a43c 2b87 fabd 333e b03c ec8e 3fbd
00000310: 224c 8ebc 5566 353e 4e50 8dbb 0653 263e
00000320: 7e09 c2bd 0b85 f2bb e27e ddbd 556d 17bd
00000330: 2b56 e7ba 73bf 9bbe a85c 0dbe 4876 403e
00000340: 90c6 c83d ad75 3c3d 5a3c 283d c020 0fbe
00000350: 5df2 27be 368f 223e 4ecc 63bd dc98 da3c
00000360: 0a48 aabd 3c02 34be 18c3 31be 0187 223e
00000370: 58cc 653c f3bc b0bc a135 cbbd eac2 afbd
00000380: d405 0cbe 1c8d 0abe 2945 283e 239e 053e
00000390: 8757 8ebe a6c8 053e 68d7 143e 1cea e4bc
000003a0: 8ab4 183e 3578 b13d 6835 4d3c 0be3 95bd
000003b0: 6c4e d0bd 509a 96be fc94 bebc 9ba0 f7bd
000003c0: b61e eb3c 54d5 183d f74f 483b f8b9 9bbb
000003d0: 40b8 b9bc c1a3 b43d 42a8 fc3d d564 68bd
000003e0: f4b3 8c3d c61c babc 4fd3 193e d54b d2bd
000003f0: 6cad bfbc 6ccc 6d3e 1a75 4b3e be45 083d
-0.12522219 -0.03750479 -0.053980056 -0.04873665 -0.06736452 -0.20867644 -0.089589946 -0.030565996
-0.08054195 0.15674374 -0.03939909 0.035123844 -0.15370837 -0.27671248 0.089918785 -0.024244813
-0.16178207 0.020898625 0.041167308 0.0055170152 -0.19267121 -0.283681 0.06235523 -0.14216776
-0.04547122 -0.057143103 -0.3777032 -0.12055563 -0.09143823 -0.035366755 -0.0249487 -0.11832983
0.04526817 0.035350505 -0.33670354 0.059227142 0.19079593 -0.48161224 -0.046243966 -0.11433401
-0.032751206 -0.09689119 -0.15421972 -0.16162114 -0.14356667 -0.06347616 0.07800214 -0.2371924
-0.033587683 -0.16853777 -0.032542396 -0.02524414 -0.06596615 -0.15507732 0.051537912 -0.13008751
-0.103561655 -0.13693748 0.059531756 0.028109556 0.04309869 0.016345793 0.124914385 -0.0316667
0.01087198 -0.07007369 0.0025539186 -0.12787911 -0.20788 -0.026483662 0.040102847 -0.056825016
-0.025451105 -0.0055844416 0.0093646925 0.016278287 0.091488466 -0.16591142 -0.07906556 -0.20282432
0.048518587 -0.0411191 -0.08413444 -0.20653221 -0.19421317 -0.12871031 0.098159924 0.031931296
-0.09905845 -0.13190597 -0.021210952 0.08420752 -0.086575575 -0.08580503 -0.09261324 -0.049596664
-0.106468014 0.1713204 0.1410674 -0.22978435 0.15609562 -0.030903537 0.15158178 -0.12716427
-0.17750317 -0.07410829 0.17598155 0.08664493 -0.12454309 -0.18503398 -0.1021189 -0.027246088
0.11955658 -0.31602722 -0.15619802 -0.26375422 -0.19299027 -0.07959928 -0.091688834 -0.21598774
-0.012336355 -0.09832865 0.1882557 -0.13901752 -0.21896645 -0.051552445 -0.16524124 -0.023907028
-0.284369 0.20312719 -0.018997164 0.24534442 0.16827643 -0.046601634 0.053693675 0.049785815
-0.042477075 0.11441341 -0.00062729325 0.09554518 -0.23010269 0.10689498 0.24632394 -0.26185817
-0.0036148313 0.06901791 -0.106242485 -0.08173367 -0.13537899 -0.043089278 -0.14831978 -0.102201745
0.005880372 -0.091062054 -0.18157998 -0.10907927 -0.24103941 -0.25473964 -0.005605186 -0.34186435
-0.14756903 -0.20541951 0.07666575 0.118975304 0.17472257 0.13140543 0.07679605 0.055439707
-0.1339185 -0.37659898 -0.062884934 -0.1917978 -0.09183398 0.16567001 0.0062518474 -0.07005577
0.0202282 -0.19467758 -0.0913976 0.05843616 0.16701767 0.013640045 -0.07665046 0.09423274
-0.052302323 -0.096141845 -0.21956944 -0.014874705 -0.41513488 0.059262358 -0.25566554 -0.08543847
0.020111738 -0.122328125 0.021514034 -0.04676716 -0.017370287 0.17714818 -0.0043125516 0.16242608
-0.09474467 -0.007401114 -0.108152166 -0.0369695 -0.0017649581 -0.30419502 -0.13804877 0.1879512
0.09803498 0.046010662 0.04107318 -0.13977337 -0.16401048 0.15874943 -0.055614762 0.026684217
-0.083145216 -0.17578977 -0.17359579 0.15871812 0.01402577 -0.021574473 -0.09922338 -0.08582099
-0.13674098 -0.13530391 0.16432633 0.13048606 -0.27801153 0.13064823 0.14535296 -0.027943663
0.1491262 0.08665506 0.01252494 -0.07318696 -0.10171208 -0.29414606 -0.0232644 -0.1209118
0.028701168 0.03731282 0.003056524 -0.004752394 -0.022670865 0.08820296 0.1233678 -0.056736786
0.06870261 -0.022718798 0.15022014 -0.1026837 -0.023398124 0.23222512 0.1986889 0.033269636

a2c_network.actor_mlp.2.bias f4 [128]
00000000: 35f5 0ebf fec5 1ebe 12a2 733e 95d2 2fbe
00000010: 6aae 923d 0105 3c3d 2faa 9ebe cd06 80be
00000020: 4781 88be 58e4 1c3d 5d0b 2b3e b40a 90be
00000030: 4808 31be 10eb 1fbe f829 13bc c9fa 10bd
00000040: 9299 6c3e d448 f7bd 2658 e83d 8efc 29bf
00000050: 4d28 7cbe 9531 3dbe 1131 373e 7376 5bbe
00000060: 5cd2 19be cb51 843e 9bc9 c93b 8b34 62be
00000070: 8e13 883e 212c 3e3e 31f5 2bbd 589d d9be
00000080: 57e4 9d3d 9815 0a3e 82a6 d4bd d2d2 253e
00000090: 324a ce3d 7ce2 4b3d 7064 133e 229d dd3d
000000a0: ac20 0d3e 4d0d 63be 6f54 59be 4383 153e
000000b0: 6064 61be da0e dabd 73b9 2f3d 888c d3be
000000c0: 3cec 1e3e 8d42 b9be 9b27 b0bd 9a1a 283d
000000d0: c3b8 dbbe d3fa 33be f2ea 1c3e 269a c73d
000000e0: 3686 8c3e ebff 4abd ccd6 a4bd cdcd 8abd
000000f0: 4af5 a2be 34a8 423d 8abb 6e3d 46f6 9dbd
00000100: 5d39 31be da50 c5be a1c5 443e cdcf 0d3e
00000110: 3337 37bb c323 14be c8c8 a93d eff7 28be
00000120: 0354 b1bc 57e3 b5be cf66 e93d 5337 f83d
00000130: 840d 64be c148 88be fa22 52be 8670 903e
00000140: 82fe 163e 78c4 353d bd28 2b3e 8fdb 8ebe
00000150: 876f bcbd ecaf 4d3e 6eba f5bd 957d 9f3d
00000160: 9c1b 5dbe 94c6 d1bc ac37 0c3e d317 2abe
00000170: c313 5e3e aac6 2abe dcd9 babe f1d3 bc3d
00000180: dff4 9abc 34aa 66bd 3888 033e 002a 133e
00000190: 581d 3bbe 4d54 68be 5f8f 533d 84c1 453e
000001a0: 4679 01be e28f a2be 36c0 9cbc 7869 1a3e
000001b0: 2613 873d d6c0 2dbe bdc2 a4be 51e8 433e
000001c0: ee1a 99be 3b5a 3e3e 8643 0f3b 0eea 70be
000001d0: 154a 8f3d e678 edbd 08ae 04be 33cd 25be
000001e0: ef6e 3c3d 92a3 27ba 9a0d 763d 9903 0bbe
000001f0: 6124 053e 5f91 d2be bf21 8b3d 7a13 10be
-0.55842906 -0.15505216 0.23792294 -0.17170174 0.07162173 0.04590321 -0.30989215 -0.2500519
-0.2666113 0.038303703 0.16703553 -0.28133166 -0.17288315 -0.15617013 -0.008982174 -0.035395417
0.23105457 -0.12074438 0.11344938 -0.6640099 -0.24624749 -0.18475945 0.17889811 -0.21431904
-0.15021652 0.25843653 0.0061580664 -0.22090356 0.2657742 0.18571521 -0.04198188 -0.42502856
0.07709568 0.134848 -0.10383321 0.16193703 0.100727454 0.04977654 0.14393783 0.10820986
0.13781995 -0.22173043 -0.21223615 0.14600854 -0.22010946 -0.10647364 0.042901468 -0.41318154
0.15519804 -0.36183587 -0.08601304 0.041040994 -0.429144 -0.1757615 0.15324 0.09746198
0.27446145 -0.04956047 -0.08048782 -0.06777535 -0.31827766 0.047523692 0.05828432 -0.077129886
-0.17307039 -0.38538247 0.19216014 0.13848801 -0.0027956485 -0.14466767 0.08290249 -0.16500829
-0.021646505 -0.3552501 0.11396562 0.12119927 -0.22270781 -0.26618007 -0.20521155 0.2821085
0.14745525 0.04437682 0.16714759 -0.27901885 -0.0920096 0.2008664 -0.11998449 0.07787625
-0.21592563 -0.025607385 0.13693112 -0.1661065 0.21687226 -0.16677347 -0.3649434 0.09220112
-0.018915592 -0.056314662 0.12844932 0.1437149 -0.18272913 -0.22688408 0.0516504 0.19312102
-0.12643918 -0.317504 -0.019134622 0.15079296 0.06595449 -0.16968092 -0.32179824 0.1913159
-0.29903358 0.18589108 0.0021860315 -0.23526785 0.06996552 -0.11595325 -0.12957013 -0.16191559
0.046004232 -0.00063949183 0.060071565 -0.13575591 0.13002159 -0.41126534 0.06793546 -0.1406993

a2c_network.critic_mlp.0.weight f4 [128, 361]
00000000: 2393 a53f 3180 e9bd d2cc 33be 49f4 f43d
00000010: 705f 213f 0000 19be 4570 40be 082d 2a3e
00000020: b20e 493e b544 70bf 0cd4 f9bd b820 94bd
00000030: 19cb 863e d8f6 b5bd b856 fbbe 8867 113e
00000040: 13a1 813e eb43 8d3e 9796 263e ea52 1c3d
00000050: 5df5 4fbb 21df cbbc fd16 683c 7023 c53d
00000060: 6e5e cf3d 55c8 2cbe b0fa 4f3d 2768 0dbe
00000070: b7e4 0abe e347 b23d 3816 22be 0cdf c1bd
00000080: 4b1d d7bb 0819 383d 0a9c b53d ac88 20bc
00000090: 73cf e03c 5082 9c3d 9131 b13d 744a 7f3d
000000a0: 9d70 343d 3c4e 1fbd 4879 c63a 9de8 0fbd
000000b0: adbc c43c 2691 49bd 897c d3bd f460 24be
000000c0: 161c 8b3d a788 84bc 1962 0c3d 274b ad3d
000000d0: a100 3e3e 4209 413c f490 283c f84a 993d
000000e0: f1c4 49bc 0981 0d3e 6971 093e 34f7 89bc
000000f0: d150 d9bd be7a 373d 6e18 d8bd fa5c 8b3c
00000100: ee74 7bbd 2427 0d3d 9db7 093d 2ab7 db3d
00000110: dde5 ac3c 878a f0bc d049 4abd 3cd7 383d
00000120: 6eed 7e3d 63bf 84bd 368d 093b f86c 003e
00000130: efbb 993d 6dca 573d 8076 543d 5c82 393d
00000140: 58e6 c6bb 77be 5f3c b72b 563d 68f3 ba3d
00000150: 49c0 f13c 2975 6d3d 329d 15bd a492 36bc
00000160: bf1d ba3b 4bf4 683c 300e ac3b 2173 a03c
00000170: 2220 953b f56e 3ebd e302 8cb8 cb2c ccba
00000180: b01b 41bc bdfd a7bd 7afa 0cbc 04e5 23bd
00000190: 4436 4c3b 8f88 d33c 78c2 5d3d e5bd 48bc
000001a0: 9fb9 2ebc 22b5 9dbd 0f27 49bd f75a 7f3a
000001b0: d80f 79bc 1d06 563c dda7 20bd 6714 28bd
000001c0: 17e5 cf3c e0f8 0b3d d924 a53b 2db4 1d3d
000001d0: cffd debc a44b 093d 11eb 30bc e91a 03bd
000001e0: 4fd6 89bb 9a7c 31bb 4d28 d2bc 6e1d 76bd
000001f0: df71 27bb 0316 813d c70f 9a3d 5e96 143d
00000200: 7817 3dbc c170 4d3d eccf 98bc 07ff 5dbc
00000210: 0359 d03c c93f cb3b 00f9 4dbd c1f7 f83c
00000220: fb61 173f 112c 103f c914 073e cd5c 64bd
00000230: 2e5b e5bc eaf4 96bd 8617 8ebd e1e8 13be
00000240: 44dd 5b3d 3499 fd3e 7257 893d 40ea df3d
00000250: 66e4 523d d4d8 a43d 2a6b d83d a4f3 9b3d
00000260: d72e b73d 47d5 b73d 93a7 cd3d b8fb 903d
00000270: 9ae1 023e 8786 e3bb 6d89 8abc 5b4e 9eba
00000280: 042c 9bb9 a30e 373d 0fb3 39bc cd42 013d
00000290: 719f 1abd 3b13 c6bc e423 1c3c b5d1 6fbd
000002a0: 9011 95bd 0423 d1bc 8dfe 343b b844 393c
000002b0: 75cd 0b3b a102 2e38 fe8f adbc db78 8abc
000002c0: 30d5 a1bd f41b 0bbd f031 a5bc 71f9 25bd
000002d0: 320c ef3b f53f b3bc 34dc b7bc 9c03 0fbc
000002e0: 582f 303c 9c46 e6bc 684a 33bd 3542 ffbc
000002f0: 8740 d9bc 80ba a0bd 8a65 96bc aa36 00bd
00000300: bccb 1ebd d9af 223c 8c09 ad3c 997b 69bd
00000310: 3da1 5ebd 7618 293d eeab fdbc 59a6 63bc
00000320: 8beb bc3c 463c 9abc f8e3 3bbc 7d96 4fbc
00000330: 022b b3bb cb8d 6ebd 627e 33bc ed46 af3e
00000340: 88ee 9b3e 87c2 803d 4d25 6a3c 744f 93bd
00000350: b5a1 9b3b 5db4 efbc b6bd cebd 19dc 913d
00000360: 2afe 9f3e 9e30 07bd e375 1dbd d0b1 79bd
00000370: 2e2d 1bbd 7c2b 17bd 2e70 dabc ec1e d63c
00000380: 9195 8abc b0a4 98bc 8c5d 85bd f31b c8bc
00000390: 2efb c1bc e166 f93c e6a9 44bb b773 123d
000003a0: 0f2c 0abd 018b b53a 7b8b e0bc 386c ac3a
000003b0: 831b fd3c 0b4f 063d 04de 223d fce4 8c3c
000003c0: 8ec3 1fbb 56f2 edbc f96b 003c 49a4 46bd
000003d0: d9b8 99bc ee9f 6e3d 5f6a 20bc 4e45 073c
000003e0: afc0 f1bc 6cd6 c93a b0da 883c d507 36bb
000003f0: 6d5c ffbb d483 8cbc 08a2 a33c 7122 99bb
1.2935528 -0.11401404 -0.17558601 0.11960656 0.6303625 -0.14941406 -0.18792827 0.1661874
0.19634512 -0.9385484 -0.12198648 -0.07232803 0.26326826 -0.08884972 -0.490896 0.1419965
0.25318202 0.2759088 0.16268383 0.03816501 -0.0031731941 -0.02488667 0.014165637 0.096259
0.10125433 -0.16873296 0.050776184 -0.13809262 -0.1356381 0.087051176 -0.15828788 -0.09466371
-0.0065647713 0.044945747 0.08867653 -0.00979821 0.02744267 0.07642043 0.08652032 0.062326863
0.04405271 -0.03889297 0.0015142346 -0.035133947 0.024015749 -0.04921069 -0.103264876 -0.1605261
0.06792466 -0.016178442 0.03427324 0.084616 0.18554927 0.011781992 0.010288466 0.07485002
-0.012315021 0.13818754 0.13422169 -0.016841508 -0.10611118 0.04479479 -0.105515346 0.017012108
-0.06139081 0.034461156 0.033622373 0.10728295 0.021105701 -0.02936293 -0.0493868 0.04512714
0.06223815 -0.064818166 0.002098871 0.12541568 0.075065486 0.052683283 0.051870823 0.045290336
-0.0060699396 0.01365625 0.052287783 0.09128457 0.029510634 0.05797306 -0.036526866 -0.01114336
0.0056798155 0.0142184 0.0052507147 0.019586148 0.0045509497 -0.046492536 -6.676258e-05 -0.0015577314
-0.011786386 -0.082026936 -0.00860464 -0.04001333 0.0031160275 0.025821952 0.054140538 -0.012252306
-0.010664373 -0.07700564 -0.049109515 0.0009741033 -0.015201531 0.013062981 -0.039222587 -0.041035082
0.025377793 0.034172893 0.005039793 0.038501907 -0.027220635 0.033519402 -0.010798232 -0.032008085
-0.004206456 -0.0027082325 -0.025653983 -0.06008666 -0.002555005 0.063030265 0.075225405 0.036276214
-0.01154124 0.05015636 -0.018653832 -0.013549573 0.02543307 0.006202672 -0.050286293 0.030391576
0.5913388 0.5631724 0.13191523 -0.055752564 -0.02799758 -0.073709324 -0.069380805 -0.14444305
0.053677812 0.49530947 0.06706132 0.109333515 0.05148735 0.08049169 0.10567315 0.0761483
0.08944481 0.08976226 0.10041728 0.070792615 0.12781373 -0.006943527 -0.016911233 -0.0012077795
-0.00029596698 0.044691693 -0.011334195 0.031557847 -0.03774971 -0.024179092 0.009530041 -0.0585496
-0.072787404 -0.025529392 0.0027617544 0.011307888 0.0021332179 4.148728e-05 -0.021186825 -0.016903332
-0.079019904 -0.033962205 -0.020165414 -0.04052109 0.007295155 -0.021881083 -0.022443868 -0.008728888
0.010753475 -0.028109841 -0.04377213 -0.0311595 -0.026520027 -0.07848072 -0.018358964 -0.03130213
-0.038768515 0.009929621 0.021122716 -0.057002638 -0.054352988 0.041283093 -0.030965772 -0.013894641
0.023061534 -0.018827569 -0.011467926 -0.012670157 -0.0054677734 -0.058240693 -0.010955425 0.342338
0.30455422 0.06287103 0.01429112 -0.07192889 0.0047495016 -0.029260809 -0.10094778 0.071220584
0.312486 -0.03300535 -0.038442504 -0.06096059 -0.037884884 -0.036906704 -0.02666482 0.026137792
-0.016917022 -0.018633217 -0.06511983 -0.02442739 -0.023679342 0.030444564 -0.0030008494 0.035754886
-0.033733424 0.001385063 -0.02741026 0.001315481 0.030896908 0.032790225 0.03976251 0.017199032
-0.0024378034 -0.029046219 0.007838243 -0.04849652 -0.0187649 0.05825799 -0.009790986 0.00825627
-0.029510824 0.0015398986 0.01670584 -0.0027775664 -0.0077930004 -0.017152704 0.019974723 -0.004673295
