python/rlgpu/saved_nn/123/last_Aliengoep=4750rew=[6747.94].pth (torch, 539546 bytes, 18 tensors)

running_mean f8 [376]
000000 37 de 51 df 84 3b 7d 3f 71 cc 77 9a 98 a4 65 3f
       0.00713683989771812 0.002641962102410349
000010 b7 4a 3f 08 d3 3d 84 bf c0 ab 60 4b 4c 6b 67 3f
       -0.009883545579133608 0.002858780872903449
000020 94 7c 58 b2 c4 66 dd 3f 0c c6 94 55 94 c3 db 3f
       0.4593974820763347 0.43381222112211115
000030 d7 96 bd 89 e3 2a e6 3f a8 94 f4 6a 92 3e e7 3f
       0.6927354517217407 0.7263881768200422
000040 9a 24 90 d5 49 c9 a6 3f d2 0b 9e 28 b6 a8 bd 3f
       0.04450445873232774 0.11585558406481702
000050 12 91 3d 6a 11 dd d1 bf f1 a0 7c 66 2f fc b2 3f
       -0.2791179215912659 0.07416054012412922
000060 43 9a 4b 8e b7 a5 b8 bf 7a f0 24 fd 35 a9 d1 bf
       -0.09627864097601795 -0.2759528133499384
000070 0d 12 87 86 68 dd ae 3f ef 96 66 df 3c 2d bb 3f
       0.06028296129401065 0.10615902380103724
000080 9f cd 72 63 9f 0c d3 bf 93 0b c2 e3 5d 51 b0 3f
       -0.29764542304766367 0.06374155817506581
000090 9a 19 53 97 3b e8 b6 bf 48 52 84 ee ac 3b d3 bf
       -0.08948109096954796 -0.3005173043505107
0000a0 f1 ea 16 98 35 b4 99 bf cd 78 32 08 fc bd 93 bf
       -0.025101506622131124 -0.01927942085296124
0000b0 e9 f6 05 23 3a cf b9 3f ab 9b 0f 9b 59 4d 9c bf
       0.10081828455983168 -0.027638816918535685
0000c0 52 b9 a2 30 27 9a 8b 3f a3 e3 f0 88 e0 56 b7 3f
       0.013477617427579833 0.09116938918385968
0000d0 82 13 ac 19 43 b9 7c bf 73 d8 0a b1 8d cf 83 bf
       -0.0070126172165644336 -0.009673220601467336
0000e0 15 58 f6 79 71 e2 af 3f 5b fb ea b2 28 0f 82 bf
       0.062274500024770564 -0.00881797595991223
0000f0 0e 83 bb 1f 6a 47 82 3f 2a 94 d7 3f bc 16 ab 3f
       0.008925274938009344 0.052907831948495535
000100 69 bf 29 6e 28 66 de 3f ad 75 47 bb eb cc e0 3f
       0.4749852252780245 0.5250147493167582
000110 ad 75 47 bb eb cc e0 3f 69 bf 29 6e 28 66 de 3f
       0.5250147493167582 0.4749852252780245
000120 4d 44 7f 3d cd b6 a4 3f de b3 8f 6c f2 88 7f bf
       0.04045716643998585 -0.00769896218205887
000130 c0 b2 aa 49 57 72 84 3f d8 70 65 10 54 f9 7a 3f
       0.009983713088638324 0.006585434317767112
000140 01 aa 26 08 4a 55 94 3f 3a b8 46 a6 79 e6 5d 3f
       0.01985660242795895 0.0018249690993843563
000150 02 df 84 a3 aa aa 91 3f 3b bb f7 de 7a ed 4a bf
       0.01725260375061933 -0.0008217668491264715
000160 e9 14 b1 8b bf c3 9a 3f 52 5a 5b d1 01 ec 38 bf
       0.02613734521971348 -0.0003802780569065789
000170 eb a2 91 e5 c4 8d 94 3f 67 c1 e8 eb 40 c0 35 3f
       0.02007205630471535 0.00033189377782873733
000180 9f 25 00 3e aa 07 c1 bf 60 2c 10 fe 78 26 c4 3f
       -0.13304641749736576 0.1574240913908822
000190 c9 c5 f7 ae a5 c9 cf bf 43 ca cf 85 a1 ca c2 3f
       -0.2483412842116606 0.14680880578778685
0001a0 fc f4 f3 7f 77 ef cb 3f 33 38 0c 77 4f 09 b9 bf
       0.21824544666007017 -0.09779831558645995
0001b0 f6 89 2a 4e 0a ed a8 bf 22 08 9a 4f 91 1f c6 bf
       -0.048683473626869686 -0.17283836733628372
0001c0 08 9e e0 e7 25 9d c9 bf ed 90 91 b7 a5 7f b0 3f
       -0.20010827848567225 0.06444774371772484
0001d0 b8 e0 4f 6b d1 a0 c7 bf 12 37 4b 4f d8 3d c1 bf
       -0.18459527721257074 -0.13469985839622517
0001e0 64 09 2f 0e c8 53 df bf 61 2e b8 cc 06 1b e5 3f
       -0.4894886148942048 0.659549140780154
0001f0 0d 6d 36 a9 c9 7f ef 3f 63 86 a3 e7 02 6f c6 3f
       0.9843490891393302 0.17526279745566162
000200 b1 1c 3d 0d 84 01 da 3f 41 73 f5 2c ca 72 d1 3f
       0.4063425187382093 0.27263121023661446
000210 f1 7e 3a 48 cd 79 d5 3f 8f d9 fc d1 f4 b1 cc bf
       0.3355591969829979 -0.22418079617791561
000220 d2 bb 47 06 e8 ee d1 3f 80 f5 cc de ab fe 8d bf
       0.2802066861467526 -0.01464590333636795
000230 b9 56 46 ea 4a ef d0 3f 4b 6d 5f 57 24 46 c2 bf
       0.2646052635039769 -0.1427655626892864
000240 e1 4f c5 23 e0 64 c7 3f 74 e9 ea ab 1c 6a b0 bf
       0.18276597735041292 -0.06411914059836993
000250 0a 7a 51 03 3f 4e d0 bf 8f d7 8d 8f a0 4f df bf
       -0.2547757656483617 -0.4892350580115527
000260 a5 51 04 db 73 15 e5 3f b1 cd 0a 09 70 7a ef 3f
       0.6588687207864053 0.9836960007291308
000270 3f e3 02 b3 cf 6a c6 3f 21 a4 82 a2 22 fd d9 3f
       0.1751346229628101 0.4060751521124662
000280 32 96 28 be 91 70 d1 3f f4 d3 14 ee b8 76 d5 3f
       0.27249568529291246 0.33537123918659906
000290 e1 3a f4 08 55 af cc bf 9b 90 55 a1 e7 ed d1 3f
       -0.2241007131310289 0.28014555697724014
0002a0 c9 fe 43 c3 f2 12 8e bf cf 4b fb 3a 30 ee d0 3f
       -0.014684578498872185 0.2645378662102162
0002b0 6f af fc bd 42 46 c2 bf 1a 3f ca ba f5 60 c7 3f
       -0.1427691867514755 0.1826464807568236
0002c0 31 1e 7d 20 b6 68 b0 bf a9 33 fa 01 ee 4d d0 bf
       -0.06409776967222382 -0.2547564524946276
0002d0 9b 2c 3a d4 27 6c c2 3f 2c 14 6b 9a bc 88 c2 3f
       0.14392564642580372 0.144797873878049
0002e0 e0 63 db 64 14 8e c2 3f 26 d0 18 8f a6 9d c2 3f
       0.14496092724473808 0.14543611514238924
0002f0 50 dc ea e4 b2 bc c2 3f 7a 35 fc bd 19 c2 c2 3f
       0.14638363053902248 0.14654847885723737
000300 74 1f be b5 32 c1 c2 3f 93 ed 16 c6 c9 cd c2 3f
       0.14652093767312702 0.14690515682546543
000310 6e aa bd 69 a7 d8 c2 3f 98 f3 16 fe 5a b8 c2 3f
       0.14723675406579012 0.14625108153077515
000320 fc 01 2c 51 67 96 c2 3f 69 39 7d 4b af c9 c2 3f
       0.14521495307418764 0.14677992998117453
000330 c3 d5 1b d3 8f 99 c2 3f 67 1a 04 6f 2a aa c2 3f
       0.14531133468669397 0.14581804676727758
000340 b8 45 5e cc 1b d9 c2 3f 5f 96 51 db 13 94 c1 3f
       0.14725062827032587 0.13733146866722998
000350 7e 49 ce 80 39 a0 c1 3f de 91 56 59 7f 7f c1 3f
       0.13770216740938318 0.13670341360297206
000360 b7 76 48 f9 f8 96 c2 3f 4d a8 1f 5e 02 6d c2 3f
       0.1452323167040299 0.14395169826394963
000370 97 dc 10 5d 3e 87 c2 3f 2a 7b 59 61 9b 66 c3 3f
       0.14475230735999808 0.15156881574054043
000380 d7 0d a7 b8 20 25 c3 3f f8 d3 bb d9 c2 3e c3 3f
       0.14957055107343706 0.15035281783607934
000390 88 41 6a a5 91 8a c3 3f 65 ed 03 24 63 25 c2 3f
       0.15266628815562577 0.14176596888124063
0003a0 1b 72 7f 26 db 2c c2 3f a4 ca 18 85 d7 ed c1 3f
       0.14199389819886296 0.14007085799092522
0003b0 4e b0 62 1e 21 3d c3 3f 45 8b 5e df 88 07 c3 3f
       0.15030302032153248 0.14866743952469555
0003c0 31 d9 71 da da fd c2 3f a3 52 ba 45 c3 fe c3 3f
       0.14837203661199674 0.15621224312476042
0003d0 ad f0 4e e0 6d b3 c3 3f 46 32 af 25 61 b3 c3 3f
       0.15391324474865567 0.15391172733360942
0003e0 37 4b 59 57 eb 4c c3 3f e2 06 d5 aa d2 f2 c2 3f
       0.15078489079550092 0.14803536740696815
0003f0 16 44 74 08 69 d3 c2 3f 96 16 82 78 6b bc c2 3f
       0.14707672989655468 0.14637511619746552
000400 2f da ed e1 2a 37 c3 3f a6 0a c2 c4 1f c3 c3 3f
       0.15012107879347655 0.154392214844923
000410 0b bb 5d 49 34 9e c3 3f 13 61 02 3c c8 92 c4 3f
       0.15326551039057565 0.16072943620816513
000420 e1 95 02 f5 1c 39 c4 3f 3c eb 49 2b e1 4e c4 3f
       0.15799295390495074 0.15865721334179195
000430 fd 70 0a 0d f4 e2 c3 3f 9a 3d 3b 71 2a 9c c3 3f
       0.15536356579548985 0.15320330170514468
000440 8f 9e a6 9d 64 89 c3 3f 71 46 08 e8 74 8a c3 3f
       0.15263040254398105 0.15266286210730898
000450 a4 7e 3c 36 a4 21 c4 3f 2a f9 a1 2d 30 b8 c4 3f
       0.15727665565736004 0.16187097767028408
000460 0e 02 db 6d c0 4a c4 3f 49 8e 06 14 cc 0c c5 3f
       0.15853124012029735 0.16445303895771904
000470 fa 4d 7b 1e 66 9e c4 3f 5e b2 27 ff ff de c4 3f
       0.16108395088541255 0.16305541952842167
000480 52 cd 88 13 06 8a c4 3f 92 5c 97 09 4e 21 c4 3f
       0.1604621501333932 0.1572663828689867
000490 a3 13 bf f2 a1 56 c4 3f 15 1c fc 00 91 41 c4 3f
       0.1588938174519657 0.15825092838369473
0004a0 9a 30 ed c0 31 2c c5 3f bc bd a3 88 2f b6 c5 3f
       0.16541120453110097 0.16962236568313738
0004b0 0d d5 ab e9 70 ec c4 3f f8 20 c4 8b ad 26 c5 3f
       0.16346560868957064 0.1652428562595174
0004c0 ed 18 35 44 40 21 c5 3f e7 2c 3b dc 5a fc c4 3f
       0.16507724123420733 0.1639512610766822
0004d0 af 15 d6 e1 b6 ed c4 3f 15 39 e4 bc 86 dd c4 3f
       0.1635044672695307 0.163010446769882
0004e0 49 a6 eb 1a c5 49 c5 3f d5 c7 21 c9 f9 35 c5 3f
       0.166313779969004 0.16570970841308844
0004f0 91 5b fb ef 4d 88 c6 3f fd 9d a6 46 82 fa c6 3f
       0.17603468149056004 0.17951992463825653
000500 1b 10 26 6a 36 b3 c5 3f 61 04 c4 73 a5 7e c2 3f
       0.16953163321534323 0.14448993828412696
000510 4e 4b 8d d0 36 c1 c2 3f 4f 1b 75 08 02 e8 c2 3f
       0.14652142699432108 0.1477053204818852
000520 5b a1 eb cc f2 10 c3 3f ab b0 30 3e bf 2d c3 3f
       0.1489547253215829 0.1498335889494958
000530 b8 a0 d9 ad 9b 11 c3 3f cc 4b 64 9c a0 e3 c2 3f
       0.14897485722327075 0.14757163654630145
000540 9b 61 69 f3 24 d2 c2 3f ae 3e c1 22 ef c4 c2 3f
       0.14703809628805406 0.14663495251669673
000550 33 e1 5a c4 98 a5 c2 3f 87 0a 2e 14 fc a3 c2 3f
       0.14567861163755821 0.14562941537231586
000560 9a 92 e5 14 0f 24 c3 3f 1e 87 12 ee 25 1d c3 3f
       0.14953793068265925 0.14932703137042663
000570 1e 11 f7 de 2b 06 c3 3f f5 35 40 0e 7f 2f c3 3f
       0.14862583529441847 0.14988697238770468
000580 b4 16 ce 28 61 53 c2 3f a9 1e eb 0d b8 32 c2 3f
       0.14316954128678605 0.14217281989680444
000590 80 a9 55 3a f1 09 c2 3f 60 cc 9e 4b 28 fd c2 3f
       0.14092841480607987 0.14835075085065608
0005a0 56 d9 d4 40 a2 d0 c2 3f d0 25 4d ad 11 cc c2 3f
       0.14699199834439963 0.14685269319515593
0005b0 81 1c 72 47 ee f7 c3 3f fe 71 33 39 1f bc c3 3f
       0.1560037468773068 0.15417852681174787
0005c0 d4 c4 df d8 ff d7 c3 3f e2 11 32 fd d8 05 c4 3f
       0.1550292786555817 0.1564284550005502
0005d0 d2 4f a1 ba e2 dc c2 3f 63 eb 25 39 91 c5 c2 3f
       0.14736589539336237 0.14665427484927837
0005e0 ff b5 3f 70 7e aa c2 3f c2 be 80 46 53 ad c3 3f
       0.14582806092168707 0.15372696821713389
0005f0 d2 69 9f 12 8a 7b c3 3f f8 60 5b ab 4b 8c c3 3f
       0.1522076216632074 0.15271898142851348
000600 09 39 bd 32 b0 ca c4 3f 8e 8d b1 b5 e4 83 c4 3f
       0.16243555524346956 0.1602750670600525
000610 8f a4 bc ac 9e 8f c4 3f f0 59 af 90 5d 4c c4 3f
       0.1606329291765047 0.15858048977561578
000620 31 93 57 80 85 a9 c3 3f ef 53 35 1a 8b 8d c3 3f
       0.15361088530257797 0.15275706081106885
000630 1e a2 12 68 61 81 c3 3f e7 07 c0 e1 3b a1 c3 3f
       0.15238587934187903 0.15335796854930026
000640 8b c6 ba f9 47 ec c3 3f 70 16 c9 d7 04 62 c4 3f
       0.1556482285864614 0.15924129997636127
000650 d3 d1 16 24 5c 7a c5 3f f5 7e 4b 54 a4 34 c5 3f
       0.16779662859120367 0.16566900363886075
000660 52 e4 58 39 4d 7c c5 3f 35 b7 6f b4 cc 32 c5 3f
       0.16785588550718217 0.16561278162355966
000670 19 fb d9 3c a0 7e c4 3f 70 2f 94 94 53 4f c4 3f
       0.16011431666626022 0.15867085223032573
000680 00 4e 2f 4c f1 44 c4 3f 22 8f a6 ce 7b 21 c4 3f
       0.1583539602275863 0.1572718390499342
000690 2a 5b 12 90 57 7c c4 3f 25 ae 80 c9 de 0d c5 3f
       0.16004461798430586 0.16448578680989204
0006a0 ee c1 13 e9 88 03 c6 3f 6c eb d0 53 f4 a8 c5 3f
       0.1719828737327726 0.1692185792215598
0006b0 20 17 ef 1d 12 76 c6 3f e6 a0 a5 c3 a1 47 c6 3f
       0.17547823392504203 0.1740610318477202
0006c0 8e 93 e4 40 45 24 c5 3f b9 e9 4d aa 82 0b c5 3f
       0.16516938847157941 0.16441376987115833
0006d0 61 24 9f 73 e5 d1 c4 3f cf 2b d5 00 d6 b9 c4 3f
       0.16265552659595797 0.1619212631288449
0006e0 78 92 43 7a de 04 c5 3f 31 d2 a9 b0 67 8e c5 3f
       0.16421109170837034 0.168408356915863
0006f0 bd 41 d9 da 8e 4a c6 3f 38 25 ec 71 63 33 c6 3f
       0.17415033040971464 0.17344325125331195
000700 74 9f 13 04 42 a2 c7 3f 5c c5 bb cc 5d a4 c7 3f
       0.18463921736769928 0.18470356461288417
000710 03 22 c7 c9 28 f6 c5 3f 1c a2 17 2d 2f 07 c6 3f
       0.17157468655047134 0.17209424688123043
000720 00 96 01 ff 64 78 c5 3f f8 05 38 d7 26 14 c5 3f
       0.16773664905046815 0.16467748173458552
000730 ad 84 8a 25 0d 54 c5 3f 99 8f d5 8f a9 04 c6 3f
       0.16662754376469505 0.17201728366046323
000740 4e b1 45 99 42 30 c0 3f c9 4d 35 b2 88 96 c0 3f
       0.1264727829360574 0.12959393216679718
000750 de 15 58 05 c9 b5 c0 3f d2 09 d0 46 ee c4 c0 3f
       0.1305476451963576 0.13100985009812277
000760 63 7e 21 cb 0b e3 c0 3f d5 85 63 70 ff 0c c1 3f
       0.13192889612672606 0.1332091616414305
000770 a3 6d b2 24 c4 08 c1 3f 05 e3 4c ee 16 0c c1 3f
       0.13308002273411743 0.13318144450911276
000780 c0 4e 25 ff 3d 1f c1 3f a6 d6 67 78 28 09 c1 3f
       0.13376593550002802 0.13309198264294259
000790 d3 20 7a 79 b3 c5 c0 3f 00 d9 9c ab 7f bc c0 3f
       0.1310333579206203 0.1307525241806573
0007a0 47 a5 17 77 32 a5 c0 3f 56 10 61 89 f8 f9 c0 3f
       0.13004141631180685 0.132628504829088
0007b0 82 86 cd 28 46 44 c1 3f 9e a2 79 a5 bf fd c0 3f
       0.1348960589630686 0.1327437932952948
0007c0 52 69 4e 94 9a fe c0 3f 2c 8a 61 0d 41 d2 c0 3f
       0.13276989213484086 0.13141644624109128
0007d0 86 8c d0 fc 85 3f c1 3f 8e c7 89 db 8d 14 c1 3f
       0.13475107998337793 0.13343976230276805
0007e0 c1 8a 15 fc cf d7 c0 3f 02 ab 0f 17 a2 68 c1 3f
       0.1315860730056411 0.13600565076861676
0007f0 6a b9 4f 59 de 4e c1 3f 6e a0 c5 c8 cd c1 c1 3f
       0.13521937714490245 0.1387269239742212

running_var f8 [376]
000000 0a 47 f2 63 55 16 8f 3f b5 31 db d2 ff 59 f4 3f
       0.015179316628095591 1.2719724880763412
000010 72 a2 6e 2d bf a5 b0 3f ea 87 9a c9 7c 13 07 40
       0.0650290952604651 2.8845153570446103
000020 02 62 6e c5 ff c9 cf 3f 43 24 d5 11 78 70 cf 3f
       0.24835202350801927 0.24561978216869038
000030 1b ab 1e 0b c9 3e cb 3f 81 a3 60 49 9a 70 c9 3f
       0.21285355608900933 0.19874886114964954
000040 70 fa b7 40 17 a1 74 3f 23 ee 16 e2 f0 db 61 3f
       0.0050364406883987994 0.0021800713300004367
000050 8e 81 bc 2b c0 ee 63 3f c3 5b a1 b0 db 9a 72 3f
       0.0024331811272448383 0.0045422155036111715
000060 c8 79 dc 17 cc d6 5f 3f 8f 83 91 ac df 7c 63 3f
       0.0019433014962896168 0.0023788803705859294
000070 92 e9 63 dd ec ff 70 3f db fc 6c 8f 0d 16 63 3f
       0.004150319340846658 0.002329851612926965
000080 a2 dc f5 0e 8a bd 5b 3f 2e 81 ba b4 e3 8b 70 3f
       0.0016931389071411025 0.00403965900082452
000090 d1 85 87 b9 82 94 63 3f 67 04 60 7b 46 0c 5c 3f
       0.0023901513306874085 0.0017119110393653215
0000a0 83 ec db f9 cc fc fb 3f 87 04 c0 a4 8f de e0 3f
       1.7492189178581448 0.5271681039595401
0000b0 60 f8 eb fa 70 a1 e2 3f 64 5f 28 f9 de a9 f5 3f
       0.5822071934524153 1.3539724095080254
0000c0 db 4c e2 95 52 33 e0 3f fd 90 76 0d 31 54 e5 3f
       0.5062649657651507 0.6665272963478227
0000d0 73 82 76 22 a6 bd eb 3f d1 a7 da 48 41 d5 dd 3f
       0.8669005082229674 0.46614105333958117
0000e0 e0 11 de c6 d6 18 d2 3f 39 a7 42 f5 fd 90 e9 3f
       0.2827660505356828 0.7989492216340529
0000f0 ac 6c e6 74 a5 19 dc 3f 53 75 75 8a 62 31 d1 3f
       0.43906532684349986 0.26863921662682805
000100 11 c6 88 c6 83 eb cf 3f 4a ae 04 ca 83 eb cf 3f
       0.24937483972603094 0.24937484134840054
000110 4a ae 04 ca 83 eb cf 3f 11 c6 88 c6 83 eb cf 3f
       0.24937484134840054 0.24937483972603094
000120 08 eb 4e f8 83 8d 8c 3f 48 f4 4b 49 1b 97 83 3f
       0.013941794410006661 0.009565556692445423
000130 c4 4b dd 41 1f 21 8b 3f 8d 76 2c b1 e4 a6 84 3f
       0.013246769139788735 0.010083948761855832
000140 e0 8c f3 e6 24 b4 83 3f 13 1b 16 b5 4f f2 7e 3f
       0.009620941446377207 0.007555304867657114
000150 f9 e7 b9 67 35 3d 83 3f 2d 1d 8d b5 0c 40 7f 3f
       0.009394089916202818 0.007629441876651638
000160 f0 cf aa a9 c6 b9 9b 3f fe d6 57 e3 7c 1b 93 3f
       0.02707586679998991 0.0186595453032714
000170 23 a5 21 da 0d a0 98 3f e2 fa f7 d3 59 e8 91 3f
       0.0240480579745156 0.01748791080717183
000180 64 15 04 3a c5 04 14 40 38 6b 35 89 81 ae 19 40
       5.004658609866372 6.420416015515734
000190 ae a7 97 77 e1 3a 0a 40 40 6e 2e e4 f3 5f 16 40
       3.278750356975215 5.593703809102919
0001a0 43 cb 3a 17 92 fe 17 40 a4 49 e1 42 be e5 07 40
       5.998604166949749 2.9871793007852876
0001b0 7f 4e 63 ca c1 d4 12 40 ea 51 aa e9 5c ba 12 40
       4.707770502387233 4.681995059032923
0001c0 20 a1 7b e3 49 31 01 40 a2 b1 64 98 2f 46 12 40
       2.1490667125800798 4.568540936609141
0001d0 c8 1c ae ea 64 ad 10 40 26 33 50 0f 12 04 01 40
       4.169330279232959 2.126987571368221
0001e0 a3 26 34 f4 bf 24 be 3f 8d 17 b6 62 ed 80 c6 3f
       0.11774825775151014 0.1758095485676531
0001f0 88 44 39 1c 9f 0f 84 3f 31 50 d6 a8 66 49 dc 3f
       0.009795420693224935 0.44198004234317795
000200 44 25 bb 9a 3c 7d d9 3f 5f 82 19 22 66 38 dd 3f
       0.3982688437505042 0.45656731920283805
000210 f8 89 ca 40 f8 f1 d9 3f 03 4e e0 98 b8 b8 d7 3f
       0.40539366080534434 0.3706494801456019
000220 cc eb aa bb 1f 63 df 3f a0 fe a6 26 64 87 de 3f
       0.4904250462238309 0.4770136239494409
000230 bd d8 a3 59 b4 39 de 3f 72 dd 5c 2e c6 3c d6 3f
       0.472272002734268 0.3474593594323415
000240 3b 48 19 74 2b cb e1 3f e9 e2 49 c0 4b 53 dc 3f
       0.5560509936860919 0.442583978444914
000250 d3 d7 7c 0f d3 09 d6 3f 7c 17 67 46 eb 24 be 3f
       0.34434963715045547 0.11775083988967866
000260 a4 29 de 64 c5 94 c6 3f 72 79 68 c0 15 5b 85 3f
       0.17641513276278176 0.010427637037591284
000270 68 f5 32 7d e0 43 dc 3f 0b 12 39 2b ea 79 d9 3f
       0.44164287783117695 0.39806608410825167
000280 c5 31 a6 9c 55 33 dd 3f d0 cd a8 1a 60 ed d9 3f
       0.456258204438907 0.4051132450433359
000290 7e 7a aa 84 ad b3 d7 3f 13 c3 2e 33 57 5d df 3f
       0.37034166293771154 0.49007205961520234
0002a0 a6 d9 fb 61 34 81 de 3f c5 f7 3d 32 c4 33 de 3f
       0.47663602417687867 0.47190956980182036
0002b0 2c ba 33 92 74 37 d6 3f 0f 3f 6a 25 2a c8 e1 3f
       0.34713472631020426 0.5556841593515588
0002c0 c7 4c b2 02 6a 4d dc 3f f2 48 b6 0b ae 04 d6 3f
       0.4422249819119312 0.34403563636546075
0002d0 91 cf de e8 45 99 b4 3f 2d 52 f1 03 b8 ca b4 3f
       0.08046376166640658 0.08121824356323577
0002e0 8a a4 f5 67 1e cf b4 3f 3e 04 7f d3 f2 e8 b4 3f
       0.08128538168024782 0.08167951262932235
0002f0 10 40 68 39 b2 15 b5 3f e9 52 12 94 f0 20 b5 3f
       0.08236230756324425 0.08253387084034682
000300 bb 2a c0 e2 e8 2d b5 3f a8 e2 67 35 38 31 b5 3f
       0.08273177657990065 0.08278228095867723
000310 da 24 d5 a8 c4 3c b5 3f cd 2f 79 ee b6 0e b5 3f
       0.0829584991635274 0.08225577661613599
000320 ad 23 91 ab 3d db b4 3f b6 b4 8e 6d 67 54 b5 3f
       0.08147035063406234 0.08331915306799229
000330 8b 89 5c 05 dc 18 b5 3f 51 e2 aa 87 a4 24 b5 3f
       0.08241057520766597 0.0825903731555482
000340 20 77 1b 14 f3 6a b5 3f 3d 9e 07 f4 31 aa b3 3f
       0.08366317025089787 0.07681572158582468
000350 9b ea e3 83 83 b3 b3 3f b7 99 92 33 12 9c b3 3f
       0.07695791215875618 0.07660020598505111
000360 be d4 ba cb 09 25 b5 3f c2 3c 37 f6 35 e7 b4 3f
       0.08259640907165797 0.081652996646187
000370 0a 0d e0 62 07 0b b5 3f 68 3c d9 12 26 50 b6 3f
       0.08219953693337714 0.08716047249002801
000380 b6 f9 a3 01 7f 03 b6 3f 64 0f e6 c7 f9 17 b6 3f
       0.0859908465390394 0.08630334024752312
000390 d3 e8 d3 5b 23 8f b6 3f 04 ea e2 2f 0e a2 b4 3f
       0.08812161437882375 0.0805977694425693
0003a0 57 64 87 72 ab a1 b4 3f 57 75 de 01 c1 67 b4 3f
       0.08059188409915073 0.07970815940503449
0003b0 f7 31 6c 75 3d 3f b6 3f be 69 6b 4f e2 ea b5 3f
       0.08690246693385704 0.08561529578165669
0003c0 c6 cd d1 62 da de b5 3f ac a1 ad d3 e5 43 b7 3f
       0.08543171799265456 0.09087978761602383
0003d0 03 06 a0 7c 7e ea b6 3f 72 e3 46 f5 3b e9 b6 3f
       0.08951559584240702 0.08949637163358462
0003e0 1c 6a ca 78 56 62 b6 3f 58 1a 08 60 7b ec b5 3f
       0.08743801545134783 0.08563967794916871
0003f0 33 b2 d1 55 f9 b5 b5 3f e4 d5 47 31 55 b7 b5 3f
       0.08480795235818377 0.08482868626727896
000400 c8 54 c1 d8 91 65 b6 3f 40 f7 96 4d db 1e b7 3f
       0.08748733083605764 0.09031458515434299
000410 d5 ec 83 43 2a e4 b6 3f e3 21 b7 28 42 31 b8 3f
       0.0894190230209689 0.09450162405040134
000420 69 4c f8 85 b1 c0 b7 3f 33 27 64 f9 f9 e1 b7 3f
       0.092784018714427 0.09329187716153058
000430 29 38 e6 2a 2f 52 b7 3f 7c 52 7d aa c9 fa b6 3f
       0.09109778210969978 0.08976421749441416
000440 0c cd fe 3b 1a dc b6 3f ba 67 b0 fe 7a fc b6 3f
       0.08929599728326226 0.08979004590983566
000450 85 ea 86 c9 56 cf b7 3f 3f c7 38 3f 0a 96 b8 3f
       0.09300749225705303 0.09603942912579287
000460 18 22 f2 7b d9 f3 b7 3f c4 84 d0 e6 9f f8 b8 3f
       0.09356459880849177 0.0975437105667139
000470 c2 ce 81 31 4e 66 b8 3f 5a 5b d2 51 1f c7 b8 3f
       0.09531105717342839 0.0967883658180261
000480 96 1b 65 2e 5a 56 b8 3f be f4 7c de 58 cd b7 3f
       0.09506763107957136 0.09297709876860247
000490 49 23 c6 03 99 1d b8 3f 46 75 7e 92 53 17 b8 3f
       0.09420162527216037 0.0941059334422408
0004a0 28 a7 cc 84 f2 5b b9 3f b8 7f 04 63 cb 0f ba 3f
       0.09905925504849888 0.10180350463315235
0004b0 61 a0 51 bb af ed b8 3f c6 d1 bf bc 7f 63 b9 3f
       0.09737680743421741 0.09917448385369373
0004c0 50 a1 c8 eb d2 43 b9 3f a5 ae b0 8d 76 31 b9 3f
       0.09869116074026363 0.09841099700195828
0004d0 c6 7a 75 2c 2d 21 b9 3f d5 b5 30 83 ae f4 b8 3f
       0.09816248259947277 0.09748354628455698
0004e0 eb fc d4 f4 df b2 b9 3f 97 f8 b9 ab 16 8b b9 3f
       0.10038566329329839 0.09977857296505231
0004f0 47 a7 0c 27 ac 61 bb 3f 3f c6 14 eb ce f7 bb 3f
       0.1069591136298672 0.1092500041893567
000500 01 e5 b6 e6 93 22 ba 3f 14 a8 8c a4 42 e5 b3 3f
       0.10209011442829664 0.07771698491401963
000510 96 83 c0 e2 bd 51 b4 3f ef 8b f0 da 39 84 b4 3f
       0.07937227998674098 0.08014260859685839
000520 26 89 b4 34 72 bf b4 3f 90 b0 26 46 ee e5 b4 3f
       0.08104623591183166 0.08163346493410217
000530 f0 0d d2 aa d9 bc b4 3f 83 4c 5f 14 f9 85 b4 3f
       0.08100662632391908 0.08016926524514827
000540 59 0b 88 f4 e4 64 b4 3f 27 68 18 d0 60 54 b4 3f
       0.07966452569966744 0.07941250877812021
000550 ad 08 e4 b7 70 29 b4 3f 15 c8 7d 0c c7 24 b4 3f
       0.07875732888718075 0.0786861806389257
000560 03 54 79 36 d0 15 b5 3f 1d f3 3d 3d fb 20 b5 3f
       0.08236409501962787 0.08253450627485077
000570 8d a3 1d ed 36 fa b4 3f c2 57 4a 78 bf 31 b5 3f
       0.08194297112426181 0.08279034315850622
000580 1b 6b 00 bb 5a f9 b3 3f a0 22 53 17 50 ab b3 3f
       0.07802359643430316 0.07683277673198541
000590 f8 1d bc 7f 29 80 b3 3f 99 ef 35 7a 23 d6 b4 3f
       0.07617434853101901 0.0813924954763351
0005a0 b3 f9 73 09 68 98 b4 3f 9e ed 9f e2 c0 a3 b4 3f
       0.08045053702151143 0.08062367947416368
0005b0 e7 46 57 ca 3b 61 b6 3f c0 54 46 95 f8 2c b6 3f
       0.0874211663242722 0.08662370342638592
0005c0 4e 2e 87 aa 10 48 b6 3f c0 94 a2 61 d9 87 b6 3f
       0.08703712619097212 0.0880103934637928
0005d0 81 ce 36 18 d9 e8 b4 3f 24 46 31 c9 69 9c b4 3f
       0.08167797890819807 0.08051167642522522
0005e0 4a 30 08 c8 7d 8e b4 3f c1 8c ae 48 12 f7 b5 3f
       0.08029924520104817 0.08580126070460194
0005f0 6f 94 c8 d4 4e ae b5 3f 2d 1d 8e 1d cc dd b5 3f
       0.08469097800169022 0.08541560861168725
000600 49 e1 a5 33 67 a5 b7 3f 01 8f 40 32 e0 64 b7 3f
       0.09236760149895419 0.09138299204692758
000610 14 dc 06 7c a7 70 b7 3f de ed d9 6b 74 13 b7 3f
       0.09156271722791615 0.09014060624206574
000620 62 77 4f 4f 0b 2e b6 3f f9 c8 09 ca 33 db b5 3f
       0.08664007841386259 0.08537601168226051
000630 aa 46 87 1b cd e3 b5 3f 46 7f c1 02 cf 0f b6 3f
       0.08550722047882667 0.08617872063905194
000640 ad 34 0a 94 5c 7d b6 3f 8a 0c 13 ca 1e 2a b7 3f
       0.08785036672834919 0.09048645432908323
000650 10 ed b8 b4 ab b4 b8 3f 37 1e a5 04 06 73 b8 3f
       0.09650681650321169 0.0955051194515527
000660 2f bf a0 a1 95 d2 b8 3f 4d a9 18 df 2b 6e b8 3f
       0.09696326442712853 0.09543108174026323
000670 33 c1 ce 25 36 76 b7 3f df 49 dc ea 0f 0d b7 3f
       0.09164751456296898 0.09004306301020602
000680 2f a7 68 3c 33 15 b7 3f b6 5e f5 f8 5a e0 b6 3f
       0.09016723847221607 0.0893608911331921
000690 d7 64 db 76 e2 62 b7 3f cf 1d 4a 63 59 32 b8 3f
       0.09135260965139778 0.09451826738415224
0006a0 07 3e 15 ca 15 90 b9 3f 2f 97 43 24 ee 26 b9 3f
       0.09985481437365006 0.09825027833320797
0006b0 f9 9a 91 bc dd 3e ba 3f f6 12 c9 df 0c 01 ba 3f
       0.10252176145295867 0.10157852614890914
0006c0 4b 85 12 73 97 73 b8 3f 7d 37 34 7a 1a 32 b8 3f
       0.09551378783591706 0.09451451762671854
0006d0 f2 a2 44 6c 71 f1 b7 3f 49 8f 90 3d 6c cf b7 3f
       0.09352787869705617 0.0930087709717188
0006e0 5a 4f d7 49 25 3a b8 3f 0b 94 79 7a 7c f8 b8 3f
       0.09463723232994195 0.09754159917936549
0006f0 6c c1 2f 16 59 30 ba 3f 77 c1 50 b7 df 02 ba 3f
       0.1023002318540926 0.1016063520953646
000700 ba ac b0 97 88 00 bc 3f 2d c7 27 3d b9 03 bc 3f
       0.10938314154980136 0.10943181746531812
000710 6e 64 5a 2d 70 b5 b9 3f 65 2f 1c 2f 25 d8 b9 3f
       0.10042477710011763 0.10095436477803117
000720 32 66 9f 21 13 f9 b8 3f 73 d3 39 c9 ac 91 b8 3f
       0.0975505787931972 0.09597282326451566
000730 b1 2c c7 d5 eb e4 b8 3f ed 7a 27 97 0b be b9 3f
       0.09724306077184754 0.10055611076630173
000740 08 08 0a 20 a0 48 b4 3f 0f 79 fe 0b 25 f1 b4 3f
       0.07923317701536814 0.08180457632849801
000750 fd 14 c0 4d 72 19 b5 3f c3 de e1 9f 21 32 b5 3f
       0.082419532758724 0.08279619363190265
000760 f5 f9 b4 0a a8 5c b5 3f b0 4e 9a 41 ac 99 b5 3f
       0.08344507466697577 0.08437611199979744
000770 b1 c0 86 63 06 a4 b5 3f 6e c8 e5 23 e6 95 b5 3f
       0.08453407220690924 0.08431852699666972
000780 d7 d3 04 c2 c4 b5 b5 3f ef 62 6d b9 1f 97 b5 3f
       0.08480481850422393 0.08433721806558102
000790 8f 5e 97 d4 59 2e b5 3f 88 e8 00 7c be 66 b5 3f
       0.0827385086080261 0.08359900023870825
0007a0 6b 0f 79 20 67 4c b5 3f ff 46 f4 1b c6 b0 b5 3f
       0.0831970648078461 0.08472860510326184
0007b0 7b 1d 2d 77 84 1b b6 3f 96 7d cd f9 e4 ce b5 3f
       0.08635738286567644 0.08518820856760664
0007c0 65 c5 51 85 16 c6 b5 3f 11 f2 88 86 02 ad b5 3f
       0.08505383257740602 0.08467117104095957
0007d0 8a b5 63 f6 d6 3c b6 3f 5f 5d 46 bf 86 ff b5 3f
       0.0868658401047552 0.08593027276798669
0007e0 33 c6 0f e9 be b0 b5 3f a6 ff 91 fe 66 88 b6 3f
       0.08472817602139386 0.08801883425803556
0007f0 70 a9 d6 b0 1b 73 b6 3f 5c 53 9c b1 2b f7 b6 3f
       0.08769391124102355 0.0897090252513641

count f8 []
000000 00 00 08 c0 ec 4f 0c 42
       15200000001.0

running_mean f8 [1]
000000 42 f0 26 18 27 db 72 40
       301.69704451761584

running_var f8 [1]
000000 a7 16 dc d4 fe 0f c0 40
       8223.990870963155

count f8 []
000000 00 00 20 c0 ec 4f ec 41
       3800000001.0

a2c_network.sigma f4 [15]
000000 0f c6 21 c0 a1 50 0d c0 b8 b0 df bf e5 34 bb bf
       -2.5277135 -2.2080462 -1.7475805 -1.4625517
000010 42 69 ae bf c7 ed d4 bf b9 02 a3 bf 69 85 cb bf
       -1.3625872 -1.6635064 -1.2735206 -1.5900089
000020 49 f3 c7 bf a7 0d af bf 7c 4b b6 bf 6a b0 00 c0
       -1.562112 -1.3676041 -1.4241786 -2.0107675
000030 e4 48 ae bf 9a 46 c0 bf cb f1 00 c0
       -1.3615994 -1.5021546 -2.0147579

a2c_network.actor_mlp.0.weight f4 [128, 376]
000000 e9 34 7d be c4 ec bc bd ec 97 9a 3e 1b 4c 8e bd
       -0.24727215 -0.09224847 0.30194032 -0.0694811
000010 dc 1e 0d 3d 4b 17 a8 3d 1c cf af 3b 9a 7a c3 3d
       0.034453258 0.08207568 0.0053652655 0.09544869
000020 43 52 83 bd 74 d7 58 bd db 26 a6 3e 50 3c e9 be
       -0.064121746 -0.052939847 0.3245152 -0.45553827
000030 35 5b 8a 3e fc 8c 75 3e 53 9c 4b 3d 63 87 85 bc
       0.2702271 0.23979563 0.04970963 -0.016299909
000040 9c 2f 25 3e e4 9d 20 3f a6 77 2c bf 55 1b d1 bd
       0.16131443 0.6274092 -0.6737007 -0.10210291
000050 a7 03 3f bd a9 47 04 3e 80 93 18 be 48 cb 00 be
       -0.046634343 0.12917961 -0.14900017 -0.12577546
000060 44 7a 03 3e de 40 93 3e 09 30 8e be 27 b8 86 bc
       0.1283961 0.28760427 -0.27771023 -0.016445233
000070 20 a9 8d 3e a6 79 fd 3d 6e c4 51 3e 70 fa 89 be
       0.27668095 0.12376718 0.20485088 -0.2694888
000080 32 4d 15 3e 23 dd 0a be 3e 8e 46 be 22 46 20 3e
       0.14580229 -0.1356092 -0.19390199 0.15651754
000090 76 75 66 3f f0 89 b6 be cf b6 4b bf 61 88 18 bf
       0.9002298 -0.35652113 -0.7957582 -0.595831
0000a0 01 1d a4 3c c7 0e 4a 3f aa 72 08 40 8f 8e 14 40
       0.020033361 0.789288 2.1319985 2.321201
0000b0 63 d4 f5 be f3 5b a2 bc 03 ce 03 3d 6e be fb 3e
       -0.480136 -0.019819235 0.03217889 0.49168724
0000c0 0d 76 23 3e f3 3b ce 3c 00 de fb 3d 77 ca 81 be
       0.15963002 0.02517507 0.122982025 -0.2534978
0000d0 10 bc 56 bd a3 3a 8b 3c dd 67 2a 3e 5c b4 b6 3d
       -0.052425444 0.016995734 0.16641183 0.089211196
0000e0 83 3c 85 be c8 6f d3 bd 46 d6 82 3d 4f 45 91 be
       -0.2602273 -0.10324055 0.06388526 -0.2837319
0000f0 58 46 a2 3e 67 b2 f4 be 60 9f dd be 65 c9 c3 bd
       0.31694293 -0.4779236 -0.43285656 -0.09559897
000100 03 ba ba bd d3 46 38 3e 18 1b 0a bd b8 68 d3 bd
       -0.0911751 0.17995767 -0.033717245 -0.10322708
000110 2f 7b 0b be 7d 74 5c 3e 7d 84 6e bd 3a f2 c6 3d
       -0.1362121 0.21528812 -0.05823182 0.0971417
000120 46 94 d6 bd 0a d0 f3 bd f7 6a 64 3e ab 63 25 be
       -0.104775 -0.11904915 0.22306429 -0.16151302
000130 23 91 8e bd cd 83 34 be 43 c0 c3 bd 59 28 33 3e
       -0.069612764 -0.17628403 -0.095581554 0.1749586
000140 7f cd 9e 3d b9 0e 00 3d b6 71 cb bd 08 50 28 be
       0.07754039 0.03126404 -0.09933798 -0.1643678
000150 da f4 3b be f7 ae eb 3c f3 c3 82 be 4d cc 26 be
       -0.18355122 0.028769953 -0.25540122 -0.16288872
000160 a1 a1 be be 3c 78 16 bc 3f c6 a7 bd a9 96 98 bd
       -0.37232688 -0.00918394 -0.08192109 -0.07450611
000170 15 95 14 be 2a a3 01 3e ce 2a 4f bc 34 5c df bd
       -0.14509995 0.12659898 -0.012644483 -0.10906258
000180 90 3b 10 be 08 13 2c be 45 fb 52 3d 42 a1 3d bc
       -0.14085221 -0.16804135 0.05150916 -0.011574091
000190 e8 f2 04 3d fa 7c 48 3d a4 5c 40 be 35 4d 0a bd
       0.032458216 0.048947312 -0.1878534 -0.033765037
0001a0 3f 68 6b be a7 3c ea 3d da 60 77 bd bd e2 ae 3d
       -0.22988985 0.1143735 -0.0603951 0.08539341
0001b0 00 7f 42 be e7 bc 90 3d 10 ba af 3d ec 01 19 3e
       -0.18993759 0.0706728 0.085804105 0.1494214
0001c0 97 07 a1 bd ee d4 a7 3d a9 44 1b 3d c4 f3 60 3e
       -0.07862776 0.0819491 0.037907276 0.21967989
0001d0 73 cd cb 3c f7 e4 41 be a1 39 3a 3d 2c 41 9a 3c
       0.02487824 -0.18935 0.045465115 0.018829904
0001e0 c2 4e c8 bd ca 13 0d 3d 95 0b b4 bc 8f 07 17 bd
       -0.09780647 0.0344427 -0.021978179 -0.036872443
0001f0 7d 38 a8 bd 57 b0 0e bd cb 9c a8 3d bb 77 73 bb
       -0.08213899 -0.03483614 0.08233031 -0.0037150222
000200 cc 7b 94 3d b5 f2 5f bd a3 cb 05 3e 98 0c b0 3b
       0.07250175 -0.054674823 0.13065962 0.005372595
000210 46 95 42 bc 0d f6 3d be 69 8c b8 bd 61 77 e6 3c
       -0.01187641 -0.18550892 -0.09011156 0.028133096
000220 8a 6a f8 3c 56 ea 48 3e 1c 59 68 3e 0c e0 ac bb
       0.03032424 0.19620642 0.22690243 -0.005275732
000230 cb df cc 3d 60 fe c7 3c 6e 55 24 bd 97 6f 75 3d
       0.100036226 0.024413288 -0.040120535 0.059920873
000240 f3 f3 3b 3e 35 f3 3c be db 64 bf 3d ee cc 4c bb
       0.18354778 -0.18452151 0.093454085 -0.0031250077
000250 b2 50 e0 bc 93 7d da 3c 11 83 92 bd 50 ce 9d 3c
       -0.027382229 0.026671207 -0.07153905 0.019263417
000260 40 3d 9f 3c a8 39 c9 bb 57 3d 67 3d e4 ec 93 3d
       0.019438386 -0.0061409064 0.056454983 0.07222918
000270 b4 3d 2b be d6 67 ad 3d 19 a0 a6 bd a0 89 86 3e
       -0.16722757 0.08467071 -0.08136005 0.26276875
000280 a6 91 f8 bd 74 14 8b bd f1 ce 9a 3d 09 51 3f 3e
       -0.12137155 -0.067910105 0.07559002 0.18683256
000290 8a 86 33 3e 4b 6e 0a 3e 59 99 e7 3b 5f 31 23 3e
       0.17531791 0.13518636 0.007067841 0.15936802
0002a0 a3 ad 35 be 91 13 c6 39 6c 92 61 3c 9a 2f 39 3e
       -0.17742018 0.0003778008 0.01376782 0.18084565
0002b0 75 57 79 bc c2 03 ff bb 7f 35 44 bd 8f 8c 23 bd
       -0.015218605 -0.0077824304 -0.04790258 -0.03992897
0002c0 34 dc 4b 3e b2 dc 4e be 60 f7 af bd 27 37 3e 3c
       0.1990822 -0.20201376 -0.08592105 0.011609829
0002d0 ac 8d 3d 3c 86 b1 f0 bd 69 89 90 bd d0 6b 48 3e
       0.011569422 -0.1175261 -0.07057459 0.19572377
0002e0 ce 5a af bc 34 47 11 bc 76 fd 51 bc c6 e2 81 bd
       -0.021405604 -0.008867074 -0.012816777 -0.06342082
0002f0 5c 2a 18 be 57 29 af 3d 23 25 00 3e 09 6b 19 3c
       -0.14859909 0.08552807 0.12514167 0.009363898
000300 80 2e 12 bd 58 29 f7 3d 2e 10 ed 3d e8 43 f7 3d
       -0.035688877 0.120684326 0.11575352 0.12073499
000310 42 b9 aa 3d c8 24 3c bd 94 06 23 bd 90 b7 87 3c
       0.083361164 -0.045933515 -0.039801195 0.016567022
000320 40 b5 c5 3d e8 62 c4 3c 64 f8 52 3d 0c 25 db bd
       0.09653711 0.023972943 0.051506415 -0.107004255
000330 55 49 55 bd db a4 d9 3d b8 65 80 bd 00 e8 52 3d
       -0.052071888 0.10627147 -0.06269401 0.051490784
000340 ab 09 cb 3d c2 c3 8e 3c 8d 5b e5 bd 68 54 e1 3b
       0.099139534 0.017427329 -0.111991026 0.006876517
000350 fa 8c 4e be 7c 0b b3 3d 51 ef d2 bd 0a 1b f8 3d
       -0.20170966 0.08742425 -0.10299552 0.12114532
000360 e3 0d d1 bd 9e ec 85 bd 2c 26 9b 3c 81 b9 a2 bd
       -0.10207727 -0.06539272 0.0189391 -0.07945538
000370 db f6 02 bd 26 0b 05 3e bb 77 a2 3d 31 16 ff 3d
       -0.0319737 0.12992534 0.07932993 0.124554045
000380 cc e5 58 3d 0b 17 34 3d 6a ae 24 bd 4f 8a 3b be
       0.052953526 0.043967288 -0.040205397 -0.1831448
000390 2f fb 0e bd cd f9 ea bc 57 d0 88 3d a8 db 07 bc
       -0.034907516 -0.028683567 0.06680363 -0.008292116
0003a0 76 19 e7 bd 2c 49 92 3d d6 69 59 3e 00 89 21 be
       -0.11284153 0.07142863 0.2123178 -0.15774918
0003b0 1e 4d ab bd a1 df 2f 3e 56 05 da 3d 66 30 04 3e
       -0.08364318 0.17175151 0.10645549 0.12909088
0003c0 be 49 22 3e 81 23 cf 3d c6 1b ae 3d 06 75 17 bd
       0.15848443 0.10114194 0.08501391 -0.036976837
0003d0 77 74 fa 3d 97 eb f6 3d 8c 2d 86 3d 0c b9 f9 bc
       0.12229245 0.12056654 0.06551656 -0.030483745
0003e0 9a b2 8d bc 1f 8c 90 bd a7 03 8b bc b6 61 06 be
       -0.017297078 -0.07057976 -0.016969515 -0.13123211
0003f0 34 58 97 bd 70 d0 92 3d fc 72 e5 3d cf 17 b3 3c
       -0.0738987 0.071686625 0.11203572 0.021861939

a2c_network.actor_mlp.0.bias f4 [128]
000000 b6 e0 b4 be 71 8c 96 be 6c 5b ff be b0 6e 12 bf
       -0.3532769 -0.29404023 -0.49874437 -0.57200146
000010 db cb 34 be 33 ea 06 bc 2b c2 f2 be 6f 2c ab be
       -0.1765589 -0.008234548 -0.47413763 -0.33432338
000020 c2 64 9e be 4a 77 45 bc a7 b8 04 be b3 27 e7 bd
       -0.30936247 -0.0120523665 -0.12961064 -0.11286869
000030 f8 d4 aa be cc 9d 76 be 12 1d 5a bd 6c 4b 13 bf
       -0.33365607 -0.24083632 -0.05325038 -0.5753696
000040 cc ab 52 bd ea 5a 2c be 4e 2b fa be e2 b5 37 bf
       -0.05143337 -0.16831556 -0.48861164 -0.71761906
000050 d6 28 71 be b3 51 02 bf 8e c4 27 bf d1 22 18 bf
       -0.23550734 -0.50905913 -0.65534294 -0.59428126
000060 2c dd 88 bc f5 e7 01 be fb 90 c0 be 2e 6f a1 be
       -0.016707025 -0.12686141 -0.3761061 -0.31530136
000070 1a e9 62 bd 0a 9d 29 bf 98 52 0b bf cd 35 cb be
       -0.055398084 -0.6625525 -0.54422903 -0.39689484
000080 fb a7 ea be 06 49 6f be 4c a2 48 be cf cc ab be
       -0.45831284 -0.233677 -0.19593161 -0.33554694
000090 73 bc 83 bd da e4 9d be d7 30 ac be 06 7c 10 bf
       -0.06432428 -0.30838662 -0.33631012 -0.56439245
0000a0 91 46 b9 3c 3f 85 14 bf 15 1b d2 be 78 f5 56 bd
       0.022616656 -0.5801582 -0.41036287 -0.05248019
0000b0 4f 9b 83 be 66 b2 71 3d 78 b4 cb be 45 80 d5 be
       -0.2570443 0.059008025 -0.39786124 -0.41699424
0000c0 b0 82 07 bf 6b cc ab bd bc 9f 75 be a8 ba e2 bd
       -0.5293379 -0.08388599 -0.23986715 -0.11070758
0000d0 31 16 20 be d6 88 e8 be 03 24 73 be 3b b6 31 bf
       -0.15633465 -0.45416898 -0.23744206 -0.69418687
0000e0 bb 73 a8 be 88 0f ee be 3b 78 07 bf 87 f4 a7 be
       -0.32900795 -0.46496224 -0.5291783 -0.32803747
0000f0 15 f2 80 be 5e fa 84 bd 9a c4 a8 be b1 0b 0d bf
       -0.25184694 -0.06493066 -0.32962495 -0.55095965
000100 2a ba ee be f7 c4 ad be a9 1b 0d be 68 e2 86 be
       -0.46626407 -0.33939335 -0.13780083 -0.2634461
000110 f8 7e ff be 9b 10 6b bd b5 7d 68 bd 8c 3d 2a bf
       -0.49901557 -0.057388883 -0.05676051 -0.66500163
000120 6e f1 53 3d 9d c3 03 bf 33 63 cd be a6 fb bb be
       0.051743917 -0.5147036 -0.40114745 -0.3671543
000130 74 42 59 bf 7e c7 02 be 23 e3 27 bd d7 cc dd be
       -0.84867024 -0.12771413 -0.0409881 -0.43320343
000140 5a 2d 50 bf 68 59 f6 be fb e2 bb be fc 4e 06 be
       -0.813192 -0.48115087 -0.3669661 -0.13116068
000150 40 90 ac be a4 a4 9a be df b7 20 bf 7b 2d bb bd
       -0.33703804 -0.30203736 -0.62780565 -0.09139534
000160 6c 49 4d be ec 6a 64 bf 39 84 87 be 53 52 b8 be
       -0.2004754 -0.8922565 -0.26468065 -0.36000308
000170 a8 60 42 be 2e 5b 19 bf 57 5a f2 bd 37 14 12 be
       -0.18982184 -0.59904754 -0.11833637 -0.14265524
000180 a4 b0 82 be fd bd a9 be 08 1d f6 be 47 50 2d bf
       -0.2552539 -0.33152762 -0.48069024 -0.6770062
000190 90 aa 23 bf 21 ea 1d bd a0 c0 a9 be 0a 4c d2 be
       -0.6393213 -0.03855336 -0.33154774 -0.41073638
0001a0 42 1c 66 be 4e cb e0 be 2f 2a c1 be 56 2b 62 be
       -0.22471717 -0.4390511 -0.37727496 -0.22086844
0001b0 d9 fa d2 be 13 8a d1 bd dd 74 56 bf 95 42 07 bf
       -0.41207007 -0.10231414 -0.8377207 -0.5283597
0001c0 85 93 cb be f7 46 44 be 35 df 29 bf 56 ff 82 be
       -0.39760986 -0.19167696 -0.6635621 -0.2558543
0001d0 e1 29 12 bf cb 05 c7 be dc 22 fc 3b 3b af db bd
       -0.5709515 -0.38871607 0.0076945852 -0.10726782
0001e0 73 e7 dd be 48 7c 87 be 34 5e b9 be d4 e3 a9 3c
       -0.43340644 -0.26462007 -0.36204684 0.02073852
0001f0 f2 d0 8f bd 28 c0 d4 be a4 8d 8d be c9 87 e5 be
       -0.07022275 -0.41552854 -0.27647126 -0.44830158

a2c_network.actor_mlp.2.weight f4 [128, 128]
000000 36 68 72 3e 4c ce 2e 3e 06 d3 3b 3d 31 d5 ed bc
       0.23672566 0.17070884 0.045855545 -0.029032322
000010 ee 2f b1 bc ac ba 22 bd 2c 17 24 3b e3 70 8a 3c
       -0.0216293 -0.039728805 0.0025038226 0.016899532
000020 fb da 21 be d4 05 f0 bc 56 d7 89 3e 16 1b 22 3b
       -0.1580619 -0.029299654 0.269221 0.0024735383
000030 73 ea c2 be 86 1d 7f bd f6 6a e6 bd a4 ec 2f bc
       -0.38069496 -0.062284015 -0.1125087 -0.010737572
000040 b0 2a f0 bd 47 b8 a3 bb 1e ea e9 bd 1f c8 0f be
       -0.11726892 -0.004996333 -0.114216074 -0.14041184
000050 59 fe 41 3d 9d 0b cb 3d 84 24 3c be ac 0d 7d bc
       0.047361705 0.099143244 -0.18373305 -0.015445154
000060 2e 3a bc 3d 5f 8e 19 be 37 34 ee bd fe 81 90 bd
       0.091907844 -0.14995717 -0.11631053 -0.07056044
000070 81 84 73 be b6 b7 0c 3e 8f ad d4 3d dc 46 ad be
       -0.23781015 0.13741955 0.10384666 -0.33843124
000080 e5 0a 5f be ac 51 9c bd f1 06 93 bd d3 6c ba be
       -0.217815 -0.07632765 -0.07179058 -0.3641115
000090 91 94 c1 bc 21 15 83 3b ee 8b 08 3d b4 73 93 3d
       -0.023630412 0.0040003215 0.033336572 0.07199803
0000a0 42 41 5a 3e c2 6c 7f 3d 02 12 15 3e 71 72 25 bb
       0.21313956 0.06235958 0.1455765 -0.0025245214
0000b0 09 b4 82 3d 28 7f c1 bc ee 8a ce 3d d9 49 8b bc
       0.06381995 -0.023620203 0.100850925 -0.017002987
0000c0 8b d2 9b bd 87 14 34 be dc 5a a0 be aa 2d 5f 3e
       -0.07608517 -0.17585956 -0.3131932 0.21794763
0000d0 fd f4 79 3d a3 37 f5 3c 17 46 88 bd ff c4 1a 3e
       0.061024655 0.029933756 -0.066539936 0.1511421
0000e0 80 6d 24 be b6 b3 a6 be d7 d4 97 be eb dd 9f bc
       -0.16057396 -0.32558984 -0.2965457 -0.019514998
0000f0 3a b7 15 3e 92 c7 20 3e 6d 55 75 be 1e 3f 32 3d
       0.14620677 0.1570113 -0.23958369 0.043517224
000100 31 2e f8 3c c8 aa 96 3d 1f 67 d5 be e1 12 97 3c
       0.030295463 0.07356793 -0.41680238 0.01844162
000110 f5 47 20 be e3 62 24 3e 3e 1b ed bd 9f 7c 75 bd
       -0.1565245 0.16053347 -0.11577462 -0.0599333
000120 83 58 90 3d ab b1 e9 3c b0 a1 21 be f1 9a 23 3d
       0.07048132 0.028527102 -0.15784335 0.039942686
000130 a5 85 b2 3d 2f 43 46 bd 52 81 49 3d 8b b3 49 be
       0.08716897 -0.048403915 0.049195595 -0.19697396
000140 8c f8 e2 bb 87 4a ec bc 28 4e 06 bc b3 57 ee bd
       -0.0069266018 -0.028844131 -0.008197345 -0.11637821
000150 8c d0 35 be d4 61 de 3d d5 98 a0 3d 92 77 5d be
       -0.17755336 0.10858503 0.078416504 -0.21627644
000160 92 56 6f be 7e 3b ab 3c 4e 39 20 be 93 0f ba be
       -0.23372868 0.020902392 -0.1564686 -0.36340007
000170 25 80 0e be c8 12 78 3d 35 21 86 be 69 d6 84 be
       -0.13916071 0.060564786 -0.2619721 -0.25944832
000180 48 6f 02 be 2a 85 79 3c 99 bc 6a 3b 8a 92 1e 3e
       -0.12737763 0.015229503 0.003581798 0.15485588
000190 d0 5b d9 bc 82 2b 28 be eb 98 78 bd ba 07 65 be
       -0.026533037 -0.16422847 -0.06069271 -0.22366229
0001a0 d0 52 3a bd 64 9e a2 be 65 b9 66 be c0 3d 05 3d
       -0.045489132 -0.31761467 -0.2253166 0.032529593
0001b0 b9 c1 65 3d 55 a3 42 bd c0 ed df 3d f0 e4 19 3e
       0.05609295 -0.047519047 0.10934019 0.15028739
0001c0 d0 89 76 be 31 78 13 3e 62 f9 b0 bc 1a 3e 18 3e
       -0.24076009 0.14401318 -0.02160329 0.1486744
0001d0 92 74 99 3d 41 7b 3a bb 8f 9f 1a be 6a 70 c6 bd
       0.07492937 -0.0028454813 -0.1509993 -0.0968941
0001e0 c6 a2 21 be a1 95 1d be 70 4a e0 bd fc b7 3f 3d
       -0.1578475 -0.1538911 -0.10951698 0.04680632
0001f0 46 61 6f bc 11 30 37 bd 14 77 16 3d b6 7b ad 3d
       -0.014610594 -0.044723574 0.036734655 0.084708616
000200 69 45 6e 3d df 2f cc bb e9 63 1f 3e 40 39 29 bd
       0.058171663 -0.0062312926 0.15565456 -0.041314363
000210 f2 1f a3 3d 4c cf d4 bc f3 53 04 bc 3f 07 0c 3d
       0.079650775 -0.025977753 -0.008076656 0.034186598
000220 8f cd 41 be be b6 bd bc db ab 04 3e 74 43 59 bd
       -0.1892607 -0.023158427 0.12956183 -0.053042844
000230 c5 70 03 be 1f 11 8c 3c 1b 4c 50 be ac 58 21 bc
       -0.12835987 0.017098008 -0.20341532 -0.009847801
000240 e0 6b 0b 3c c3 0f ad be 82 a1 26 be 44 62 5e be
       0.008509606 -0.33801088 -0.16272548 -0.21717173
000250 22 80 3f be 82 f8 3c bb 54 c7 05 3d 8c f8 f9 bc
       -0.18701223 -0.0028834646 0.032660797 -0.030514024
000260 83 d9 9b bd df 01 76 3e 81 3d 8b bd 30 5f b2 3d
       -0.076098464 0.24024151 -0.0679884 0.08709562
000270 94 56 00 bd 6d da 9a bd c8 e4 f2 bd 8e 3b 6a be
       -0.031332567 -0.07561193 -0.11860043 -0.22874281
000280 f8 46 9d 3c 4e 3d 2d bc 8e 7e 0a bd 53 37 17 bd
       0.01919888 -0.010573698 -0.0338121 -0.036917996
000290 4b 09 e7 bd 72 2a 3b be 7c 19 b4 3d 88 d7 1c bb
       -0.11281069 -0.1827791 0.08793923 -0.0023932178
0002a0 a2 f4 3b be d0 44 34 bd 3a 8c 7b be fc 91 d0 be
       -0.18355039 -0.044010937 -0.24565211 -0.40736377
0002b0 f3 40 8b bd f2 6b ba bd 8d ca db 3d c3 4c 90 bd
       -0.067994975 -0.0910262 0.10731993 -0.07045891
0002c0 8f 99 98 bc 6e 1a 42 bc 3c 57 42 be 09 42 93 3b
       -0.01862791 -0.011847122 -0.1897859 0.004493956
0002d0 3d a1 c7 3d 94 a9 16 be af e9 95 3d 10 22 d2 3d
       0.09747551 -0.14713126 0.07319962 0.10260403
0002e0 ab 3e 22 be 1a 5d dd bd 50 8c 00 3d 0a 1d 23 3c
       -0.15844218 -0.10808773 0.031383812 0.009955654
0002f0 2f 53 b1 bd 90 04 9c 3c cf c7 ad bb 4e 1e 8a bc
       -0.08658444 0.019045144 -0.00530336 -0.016860154
000300 75 c6 9b 3d 9a a9 21 3c f0 f5 da bd 13 83 ce bc
       0.07606212 0.009867096 -0.1069144 -0.025208985
000310 dd 59 2f 3e 9f 2f e4 bd 41 46 33 3b f5 8d b2 3c
       0.17124124 -0.111418955 0.0027355107 0.021796206
000320 92 01 29 bf 5e 53 30 3d 0a d2 00 be 5a a6 7f bc
       -0.6601802 0.043048255 -0.12580124 -0.015603626
000330 2f 98 25 bd 65 f7 52 bb 9d 8f cb bd af da 6d 3e
       -0.040428337 -0.0032190916 -0.099395014 0.23227952
000340 e7 ca 93 bc 5c d7 51 3d 59 22 13 bd 95 68 31 3d
       -0.018041087 0.051230773 -0.03592143 0.043312628
000350 8c 97 93 3d 1e 7f c9 bd 3b ee 3a be 04 b4 d0 bd
       0.0720664 -0.09838699 -0.1825494 -0.10190585
000360 64 44 df bd 10 9b 17 be 57 80 ef bc 97 ca 30 3d
       -0.10901716 -0.14805245 -0.029236002 0.043161955
000370 eb 5c 79 3c b9 b6 05 bc a0 a9 db be f2 b1 7b be
       0.015219907 -0.00816124 -0.4290285 -0.245796
000380 21 d6 aa bd aa 57 92 be 82 eb 8b bd f8 a9 17 3c
       -0.08341623 -0.28582507 -0.06832029 0.009256832
000390 c2 47 fc bd aa 0a 28 be e5 7b 8c be 58 e1 37 3e
       -0.12318374 -0.16410318 -0.27438274 0.17957056
0003a0 36 a0 1b be ad 63 02 be ad 1e 80 3d 51 17 15 be
       -0.15197834 -0.12733336 0.06255851 -0.14559676
0003b0 56 f7 77 3d 4d 28 d8 3d 6a 9e 7c 3e 9a de 88 bd
       0.060538612 0.10554562 0.24669805 -0.06683083
0003c0 a0 10 54 3d 0f 78 cb 3b ba 1d 7a bd ae f5 ad 3d
       0.051773667 0.0062093805 -0.061063506 0.08494125
0003d0 4a 57 4c 3d c3 d1 cf bc ee 24 cc bd 35 2c 18 3d
       0.049887933 -0.025368577 -0.09967981 0.037151534
0003e0 16 5e cf 3d 67 9e 6c bd 29 f8 27 3e 39 c6 fd 3d
       0.10125367 -0.05776825 0.1640326 0.123913236
0003f0 21 af 80 be 59 bb 36 3c 87 da 14 3e 54 42 73 be
       -0.25133613 0.011153066 0.14536487 -0.23755771

a2c_network.actor_mlp.2.bias f4 [128]
000000 d1 7f 4a 3d a4 27 42 be 4c 89 ac bd 8e 15 88 be
       0.0494383 -0.18960434 -0.08424625 -0.26578945
000010 81 cb 82 bd 0c 0e b3 3c f2 19 1f bf a6 de 5e be
       -0.063864715 0.021857284 -0.62148964 -0.21764621
000020 bd 62 2c be 3e 0a 41 3e 37 de 97 bd fc 08 24 be
       -0.1683454 0.18851563 -0.07415431 -0.16019052
000030 9c 79 37 be 4b 89 7c 3d c3 28 0b 3e 0d c0 9d be
       -0.17917484 0.06165437 0.13589768 -0.30810586
000040 da 18 ea 3d 9c 27 8d bd 1f e0 f6 bb 27 5d c7 3c
       0.11430521 -0.068923205 -0.0075340415 0.02433641
000050 17 ae 3d be 1b ac 04 3c 42 58 38 3e b3 2f 4b bc
       -0.18523441 0.008097674 0.18002418 -0.012401509
000060 3c 73 ac 3d 13 2d 89 3d 10 a1 0d 3e 59 8a 20 be
       0.08420417 0.0669805 0.13830972 -0.15677775
000070 ab 7a 33 3e d4 ea f5 be 8f 4d a6 be 6e ac 56 be
       0.17527263 -0.48030722 -0.32481048 -0.20964214
000080 e6 2a 97 bd 38 80 47 be ad 52 90 be d6 6a 5d bd
       -0.07381229 -0.19482505 -0.28188077 -0.054056965
000090 3d 4d 2b 3d 16 6a 72 be 36 b1 63 3e 73 f1 d4 3d
       0.041821707 -0.23673281 0.2223557 0.10397615
0000a0 7e 6b b1 be 38 f4 8a 3d e5 2c 4c be a1 5c 46 3d
       -0.34652323 0.06784862 -0.19939001 0.04842818
0000b0 d8 45 94 be bf dd 76 bc 91 a2 ec ba 47 48 14 bc
       -0.28959537 -0.015067517 -0.001805382 -0.009050435
0000c0 63 a0 b0 be d1 9e c2 3d db ea 3e be 58 8e a0 3c
       -0.34497365 0.09502948 -0.18644278 0.019599125
0000d0 7a 5c 8b bd 22 a2 9b be bf 92 1f bd 92 a8 76 b8
       -0.06804748 -0.30397135 -0.038958307 -5.8807964e-05
0000e0 c5 e0 e9 bd 70 c2 a8 bd a5 5b 73 be 4a 0a be 3d
       -0.114198245 -0.08240211 -0.23765428 0.09279306
0000f0 10 1d 2e be f4 80 12 be 3e cb 7b be cc 14 fa be
       -0.17003274 -0.14307004 -0.2458925 -0.48843992
000100 46 d3 53 be 71 fa 9c be 8b 68 27 bd e4 2d 41 be
       -0.20686063 -0.30659822 -0.040871184 -0.18865162
000110 37 ab 8a 3d 70 53 02 be 93 14 0c be 10 b5 bb bc
       0.06770938 -0.12727141 -0.13679723 -0.022913486
000120 ac 60 ec bd c4 05 94 bc 53 b4 32 3d db a3 09 3e
       -0.11541876 -0.018069156 0.043629 0.13441412
000130 3d aa f0 3d 39 5a 86 be 54 11 04 be 7c 30 eb bd
       0.117512204 -0.2624071 -0.12897235 -0.11483857
000140 bb c1 95 3d fa 4d f5 3d b1 72 84 3d 01 6a d1 3c
       0.07312342 0.119777635 0.06467188 0.025563242
000150 f9 2a ca bd f6 e6 61 bc 36 c8 11 3e e0 2a 44 3e
       -0.09871478 -0.013787976 0.1423653 0.1915698
000160 dc 74 b5 3d 3f a8 ce 3d ac 8a 22 be 67 fd ef 3d
       0.0886018 0.10090684 -0.15873212 0.117182545
000170 83 42 fa be 8d a9 39 3e 69 7e e4 bd 39 f4 3b bd
       -0.4887887 0.18131085 -0.11156923 -0.045887206
000180 25 98 17 3d b9 12 06 be 79 d5 1a 3e 02 0c 22 be
       0.03701033 -0.1309308 0.15120496 -0.15824893
000190 8a 2c 29 be a2 6f 4c be b4 e5 b0 3d da 84 91 be
       -0.16520897 -0.1996446 0.086375624 -0.2842167
0001a0 99 27 db 3d 91 81 c3 be c3 eb a7 bd ef 8f 36 be
       0.10700912 -0.3818479 -0.08199265 -0.17828344
0001b0 ea f2 a9 3d ae cb 5f be 13 f7 0c be 00 61 02 be
       0.08298285 -0.21855041 -0.13766126 -0.12732315
0001c0 e4 f8 92 3d fc 54 8e ba b7 2a fc 3c 6e 08 9d bd
       0.07176378 -0.0010859068 0.030782087 -0.076676235
0001d0 7c 24 8c be c6 e7 60 be 84 4f b5 bd 58 43 aa 3d
       -0.27371585 -0.21963415 -0.08853057 0.08313626
0001e0 6f b5 66 be fc 13 e8 bd ed 58 87 be 40 98 2e bf
       -0.22530149 -0.11331937 -0.26435032 -0.68201065
0001f0 67 f4 2f 3d 6a 28 2b be 54 fb b7 be 03 64 64 bf
       0.04295769 -0.16714635 -0.35933936 -0.89215106
