python/rlgpu/saved_nn/123/last_Aliengoep=2500rew=[6544.75].pth (torch, 539546 bytes, 18 tensors)

running_mean f8 [376]
00000000: 6805 0888 2ab2 553f 6df6 f891 d7b1 773f
00000010: b71f c9e1 c9ef 743f 77fb 246d 2f7c 7c3f
00000020: 27c7 15dc 3fa0 dd3f 08e4 fc71 16ae dc3f
00000030: 9322 7016 438a e53f b1fa 6337 2d0e e63f
00000040: 9351 250e 1491 a73f 84e4 d103 cbe5 bb3f
00000050: 0465 822a b30b d2bf 00d9 7b78 58c4 af3f
00000060: 6766 739e 0f9d b8bf 10ff b895 24d0 d1bf
00000070: 5fa2 02c4 c2a9 ac3f 1789 7646 dded bb3f
00000080: 34e4 9a8d 0ef5 d2bf 0d43 0141 1c67 ab3f
00000090: 24b8 64ed 2634 b6bf c5b7 0c20 f808 d3bf
000000a0: 6677 fb46 8a84 9bbf 68c3 9624 775b 98bf
000000b0: 9deb 006a cf46 bb3f 924d bef3 dbc3 9bbf
000000c0: 0932 9b3c a6a0 913f a508 fdfd 435c b93f
000000d0: 80c6 43c6 c162 78bf 0c64 2a67 4c9f 83bf
000000e0: 9e06 d3fe 2065 b13f 4571 b45b 931b 83bf
000000f0: b5f3 16fe 5fd7 7b3f ee00 c0a3 a6b3 ae3f
00000100: 0e6d 5fb2 1528 de3f 609f 9d19 f5eb e03f
00000110: 609f 9d19 f5eb e03f 0e6d 5fb2 1528 de3f
00000120: 195a 21ae a3fc a13f f25d 3784 8e07 6fbf
00000130: b165 6b7d 1ca0 8e3f 749a 49e1 8554 733f
00000140: 1fde 0a83 44b8 953f 305d df81 5cee 613f
00000150: 43d3 0436 d287 953f 8be7 21ef 0460 3b3f
00000160: 12ee d087 5de1 993f fed7 4eca 0cb5 383f
00000170: 6b6f c20c 5b5b 963f 9e9d 4180 a279 443f
00000180: 7623 cc0d 8fc7 c2bf 090b 6f75 7517 c43f
00000190: dc72 30b4 bc91 d0bf ae99 8ef1 608a c73f
000001a0: 48e6 4ac8 7fe8 cc3f 6edf c059 dbdf c0bf
000001b0: c553 9361 9320 a7bf 7e28 f0d1 add3 c2bf
000001c0: 05f0 51f8 ac6e cbbf aad5 e914 6325 b13f
000001d0: e3bd 1427 9a29 c7bf 5d51 10f9 b4ab c1bf
000001e0: 4da8 56ab 44c0 dcbf 307b cdca 9aa1 e53f
000001f0: c486 a811 1c22 ef3f c8d6 dfe1 7961 cd3f
00000200: 6c3f 8b1b ad70 d53f 07aa d151 f0fc cc3f
00000210: 3a61 3f11 92e4 ca3f 7f39 bd4e 88f5 c9bf
00000220: 3ccf 07c0 dfec d03f 1566 1fc9 4ade b1bf
00000230: ec18 f8e8 f6a7 d33f 776b 7078 65cd bcbf
00000240: 44fc 413d 7e6b b43f 055f 37df be44 aebf
00000250: 813f d1c2 9387 cabf 5633 6991 0abc dcbf
00000260: f50d 1644 539b e53f f856 15de d31b ef3f
00000270: 8c86 5006 305c cd3f 451b c938 616c d53f
00000280: 36fe e9d7 abf9 cc3f 5c9e 51d1 81e0 ca3f
00000290: 4451 163e 19f3 c9bf 4d46 7fe7 9feb d03f
000002a0: 6ac9 6d5f 4ddf b1bf 9b46 23af 88a5 d33f
000002b0: f24d 06bc a3cf bcbf c66a 36c8 7966 b43f
000002c0: 2ed2 6d92 4e40 aebf 7721 bea8 5a86 cabf
000002d0: e0bc 06c4 88f7 c13f 8403 6d32 b632 c23f
000002e0: 2ced 735d 124b c23f 0961 2284 a35c c23f
000002f0: 23d1 4fd5 5869 c23f aaf6 b27b 465e c23f
00000300: a69b 4cf9 2749 c23f d411 7104 0a46 c23f
00000310: 15cc 88c2 d053 c23f 72f9 28b8 8748 c23f
00000320: 0127 9584 a733 c23f 9810 318c 5079 c23f
00000330: b9be 9a8a 2a77 c23f da3d f714 4f9a c23f
00000340: 64bf 283c d2b4 c23f bda7 0f4b 0c61 c13f
00000350: bb9f 687e 4f38 c13f 4fd2 63c6 9402 c13f
00000360: 52e9 9f6a 8aff c13f 8257 0655 33f1 c13f
00000370: ee5d 8236 1919 c23f 3fa9 257f 711d c33f
00000380: 6a9e b41a f319 c33f 709a adf7 f032 c33f
00000390: 4524 5bb8 f571 c33f a959 210f 27fd c13f
000003a0: 6c36 2e6c 8dae c13f ad25 b786 8971 c13f
000003b0: ce1f 2794 aead c23f a78e 0313 428d c23f
000003c0: a8dc 6e8d 3a92 c23f 2be0 6f49 e6bb c33f
000003d0: 7177 c361 73ac c33f 08d3 9676 94aa c33f
000003e0: 31d9 f429 d83e c33f cd36 de49 47ae c23f
000003f0: 2c98 b91b d839 c23f fc75 b37a 8034 c23f
00000400: e78e 2976 2bb9 c23f 96b9 9a39 7744 c33f
00000410: 3290 2314 e834 c33f 1401 d856 6054 c43f
00000420: 5351 2f42 ae33 c43f 5ef7 b39e 0251 c43f
00000430: 586d 343e ded6 c33f 8cf7 1c08 6149 c33f
00000440: 2ba8 ff8b 2bf3 c23f 7c28 4a7e d408 c33f
00000450: ca53 9b23 c6ab c33f 9c24 b1ad fa3b c43f
00000460: 88d6 24e4 6be2 c33f 6c81 b454 57d6 c43f
00000470: 17d4 78ae 5b9b c43f de28 a80a 24f2 c43f
00000480: 38da 66ba f684 c43f c15b ec25 0ecd c33f
00000490: 9f8f f451 23c8 c33f 992d 9974 cddb c33f
000004a0: cc5e e051 a0c4 c43f 8f2b eb4e 5c40 c53f
000004b0: b736 bb4c b58c c43f fb5c 5e26 cb12 c53f
000004c0: e464 6be6 bd36 c53f 2ccf 039b 4f22 c53f
000004d0: 982b 86d5 a3ee c43f 3d1e 6a2a 658a c43f
000004e0: 56ea f879 b5d3 c43f f2e3 35d1 a7ed c43f
000004f0: eac2 8c43 2563 c63f 14d7 86c9 8dbc c63f
00000500: 033f fa19 3866 c53f 286f d257 33bc c13f
00000510: 0856 b215 7003 c23f c701 4050 5b1b c23f
00000520: a866 dcfe 373e c23f 25be 0759 6362 c23f
00000530: ef13 7cd9 e75d c23f ee3c 2396 f649 c23f
00000540: 833d 55b4 c53a c23f 6b36 f4ac da23 c23f
00000550: 427d 96ad 4100 c23f 1f23 dc8b cef8 c13f
00000560: 4c23 fd86 fd4c c23f d24c cf0e 223b c23f
00000570: bb96 3a3d b847 c23f 6a92 2500 7b84 c23f
00000580: 342e 9d59 a9be c13f 92b2 8f92 b9ae c13f
00000590: d76c 4f57 e49d c13f df4f 3285 8f70 c23f
000005a0: 17ef 834a 293b c23f 6983 56f9 de25 c23f
000005b0: d235 90e3 2504 c33f df7e 9813 99d7 c23f
000005c0: 54f4 2ccd 5043 c33f 44d6 376e 6197 c33f
000005d0: 9ebf 102f 0465 c23f fdb0 d847 3249 c23f
000005e0: 0993 ed8c 8f4c c23f 68b0 8682 e933 c33f
000005f0: eca4 21f9 c0f7 c23f 2ee1 f5c7 b0d9 c23f
00000600: 6c9d b2ba 1cc8 c33f c713 5d47 37a7 c33f
00000610: f971 2863 2f08 c43f ee9e 59eb 10fd c33f
00000620: 0146 ccf4 8a4a c33f ee55 86a3 0919 c33f
00000630: 7681 97e1 2d29 c33f 3d88 b293 402c c33f
00000640: 6be8 8436 f677 c33f c9f5 be84 a6ac c33f
00000650: 9467 0e56 be78 c43f 4518 669c 7867 c43f
00000660: e1e1 9d83 e603 c53f 8fd0 a28f 81fb c43f
00000670: d732 919b fb39 c43f 6211 3662 d7d5 c33f
00000680: 8f8e 80d4 78f1 c33f 2723 d944 a3be c33f
00000690: e337 8f10 8d19 c43f 4391 4679 0c62 c43f
000006a0: 8185 9840 4215 c53f 8a2f 8f17 7eec c43f
000006b0: b6e0 7135 d61b c63f 74b4 d163 e824 c63f
000006c0: 32e9 0af2 0ee0 c43f 2724 4a78 8e97 c43f
000006d0: 6b9e d20b 0f71 c43f 13c2 b69f ca74 c43f
000006e0: 9639 f3c3 46be c43f f51b fc5d f0fa c43f
000006f0: f0c3 6c52 46b6 c53f 122e 9f17 4aa6 c53f
00000700: 9b8d c70a 7381 c73f fed3 3bf7 ef99 c73f
00000710: 6678 d8a3 dabf c53f e381 25d0 a2b0 c53f
00000720: a147 5c7b bb23 c53f 792e e57d 78f6 c43f
00000730: 6ea0 7525 dd3a c53f ca5a 411c fdb2 c53f
00000740: 42ba 531a 4cba bf3f 247d ef4e 5542 c03f
00000750: 5c52 f6fd 2280 c03f 8044 558a 67a7 c03f
00000760: d119 95f2 0fc6 c03f f77e 4ae4 7ae1 c03f
00000770: bed1 2259 6ec7 c03f ab2e b9be 63b4 c03f
00000780: 90d1 19e7 30c2 c03f b160 fc2e 7baa c03f
00000790: 00a6 812e 1262 c03f a6c2 51cf ad51 c03f
000007a0: 46e7 7409 1079 c03f 6649 17d1 c2e5 c03f
000007b0: 45c0 5c1b 3c35 c13f 0164 635f 850c c13f
000007c0: 4d43 e19c 0ad1 c03f 5f4d bde4 e4a8 c03f
000007d0: 8cdf 43c0 5a02 c13f ce02 ceb3 57d1 c03f
000007e0: 7763 0a29 6482 c03f 6c52 8196 d9fd c03f
000007f0: 0690 cac7 2d23 c13f 2940 0520 7caf c13f
0.0013242163987573167 0.005784837790597669 0.00511149273058458 0.006954369792139362 0.4629058503406775 0.44812546855570234 0.6731276930086828 0.6892305452200472
0.046028734900264066 0.10897511332759008 -0.2819641032343301 0.06204487295865313 -0.09614656084468153 -0.27832903500892403 0.055982672144925465 0.10909827204026033
-0.29620708302133214 0.05352104466931538 -0.08673327728021768 -0.29742243890620684 -0.026872788031020355 -0.023786412819109343 0.1065492280767288 -0.027114331008829824
0.017214391183005193 0.09906411124123567 -0.005953556949167216 -0.009581181429256368 0.06794935437485569 -0.00932994006739619 0.006797194453096835 0.05996437786962071
0.47119657916273716 0.5288033962542436 0.5288033962542436 0.47119657916273716 0.0351306104718569 -0.003787783005218642 0.014953825547695173 0.004719279259552612
0.02121073770351078 0.0021888548644529923 0.021025929019020905 0.0004177104993981987 0.02527376309829605 0.00037700235617010847 0.021832869199541898 0.0006248515569610596
-0.1467150514002033 0.1569659064681093 -0.25889508816343976 0.18391048235680557 0.22584531097327187 -0.13183156855097472 -0.045170407925673874 -0.1470849299515215
-0.21431505322459557 0.06697673092442949 -0.18095709713223504 -0.13805257951083663 -0.44923512203479704 0.6759771309842559 0.9729137749565884 0.22953723458311104
0.3350022095664744 0.22646907801693336 0.21010042040030347 -0.20280555576978185 0.2644576430604848 -0.06979815874310476 0.3071267390336192 -0.11250909986885725
0.07976521487761185 -0.05911823725517532 -0.2072624875313487 -0.44897712898528164 0.6752106027419688 0.9721469247403709 0.22937584217384133 0.3347399763628583
0.22636936228444576 0.20997641297002445 -0.20273128062820878 0.2643813858713642 -0.06981357173734684 0.306978388817791 -0.11254332867093078 0.0796886552620136
-0.05908437287772404 -0.2072251628817516 0.1403666455421222 0.14217259847830743 0.14291600764395562 0.14345210983152182 0.14383993545164583 0.14350205459588966
0.14285754845442716 0.14276242462996314 0.14318284510372395 0.1428384446352982 0.14220136617432647 0.14432722897811767 0.14426166312977332 0.14533413432808012
0.1461432260271024 0.13577417054267285 0.13453096077250656 0.13289127051361269 0.14061098295480662 0.14017335559463723 0.14139094506820932 0.1493360396228329
0.149229419746223 0.14999210446986266 0.15191527845152755 0.14053810347350051 0.1381394174790559 0.13627738073254872 0.14592535242104393 0.14493585518277038
0.14508754640494215 0.1541717394427463 0.15370027803049482 0.1536431864784833 0.1503553585877824 0.1459435568507871 0.142390264070117 0.14222722998867698
0.14627593297620153 0.15052690804209296 0.15005207999559073 0.15882496109407696 0.15782716972047214 0.15872223614854425 0.15499475514739447 0.15067685028219235
0.14804596267578182 0.14870697180259984 0.15367962587938983 0.15808042031338665 0.1553473342880134 0.16279117237082674 0.16099115389957383 0.1636395504031673
0.1603077325978164 0.1546952901050798 0.15454522611355245 0.1551453418090716 0.1622505569255196 0.1660266290039911 0.16054407354970632 0.1646360337588034
0.16573308707191992 0.16510958737455306 0.1635327141378553 0.16047348567029643 0.16271084266357388 0.16350267138821512 0.1749006824334381 0.1776292070405182
0.1671819807856921 0.13855592525657667 0.14072991427808312 0.14145986002405506 0.14252376503354935 0.14362756583385408 0.1434907733857069 0.14288217860164515
0.14241858773537439 0.14171918339745856 0.14063282943696193 0.14040548161599362 0.14297455874682397 0.1424295971215544 0.14281371106806326 0.1446679831234577
0.13863102794344828 0.13814468056024914 0.1376309801406481 0.14406007770287396 0.1424304593891683 0.14178073095993263 0.1485640870236425 0.1472045274431286
0.15049181001987455 0.1530572689222699 0.14370777414432906 0.14285877712371323 0.14296144849063122 0.1500217330298057 0.14818584599132778 0.1472683884019345
0.15454444042300552 0.15354052528905823 0.15649978963564573 0.15616046420767965 0.15071236565613336 0.14920158848387594 0.1496941901705317 0.14978797160898863
0.15209844266957204 0.15370637399420975 0.15993479921308718 0.15940768849049128 0.16418153215978662 0.16392535699344932 0.15801949592641648 0.15496341987103351
0.1558066403969076 0.1542553030178848 0.15702975567404484 0.15924220964110178 0.16471126703349273 0.16346717977864628 0.17272451028452956 0.1730013358495942
0.16308771913993209 0.16087513803020778 0.15970027997285582 0.159814193711569 0.16205677574039318 0.16390804852582588 0.1696250822510872 0.16913725045593303
0.18363798166602127 0.18438529560049227 0.1699174213435441 0.1694530025806805 0.16515296481571531 0.1637716879580358 0.16585888222767003 0.1695248020139018
0.12393642084837445 0.12702432970306987 0.128910421376207 0.1301087785200572 0.13104438156933765 0.13188110491773106 0.1310861525759161 0.13050505459465475
0.13092623981686957 0.13020267290335633 0.12799289007971026 0.12749264357582496 0.12869453870535547 0.13201174935836518 0.134437096939566 0.13319461019162307
0.13137943897393214 0.13015423935812984 0.13288435352273742 0.1313886287644181 0.1289792251962145 0.1327468857658859 0.13388607268746017 0.13816787303449132

running_var f8 [376]
00000000: 30d5 5705 3fcc 923f d537 5d7e 687c f43f
00000010: b57b 3279 e74b b23f 308e cde7 c990 0740
00000020: 180a df5e eed2 cf3f 5cfb 2282 d7a7 cf3f
00000030: fa27 b70f db29 cc3f 021e 5554 a76a cb3f
00000040: 0c7b 3ba5 bb63 753f 720f 4b6f 982b 623f
00000050: 69a8 1b74 fac0 673f 0a22 eb2a 2e91 743f
00000060: 58ca 578f e224 5f3f 332e 8d40 dce9 663f
00000070: 2bf2 c6ad 1a3d 723f 3ed1 6f21 f926 633f
00000080: d4e1 802e a0ca 613f f1da afd5 8368 713f
00000090: 816b b295 8ce6 643f 4fe1 0de3 5aa7 613f
000000a0: caf2 0659 6ffe fb3f 2dae f691 b323 e23f
000000b0: 2016 1b3d 0443 e23f dbc0 7395 a0ee f83f
000000c0: dd4e dec9 4edd e03f 72c3 0eac d2b3 e33f
000000d0: cfc7 c174 812b ee3f 6821 004a 94b7 dc3f
000000e0: 39ab 9175 ca4b d33f 1c55 5be8 3539 ed3f
000000f0: 3cbd 90b4 2ef3 dc3f 8f54 3f44 ad64 d43f
00000100: 0d8c b660 d5e4 cf3f 3327 1a64 d5e4 cf3f
00000110: 3327 1a64 d5e4 cf3f 0d8c b660 d5e4 cf3f
00000120: 79dd 3ba1 a25d 8e3f bc33 69e0 4d03 853f
00000130: f283 249b 4287 8d3f 5628 0741 2e5a 863f
00000140: cad1 90b3 e9f8 833f 3471 d87d 817e 7d3f
00000150: 64f8 8041 cef1 833f f1a3 cc7f 0d2c 7e3f
00000160: 18d7 d6fe 72a0 9c3f 0f3e a43c f1c1 933f
00000170: 7f86 6a9a add0 983f d109 91c1 907e 913f
00000180: 733f 9f0d be96 1540 2772 3aca 5fe5 1a40
00000190: add1 c2c2 c5f6 0b40 7699 293a 133e 1740
000001a0: ba47 25ba 809b 1a40 5fd9 ee8d 7919 0b40
000001b0: b4f0 19be 8a46 1340 d08c 9087 d978 1440
000001c0: 21be 3330 7f10 0340 7d92 0971 7b4e 1340
000001d0: 2abf 3025 3aed 1240 c5fd 49e0 1fbf 0340
000001e0: 2a99 01bb cc6c c13f f6a1 ed8e f524 c63f
000001f0: 71c3 1794 b5b0 913f 843a a043 9485 db3f
00000200: fda4 f640 1b50 da3f b0c0 4198 827b dc3f
00000210: 1865 d706 7250 dc3f 98fa 7011 2875 d73f
00000220: 4104 bd4c 5b75 dd3f 763d 9ee3 e18e de3f
00000230: af39 03ad 3ccb dc3f 7b90 5d05 32e9 d73f
00000240: 48ce c80b 0cd5 e13f 39df 0398 06a8 dc3f
00000250: 4322 93fe bd64 d73f db98 ded8 116a c13f
00000260: 09c6 b214 883b c63f 951c a717 876d 923f
00000270: 10dd bfb4 eb7e db3f 0864 69e3 d14a da3f
00000280: 0f9b 7b8b e374 dc3f 487a 5f67 4349 dc3f
00000290: 913f 1e44 996e d73f 346d d0da 426e dd3f
000002a0: 94cc 5658 0687 de3f 66ef 3bbd adc4 dc3f
000002b0: 976f 1671 19e2 d73f 22dd f53b 0cd1 e13f
000002c0: c100 9db7 ada0 dc3f 4a47 fc33 055e d73f
000002d0: 04ea 8c1d b403 b43f 5382 f4a3 9363 b43f
000002e0: 6758 1331 f785 b43f 542a 66cc 27a3 b43f
000002f0: c3c8 c6dd 3ab5 b43f 0477 bad5 60a7 b43f
00000300: b49c cc88 2594 b43f f51e 588e 497f b43f
00000310: 07d4 f937 fa8f b43f 77fc 5473 5980 b43f
00000320: 49d2 bf53 945f b43f 761b ff34 44f8 b43f
00000330: 70fa a9cb c401 b53f 21e2 6b73 d229 b53f
00000340: ad94 0437 5552 b53f 555c d65e d278 b33f
00000350: 6aa6 3f1e df2f b33f 431a 071b dbf7 b23f
00000360: fe55 835d b15e b43f 078f d912 0e49 b43f
00000370: 6497 db8f 7882 b43f 703d 7512 bd01 b63f
00000380: 94a6 e207 7011 b63f 1e71 c31a 1e26 b63f
00000390: 394c e139 808a b63f efa9 0d1f 2985 b43f
000003a0: c565 9006 a0ff b33f 8fb1 c5aa 23c8 b33f
000003b0: 4f4d 5c52 7e88 b53f 1a50 b366 4b52 b53f
000003c0: a304 e088 3c5d b53f 37e4 e450 4301 b73f
000003d0: f746 4227 d900 b73f 82d2 d9c2 b4fd b63f
000003e0: 89a6 9d05 286f b63f 1e6d 5e54 3da9 b53f
000003f0: ed01 7bcf bfee b43f e71b 3edf 7f0a b53f
00000400: 2965 d6b5 86c8 b53f eeeb 5115 1184 b63f
00000410: 0576 b4d3 c868 b63f 126d acc5 b6f7 b73f
00000420: 02ca 2812 06db b73f 86f8 10d6 8508 b83f
00000430: b9b8 9f9e 5964 b73f b6f7 c948 6ca5 b63f
00000440: 36c8 2b5e 651e b63f 8c8e e6c2 6e5c b63f
00000450: 60c4 cc0b cd42 b73f 15c3 cc0b ae03 b83f
00000460: cd58 44f0 9f7c b73f 194a 2d9a 17cd b83f
00000470: fbec 88ab b985 b83f 28bc ee52 5207 b93f
00000480: c977 e7b1 6c74 b83f dfb6 c767 4078 b73f
00000490: 01d0 1249 f470 b73f 2e96 7e0d 89a2 b73f
000004a0: 07ae 505e b4e8 b83f 5b38 edda 6d8b b93f
000004b0: f91a 3b36 6085 b83f dbf5 f13f fc6a b93f
000004c0: 7216 6bf1 9688 b93f e483 843c 648f b93f
000004d0: cfab af99 7a4a b93f 585c 1165 29a5 b83f
000004e0: e352 9870 8c30 b93f f833 9ff1 3c44 b93f
000004f0: 5582 9ec6 3051 bb3f 327a c61d 06c5 bb3f
00000500: b004 fb37 81d8 b93f de07 e32d 7910 b33f
00000510: c9df 1236 1285 b33f 2a48 8f0c 8aa1 b33f
00000520: c716 97f5 d3d5 b33f 5532 01cf 5309 b43f
00000530: 6dbe 55b7 0f04 b43f 9ad4 5030 51f5 b33f
00000540: 9046 f489 f0d5 b33f ef34 c606 78b4 b33f
00000550: be10 4ea0 7c81 b33f dde9 beb8 0474 b33f
00000560: 044e efc9 2d26 b43f fcee 882e 6121 b43f
00000570: 9a4e 9972 de2d b43f 3fb0 8ca4 b185 b43f
00000580: fbde d7f2 f670 b33f 5bb9 cdd5 bb3e b33f
00000590: b89b bb1d 2534 b33f 6634 814e d855 b43f
000005a0: f812 b3e9 aa08 b43f c170 dc94 dffa b33f
000005b0: 8248 5240 f04d b53f e3f3 e7fc cd2e b53f
000005c0: c09e d0ba f3be b53f 597c 5b2d 0f3b b63f
000005d0: 3125 17c2 4490 b43f 158d 00b5 7940 b43f
000005e0: 7371 b079 135b b43f f583 28f5 7a97 b53f
000005f0: 69e3 4b8f 583d b53f 059b f2f4 f227 b53f
00000600: 8b1a 7bac 8484 b63f b56f c802 7b78 b63f
00000610: ed85 83f8 1d00 b73f 0f1a aa75 58f7 b63f
00000620: 8a52 fded b0fe b53f 19fc d761 858f b53f
00000630: ba34 d7eb 7dbb b53f 8b6b 9df8 16b9 b53f
00000640: 326d 95bc ac25 b63f 10dc 415c d476 b63f
00000650: 021d 7f10 539c b73f a21b ce90 dba2 b73f
00000660: 2d63 11c5 d67b b83f 40a1 81a2 b976 b83f
00000670: a6ed af66 3e70 b73f d81e c6c8 4bbe b63f
00000680: d3cb df26 12f5 b63f f11a 460f 6ca6 b63f
00000690: 95a9 6169 5428 b73f dd73 3bd7 4392 b73f
000006a0: 5e5b 289b 0599 b83f 8b0a 6143 6f72 b83f
000006b0: 99f7 8289 2c16 ba3f c82e 707e 3628 ba3f
000006c0: 23c2 76df 1170 b83f 7a2a dc8a f1ee b73f
000006d0: cede 13ae 01bf b73f 74e1 ed92 b5c2 b73f
000006e0: 6c84 c2e8 0f2b b83f d1a1 53da 027f b83f
000006f0: 111d 4031 67be b93f a9ab 65ad bc95 b93f
00000700: 7bdd 043d a327 bc3f e0dc 00a7 564c bc3f
00000710: 58af 1078 c2c5 b93f 30b6 fab3 5cc2 b93f
00000720: 9120 5244 f8d8 b83f 576b b2a1 d9ba b83f
00000730: 420c f5a5 bf17 b93f 9809 af27 c1a4 b93f
00000740: 1205 b88d a28c b33f b031 1d2b c233 b43f
00000750: 7674 3c78 958c b43f 046c 3a36 86cb b43f
00000760: f8e7 f343 38f8 b43f e126 bbdd 4a20 b53f
00000770: 8bbf 19b3 c208 b53f 9b37 f4c5 f6d7 b43f
00000780: c489 d52a 35ee b43f c3df d7bb 65cb b43f
00000790: ad8a ac04 8359 b43f e282 b257 7a8c b43f
000007a0: 5e41 877b 52d5 b43f 65b2 db94 495c b53f
000007b0: 3074 3f27 3ad1 b53f 7ca2 0580 52b1 b53f
000007c0: 0195 dfad bf4a b53f 8de1 c740 de33 b53f
000007d0: 4541 6dc5 b6a5 b53f f30c 1e36 015c b53f
000007e0: 8705 bfa8 dcf2 b43f 7ec1 5f3d 6db2 b53f
000007f0: bbf6 efc6 7800 b63f 9af8 e1dd 49a8 b63f
0.018357262326351875 1.2803730903719857 0.07147070607105273 2.9456976041417633 0.24862460739503045 0.24730962614372742 0.22002733485561504 0.21419231050298043
0.005222065916057127 0.0022180535546300556 0.0028996364279594744 0.005021267263778837 0.0019008839129780655 0.0027970601844680364 0.004452804769638645 0.002337919791438519
0.0021718147800380092 0.004250063876489505 0.002551340655896295 0.0021549964080202276 1.74961790825107 0.5668580866672009 0.5706807321045666 1.5582586133933123
0.5270151083700189 0.6157010422231066 0.9428107529076842 0.4487047884618023 0.3015009067664099 0.9132337129800905 0.45234267838801023 0.31864482559951396
0.2491709444267091 0.2491709460048753 0.2491709460048753 0.2491709444267091 0.014827032609430845 0.010260208521822516 0.014418144568994127 0.010914193496223284
0.009752107422266305 0.007200723482608407 0.009738551496521981 0.007366230708421449 0.02795581512847098 0.0192945187819174 0.024233543920337382 0.017084371389737122
5.397209370465009 6.723998222176795 3.4954943862632804 5.810620220936803 6.651858242535974 3.3874388779178584 4.818888635953204 5.118017309377322
2.3830550924101463 4.826642767152063 4.731667119121804 2.4683225176411008 0.13613280421413637 0.17300290564459403 0.017275654949063083 0.4300280247124777
0.41113931030356793 0.4450384604342714 0.4424099985895551 0.3665256662679126 0.46028788084010236 0.47747084835369635 0.44990460296403517 0.37360811733220317
0.5572567205585495 0.44775547833659207 0.3655238138276539 0.13604949082691217 0.1736917592111669 0.017995940035487285 0.42962162638964774 0.41081664283916597
0.44463432904596883 0.4419716367246207 0.3661254086700803 0.45985480660029343 0.4769912588773846 0.449504313277194 0.3731750110980498 0.5567685290433568
0.4473070424173891 0.36511354519563055 0.07818151208349639 0.07964442017374411 0.08016915271886803 0.08061455478870388 0.08089034952607492 0.08067898958185188
0.08038553800416787 0.08006725049210302 0.0803219210300342 0.08008345666620352 0.07958342594776825 0.0819132451425569 0.08205823871865348 0.08266940420060866
0.08328754990778249 0.07606234374394323 0.07494921196453111 0.07409448060853045 0.07956989796669942 0.07923973045540943 0.08011582862999728 0.08596402836450578
0.08620357697022946 0.08651912835506834 0.08805085576141004 0.0801568699659254 0.07811927948241422 0.07727263373607783 0.08411397467380265 0.08328696496329294
0.08345392553020985 0.08986302113488952 0.08985669334859013 0.08980874783612516 0.08763361107926405 0.08461364087854803 0.08176802459184503 0.08219145965823281
0.08509103717223766 0.08795267839916196 0.08753638428284923 0.093623564968244 0.0931857866606052 0.09388004757144772 0.09137497065214263 0.08846165444444307
0.08640130566689738 0.08734791048351037 0.09086305177767562 0.09380615032274549 0.09174537292378489 0.09687945856175197 0.09579048574316922 0.09776796841355007
0.09552649825442851 0.09167864354796106 0.09156729492207206 0.09232384280638747 0.09730078985801792 0.0997837695587988 0.09578515361782171 0.09928871689950063
0.0997404422187971 0.09984423139077553 0.09879270794014804 0.09627016751743278 0.09839704274083831 0.09869748019191593 0.10670761918164236 0.1084750960057839
0.10095985047066125 0.07447011347088003 0.07624925441893916 0.07668364340432335 0.07748150583128242 0.0782673244841104 0.078186971911913 0.07796199254592509
0.07748320930502417 0.07697248616587492 0.0761945620889177 0.07598905096430238 0.07870756320999567 0.07863433252435564 0.07882490442107795 0.08016500727961871
0.07594245365896406 0.07517599077048003 0.07501441932582409 0.07943488995188516 0.07825725751451873 0.07804677376083459 0.08322049684855595 0.08274543213333589
0.08494494734679403 0.08683867318494388 0.0803263639310401 0.07910881680486555 0.07951471062592023 0.08434265599545639 0.0829673147053548 0.08264082412879865
0.08795956812819321 0.08777588670676446 0.08984553639631772 0.08971169350306972 0.08591752825061341 0.08422120703470205 0.08489214904621437 0.08485549516391992
0.08651237110227752 0.08775069477438557 0.09222907212016554 0.09232876096039758 0.09563963233211999 0.09556160180512041 0.0915564537717076 0.08884118701655142
0.08967698525502436 0.08847689984223074 0.09045913288870218 0.09207557682698515 0.09608492887524053 0.09549613375660664 0.10190084798065725 0.10217609965200858
0.0954600496832048 0.09348973884713443 0.09275827884618623 0.09281477772845453 0.09440707619298089 0.09568803625337031 0.10056157066729933 0.09994105561570045
0.10997982253762999 0.11053983285170288 0.10067382270125103 0.10062198061015049 0.09706069629658233 0.09660110662154629 0.09801862527551555 0.10017020434228241
0.07636466941768941 0.07891477158154347 0.0802701395554822 0.0812305338280766 0.08191253336909188 0.08252399361949926 0.0821649253136895 0.0814203484808033
0.08175976081614694 0.0812285979844765 0.07949084152327641 0.08026852265403364 0.08138003841236727 0.08343944439156699 0.08522380312156552 0.0847369730523812
0.08317182536082514 0.0828226955562796 0.08455984420766523 0.08343513079858038 0.08183077926425684 0.0847538256491642 0.08594469887608629 0.08850537936266037

count f8 []
00000000: 0000 1000 65cd fd41
8000000001.0

running_mean f8 [1]
00000000: 7020 6bc4 b727 7140
274.4823650536191

running_var f8 [1]
00000000: f056 a839 2c86 c140
8972.345509569597

count f8 []
00000000: 0000 4000 65cd dd41
2000000001.0

a2c_network.sigma f4 [15]
00000000: 5a79 23c0 b805 01c0 32a3 d7bf 8e8c b6bf
00000010: 3bb4 b4bf fad7 d0bf cfc8 9dbf 9b2d c7bf
00000020: 765a babf 0233 b6bf 760c acbf 997c edbf
00000030: f214 aabf 359e bfbf 2d94 ebbf
-2.5542817 -2.015974 -1.6846678 -1.4261644 -1.4117502 -1.6315911 -1.2326907 -1.5560793
-1.4558856 -1.4234316 -1.3441303 -1.8553649 -1.3287642 -1.4970156 -1.8404595

a2c_network.actor_mlp.0.weight f4 [128, 376]
00000000: a3a9 56be ffb0 c3bd e40a 9a3e 1d0e debc
00000010: c9cc 1a3c 5157 023e e633 1d3d 11b6 173e
00000020: 95fb 00be 0ac9 adbd d669 523e 2d2d b8be
00000030: d0b2 1a3e 596a 5c3e c6d5 813e a71f a43d
00000040: f3e2 053e 1872 013f fa1d e7be dd15 6cbb
00000050: 0d7e dfb8 deb1 583e d03d b7bd 22bd 1abe
00000060: 6f2f 4d3e 6ac7 923e 68b2 6bbe deb5 3fbd
00000070: b3c4 0bbd 0cb0 1abd cbb3 1c3e 7254 68bd
00000080: a75c 283e 5bed 1dbe 769e 59be 9755 333e
00000090: 1953 3e3f abc5 87be 3498 35bf 0bde 1cbf
000000a0: 0e00 a3bd b880 dc3e e715 de3f f490 e43f
000000b0: 94ef edbe 5b2d 14be 53eb a0ba c789 a23e
000000c0: f1fa 043e 4657 0fbe f406 f53d 15ee 81bc
000000d0: b3de cebd b7ca c63d 8670 0c3e 60a3 6d3e
000000e0: 6f39 f8bd 09fe 233c d78e 123e fdb6 65be
000000f0: 17cd a23e 6344 a8be d6d1 95be bf7e 5dbe
00000100: a876 9f3d a95a bd3d 4143 e9bd 83ac 61bd
00000110: 77b4 48be 06ff 053e 91a1 94bc f03d 863d
00000120: ff67 94bd 5381 a2bd 8204 4d3e 0dc6 95bd
00000130: f68f 813c 2649 00be 5c62 27be 7cca 873e
00000140: a2a1 363c d90f 85bd e1b5 12be 2413 28be
00000150: 1b1a fabd 01b2 f13c 81c3 36be 61e8 91bd
00000160: 0232 93be 73cc 3dbc fa1d 6ebc 9fa0 c6bd
00000170: 3d05 e3bc 2c7c 19bc e216 16bd d83a babb
00000180: 9b93 06be 6638 43be 0e94 19bd 1599 09be
00000190: 4394 57bd d6ed c1bc 06b3 85be d642 e03c
000001a0: eb8d 79be 3c08 943d 87aa 713c 77bd ff3d
000001b0: 2098 43be d580 853d 3fe7 2d3d e752 343d
000001c0: 4d66 06bd 09a3 193d 5b14 95bd e732 a93d
000001d0: 50c5 2c3d 5d4a 2ebe 1dab 89bd 4e06 373d
000001e0: dbb9 fabd fd4b 0c3d 46e1 8c3d 9493 9dbd
000001f0: f237 16bd 1b2b 14bd 58d4 aa3d a646 84bd
00000200: 6737 47bc a43b 453c c152 e33d c9b5 053d
00000210: ec2d d23c 906f f5bd 309d 86bd b02c e9bd
00000220: 721f 7b3d 7b36 883d b8ff 4f3e 97c6 86bd
00000230: 2af9 633d b4ce ab3d d570 8c3b 005d 9fbd
00000240: 2cd5 e03d a059 9abe d76f 5b3d 7175 32be
00000250: 17cb 0bbc 6e8c 083c c7dd babd 82d4 003e
00000260: 21a9 3b3d c214 d2bc 7a3b 293e cdbb 443d
00000270: 272f 82be b1c8 8c3d 94de 853d e8dc 5c3e
00000280: a357 10be ca78 b8bc f84b 9d3d c76c f93d
00000290: f9d7 093e 237b fe3d ea5c ddbc 6f83 2c3e
000002a0: de32 f8bd 6663 403b 69fd 52bc 59a9 323e
000002b0: 275c 08bb 4184 8dbc b544 68bd a8e1 debd
000002c0: 53af 933d f03f 56bc 0bb8 01be c013 f4bb
000002d0: 5fd5 9f3b eed3 92bd d188 33bd 5202 be3d
000002e0: 9cda afbd 7a58 05be 5aa9 133d 9860 283d
000002f0: 69c7 19bd 29df 043c 218e 8e3d 896a 9bbc
00000300: 6bf9 933b 4c80 14bd 64cf 1d3d 7805 043e
00000310: 032e 7fbd 7e25 38bd 02de 76bc d8be 28be
00000320: 0cb5 bebd 3e7e 803c 7193 3d3d 4c91 1fbe
00000330: bc50 8cbd 43cd 213e 0676 88bd 4577 e03d
00000340: 2f32 e83d 3ea9 5cbd 6de5 a83c 74b2 cc3d
00000350: 73db b8bd 3588 ed3c 5fbc 143b add8 7d3d
00000360: 83e3 bcbd 9150 5abd d4e5 2d3d ea32 73be
00000370: 9fdb fd3c a9b2 133d 94b9 0c3e d13c 3e3b
00000380: 9704 ab3d a4c7 473d 6480 93bd 4eb5 2dbe
00000390: acd0 133e 7493 01bd 438c 3c3e f9c9 0d3d
000003a0: 9a98 ffbd 6dcf 973d c4c3 df3d 450c 20be
000003b0: c53a e6bc 7fb8 df3d 5d7b 033e d691 003e
000003c0: 9306 1a3e a131 b23d 2b31 ee3d 6113 12bd
000003d0: 94eb 4abc 5bae a73d 582b 063c 46d2 73bd
000003e0: 6066 a83c dd30 c5bc 53b3 0f3c 740f 83bd
000003f0: f6c2 9bbd 5214 f13d 5bdd 443d d32e a7bd
-0.20963149 -0.09555244 0.30086434 -0.02710634 0.009448239 0.12728621 0.038379572 0.14815547
-0.12595971 -0.08485611 0.20548186 -0.35971966 0.15107274 0.21524943 0.2535841 0.0801385
0.13074856 0.5056472 -0.45140058 -0.0036023774 -0.000106569474 0.21161601 -0.08947337 -0.15111211
0.20037626 0.28667766 -0.23017275 -0.0468043 -0.034123134 -0.037765548 0.1530296 -0.05672116
0.16441594 -0.15422575 -0.21251854 0.17513119 0.74345547 -0.26517996 -0.7093537 -0.6127631
-0.07958995 0.43066955 1.7350434 1.7856736 -0.46471846 -0.14470427 -0.0012277163 0.3174574
0.12986352 -0.13998136 0.11964217 -0.015860597 -0.1010107 0.097066335 0.137148 0.23206854
-0.121203296 0.010009297 0.14312302 -0.22433086 0.31797096 -0.32864675 -0.29261655 -0.21630381
0.07786304 0.09245808 -0.11389781 -0.05509616 -0.19600092 0.13085565 -0.018143447 0.065547824
-0.07246398 -0.07934823 0.20021251 -0.07313166 0.015815716 -0.12527904 -0.16346115 0.2652167
0.011146935 -0.06497163 -0.14327194 -0.16413552 -0.122120105 0.029503824 -0.17848016 -0.07124401
-0.2874909 -0.011584389 -0.014533514 -0.09698605 -0.027712459 -0.009367984 -0.036642917 -0.0056832843
-0.13142245 -0.19064483 -0.03749471 -0.13437302 -0.052631628 -0.02367298 -0.26113147 0.02737562
-0.24370544 0.07228133 0.01475013 0.124873094 -0.19101 0.065187134 0.04245686 0.044024374
-0.032812405 0.037508998 -0.07279273 0.08261662 0.04218036 -0.17020555 -0.067220904 0.044683747
-0.1224248 0.034252156 0.06878905 -0.07694164 -0.036674447 -0.03617392 0.083412826 -0.064587876
-0.012159205 0.012038145 0.110997684 0.032644067 0.025656663 -0.119841695 -0.0657295 -0.113854766
0.061309285 0.06651016 0.20312393 -0.06580847 0.055657543 0.08389035 0.0042859116 -0.0778141
0.10978159 -0.30146503 0.053573456 -0.17427613 -0.008532307 0.008334262 -0.09124332 0.12581065
0.04581559 -0.025644664 0.16526595 0.048030663 -0.254266 0.06874216 0.06536594 0.21568644
-0.14095931 -0.022518534 0.076805055 0.12178951 0.13461293 0.1242583 -0.027021844 0.16847013
-0.12119077 0.002935612 -0.0128778005 0.17447414 -0.002080688 -0.017274978 -0.05670615 -0.10882884
0.07211175 -0.013076767 -0.12667863 -0.0074486434 0.0048777307 -0.07169329 -0.04383165 0.09277786
-0.08586618 -0.13022032 0.036050178 0.041107744 -0.037543688 0.008109846 0.06960703 -0.018971698
0.004515817 -0.036255166 0.03852786 0.12892711 -0.06229974 -0.04495763 -0.015067579 -0.16479051
-0.09311876 0.015685197 0.04628319 -0.1558277 -0.06851336 0.15800957 -0.06663136 0.10960249
0.11337697 -0.05387234 0.020617211 0.09994975 -0.090262316 0.028995613 0.0022695286 0.061974216
-0.09223082 -0.05329949 0.04245551 -0.23749891 0.030988513 0.036059055 0.13742667 0.0029027949
0.08350485 0.048774377 -0.07202223 -0.16963693 0.14435071 -0.031634763 0.1841288 0.034616444
-0.12480278 0.0741261 0.10926011 -0.1562968 -0.028104195 0.10923862 0.12840028 0.12555632
0.1504157 0.08700872 0.11630472 -0.035663012 -0.012385268 0.081875525 0.008189045 -0.059526704
0.020556629 -0.024071151 0.008770782 -0.06399432 -0.07605545 0.11771454 0.048062664 -0.08163228

a2c_network.actor_mlp.0.bias f4 [128]
00000000: 0146 9fbe aa11 73be 2e65 d9be cb02 cdbe
00000010: 888d 39be cc8e 3bbd fd37 abbe b9fc 49be
00000020: 17ac 8bbe f8a9 c0bb b759 cdbd 02fb e9bd
00000030: 2658 9abe 9291 70be eea4 a9bc 6812 debe
00000040: ce26 733c 1460 11be 4c1a b3be 5be1 05bf
00000050: 17ab 59be 99b7 bbbe 87d9 d2be 4b8f d6be
00000060: e8db 543d a46e 9bbd 9326 82be cd9e 86be
00000070: c467 babc 47ff 0fbf a504 e9be 38f0 8dbe
00000080: 5554 c3be d2d1 36be 2f07 1bbe 6322 6abe
00000090: b9bc 603d 3906 67be 2a72 8ebe a842 c2be
000000a0: 3810 36bd 0255 c9be 3ede 85be 58da 0dbd
000000b0: 37a3 72be 6538 cdbb 3cbb 7abe 7dc9 97be
000000c0: e0bd cebe 8224 b8bd 3606 2ebe 8275 77bd
000000d0: a155 38be d579 a2be 3cd0 04be f6d5 dfbe
000000e0: b9b2 95be 274e aabe 7939 c9be f0b4 9ebe
000000f0: 18c1 69be 049e 5cbc 01f2 89be 19d1 d5be
00000100: 9d01 a8be 84dd 8bbe 37b6 66bd 357b 28be
00000110: 43d7 e7be ffa9 dbbd 6102 b23d bf1e f9be
00000120: a7ae 42bd 8ba3 c9be bb85 9abe 2304 b7be
00000130: dd65 2fbf ac88 bebd 099f c8bd 7587 cbbe
00000140: a36f fdbe 4b77 c8be 3ba7 9bbe b249 30be
00000150: 7c31 81be fe8b 00be a91a 02bf 08d9 2dbd
00000160: 63e7 52be 2ec2 24bf bf6a 5cbe 6e3d 83be
00000170: 2c75 01be b0ab cebe cb27 41bd 3fe2 f0bd
00000180: 9392 45be 6fb4 60be 15dd 7bbe 0f48 07bf
00000190: 74e7 ecbe 2a4e 8cbc 9b51 86be dbc0 88be
000001a0: b0c7 37be 69fe a0be 1b04 7bbe 9ef4 18be
000001b0: 3bb4 a6be 0fb8 a7bd 15c0 1cbf 272e debe
000001c0: ad63 a7be c6cc 0abe 46cf 07bf a647 40be
000001d0: 6d19 ccbe 7c06 a6be be9d 56bc fee7 b1bd
000001e0: 150d aabe f9ff 43be 2225 97be 6a46 463d
000001f0: 1773 d6bd 4a25 88be ee7d 46be 5cc5 bdbe
-0.31108096 -0.23737207 -0.42460006 -0.40041193 -0.18120396 -0.04579048 -0.33441153 -0.19725312
-0.27279732 -0.005879637 -0.100268774 -0.11424829 -0.30145377 -0.2349303 -0.020708527 -0.43373418
0.014840795 -0.14196807 -0.34981 -0.5229699 -0.21256672 -0.3666351 -0.41181585 -0.419062
0.05196753 -0.075894624 -0.25420055 -0.2629303 -0.022754557 -0.562489 -0.45511356 -0.27722335
-0.38150278 -0.17853478 -0.15139459 -0.2286468 0.05486748 -0.22560968 -0.27821475 -0.3794148
-0.04444906 -0.39322668 -0.2614612 -0.034632057 -0.23695074 -0.0062628263 -0.24485487 -0.2964591
-0.40379238 -0.08991338 -0.16994557 -0.0604148 -0.18001415 -0.31733575 -0.1297006 -0.43717927
-0.29237917 -0.3326275 -0.3930166 -0.3099742 -0.22827566 -0.013465408 -0.26942447 -0.4176109
-0.3281373 -0.2731744 -0.056326117 -0.1645325 -0.4528142 -0.107257836 0.0869186 -0.4865627
-0.047529843 -0.39382586 -0.30180153 -0.35745344 -0.68514806 -0.09303412 -0.097959585 -0.39751783
-0.49499235 -0.39153513 -0.30401024 -0.17215613 -0.25233066 -0.12553403 -0.5082193 -0.042443305
-0.2059608 -0.64358795 -0.21525095 -0.25632805 -0.12642354 -0.40365362 -0.04715709 -0.11761903
-0.19294195 -0.2194383 -0.24596055 -0.5284433 -0.46270335 -0.017127115 -0.26234135 -0.26709637
-0.17947268 -0.314441 -0.24513285 -0.14937064 -0.3255938 -0.08189403 -0.61230594 -0.43394586
-0.32693234 -0.13554677 -0.5305065 -0.18777332 -0.39863148 -0.32426822 -0.013099132 -0.08686827
-0.33213106 -0.19140615 -0.29520518 0.048406996 -0.104711704 -0.2659095 -0.19383976 -0.37064636

a2c_network.actor_mlp.2.weight f4 [128, 128]
00000000: 16a7 383e aea1 1d3e 79ad 8c3d c35b 84bd
00000010: d2d3 83bd 1196 82bd f215 973b f67b b33d
00000020: eaf5 1fbe f7ff 88bd b05f 503e 480b acbc
00000030: bdfa 90be b666 8cbd de60 34be 7f5a c2bd
00000040: d2e6 dfbd 125b d4bc 2e93 fabd 4ca2 51be
00000050: 3d8b aa3d c4c9 4f3d a0f4 6fbe fd7a b83d
00000060: 5e89 f0bd 552e 2fbe 5fa6 fa3b 0e3c 01bd
00000070: cb2c 64be 183c 983d ee9e e23d 41e7 82be
00000080: 8c49 31be 7555 8fbd 5167 6cbd 36ad 03be
00000090: 7750 403d 4d7c 413d 63d5 19bd 3eb7 913d
000000a0: 34b8 353e c004 a73d 0518 bd3d 4c11 ab3d
000000b0: 5b99 8c3c 0ab1 aabc c65c 8a3d d4d7 2abe
000000c0: 124f 833c 1c85 55be e0a1 4bbe 4504 6c3e
000000d0: 4fff ba3d 80ad f73c 5cfc aabd f039 1f3d
000000e0: aaf6 13be 754c 1cbe 18c6 9fbd 4558 dd3d
000000f0: f128 f43d 4e66 363e 72b6 45be 0fff f33c
00000100: 0aac b13d fe8f c03d 1121 20be edb3 c9bd
00000110: fcca 7cbe 26e0 2e3e 877d 00be 0793 42bd
00000120: fa7c ef3d a9a8 1dbe c21b cbbd 982e f13c
00000130: 9069 943d b7d8 a9bd 086c 473d 8869 f8bd
00000140: 17c8 6d3d 9a6f 25bd 2914 09bd cb92 ddbd
00000150: 1ba5 33be aa07 0dbd 29fa 49bd 337a 97bc
00000160: 0d79 7fbe a1da 093c 1e17 0dbe df6b 98be
00000170: 7643 1cbe de41 093d ed74 74be 9e02 3ebe
00000180: 8bea b93c dae6 9bbd c813 8b3d de75 e03d
00000190: e38a 3e3c 1c7d 9c3d a42a 663d e5c8 28be
000001a0: e8e3 16bd 8ddd 57be 0ad9 31be 203b e5bd
000001b0: 0518 b9bd 642c 5abe 53ea 9c3d 16f6 05be
000001c0: 797b 5dbe b433 0f3e 605e 37bd 2836 f53d
000001d0: fd29 0a3e ed63 2cbc a042 01be 709b 2ebe
000001e0: 0543 c4bd d0b3 43be 80ae babd 8262 373d
000001f0: 3d20 52bd 3430 93bd 4c17 b73d 7b04 a53d
00000200: 4732 993d 5996 82bd 5903 d63d 978f 87bd
00000210: daa8 c93d 8341 7f3c 77f2 bebd bc7b 0ebd
00000220: 46c5 30be aa86 5abd 44bf cf3d 30e1 1dbd
00000230: 468f 3dbe d82a 0a3d ac36 4ebe dded 293d
00000240: c5eb e93d 1cad 80be fd10 58be 5bfb a4bd
00000250: a4cd 6abe 5cab 833c 0e9a 8a3c 3f86 d63d
00000260: 652a 65bd 1bf7 3e3e 3ebd 6a3d ea31 dc3d
00000270: f323 75bd 744b a4bd 3149 53bd 7c04 8bbe
00000280: 1238 e23c 8628 49bd 63d3 83bd 2632 583d
00000290: 0258 9fbd 6679 1cbe e3c5 5b3d 89a2 973c
000002a0: 3653 efbd 4e3a 913d 676a 31be bf71 d7be
000002b0: cfe7 ccbd c3c9 94bd 3c09 033e b018 b6bd
000002c0: 1d99 313b 3df9 e8bb e065 e3bd 1091 00bc
000002d0: 1d80 873c 1aab 95bd 3225 263d fefe f33d
000002e0: 31f3 46bd a86f fdbd caf2 d43d 22ef 3d3b
000002f0: c168 65bd a0b8 f8bc 616d a73c ce1f 45bd
00000300: 6235 253e bc57 26be 4592 f5bd 663b 54bc
00000310: 2e29 133e 61aa d8bc d57f 123c 72d1 91bc
00000320: 5394 04bf 0428 0f3e 6b21 9cbd 1610 54bc
00000330: 1fd1 e0bd 5f7a 74bc 9553 9ebd 0e74 3b3e
00000340: c548 753d ac45 ee3b dac6 4fbd 9463 533b
00000350: 8403 a13d 696d 08be a011 22be b4bc 5abd
00000360: ef5f aebd 2dc7 3ebd 0090 0e3d ac57 c43d
00000370: 5580 803d 3552 8dbc a0e5 e7be e81b 25be
00000380: cb35 05be 3c9b 11be 8685 7e3d 5e03 e4bc
00000390: c9b2 f6bd e342 47be 3a53 83be ae68 3d3e
000003a0: b5bc 15be 6e5e 6abd 2e34 b13d 92bf 13be
000003b0: ac23 55bd 4970 f83d 4b24 1f3e fe53 23be
000003c0: 4066 e53d 8bec 9a3d e11e c5bd 48cf e33d
000003d0: e191 a83d 24b9 cbbd bc28 b9bd d5e4 863d
000003e0: 7da8 6fbc 55a9 cfbc 8d06 5e3e 7122 be3d
000003f0: c89d 89be 45c9 c43d ca5d 1a3e 474c 1ebe
0.18032488 0.15393707 0.06869025 -0.06462815 -0.06436886 -0.06376279 0.0046107704 0.08763878
-0.15621153 -0.066894464 0.20349002 -0.021001473 -0.28316298 -0.06855528 -0.17615077 -0.09489917
-0.10932697 -0.025922332 -0.122351035 -0.20472068 0.08327339 0.050729528 -0.23433161 0.09007833
-0.11744951 -0.17107518 0.0076492275 -0.031551413 -0.22282712 0.07433337 0.1106547 -0.25567058
-0.17313212 -0.069987215 -0.057715718 -0.12859043 0.046951737 0.047237683 -0.037557017 0.07115029
0.17746049 0.08155203 0.09233097 0.083529085 0.01716297 -0.020836372 0.067559764 -0.16683894
0.016028915 -0.20851558 -0.19885969 0.23048504 0.091307275 0.030234098 -0.08348915 0.038873613
-0.14449564 -0.15263541 -0.07801455 0.10807852 0.119218715 0.17812464 -0.19307879 0.029784707
0.08675392 0.09402464 -0.15637614 -0.09848771 -0.24686807 0.17077693 -0.12547885 -0.047503497
0.11693759 -0.1539637 -0.09917404 0.029441163 0.07246697 -0.08293288 0.04868701 -0.121295035
0.05805215 -0.040389635 -0.03346649 -0.10819014 -0.17543451 -0.034431137 -0.049310837 -0.018490886
-0.24948521 0.008413942 -0.1377835 -0.297698 -0.1526011 0.03351008 -0.23872729 -0.18555686
0.022694847 -0.07612391 0.06790882 0.109599814 0.011629793 0.0764105 0.05619301 -0.16482885
-0.036838442 -0.21080609 -0.1736795 -0.11192918 -0.090377845 -0.21305996 0.07661881 -0.13082156
-0.21629132 0.13984567 -0.044767737 0.1197322 0.1349258 -0.010521871 -0.12623072 -0.17051482
-0.095830955 -0.19111562 -0.091153145 0.04477168 -0.051300276 -0.071869284 0.089399904 0.08057495
0.07480293 -0.06376333 0.10449857 -0.066191845 0.09846659 0.015579584 -0.0932359 -0.03478597
-0.17262754 -0.053351082 0.10143903 -0.038544834 -0.18511686 0.033732265 -0.20138043 0.04148661
0.114219226 -0.25132072 -0.2110023 -0.08055755 -0.22930008 0.016072921 0.016919162 0.10474824
-0.055948634 0.18648951 0.05730938 0.10751708 -0.059848737 -0.08022204 -0.051583473 -0.2715186
0.027614627 -0.04911091 -0.06436803 0.0527822 -0.07780458 -0.15280685 0.053655516 0.01851012
-0.11685793 0.07091199 -0.17325746 -0.4207897 -0.100051515 -0.072650455 0.12796491 -0.088914275
0.002709932 -0.0071097896 -0.111034155 -0.007847086 0.016540581 -0.07308026 0.040562816 0.1191387
-0.04857177 -0.12374812 0.10397871 0.0028981646 -0.056008104 -0.030361474 0.020437898 -0.048126034
0.16133645 -0.16244406 -0.11990789 -0.012953615 0.14371178 -0.02644843 0.00894161 -0.017800067
-0.51788825 0.13980108 -0.076235615 -0.012943288 -0.10977387 -0.014921754 -0.07730786 0.1830599
0.05988385 0.007271489 -0.05072675 0.0032255398 0.07861999 -0.13322987 -0.15827036 -0.053402618
-0.08514392 -0.046576668 0.034805298 0.095870346 0.062744774 -0.017251113 -0.45292377 -0.16123927
-0.13008802 -0.14219373 0.062139057 -0.027833637 -0.12045819 -0.19459109 -0.25649434 0.18496963
-0.14622767 -0.05721896 0.086525306 -0.14428547 -0.052035972 0.12130792 0.15541188 -0.15950009
0.11201143 0.07564648 -0.0962503 0.1112352 0.08230949 -0.09947422 -0.090409726 0.06586615
-0.014627573 -0.025349298 0.21682186 0.09283913 -0.2687819 0.096087016 0.1507484 -0.15458785

a2c_network.actor_mlp.2.bias f4 [128]
00000000: 464c 283d 68ba 0bbe 53ae 0ebd a9b0 6fbe
00000010: d4eb 1fbd 7c4e d53c 5882 e3be e225 6abe
00000020: d509 16be 35aa 4e3e 3027 173c cea2 0bbe
00000030: 66dd 04be 3ccd db3d eaf3 3d3e 9616 94be
00000040: 9d71 253e ebf9 583a 207a d53c edc0 5f3d
00000050: ed8f 26be d141 833d 06e3 213e 3a1f 923d
00000060: 48ee 0e3e c81c ba3d fd13 073e fe9b 3dbe
00000070: 6568 1e3e b483 b5be eca8 89be 947a 30be
00000080: 2864 30bd fa79 12be 1eb7 82be 05d5 4bbd
00000090: 4eb7 e23d 00e8 4cbe c3e8 593e 424e d33d
000000a0: ea7d a9be 5406 d53d 7736 57be 0277 94bc
000000b0: f37c 64be f4b9 933d 1cba f73b 54d1 9d3c
000000c0: c7e7 9bbe 9ca6 c73d 253f 11be 6abc 953d
000000d0: f121 583d 4178 83be bef1 4d3b dd96 c73d
000000e0: 69c5 50bd d3e5 36bd aa6f 43be d165 0c3e
000000f0: 01bc 0abe d104 bfbd b807 80be 9990 d6be
00000100: a77d 3fbe 7f77 88be 839c 3fbc f418 28be
00000110: c631 853d 5ffc 3cbd fb93 eebd adc7 dcbc
00000120: 7b33 ebbd b99f 95bc cb61 af3d 5a68 233e
00000130: 9b84 023e d0b7 3dbe 4259 77bd 0168 24bd
00000140: a225 aa3d a20b 183e c0c6 d53d 7c00 2a3d
00000150: c3ed 83bd 19ec c3b9 0b10 273e a33d 513e
00000160: e5ea c73d 1a0c 293e ef87 f2bd 145e c63d
00000170: 8778 c1be 5f4f 643e b14b c2bd b347 f73b
00000180: 146e 223d 8675 c1bd b8e9 1e3e c690 12be
00000190: 42d5 bfbd 3015 24be 9bbd 083e f0e6 90be
000001a0: 8b2c dd3d 9165 aebe 228d e6bd 4a21 0cbe
000001b0: a298 e93d cbed 61be 5427 10be 6ccc 0ebe
000001c0: 75f1 f33d 4a7e 95bc c354 af3d b407 05bd
000001d0: f0a4 82be 01a3 3cbe b7f2 aabc 1f9f 383e
000001e0: c325 43be 269f a4bd bd3a 8bbe efc7 0bbf
000001f0: 12fd e13d 0d6f 1bbe ff80 93be f840 24bf
0.041088365 -0.13645327 -0.034834217 -0.23407234 -0.039043263 0.0260384 -0.44435382 -0.22866014
-0.14652188 0.20182116 0.009225652 -0.13636324 -0.12975082 0.10732505 0.18550077 -0.28923482
0.16156621 0.0008276987 0.02605921 0.054627348 -0.16265841 0.06409038 0.15809259 0.07134862
0.13958085 0.09087521 0.13191219 -0.18516538 0.15469511 -0.35452044 -0.2688669 -0.1723426
-0.043064266 -0.14304343 -0.25530332 -0.049763698 0.11070119 -0.20010376 0.21280198 0.10317661
-0.33103877 0.104015976 -0.2101687 -0.018123154 -0.2231329 0.07213202 0.0075600278 0.019264854
-0.3045027 0.09748575 -0.14184244 0.07311328 0.052766744 -0.25677684 0.0031424607 0.09745572
-0.050969515 -0.04465277 -0.19085565 0.13710715 -0.1354828 -0.093270905 -0.2500589 -0.41907194
-0.18700276 -0.26653668 -0.01169503 -0.16415769 0.06503634 -0.046139117 -0.11649319 -0.026950682
-0.114844285 -0.018264638 0.085635744 0.15957776 0.12745897 -0.1852715 -0.060387857 -0.04013825
0.08307959 0.14848188 0.10438299 0.04150437 -0.06441834 -0.00037369205 0.16314714 0.20433669
0.097615995 0.16508523 -0.118423335 0.09685913 -0.37787268 0.22295903 -0.09487093 0.007546389
0.03965576 -0.09446244 0.15518844 -0.14313039 -0.093668476 -0.16023707 0.13353579 -0.2830119
0.107995115 -0.34061864 -0.11257388 -0.13684574 0.114060655 -0.22063367 -0.14077502 -0.13945168
0.11911289 -0.018248696 0.08561089 -0.03247805 -0.25516462 -0.18421556 -0.020867689 0.1802945
-0.19057374 -0.08038168 -0.2719325 -0.5460195 0.110345975 -0.15179081 -0.28809354 -0.64161634

a2c_network.critic_mlp.0.weight f4 [128, 376]
00000000: 1913 bf3d d7f7 62be 0190 97be 2953 31be
00000010: 5a8f 9d3d 1a77 e33d df16 0fbe ea7a a83d
00000020: b47b b4be 1ede 26be de14 c4be 4587 3ebe
00000030: 5a84 933e ce24 943e fc8e d53e d115 363f
00000040: de97 80bc 7ac8 b13e 5822 96be 3f50 563e
00000050: 5f75 11bd c70d 233e c921 383d ce08 153d
00000060: 6261 90bd bf97 263e fc37 b93d 5e15 633e
00000070: f689 503d 16af acbd d72d 383e dc89 443d
00000080: 521c 7f3d 0155 61bc 829b f33a 50d2 c93c
00000090: e5ea 883d ba56 353e 687d 353e e48e 123f
000000a0: fb4b 143f 3a0b 0dbf d4d6 033e ef21 253e
000000b0: c5ac a3bb 2c15 ac3d 90fc 0f3e 2b24 e0be
000000c0: 0099 e7bc 6b09 bfbc fbcf fa3b a657 2e3d
000000d0: 3632 f63c aef7 9abc 14f6 c6bb d3ef 3e3c
000000e0: 245d 31bc c9d4 86bc f341 b43d d079 0e3d
000000f0: 56c1 63bd b038 99be 21f7 8cbe d67c e63d
00000100: a026 26be b653 2bbd 1022 f3bc 099b 45bd
00000110: 1e83 39bd 78eb 1bbd 7158 b4bd ef19 1abd
00000120: 4e80 093e 04bd 8d3c ef91 6ebd 0d89 f0bd
00000130: f78a 43be b29c 27be 4f26 183c 7f3e cabd
00000140: a6b9 56bd 21be 383d 8bbb bdbd 0f83 9abc
00000150: 5157 553e 4f84 a73d 8617 273d a083 373d
00000160: ceec 253d 7d1b 623d 0aed d0bb 2d90 75bd
00000170: 7c81 8e3c 010c cfbc da34 513c c813 66bc
00000180: 097f 24bd 10f1 45bd 5931 e6bc 017d 733d
00000190: fc56 043d d450 733c b028 08bc c5b2 873b
000001a0: dc52 b0bb 28e7 373d 6480 0b3d fa51 3bbd
000001b0: 98e9 a93c 546c 063d 75c6 7e3d 1c2f b03c
000001c0: 5874 223c 51cf 0abd 2bae 8c3c b35f ffbb
000001d0: 3743 52bb 56d0 7fbc b62b 97bb a532 bc3c
000001e0: d106 523d 8703 8a3d 8f73 fe3c 64c7 0f3c
000001f0: 1de4 03bd d489 573c 37d7 233d 88a6 0e3d
00000200: 9c26 423d e08d a5bb c90f c63d 9124 9d3d
00000210: 71f9 253d 8fbd 663d 33f7 523c d1c2 883c
00000220: e210 c9bb 2a63 1d3d 8c54 c4bc d331 743d
00000230: 50b4 593d 7e90 8d3d a4e2 c83c 4ffb 043d
00000240: ede3 83bc 3c96 193d 312f 31bd 5c1e 353d
00000250: a671 173d 4b1a 213d c708 883c 5202 80bc
00000260: ed51 fdbc 3451 f8bd 8175 d536 1259 a93d
00000270: 75d4 2f3e cc4d 043e c077 a23d b9d7 18bd
00000280: b975 103d 3137 963d 1e88 21bd 06be 8f3d
00000290: ff3f 763a 6293 5f3c 2033 8b3c 7385 b23d
000002a0: 29bf 703d c86b 73bc b867 0d3d d296 4b3d
000002b0: 5cbe 09bd 1f53 8e3c 9a0d cc3a f23c fc3c
000002c0: c168 483d daa5 99bc b665 f53c a2a8 d4bb
000002d0: 6051 923a ff4b bf3c e2bf 59bd e5cf 373d
000002e0: cbb9 14bd c2f3 ca3c c020 74bd 133a a7bd
000002f0: bc91 3c3b f398 81bc c25a 5ebd 3573 0fbc
00000300: 506d 18bd 65be d03c 70f3 ec3b ed99 d2bc
00000310: 7366 06bd 1a81 78bd 13f4 8cbc e2b5 50bd
00000320: 3562 1abd b424 80ba f30d aebd b6c0 0fbd
00000330: 76c0 013c 5436 96bd d045 163d 0520 3fbd
00000340: d7b6 3a3d 8232 58bd c33c 92bd 3b4d 19bd
00000350: 4a2b 74bd 5371 abbd e8f5 80bb b4ec e2bc
00000360: a043 083d 784b 34bd 0b25 063c 05b0 a3bd
00000370: e342 bcbc e809 b13c 0769 e639 2bd5 c5bd
00000380: f6fd 67be c339 f13d 3518 2b3e c883 86bd
00000390: 23b8 ed3d 69e2 4abd d8e2 923d fdfe dd3c
000003a0: 787c 983d 7f82 45bc 8693 8b3c 66a4 aebb
000003b0: e1d8 d9bc 70bb f0bc 7a4b 34bd 2f05 a43d
000003c0: 9670 913c b8e5 8a3d 8adf 223d 2700 36bd
000003d0: 5582 ab3b ab42 2f3d 0148 28bd a31c 9ebd
000003e0: 9691 3cbd 8432 a53c 2ec6 80bd 075a 5cbc
000003f0: bcaf b3bc ba88 c5bc 8276 00bd f6f7 803d
0.093298145 -0.22164856 -0.29602054 -0.1731688 0.07693358 0.11106701 -0.13973568 0.08226569
-0.35250628 -0.16295668 -0.3829717 -0.18606289 0.28811914 0.2893433 0.4171065 0.7112704
-0.015697416 0.34723264 -0.29323077 0.20929049 -0.035512324 0.15923224 0.044954095 0.03638535
-0.07049824 0.16268824 0.09043881 0.2217612 0.05091282 -0.084318325 0.17986237 0.047983035
0.062282868 -0.013753177 0.0018585774 0.024636418 0.066854276 0.17708865 0.1772362 0.57249284
0.57928437 -0.55095255 0.12874919 0.16126226 -0.004994961 0.08402476 0.14061189 -0.43777594
-0.028271198 -0.02331992 0.0076541877 0.042564057 0.03005324 -0.018916931 -0.0060718153 0.011653858
-0.010825429 -0.016458886 0.08801641 0.03478414 -0.0556043 -0.29926062 -0.27532294 0.11254279
-0.16225672 -0.04182788 -0.029679328 -0.048243556 -0.04529106 -0.038066357 -0.08805931 -0.03762239
0.1342785 0.017302044 -0.058244642 -0.1174489 -0.1909598 -0.16368368 0.009286477 -0.098752014
-0.052423142 0.045103196 -0.092642866 -0.018861322 0.2083409 0.08179533 0.040793918 0.04480326
0.040509038 0.055201996 -0.0063759135 -0.05995195 0.017395727 -0.025274279 0.012768948 -0.014042802
-0.040160213 -0.0483256 -0.028099703 0.059445385 0.032309517 0.014850814 -0.008310482 0.004141184
-0.0053809714 0.044898182 0.03405799 -0.045732476 0.020741269 0.032818154 0.062200982 0.021506839
0.009915434 -0.03388912 0.017172894 -0.0077933907 -0.003208352 -0.015613636 -0.004613365 0.022973368
0.051276032 0.06738954 0.031060962 0.008775566 -0.032199968 0.013155419 0.040000167 0.034826785
0.047400102 -0.005052313 0.096709795 0.0767299 0.04052109 0.05633312 0.01287632 0.016694458
-0.006136046 0.03842465 -0.023966096 0.05961783 0.053150475 0.06912325 0.024522133 0.03246623
-0.016099894 0.03749679 -0.043257896 0.044218406 0.036973618 0.039331716 0.016605748 -0.015626106
-0.030922854 -0.12124863 6.361574e-06 0.08268942 0.1717089 0.12920302 0.07932997 -0.037315104
0.03526852 0.07334746 -0.039436452 0.07018666 0.00093936914 0.013645979 0.016992152 0.0871686
0.058776055 -0.01485724 0.034522742 0.04970438 -0.033628806 0.01737362 0.0015568018 0.03079078
0.048928026 -0.018755842 0.029955726 -0.006489829 0.0011163168 0.023351667 -0.05316151 0.044875998
-0.03631 0.024774436 -0.059601545 -0.08165374 0.0028773388 -0.015820002 -0.054285772 -0.008755495
-0.037213624 0.025481412 0.0072311684 -0.025708163 -0.032812547 -0.060669996 -0.017206227 -0.050954707
-0.037691314 -0.0009776563 -0.08498754 -0.035095893 0.007919421 -0.07334581 0.036687672 -0.046661396
0.045584526 -0.052782543 -0.07140496 -0.03742717 -0.059611596 -0.08371224 -0.0039355643 -0.02770076
0.033267617 -0.044017285 0.008187543 -0.079925574 -0.022981113 0.021611169 0.0004394727 -0.09659799
-0.22655472 0.11778595 0.16708453 -0.06568104 0.11607387 -0.049532328 0.07172173 0.027099127
0.074456155 -0.0120550385 0.017038118 -0.0053296564 -0.026592674 -0.029386252 -0.044017293 0.08008801
0.01775388 0.067820966 0.039763965 -0.04443374 0.0052340426 0.04278819 -0.041084293 -0.07720306
-0.04603728 0.02016569 -0.062878 -0.013449199 -0.021934383 -0.024113048 -0.031363018 0.06297295
