python/rlgpu/saved_nn/123/last_Aliengoep=1250rew=[5442.53].pth (torch, 539546 bytes, 18 tensors)

running_mean f8 [376]
0	0xbfa0956db3632250	-0.032390049121720055
1	0x3f1cb37be0b98186	0.00010948604192995677
2	0xbf5ec8bf427e9765	-0.001878916527837637
3	0x3f834f1f74a3ca97	0.009428258654655948
4	0x3fde0e405d9f02d4	0.46961983816804076
5	0x3fdd9b848903d819	0.462617048076369
6	0x3fe4a6584354bb9b	0.6453057589586594
7	0x3fe4fb9fd9c49b23	0.6557158711701486
8	0x3fa4ca91c584ea0f	0.04060798202631954
9	0x3fbb49919db5a4f9	0.10659132099467063
10	0xbfd2ea40051e1223	-0.2955474901175725
11	0x3fabb45d4b81963c	0.05411044642168547
12	0xbfb89ce19edf6d7d	-0.09614381912927246
13	0xbfd2c95688fbcd6a	-0.29353869797997467
14	0x3fa85811878d6331	0.04754690913859461
15	0x3fbbe42f881d08cc	0.10895058701592858
16	0xbfd2b72f7226114c	-0.2924307455762303
17	0x3fa5aa2aab8ea01c	0.04231389373973135
18	0xbfb63b106cfd04f9	-0.08683874760483325
19	0xbfd2d6369c707bf4	-0.29432454373630823
20	0xbfa02ccf00e2c0ee	-0.031591862543224866
21	0xbf9c1d389c8dd860	-0.02745521979837695
22	0x3fbd62169f1bd787	0.11477795967570446
23	0xbf9f3aac6c17cfcb	-0.030497259232973122
24	0x3f94ddb634300be1	0.02037701314476326
25	0x3fbbc2c36cf714cc	0.10844060335428479
26	0xbf8128db9676a9ee	-0.008378711251528306
27	0xbf8457a1e09e2515	-0.009932770411767803
28	0x3fb3408d5101db1b	0.07520373561588338
29	0xbf8b797142e471e8	-0.013415226797001759
30	0x3f78cdf65965982b	0.006055795957172132
31	0x3fb23e192f76728e	0.07126004608876199
32	0x3fde4907b7a9d2e0	0.47320740638615
33	0x3fe0db7c16f823e6	0.5267925690287683
34	0x3fe0db7c16f823e6	0.5267925690287683
35	0x3fde4907b7a9d2e0	0.47320740638615
36	0x3fa0bb737d405d2f	0.03268013862560292
37	0x3ef32789d91254d1	1.8267104284837313e-05
38	0x3f913936f069c170	0.016819818900729755
39	0x3f812927428c99f2	0.008379275053425925
40	0x3f987f860746c552	0.02392396373187939
41	0x3f543a969dc28fbd	0.0012346716749016406
42	0x3f9d74723a8d394b	0.028764519523343506
43	0x3f4332331e5c03d8	0.0005858182528016799
44	0x3f98d3c42c6fca49	0.024245324337196093
45	0x3f6ee7994cdc1a71	0.0037725443024812445
46	0x3f9ab81aebd49086	0.026092930454197936
47	0xbf303896d1a0c226	-0.00024751360035949117
48	0xbfc4ba94ab515f17	-0.16194399228219744
49	0x3fc387f34223e959	0.15258637170320347
50	0xbfce68c71d150189	-0.23757256431600762
51	0x3fc76c975a6919df	0.18300144114091574
52	0x3fcc9782ff8ffe92	0.22337377051006918
53	0xbfc5a1ee9dbbb74b	-0.1690042753393136
54	0xbfa3c1a7b19a813a	-0.0385868458081426
55	0xbfc0db050ea2f1c4	-0.1316839524714749
56	0xbfcb746bf240ba81	-0.21449040726425397
57	0x3faae00ac3745201	0.052490555152107994
58	0xbfc67c11172d1454	-0.17566121703763093
59	0xbfc306f6e98f000e	-0.1486500397131753
60	0xbfdb8240dec595e1	-0.4298250365739858
61	0x3fe43aa4654dd32b	0.6321584681123559
62	0x3fee7b9686364f0e	0.952586424000829
63	0x3fc82eddfe996e9c	0.188930272403799
64	0x3fd3e44f6a240963	0.31080994954404256
65	0x3fc2a90c71d68efb	0.14578395422460474
66	0x3fbf4407ff59b131	0.1221318243421521
67	0xbfc8b0a6b07407a5	-0.19289096465950908
68	0x3fc84165d46ffda2	0.18949578164027253
69	0xbfbf9b44709163ec	-0.12346294162979604
70	0x3fd44c70e7358b98	0.31716559008617073
71	0x3f820a82e4ae3161	0.008809111217282508
72	0xbfb035c7d07e1139	-0.0633206256880542
73	0xbfb3fde6a8c2786e	-0.0780929719935288
74	0xbfb7442736ea1a5c	-0.0908836850231664
75	0xbfdb7d59e343262d	-0.42952582543930157
76	0x3fe43332623013a0	0.6312496106844385
77	0x3fee73682733fcf0	0.9515877500233767
78	0x3fc829ea203c228d	0.18877913068742594
79	0x3fd3df815d95841a	0.31051668299738966
80	0x3fc2a65e9b64315d	0.145702196001717
81	0x3fbf3e0e5f886cd7	0.12204065162989096
82	0xbfc8ad54ef128f21	-0.19278966592275373
83	0x3fc840735090331b	0.18946687158349892
84	0xbfbf9a0462fe5fba	-0.12344386498295892
85	0x3fd448f96ba61f85	0.3169539977320642
86	0x3f81d801cada3476	0.008712781909048877
87	0xbfb034f0a8f85a19	-0.063307801487419
88	0xbfb3f7e5500b2c99	-0.07800133899870544
89	0xbfb742e874181955	-0.09086468538598542
90	0x3fc1788e6f6d7218	0.13649158898159963
91	0x3fc1e864f99d4f25	0.1399046152897593
92	0x3fc20b0adbb34855	0.14096198775820548
93	0x3fc20b82be14c3f6	0.14097627908043336
94	0x3fc1f6deb219c444	0.1403463716156087
95	0x3fc1d3ec8ff3693c	0.13927990940903523
96	0x3fc1aa3dd05fb874	0.13800785707957497
97	0x3fc1accb0bad1fce	0.13808572836046412
98	0x3fc1d54036fda547	0.13932039914224445
99	0x3fc1ec2a4fcf43ce	0.14001969239191542
100	0x3fc1e7d59886c87e	0.13988752315123415
101	0x3fc22266ffb4d2b1	0.1416748760763276
102	0x3fc245ed78482117	0.14275902150280537
103	0x3fc2729138791813	0.14412131555053573
104	0x3fc251614a5117c4	0.1431085217356537
105	0x3fc0fdc525f1da07	0.13274444916505976
106	0x3fc0b105bea9ac8e	0.13040229615885263
107	0x3fc082c422b89d3e	0.12899066634529704
108	0x3fc16b5ab3c45613	0.13608869340593852
109	0x3fc1961dfcc3bf40	0.13739371149085322
110	0x3fc1cdc35aaa1e6a	0.13909189154604756
111	0x3fc2c55762159fc3	0.14664737977295603
112	0x3fc2f9895dd581f3	0.14824025232066126
113	0x3fc317005f758991	0.14913944874849652
114	0x3fc306f40aa5874f	0.14864969749310794
115	0x3fc1a9b19aa0708a	0.13799114275105168
116	0x3fc12255def149d9	0.13386033426156876
117	0x3fc0f15c94fc24c8	0.13236577295928087
118	0x3fc2103ca69e5ef4	0.14112051139522175
119	0x3fc22e57f0e8cac5	0.14203929198409618
120	0x3fc243534b4d7727	0.14267960717091308
121	0x3fc3670d0eb3dedc	0.1515823671140798
122	0x3fc397abd9b27012	0.15306614045846395
123	0x3fc38adc3fb6965c	0.1526751814937367
124	0x3fc2e9134b7dec32	0.14773789583327496
125	0x3fc2558daae7ceec	0.14323588223452732
126	0x3fc1a697d0630332	0.13789651560912258
127	0x3fc1b1ccf34785ba	0.1382385433089846
128	0x3fc2315635d99fd4	0.14213063840293094
129	0x3fc2d43ad861bf55	0.14710174146193347
130	0x3fc2e129b61a6c2e	0.14749642745741326
131	0x3fc4039792806c77	0.15635962155724645
132	0x3fc421503e5a9d91	0.1572666458571175
133	0x3fc42f50fb4eadb6	0.15769397993913764
134	0x3fc38966a3fd0b86	0.1526306439137352
135	0x3fc2ebcd5be6c4c7	0.1478211115586758
136	0x3fc26386f727a5ad	0.14366232936963055
137	0x3fc28df92d17e76c	0.14495768262696218
138	0x3fc32ef8f99f375b	0.14987098873683177
139	0x3fc3c3599a28382d	0.154399109146142
140	0x3fc38981f6d47e6c	0.15263390114067776
141	0x3fc48f355db650b6	0.16062037540235047
142	0x3fc4898783100a9b	0.16044706248802218
143	0x3fc4cc20e450e346	0.16247950695267316
144	0x3fc4460b67431d61	0.1583875898561287
145	0x3fc36b0538d3cd7b	0.15170350336812163
146	0x3fc34a3ad074e9db	0.15070281199025612
147	0x3fc37fdef9bc5e20	0.15233981317645462
148	0x3fc461454330fa49	0.15921846180750013
149	0x3fc4c4e00855d581	0.1622581520747808
150	0x3fc43988fefe5abf	0.15800583315713898
151	0x3fc4ed0e000a4ca3	0.16348433496441314
152	0x3fc52e60bc123780	0.16547784026300505
153	0x3fc512cd4dd687e7	0.1646362905567564
154	0x3fc4c896ab05f240	0.16237147665732898
155	0x3fc4549898ed0992	0.15883166758619588
156	0x3fc4802e233aadd0	0.1601617500322008
157	0x3fc4d536d25838f7	0.1627567793916069
158	0x3fc65325927df141	0.1744124379437242
159	0x3fc67349fa73fa42	0.175393340388796
160	0x3fc52ebd36ab6805	0.1654888646069709
161	0x3fc122c9298dc115	0.13387407807341192
162	0x3fc16e6a3220e4ac	0.13618209312133922
163	0x3fc1884ee0872f0f	0.13697229350361126
164	0x3fc1adfd67601d24	0.13812224910382398
165	0x3fc1d17df67dddad	0.1392056897709443
166	0x3fc1d19c2efa6264	0.1392092923531606
167	0x3fc1c9c06165bb87	0.138969466740914
168	0x3fc1bf5199d876c5	0.1386510850142512
169	0x3fc1adbc562c1867	0.13811449248914018
170	0x3fc188361dc9f320	0.13696934179815745
171	0x3fc17259ab47c9e3	0.1363021932916829
172	0x3fc191c5269b9fd5	0.13726105103637445
173	0x3fc1985f09452bb7	0.1374625010742798
174	0x3fc1bf7abdc9b793	0.13865598933210474
175	0x3fc1fc2bc5984faf	0.14050814769927686
176	0x3fc1452fdaadf7e4	0.13492391755784106
177	0x3fc1336c868ee9cf	0.1343818337462168
178	0x3fc14e574313829f	0.13520327353673608
179	0x3fc2094c1c5daef4	0.14090873131805604
180	0x3fc1ce4fe8df5d47	0.13910864706734058
181	0x3fc196e4e8cbefa1	0.13741742484114375
182	0x3fc22bb59a40ddf0	0.14195890457061422
183	0x3fc23227b27bd28f	0.14215561118148343
184	0x3fc2b8f8ae799e42	0.1462698795250948
185	0x3fc31948ba63ea42	0.14920910931671655
186	0x3fc1e4ef1646143b	0.13979900920472396
187	0x3fc1c33af518c11e	0.13877045600521226
188	0x3fc205bd7055819d	0.14080017075594933
189	0x3fc2d6fc7bcfeb03	0.1471858601142558
190	0x3fc29161dcea03d6	0.1450617150003654
191	0x3fc2439e7c8b5052	0.1426885707975339
192	0x3fc2daf516e25562	0.14730704896343655
193	0x3fc2eee428feebef	0.1479153824019188
194	0x3fc377c335fc4cd7	0.15209236274731694
195	0x3fc39946d6515b26	0.15311513390289483
196	0x3fc2b93cdb2f7aad	0.14627800657668413
197	0x3fc28623099617fd	0.14471853225785472
198	0x3fc2d62f41da9227	0.14716139522092073
199	0x3fc2d6fdcef2bbea	0.14718601803676218
200	0x3fc3082073e0188a	0.14868550928094165
201	0x3fc300e67943a8c2	0.14846497460468383
202	0x3fc38db7f7d757f8	0.15276240922565854
203	0x3fc3a6e8befef81b	0.15353116346335657
204	0x3fc4851d45a5f910	0.16031232739255374
205	0x3fc4ad9669ec413d	0.16154747173323783
206	0x3fc3aacb00e3eb65	0.15364968818161198
207	0x3fc3394e943eeadf	0.15018636931002668
208	0x3fc39dd32523df17	0.15325393022043762
209	0x3fc37d16a5ada252	0.15225489701994604
210	0x3fc3b638c0a255d2	0.15399846464121808
211	0x3fc3b3c755e1d550	0.15392390912499332
212	0x3fc43c6880fd85d2	0.15809351251941323
213	0x3fc446c3cf466360	0.15840957280013424
214	0x3fc5a5a46065465d	0.1691174956018128
215	0x3fc5db17eda142ff	0.1707487020780931
216	0x3fc46ad5a10a6f87	0.15951032985037392
217	0x3fc3f8ecd94fb9cd	0.1560340939608537
218	0x3fc41eaab9dfbf4b	0.15718587947730564
219	0x3fc43763a31d7e16	0.15794034447297695
220	0x3fc453d079b833dc	0.15880781119667986
221	0x3fc459f86dd74e62	0.15899567950565358
222	0x3fc52017a3299fc6	0.16504188029216332
223	0x3fc53e5677cbb2d2	0.16596489762687
224	0x3fc7317567c30d24	0.18119685713291134
225	0x3fc7708b79efd7d9	0.18312209562253548
226	0x3fc586be7597c912	0.16817455999223135
227	0x3fc51989ac25f70a	0.1648418512885928
228	0x3fc4ef35652902a1	0.16355006637060845
229	0x3fc4d2da7721c193	0.16268473450646734
230	0x3fc4fb838fbb984f	0.16392559545710347
231	0x3fc5578d637808db	0.16673438412551075
232	0x3fbee03214e9e80f	0.12060845385158835
233	0x3fbff97061b586d5	0.12489988694644734
234	0x3fc04a169c31af15	0.12726099611915545
235	0x3fc06dd8409c07b0	0.12835219530830733
236	0x3fc07f8d999b8bca	0.12889261246081524
237	0x3fc08b3e2678ae4e	0.1292493522499733
238	0x3fc05d388d37bf4f	0.1278448762454851
239	0x3fc04460a90ee464	0.1270867181281431
240	0x3fc05621a48d622b	0.12762852225093133
241	0x3fc04cc92397a9d4	0.12734331357871886
242	0x3fc0142d0263e199	0.12561571709353528
243	0x3fbffaa393a10aaf	0.12491819719529461
244	0x3fc04c4b4228a9df	0.12732830744182785
245	0x3fc0c30bfe681030	0.13095235750381695
246	0x3fc0f8bdf063bde3	0.13259100187086323
247	0x3fc0c35131d2f78c	0.1309606068879784
248	0x3fc049fff6207b29	0.1272582961837199
249	0x3fc02897f7ca9ac6	0.12623881911459572
250	0x3fc07723fd20b38c	0.12863588199379838
251	0x3fc0611950dd9e97	0.12796322296639026
252	0x3fc030bc48614dd3	0.12648728880104318
253	0x3fc0aebe346f8539	0.13033273277600602
254	0x3fc10741b33e6839	0.13303395511758412
255	0x3fc18da1da7c8310	0.13713477295188925

running_var f8 [376]
0	0x3f95d215aa40893c	0.02130922176014248
1	0x3ff50b8fe7143a02	1.3153227831386407
2	0x3fb6acd00aa2a2c3	0.0885744119610861
3	0x4007afd8dda8ff28	2.960862857551451
4	0x3fcfe1c684a22776	0.24907762027970265
5	0x3fcfd239e86fa024	0.24860309457221874
6	0x3fcd4c29a0de33c7	0.2288867984283611
7	0x3fcce57a61b7854e	0.2257531144269173
8	0x3f76f5231c1872d9	0.005604874751523347
9	0x3f63569e90932016	0.0023606392829584972
10	0x3f6d338b86f9f9b9	0.003564617647327153
11	0x3f772aae0fb05843	0.005655937125103763
12	0x3f606c110edf37b9	0.0020046551862611087
13	0x3f6c6608b380a635	0.003466622347350757
14	0x3f731d7400791cee	0.00466676057073488
15	0x3f6380810d4673fa	0.0023806114715640954
16	0x3f6805e95427a586	0.0029325062944180495
17	0x3f72ec7265092d67	0.00462002454203101
18	0x3f65dcd4d250acd9	0.00266877714832035
19	0x3f68560462b258d3	0.0029707036642988376
20	0x3ffd0028a399529e	1.8125387564261142
21	0x3fe3441c9097fd75	0.6020644020172045
22	0x3fe353c03cf8d094	0.6039735022409496
23	0x3ffd4760054b994b	1.8299255568359338
24	0x3fe26b6a1efe21da	0.5756121259046794
25	0x3fe39fe9c753f0d7	0.6132706540224956
26	0x3ff102a80c8f0bd6	1.0631485453202365
27	0x3fdbf17b9fc2322d	0.4366139469282498
28	0x3fd47de50e5207bd	0.32018400572280453
29	0x3ff168b17359b068	1.0880598550675362
30	0x3fdc94a70075dd5b	0.44657301945649913
31	0x3fd7d881af5b6b74	0.37258951306073773
32	0x3fcfe87f24f6b3c7	0.24928273491732808
33	0x3fcfe87f2931e166	0.24928273688761776
34	0x3fcfe87f2931e166	0.24928273688761776
35	0x3fcfe87f24f6b3c7	0.24928273491732808
36	0x3f910d8181ce03f3	0.016653083369877874
37	0x3f8847da3a599a8f	0.01185579767770875
38	0x3f90d5b102961194	0.01644016817364642
39	0x3f89c22f99818d9b	0.012577411529668228
40	0x3f849f1b152402a3	0.010069095213567641
41	0x3f7b82e1fb82ada7	0.006716616386408892
42	0x3f855252f518d12d	0.010410926918759411
43	0x3f7c9b43468e6a16	0.006984007640222353
44	0x3f9e2aae36c6e28c	0.02945968827563887
45	0x3f94eb67c29be3c9	0.020429250004756292
46	0x3f99187386d7e206	0.024507336716824944
47	0x3f90b65e74b4e3b3	0.016320682404714137
48	0x4018b09d4c068d11	6.172475040340275
49	0x401cde99a15dfefb	7.217382928239881
50	0x401065a2b93d481a	4.099253553738913
51	0x401983d9d64ee76a	6.378760670247951
52	0x401d71cb1d1002f3	7.36112637911059
53	0x401036fcea041c99	4.05369916582199
54	0x401468412a967ba2	5.101811089930296
55	0x4016c0e70239fc71	5.688381228245917
56	0x40067ee7cdba3c25	2.811965567823352
57	0x40145cd861d6f16f	5.090669182533346
58	0x401604272b4ffe00	5.504055668599449
59	0x4007ab68fb2ca029	2.958696329402319
60	0x3fc4e0da45929fd8	0.1631119575224591
61	0x3fcbf8fa69ddf1ab	0.21853571099553668
62	0x3f9fa2aa4b755071	0.03089395604668294
63	0x3fdd70726c4e41a4	0.4599882180855508
64	0x3fdb282aa99e27b9	0.4243265777992025
65	0x3fdcaf95fd373ad3	0.4482169125375723
66	0x3fde1ec81bf67120	0.4706287644455802
67	0x3fd8bc977308ef15	0.3865107177150418
68	0x3fdbf0d7fc30cfa2	0.43657493236536926
69	0x3fdf0381655dbc3e	0.48458895587004125
70	0x3fdab3a20eeb3a64	0.4172139306728353
71	0x3fd710adfddec90f	0.36039304534928446
72	0x3fe0772bf9197f15	0.5145473351694557
73	0x3fdbc33e82d16e97	0.43379175925449814
74	0x3fd83f8230696239	0.3788762543459004
75	0x3fc4d994907f3361	0.1628900247145806
76	0x3fcc10335fc9b930	0.2192444055285221
77	0x3fa045b5f8e8ba3c	0.03178185141984044
78	0x3fdd6661cd9bdd5a	0.45937390402783296
79	0x3fdb1fd1325ebb5b	0.42381696623754345
80	0x3fdca5a7cbb09a2d	0.44761080638491785
81	0x3fde140dbf3dd576	0.46997398067409024
82	0x3fd8b31e1a75852a	0.3859324701680459
83	0x3fdbe6a17ee9d160	0.4359515895260042
84	0x3fdef8970f197420	0.48392273401788266
85	0x3fdaaae38a08f3fd	0.41668022613504246
86	0x3fd7071824bb9e45	0.3598080023498123
87	0x3fe071b1b6cdfc4d	0.5138786859896612
88	0x3fdbb91d5cb170a2	0.43317350437224367
89	0x3fd835bb36539eb3	0.3782794981511685
90	0x3fb34570b40ec623	0.07527832408848005
91	0x3fb3f6a8b1378321	0.07798246695120926
92	0x3fb42a1a8d900d1c	0.07876745182152373
93	0x3fb42e785a1fe0fa	0.07883407783799959
94	0x3fb40eae1bd6128a	0.07834900073619103
95	0x3fb3db326c6cadd4	0.07756343028147877
96	0x3fb3a624867fbbed	0.07675388606706664
97	0x3fb399234d14e2ee	0.07655544883608531
98	0x3fb3d3486f1b61d6	0.07744267189571671
99	0x3fb3f6f585f6b902	0.07798704643821355
100	0x3fb3eec85ad22e5d	0.07786228387174661
101	0x3fb484ed4d519868	0.08015330445923186
102	0x3fb4c936300319eb	0.08119524643107183
103	0x3fb4fb077fefee42	0.08195540307490837
104	0x3fb4ca65585556ab	0.08121331602645891
105	0x3fb2e94980edb40a	0.07387217900914336
106	0x3fb264aafcb3c000	0.07184857053266569
107	0x3fb238a724c0fa28	0.07117695472059238
108	0x3fb38a0d2fd43561	0.07632524888704985
109	0x3fb3cb2c434b8f55	0.07731892245243206
110	0x3fb4201b319a7213	0.07861490212457793
111	0x3fb593943889bb4e	0.08428312664339652
112	0x3fb5f9b1c33b2713	0.08584128395446226
113	0x3fb60f6a755577b2	0.08617272724720129
114	0x3fb5feaa3f1e403e	0.08591712990733044
115	0x3fb416a55e9754d3	0.0784705501494785
116	0x3fb3340f5c9c353f	0.07501312266341119
117	0x3fb3118f31f1ca49	0.0744866845068738
118	0x3fb4ac8fc912bd57	0.08075808199895583
119	0x3fb4d4797adac1ec	0.08136710404756514
120	0x3fb4fc7f1e3373f2	0.08197779166535193
121	0x3fb69e943b6fd2b8	0.08835722399801227
122	0x3fb70055999d3031	0.08984885216085627
123	0x3fb6eb046e687475	0.08952357955463859
124	0x3fb6061f664e55ec	0.08603092429833453
125	0x3fb53a7ddab6a3da	0.0829237612694124
126	0x3fb41f807f162090	0.07860568144508506
127	0x3fb45835e9d60fc1	0.0794709869279009
128	0x3fb50f29585d1eca	0.08226259620016232
129	0x3fb5f413acfc66d3	0.08575556729592941
130	0x3fb605d492aa9468	0.0860264642784202
131	0x3fb7a1e7da7be663	0.09231423458177228
132	0x3fb7e2ea6003a391	0.09330620617005382
133	0x3fb7f7cafda09dd9	0.09362477008891491
134	0x3fb70d685ce3ca85	0.09004833476846315
135	0x3fb6354f2800ed33	0.0867509339013182
136	0x3fb55bdf7ce50f44	0.08343312071980075
137	0x3fb5bc20fba88961	0.08490186828615755
138	0x3fb6a11fe502766a	0.08839606610350761
139	0x3fb76d8a18859f4a	0.09151518915825566
140	0x3fb716571c3f1222	0.09018463554009107
141	0x3fb88be607e8db91	0.09588468258958317
142	0x3fb89237326ffeb2	0.0959810732019786
143	0x3fb8f484c34ff786	0.09748105781906533
144	0x3fb838107400d27a	0.09460547287091883
145	0x3fb70676b7791522	0.08994237880059022
146	0x3fb6d056849b6f6e	0.0891164849994632
147	0x3fb7345fd86bddf8	0.09064291986202722
148	0x3fb8735bfc32a4b1	0.0955102434842441
149	0x3fb8f7d32c0a3f86	0.09753150773235406
150	0x3fb82b625c669a53	0.09441199069861143
151	0x3fb95e836d83f947	0.09909840987891015
152	0x3fb9a6cf7dcc2a37	0.10020157643536086
153	0x3fb9a47aef48b24e	0.10016601888555351
154	0x3fb93d06b6686dd5	0.09858743623083595
155	0x3fb879d768ae630c	0.09560915284818011
156	0x3fb8dccaf6e713cb	0.09711903121849656
157	0x3fb93d830ab3c556	0.09859484683308514
158	0x3fbb5b42aba03cd9	0.10686127367101807
159	0x3fbb8023049df3a4	0.10742396223754597
160	0x3fb9ab6ad9f6af41	0.10027187177064169
161	0x3fb25e6ae7504b08	0.07175319812112602
162	0x3fb2dafdb929314a	0.07365403910188664
163	0x3fb2fb05ec7f3db3	0.0741428091416683
164	0x3fb33548bf495aeb	0.07503180189210538
165	0x3fb369749ffd0fb4	0.07582787424058673
166	0x3fb36be0e25ea41c	0.07586484457591819
167	0x3fb37095af4623e5	0.07593665627622632
168	0x3fb356cb0cc9a397	0.07554310857962175
169	0x3fb33bc275559eae	0.07513060917483003
170	0x3fb30401c989f8d7	0.07427989168533898
171	0x3fb2dfc7a503528f	0.0737271097053258
172	0x3fb3511f5fcd95fd	0.07545658196394096
173	0x3fb37278c4f85536	0.07596545037116162
174	0x3fb3a07e1640cde2	0.07666767161645496
175	0x3fb3faa0c723da8a	0.07804303037469587
176	0x3fb2fc4ce8cb3b4f	0.07416229899830039
177	0x3fb2c5c50ca6f900	0.07333022650616172
178	0x3fb2fe687a4c4429	0.07419445977963392
179	0x3fb3fa463714c89e	0.07803763241534731
180	0x3fb3a1a8794e9799	0.07668545686337182
181	0x3fb3679874e4844d	0.07579949239563284
182	0x3fb4559fce8f04f1	0.07943152230201968
183	0x3fb483df6cca5992	0.08013721853271807
184	0x3fb536d35283a5a0	0.08286782040126761
185	0x3fb5c80ef9f7b95e	0.08508390047766087
186	0x3fb4185f6cc8d706	0.07849689870712603
187	0x3fb3bc54e4c8aedf	0.0770924624018181
188	0x3fb43803a3a216d2	0.07897970910024846
189	0x3fb5527a3e67b9b4	0.08328975699962521
190	0x3fb4e66ea2d81a64	0.08164111591040918
191	0x3fb491c61567fcd8	0.08034933111774778
192	0x3fb576875d522cc3	0.08383985546440713
193	0x3fb5b978df3e9401	0.08486133051208357
194	0x3fb67b0c08a5faa1	0.08781504832402699
195	0x3fb6b141f3809974	0.0886422366607798
196	0x3fb57346ad92238b	0.08379022347993563
197	0x3fb4fd1b186bc5e4	0.08198708864417587
198	0x3fb58afa21488d1a	0.084151871801215
199	0x3fb584a5a8e5a0ab	0.08405528424703117
200	0x3fb5cb7869b3ac1c	0.08513596134768914
201	0x3fb5c87de59822a1	0.08509051184968054
202	0x3fb69989faa3e878	0.08828031891963117
203	0x3fb6deb8642f242d	0.08933594175245281
204	0x3fb8178ba725676d	0.09410927611079752
205	0x3fb8559daa07ce30	0.09505639458785065
206	0x3fb6ed64e59e9911	0.0895598469347514
207	0x3fb623289b550009	0.08647397796903546
208	0x3fb6c71d74dce144	0.08897575476737979
209	0x3fb692b06a654db1	0.08817579839278868
210	0x3fb6e5c3176deae8	0.08944339105611798
211	0x3fb6e738f2c9abda	0.08946567466197966
212	0x3fb7b719266fa787	0.09263760746367043
213	0x3fb7d9918a0e3dd1	0.0931635820436363
214	0x3fb9c4c5fd081249	0.10065877368476452
215	0x3fba1216d70d2880	0.10183851957586576
216	0x3fb816bb175a1c53	0.09409684486500795
217	0x3fb757b8408c989f	0.09118224693210884
218	0x3fb795f01c9fb7d4	0.09213162134957936
219	0x3fb7b8daae766dd8	0.09266440162030365
220	0x3fb7e37b1b88636b	0.09331483289896673
221	0x3fb7ed040c0a24cd	0.09346032422958502
222	0x3fb9466184cad799	0.09873017780304706
223	0x3fb95a2e6229fc44	0.09903230568487326
224	0x3fbc115462aaed80	0.10963942917708458
225	0x3fbc696e2701a35e	0.11098373844437279
226	0x3fb9c755a512d7a2	0.1006978538524366
227	0x3fb9483a85402044	0.09875837090669487
228	0x3fb8e033816d1c84	0.0971710387212728
229	0x3fb8dcfcdbf8796d	0.09712200518013044
230	0x3fb9145d729f9e2d	0.0979669957010791
231	0x3fb97b430a9a4f42	0.09953707703453765
232	0x3fb2901c45c0088e	0.0725114507950215
233	0x3fb375da7907a7f1	0.07601705031234453
234	0x3fb3e7bf2bc22cc9	0.07775492494890836
235	0x3fb4229429b265f0	0.07865263002386036
236	0x3fb43ce0f040f64a	0.07905393472261682
237	0x3fb44eca0728aee0	0.0793272273519352
238	0x3fb4187655f4a741	0.07849826429869912
239	0x3fb3deeb64c93e5f	0.0776202317294916
240	0x3fb3f9c513dc6c51	0.07802993521583913
241	0x3fb3eb87f6c01406	0.07781266950776464
242	0x3fb3904addfa41b5	0.07642047805189274
243	0x3fb3c0eb255637da	0.077162453284671
244	0x3fb44935b5131215	0.07924209280742674
245	0x3fb4dc423b97f059	0.08148588137550074
246	0x3fb52cee2b4a54e9	0.08271683270352849
247	0x3fb4fbed8fd120a5	0.08196911584048168
248	0x3fb4352a87bf0f72	0.07893625082129832
249	0x3fb42cf94727b850	0.07881124484239987
250	0x3fb48e359089fa2b	0.08029494074615033
251	0x3fb46a91297d079e	0.07975108397388772
252	0x3fb42feac8d3fb27	0.07885615733173933
253	0x3fb4f48857abdd2a	0.08185627117551478
254	0x3fb593df40c93368	0.08428759891212467
255	0x3fb62f65eacf132d	0.08666073782576396

count f8 []
0	0x41edcd6500200000	4000000001.0

running_mean f8 [1]
0	0x406cd5fee5c8ef49	230.6873654293543

running_var f8 [1]
0	0x40c22f2f61217e9d	9310.370151697944

count f8 []
0	0x41cdcd6500800000	1000000001.0

a2c_network.sigma f4 [15]
0	0xc01fbec8	-2.4960194
1	0xbffd465b	-1.9787096
2	0xbfe60ef1	-1.797331
3	0xbfa343c3	-1.2755054
4	0xbfb10465	-1.3829466
5	0xbfc30120	-1.5234718
6	0xbf9f9efb	-1.2470392
7	0xbfbe7560	-1.487957
8	0xbfbd3662	-1.4782221
9	0xbfa8dbf0	-1.319212
10	0xbfb5c5b7	-1.4200963
11	0xbff4a1bd	-1.9111859
12	0xbfa3f3f1	-1.280882
13	0xbfc49c24	-1.536015
14	0xbfdd5bb7	-1.7293614

a2c_network.actor_mlp.0.weight f4 [128, 376]
0	0xbe6c476a	-0.23074117
1	0xbd888905	-0.066667594
2	0x3ea74cbe	0.32675737
3	0x3b2e0529	0.0026553369
4	0x3da2a7f0	0.07942188
5	0x3e1790b4	0.14801294
6	0x3d11288a	0.03543905
7	0x3dceff9c	0.10107347
8	0xbcb494e3	-0.022043651
9	0xbe065b7d	-0.13120838
10	0x3e211c85	0.15733536
11	0xbe30a610	-0.17250848
12	0x3d94e8b4	0.07270947
13	0x3e04d428	0.12971556
14	0x3e8d6573	0.27616462
15	0xbda59707	-0.08085447
16	0x3d8498b3	0.064744376
17	0x3ef4672f	0.47734973
18	0xbeaab733	-0.33342895
19	0xbd53ba63	-0.051691424
20	0x3be43069	0.0069637788
21	0x3e509fe7	0.20373498
22	0xbcb62a89	-0.02223708
23	0xbdaa9ce5	-0.083307065
24	0x3e70663f	0.23476504
25	0x3ec2e76e	0.38067192
26	0xbdfddbe0	-0.123954535
27	0x3e1a7a47	0.15085708
28	0xbce5022c	-0.027955137
29	0xbdfc0498	-0.12305564
30	0x3d346bd5	0.04404815
31	0xbdd5470e	-0.10413943
32	0x3e2d0f3c	0.16900343
33	0xbe229fe4	-0.15881306
34	0xbe5e50ff	-0.21710585
35	0x3e38082c	0.17971867
36	0x3f23d4be	0.63996494
37	0xbdeec91d	-0.11659453
38	0xbf33afe1	-0.70190245
39	0xbf0b7767	-0.5447907
40	0xbda3430c	-0.079717726
41	0x3ee4f5d1	0.44718793
42	0x3fb36dd2	1.401789
43	0x3fa9d8e7	1.3269318
44	0xbe9b0f31	-0.30285028
45	0xbdf6ea2d	-0.12056384
46	0x3bc3ca31	0.005975031
47	0x3eaea70e	0.34111828
48	0x3eaf355d	0.342204
49	0xbd8342d1	-0.064092286
50	0x3d1cb419	0.038257692
51	0xbe55a74e	-0.20864603
52	0xbddbb201	-0.10727311
53	0xbc6da1a1	-0.014503867
54	0x3d48bb2f	0.049006637
55	0x3eaf466d	0.34233418
56	0xbe7a6d55	-0.2445577
57	0x3d70c188	0.058778316
58	0x3e9ba7a5	0.3040134
59	0xbdfe8a2b	-0.12428697
60	0x3e90e77b	0.28301606
61	0xbe8659d7	-0.26240417
62	0xbe5795a0	-0.21053171
63	0xbdd4e13f	-0.10394525
64	0x3d9fda7f	0.07805347
65	0x3dba7c95	0.091057934
66	0xbe27a985	-0.1637326
67	0xbdb2e54a	-0.0873514
68	0xbe238318	-0.15967977
69	0x3dc721cd	0.09723244
70	0xbcc3d0ca	-0.02390327
71	0x3d612328	0.05496517
72	0xbd8bf34c	-0.068335146
73	0xbd1ae410	-0.037815154
74	0x3e0a4cb6	0.13505825
75	0x3d7ac4b7	0.06122276
76	0xbda702ae	-0.08154808
77	0xbda824e3	-0.082101606
78	0xbdb4e963	-0.088335775
79	0x3e803afd	0.25045004
80	0xbcfc7fef	-0.030822722
81	0xbdb5b194	-0.08871761
82	0xbd8f69de	-0.070026144
83	0xbddc7646	-0.10764746
84	0xbcf1651a	-0.029467154
85	0x3d3a8974	0.04554124
86	0xbe0d27f7	-0.13784777
87	0xbd8df54d	-0.06931553
88	0xbe306f60	-0.17229986
89	0x3c84eaa5	0.016225168
90	0xbc8ef36f	-0.017450063
91	0xbd8b3c90	-0.06798661
92	0xbd98d34d	-0.074621774
93	0xbd433252	-0.04765541
94	0xbc0b6ebc	-0.008510288
95	0xbca73783	-0.020412212
96	0xbdce206f	-0.1006478
97	0xbe70f6d0	-0.23531651
98	0xbd58b1c3	-0.0529039
99	0xbe3af68c	-0.18258113
100	0xbe0ba264	-0.13636166
101	0xbd2340d9	-0.039856765
102	0xbe915c85	-0.283909
103	0xbc8f06f5	-0.017459372
104	0xbe5a7b75	-0.21336158
105	0x3de0055e	0.10938524
106	0x3e293a0d	0.16526051
107	0x3e05caf7	0.13065706
108	0xbe239d19	-0.15977897
109	0xbc22219c	-0.009895708
110	0x3c32d943	0.010916057
111	0x3d8f0b5e	0.0698459
112	0xbd157e81	-0.036497597
113	0x3e0aaf78	0.13543499
114	0xbcaaa6c3	-0.020831471
115	0x3dc92ef4	0.09823409
116	0x3cdc5ffa	0.026901234
117	0xbcd3a46e	-0.025835242
118	0xbdd1c29e	-0.102421984
119	0x3d00358f	0.031301077
120	0xbe08fe80	-0.13378334
121	0x3d5f5e15	0.054533083
122	0x3d40430c	0.04693894
123	0x3c9878c5	0.018612275
124	0xbcc1adbb	-0.023642411
125	0x3d8dbfec	0.06921372
126	0x3d9ac8a0	0.075577974
127	0xbcc18a3b	-0.023625484
128	0x3d5a0bf1	0.053234044
129	0x3d0d0b7a	0.034434773
130	0x3de3f679	0.11130995
131	0x3cc42d12	0.023947272
132	0xbd4c29a6	-0.049844407
133	0xbdddf681	-0.108380325
134	0xbe1b1468	-0.15144503
135	0xbd9e7172	-0.07736482
136	0x3d2eb06f	0.04264873
137	0x3db60a23	0.08888652
138	0x3db501dd	0.08838246
139	0x3ce50761	0.02795762
140	0x3d90d4c9	0.070718355
141	0x3d193d69	0.03741208
142	0xbc785eaa	-0.015159288
143	0xbb8bdf79	-0.0042685834
144	0x3de4119d	0.11136172
145	0xbe7db450	-0.24775815
146	0x3c1962a6	0.0093618985
147	0xbe794413	-0.24342375
148	0x3c65dab4	0.014029194
149	0x3da79845	0.0818334
150	0x3cb95359	0.022622751
151	0x3e2043e4	0.15650898
152	0x3abb63f0	0.0014296751
153	0xbd9b3140	-0.07577753
154	0x3e11c060	0.14233541
155	0x3d59708a	0.05308584
156	0xbe9f948d	-0.31168023
157	0x3c7b8cf7	0.015353433
158	0x3dd336ba	0.10313173
159	0x3e39206d	0.18078776
160	0xbb5bba6d	-0.0033527866
161	0xbd043c09	-0.032283816
162	0x3d31eb33	0.043437194
163	0x3df29dab	0.11846479
164	0x3cdba9c5	0.02681435
165	0x3d5cf2bd	0.05394243
166	0xbcbcf07f	-0.023063896
167	0x3dc6b983	0.09703352
168	0xbe2a34b0	-0.16621661
169	0x3b83c9d6	0.0040218635
170	0xbcba6f47	-0.02275814
171	0x3df3c1de	0.119022116
172	0xbd7bba17	-0.061456766
173	0xbbf44400	-0.0074543953
174	0xbd8a0da8	-0.06740886
175	0xbdc964ad	-0.098336555
176	0x3dbc9626	0.09208326
177	0xbd397b0a	-0.045283355
178	0xbdebba0b	-0.11510094
179	0xbc9d0988	-0.019169584
180	0xbc247303	-0.010037187
181	0xbdbace1d	-0.09121344
182	0xbc27f115	-0.0102503495
183	0x3e03f1f5	0.12885268
184	0xbcbef516	-0.023310225
185	0xbd8cb343	-0.06870129
186	0x3d4894fe	0.048970215
187	0xbb1154d9	-0.0022175817
188	0xbd7c18a2	-0.06154693
189	0x3d762fda	0.06010423
190	0x3dcbd992	0.099536076
191	0xbb384b8c	-0.0028121201
192	0x3d2cb512	0.04216487
193	0xbd1b95c3	-0.03798462
194	0x3dce0839	0.10060162
195	0x3e19e77d	0.15029712
196	0xb9511020	-0.000199378
197	0xbde3c9c7	-0.1112247
198	0x3c8f68d6	0.017506044
199	0xbdfa98af	-0.12236153
200	0xbe2f330e	-0.1710932
201	0xbbbcbd83	-0.0057598962
202	0x3da05bd1	0.078300126
203	0xbe22b518	-0.15889394
204	0xbd26048a	-0.040531673
205	0x3de30eb2	0.11086787
206	0xbe0820f1	-0.13293816
207	0x3cd2b454	0.025720753
208	0x3da991d0	0.08279765
209	0x3d9cfc50	0.07665312
210	0x3dc9fa36	0.09862177
211	0x3da7d180	0.08194256
212	0xbd2f67d2	-0.04282362
213	0x3db25b38	0.08708805
214	0xbd7650a5	-0.060135502
215	0x3ccea1b4	0.02522359
216	0xbd8c1766	-0.068404004
217	0xbde87950	-0.113512635
218	0x3dfa156e	0.12211119
219	0xbe2d599b	-0.16928713
220	0x3cf667cf	0.030078797
221	0xbc834e13	-0.01602844
222	0x3e38d534	0.1805008
223	0x3e085058	0.13311899
224	0x3ceb6f47	0.028739585
225	0x3da61530	0.0810951
226	0xbe15f6d6	-0.14644942
227	0xbeac3472	-0.33633763
228	0x3d716dbf	0.058942553
229	0x3d079baf	0.033107456
230	0x3e605204	0.21906286
231	0x3d82aa45	0.063801326
232	0xbddeba28	-0.1087535
233	0x3d12a51b	0.035801988
234	0x3d78a25f	0.060701724
235	0xbd8824fa	-0.06647678
236	0x3d2add44	0.04171492
237	0x3dd3e0d0	0.10345614
238	0x3cf2b038	0.029625043
239	0x3dd8ac41	0.1057973
240	0x3e070213	0.13184385
241	0x3dd4a101	0.103822716
242	0x3d74743b	0.05968116
243	0xbd9d1769	-0.07670481
244	0x3d478f46	0.04872062
245	0x3dadc565	0.08484916
246	0x3d68708e	0.056747966
247	0xbe097ea1	-0.13427211
248	0x3c9ff5a3	0.019526308
249	0xbd843ae9	-0.06456549
250	0x3b4023e9	0.002931828
251	0xbd3aa490	-0.045567095
252	0xbc89480c	-0.016757987
253	0x3e035237	0.12824331
254	0x3d8ecd5e	0.069727644
255	0xbce4896a	-0.027897555

a2c_network.actor_mlp.0.bias f4 [128]
0	0xbe8104e9	-0.2519906
1	0xbe4d4bba	-0.20048419
2	0xbecd054f	-0.40043113
3	0xbe90d533	-0.28287658
4	0xbe07b3f8	-0.13252246
5	0xbd41c903	-0.04731084
6	0xbe8bc575	-0.27299085
7	0xbe47ddcc	-0.19518203
8	0xbe95c5e6	-0.29252547
9	0x3c0373a0	0.008023173
10	0xbd942a52	-0.072346345
11	0xbe28d7d1	-0.16488577
12	0xbe6b1156	-0.22955832
13	0xbe647bcf	-0.22312854
14	0xbd0550a4	-0.032547608
15	0xbeae4096	-0.3403365
16	0x3b94ee73	0.004545027
17	0xbe0d875b	-0.13821165
18	0xbe9e201d	-0.30883875
19	0xbec6cb33	-0.38826904
20	0xbe2d2f41	-0.16912557
21	0xbe97ba3d	-0.29634276
22	0xbea748a6	-0.32672614
23	0xbea2fece	-0.31835026
24	0x3d5d252b	0.053990524
25	0xbd35fdcf	-0.044431504
26	0xbe5b0634	-0.21389085
27	0xbe751f04	-0.23937613
28	0x3c783ba5	0.015150939
29	0xbf084004	-0.5322268
30	0xbee40720	-0.44536686
31	0xbe67d1d5	-0.22638638
32	0xbea64d5e	-0.324809
33	0xbdff8f03	-0.12478449
34	0xbe0afacd	-0.13572235
35	0xbe26614b	-0.16248052
36	0x3dd3d2de	0.10342954
37	0xbe5e3b6f	-0.2170236
38	0xbe7bc37b	-0.24586289
39	0xbe9f6800	-0.31134033
40	0xbd85c098	-0.06530875
41	0xbea22ba4	-0.3167392
42	0xbe5258c3	-0.20541672
43	0xbd234ce6	-0.039868258
44	0xbe421efa	-0.18957129
45	0xbd520053	-0.05126984
46	0xbe2f17f9	-0.17098989
47	0xbe5935d8	-0.21211946
48	0xbeb43e97	-0.35204002
49	0xbd1739ea	-0.036920466
50	0xbdb8ba8b	-0.09019955
51	0xbc633ee6	-0.013869977
52	0xbe4d1813	-0.20028715
53	0xbe8d9d7c	-0.27659214
54	0xbddff13e	-0.10934685
55	0xbe9c7125	-0.30555072
56	0xbe96e5b5	-0.29472128
57	0xbe93157b	-0.28727326
58	0xbe968388	-0.29397225
59	0xbe85a1d9	-0.26100042
60	0xbe3fa349	-0.18714632
61	0x3cddd09e	0.027077015
62	0xbe72bd4c	-0.23705024
63	0xbea0d881	-0.3141518
64	0xbe65ded7	-0.22448288
65	0xbe678d0d	-0.226124
66	0xbd6e0190	-0.05810696
67	0xbdd248d9	-0.10267801
68	0xbec665b7	-0.38749477
69	0xbdce874a	-0.10084398
70	0x3e05db64	0.13071972
71	0xbed3b88a	-0.4135173
72	0xbd641c35	-0.055690963
73	0xbe9ff926	-0.31244773
74	0xbe4801c9	-0.19531931
75	0xbeafa196	-0.34302968
76	0xbeff814f	-0.49903342
77	0xbdad6b28	-0.08467704
78	0xbdd9036e	-0.10596357
79	0xbeaef2ea	-0.34169704
80	0xbe9a3bd1	-0.3012376
81	0xbeaa6ccd	-0.33286133
82	0xbe8e39f1	-0.2777858
83	0xbe18662c	-0.14882725
84	0xbe342d24	-0.17595345
85	0xbbeafb5d	-0.007171078
86	0xbec58952	-0.3858133
87	0xbd4f3114	-0.050583914
88	0xbe633091	-0.22186495
89	0xbf0dc080	-0.55371857
90	0xbe46444f	-0.19361995
91	0xbe6b3bbd	-0.22972007
92	0xbdd7d1d7	-0.10538071
93	0xbe8c7c74	-0.274387
94	0xbd01720f	-0.031602915
95	0xbdc320fc	-0.09527776
96	0xbe1c838c	-0.15284556
97	0xbe3c1d0e	-0.18370458
98	0xbe50f8ad	-0.20407362
99	0xbed0bd83	-0.40769586
100	0xbeca87f1	-0.3955684
101	0xbcc46dbe	-0.02397811
102	0xbe66d5f8	-0.2254256
103	0xbe371122	-0.1787763
104	0xbe0f8106	-0.14014062
105	0xbe7d2fc5	-0.24725254
106	0xbe101bde	-0.1407313
107	0xbe18a574	-0.14906865
108	0xbea2f6c9	-0.31828907
109	0xbd2fb1f5	-0.042894322
110	0xbf015450	-0.50519276
111	0xbec933b0	-0.39297247
112	0xbe9d62cf	-0.30739447
113	0xbdf9047e	-0.1215906
114	0xbeded6d5	-0.4352328
115	0xbe28dbbd	-0.16490074
116	0xbe94de49	-0.2907584
117	0xbe915880	-0.28387833
118	0x3cca2768	0.024676993
119	0xbdfc8e6e	-0.12331854
120	0xbe8c7b57	-0.2743785
121	0xbe1b9d54	-0.15196735
122	0xbe83d40e	-0.25747722
123	0x3d3e9fd8	0.046539158
124	0xbe06fdc8	-0.13182747
125	0xbe4302b8	-0.19044006
126	0xbe016166	-0.12634811
127	0xbeaa0d51	-0.33213285

a2c_network.actor_mlp.2.weight f4 [128, 128]
0	0x3db81761	0.08988834
1	0x3e086e72	0.13323382
2	0x3da52d23	0.0806525
3	0xbdb0430d	-0.08606539
4	0xbd92efee	-0.07174669
5	0xbca6e86d	-0.020374501
6	0x3b8e1023	0.0043354197
7	0x3dce108d	0.100617506
8	0xbdd5e099	-0.10443229
9	0xbdb0a0ac	-0.08624396
10	0x3e30f187	0.17279635
11	0xbb867b8f	-0.004104085
12	0xbe5763a1	-0.21034099
13	0xbc91458e	-0.017733362
14	0xbdd5d3a5	-0.104407586
15	0xbdec4e0e	-0.11538325
16	0xbdae8cf0	-0.085229754
17	0xbd425260	-0.04744184
18	0xbe323ded	-0.17406435
19	0xbd3b0984	-0.04566337
20	0x3e17ed06	0.14836511
21	0x3d44a3de	0.04800784
22	0xbe0042b1	-0.12525441
23	0xbd477944	-0.048699632
24	0xbd77f1fc	-0.06053351
25	0xbe48998a	-0.1958982
26	0xbd5fa06d	-0.054596353
27	0xbc1e1ac4	-0.009649936
28	0xbe1461f4	-0.14490491
29	0xbc410316	-0.011780521
30	0x3db21c18	0.08696765
31	0xbea89440	-0.32925606
32	0xbe1f22a1	-0.15540554
33	0xbd8ca946	-0.06868224
34	0xbd5a2c71	-0.05326504
35	0x3c98b35b	0.01864021
36	0x3df1a9ae	0.11799942
37	0x3b84e2b6	0.0040553464
38	0x3ccff584	0.025385626
39	0x3ddd3e14	0.10802856
40	0x3e1cf47b	0.15327637
41	0x3dd73ae5	0.1050928
42	0x3ddad403	0.10684969
43	0x3dea3aea	0.11437018
44	0xbcbf2c29	-0.023336487
45	0xba12d1e7	-0.0005600736
46	0x3d2bb4ae	0.041920356
47	0xbdc9588a	-0.098313406
48	0x3dc471c4	0.095920116
49	0xbe43aa2a	-0.19107881
50	0xbe1edf9e	-0.1551499
51	0x3e1c6ddf	0.15276287
52	0x3dac732e	0.08420406
53	0xbcb3d5c3	-0.021952515
54	0xbd2f0a30	-0.042734325
55	0xbd50a403	-0.050937664
56	0xbd3b1e21	-0.04568303
57	0xbe427e07	-0.18993388
58	0xbd8498b8	-0.06474441
59	0x3c2c49d2	0.010515647
60	0x3d2ab5ae	0.04167717
61	0x3e281d57	0.16417442
62	0xbe5a8399	-0.21339263
63	0x3ca91dfa	0.020644177
64	0x3df1edc4	0.11812928
65	0x3d8c2ac1	0.06844092
66	0xbe0c3c22	-0.13694814
67	0x3b91557f	0.0044352408
68	0xbe329925	-0.17441233
69	0x3da863cc	0.0822216
70	0xbdabcabe	-0.083882794
71	0x3c10de6b	0.008842091
72	0x3e04399a	0.12912598
73	0xbe02b780	-0.12765312
74	0xbdabbf64	-0.08386114
75	0x3d775a56	0.060388885
76	0x3e196aa5	0.14982088
77	0x3ca11ec0	0.019667983
78	0x3d802941	0.062578686
79	0xbdad0284	-0.084477454
80	0x3e5065a2	0.2035127
81	0x3d33c6ed	0.043890882
82	0x3bdb2d2e	0.0066887354
83	0xbd335fec	-0.04379265
84	0xbe041790	-0.12899613
85	0xbc67ab47	-0.014139957
86	0x3dea25f8	0.11433023
87	0x3d3242e6	0.04352083
88	0xbe71ffd3	-0.23632745
89	0x3c81ff06	0.015868675
90	0xbcda625e	-0.026658233
91	0xbe9fe667	-0.3123047
92	0xbe317b4b	-0.17332189
93	0x3d14710d	0.036240626
94	0xbe6d1e59	-0.23156108
95	0xbdb15038	-0.08657879
96	0x3da46e65	0.080288686
97	0xbda7a808	-0.08186346
98	0xbcaf8364	-0.021424957
99	0x3de449dd	0.11146901
100	0xbc434769	-0.011918881
101	0x3de18ae9	0.11012823
102	0xbd58e77a	-0.05295513
103	0xbe15eb3b	-0.14640515
104	0xbdc3cb38	-0.09560245
105	0xbe840400	-0.25784302
106	0xbe161301	-0.14655687
107	0xbe2a3a88	-0.1662389
108	0xbbdabff4	-0.0066757146
109	0xbd87cd10	-0.066309094
110	0xbc520311	-0.012818114
111	0xbdd7b2bb	-0.10532137
112	0xbe2270c4	-0.15863329
113	0x3d1f5f5b	0.038909297
114	0x3da2ccd0	0.07949221
115	0xbd6acfe3	-0.057327162
116	0x3d9fe0b8	0.078065336
117	0xbc76da01	-0.015066625
118	0xbddb8fd0	-0.107207894
119	0xbe4fd446	-0.2029582
120	0xbca665fe	-0.020312306
121	0xbe373d11	-0.17894389
122	0xbc4223ab	-0.011849324
123	0x3d570169	0.05249158
124	0xbdb91bc9	-0.09038503
125	0xbdde1d49	-0.108454295
126	0x3dbbaa82	0.09163381
127	0x3d7c1f32	0.061553188
128	0x3dd141fe	0.10217665
129	0xbd049921	-0.032372598
130	0x3da2316d	0.079195835
131	0xbddacd59	-0.10683698
132	0x3d1bb58b	0.03801493
133	0x3d02f91b	0.031975847
134	0xbd4a0179	-0.04931781
135	0xbd20cbb3	-0.039256763
136	0xbe5dded1	-0.21667029
137	0x3cb2b15a	0.021813083
138	0x3dab1ec7	0.0835548
139	0x3d0c589c	0.034264192
140	0xbe94e463	-0.29080495
141	0x3d30276f	0.043006357
142	0xbe2a2c86	-0.16618547
143	0x3d6f9967	0.058495905
144	0x3ba6c8c6	0.005089852
145	0xbdf229e1	-0.11824394
146	0xbda5f576	-0.081034586
147	0xbd1a68f2	-0.03769774
148	0xbda9d2d1	-0.08292163
149	0x3d65781f	0.05602276
150	0x3d988598	0.07447356
151	0x3dd49741	0.10380412
152	0x3ca36910	0.019947559
153	0x3e16ef6b	0.14739768
154	0xbb593c0e	-0.0033147368
155	0x3e05af6f	0.13055204
156	0xbd9d309e	-0.076752886
157	0xbd25d711	-0.040488306
158	0x3d36b1aa	0.044603027
159	0xbe36240c	-0.17787188
160	0x3ca30d18	0.019903705
161	0xbd24fda2	-0.040280946
162	0xbdd4bbea	-0.10387404
163	0x3e06cf5d	0.1316504
164	0xbd966042	-0.073425785
165	0xbe64acec	-0.2233159
166	0xbcb753fe	-0.022378918
167	0x3d23a28d	0.039949942
168	0x3b7be4ae	0.0038435864
169	0x3cd83669	0.026393132
170	0xbe47eb07	-0.1952325
171	0xbebf6f9c	-0.3738984
172	0xbe0b159c	-0.13582462
173	0xbda4a990	-0.08040154
174	0x3dda309a	0.10653801
175	0xbd9da261	-0.07696987
176	0xbcfbacab	-0.030721983
177	0x3cf8736d	0.030328477
178	0xbdcf1698	-0.10111731
179	0xbd165cf0	-0.036709726
180	0xbd1692be	-0.036761038
181	0xbdb9d742	-0.0907426
182	0xbca48cbf	-0.020086644
183	0x3e33a3c0	0.17542934
184	0xbe2acef3	-0.16680507
185	0xbe38634f	-0.18006633
186	0x3da32b10	0.07967198
187	0xbd26c8c2	-0.0407188
188	0xbda6de31	-0.081478484
189	0xbd487216	-0.048936926
190	0x3cff54de	0.031168398
191	0xbd301eb3	-0.042998027
192	0x3dfd9491	0.123818524
193	0xbdc93b06	-0.09825711
194	0xbdcde2d8	-0.10053033
195	0x3da94ca3	0.082665704
196	0x3db62980	0.08894634
197	0x3cc05087	0.023475898
198	0x3b9c669e	0.004772975
199	0xbd1b2d43	-0.03788496
200	0xbec84fdc	-0.39123428
201	0x3ded97c4	0.116012126
202	0xbca1d90d	-0.019756818
203	0x3c077909	0.008268603
204	0xbda8392b	-0.08214029
205	0x3ca0219b	0.019547274
206	0xbc603d49	-0.0136864865
207	0x3e0e155c	0.13875335
208	0xbcb7d9b1	-0.02244267
209	0xbca94e27	-0.020667149
210	0xbd8c6238	-0.06854671
211	0xbdc25a61	-0.09489895
212	0x3d56af1c	0.05241309
213	0xbd416ee2	-0.047224887
214	0xbe15f06d	-0.14642496
215	0xbd1f21a3	-0.038850438
216	0xbda258a4	-0.07927063
217	0xbda9a82c	-0.08284029
218	0x3c84d71a	0.01621585
219	0x3d1dfc3f	0.03857064
220	0x3dc6ca8c	0.097066015
221	0xbd0fd09b	-0.03511105
222	0xbe88b09a	-0.26697236
223	0xbe4f3780	-0.20236015
224	0xbd761349	-0.060076986
225	0xbd2f5afd	-0.042811383
226	0x3d9faff5	0.07797233
227	0x3db20161	0.08691669
228	0xbdb15f68	-0.086607754
229	0xbe842268	-0.258075
230	0xbe1fd343	-0.15607934
231	0x3e3e373b	0.18575756
232	0xbe5ad78c	-0.21371287
233	0xbe05434e	-0.13013956
234	0x3d118562	0.035527594
235	0xbe0e9744	-0.13924891
236	0xbcd34cf4	-0.02579353
237	0x3df4e672	0.119580165
238	0x3dd6452c	0.10462412
239	0x3d58cbff	0.05292892
240	0x3a348aec	0.0006887156
241	0x3db99731	0.090620406
242	0xbdd7c990	-0.10536492
243	0x3db58672	0.08863534
244	0x3d9398ab	0.072068535
245	0xbdb3a801	-0.087722786
246	0xbdd53ca7	-0.10411959
247	0x3dd39498	0.103310764
248	0x3d363b7f	0.044490334
249	0xbc07feef	-0.008300527
250	0x3e1d7ea3	0.1538034
251	0x3db75cd3	0.08953252
252	0xbe7426fb	-0.23842995
253	0x3de477ec	0.11155686
254	0x3e062d83	0.13103299
255	0xbe214bef	-0.15751623

a2c_network.actor_mlp.2.bias f4 [128]
0	0x3d1c3e43	0.038145315
1	0xbda0e9f8	-0.07857126
2	0xbc8b178e	-0.016979005
3	0xbe648988	-0.22318089
4	0xbd3a8f37	-0.045546737
5	0x3cc6e92a	0.024281103
6	0xbec233c2	-0.37930113
7	0xbe6284f8	-0.22121036
8	0xbde99cfc	-0.114068955
9	0x3e381f5f	0.17980717
10	0x3d127c56	0.035763107
11	0xbdc29893	-0.095017575
12	0xbe037126	-0.12836131
13	0x3dc8abb3	0.09798374
14	0x3e6482e2	0.22315553
15	0xbe995400	-0.299469
16	0x3e435722	0.19076207
17	0x3d907a08	0.070545256
18	0x3d7caaa9	0.06168619
19	0x3dd06553	0.10175576
20	0xbe175bd1	-0.14781119
21	0x3db8359a	0.08994599
22	0x3e301afc	0.17197794
23	0x3db30106	0.087404296
24	0x3e23b7f3	0.1598814
25	0x3dda49ca	0.106586054
26	0x3e0afadf	0.13572262
27	0xbe2ce1f4	-0.1688307
28	0x3e30f616	0.17281374
29	0xbe9b797f	-0.30366132
30	0xbe80a756	-0.25127667
31	0xbe285b9e	-0.16441199
32	0xbc8920d7	-0.016739292
33	0xbde06296	-0.10956304
34	0xbe89f698	-0.2694595
35	0xbc7b6cab	-0.015345733
36	0x3e0ffcb3	0.14061241
37	0xbdfbf724	-0.12302998
38	0x3e421a8b	0.18955438
39	0x3dc202f5	0.0947322
40	0xbeaa8f5b	-0.33312497
41	0x3dde5835	0.10856668
42	0xbe5c9c3b	-0.21543972
43	0xbc18b1cb	-0.009319733
44	0xbe2ba3c8	-0.16761696
45	0x3df48009	0.11938483
46	0x3bcdd91a	0.006281984
47	0x3cdeedb5	0.027212957
48	0xbe94b431	-0.29043725
49	0x3dd540d6	0.10412757
50	0xbdf9b166	-0.12192039
51	0x3e02a632	0.12758711
52	0x3da57aa7	0.08080035
53	0xbe762601	-0.24037935
54	0x3c6a21e7	0.0142903095
55	0x3e0d7e56	0.13817725
56	0x3c279f32	0.010230826
57	0xbc6fcef8	-0.014636748
58	0xbe100dfa	-0.14067832
59	0x3e2700bf	0.16308878
60	0xbdc8b314	-0.097997814
61	0xbd92a9ef	-0.071613185
62	0xbe7a073b	-0.2441682
63	0xbebafde4	-0.36521828
64	0xbe35f711	-0.1777003
65	0xbe852d9e	-0.26011366
66	0x3c350036	0.011047414
67	0xbe261c6c	-0.1622178
68	0x3da890ec	0.08230767
69	0x3af3e0b8	0.00186064
70	0xbddd3665	-0.108013906
71	0xbd40c3d2	-0.04706175
72	0xbde0b459	-0.109718986
73	0x3c94cde0	0.018164575
74	0x3dcef984	0.10106185
75	0x3e2a5fd7	0.16638122
76	0x3e079ebb	0.13244145
77	0xbe0ce594	-0.13759452
78	0x3ab675ea	0.0013920639
79	0xbcb62745	-0.022235522
80	0x3d841bbb	0.06450602
81	0x3e2a3c0d	0.1662447
82	0x3dd01d38	0.10161823
83	0x3d790587	0.060796287
84	0xbd447545	-0.0479634
85	0x3aa245eb	0.0012380456
86	0x3e293d1e	0.1652722
87	0x3e3f9a13	0.18711118
88	0x3dbd5af6	0.09245865
89	0x3e486f2a	0.19573656
90	0xbd9cf3e7	-0.07663708
91	0x3dbe7572	0.09299745
92	0xbe87d8d6	-0.2653262
93	0x3e59ceac	0.21270245
94	0xbdbb6c8d	-0.09151564
95	0x3d7246d3	0.059149574
96	0x3d3ef07d	0.046616066
97	0xbd1d32f3	-0.038378667
98	0x3e2d8289	0.16944326
99	0xbe0bfac7	-0.13669883
100	0xbca6c769	-0.020358758
101	0xbdfb6929	-0.12275917
102	0x3e1c45dc	0.15261024
103	0xbe8a18c3	-0.26972017
104	0x3dfcac1b	0.12337514
105	0xbe976896	-0.2957198
106	0xbda6d25e	-0.08145593
107	0xbe05fa77	-0.13083826
108	0x3e1e7ede	0.15478083
109	0xbe64ed2e	-0.22356102
110	0xbe068480	-0.13136482
111	0xbe153440	-0.14570713
112	0x3dda986c	0.106736034
113	0xbccbb8d4	-0.024868406
114	0x3de74742	0.11292888
115	0x3d1d2c08	0.03837207
116	0xbe5078cc	-0.2035858
117	0xbe298d63	-0.16557841
118	0x3c19d72a	0.009389678
119	0x3e6dadc6	0.2321082
120	0xbe254636	-0.16140065
121	0xbd6a7f6b	-0.05725042
122	0xbe85d8b1	-0.26141885
123	0xbef10a3c	-0.4707812
124	0x3e0e7ecf	0.13915561
125	0xbe0e4d56	-0.13896689
126	0xbe719c2c	-0.23594731
127	0xbee90d09	-0.45517758

a2c_network.critic_mlp.0.weight f4 [128, 376]
0	0xbe14b632	-0.14522627
1	0xbe0c72aa	-0.13715616
2	0xbe0da37e	-0.13831899
3	0xbce3669d	-0.02775889
4	0xbb443d21	-0.0029943662
5	0x3dbf6b18	0.093465984
6	0xbda53498	-0.08066672
7	0x3cbe7134	0.023247339
8	0xbe0fc012	-0.14038113
9	0xbe932647	-0.2874014
10	0xbe779f25	-0.24181803
11	0x3c722591	0.014779464
12	0x3e4358ce	0.19076845
13	0x3d828738	0.06373447
14	0x3e225386	0.15852174
15	0x3f0011f8	0.5002742
16	0x3de7137f	0.112830155
17	0x3e99da95	0.30049577
18	0xbeaf30a8	-0.3421681
19	0x3dd56ca4	0.10421112
20	0x3dc1c4f8	0.09461397
21	0x3de0d1f3	0.10977545
22	0x3d8f9efb	0.07012745
23	0x3baa6c36	0.005200888
24	0xbc29b0bd	-0.010357079
25	0x3e5061b5	0.20349772
26	0xbc46c074	-0.012130845
27	0x3e607b4e	0.21922037
28	0x3d9ff6a0	0.07810712
29	0x3cb6ebf7	0.022329314
30	0x3e6276bc	0.22115606
31	0xbc16b86e	-0.009199245
32	0x3d576be1	0.052593116
33	0xbb8528e6	-0.0040637134
34	0x3c3d33ba	0.011547977
35	0x3c74e33c	0.014946755
36	0x3de41be9	0.11138136
37	0x3dd6dbb4	0.10491124
38	0x3e8c09d6	0.27351254
39	0x3ed271e8	0.4110253
40	0x3e32c25e	0.17456958
41	0xbe900c05	-0.2813417
42	0x3cf50bf3	0.029912924
43	0x3da2faf8	0.07958025
44	0x3db7115f	0.0893886
45	0x3dd87648	0.10569435
46	0xbd3ec196	-0.046571337
47	0xbe4cb0e2	-0.1998935
48	0xbd001f26	-0.031279705
49	0xbd620215	-0.055177767
50	0x3c05054f	0.008118941
51	0x3bd2378a	0.006415312
52	0xbdc02fbf	-0.09384107
53	0x3d483d04	0.048886314
54	0x3d53bd7d	0.051694382
55	0x3ce81d5f	0.028334318
56	0xbcda0e26	-0.026618075
57	0xbd93083e	-0.071793064
58	0xbc5758e9	-0.013143756
59	0x3dfb38b2	0.12266673
60	0xbd1ea2da	-0.038729526
61	0xbe5481ab	-0.2075259
62	0xbe8f4fda	-0.2799061
63	0x38d2dc84	0.000100546546
64	0xbd2a7d98	-0.04162368
65	0xbd0ff0f0	-0.035141885
66	0x3ba4f52e	0.0050341105
67	0x3ca1b9cd	0.019741917
68	0xbddfc59a	-0.109263614
69	0x3d258843	0.040413152
70	0x3d2cc451	0.04217941
71	0x3cebbe0a	0.028777141
72	0x3de46308	0.11151701
73	0xbd8d7158	-0.06906384
74	0xbbe8e4f1	-0.00710737
75	0xbd0dd13e	-0.034623377
76	0xbde40910	-0.11134541
77	0xbe8a5898	-0.27020717
78	0x3cbac32a	0.02279814
79	0xbdcdb4f2	-0.10044278
80	0xbdb53f2e	-0.08849941
81	0x3d81425e	0.06311487
82	0xbcdd6158	-0.027023956
83	0xbc68ba28	-0.014204539
84	0x3d9f11b2	0.07767047
85	0x3dd84be1	0.10561348
86	0xbbeeaf72	-0.0072840983
87	0x3cf149aa	0.029454071
88	0xbd5ccc03	-0.0539055
89	0xbb0683a3	-0.002052524
90	0xbd89ac25	-0.06722287
91	0xbd373d54	-0.04473622
92	0xbd416d7d	-0.047223557
93	0xbd7a282a	-0.06107346
94	0xbb74262b	-0.0037254195
95	0xbcfa7e3f	-0.030577777
96	0xbbef7eb2	-0.0073088044
97	0xbd46da6a	-0.04854814
98	0xbd77305e	-0.06034886
99	0x3b8acf5f	0.0042361463
100	0x3b29379b	0.0025820497
101	0xbbd1a75e	-0.0063981256
102	0xbc5f7b9e	-0.0136403125
103	0xbd45f407	-0.048328426
104	0xbc6311e7	-0.013859249
105	0x3c3ce107	0.01152826
106	0xbc9bb416	-0.01900677
107	0xbcb72eb9	-0.022361146
108	0x3d407e7b	0.04699562
109	0x3da36716	0.079786465
110	0x3d5e1532	0.054219432
111	0xbd0fe127	-0.03512683
112	0x3c42c162	0.011886926
113	0xbcefb631	-0.02926168
114	0x3c1b093c	0.009462651
115	0xbc20b67c	-0.009809133
116	0xbd1c76e0	-0.038199306
117	0x3ca8fe29	0.020629006
118	0x3cf23f43	0.029571181
119	0x3d5e0e21	0.054212693
120	0x3d14cdf4	0.036329225
121	0x3c46c53d	0.012131986
122	0xbcbd7ec3	-0.023131734
123	0x3bcbf4ec	0.0062242653
124	0xbc9e2ef5	-0.0193095
125	0x3c99cad4	0.018773474
126	0x3ce82ce9	0.028341727
127	0x3c9c50f2	0.019081566
128	0x3c8700e6	0.01647992
129	0x3bd7bce6	0.0065837977
130	0x3cdaec93	0.026724136
131	0x3c9fb11f	0.019493638
132	0x3be978f6	0.0071250154
133	0x3c362cd6	0.011119088
134	0x3cc588ea	0.024113137
135	0x3c14ab6d	0.009074074
136	0x3c860c2c	0.016363226
137	0x3c3d36e4	0.0115487315
138	0xbd36d92d	-0.04464071
139	0x3d4694d9	0.048481796
140	0xba5a36a5	-0.00083241827
141	0x3ccb8299	0.024842547
142	0xbcc03afe	-0.02346563
143	0xbd00b167	-0.031419184
144	0x3c691353	0.014225799
145	0xbc682870	-0.014169797
146	0xbcc49840	-0.02399838
147	0xba8ef666	-0.0010907173
148	0x3c1584de	0.009125916
149	0x3d0bd997	0.034143057
150	0xbc595754	-0.01326545
151	0x3d060496	0.032719217
152	0xbda7657e	-0.08173655
153	0xbd8ca0e9	-0.06866629
154	0x3d8847b2	0.066543
155	0x3d895bb8	0.06706947
156	0x3da11351	0.078650124
157	0x3db821a6	0.08990793
158	0x3d92c344	0.0716615
159	0xbd203696	-0.039114557
160	0xbc1ce89e	-0.009576945
161	0x3d0accca	0.03388671
162	0x3bbd0ec2	0.0057695815
163	0x3d58ef38	0.05296251
164	0xbc9fc22a	-0.019501764
165	0xbc98dd33	-0.018660164
166	0xba2a100d	-0.0006487377
167	0x3cf31047	0.029670848
168	0x3d336522	0.04379762
169	0xbcc65cb9	-0.024214135
170	0x3d33567e	0.043783657
171	0x3ce54e84	0.02799154
172	0xbcde50b0	-0.027138084
173	0x3d34376f	0.043998178
174	0xbccb5ac6	-0.024823558
175	0xbca042f2	-0.019563172
176	0x3d861253	0.06546464
177	0xbb66a54f	-0.0035193746
178	0x3cb16134	0.021652795
179	0xbcdb131b	-0.026742509
180	0x3b1bf16f	0.0023795029
181	0x3cc85b8d	0.024457717
182	0xbcdeb4d5	-0.027185837
183	0x3d617aaa	0.055048622
184	0xbcb79d86	-0.02241398
185	0xbc64b75b	-0.013959731
186	0x3c86ef91	0.016471656
187	0xbd576ec6	-0.052595876
188	0x3cbec90e	0.02328923
189	0xbbdd17be	-0.006747215
190	0xbb49d9ee	-0.0030800062
191	0x3b712326	0.0036794632
192	0xbccada73	-0.024762368
193	0x3d02944f	0.03187972
194	0x3b5add37	0.0033396014
195	0xbc95e1c6	-0.018296134
196	0x3cec8d78	0.028876051
197	0xbd36a808	-0.04459384
198	0x393a9e88	0.000177974
199	0xbc89dcaf	-0.016828863
200	0xbcc7e54b	-0.024401328
201	0xbb499b45	-0.0030762714
202	0xbdb4d13b	-0.0882897
203	0xbb60d5e7	-0.0034307183
204	0xbc1d1a97	-0.009588859
205	0x3d058cd1	0.032604996
206	0x3da057e3	0.07829263
207	0xbd4b7e7c	-0.04968117
208	0x3cd59d32	0.026075933
209	0xbd7940c9	-0.0608528
210	0xbd0f279e	-0.03494989
211	0xbcb36ca6	-0.021902394
212	0xbd4dbcac	-0.05022876
213	0xbd2cd994	-0.042199686
214	0xbd1fe340	-0.039035082
215	0x3cfff59d	0.031245047
216	0x3db643f8	0.08899683
217	0xbca5f86f	-0.020260064
218	0x3d204268	0.03912583
219	0xbc09f51e	-0.008420257
220	0xbbd826b4	-0.0065964106
221	0x3ca35d1b	0.019941857
222	0xbe65ea84	-0.22452742
223	0x3d248fa4	0.04017605
224	0xbea72c15	-0.3265082
225	0x3e13fa86	0.14451036
226	0x3e2fb27f	0.17157935
227	0xbe39c8fe	-0.18143079
228	0x3e0a6907	0.13516627
229	0xbc035ea9	-0.008018174
230	0x3c6da347	0.01450426
231	0x3a9647a8	0.0011465447
232	0x3dc8cdaf	0.09804856
233	0xbcb8bda2	-0.022551361
234	0xbbd1522b	-0.006387969
235	0xbcdb5748	-0.026775017
236	0xbca893b3	-0.020578241
237	0xbd8de6e0	-0.069288015
238	0x3b0cf0ec	0.0021505905
239	0x3d940421	0.0722735
240	0x3ca7f571	0.020502778
241	0xbc7e4ed1	-0.015521721
242	0x3d0145ea	0.031560816
243	0xbd520cdd	-0.0512818
244	0x3c980280	0.01855588
245	0xbd5602fa	-0.052248932
246	0xbd5b1618	-0.053487867
247	0xbe093c7f	-0.13401984
248	0xbd860ff0	-0.065460086
249	0x3d1f2a8a	0.038858928
250	0x3cbe6e15	0.02324585
251	0xbbe07068	-0.0068493374
252	0xbcf8e547	-0.030382765
253	0xbdedb6f2	-0.1160716
254	0xbd82e103	-0.06390574
255	0xbcfe16b5	-0.031016687
